models/model.tflite (tflite, 243080 bytes, 25 tensors)

sequential/conv2d/BiasAdd/ReadVariableOp f4 [28]
0.37261948 0.46258605 0.9421847 0.66090375 0.3932036 -0.32512024 0.5474243 0.02769616
-0.39209247 0.38213113 0.11719068 1.3331208 0.6413971 0.9766589 -0.2688544 0.5963345
0.2229348 0.031367593 0.12906133 -0.36856675 0.76808256 0.41295737 0.4076192 0.30689386
0.33881202 -0.02896598 0.452194 0.15198383
00000000: fbc7 be3e 14d8 ec3e 0433 713f fd30 293f
00000010: fb51 c93e 2976 a6be 0024 0c3f 0fe3 e23c
00000020: 58c0 c8be b1a6 c33e ab01 f03d b4a3 aa3f
00000030: 9a32 243f 5106 7a3f 49a7 89be 61a9 183f
00000040: 0549 643e 4e7b 003d a728 043e c8b4 bcbe
00000050: 0fa1 443f 266f d33e 77b3 d03e 3121 9d3e
00000060: c578 ad3e 104a edbc f985 e73e a6a1 1b3e

sequential/conv2d_1/BiasAdd/ReadVariableOp f4 [32]
0.06732197 -0.07051006 -0.010145129 0.55549216 0.12122179 0.03981083 0.34728038 0.10096224
0.32287508 0.15762475 0.4455623 0.13603298 -0.07901041 0.4539767 0.15707408 0.13677105
0.22324215 0.26789883 0.2498284 0.26393396 0.089341186 0.21658808 0.30820164 0.2538495
0.48351857 -0.50956887 -0.057164706 -0.090964735 0.10768417 0.18598667 0.33304378 0.094407864
00000000: 1ae0 893d 9467 90bd c137 26bc bc34 0e3f
00000010: 2143 f83d ae10 233d bcce b13e 4ac5 ce3d
00000020: e24f a53e 6268 213e be20 e43e 3b4c 0b3e
00000030: 36d0 a1bd a26f e83e 07d8 203e b60d 0c3e
00000040: 9799 643e 092a 893e 04d3 7f3e 5a22 873e
00000050: 83f8 b63d 44c9 5d3e 9bcc 9d3e 90f8 813e
00000060: bf8f f73e 1b73 02bf 8a25 6abd b84b babd
00000070: 8589 dc3d 4a73 3e3e b784 aa3e e958 c13d

sequential/conv2d_2/BiasAdd/ReadVariableOp f4 [60]
-0.3420418 -0.26768374 -0.18469957 -0.41407007 -0.056594487 -0.17217705 -0.253884 -0.35086778
0.0013319486 0.014659463 -0.24271394 -0.43017837 -0.36599308 -0.3640682 -0.13146786 -0.2477339
-0.36423805 -0.041666996 -0.18045983 0.14740846 -0.1930087 -0.03703984 -0.9411005 -0.2712756
-0.19510198 -0.65972155 0.09045717 -0.021626495 -0.029555505 -0.45797086 -0.02480207 0.005823311
-0.045409493 -0.5945417 -0.450931 -0.32895577 -0.02848452 -0.30591202 -0.45294338 -0.26545015
0.040778782 -0.15501858 -0.18447624 0.29294777 0.04638789 -0.7047556 -0.18412594 0.06551639
-0.4968638 -0.12434459 -0.04624592 -0.08207706 -0.20599747 -0.3734806 0.20653424 -0.4403734
-0.054434016 -0.27195162 0.16202419 -0.19815665
00000000: 1a20 afbe d80d 89be e221 3dbe fe00 d4be
00000010: 9fcf 67bd 2e4f 30be 15fd 81be f1a4 b3be
00000020: c794 ae3a 3f2e 703c 018a 78be 5740 dcbe
00000030: 7263 bbbe 2667 babe 839f 06be f5ad 7dbe
00000040: 697d babe 03ab 2abd 76ca 38be 3ef2 163e
00000050: 13a4 45be 16b7 17bd f6eb 70bf a3e4 8abe
00000060: d0c8 47be 83e3 28bf 9c41 b93d 0c2a b1bc
00000070: 631e f2bc 287b eabe b62d cbbc 79d1 be3b
00000080: 4eff 39bd e333 18bf 6ee0 e6be e46c a8be
00000090: 5e58 e9bc 80a0 9cbe 32e8 e7be 15e9 87be
000000a0: a707 273d 31bd 1ebe 57e7 3cbe 40fd 953e
000000b0: 3a01 3e3d dd6a 34bf 838b 3cbe 752d 863d
000000c0: ef64 febe 60a8 febd 5d6c 3dbd 0518 a8bd
000000d0: 00f1 52be d938 bfbe b67d 533e 9f78 e1be
000000e0: 34f6 5ebd 3e3d 8bbe abe9 253e 94e9 4abe

sequential/conv2d/Conv2D f4 [28, 3, 3, 1]
0.38886383 -0.11867148 -8.5306034e-05 -0.12008977 -0.21523793 -0.34738284 0.13047044 0.011197882
-0.16356488 0.46998447 0.16541167 -0.23106784 0.12051509 -0.26418936 -0.038787432 -0.21892184
0.016384115 0.26364845 -0.3258386 -0.20029221 0.14746805 0.29759023 -0.029983368 -0.14790697
0.20255637 0.18054931 -0.117493056 0.34517398 0.13491343 0.3341323 -0.31618392 0.030031662
-0.18608344 -0.24301927 0.049275212 0.03084369 0.17773584 -0.22467613 0.080673695 -0.24315538
-0.17646024 -0.22729476 0.3284523 0.041634794 -0.033816826 0.220688 -0.3176157 -0.3756307
-0.04549638 -0.09120162 0.03360417 -0.011598992 -0.3405658 -0.0915867 -0.29676357 -0.00776157
0.014007614 -0.28726727 -0.12230929 0.19399534 0.47353232 -0.00023070733 0.0666728 -0.14649126
-0.022244418 0.19885944 0.12694101 -0.07682844 0.6914599 -0.19875477 0.041269284 0.3386126
0.09730381 -0.4710308 0.07991429 0.22919291 -0.25577694 -0.01762391 -0.0077240095 -0.31443012
0.24333362 -0.30332905 0.32012865 0.13597995 0.22811845 0.15602307 -0.26423973 0.2431654
-0.23866153 -0.06429156 0.12336331 0.35887167 0.31710747 0.3828228 0.06898408 0.04921724
-0.28134388 -0.09977945 0.11108119 0.28204632 0.20676914 -0.21181022 0.2657129 0.10534879
-0.28183308 0.012249404 -0.073727705 -0.12461275 -0.18557465 -0.16368279 0.11965803 0.39308324
0.47176337 0.10225049 -0.16885258 -0.09948128 0.13523853 0.17838258 -0.09952484 -0.29800904
0.15598173 0.051435985 -0.29850233 0.17701025 0.27216744 0.080712974 0.27871093 -0.124533206
0.28550854 0.04320783 -0.21578543 -0.15792236 -0.39381737 -0.3517118 0.03821934 -0.087147266
-0.2428576 -0.14976823 0.054115668 -0.25164622 -0.21394528 -0.03533274 0.38787767 0.29464275
-0.07147305 0.41526088 -0.14833924 -0.24837911 0.21050099 0.19907723 -0.29908422 -0.037253372
0.23618238 -0.17833178 -0.07983204 0.1736216 -0.20488669 0.13514134 0.24889152 0.17307927
0.24818887 -0.4536384 0.19202137 0.21844524 -0.031128453 0.0059323944 -0.13026513 0.14890191
0.49946874 0.07067472 0.22372594 0.023156546 -0.05642415 0.071365006 -0.07805071 0.061398454
0.24512936 0.33919325 0.18368618 -0.043233223 0.22939591 0.21688339 0.2541005 -0.059687383
-0.39714265 -0.33510724 0.14909865 -0.04153347 0.013208765 0.25656217 0.1767734 -0.13966714
0.24391225 -0.19855542 -0.16407554 0.31094357 -0.1799805 0.077766605 0.059034415 -0.15697712
-0.020634571 0.49763036 -0.11592091 -0.1631959 0.14568277 0.20411476 0.16659091 0.2402896
0.26343277 0.40361723 -0.1384478 -0.07269628 0.2914774 -0.13171726 -0.30685857 -0.0423008
-0.32189795 -0.07278927 0.06273793 -0.01571278 0.05724 0.42732272 -0.27263656 -0.07742961
0.31675714 -0.21699801 -0.2202425 -0.053430956 -0.06897597 -0.11172107 0.09667651 -0.40189627
-0.3921678 -0.26180142 0.13586372 0.2748827 -0.008309073 -0.073719285 -0.24828345 -0.34812987
0.008175421 0.2024165 0.20773187 -0.15581039 -0.03985008 0.28432932 -0.10318189 0.11106378
0.4589701 -0.05428072 -0.33119658 -0.037676387
00000000: 2919 c73e 080a f3bd 54e6 b2b8 a0f1 f5bd
00000010: 5567 5cbe 2adc b1be 0b9a 053e 5277 373c
00000020: 8d7d 27be cea1 f03e ad61 293e 0c9d 6cbe
00000030: 9ed0 f63d d443 87be 92df 1ebd 0c2d 60be
00000040: fb37 863c eefc 863e 51d4 a6be 6719 4dbe
00000050: dd01 173e bf5d 983e ae9f f5bc ed74 17be
00000060: f06a 4f3e ebe1 383e 33a0 f0bd a5ba b03e
00000070: bf26 0a3e 6413 ab3e dce2 a1be f604 f63c
00000080: a88c 3ebe 0bda 78be ced4 493d e8ab fc3c
00000090: 6200 363e 8011 66be 4038 a53d b9fd 78be
000000a0: feb1 34be f5bf 68be e62a a83e 3f89 2a3d
000000b0: 8383 0abd 09fc 613e 869e a2be ab52 c0be
000000c0: 6a5a 3abd eac7 babd 87a4 093d b309 3ebc
000000d0: a45e aebe cf91 bbbd 65f1 97be c554 febb
000000e0: 3180 653c b214 93be 4b7d fabd b7a6 463e
000000f0: d472 f23e 07ea 71b9 c08b 883d ce01 16be
00000100: ed39 b6bc cfa1 4b3e d3fc 013e 3b58 9dbd
00000110: 8403 313f 5f86 4bbe fb09 293d a15e ad3e
00000120: 3847 c73d f32a f1be 1aaa a33d 8cb1 6a3e
00000130: 32f5 82be 0560 90bc b019 fdbb fcfc a0be
00000140: 732c 793e f24d 9bbe e7e7 a33e 543e 0b3e
00000150: e297 693e 83c4 1f3e 6e4a 87be 5a00 793e
00000160: b063 74be 4bab 83bd e7a5 fc3d 07be b73e
00000170: e95b a23e 5a01 c43e 8647 8d3d 0498 493d
00000180: 4e0c 90be 2b59 ccbd 897e e33d 6068 903e
00000190: 4abb 533e c7e4 58be 850b 883e 1bc1 d73d
000001a0: 6d4c 90be b9b1 483c 8dfe 96bd f834 ffbd
000001b0: 4807 3ebe 769c 27be 450f f53d 3542 c93e
000001c0: f88a f13e b468 d13d b1e7 2cbe d7bc cbbd
000001d0: f87b 0a3e eca9 363e aed3 cbbd a494 98be
000001e0: adb9 1f3e 8aae 523d 4cd5 98be 2d42 353e
000001f0: 8859 8b3e d84c a53d 33b3 8e3e 440b ffbd
00000200: 2d2e 923e b2fa 303d dbf6 5cbe 66b6 21be
00000210: 6ea2 c9be 9213 b4be e28b 1c3d 447a b2bd
00000220: aaaf 78be d85c 19be 64a8 5d3d c6d7 80be
00000230: 7914 5bbe 10b9 10bd e797 c63e 6adb 963e
00000240: 7660 92bd 139d d43e 3ee6 17be 1857 7ebe
00000250: 928d 573e e7da 4b3e 9121 99be fe96 18bd
00000260: cbd9 713e 9b9c 36be fb7e a3bd dcc9 313e
00000270: d1cd 51be 7e62 0a3e 6bdd 7e3e b13b 313e
00000280: 3925 7e3e 4b43 e8be 40a1 443e 1cb0 5f3e
00000290: 1901 ffbc 8864 c23b 3964 05be be79 183e
000002a0: 5eba ff3e e8bd 903d 6a18 653e ccb2 bd3c
000002b0: 021d 67bd d127 923d 0dd9 9fbd f27c 7b3d
000002c0: 3103 7b3e bdaa ad3e 3b18 3c3e 5215 31bd
000002d0: c3e6 6a3e ae16 5e3e 7619 823e c27a 74bd
000002e0: 4856 cbbe 2d93 abbe 51ad 183e 001f 2abd
000002f0: 9369 583c 1e5c 833e 1604 353e e704 0fbe
00000300: 22c4 793e 1d52 4bbe 6b03 28be ff33 9f3e
00000310: cf4c 38be 1944 9f3d 12ce 713d 9cbe 20be
00000320: d509 a9bc 68c9 fe3e f167 edbd d31c 27be
00000330: dd2d 153e 7603 513e cf96 2a3e 7a0e 763e
00000340: a9e0 863e eba6 ce3e 43c5 0dbe cae1 94bd
00000350: 873c 953e e4e0 06be 911c 9dbe 9b43 2dbd
00000360: cfcf a4be 8a12 95bd be7c 803d 17b8 80bc
00000370: 7e74 6a3d 0bca da3e 0597 8bbe 6a93 9ebd
00000380: fe2d a23e ba34 5ebe 4087 61be 6bda 5abd
00000390: 4643 8dbd 04ce e4bd 56fe c53d 59c5 cdbe
000003a0: 38ca c8be d60a 86be dc1f 0b3e 6dbd 8c3e
000003b0: c722 08bc 23fa 96bd 043e 7ebe 143e b2be
000003c0: 33f2 053c 4546 4f3e aab7 543e c28c 1fbe
000003d0: d639 23bd 9d93 913e 0751 d3bd 6875 e33d
000003e0: 21fe ea3e 7655 5ebd 9992 a9be 8e52 1abd

sequential/conv2d_1/Conv2D f4 [32, 3, 3, 28]
0.24554525 -0.18004666 -0.19575295 -0.17852375 -0.16907546 -0.056661006 -0.11320065 -0.3258308
0.13461821 -0.5513795 0.10255419 -0.5532075 -0.1047236 0.21791863 0.008936627 0.0038101727
-0.23285681 -0.22647066 0.08626751 0.015615765 -0.56335235 -0.04115859 0.093313366 -0.49297756
0.09375215 0.06403785 -0.2073768 0.023385152 -0.55127805 -0.7027526 0.003036637 -0.059720486
-0.33576837 -0.15222767 0.24394852 -0.11512411 -0.16458671 -0.14613616 -0.09959191 -0.4015286
0.035260037 -0.20738775 -0.31169146 -0.03902039 0.3816844 0.03947859 -0.29510576 -0.010717095
-0.33113316 -0.5219201 -0.086990274 0.20835145 0.7790528 -0.005696718 -0.114071235 0.55895704
-0.12952717 -0.02188596 0.02072641 0.11014929 -0.03521526 -0.22372764 -0.052754372 0.1274201
-0.21384181 -0.16233021 -0.19940227 0.24067684 -0.028324509 0.13005273 -0.48009124 -0.088586815
0.15911019 -0.16334791 -0.02391501 0.27974287 -0.16853583 0.01322998 0.024591109 -0.18240824
0.019342408 -0.1879341 -0.07414851 -0.1764149 0.16674398 -0.37148684 -0.4571353 -0.12337864
0.052297167 0.10198657 -0.01572498 -0.34428152 0.016245548 -0.18705526 -0.24689266 -0.42894232
-0.12242549 -0.37618455 0.10160165 -0.14355938 0.0929096 0.17365706 0.12656933 -0.17542513
-0.0702547 -0.1693952 -0.1543361 -0.14043288 0.22787672 0.095886074 -0.64892155 0.064466596
-0.16823629 -0.03495885 0.20330775 0.08980368 -0.4934718 -0.151165 -0.013874871 -0.21910378
-0.1209514 -0.048693683 -0.29549366 -0.20087774 -0.12359559 -0.14227325 -0.04325235 -0.2975711
0.021637982 -0.053194713 0.089207046 -0.14160872 0.05213221 -0.53488106 -0.10618053 -0.04829894
0.7325617 -0.10743953 -0.055836115 0.38300937 -0.19134176 -0.020582812 0.20762457 0.5796565
-0.18611304 -0.5261165 -0.15017736 0.22629301 -0.7418523 -0.1305746 0.17655225 0.20134272
0.13843109 0.3080505 -0.23662809 0.15485154 0.4405986 0.03371761 -0.014932222 -0.25644502
0.3425241 -0.11883322 -0.21335271 0.1811466 0.02186863 -0.34511855 0.42138997 -0.0033569816
0.17204909 -0.19963485 -0.19538224 -0.3757436 -0.19229789 0.2820094 -0.16908434 -0.25860125
0.34916213 -0.29832482 -0.091491096 -0.27068335 -0.4144861 -0.027888477 0.11768206 -0.08606001
-0.035488043 -0.34153873 0.19325303 0.13527869 -0.49013928 0.07053786 -0.39950818 -0.21821326
0.0752438 0.34294873 -0.23625855 -0.12712894 -0.334369 -0.18411393 -0.095738485 -0.15766451
0.08096929 -0.028424438 0.16998887 -0.041257795 0.19854665 -0.15006986 0.049114253 -0.18546157
-0.31745684 0.3138636 0.10117372 0.038175434 -0.011238329 -0.0645671 0.15545656 -0.18652366
0.019440055 0.101887755 -0.069859795 0.19279441 0.12930791 0.09660597 -0.1476796 0.16437
-0.10717134 0.10633591 -0.020453667 0.3849629 -0.020860218 -0.022733778 0.041999176 0.20703568
-0.29720807 -0.16189966 -0.010844118 0.117885 0.12500182 0.036750853 -0.038986098 -0.013088697
0.2229852 0.1468575 0.2859051 -0.6510269 0.19006248 -0.08619124 -0.023624213 0.3688416
0.2948965 0.044214126 0.20487872 0.16144764 -0.089788914 -0.021255003 -0.12455778 -0.35816437
00000000: 3770 7b3e 275e 38be 7673 48be eece 36be
00000010: 1e22 2dbe 5f15 68bd bed5 e7bd 4bd3 a6be
00000020: 5bd9 093e 3527 0dbf ee07 d23d 029f 0dbf
00000030: 5479 d6bd 1026 5f3e ee6a 123c 17b4 793b
00000040: 0472 6ebe ede7 67be 05ad b03d 44d9 7f3c
00000050: dc37 10bf e995 28bd 141b bf3d 8e67 fcbe
00000060: 2101 c03d 4726 833d 955a 54be 3892 bf3c
00000070: 8f20 0dbf 98e7 33bf 5102 473b 789d 74bd
00000080: d5e9 abbe 92e1 1bbe a4cd 793e 30c6 ebbd
00000090: 6b89 28be b8a4 15be d8f6 cbbd 2895 cdbe
000000a0: d46c 103d 745d 54be 0696 9fbe d8d3 1fbd
000000b0: 236c c33e 4db4 213d 1a18 97be c196 2fbc
000000c0: 498a a9be 8e9c 05bf f527 b2bd 155a 553e
000000d0: 0170 473f 89ab babb 2e9e e9bd cf17 0f3f
000000e0: c5a2 04be 2f4a b3bc 6fca a93c f395 e13d
000000f0: e03d 10bd dc18 65be f814 58bd 6a7a 023e
00000100: 59f9 5abe e439 26be 1c30 4cbe fd73 763e
00000110: cd08 e8bc 8b2c 053e 85ce f5be 016d b5bd
00000120: c8ed 223e ad44 27be 69e9 c3bc 753a 8f3e
00000130: a894 2cbe 8fc2 583c 4b73 c93c 3ac9 3abe
00000140: f873 9e3c cc71 40be 2ddb 97bd 1ca6 34be
00000150: efbe 2a3e 8633 bebe a30d eabe f1ad fcbd
00000160: 8e35 563d 56de d03d acd1 80bc ab45 b0be
00000170: 6215 853c 6a8b 3fbe 6ed1 7cbe 549e dbbe
00000180: 37ba fabd 439b c0be 8714 d03d 3b01 13be
00000190: 6347 be3d 28d3 313e 649b 013e a5a2 33be
000001a0: b2e1 8fbd ef75 2dbe 480a 1ebe a3cd 0fbe
000001b0: 8458 693e eb5f c43d b91f 26bf 1007 843d
000001c0: 2246 2cbe 0331 0fbd e82f 503e feea b73d
000001d0: 56a8 fcbe ffca 1abe 6d53 63bc be5c 60be
000001e0: 5eb5 f7bd 0773 47bd f24a 97be e5b2 4dbe
000001f0: af1f fdbd 14b0 11be 6029 31bd 3d5b 98be
00000200: 2342 b13c b3e2 59bd 2fb2 b63d e001 11be
00000210: 9688 553d f7ed 08bf 2d75 d9bd 1cd5 45bd
00000220: 2a89 3b3f 4209 dcbd 69b4 64bd ce19 c43e
00000230: 18ef 43be 499d a8bc 899b 543e 5e64 143f
00000240: 6b94 3ebe 92af 06bf 18c8 19be 5bb9 673e
00000250: 08ea 3dbf 59b5 05be 1dca 343e c92c 4e3e
00000260: e1c0 0d3e ccb8 9d3e a24e 72be 6791 1e3e
00000270: 2496 e13e 7a1b 0a3d 47a6 74bc c34c 83be
00000280: 525f af3e d55e f3bd 2279 5abe 7f7e 393e
00000290: d725 b33c 61b3 b0be 6dc0 d73e ce00 5cbb
000002a0: a32d 303e 146d 4cbe 4812 48be 7761 c0be
000002b0: bde9 44be 8963 903e 7224 2dbe 6267 84be
000002c0: 61c5 b23e 08be 98be af5f bbbd 0297 8abe
000002d0: 8637 d4be 6076 e4bc 4b03 f13d 3b40 b0bd
000002e0: e95b 11bd 2ade aebe 1fe4 453e 7f86 0a3e
000002f0: 89f3 fabe 2776 903d 568c ccbe 4c73 5fbe
00000300: 6c19 9a3d fa96 af3e c3ed 71be 172e 02be
00000310: 6a32 abbe 5d88 3cbe 8a12 c4bd ce72 21be
00000320: 3ad3 a53d 5eda e8bc 9011 2e3e effd 28bd
00000330: d04f 4b3e eaab 19be 072c 493d a3e9 3dbe
00000340: b489 a2be bbb2 a03e 2b34 cf3d d85d 1c3d
00000350: f820 38bc c13b 84bd 0130 1f3e 0f00 3fbe
00000360: c040 9f3c 87aa d03d a712 8fbd e66b 453e
00000370: 4b69 043e 5ad9 c53d 5239 17be 9c50 283e
00000380: a67c dbbd a4c6 d93d 738e a7bc db19 c53e
00000390: 0ce3 aabc 303c babc 5407 2c3d 2901 543e
000003a0: a82b 98be 06c9 25be 87ab 31bc b16d f13d
000003b0: 7a00 003e 1088 163d e3af 1fbd f971 56bc
000003c0: 3b56 643e d061 163e 2762 923e b3a9 26bf
000003d0: bd9f 423e 0885 b0bd 9187 c1bc ced8 bc3e
000003e0: adfc 963e df19 353d bacb 513e 8852 253e
000003f0: 40e3 b7bd f91e aebc 2618 ffbd 5261 b7be

sequential/conv2d_2/Conv2D f4 [60, 3, 3, 32]
-0.2042272 0.1299616 0.10073971 -0.014963699 -0.006230525 0.030490806 0.10084779 0.22748123
0.02520378 0.3682866 0.3544706 -0.06884356 0.11309824 0.19029094 0.19870466 0.21023856
0.14762878 0.12540844 -0.1575261 0.25024083 -0.059708897 0.09392363 0.0887397 0.35836625
0.7156281 -0.010413106 0.050106496 -0.11593558 0.1734877 -0.32649907 0.17568627 -0.0023791974
-0.5054323 -0.33019322 -0.08502024 -0.22856528 0.2619755 0.16502666 -0.057365984 0.3302099
0.54667675 0.36836487 0.113287404 0.11951878 0.3252079 0.06974858 -0.4391365 -0.38815373
-0.49426064 -0.1207772 -0.108516075 0.18128204 -0.26785702 0.097881295 -0.12119284 -0.020608643
-0.44257495 0.35553387 -0.28939754 0.1773233 -0.07049929 -0.11606838 -0.39931387 -0.09740753
-0.15835544 -0.21667536 -0.12416705 0.09730474 -0.0163324 0.25279847 -0.21707639 0.023303652
0.01958895 0.06600089 -0.11302653 0.04341809 0.24763192 0.22574654 -0.20834082 -0.4273925
0.036280647 -0.030171951 0.0131993 -0.136383 0.12017432 0.15078865 -0.17849037 0.00096365076
0.2182849 -0.090428 -0.020834265 0.19553272 -0.21439233 -0.29416615 0.15333427 0.1318356
0.10886237 0.016320562 -0.1297289 0.0028443714 -0.016664438 -0.30294514 -0.057089765 0.14193653
-0.096917726 -0.06383006 0.0510259 0.3008902 -0.101505384 0.4781808 -0.21669477 0.11402558
0.122130685 -0.20707005 -0.11902339 0.06773255 0.34581667 -0.058179006 -0.038501896 -0.07981837
0.025441352 -0.04321073 -0.00045191732 0.02368311 -0.13832846 -0.025377244 0.022552067 -0.2695275
-0.0788486 0.18433811 -0.1659949 -0.26619425 -0.046263296 -0.18798067 -0.4570403 0.43001688
0.2246462 -0.14356619 -0.023483526 0.313967 -0.17897046 0.121071786 -0.29033867 -0.03303799
-0.38205123 -0.116348185 -0.056860562 -0.020810967 0.17022774 -0.2726788 -0.6262877 0.19585301
-0.3541006 -0.28948265 -0.36553258 -0.25278196 0.010833858 -0.22124706 -0.3103595 -0.17012161
0.11665505 0.13100669 0.057646874 -0.1948367 0.02460435 -0.19318211 -0.18569638 -0.13747656
0.044776496 0.23815407 0.021349987 -0.12761043 -0.07709714 -0.009046432 -0.16782306 0.115134686
0.013113054 0.20955749 0.28241134 0.07321984 -0.25829607 0.107698746 0.053516906 -0.15154587
-0.09045236 -0.1533101 0.021589186 -0.04906227 -0.08916987 -0.27754104 -0.21594262 0.26616782
-0.37857208 -0.00017747149 -0.39930874 -0.006789967 -0.18437181 0.1385908 -0.10465897 0.0067959907
-0.39314806 -0.48297462 0.021879442 -0.5663753 -0.21093895 -0.34800968 0.018427147 -0.0046473164
-0.12360614 0.12362608 0.025039582 -0.022162905 0.09024479 -0.1039762 -0.16677335 0.10437646
0.08934296 -0.06492086 -0.21850662 0.13682193 0.42299095 -0.20878221 0.30255598 -0.34422243
-0.03181972 0.005718557 -0.18544929 0.13049911 0.016846562 0.33283955 -0.012994115 -0.18436441
-0.27469733 -0.3903211 -0.25197768 0.1944259 -0.48518702 -0.047092404 0.19758436 -0.08682543
-0.51384586 -0.25136214 -0.0891661 -0.0662824 0.21131657 -0.077531084 -0.11699317 -0.3497043
0.08804962 -0.19243166 0.0060199206 0.037282266 0.16100974 0.14222418 0.056250885 -0.024347162
00000000: ef20 51be a714 053e 9f50 ce3d 4d2a 75bc
00000010: 6f29 ccbb dbc7 f93c 4989 ce3d d7f0 683e
00000020: 2878 ce3c 1090 bc3e 2c7d b53e dafd 8cbd
00000030: 0da0 e73d a1db 423e 3c79 4b3e c748 573e
00000040: 002c 173e 126b 003e 864e 21be 911f 803e
00000050: 5191 74bd 085b c03d 29bd b53d c87b b73e
00000060: 6733 373f bb9b 2abc 783c 4d3d a26f edbd
00000070: c2a6 313e e32a a7be 1ae7 333e 4fec 1bbb
00000080: 0364 01bf 160f a9be 171f aebd 040d 6abe
00000090: a721 863e c0fc 283e 98f8 6abd 4611 a93e
000000a0: 02f3 0b3f 529a bc3e 3a03 e83d 43c6 f43d
000000b0: a681 a63e 58d8 8e3d 80d6 e0be 16bc c6be
000000c0: bb0f fdbe 095a f7bd ad3d debd 00a2 393e
000000d0: 8e24 89be fd75 c83d f433 f8bd 75d3 a8bc
000000e0: 2f99 e2be 8908 b63e ea2b 94be 3d94 353e
000000f0: ef61 90bd 42b5 edbd de72 ccbe 997d c7bd
00000100: ee27 22be 25e0 5dbe 4b4b febd b547 c73d
00000110: 86cb 85bc cd6e 813e 4649 5ebe 4de7 be3c
00000120: 0179 a03c 7a2b 873d 747a e7bd 2bd7 313d
00000130: 3993 7d3e 1a2a 673e 4c57 55be 31d3 dabe
00000140: 049b 143d 2b2b f7bc e041 583c fca7 0bbe
00000150: f41d f63d 5768 1a3e 2ec6 36be 829d 7c3a
00000160: 1486 5f3e 5132 b9bd 9fac aabc bb39 483e
00000170: aa89 5bbe f29c 96be a903 1d3e e9ff 063e
00000180: 3cf3 de3d b3b2 853c a7d7 04be a268 3a3b
00000190: dc83 88bc a01b 9bbe f5d6 69bd cf57 113e
000001a0: cd7c c6bd 56b9 82bd 8900 513d 480e 9a3e
000001b0: 0ee2 cfbd 1dd4 f43e 3ce5 5dbe 3e86 e93d
000001c0: a71f fa3d 2c0a 54be 89c2 f3bd 5db7 8a3d
000001d0: e20e b13e 1c4d 6ebd 2ab4 1dbd d077 a3bd
000001e0: 626a d03c bcfd 30bd 51ef ecb9 1503 c23c
000001f0: faa5 0dbe f0e3 cfbc 1dbf b83c 82ff 89be
00000200: 607b a1bd 21c3 3c3e 91fa 29be 9d4a 88be
00000210: 957e 3dbd 017e 40be 3001 eabe 2c2b dc3e
00000220: a709 663e 0403 13be 8660 c0bc 48c0 a03e
00000230: 0844 37be 7cf4 f73d 45a7 94be d852 07bd
00000240: 389c c3be f547 eebd 9fe6 68bd c37b aabc
00000250: 2e50 2e3e 8e9c 8bbe 6454 20bf b18d 483e
00000260: ad4c b5be 1237 94be 1627 bbbe a36c 81be
00000270: 7e80 313c 978e 62be 71e7 9ebe 5c34 2ebe
00000280: d8e8 ee3d 9e26 063e 211f 6c3d 4683 47be
00000290: 108f c93c 88d1 45be 3127 3ebe a8c6 0cbe
000002a0: 8f67 373d a9de 733e 2be6 ae3c 4fac 02be
000002b0: 1be5 9dbd 7c37 14bc cfd9 2bbe bccb eb3d
000002c0: 23d8 563c 3d96 563e 3898 903e 49f4 953d
000002d0: 623f 84be 2991 dc3d 8b34 5b3d d72e 1bbe
000002e0: 163f b9bd 53fd 1cbe cedb b03c 85f5 48bd
000002f0: b19e b6bd dc19 8ebe 1020 5dbe 2647 883e
00000300: 33d4 c1be a417 3ab9 3272 ccbe 5f7e debb
00000310: f7cb 3cbe bfea 0d3e 7157 d6bd e7b0 de3b
00000320: b44a c9be 7348 f7be 843c b33c f9fd 10bf
00000330: 6100 58be 532e b2be 87f4 963c 8448 98bb
00000340: 3725 fdbd ac2f fd3d cf1f cd3c fb8e b5bc
00000350: 43d2 b83d 79f1 d4bd a2c6 2abe 53c3 d53d
00000360: 71f9 b63d 3af5 84bd 33c0 5fbe 0c1b 0c3e
00000370: 4592 d83e 01cb 55be 9ee8 9a3e ec3d b0be
00000380: 6555 02bd bc62 bb3b 6be6 3dbe 8fa1 053e
00000390: cd01 8a3c f269 aa3e 45e5 54bc 06ca 3cbe
000003a0: 21a5 8cbe 2bd8 c7be 3803 81be 9517 473e
000003b0: 6f6a f8be f7e3 40bd 8e53 4a3e 88d1 b1bd
000003c0: 678b 03bf 8ab2 80be b79c b6bd 11bf 87bd
000003d0: 5f63 583e 9ec8 9ebd 1d9a efbd 710c b3be
000003e0: 5c53 b43d ce0c 45be c142 c53b 4ab5 183d
000003f0: bddf 243e 37a3 113e 5467 663d b373 c7bc

sequential/dense/BiasAdd/ReadVariableOp f4 [64]
-0.096695535 0.103627235 -0.34008476 0.08277817 -0.3230312 0.03255045 -0.040749326 -0.028874032
-0.034439605 0.0414175 -0.08033886 -0.30934906 -0.0011721838 -0.08168203 -0.2631452 -0.34287882
-0.115395166 0.15160915 0.008333296 -0.0035874327 -0.33678383 -0.27353758 -0.0009725634 -0.031355668
-0.025103336 0.08955709 -0.03761882 -0.13133506 -0.048174523 -0.3198808 -0.018438546 -0.19308078
-0.14138079 -0.17138381 -0.15117618 -0.099842444 -0.4279651 -0.04969355 -0.15390052 -0.15057816
-0.32403028 -0.19478993 -0.0058702417 -0.14382808 -0.036805533 -0.11281816 -0.19102043 0.10047718
-0.3292373 -0.11880019 -0.23087935 -0.32756615 -0.014477384 -0.11826113 -0.12614608 -0.12945257
-0.0027884827 0.09417825 -0.042520475 -0.09178762 0.22620323 -0.4805258 -0.16337717 -0.12975362
00000000: 4f08 c6bd 843a d43d 971f aebe 9a87 a93d
00000010: 5864 a5be 9f53 053d c4e8 26bd 3c89 ecbc
00000020: 8b10 0dbd 65a5 293d b388 a4bd 0063 9ebe
00000030: f6a3 99ba e848 a7bd f8ba 86be d08d afbe
00000040: 4d54 ecbd 6e3f 1b3e 6088 083c 221b 6bbb
00000050: ee6e acbe 1e0d 8cbe a0f3 7eba cd6e 00bd
00000060: 83a5 cdbc b569 b73d 3116 1abd b37c 06be
00000070: a652 45bd 6bc7 a3be 6f0c 97bc f8b6 45be
00000080: 20c6 10be 3d7f 2fbe eecd 1abe 327a ccbd
00000090: 3e1e dbbe 778b 4bbd 1998 1dbe 2931 1abe
000000a0: 4ce7 a5be 0377 47be 285b c0bb ab47 13be
000000b0: 66c1 16bd 350d e7bd dc9a 43be fbc6 cd3d
000000c0: cb91 a8be 844d f3bd a36b 6cbe c0b6 a7be
000000d0: 8d32 6dbc e432 f2bd 702c 01be 378f 04be
000000e0: fabe 36bb 87e0 c03d f329 2ebd 26fb bbbd
000000f0: d2a1 673e 7a07 f6be 584c 27be 22de 04be

sequential/dense_1/BiasAdd/ReadVariableOp f4 [64]
0.020124339 0.09081309 0.08776377 0.08935185 0.049901947 0.09517624 0.122956306 -0.06323141
0.12249484 0.082711 0.017193068 -0.1105553 0.069769464 -0.13287748 -0.021393647 0.1450612
-0.038768016 0.22382173 0.009512215 -0.12650308 0.0965064 -0.11936479 0.07457447 0.014331161
-0.032355156 -0.06441853 0.05952244 0.10581164 0.082619965 -0.08892707 0.2092074 0.13260329
0.14059326 0.16630706 0.17436439 0.11310017 0.15621458 0.20451194 0.19399135 0.15968385
0.082001895 -0.046933863 0.26873767 0.009538918 0.14840087 0.061427504 0.0992483 0.107292674
-0.012277948 0.018725086 0.082793385 -0.044533186 -0.04764111 0.14502588 0.04980649 0.16596091
0.01258108 0.09941958 -0.075744875 -0.022868901 0.2143296 0.11603915 0.055743672 0.085339695
00000000: ccdb a43c 37fc b93d 7ebd b33d 1afe b63d
00000010: fc65 4c3d c3eb c23d 84d0 fb3d 787f 81bd
00000020: 93de fa3d 6364 a93d 7ad8 8c3c d16a e2bd
00000030: 4be3 8e3d 0911 08be bb41 afbc ec8a 143e
00000040: 36cb 1ebd 8631 653e 1fd9 1b3c 068a 01be
00000050: 26a5 c53d 8775 f4bd 80ba 983d 3fcd 6a3c
00000060: d786 04bd dded 83bd cdcd 733d c6b3 d83d
00000070: a834 a93d 651f b6bd 773a 563e 28c9 073e
00000080: aef7 0f3e 664c 2a3e 948c 323e 10a1 e73d
00000090: b7f6 1f3e 946b 513e aba5 463e 2a84 233e
000000a0: 9cf0 a73d b93d 40bd fc97 893e 1f49 1c3c
000000b0: 66f6 173e 689b 7b3d b142 cb3d 43bc db3d
000000c0: 7229 49bc 5a65 993c 948f a93d 6e68 36bd
000000d0: 5323 43bd aa81 143e e401 4c3d a8f1 293e
000000e0: e020 4e3c 7e9c cb3d 2120 9bbd 9057 bbbc
000000f0: 3879 5b3e efa5 ed3d 7a53 643d 94c6 ae3d

sequential/bidirectional/forward_lstm/Read_2/ReadVariableOp f4 [80]
0.250108 -0.28714025 -0.09451306 -0.17289545 0.23337822 0.2644404 -0.06565968 -0.34086645
0.0017378473 -0.0076932176 0.0051268954 0.31652567 -0.072268225 -0.45344245 -0.00036296883 0.0011940725
0.051490895 -0.3650907 0.1713136 -0.08108968 0.8056739 1.0007337 0.9190031 0.9712962
0.854463 1.0722392 0.93774915 0.88667834 1.0117545 1.101764 0.91360396 0.78027153
0.9221505 0.71415806 0.9409514 0.9478286 1.1493849 0.99698997 0.8792573 1.0651509
-0.26089793 -0.22053328 0.24492252 0.0033612014 -0.028822709 0.5346449 0.4212641 -0.14878349
-0.18381253 -0.11075038 0.14152656 -0.23378724 -0.09926029 0.22171286 0.056140788 -0.34582007
-0.3455018 0.17829843 0.3245629 0.063262306 0.18280117 -0.118141755 -0.12502483 0.06609777
0.015625976 0.14541434 0.1654836 -0.10250233 0.13868028 0.08123963 0.04964244 -0.07590024
-0.06562639 -0.11623712 -0.22462101 0.09573811 -0.12879798 -0.19195002 0.18187058 0.06449088
00000000: 280e 803e 0c04 93be 1090 c1bd 810b 31be
00000010: b3fa 6e3e bb64 873e 9578 86bd 0c86 aebe
00000020: 7bc8 e33a 6317 fcbb 84ff a73b a70f a23e
00000030: 5d01 94bd 9c29 e8be da4c beb9 6d82 9c3a
00000040: 1ee8 523d 2bed babe d56c 2f3e 5912 a6bd
00000050: a540 4e3f 0b18 803f ca43 6b3f dea6 783f
00000060: 16be 5a3f 223f 893f 5410 703f 5afd 623f
00000070: 2c81 813f 9a06 8d3f f3e1 693f e0bf 473f
00000080: 0e12 6c3f 10d3 363f 31e2 703f e5a4 723f
00000090: 0b1f 933f bc3a 7f3f 0217 613f dd56 883f
000000a0: 6a94 85be 7ad3 61be f8cc 7a3e 9a47 5c3b
000000b0: 9a1d ecbc 7dde 083f eeaf d73e b35a 18be
000000c0: 5a39 3cbe 18d1 e2bd 57ec 103e ec65 6fbe
000000d0: fb48 cbbd b208 633e e2f3 653d 540f b1be
000000e0: 9de5 b0be dd93 363e 1c2d a63e ab8f 813d
000000f0: 3b30 3b3e 4ef4 f1bd 8206 00be 455e 873d
00000100: 0c02 803c 7fe7 143e 8874 293e beec d1bd
00000110: 3402 0e3e f760 a63d df55 4b3d 9671 9bbd
00000120: 2167 86bd ba0d eebd 0d03 66be 5812 c43d
00000130: 9ee3 03be 8c8e 44be 483c 3a3e cb13 843d

sequential/bidirectional/backward_lstm/Read_2/ReadVariableOp f4 [80]
-0.11495576 0.36569902 0.37906012 -0.18729194 0.07284791 0.05954888 0.045414664 -0.087571874
-0.059385017 0.11355389 0.02622309 -0.0042596217 -0.19731711 0.22091496 0.13352546 0.09987894
-0.015944088 0.05833505 -0.09108543 0.23413384 0.87459326 1.0301579 1.0207593 0.9093885
0.94979906 0.73338383 0.798308 0.98813945 1.0443718 1.0280168 0.6189056 0.6478625
0.994804 0.9358239 0.9395579 1.0843903 0.70209867 0.8373514 1.0719568 0.85193473
0.20076402 -0.34828255 0.23754597 -0.011915717 -0.36291078 -0.09379239 -0.03497574 0.13272217
-0.22047861 0.22953635 0.34656572 -0.19992064 -0.11069002 0.003561185 -0.10208396 0.15549332
-0.029388577 0.20635784 0.26875383 -0.018034326 -0.30191514 0.020138038 -0.034561265 -0.027323617
0.10358783 0.16779272 -0.0821888 -0.25236046 0.22905727 0.29228967 -0.14796285 0.016194154
0.012070185 0.004955953 -0.09784039 -0.13774146 -0.27441078 -0.09057812 -0.058303837 -0.07745481
00000000: ed6d ebbd e73c bb3e 2b14 c23e 75c9 3fbe
00000010: 4931 953d 87e9 733d ba04 3a3d e258 b3bd
00000020: b43d 73bd f18e e83d ced1 d63c 4c94 8bbb
00000030: 7f0d 4abe 8837 623e e6ba 083e 548d cc3d
00000040: 2d9d 82bc bcf0 6e3d ff8a babd c8c0 6f3e
00000050: 58e5 5f3f 37dc 833f 3ea8 823f afcd 683f
00000060: 0826 733f 0bbf 3b3f ea5d 4c3f b5f6 7c3f
00000070: faad 853f 0e96 833f 9970 1e3f 51da 253f
00000080: 7aab 7e3f 2892 6f3f de86 703f 4dcd 8a3f
00000090: bdbc 333f a95c 563f e135 893f 6518 5a3f
000000a0: 1595 4d3e 1752 b2be 403f 733e 243a 43bc
000000b0: 71cf b9be 3916 c0bd b942 0fbd 52e8 073e
000000c0: 25c5 61be 940b 6b3e 1071 b13e ffb7 4cbe
000000d0: 73b1 e2bd c562 693b 6511 d1bd a439 1f3e
000000e0: 50c0 f0bc 784f 533e 1a9a 893e b9bc 93bc
000000f0: 9f94 9abe 87f8 a43c 1d90 0dbd c7d5 dfbc
00000100: db25 d43d dbd1 2b3e 9a52 a8bd 6435 81be
00000110: fd8d 6a3e fea6 953e 9383 17be 9aa9 843c
00000120: 06c2 453c 8c65 a23b 8b60 c8bd 190c 0dbe
00000130: 927f 8cbe 0581 b9bd 01d0 6ebd a1a0 9ebd

sequential/batch_normalization/FusedBatchNormV3 f4 [28]
0.09492093 3.1592305 1.6074108 0.93509686 0.14508034 0.08939657 0.9056564 3.194457
0.24035302 5.7963843 0.9331126 2.0775495 3.6504736 2.1775858 0.12628342 0.38794258
4.663732 6.295121 3.508493 26.465006 0.7915172 2.5014033 2.3642182 1.4674429
1.849818 0.052502908 1.255092 0.8950024
00000000: e865 c23d d530 4a40 a3bf cd3f 8262 6f3f
00000010: f18f 143e 8d15 b73d 19d9 673f fc71 4c40
00000020: 1a1f 763e fb7b b940 78e0 6e3f 92f6 0440
00000030: 5ca1 6940 915d 0b40 7150 013e 69a0 c63e
00000040: 4b3d 9540 a271 c940 268b 6040 55b8 d341
00000050: dfa0 4a3f fe16 2040 5a4f 1740 2bd5 bb3f
00000060: d6c6 ec3f 4a0d 573d dba6 a03f e11e 653f

sequential/batch_normalization/FusedBatchNormV31 f4 [28]
-0.18735114 -0.54421234 -1.3194772 -0.46550074 -0.37015218 -0.6125758 -0.59698033 -0.06425258
-0.57700795 -0.5620277 -0.025749162 -1.6788334 -0.19444884 -0.6905671 -0.47882745 -0.810178
-0.2714826 -0.79607666 0.011351131 -0.10993854 -0.66920143 -0.045678094 -0.08666486 0.054353148
-0.75128174 -0.35988504 -0.3775964 -0.21672086
00000000: fad8 3fbe 8051 0bbf a1e4 a8bf 1d56 eebe
00000010: 9684 bdbe c5d1 1cbf b4d3 18bf db96 83bd
00000020: cbb6 13bf 0ce1 0fbf e8ef d2bc 03e4 d6bf
00000030: 991d 47be 01c9 30bf df28 f5be d367 4fbf
00000040: c4ff 8abe aecb 4bbf 18fa 393c 7527 e1bd
00000050: c950 2bbf f418 3bbd 597d b1bd 68a1 5e3d
00000060: 0054 40bf da42 b8be 5154 c1be 13ec 5dbe

sequential/batch_normalization_1/FusedBatchNormV3 f4 [32]
0.2782163 0.32357126 0.24055958 0.19058838 0.33355987 0.25202549 0.306775 0.39873838
0.31834495 0.37414566 0.21776322 0.35668838 0.44059885 0.25663343 0.3559566 0.3013588
0.25087798 0.41249618 0.37568647 0.49362463 0.20839332 0.20425795 0.23517905 0.21617353
0.26131198 0.20069508 0.26986828 0.26962242 0.37470567 0.17095362 0.12745701 0.3331611
00000000: 5e72 8e3e 22ab a53e 4055 763e 9a29 433e
00000010: 5cc8 aa3e 7c09 813e 9d11 9d3e 7027 cc3e
00000020: 1cfe a23e 0590 bf3e 52fd 5e3e dc9f b63e
00000030: 2c96 e13e 7565 833e f23f b63e b34b 9a3e
00000040: 1473 803e b332 d33e fa59 c03e 5ebc fc3e
00000050: 0f65 553e ff28 513e c7d2 703e 985c 5d3e
00000060: afca 853e 0383 4d3e 2d2c 8a3e f30b 8a3e
00000070: 6cd9 bf3e 770e 2f3e 1784 023e 1794 aa3e

sequential/batch_normalization_1/FusedBatchNormV31 f4 [32]
-1.6363521 -0.71369565 -1.0772555 -1.0054771 -0.6363417 -1.0599904 -0.86007977 -0.77177334
-1.0100152 -1.0729718 -0.8374871 -0.96874714 -0.72472966 -1.1774952 -0.73054487 -0.78071654
-0.9210149 -0.947471 -1.1431818 -0.86398494 -0.720441 -0.84518814 -0.76371825 -0.8055699
-1.0620093 -0.9130136 -0.57904905 -0.6240568 -0.68183905 -0.90171635 -0.6170448 -0.8475518
00000000: fc73 d1bf c2b4 36bf 82e3 89bf 79b3 80bf
00000010: 4ae7 22bf c4ad 87bf 302e 5cbf f092 45bf
00000020: 2e48 81bf 2457 89bf 8e65 56bf d0ff 77bf
00000030: e287 39bf 2ab8 96bf fd04 3bbf 0add 47bf
00000040: a2c7 6bbf 768d 72bf c853 92bf 1e2e 5dbf
00000050: d26e 38bf 405e 58bf 0a83 43bf d439 4ebf
00000060: ecef 87bf 42bb 69bf 8f3c 14bf 30c2 1fbf
00000070: 018d 2ebf e2d6 66bf a6f6 1dbf 28f9 58bf

sequential/batch_normalization_2/FusedBatchNormV3 f4 [60]
0.42634642 0.10253638 0.5450136 0.32378384 0.39548734 0.41299853 0.21523023 0.53509665
0.40299928 0.5658408 0.4124419 0.28863418 0.30714855 0.51153535 0.33139363 0.66721475
0.27073836 0.51274276 0.23381884 0.26679537 0.3639188 0.30780366 0.57909065 0.14057323
0.37785056 0.33862153 0.3685776 0.2505023 0.30007967 0.34961197 0.3745651 0.17550686
0.51082426 0.43798867 0.38795373 0.3843186 0.41182604 0.2522129 0.3128065 0.46022856
0.72455084 0.49990168 0.25150442 0.3499602 0.2594189 0.87561303 0.5321822 0.40722528
0.70927 0.37135324 0.42227104 0.36137855 0.3707718 0.40444708 0.26169857 0.44400835
0.3649101 0.33834022 0.13752232 0.36818445
00000000: 144a da3e 98fe d13d 0386 0b3f ffc6 a53e
00000010: 517d ca3e 8b74 d33e 5065 5c3e 18fc 083f
00000020: ec55 ce3e f1da 103f 962b d33e dcc7 933e
00000030: 9342 9d3e fbf3 023f 6dac a93e 96ce 2a3f
00000040: 389e 8a3e 1c43 033f 356e 6f3e 6799 883e
00000050: 9153 ba3e 7198 9d3e 493f 143f 6ef2 0f3e
00000060: a175 c13e cd5f ad3e 34b6 bc3e d641 803e
00000070: 0ba4 993e 5700 b33e ffc6 bf3e 12b8 333e
00000080: 61c5 023f 0d40 e03e dfa1 c63e 68c5 c43e
00000090: ddda d23e 0d22 813e 2c28 a03e 14a3 eb3e
000000a0: 2a7c 393f 1df3 ff3e 30c5 803e fc2d b33e
000000b0: 8ed2 843e 2d28 603f 183d 083f d57f d03e
000000c0: b892 353f 0322 be3e e933 d83e 9c06 b93e
000000d0: cdd5 bd3e b013 cf3e 5bfd 853e 1055 e33e
000000e0: 7fd5 ba3e ee3a ad3e a7d2 0c3e ac82 bc3e

sequential/batch_normalization_2/FusedBatchNormV31 f4 [60]
-0.1171563 -0.45539245 -0.6389486 -0.2576276 -0.7721579 -0.538031 -0.5912342 -0.3937864
-0.4982435 -0.3698733 -0.6360282 -0.25591424 -0.20479414 -0.35458478 -0.26585168 -0.32671323
-0.32076102 -0.3150994 -0.6141398 -0.4354915 -0.59700024 -0.78216994 -0.23246753 -0.83657205
-0.80048317 -0.6418981 -0.45871606 -0.6384108 -0.45071638 -0.71705586 -0.43231413 -0.77200794
-0.34401053 -0.1385119 -0.38070798 -0.5850886 -0.24979842 -0.39327586 -0.40568542 -0.51343304
-0.41592777 -0.12776278 -0.77535474 -0.5597188 -0.40299785 -0.25522625 -0.61884105 -0.41892603
-0.40566736 -0.50209326 -0.30859253 -0.37283197 -0.09917712 -0.5357423 -0.5875206 -0.56627095
-0.37487084 -0.541041 -0.6467499 -0.23819187
00000000: a4ef efbd 3329 e9be 2392 23bf c4e7 83be
00000010: 24ac 45bf 66bc 09bf 205b 17bf 5f9e c9be
00000020: c619 ffbe 0860 bdbe bed2 22bf 3107 83be
00000030: 8eb5 51be 238c b5be b61d 88be f546 a7be
00000040: ca3a a4be b554 a1be 4438 1dbf bef8 debe
00000050: 02d5 18bf 4a3c 48bf f80b 6ebe 9629 56bf
00000060: 77ec 4cbf 6f53 24bf d5dc eabe e46e 23bf
00000070: 4cc4 e6be f990 37bf 4758 ddbe 50a2 45bf
00000080: 2622 b0be 10d6 0dbe 28ec c2be 5ec8 15bf
00000090: 28cb 7fbe 745b c9be 00b6 cfbe 5970 03bf
000000a0: 7cf4 d4be 3fd4 02be a67d 46bf bb49 0fbf
000000b0: bc55 cebe 04ad 82be 5e6c 1ebf 797d d6be
000000c0: a2b3 cfbe 2f89 00bf d7ff 9dbe d5e3 bebe
000000d0: 601d cbbd 6826 09bf c067 16bf 22f7 10bf
000000e0: 12ef bfbe aa81 0abf 6791 25bf 92e8 73be

sequential/dense/MatMul f4 [64, 40]
0.15069686 0.3555268 0.09266854 -0.15968584 0.08673729 -0.3138409 -0.26474285 -0.19673215
0.1912082 0.43366247 -0.2540346 0.18005608 -0.039185956 -0.047008645 -0.056101315 -0.017758772
0.33596608 0.048740793 -0.30896756 -0.3772083 -0.04133752 0.17155899 -0.0926795 0.16669407
0.52681357 0.5512362 0.08525632 0.52482325 0.28244054 -0.23926117 -0.20392519 0.20905443
-0.057450045 -0.050037812 0.39783934 -0.21756081 -0.120771825 -0.07417212 -0.22058918 -0.4519471
-0.050084926 -0.016520852 0.112621866 0.16384117 -0.19670413 0.25355044 0.17456585 0.07864249
-0.21058083 0.14618441 0.46203056 0.034266982 -0.26065058 0.3463153 0.14675164 0.1058852
-0.49650422 -0.14475165 0.2345424 0.09276922 0.31661332 -0.6674438 0.2651585 -0.011093464
-0.2428147 -0.4808003 -0.106547385 -0.25953546 -0.17499839 0.37011117 0.21347144 -0.34218812
0.3442361 -0.2304232 -0.4784578 0.4402298 -0.31539154 0.11972177 0.032934755 -0.21457237
0.24395265 0.042022858 -0.056352153 -0.27984843 0.012152512 -0.31704092 -0.19469096 -0.12083653
-0.16340281 -0.08755324 -0.3066666 0.06849466 -0.16031368 -0.059292275 -0.25458908 -0.067141
0.08008558 -0.05538689 -0.03256785 -0.11979031 -0.0041362997 0.46111208 -0.23564531 0.141682
0.22273327 0.46800977 0.055988725 0.011560526 0.3119956 0.019325523 -0.10349176 0.24256355
-0.27790937 -0.121390685 0.23725656 -0.17990835 0.027759684 -0.22337972 -0.27798828 -0.08252209
0.029796993 -0.27035844 0.16444658 0.15790984 -0.11790711 0.4716084 0.27591908 0.33314842
0.05946096 0.2350449 0.014489166 -0.3290961 0.23075052 0.04997565 0.31531265 -0.18979406
-0.54201055 0.107486896 0.22452451 0.0036598293 0.21504156 -0.24434125 0.14932619 0.09595143
-0.05520839 -0.5816703 0.013366194 -0.40065 -0.25860572 0.15233345 0.5620851 0.2765018
0.513586 0.067672685 -0.10650793 0.24181694 -0.32759675 0.29931355 0.39599743 0.61017615
-0.39935493 -0.2544247 0.23002476 0.16616274 -0.2746395 0.52964324 -0.046417315 0.15413594
0.27219555 -0.48566255 0.31668708 -0.08233021 0.30030724 0.061353784 0.20394248 -0.15477234
-0.38495818 0.06970408 0.1031609 0.33918425 0.15316704 -0.1317861 0.06597473 -0.16576363
-0.58515185 -0.46066222 -0.61904633 -0.05594878 -0.028053083 0.005427617 0.58748925 -0.41010952
0.21008588 0.22171925 0.04247664 -0.3089028 -0.18457896 0.27574697 0.09283124 0.31225336
-0.18744296 -0.23902018 0.4178453 -0.07985536 -0.11239844 0.24187168 0.33071512 -0.18542801
0.13944189 -0.22344366 0.18578012 -0.030230895 -0.13542601 0.1835225 -0.21367556 -0.08057265
-0.28947914 -0.21661533 0.4710413 0.26087856 0.056105196 -0.13363759 0.06917866 -0.16775618
-0.35248703 -0.51887655 0.22035877 -0.13677609 -0.2349794 0.27079535 0.22815926 -0.37383142
-0.31894493 0.23637508 0.052177757 0.05388616 -0.087869056 0.34081063 0.1477336 0.2002451
0.24713832 0.17305472 -0.21463577 -0.26384428 -0.049565464 -0.15918839 -0.314911 -0.17212784
0.029969728 0.17257209 0.1961137 0.41617024 -0.11181072 -0.025123794 0.202373 0.40548694
00000000: 4750 1a3e 9c07 b63e 01c9 bd3d af84 23be
00000010: 52a3 b13d c1af a0be 608c 87be 2774 49be
00000020: 15cc 433e 0209 de3e d310 82be 9f60 383e
00000030: 7481 20bd 238c 40bd 7eca 65bd d87a 91bc
00000040: bf03 ac3e 6da4 473d ff30 9ebe 7221 c1be
00000050: 8851 29bd 29ad 2f3e c0ce bdbd dab1 2a3e
00000060: 41dd 063f d11d 0d3f de9a ae3d d15a 063f
00000070: 0c9c 903e e100 75be c4d1 50be 5d12 563e
00000080: bd50 6bbd 73f4 4cbd 99b1 cb3e 43c8 5ebe
00000090: 3857 f7bd 8de7 97bd 21e2 61be 9c65 e7be
000000a0: da25 4dbd bd56 87bc 4ba6 e63d fbc5 273e
000000b0: cf6c 49be 5dd1 813e 64c1 323e 500f a13d
000000c0: 80a2 57be 5eb1 153e 458f ec3e 895b 0c3d
000000d0: fe73 85be 3d50 b13e 1046 163e 57da d83d
000000e0: cd35 febe c739 14be e22b 703e cafd bd3d
000000f0: 241b a23e 99dd 2abf dbc2 873e 5cc1 35bc
00000100: 6ba4 78be 752b f6be 8435 dabd d5e1 84be
00000110: c732 33be 367f bd3e 4298 5a3e 4833 afbe
00000120: b73f b03e 0ff4 6bbe 6cf8 f4be cd65 e13e
00000130: 007b a1be b030 f53d 98e6 063d dcb8 5bbe
00000140: b9ce 793e 2920 2c3d 84d1 66bd 4b48 8fbe
00000150: 541b 473c 3053 a2be 115d 47be 2579 f7bd
00000160: 1153 27be 1d4f b3bd 6803 9dbe ee46 8c3d
00000170: 4529 24be 75dc 72bd 8059 82be 3881 89bd
00000180: e903 a43d 5ddd 62bd de65 05bd 9f54 f5bd
00000190: cc89 87bb e216 ec3e 014d 71be 1615 113e
000001a0: 3114 643e fa9e ef3e 6f54 653d 5c68 3d3c
000001b0: e3bd 9f3e 8f50 9e3c 7df3 d3bd 9462 783e
000001c0: 234a 8ebe ae9b f8bd 62f3 723e e539 38be
000001d0: 4768 e33c a7bd 64be 7b54 8ebe 5701 a9bd
000001e0: d318 f43c 6c6c 8abe af64 283e 1eb3 213e
000001f0: 4879 f1bd a876 f13e 4445 8d3e 6e92 aa3e
00000200: 568d 733d 9caf 703e f863 6d3c 497f a8be
00000210: dd49 6c3e 44b3 4c3d a970 a13e 6059 42be
00000220: 34c1 0abf 1722 dc3d c1e9 653e bfd9 6f3b
00000230: db33 5c3e 9834 7abe f7e8 183e 2f82 c43d
00000240: 3122 62bd 58e8 14bf e2fd 5a3c ff21 cdbe
00000250: f867 84be 4dfd 1b3e cfe4 0f3f a591 8d3e
00000260: 5f7a 033f fa97 8a3d d420 dabd dc9e 773e
00000270: c3ba a7be a03f 993e 2dc0 ca3e 8134 1c3f
00000280: 4078 ccbe f443 82be 9c8b 6b3e 9126 2a3e
00000290: 8c9d 8cbe b396 073f 1520 3ebd d0d5 1d3e
000002a0: 375d 8b3e c3a8 f8be cf24 a23e be9c a8bd
000002b0: dfc1 993e 1b4e 7b3d 4cd6 503e a47c 1ebe
000002c0: 3d19 c5be 03c1 8e3d 0646 d33d 8fa9 ad3e
000002d0: d2d7 1c3e eff2 06be c21d 873d f1bd 29be
000002e0: 83cc 15bf ebdb ebbe d279 1ebf 8c2a 65bd
000002f0: 94cf e5bc 27da b13b b265 163f e0f9 d1be
00000300: c120 573e 5f0a 633e fcfb 2d3d 8228 9ebe
00000310: 4402 3dbe b52e 8d3e 4e1e be3d acdf 9f3e
00000320: 0cf1 3fbe b5c1 74be d2ef d53e 358b a3bd
00000330: 2731 e6bd 36ad 773e 7e53 a93e d7e0 3dbe
00000340: dbc9 0e3e 6ace 64be 253d 3e3e c8a6 f7bc
00000350: 1ead 0abe 52ed 3b3e c4cd 5abe 4603 a5bd
00000360: 9c36 94be 69d0 5dbe 532c f13e e091 853e
00000370: 90ce 653d 4bd8 08be 8bad 8d3d 47c8 2bbe
00000380: 2e79 b4be 18d5 04bf bba5 613e 080f 0cbe
00000390: 719e 70be b0a5 8a3e 95a2 693e d566 bfbe
000003a0: c04c a3be 4f0c 723e 58b8 553d bcb7 5c3d
000003b0: b1f4 b3bd bb7e ae3e 7a47 173e 0d0d 4d3e
000003c0: d411 7d3e 4235 313e 7bc9 5bbe 9916 87be
000003d0: 2805 4bbd 4802 23be 043c a1be 4842 30be
000003e0: 1383 f53c bdb6 303e 08d2 483e 4414 d53e
000003f0: 05fd e4bd 6ad0 cdbc de3a 4f3e fc9b cf3e

sequential/dense_1/MatMul f4 [64, 64]
-0.32482204 0.1687109 -0.1349664 -0.07596349 0.28900123 0.021057194 -0.3679173 0.17022544
-0.28098747 0.31536278 0.070751645 -0.20030993 0.18280303 -0.037296366 -0.1916305 -0.26094234
0.24061315 0.06263945 0.004199723 0.10161543 0.121290974 -0.09482818 -0.09796989 0.09757068
0.30897254 0.43790892 0.16263406 0.04367087 -0.06745637 -0.43363586 0.18279904 -0.47421458
0.2926999 -0.029701138 0.17038013 -0.4602751 0.41949788 -0.5023148 -0.25632292 0.17591228
0.21794789 0.0049653337 -0.11277617 0.17138137 -0.008586041 -0.29134852 0.022831054 0.24331711
-0.22154477 0.36688125 0.09737366 -0.13611144 -0.055965748 -0.5503231 -0.11388975 0.21512778
-0.11523516 0.25344735 0.0934442 -0.17251764 0.010163381 -0.1369151 -0.6177488 -0.018074496
-0.15775983 0.07079145 0.026608428 -0.055151135 0.11018097 0.26049417 -0.6702295 0.37173277
-0.37453994 0.24487348 0.31221882 0.08678465 0.18957402 -0.4132827 -0.31587005 -0.3377269
0.20112453 0.13000478 0.17671148 0.4690125 -0.058515266 -0.33262548 0.21070454 0.22124249
0.49489686 0.2506359 -0.13453712 0.23335874 0.35320285 -0.33562502 0.25264624 -0.3333629
-0.028410366 -0.13878956 0.24610308 -0.51431257 -0.0023525232 -0.22746198 -0.19790664 0.07456906
0.09939856 0.29679057 0.2127129 0.080091044 0.5387377 0.09399311 0.24301688 0.22073725
-0.11622871 0.11906499 -0.08686926 -0.17727982 0.2231932 -0.14403497 0.27236468 0.115699515
0.34564555 -0.0005253715 0.19188249 -0.13109529 0.34158438 -0.18604015 -0.4999293 -0.14695443
0.05845088 -0.27863994 -0.17919126 -0.06368037 -0.46531925 0.023607103 0.07323357 -0.14908434
-0.11216432 -0.03439391 -0.2484486 0.12660432 -0.09328176 0.06243214 0.25114563 0.22828227
-0.3787607 -0.022508953 -0.09057944 -0.49827787 -0.19489881 -0.044452228 -0.3552862 -0.4228618
0.24197234 0.15972534 -0.1291968 0.018375602 -0.37407523 -0.003254077 -0.256607 0.091152206
0.09919523 0.023353828 0.14774424 -0.07733193 0.1580562 0.20785987 0.22621161 -0.0035901587
0.19674927 0.09385133 0.04164307 -0.15696582 -0.22957723 -0.011270527 -0.13695322 0.017112805
0.3110505 -0.22104008 0.17955172 0.060238335 -0.09538762 0.36191854 -0.29056698 -0.03398866
-0.41536507 -0.02547856 -0.09159404 0.1407652 -0.35912326 0.23271401 0.37465727 -0.2467158
-0.35404432 0.09701532 -0.010933427 -0.14676565 0.117604405 0.2089247 -0.18569055 0.22959596
-0.2855163 0.05629167 0.42212388 0.048054144 0.1910117 -0.3159952 -0.043886125 -0.41188496
0.67325926 0.07660343 -0.0700291 0.38186297 -0.13650402 -0.04052847 0.2099908 0.24149495
0.23106092 0.4065204 0.33803973 0.17514816 0.220304 -0.29616693 0.14954334 -0.38546902
0.027556613 -0.23612261 0.112213835 -0.24984685 0.17797816 -0.18495661 -0.12914382 0.26321602
0.42333513 0.44833738 0.24706697 -0.08001431 0.21382259 -0.31336722 0.018913344 -0.017101256
-0.047849685 0.13288344 -0.04491971 -0.14398773 0.45639881 -0.21022159 0.34891284 0.06687511
0.03841454 -0.084111966 0.021544736 -0.51440173 -0.048869964 0.15513563 -0.5729034 0.03132127
00000000: 134f a6be 8dc2 2c3e a234 0abe bf92 9bbd
00000010: f8f7 933e 2380 ac3c a85f bcbe 944f 2e3e
00000020: 97dd 8fbe 3b77 a13e 3de6 903d 0c1e 4dbe
00000030: b830 3b3e 13c4 18bd c93a 44be 3c9a 85be
00000040: 4b63 763e 1d49 803d d49d 893b c01b d03d
00000050: 6767 f83d 4735 c2bd 70a4 c8bd 23d3 c73d
00000060: a631 9e3e 9935 e03e 8b89 263e 3ae0 323d
00000070: 9126 8abd 8505 debe ac2f 3b3e 41cc f2be
00000080: c3dc 953e cd4f f3bc 2178 2e3e 2ea9 ebbe
00000090: 6dc8 d63e b497 00bf c23c 83be 5922 343e
000000a0: bb2d 5f3e 3db4 a23b 31f7 e6bd 997e 2f3e
000000b0: 77ac 0cbc a22b 95be 3108 bb3c 1f28 793e
000000c0: a2dc 62be dcd7 bb3e d76b c73d cc60 0bbe
000000d0: 573c 65bd fae1 0cbf 073f e9bd 754a 5c3e
000000e0: 6900 ecbd dac3 813e ac5f bf3d 77a8 30be
000000f0: 4f84 263c 7933 0cbe c924 1ebf f710 94bc
00000100: cb8b 21be 1cfb 903d ebf9 d93c 28e6 61bd
00000110: 8fa6 e13d 7e5f 853e 2994 2bbf c253 be3e
00000120: b3c3 bfbe 1dc0 7a3e 25db 9f3e 27bc b13d
00000130: b11f 423e ca99 d3be b8b9 a1be 8aea acbe
00000140: 97f3 4d3e f91f 053e dbf3 343e 6822 f03e
00000150: b4ad 6fbd e34d aabe eec2 573e 648d 623e
00000160: 1f63 fd3e 5953 803e 19c4 09be 98f5 6e3e
00000170: 01d7 b43e 0bd7 abbe d95a 813e 8bae aabe
00000180: dbbc e8bc da1e 0ebe 7202 7c3e fda9 03bf
00000190: ca2c 1abb cbeb 68be 0aa8 4abe aab7 983d
000001a0: 7991 cb3d eff4 973e 69d1 593e c606 a43d
000001b0: b7ea 093f 767f c03d 6bd9 783e f208 623e
000001c0: 5109 eebd 58d8 f33d 83e8 b1bd d788 35be
000001d0: c28c 643e e77d 13be 6273 8b3e def3 ec3d
000001e0: 74f8 b03e 16b9 09ba d87c 443e d83d 06be
000001f0: 26e4 ae3e 4f81 3ebe bcf6 ffbe 397b 16be
00000200: 316a 6f3d e5a9 8ebe ea7d 37be db6a 82bd
00000210: 533e eebe af63 c13c 7bfb 953d 91a9 18be
00000220: 68b6 e5bd a1e0 0cbd 4f69 7ebe 90a4 013e
00000230: 820a bfbd d8b8 7f3d 2996 803e d4c2 693e
00000240: ecec c1be b264 b8bc b781 b9bd 471e ffbe
00000250: 8e93 47be 8a13 36bd 13e8 b5be 5881 d8be
00000260: 99c7 773e 0a8f 233e 2a4c 04be 6e88 963c
00000270: ca86 bfbe 5a42 55bb fe61 83be 02ae ba3d
00000280: de26 cb3d 8750 bf3c 444a 173e 3460 9ebd
00000290: 7cd9 213e 38d9 543e 04a4 673e de48 6bbb
000002a0: a478 493e 2035 c03d ec91 2a3d a6bb 20be
000002b0: 4b16 6bbe 04a8 38bc 773d 0cbe 2730 8c3c
000002c0: 0342 9f3e 5558 62be 68dc 373e 79bc 763d
000002d0: 965a c3bd 634d b93e 32c5 94be b137 0bbd
000002e0: bbaa d4be 6ab8 d0bc a895 bbbd c124 103e
000002f0: 01df b7be 954c 6e3e 14d3 bf3e 11a3 7cbe
00000300: 4c45 b5be f8af c63d 1e22 33bc bc49 16be
00000310: 94da f03d 5bf0 553e aa25 3ebe 341b 6b3e
00000320: 312f 92be 1892 663d 9f20 d83e 6cd4 443d
00000330: 9298 433e 1fca a1be f0c1 33bd 96e2 d2be
00000340: b85a 2c3f 42e2 9c3d 6b6b 8fbd 8b83 c33e
00000350: b6c7 0bbe 2e01 26bd d407 573e 744a 773e
00000360: 3c9b 6c3e 7123 d03e 8b13 ad3e 0a5a 333e
00000370: 5f97 613e 31a3 97be e421 193e 325c c5be
00000380: 68be e13c 20ca 71be 5ed0 e53d dad7 7fbe
00000390: e83f 363e 4465 3dbe 473e 04be 40c4 863e
000003a0: 62bf d83e 7a8c e53e 20ff 7c3e 8bde a3bd
000003b0: 4ff4 5a3e ab71 a0be 28f0 9a3c ef17 8cbc
000003c0: 08fe 43bd 9912 083e bbfd 37bd 8571 13be
000003d0: 1bad e93e 5444 57be b4a4 b23e d1f5 883d
000003e0: 9158 1d3d e542 acbd 967e b03c d5af 03bf
000003f0: df2b 48bd e0db 1e3e cca9 12bf bb4a 003d

sequential/dense_2/MatMul f4 [1, 64]
-0.036908824 -0.0980843 0.10301304 -0.0809391 -0.05244516 0.058652338 0.065443866 -0.07225658
0.13651349 -0.07187844 0.052374326 -0.027065547 -0.09635602 -0.007414329 0.09321561 -0.14143232
-0.08733161 0.13753825 -0.08154771 -0.016825395 0.092282 -0.082623415 -0.060247824 -0.04058875
0.044870507 0.108064644 0.051155582 -0.13743566 0.09565713 0.0031614252 -0.06701006 0.11940015
-0.06381193 -0.049465206 0.12057969 0.021489961 0.050247062 0.12354928 -0.1237564 0.1519712
0.06629027 0.11451203 0.081307195 -0.03470232 0.11850542 -0.09286805 0.24652922 0.022029832
0.06490741 0.09816421 0.053676803 0.09412215 -0.016527016 -0.09786094 0.06455677 -0.15398338
-0.06459384 0.1494662 -0.13395596 -0.079577535 0.10124363 0.056944277 -0.0795169 0.054480247
00000000: b52d 17bd 6ce0 c8bd 80f8 d23d 66c3 a5bd
00000010: bcd0 56bd 6f3d 703d 6f07 863d 42fb 93bd
00000020: 31ca 0b3e 0135 93bd 7686 563d 91b8 ddbc
00000030: 4e56 c5bd e6f3 f2bb d3e7 be3d a2d3 10be
00000040: eada b2bd d4d6 0c3e 7c02 a7bd 69d5 89bc
00000050: 58fe bc3d 7736 a9bd 6cc6 76bd 6440 26bd
00000060: 23ca 373d ff50 dd3d 8488 513d efbb 0cbe
00000070: e3e7 c33d ea2f 4f3b 923c 89bd 1188 f43d
00000080: d4af 82bd 079c 4abd 7cf2 f63d b70b b03c
00000090: ddcf 4d3d 6807 fd3d ff73 fdbd 579e 1b3e
000000a0: 31c3 873d 4885 ea3d 6384 a63d 0524 0ebd
000000b0: f8b2 f23d 9b31 bebd 2872 7c3e e877 b43c
000000c0: 2dee 843d 510a c93d 35dc 5b3d 1dc3 c03d
000000d0: aa63 87bc 516b c8bd 5736 843d d2ad 1dbe
000000e0: c649 84bd ab0d 193e c02b 09be 8cf9 a2bd
000000f0: d258 cf3d 673e 693d c2d9 a2bd ae26 5f3d

sequential/bidirectional/backward_lstm/Read_2/ReadVariableOp1 f4 [80]
-0.11495576 0.36569902 0.37906012 -0.18729194 0.07284791 0.05954888 0.045414664 -0.087571874
-0.059385017 0.11355389 0.02622309 -0.0042596217 -0.19731711 0.22091496 0.13352546 0.09987894
-0.015944088 0.05833505 -0.09108543 0.23413384 0.87459326 1.0301579 1.0207593 0.9093885
0.94979906 0.73338383 0.798308 0.98813945 1.0443718 1.0280168 0.6189056 0.6478625
0.994804 0.9358239 0.9395579 1.0843903 0.70209867 0.8373514 1.0719568 0.85193473
0.20076402 -0.34828255 0.23754597 -0.011915717 -0.36291078 -0.09379239 -0.03497574 0.13272217
-0.22047861 0.22953635 0.34656572 -0.19992064 -0.11069002 0.003561185 -0.10208396 0.15549332
-0.029388577 0.20635784 0.26875383 -0.018034326 -0.30191514 0.020138038 -0.034561265 -0.027323617
0.10358783 0.16779272 -0.0821888 -0.25236046 0.22905727 0.29228967 -0.14796285 0.016194154
0.012070185 0.004955953 -0.09784039 -0.13774146 -0.27441078 -0.09057812 -0.058303837 -0.07745481
00000000: ed6d ebbd e73c bb3e 2b14 c23e 75c9 3fbe
00000010: 4931 953d 87e9 733d ba04 3a3d e258 b3bd
00000020: b43d 73bd f18e e83d ced1 d63c 4c94 8bbb
00000030: 7f0d 4abe 8837 623e e6ba 083e 548d cc3d
00000040: 2d9d 82bc bcf0 6e3d ff8a babd c8c0 6f3e
00000050: 58e5 5f3f 37dc 833f 3ea8 823f afcd 683f
00000060: 0826 733f 0bbf 3b3f ea5d 4c3f b5f6 7c3f
00000070: faad 853f 0e96 833f 9970 1e3f 51da 253f
00000080: 7aab 7e3f 2892 6f3f de86 703f 4dcd 8a3f
00000090: bdbc 333f a95c 563f e135 893f 6518 5a3f
000000a0: 1595 4d3e 1752 b2be 403f 733e 243a 43bc
000000b0: 71cf b9be 3916 c0bd b942 0fbd 52e8 073e
000000c0: 25c5 61be 940b 6b3e 1071 b13e ffb7 4cbe
000000d0: 73b1 e2bd c562 693b 6511 d1bd a439 1f3e
000000e0: 50c0 f0bc 784f 533e 1a9a 893e b9bc 93bc
000000f0: 9f94 9abe 87f8 a43c 1d90 0dbd c7d5 dfbc
00000100: db25 d43d dbd1 2b3e 9a52 a8bd 6435 81be
00000110: fd8d 6a3e fea6 953e 9383 17be 9aa9 843c
00000120: 06c2 453c 8c65 a23b 8b60 c8bd 190c 0dbe
00000130: 927f 8cbe 0581 b9bd 01d0 6ebd a1a0 9ebd
