models/model.tflite (tflite, 280604 bytes, 19 tensors)

sequential/conv2d/BiasAdd/ReadVariableOp f4 [32]
0	0x3df56171	0.11981476
1	0x3e7d5ad1	0.24741675
2	0x3e1fd7dc	0.15609688
3	0x3c8da50c	0.017290615
4	0x3df9aafb	0.12190815
5	0x3cdf6a4d	0.027272368
6	0x3e25a1f9	0.16175069
7	0x3e1bd314	0.15217239
8	0x3de94fc2	0.11392166
9	0x3c881705	0.016612539
10	0x3e63ff75	0.22265418
11	0x3d3a2c49	0.04545239
12	0xbddd018a	-0.10791309
13	0xbd5f8b7d	-0.054576386
14	0x3d3a5e53	0.04550011
15	0x3dc1803d	0.09448288
16	0x3e2d3f13	0.16918592
17	0x3d9869f1	0.07442082
18	0x3dbe651d	0.092966296
19	0x3db873e1	0.09006477
20	0x3ce41a2c	0.027844511
21	0x3db49825	0.08818082
22	0x3e6ca64d	0.23110314
23	0x3e016a34	0.1263817
24	0x3e8b4336	0.27199715
25	0x3dc38a7c	0.09547898
26	0x3e19029e	0.14942405
27	0x3d6b75ea	0.0574855
28	0x3e369a8b	0.17832391
29	0x3e575342	0.21027854
30	0x3c4a8897	0.012361667
31	0x3e351013	0.17681913

sequential/conv2d_1/BiasAdd/ReadVariableOp f4 [64]
0	0xbdfff019	-0.12496967
1	0x3e3597e2	0.1773372
2	0xbcc8e9fc	-0.024525635
3	0x3e353f6d	0.17699976
4	0x3d49fcfe	0.049313538
5	0x3d4b6be3	0.049663436
6	0x3d84b144	0.06479123
7	0x3c9ba0c9	0.018997567
8	0x3e842de1	0.25816253
9	0xbe28dfd6	-0.16491637
10	0x3edc98a6	0.43085212
11	0xbd60fe68	-0.05493012
12	0x3e3240c6	0.17407522
13	0x3df0a4c0	0.117501736
14	0xba9bcbb3	-0.0011886269
15	0xbf11ee4e	-0.5700425
16	0x3eb42408	0.3518374
17	0xbe21bf5b	-0.15795653
18	0x3dfe7cf3	0.12426176
19	0x3e2f4a33	0.17118149
20	0x3de27df1	0.11059178
21	0x3e0b5a70	0.13608718
22	0x3e19698f	0.14981674
23	0x3e78f5f0	0.24312568
24	0xbe946e26	-0.28990287
25	0x3e0c62f6	0.13709626
26	0x3d90e5c5	0.07075075
27	0x3dd5fd1f	0.1044867
28	0xbd6762c7	-0.056490686
29	0xbdf03208	-0.11728293
30	0x3e00fadb	0.12595694
31	0xbc594c41	-0.013262809
32	0x3ea610be	0.32434648
33	0x3e53581e	0.20639083
34	0x3ea0b949	0.3139136
35	0xbe653c22	-0.2238622
36	0x3bef2cb4	0.00729903
37	0xbc855bf9	-0.016279208
38	0x3eec0a0a	0.4610141
39	0xbe83d89d	-0.257512
40	0x3eca565a	0.39519006
41	0x3c75acf0	0.014994845
42	0x3cd67644	0.02617944
43	0x3e657a68	0.22409976
44	0xbe2458e4	-0.16049534
45	0x3decd495	0.11563984
46	0xbd4ca559	-0.049962375
47	0x3e819fcc	0.25317228
48	0x3ea920c9	0.33032826
49	0xbd68a10f	-0.056794222
50	0xbdfdb4ba	-0.123879865
51	0x3e4ad83e	0.19809052
52	0x3f1c347b	0.6101758
53	0xbd4e5df2	-0.050382562
54	0xbc5ff4b0	-0.013669178
55	0xbb9ea750	-0.0048417225
56	0x3e2f7cec	0.17137498
57	0x3cc98f21	0.024604382
58	0x3c097828	0.008390464
59	0x3e7e9101	0.24860002
60	0x3e62c115	0.22143967
61	0x3e92e429	0.28689697
62	0x3e202d3a	0.15642253
63	0xbe0fb08e	-0.14032194

sequential/conv2d_2/BiasAdd/ReadVariableOp f4 [64]
0	0x3d3b9e5f	0.04580533
1	0xbe1dbe82	-0.15404704
2	0x3e103042	0.14080909
3	0xbe1047ec	-0.14089936
4	0xbe2bef8d	-0.167906
5	0xbda6a165	-0.08136252
6	0x3ea42d92	0.32066017
7	0xbdb904b4	-0.090341
8	0x3e1a78fd	0.15085216
9	0x3e292dd1	0.16521384
10	0xbda92179	-0.082583375
11	0xbe0dab56	-0.1383489
12	0xbe4da86c	-0.20083779
13	0x3ea90362	0.33010393
14	0xbe0b21fd	-0.13587184
15	0xbea32f45	-0.31872
16	0xbd3afff8	-0.045654267
17	0xbe0f8f44	-0.14019495
18	0xbe8bf732	-0.27337033
19	0x3e2c8d9e	0.16850898
20	0x3df5634e	0.119818315
21	0xbd28447b	-0.041080933
22	0xbd8ad595	-0.06779019
23	0x3d8b50a7	0.068024926
24	0xbd10bc38	-0.03533575
25	0xbda26894	-0.07930103
26	0xbda41a87	-0.08012872
27	0x3d594aaf	0.05304974
28	0x3e26ce0a	0.16289535
29	0xbd6939db	-0.05693994
30	0xbcfb5cb1	-0.030683847
31	0xbe0a8bce	-0.13529894
32	0x3e806618	0.2507789
33	0xbdbeecb1	-0.09322489
34	0x3e2464e0	0.16054106
35	0xb9acf739	-0.00032990592
36	0xbdea230f	-0.11432468
37	0x3dda4677	0.10657971
38	0xbdc14846	-0.09437613
39	0xba9e1fd5	-0.001206393
40	0xbe434180	-0.19067955
41	0xbd9aa74f	-0.07551443
42	0xbc2f7701	-0.010709525
43	0xbc97eb3b	-0.018544784
44	0xbd7b9d51	-0.061429325
45	0xbdd09ea1	-0.10186506
46	0x3d577b0e	0.05260759
47	0x3ed4960e	0.41520733
48	0xbe1724ea	-0.14760175
49	0x3e2a46e7	0.1662861
50	0x3d9dda32	0.07707633
51	0xbea2b4fc	-0.31778705
52	0xbe120a97	-0.14261852
53	0x3ea25106	0.3170244
54	0xbe1a83c9	-0.15089335
55	0x3e54262e	0.2071769
56	0x3dee7dc9	0.11645085
57	0xbd333ed9	-0.043761108
58	0xbe076efe	-0.13225934
59	0xbe93e754	-0.28887427
60	0xbbef8343	-0.007309349
61	0xbdfdecd4	-0.12398687
62	0xbe6d7e6e	-0.2319276
63	0xbe115368	-0.14191973

sequential/conv2d/Conv2D f4 [32, 5, 5, 1]
0	0xbd8d32ba	-0.06894441
1	0x3dc91cf4	0.098199755
2	0x3c85ebb2	0.01634774
3	0xbeb28a93	-0.3487135
4	0xbde0bea8	-0.10973865
5	0x3e07daf3	0.13267116
6	0x3e8fd4eb	0.2809213
7	0x3de6009e	0.112305865
8	0x3befb54d	0.007315314
9	0xbd2abd72	-0.041684575
10	0xbda7f1e3	-0.08200433
11	0x3dd6861e	0.104747996
12	0x3d6916da	0.05690656
13	0x3e5a3d22	0.21312383
14	0x3d0274b0	0.031849563
15	0xbddebc31	-0.108757384
16	0x3e64a6a3	0.22329192
17	0x3ed2e7b0	0.4119239
18	0x3e398cf1	0.18120171
19	0xbc73dad6	-0.0148837175
20	0xbe4517c9	-0.19247355
21	0x3dece1b4	0.11566487
22	0x3ea2a0a4	0.31763184
23	0x3dca18ef	0.09868037
24	0xbdbfbdb9	-0.093623586
25	0xbe938cb8	-0.28818297
26	0x3c835989	0.016033905
27	0xbc9fd988	-0.019512907
28	0x3dfbaaea	0.12288459
29	0xbdf380de	-0.11889814
30	0xbdd96c70	-0.10616386
31	0x3a487792	0.0007647212
32	0x3e291b0c	0.16514224
33	0xbc96f2d1	-0.01842633
34	0x3cb4a18a	0.022049684
35	0xbe615187	-0.22003756
36	0x3d287c67	0.041134264
37	0x3e5fda0b	0.2186052
38	0x3e0fdcbb	0.14049046
39	0x3d262a4d	0.040567685
40	0xbe06f698	-0.13180006
41	0xbe2d08e1	-0.16897918
42	0x3ef97959	0.48725393
43	0x3d78dd02	0.060757644
44	0x3e3ba580	0.18324852
45	0x3e12d0bc	0.14337438
46	0xbe075534	-0.13216096
47	0x3df6ea40	0.120563984
48	0x3e7ef234	0.2489708
49	0x3cc7a2be	0.024369594
50	0xbd8ad076	-0.06778042
51	0x3d26b138	0.040696353
52	0xbe147a7e	-0.14499852
53	0x3ee37922	0.44428355
54	0x3e40b629	0.18819489
55	0xbdbf5078	-0.0934152
56	0xbd188fc2	-0.037246473
57	0xbd07eb67	-0.03318348
58	0x3e9df538	0.3085115
59	0x3ec7eb03	0.39046487
60	0xbd302633	-0.04300518
61	0xbd85c6fe	-0.065320954
62	0x3c2c0510	0.010499254
63	0x3e4a6be9	0.19767727
64	0x3e87d826	0.26532096
65	0xbe20f243	-0.15717416
66	0xbda07e19	-0.07836551
67	0x3e0b96aa	0.13631693
68	0x3d94b921	0.07261873
69	0x3d86203a	0.065491155
70	0xbe4406a7	-0.19143163
71	0x3cdbd5bd	0.026835317
72	0xbd1a769b	-0.037710767
73	0x3ddfc906	0.10927014
74	0xbe909cce	-0.28244632
75	0xbe0d0ceb	-0.13774459
76	0xbcd340b3	-0.025787687
77	0xbe669356	-0.22517142
78	0x3cc358ba	0.023846019
79	0x3c2d1c27	0.010565794
80	0xbe9b2ba2	-0.30306727
81	0xbdd2dbec	-0.10295853
82	0x3deb8223	0.11499431
83	0x3df878cf	0.121324174
84	0x3d2d6581	0.04233313
85	0xbda9c7c8	-0.082900584
86	0x3e979dd0	0.2961259
87	0x3e8a555b	0.27018246
88	0x3b045796	0.0020193807
89	0xbe43d19d	-0.1912293
90	0xbde495c0	-0.11161375
91	0xbd2b6c91	-0.041851584
92	0x3dfedfa6	0.12445001
93	0xbe38912d	-0.1802413
94	0xbe848a6f	-0.25886866
95	0x3d8ad68d	0.067792036
96	0xbe182e42	-0.14861396
97	0xbece022d	-0.40236035
98	0xbd153c58	-0.0364345
99	0xbd05b58a	-0.032643832
100	0xbe319e2a	-0.17345491
101	0x3cea3794	0.028590955
102	0x3e01ad00	0.1266365
103	0x3c9cd88c	0.019146226
104	0xbefb356f	-0.49064204
105	0x3d383c92	0.04497964
106	0xbc9df03f	-0.019279597
107	0x3eb850c7	0.35999128
108	0xbd00be14	-0.031431273
109	0xbeaf737d	-0.34267798
110	0xbe083eb4	-0.1330517
111	0xba3e0540	-0.0007248707
112	0xbcdffc7a	-0.02734207
113	0x3eb0a18e	0.34498256
114	0xbeb951ed	-0.36195317
115	0xbe135ccb	-0.14390866
116	0x3dc26430	0.094917655
117	0xbc008d46	-0.007846182
118	0x3e4c47e0	0.19949293
119	0xbe0be7da	-0.13662663
120	0xbe098444	-0.13429362
121	0xbcdbdbc0	-0.026838183
122	0xbc85e335	-0.016343692
123	0xbd08ef3e	-0.033431284
124	0x3cd17d54	0.025572456
125	0xbc769c23	-0.015051874
126	0x3d52c12b	0.05145375
127	0x3e07fbe2	0.1327968
128	0x3da847c6	0.08216815
129	0x3db185c2	0.086680904
130	0x3e126073	0.14294605
131	0x3e3886c8	0.18020165
132	0x3e4c4abb	0.19950382
133	0x3e04db99	0.12974395
134	0xbd731e32	-0.05935497
135	0xbda0e464	-0.07856062
136	0xbe6b341e	-0.229691
137	0xbeb6a14b	-0.35669932
138	0xbea36075	-0.31909528
139	0xbe9a08b0	-0.30084753
140	0xbe81a3a5	-0.25320163
141	0xbd8834cd	-0.06650696
142	0xbe1ed152	-0.15509537
143	0xbe2fb16e	-0.17157528
144	0xbea9a188	-0.3313105
145	0xbcf4c244	-0.02987779
146	0x3d98411a	0.07434292
147	0x3e123647	0.14278518
148	0x3e8209a6	0.25397986
149	0x3d5daf3e	0.054122202
150	0xbe0dd732	-0.13851622
151	0xbec24847	-0.37945768
152	0xbe75106a	-0.23932043
153	0x3d393190	0.045213282
154	0x3d27a6d8	0.0409306
155	0x3c4108b0	0.011781856
156	0xbe7ee0eb	-0.24890487
157	0xbeb67dd7	-0.35642883
158	0xbdce9265	-0.10086516
159	0x3da9c783	0.08290007
160	0x3dc665d3	0.0968739
161	0x3ddb84cf	0.107186906
162	0xbe305cde	-0.17222926
163	0x3d4ee12b	0.050507706
164	0xbd48a019	-0.048980806
165	0xbe0d7ae4	-0.1381641
166	0x3e40ad59	0.18816127
167	0x3e1dd894	0.15414649
168	0x3cad2ffd	0.021141047
169	0x3b6d2eb0	0.0036191158
170	0xbd15fcb3	-0.036617946
171	0x3e15721c	0.1459431
172	0x3e8b636f	0.272243
173	0x3d22aa6e	0.039713316
174	0x3cdfb8fe	0.02730989
175	0x3f0f6e4f	0.5602769
176	0x3c0073f6	0.007840147
177	0xbbd1b101	-0.0063992743
178	0xbdad82de	-0.084722266
179	0x3ddde28e	0.108342275
180	0x3e9604c3	0.29300508
181	0x3e70f6ae	0.23531601
182	0x3e68bf3a	0.22729197
183	0xbd331f9a	-0.04373131
184	0x3d8ffaed	0.07030282
185	0xbd678cfb	-0.056530934
186	0x3c922c2e	0.017843332
187	0xb9bcefd9	-0.00036036855
188	0xbdeaa1d4	-0.114566475
189	0xbe5cb079	-0.21551694
190	0x3e108931	0.14114834
191	0x3d89c684	0.06727317
192	0x3d8b6014	0.06805435
193	0xbdb36f9e	-0.08761524
194	0xbdc21c09	-0.094780035
195	0xbdc4c33a	-0.09607549
196	0xbcf920e0	-0.030411184
197	0x3dc1857e	0.0944929
198	0xbe662299	-0.22474135
199	0xbe595e0b	-0.21227281
200	0x3e799b74	0.24375707
201	0x3eb558a9	0.35419205
202	0x3e33f4e6	0.1757389
203	0xbce1a316	-0.027543586
204	0xbe5e8900	-0.21731949
205	0x3ca2ffda	0.01989739
206	0xbcab497d	-0.020909065
207	0x3ca846ae	0.020541515
208	0xbe3a3678	-0.1818484
209	0x3be42476	0.0069623543
210	0x3e048a5c	0.12943405
211	0xbe252aba	-0.1612958
212	0xbe613e19	-0.21996345
213	0xbe1d625c	-0.15369552
214	0xbdf41aa9	-0.119191475
215	0xbd32591b	-0.04354201
216	0xbe81f662	-0.25383288
217	0xbe6ce2b7	-0.2313336
218	0x3daa9828	0.08329803
219	0x3d3089ed	0.043100286
220	0x3d85ddfc	0.06536481
221	0xbd8b2992	-0.06795038
222	0xbe20c099	-0.1569847
223	0x3d967f19	0.07348461
224	0x3e902f8f	0.28161284
225	0x3d065b6b	0.032802027
226	0x3e86909d	0.26282206
227	0xbd425e73	-0.047453355
228	0x3eedcb1c	0.46444023
229	0x3e5fd4ea	0.21858564
230	0xbe2760ed	-0.16345568
231	0x3e314f46	0.17315397
232	0xbcdf6739	-0.0272709
233	0x3e40769b	0.18795244
234	0x3d58ab21	0.052897576
235	0x3dd032ec	0.101659626
236	0x3e92816c	0.28614366
237	0xbd539459	-0.051655147
238	0x3ebbfe39	0.36717394
239	0x3dd2eda1	0.1029923
240	0xbe027f12	-0.12743786
241	0x3e1a117d	0.15045734
242	0xbcd9da51	-0.02659336
243	0x3b960ab6	0.0045789136
244	0xbcdf9c5d	-0.02729624
245	0xbbbd4da2	-0.005777077
246	0x3d6c4e01	0.057691578
247	0x3c9dce45	0.019263396
248	0x3dc6645b	0.0968711
249	0xbdf42d4a	-0.11922701
250	0x3d3eb982	0.046563633
251	0xbe787fcc	-0.242675
252	0xbe13d3d2	-0.14436272
253	0xbe5c26ee	-0.21499225
254	0xbe8aaa25	-0.27082935
255	0x3d93c5d7	0.07215469

sequential/conv2d_1/Conv2D f4 [64, 3, 3, 32]
0	0x3ebb4f9d	0.36584178
1	0xbc6e4336	-0.0145423915
2	0x3d1731d4	0.036912754
3	0xbec1b1ee	-0.37831062
4	0xbd6a886d	-0.057259012
5	0x3decd516	0.115640804
6	0x3d2f8e24	0.042860165
7	0x3ee9851c	0.45609367
8	0xbe87b0a2	-0.26501948
9	0x3ec10c1d	0.37704554
10	0x3de6997d	0.11259744
11	0xbe94a322	-0.2903071
12	0xbe84d393	-0.25942668
13	0x3ea303a0	0.31838703
14	0x3e13bc9b	0.14427416
15	0x3d296c83	0.04136325
16	0x3d9d2176	0.07672398
17	0xbc8d02e0	-0.017213285
18	0x3e1a5851	0.15072753
19	0xbdcc48cc	-0.099748224
20	0x3e8845d9	0.2661579
21	0x3e5cd50c	0.21565646
22	0x3e03b902	0.12863544
23	0xbe085b1e	-0.13316008
24	0x3e5ba429	0.21449341
25	0x3e8d0004	0.27539074
26	0xbca16c38	-0.019704923
27	0xbd5f000d	-0.054443408
28	0x3da3353e	0.079691395
29	0xbdb3ff0d	-0.087888815
30	0xbee423b4	-0.4455849
31	0x3e137015	0.14398225
32	0x3e829b46	0.2550909
33	0xbdc04d5c	-0.09389755
34	0x3e8b1769	0.27166298
35	0x3e46b458	0.19404733
36	0x3e2a1b69	0.16612019
37	0xbe83d046	-0.25744838
38	0xbf0167cb	-0.50549
39	0x3d6d917e	0.05800008
40	0x3d2c74a1	0.042103413
41	0x3e6f7a8d	0.23386593
42	0xbd53f2e7	-0.05174532
43	0xbeac843f	-0.33694646
44	0xbe2e245d	-0.17006059
45	0x3ea73187	0.32654974
46	0x3d294a53	0.041330647
47	0x3e032a67	0.12809144
48	0x3b92a5c8	0.004475329
49	0xbc97b012	-0.018516574
50	0x3dd695c8	0.10477787
51	0xbcbfc624	-0.02340991
52	0x3e0c3281	0.1369114
53	0x3e6c317a	0.23065749
54	0xbdc90da9	-0.098170586
55	0x3db15244	0.08658269
56	0xbe1d4b8a	-0.15360847
57	0xbdcf0fb6	-0.101104185
58	0xbd9812df	-0.074254744
59	0xbe0a5cc7	-0.13511954
60	0xbe0a4c28	-0.13505614
61	0x3e9456d5	0.28972498
62	0xbe003f6c	-0.12524194
63	0xbe21e240	-0.15808964
64	0x3e853b28	0.26021695
65	0xbdd486f7	-0.10377305
66	0x3ddb3ae6	0.10704593
67	0xbdd0d708	-0.10197264
68	0x3e07e7ac	0.1327197
69	0xbe8a1b7a	-0.26974088
70	0xbf02e80b	-0.5113532
71	0x3e9e7646	0.3094961
72	0x3da2359c	0.079203814
73	0x3dc0d243	0.09415104
74	0xbd8120dc	-0.063050956
75	0xbd3a4780	-0.045478344
76	0xbeeedeb3	-0.4665428
77	0x3dd88961	0.10573078
78	0x3e40cc49	0.18827929
79	0xbe4d7add	-0.200664
80	0x3e5767e8	0.21035731
81	0x3eb2434f	0.34816977
82	0x3cf6042b	0.030031284
83	0x3e866de5	0.26255718
84	0x3e94f61f	0.29094025
85	0x3e641243	0.22272591
86	0xbdee7639	-0.11643643
87	0xbc0b34fa	-0.008496517
88	0xbe82d2e9	-0.25551537
89	0xbda41720	-0.08012223
90	0xbdc3111e	-0.09524749
91	0x3ccc5a85	0.024945507
92	0xbdc2a4d3	-0.09504094
93	0x3d9cc043	0.076538585
94	0xbe71a977	-0.23599802
95	0xbe5ecf0f	-0.21758674
96	0x3e4efe61	0.20214225
97	0x3e5f78a9	0.21823372
98	0x3e9b7c42	0.3036824
99	0xbe17abd9	-0.14811648
100	0xbea59d63	-0.3234664
101	0xbd63a8e4	-0.05558099
102	0x3d8c6a55	0.06856219
103	0x3ea40f6e	0.32043022
104	0xbcebe77b	-0.028796902
105	0x3e99a4d7	0.30008575
106	0x3e032ce4	0.12810093
107	0xbec0231c	-0.37526786
108	0xbe5f67e1	-0.2181697
109	0x3e44567d	0.19173618
110	0xbe14727e	-0.144968
111	0xbb9ac4e4	-0.004723178
112	0x3e5a0e72	0.21294573
113	0x3dc86862	0.097855344
114	0x3dc642ad	0.09680686
115	0xbdc49f86	-0.09600739
116	0xbd06310b	-0.032761615
117	0x3e52dbd9	0.20591678
118	0xbe065942	-0.13119987
119	0xbdf1d8f8	-0.11808962
120	0x3ed0e7d1	0.40801862
121	0xbd82909d	-0.06375239
122	0xbd3ed66c	-0.046591207
123	0x3d943356	0.07236354
124	0x3da380e6	0.0798357
125	0x3e5e8483	0.21730237
126	0xbe5bce2e	-0.2146537
127	0x3cf32013	0.02967838
128	0x3ca3a0df	0.01997417
129	0x3d9abadc	0.07555172
130	0x3d8a774f	0.067610376
131	0xbc59b1f9	-0.013287061
132	0x3ddcc431	0.10779608
133	0xbeab80ba	-0.33496648
134	0xbeb71c31	-0.35763696
135	0x3de5fa3f	0.11229371
136	0xbd2d810d	-0.0423594
137	0x3df240b4	0.118287474
138	0x3cae6384	0.021287687
139	0xbe9d069f	-0.30669114
140	0xbe455d4d	-0.19273873
141	0x3e3906cf	0.18069004
142	0xba961fee	-0.0011453608
143	0xbe3477a7	-0.17623769
144	0x3c4d3edd	0.012527195
145	0xbd8dbbe6	-0.069206044
146	0xbde3b0cb	-0.11117705
147	0xbdc12061	-0.09430004
148	0x3d6e0761	0.058112506
149	0x3e2ceea2	0.16887906
150	0xbe23b6d0	-0.15987706
151	0x3df44dcb	0.119289
152	0xbea8a63b	-0.32939324
153	0xbe3339aa	-0.17502466
154	0xbdf19633	-0.11796226
155	0xbd49da71	-0.049280588
156	0xbdeb529a	-0.114903644
157	0x3d4e1837	0.05031606
158	0xbde072c4	-0.1095939
159	0x3da91649	0.08256204
160	0x3e2f9946	0.17148313
161	0xbd11979e	-0.035544984
162	0x3e5b278d	0.21401806
163	0x3d75d6d3	0.060019325
164	0x3df4da1e	0.11955665
165	0x3e00d680	0.12581825
166	0xbe0dcd10	-0.13847756
167	0x3e2f7b24	0.17136818
168	0x3e20d407	0.15705882
169	0x3e1b870a	0.15188232
170	0x3d9e4117	0.07727259
171	0x3ce217c1	0.027599217
172	0xbd75a282	-0.059969433
173	0x3de784a2	0.113045946
174	0x3dc8962b	0.09794267
175	0xbd030e3b	-0.031995993
176	0x3e1e99b2	0.15488318
177	0x3e8de1af	0.27711245
178	0xbd601c14	-0.054714277
179	0x3de93343	0.113867305
180	0x3e0dc4d3	0.13844614
181	0x3e78e0da	0.24304524
182	0xbdb02d95	-0.08602444
183	0xbdb95498	-0.09049338
184	0xbde94eb4	-0.113919646
185	0xbebba527	-0.3664944
186	0xbe752ec6	-0.23943624
187	0xbe1a8825	-0.15090998
188	0xbeacb8cb	-0.33734736
189	0x3cff40e0	0.031158864
190	0xbda74144	-0.08166745
191	0xbba10f7b	-0.0049151755
192	0xbce53004	-0.027976997
193	0x3d1d959b	0.038472753
194	0x3d97df96	0.074156925
195	0x3d32cea3	0.043654095
196	0xbe83d793	-0.25750408
197	0x3e4b87a5	0.19875963
198	0x3e5efc51	0.21775939
199	0x3e57d732	0.21078184
200	0xbd8a1235	-0.06741754
201	0x3be6e421	0.007046238
202	0x3ba19b0c	0.004931813
203	0xbe45f935	-0.19333346
204	0x3d1e3486	0.03862431
205	0xbd3d60d5	-0.046234924
206	0xbded3021	-0.115814455
207	0x3dc49d0a	0.09600265
208	0x3dd14520	0.10218263
209	0xbd1109da	-0.035409786
210	0x3e6e6356	0.23280081
211	0xbc7428e1	-0.014902324
212	0xbe400b12	-0.18754223
213	0xbe01c97f	-0.12674521
214	0x3d8f15d8	0.06986588
215	0x3d8f56c1	0.06998969
216	0x3e5de2ac	0.216685
217	0x3df6cf48	0.120512545
218	0xbe826c56	-0.2547328
219	0x3d9042d5	0.07043997
220	0x3deda9fe	0.11604689
221	0x3dc83147	0.09775024
222	0xbe4aab8e	-0.19792005
223	0x3eb69894	0.35663283
224	0xbd8a198f	-0.06743156
225	0xbda29ccf	-0.07940065
226	0x3d864180	0.06555462
227	0xbdad55cf	-0.08463632
228	0xbe2e1ad4	-0.17002422
229	0xbd976672	-0.07392587
230	0xbe163de5	-0.14672048
231	0xbd406bb7	-0.046977725
232	0xbe2aa78d	-0.16665478
233	0x3e02e5e2	0.12783006
234	0x3e2628af	0.16226457
235	0x3da81bda	0.08208437
236	0xbcbdf808	-0.02318956
237	0xbe1d4cfe	-0.15361401
238	0x3df2df7b	0.11859032
239	0x3e755b9a	0.23960724
240	0x3c6b7d37	0.014373115
241	0xbe67d3a5	-0.2263933
242	0x3d56e82d	0.052467514
243	0xbcac3753	-0.021022474
244	0xbe4eeb5e	-0.20206973
245	0x3d82b08a	0.063813284
246	0x3cdc2707	0.026874078
247	0xbe12267d	-0.14272495
248	0x3d841e73	0.0645112
249	0xbe33dc16	-0.17564425
250	0x3cb244c6	0.02176131
251	0xbcd881dd	-0.026429111
252	0xbe117d0a	-0.14207855
253	0x3e38178a	0.1797773
254	0x3d44bbfa	0.04803083
255	0x3d8ef114	0.06979576

sequential/conv2d_2/Conv2D f4 [64, 3, 3, 64]
0	0x3d6ef596	0.058339678
1	0x3d389187	0.04506066
2	0x3e0ce6bf	0.13759898
3	0x3ea3695c	0.3191632
4	0x3d1f46a3	0.038885724
5	0x3d97213b	0.07379385
6	0xbd5fb26c	-0.054613516
7	0x3ca16b3e	0.019704457
8	0x3e5a044b	0.212907
9	0x3dc2d167	0.095125966
10	0x3d48088c	0.048836276
11	0x3e36819e	0.17822883
12	0x3dce0280	0.100590706
13	0x3e204ace	0.15653536
14	0xbd41d3c6	-0.047321104
15	0x3d976061	0.0739143
16	0x3ea3e60e	0.32011455
17	0xbe5274e0	-0.20552397
18	0x3d7f5e17	0.06234559
19	0xbe178f5c	-0.14800781
20	0xbe00a342	-0.12562278
21	0xbe0d4509	-0.13795866
22	0x3e1fb8e7	0.15597878
23	0x3da39980	0.07988262
24	0x3c2e3857	0.01063355
25	0xbe1e870d	-0.15481205
26	0x3daf2cda	0.08553477
27	0x3d2d0177	0.042237725
28	0x3de3bac7	0.11119609
29	0x3dd4f2ab	0.10397848
30	0xbe14e9d2	-0.1454232
31	0x3e90d678	0.28288627
32	0x3e122af8	0.14274204
33	0xbdfb8aca	-0.12282331
34	0xbe51b717	-0.2048
35	0x3c912ce1	0.017721595
36	0xbe564a4a	-0.20926777
37	0x3e963288	0.29335427
38	0x3dbb78b1	0.091538794
39	0xbdbfd78b	-0.093672834
40	0xbc320985	-0.010866527
41	0xbd93af23	-0.07211139
42	0xbcfd17fb	-0.030895224
43	0x3e20ed33	0.15715484
44	0x3e3c6204	0.18396765
45	0x3cbe58ee	0.023235764
46	0x3d9fbfcf	0.078002565
47	0xbd3e570a	-0.046469726
48	0xbcd5a91a	-0.02608161
49	0x3d175189	0.036942992
50	0x3e0c0b34	0.13676149
51	0xbd91049f	-0.070809595
52	0x3e0804b8	0.1328305
53	0x3d358a6d	0.044321466
54	0x3d848024	0.064697534
55	0xbc2746f1	-0.010209785
56	0x3e43909c	0.19098133
57	0xbcc93e88	-0.02456595
58	0x3e5decdc	0.21672386
59	0x3e6ee375	0.23328955
60	0x3e38b5b0	0.18038058
61	0xbc5395fa	-0.012914175
62	0xbc3ed888	-0.011648305
63	0x3beaf598	0.0071703903
64	0xbc0a5d6e	-0.008445127
65	0xbd91d888	-0.07121378
66	0x3eae477e	0.3403892
67	0x3d96c3bb	0.073615514
68	0x3d1466e3	0.036230933
69	0xbc202115	-0.009773512
70	0x3d0c8454	0.034305885
71	0xbd86cfa9	-0.06582577
72	0x3bb9ce9a	0.005670381
73	0x3e15887b	0.14602844
74	0x3e0d41b1	0.1379459
75	0xbdc8e67b	-0.09809586
76	0xbdb6a0a7	-0.08917361
77	0xbe4b0ed3	-0.19829874
78	0xbda03cfc	-0.07824132
79	0xb983791d	-0.00025076504
80	0xbdf285a9	-0.118419
81	0x3e4680ad	0.19385023
82	0xbeb7105a	-0.35754663
83	0x3d2a2e0c	0.04154782
84	0xbdb09cee	-0.08623682
85	0xbed3025e	-0.41212744
86	0xbe56fa6a	-0.20993963
87	0xbca7bd20	-0.020475924
88	0x3e02b0c2	0.1276274
89	0x3e23e340	0.16004658
90	0xbdc73d24	-0.097284585
91	0xbba32d22	-0.0049797455
92	0x3e2ed5de	0.17073771
93	0xbe03c20a	-0.12866989
94	0xbe670561	-0.22560646
95	0x3e95e964	0.29279625
96	0xbe741703	-0.23836903
97	0xbe55037a	-0.20802107
98	0xbda06de4	-0.0783346
99	0xbd02c408	-0.03192523
100	0xbe519720	-0.20467806
101	0x3cfbf9c8	0.030758753
102	0xbd579e53	-0.052641224
103	0xbe847cc9	-0.25876454
104	0xbda4d98c	-0.08049306
105	0xbe2be7ab	-0.16787593
106	0xbde85f43	-0.11346295
107	0xbda4343a	-0.08017774
108	0x3da6d821	0.08146692
109	0x3e25d1e6	0.16193351
110	0x3c97fb71	0.018552514
111	0x3d2f64f4	0.042820886
112	0xbe202515	-0.15639146
113	0x3dac5945	0.08415464
114	0x3e4570ea	0.19281355
115	0xbc379c52	-0.011206703
116	0xbe585e37	-0.2112969
117	0x3c8f55c2	0.017496947
118	0xbe6dde6b	-0.23229377
119	0x3d0820db	0.03323446
120	0x3de76f5f	0.11300539
121	0xbcdae7e7	-0.026721908
122	0x3d8edd6f	0.06975829
123	0x3ce0b814	0.027431525
124	0xbce30d28	-0.027716234
125	0x3e125aa3	0.14292388
126	0xbe44abda	-0.19206181
127	0xbd969766	-0.07353096
128	0x3ca4550f	0.02006009
129	0x3d4e7538	0.050404757
130	0x3d6b87d8	0.057502598
131	0x3e46dcd6	0.1942018
132	0xbdbe0384	-0.09278014
133	0xbdf2312f	-0.11825787
134	0xbe242a2a	-0.1603171
135	0xbd95d3b7	-0.07315772
136	0xbcfc8dbf	-0.030829309
137	0x3d163bbf	0.036678072
138	0x3e0d527c	0.13800997
139	0x3dd5687c	0.104203194
140	0xbd5b77d0	-0.05358106
141	0xbd4c8e47	-0.049940374
142	0xbd9a0e51	-0.07522262
143	0x3c482928	0.012216844
144	0x3b9fc944	0.0048762877
145	0xbe3b0dd7	-0.18266998
146	0xbe08af28	-0.13348067
147	0x3dfd5c79	0.123711534
148	0xbe797e4d	-0.24364586
149	0xbe1c4124	-0.15259224
150	0x3e6af0e6	0.22943458
151	0xbdba6b1d	-0.091024615
152	0x3df0392c	0.11729655
153	0x3ddc54c4	0.10758355
154	0x3dcbfd47	0.09960418
155	0x3d994463	0.07483747
156	0x3df47e51	0.119381554
157	0xbd3ff1c7	-0.046861436
158	0xbd879f20	-0.066221476
159	0x3ddc52c2	0.10757972
160	0xbce01c97	-0.027357383
161	0xbc98a306	-0.018632423
162	0x3e1798bf	0.14804362
163	0x3d9c1451	0.076210625
164	0x3bb6eeca	0.005582665
165	0x3d961712	0.07328619
166	0x3dce8157	0.10083263
167	0x3d91ece0	0.071252584
168	0x3e0039f3	0.12522106
169	0x3d90fded	0.070796825
170	0xbd766746	-0.060157083
171	0xbd9dc98e	-0.07704459
172	0x3d93ebaa	0.07222684
173	0x3c9c5460	0.019083202
174	0xbe6eaebf	-0.23308848
175	0x3e822662	0.2541991
176	0x36ccb908	6.1012142e-06
177	0xbe8259c1	-0.25459102
178	0x3e05880f	0.13040183
179	0xbe1ba1ec	-0.15198487
180	0xbcf43f1b	-0.029815247
181	0xbd994f60	-0.07485843
182	0x3db145f2	0.08655919
183	0xbc2da561	-0.010598511
184	0x3e1f9bc2	0.1558676
185	0x3daf7829	0.085678406
186	0xbd90eed2	-0.07076801
187	0x3d45e575	0.04831453
188	0x3e09064e	0.13381311
189	0x3e614427	0.21998654
190	0xbe043de3	-0.12914233
191	0x3d852b00	0.06502342
192	0xbe94f351	-0.29091886
193	0xbc97c523	-0.01852662
194	0x3e87d966	0.2653305
195	0xbec53474	-0.3851658
196	0xbc1de9c0	-0.00963825
197	0x3d06b0bc	0.03288339
198	0x3cdbbe82	0.02682424
199	0x3d9f537e	0.07779597
200	0xbd306b2b	-0.043070953
201	0x3d7ac865	0.061226267
202	0xbe19d216	-0.15021548
203	0x3e80e856	0.25177258
204	0xbe21c22f	-0.15796731
205	0xbb917763	-0.004439281
206	0xbd828cdb	-0.06374522
207	0x3d81fbd9	0.06346864
208	0x3c5eb3c9	0.013592669
209	0x3defd2f4	0.11710158
210	0xbd9d4d39	-0.07680745
211	0xbe4e92ab	-0.20173137
212	0x3dd21aa5	0.10258988
213	0xbd754ba2	-0.059886582
214	0xbe148609	-0.14504255
215	0xbe723a52	-0.2365506
216	0x3d1e6d29	0.038678322
217	0x3eab000d	0.33398476
218	0xbe14887d	-0.14505191
219	0x3cbaee86	0.022818815
220	0x3cfade0b	0.030623456
221	0xbe0cb7dc	-0.13742012
222	0xbe75c2a5	-0.24000032
223	0x3bec0cc0	0.0072036684
224	0x3c13ff52	0.009033041
225	0xbc993df5	-0.018706301
226	0x3e54e4ec	0.20790452
227	0x3e9bf1fc	0.30458057
228	0x3e0d7060	0.13812399
229	0x3e2fb14c	0.17157477
230	0x3eacf1af	0.3377814
231	0xbdeae6bc	-0.1146979
232	0xbd85ec51	-0.065392144
233	0xbe974c33	-0.29550323
234	0xbc9c7e7d	-0.019103283
235	0x3d3d6ced	0.046246458
236	0xbb91a025	-0.0044441395
237	0xbc6f6e36	-0.014613679
238	0xbda96ab0	-0.08272302
239	0x3c71f4d4	0.014767844
240	0xbec90762	-0.39263445
241	0x3e75cff2	0.24005106
242	0x3d5384db	0.051640373
243	0xbe19d096	-0.15020975
244	0xbe3cf3be	-0.18452355
245	0xbd48c87a	-0.049019314
246	0xbe523869	-0.20529331
247	0x3c434b9d	0.011919883
248	0x3d5ebc23	0.05437864
249	0xbe6ec35a	-0.23316708
250	0x3e12f19b	0.14349978
251	0xbe32717d	-0.17426105
252	0x3c69e422	0.0142755825
253	0x3e70f966	0.23532638
254	0xbdff7844	-0.12474111
255	0x3e54a54a	0.20766178

sequential/lstm/Read_2/ReadVariableOp f4 [64]
0	0xbbf5f003	-0.0075054183
1	0x3dd9a98d	0.10628042
2	0x3eeea602	0.4661103
3	0x3dfa28a0	0.1221478
4	0xba8a4513	-0.001054915
5	0x3e25f437	0.16206442
6	0x3dad581c	0.08464071
7	0xbd41740e	-0.04722982
8	0x3d020ea7	0.031752255
9	0x3894c95e	7.0946975e-05
10	0x3dba4cd0	0.09096682
11	0x3d94404c	0.07238826
12	0x3e3f18f8	0.18661869
13	0x3e857207	0.26063558
14	0x3db0dc1e	0.08635734
15	0x3ede225b	0.43385586
16	0x3f65d5c5	0.8977931
17	0x3f8a2e31	1.0795346
18	0x3f82c343	1.0215839
19	0x3f940413	1.1563743
20	0x3f690a4b	0.9103133
21	0x3f96e80a	1.1789563
22	0x3f81e55b	1.0148119
23	0x3f93604f	1.1513766
24	0x3f9548db	1.1662859
25	0x3f92f272	1.1480238
26	0x3f9b1ef2	1.2118819
27	0x3f9b3189	1.2124492
28	0x3f8ca514	1.0987878
29	0x3f791371	0.9729529
30	0x3f8f992c	1.1218619
31	0x3f80a17c	1.0049281
32	0xbdb5e1b1	-0.08880938
33	0xbdf1ac97	-0.11800497
34	0xbe7d9585	-0.24764068
35	0x3e8473a5	0.2586948
36	0x3ae64933	0.0017569422
37	0xbd8d26b4	-0.06892148
38	0xbe3ea051	-0.18615843
39	0x3e7eb6d2	0.24874428
40	0x3c488107	0.012237794
41	0x3b8f56d5	0.004374365
42	0xbe5c3ca4	-0.21507508
43	0x3d57d707	0.0526953
44	0xbdf1d868	-0.11808854
45	0x3dce71b5	0.10080282
46	0xbdb52a4a	-0.088459566
47	0xbe92e868	-0.28692937
48	0x3d2fd1c3	0.042924654
49	0x3e749b19	0.2388729
50	0x3f0862bd	0.5327566
51	0xbe202f5c	-0.15643066
52	0x3d31d16d	0.043412615
53	0x3e1c483b	0.15261929
54	0xbc234690	-0.009965554
55	0x3dec87c6	0.11549334
56	0x3daf8a27	0.08571272
57	0x3e06c35f	0.13160466
58	0x3e56661d	0.2093739
59	0x3e1bd4e9	0.15217938
60	0x3e16b4c6	0.14717397
61	0x3de4c95c	0.11171219
62	0x3df5acf8	0.11995882
63	0x3eb47655	0.3524653

sequential/dense/BiasAdd/ReadVariableOp f4 [32]
0	0x3e24b9c0	0.16086483
1	0x3e2c749f	0.16841362
2	0x3d364050	0.044494927
3	0x3de60901	0.11232186
4	0x3d10bd1b	0.035336595
5	0x3d1512f3	0.036395025
6	0x3e352916	0.17691454
7	0x3df096d5	0.11747519
8	0x3da66505	0.08124737
9	0x3a32aada	0.000681562
10	0xbce0747f	-0.0273993
11	0x3e39b054	0.1813367
12	0x3d9ab511	0.07554067
13	0x3cff4b50	0.031163841
14	0x3e3bd616	0.18343386
15	0x3e405c65	0.18785246
16	0x3e4a098e	0.19730207
17	0x3e6253fb	0.22102349
18	0x3dfc3178	0.12314123
19	0x3d562831	0.052284423
20	0x3e285eb0	0.1644237
21	0x3daeb892	0.08531298
22	0x3d5f3e5a	0.054502822
23	0x3e450d02	0.19243243
24	0x3e05abc6	0.13053808
25	0xbd001c4c	-0.031276986
26	0x3baa0b52	0.005189338
27	0x3e05ee49	0.1307918
28	0x3e48881c	0.19583172
29	0xbcda920e	-0.026680972
30	0x3e3323af	0.17494081
31	0x3e2e43dd	0.17018075

sequential/batch_normalization/FusedBatchNormV3 f4 [32]
0	0x3e6e18b3	0.2325161
1	0x3ebde188	0.3708613
2	0x3ee6711a	0.45008165
3	0x40e3236f	7.0980754
4	0x3ff86a6e	1.940748
5	0x40837d17	4.1090198
6	0x400badcb	2.1824825
7	0x3e98a765	0.29815212
8	0x3feabdbd	1.8339154
9	0x3e2d684b	0.16934316
10	0x40978f28	4.736225
11	0x3fe2bfa9	1.771474
12	0x400a4650	2.1605415
13	0x3f131904	0.57460046
14	0x3f0e043e	0.55475223
15	0x40b9980e	5.7998114
16	0x3f68aafc	0.908859
17	0x3fd3b88c	1.6540694
18	0x3fbe0574	1.4845414
19	0x40368318	2.8517513
20	0x3e533a67	0.20627747
21	0x41c5edd5	24.741129
22	0x3fb94809	1.4475108
23	0x40797482	3.897736
24	0x40036183	2.0528266
25	0x40f328c4	7.5987263
26	0x40168c7c	2.3523245
27	0x40c3d8c7	6.120212
28	0x3feaecc2	1.8353503
29	0x3ee152e4	0.44008553
30	0x3fbbd644	1.4674764
31	0x404794e5	3.1184628

sequential/batch_normalization/FusedBatchNormV31 f4 [32]
0	0xbe1260f5	-0.14294799
1	0xbe414256	-0.18872961
2	0xbeb1fe39	-0.3476427
3	0xbe354c15	-0.17704804
4	0xbe34e7c2	-0.17666534
5	0xbe5d944a	-0.21638599
6	0xbee11f32	-0.43969113
7	0xbe21917e	-0.15778157
8	0xbe8f3149	-0.2796729
9	0xbe6f87a6	-0.2339159
10	0xbed41525	-0.41422382
11	0xbe99b49b	-0.30020604
12	0x3babb7a0	0.0052403957
13	0xbe022e02	-0.12712863
14	0xbe19d3fd	-0.15022273
15	0xbead3e6b	-0.33836684
16	0xbe9a03fe	-0.3008117
17	0xbebf2336	-0.3733155
18	0xbea5fc26	-0.32418936
19	0xbecd4d5e	-0.4009809
20	0xbe0e80f3	-0.13916378
21	0xbf4258c6	-0.7591671
22	0xbeac793f	-0.33686253
23	0xbeb5f26e	-0.35536522
24	0xbf35122c	-0.70730853
25	0xbed22013	-0.41040096
26	0xbeb1ca23	-0.3472453
27	0xbe4c97a7	-0.19979726
28	0xbea01a0e	-0.31269878
29	0xbe7b72c9	-0.24555506
30	0xbe0c871f	-0.1372342
31	0xbec9d042	-0.394167

sequential/batch_normalization_1/FusedBatchNormV3 f4 [64]
0	0x3e7ae096	0.24499735
1	0x3e98252e	0.29715866
2	0x3e958363	0.29201803
3	0x3ed62c0a	0.41830474
4	0x3ed477dc	0.41497695
5	0x3eb1f3e0	0.34756374
6	0x3e88a01d	0.26684657
7	0x3e2d7b75	0.16941626
8	0x3f4697af	0.775752
9	0x3db01799	0.08598251
10	0x3eb043c3	0.34426698
11	0x3ead0d54	0.3379923
12	0x3e7f48c4	0.24930102
13	0x3e9f63f7	0.31130955
14	0x3f01c6b1	0.50693804
15	0x3e116625	0.14199121
16	0x3ef332ec	0.47499788
17	0x3ed0c2ed	0.40773717
18	0x3f0810ea	0.5315081
19	0x3efaa5ab	0.4895452
20	0x3f16d307	0.5891575
21	0x3f105f65	0.5639556
22	0x3e649f2c	0.22326344
23	0x3e9a24dc	0.30106246
24	0x3e898d1f	0.2686548
25	0x3ed3f1b6	0.41395348
26	0x3f11acb3	0.56904143
27	0x3e5af4f4	0.21382505
28	0x3e3c6d2e	0.18401024
29	0x3f71a5c0	0.9439354
30	0x3ee32622	0.4436503
31	0x3ec44406	0.38333148
32	0x3dba26d9	0.09089441
33	0x3e97ec33	0.29672393
34	0x3ee9c62a	0.45659
35	0x3e98bef0	0.29833174
36	0x3f1d5344	0.6145518
37	0x3f80c02c	1.0058646
38	0x3eda36ad	0.4261984
39	0x3f45fd64	0.7733977
40	0x3dc52613	0.09626403
41	0x3f2bd2ab	0.6711833
42	0x3eec3fad	0.4614233
43	0x3ea2ad20	0.3177271
44	0x3e4c48d5	0.19949658
45	0x3ecc0473	0.39847144
46	0x3ea5302f	0.32263324
47	0x3e8fd75f	0.28094003
48	0x3f13dc96	0.5775846
49	0x3ee8c60c	0.45463598
50	0x3f3ef434	0.74591374
51	0x3f10578a	0.56383574
52	0x3e9aa333	0.30202636
53	0x3f01e97d	0.507469
54	0x3e8f4b7d	0.2798728
55	0x3e56be01	0.20970918
56	0x3e25ec86	0.16203508
57	0x3e75c5f0	0.24001288
58	0x3e689bf9	0.22715749
59	0x3e4a56f4	0.19759732
60	0x3ecc3dee	0.39891
61	0x3ef672ca	0.48134452
62	0x3e66a0d9	0.22522296
63	0x3f1b5fc4	0.60693

sequential/batch_normalization_1/FusedBatchNormV31 f4 [64]
0	0xbdc5a43c	-0.09650466
1	0xbf18c129	-0.5966974
2	0xbe584fb2	-0.21124151
3	0xbf27252e	-0.65291107
4	0xbf12c0e3	-0.5732557
5	0xbf1949aa	-0.5987803
6	0xbf267ba0	-0.65032387
7	0xbe029b95	-0.12754662
8	0xbf9b1a1f	-1.2117347
9	0xbe032de3	-0.12810473
10	0xbea41d3a	-0.32053548
11	0xbeb84bd8	-0.35995364
12	0xbe8e62e3	-0.2780982
13	0xbf62e36c	-0.8862827
14	0xbf4dc391	-0.80376536
15	0xbdde608e	-0.1085826
16	0xbf6066c6	-0.8765682
17	0xbf3926d4	-0.7232487
18	0xbfb30337	-1.3985356
19	0xbf679331	-0.9045897
20	0xbf9bd73c	-1.2175059
21	0xbf987e7d	-1.1913601
22	0xbee03d3c	-0.43796718
23	0xbf26f196	-0.6521238
24	0xbe1e2fa4	-0.15447861
25	0xbf3e8afa	-0.7443081
26	0xbf8001f5	-1.0000597
27	0xbe9c46ab	-0.30522665
28	0xbe24fef6	-0.16112885
29	0xbfc2633c	-1.5186534
30	0xbf6c02a7	-0.9219155
31	0xbeabb385	-0.335354
32	0xbe68014a	-0.22656742
33	0xbf53d5e0	-0.8274822
34	0xbf830558	-1.0236006
35	0xbeefbd58	-0.46824145
36	0xbf7d64d8	-0.98982
37	0xbf941d45	-1.1571432
38	0xbf8336ce	-1.02511
39	0xbef88782	-0.48540884
40	0xbe6b0e20	-0.22954607
41	0xbf777074	-0.96655965
42	0xbee84775	-0.45367017
43	0xbf476785	-0.77892333
44	0xbe4cc57e	-0.19997212
45	0xbf539ab4	-0.82657933
46	0xbf0d6de7	-0.5524582
47	0xbec4da17	-0.3844764
48	0xbf71698a	-0.94301665
49	0xbf271afa	-0.6527554
50	0xbf405893	-0.75135154
51	0xbf48044c	-0.78131557
52	0xbf0810d4	-0.5315068
53	0xbefa9c38	-0.4894731
54	0xbee1a4ec	-0.44071138
55	0xbed82831	-0.42218164
56	0xbeda8da5	-0.4268619
57	0xbe87803d	-0.26465026
58	0xbe4466b5	-0.19179805
59	0xbeeb0e13	-0.45909175
60	0xbf1cbbeb	-0.6122424
61	0xbf35b811	-0.7098399
62	0xbf129258	-0.5725455
63	0xbef5f534	-0.48038638

sequential/batch_normalization_2/FusedBatchNormV3 f4 [64]
0	0x3e2e9c40	0.17051792
1	0x3ebf25d6	0.37333554
2	0x3e1829d1	0.14859702
3	0x3e5bcc65	0.21464689
4	0x3e8b2281	0.27174762
5	0x3ebf47d4	0.37359488
6	0x3e25a406	0.16175851
7	0x3e80ec37	0.25180218
8	0x3e6a9481	0.22908212
9	0x3eb4f89f	0.35345933
10	0x3e07559e	0.13216254
11	0x3df900e3	0.12158372
12	0x3e931ad8	0.28731418
13	0x3e657284	0.22406965
14	0x3e3be8a2	0.18350461
15	0x3ebe3380	0.37148666
16	0x3eb19fda	0.3469227
17	0x3e8cb9ee	0.27485603
18	0x3e4988f5	0.19681151
19	0x3e940079	0.2890661
20	0x3e800027	0.25000116
21	0x3ea1fe1e	0.3163919
22	0x3e6974c3	0.22798447
23	0x3eb64888	0.35602212
24	0x3ecb45ad	0.39701596
25	0x3e485eb2	0.19567373
26	0x3e5a7ed9	0.21337451
27	0x3f0f9514	0.5608685
28	0x3ea2644a	0.3171714
29	0x3eb0c05e	0.34521765
30	0x3de3eb91	0.11128915
31	0x3f076a78	0.52896833
32	0x3eb9a282	0.36256796
33	0x3e46d363	0.19416575
34	0x3eae28c3	0.34015474
35	0x3e2c082f	0.16799997
36	0x3e5759ac	0.21030301
37	0x3e869e53	0.26292667
38	0x3eacae40	0.33726692
39	0x3f1e1c62	0.6176206
40	0x3e4843f1	0.19557168
41	0x3e795064	0.24347073
42	0x3e030b61	0.1279731
43	0x3f45f82e	0.7733182
44	0x3ed40947	0.41413328
45	0x3e1c8eb8	0.15288818
46	0x3e8b334e	0.2718758
47	0x3f00a4b9	0.50251347
48	0x3ef95c44	0.48703206
49	0x3e94d5a5	0.29069248
50	0x3e5f089f	0.21780632
51	0x3ee9c012	0.4565435
52	0x3e99eff8	0.30065894
53	0x3ece6e00	0.40318298
54	0x3e94ffce	0.29101413
55	0x3ecc7371	0.39931825
56	0x3e385017	0.17999302
57	0x3dcfbe4a	0.10143717
58	0x3e0c9190	0.13727403
59	0x3e9c3bd7	0.30514404
60	0x3e76d895	0.24106057
61	0x3e19e9d1	0.150306
62	0x3f12b9fd	0.57315046
63	0x3e551134	0.20807344

sequential/batch_normalization_2/FusedBatchNormV31 f4 [64]
0	0xbdd650a1	-0.104645975
1	0xbe767a8e	-0.24070188
2	0xbeb271dc	-0.34852493
3	0xbeb3d59d	-0.35123911
4	0xbe512ab7	-0.2042645
5	0xbdd75aac	-0.10515341
6	0xbeec1c56	-0.4611537
7	0xbe61b002	-0.22039798
8	0xbeb246b4	-0.34819567
9	0xbe55d863	-0.20883326
10	0xbe4117fe	-0.18856809
11	0xbef9fd41	-0.4882603
12	0xbe893747	-0.26799986
13	0xbf1aece8	-0.6051774
14	0xbe77a435	-0.24183734
15	0xbe993975	-0.2992665
16	0xbf1535a4	-0.58284974
17	0xbed77310	-0.42079973
18	0xbe8f1d1a	-0.2795189
19	0xbe89536a	-0.26821452
20	0xbf2d087e	-0.67591083
21	0xbe1babc5	-0.15202244
22	0xbf0cb996	-0.5497068
23	0xbe80b2bc	-0.25136364
24	0xbe758cf2	-0.23979548
25	0xbebbeef9	-0.3670576
26	0xbef35a6a	-0.47529918
27	0xbe93d991	-0.28876927
28	0xbf1ab4c7	-0.60432094
29	0xbe9c4c79	-0.30527094
30	0xbee9a51f	-0.4563379
31	0xbf02968e	-0.5101098
32	0xbea0e0d8	-0.31421542
33	0xbf0ab618	-0.54184103
34	0xbebdd187	-0.3707392
35	0xbebbb20d	-0.3665928
36	0xbe7831ca	-0.24237743
37	0xbeaa2c3f	-0.33236882
38	0xbebdc04d	-0.37060776
39	0xbf2fa85c	-0.6861627
40	0xbdcf4c82	-0.101220146
41	0xbe761002	-0.24029544
42	0xbedb76ea	-0.42864162
43	0xbea39e44	-0.31956685
44	0xbe956572	-0.2917896
45	0xbe6babda	-0.23014775
46	0xbf11aecf	-0.5690736
47	0xbf3c05ef	-0.73446554
48	0xbed2c847	-0.41168424
49	0xbed9ca28	-0.42537045
50	0xbeb24030	-0.34814596
51	0xbe90781a	-0.2821663
52	0xbec16880	-0.3777504
53	0xbecbb1f1	-0.39784196
54	0xbf04e3c0	-0.5191002
55	0xbf04c199	-0.51857907
56	0xbecb70a3	-0.39734372
57	0xbf003e82	-0.5009538
58	0xbebbbc99	-0.36667326
59	0xbe3f5568	-0.18684924
60	0xbebc4247	-0.36769316
61	0xbdb929da	-0.09041186
62	0xbeeba226	-0.46022147
63	0xbe44b2ba	-0.19208804

sequential/dense/MatMul f4 [32, 16]
0	0xbd99601b	-0.07489034
1	0xbf0ac5e1	-0.5420819
2	0xbed54a8d	-0.4165844
3	0x3dfe74e4	0.12424639
4	0x3e64ffae	0.22363159
5	0x3d8fec17	0.070274524
6	0xbe667e71	-0.22509171
7	0x3dbe9c63	0.09307172
8	0x3e9079a6	0.2821781
9	0x3e5f0883	0.2178059
10	0xbe28c81d	-0.16482587
11	0x3ea07806	0.3134157
12	0xbd0c85f7	-0.034307446
13	0x3e3a6d40	0.18205738
14	0xbeb65b9a	-0.3561676
15	0xbe5bfa15	-0.21482117
16	0x3e8ffefd	0.28124228
17	0x3c37098e	0.011171712
18	0x3dd9a46d	0.10627065
19	0x3e52113f	0.20514391
20	0xbec917e3	-0.39276037
21	0xbf062c0b	-0.52410954
22	0xbd86a3c0	-0.065742016
23	0xbe9ce453	-0.30642948
24	0xbeddf8d8	-0.43353915
25	0x3d3c0c90	0.045910418
26	0xbcc58273	-0.024110055
27	0xbed20e4c	-0.41026533
28	0x3dabd7f3	0.083907984
29	0x3de25ce1	0.110528715
30	0x3f028d7c	0.5099714
31	0xbe6cbcce	-0.23118898
32	0x3d0dae59	0.0345901
33	0x3ecfdcb4	0.4059807
34	0xbdef9751	-0.11698783
35	0xbea742de	-0.32668203
36	0xbd963215	-0.07333771
37	0x3d8d5c82	0.0690241
38	0xbec47e2c	-0.38377512
39	0x3d44e842	0.04807306
40	0xbec05faa	-0.37572986
41	0xbeacec30	-0.33773947
42	0x3e92fa83	0.2870675
43	0xbe82e5da	-0.25565988
44	0x3e180a0d	0.14847584
45	0xbce9b8f4	-0.028530575
46	0x3ec20d18	0.37900615
47	0xbce50173	-0.027954793
48	0x3ed94529	0.42435578
49	0x3e469fc5	0.19396885
50	0xbe8d10a3	-0.27551755
51	0x3ccc7b5b	0.024961164
52	0xbe9401f1	-0.2890773
53	0xbf209689	-0.627297
54	0xbeafc358	-0.34328723
55	0xbdb67fc6	-0.089110896
56	0xbe6dc02c	-0.23217839
57	0xbe82583e	-0.25457948
58	0xbe32eb11	-0.17472483
59	0xbe0f573e	-0.13998124
60	0x3ee76d4e	0.4520058
61	0x3e9dd992	0.30830055
62	0x3f3593fd	0.7092894
63	0x3c99cb68	0.01877375
64	0x3ea508a2	0.3223315
65	0x3d161d6a	0.036649145
66	0x3e26228c	0.16224116
67	0x3e9eee79	0.31041315
68	0xbd8a84b0	-0.067635894
69	0xbe81a70d	-0.25322762
70	0x3e84f4f8	0.25968146
71	0x3e9ff5c5	0.31242195
72	0xbcab9ad3	-0.02094785
73	0x3cfbd4b2	0.03074107
74	0x3ec339a7	0.38129923
75	0xbe0a356d	-0.13496943
76	0x3ebf2f8b	0.3734096
77	0x3c9e9a42	0.019360665
78	0x3de0fb1f	0.109853975
79	0xbda78ccf	-0.08181154
80	0x3eb7766e	0.35832542
81	0x3df7a550	0.12092078
82	0xbe4d9569	-0.20076527
83	0xbd3729cd	-0.0447176
84	0xbde23180	-0.110445976
85	0xbef43bab	-0.47701773
86	0xbedbde05	-0.42942825
87	0xbe7135af	-0.23555635
88	0xbf01c284	-0.5068743
89	0xbe430512	-0.19044903
90	0x3ef26f56	0.47350568
91	0xbeea0894	-0.4570967
92	0x3b5e6b27	0.003393838
93	0x3e36d6a6	0.1785532
94	0x3e833906	0.25629443
95	0xbe1b4687	-0.15163623
96	0x3e85fabf	0.26167867
97	0x3dff27b5	0.124587454
98	0xbd028b69	-0.031871233
99	0x3d8fd672	0.07023324
100	0xbe1e572e	-0.15462944
101	0xbe6f6835	-0.23379596
102	0xbe56742b	-0.20942752
103	0x3da469f9	0.08028025
104	0xbec0c712	-0.3765188
105	0xbed155a6	-0.40885657
106	0x3e910ae9	0.28328636
107	0xbebb8d26	-0.36631125
108	0x3e07bd21	0.1325574
109	0x3b80d22e	0.0039313054
110	0x3f1694d4	0.58820844
111	0xbe309f4b	-0.17248265
112	0x3dc17c67	0.09447556
113	0x3e8cd6ad	0.27507535
114	0xbdfef2a1	-0.124486215
115	0x3dc4fb46	0.09618239
116	0xbf13ee8b	-0.5778586
117	0xbebefb00	-0.37300873
118	0x3e096770	0.13418365
119	0xbeb0c29c	-0.34523475
120	0xbe53e720	-0.20693636
121	0xbe8c3774	-0.27386057
122	0xbe3c8ab5	-0.18412288
123	0xbefaf851	-0.49017575
124	0xbe47dcf2	-0.19517878
125	0x3ec7b1a2	0.3900271
126	0x3f35b929	0.70985657
127	0x3e06d938	0.131688
128	0xbf0ab87e	-0.5418776
129	0xbf4c1259	-0.79715496
130	0xbe322894	-0.17398292
131	0x3eb4a2a1	0.35280326
132	0x3edce90b	0.43146548
133	0x3f14ae5b	0.58078545
134	0xbe4e8003	-0.2016602
135	0xbc2ba7bf	-0.0104770055
136	0x3ee0b727	0.43889734
137	0x3d68664a	0.056738175
138	0xbe530f68	-0.20611346
139	0x3dfa71ed	0.12228761
140	0xbf0c6f1f	-0.5485706
141	0xbec77ac5	-0.38960853
142	0xbe3b313d	-0.18280502
143	0xbea7be69	-0.3276246
144	0x3dca6871	0.09883202
145	0xbe4cbaf7	-0.19993196
146	0x3e5c3e8e	0.21508238
147	0xbed4e652	-0.4158197
148	0xbda80373	-0.08203783
149	0xbdcde063	-0.10052564
150	0xbd73ed4b	-0.059552472
151	0xbee05ae3	-0.4381934
152	0xbdb0f0c5	-0.08639673
153	0x3e20d8b5	0.15707667
154	0x3e504a9c	0.20340961
155	0xbede5f74	-0.434322
156	0x3f04d69d	0.51889974
157	0x3e67fcd5	0.22655042
158	0x3ed6ce8f	0.41954467
159	0xbe8772a8	-0.26454663
160	0xbe3a1863	-0.18173365
161	0xbe2f0f41	-0.17095663
162	0x3e74b6e4	0.23897892
163	0x3f02e88b	0.5113608
164	0x3f0822db	0.53178185
165	0x3edf426e	0.4360537
166	0x3f03a675	0.5142587
167	0xbe0e6f3a	-0.13909617
168	0xbe65367f	-0.2238407
169	0x3e33381f	0.17501877
170	0xbe450000	-0.19238281
171	0x3eea381f	0.45745942
172	0xbdf2aef2	-0.118497744
173	0x3e8a680d	0.2703251
174	0xbc9cd4f4	-0.019144513
175	0xbe0371e9	-0.12836422
176	0x3e542ac0	0.20719433
177	0x3ede5e31	0.43431237
178	0xbe3bb42b	-0.18330447
179	0xbb658821	-0.0035023766
180	0xbf152c56	-0.58270776
181	0xbed81929	-0.42206696
182	0xbee123eb	-0.43972716
183	0xbe382e7c	-0.17986482
184	0xbe915570	-0.28385496
185	0xbea9c03a	-0.3315447
186	0xbd2a7904	-0.041619316
187	0xbe878653	-0.2646967
188	0x3eab06bd	0.33403578
189	0x3e8b56cd	0.2721466
190	0x3f0e9c48	0.55707216
191	0xbe075dca	-0.13219371
192	0x3dc290fc	0.0950031
193	0x3a074cf9	0.0005161311
194	0xbe205c94	-0.15660316
195	0xbe6f17cf	-0.23348926
196	0xbee6e24e	-0.45094532
197	0xbef6b81e	-0.48187345
198	0xbdc960cb	-0.09832915
199	0x3cec4c4d	0.028844977
200	0xbef2ad51	-0.47397855
201	0xbe9c78d4	-0.30560935
202	0x3d998b97	0.07497328
203	0xbdc3271e	-0.095289454
204	0x3ea27c0e	0.3173527
205	0x3daf44d4	0.0855805
206	0x3e68032b	0.22657458
207	0xbe486228	-0.19568694
208	0x3d9aeb7d	0.07564447
209	0x3f2736b5	0.6531785
210	0xbe498673	-0.19680195
211	0x3d1954ad	0.03743427
212	0xbd28c310	-0.04120165
213	0xbe506bc7	-0.20353614
214	0xbe5686ec	-0.20949906
215	0xbf0cf61e	-0.55063045
216	0xbf034795	-0.512811
217	0xbe254905	-0.16141136
218	0x3e7d5b76	0.24741921
219	0xbf158d9a	-0.5841919
220	0x3e083fc2	0.13305572
221	0x3e2f0c8b	0.17094629
222	0x3d834b61	0.06410862
223	0x3ee306f4	0.44341242
224	0xbde4dc59	-0.111748405
225	0x3c6808f0	0.014162287
226	0xbe84c398	-0.25930476
227	0x3eaf9faf	0.34301516
228	0xbe67bb7e	-0.22630116
229	0xbd35189d	-0.044212926
230	0xbebb028d	-0.36525384
231	0x3eea3d71	0.4575
232	0x3ef6690e	0.48127025
233	0x3e98055d	0.29691592
234	0xbe8cf193	-0.27528057
235	0x3e0190d7	0.12652908
236	0xbe51c4a1	-0.20485164
237	0x3e87af29	0.26500824
238	0xbf1ac50d	-0.60456926
239	0x3e06d554	0.13167316
240	0xbdcc1735	-0.09965364
241	0xbef91620	-0.48649693
242	0xbef42c22	-0.4768992
243	0x3e877551	0.26456693
244	0x3e84b86b	0.2592195
245	0xbd2e2e78	-0.042524785
246	0xbe2ace81	-0.16680337
247	0x3f0c4d08	0.5480504
248	0x3f0de375	0.55425197
249	0x3e4be282	0.19910625
250	0xbec8b21c	-0.39198387
251	0x3ea556af	0.32292697
252	0xbe91b4ab	-0.2845815
253	0x3ed271df	0.41102502
254	0xbee1edff	-0.4412689
255	0xbcbb3621	-0.02285296

sequential/dense_1/MatMul f4 [1, 32]
0	0xbe8f0bb2	-0.2793861
1	0x3eaa8381	0.33303455
2	0x3e6b4228	0.22974455
3	0x3efa03db	0.48831066
4	0x3d44841f	0.047977563
5	0x3e41a712	0.18911389
6	0x3f0e670c	0.5562599
7	0x3f1f9b1a	0.6234604
8	0xbf276948	-0.6539502
9	0x3e6a32cb	0.22870938
10	0xbe8d5083	-0.27600488
11	0x3edd4f71	0.4322467
12	0x3e7c5f8a	0.2464582
13	0x3ec461c1	0.3835583
14	0xbeeae5a4	-0.45878327
15	0xbe7ac839	-0.24490441
16	0xbf07f375	-0.5310586
17	0xbf323023	-0.696047
18	0x3f024c97	0.50898117
19	0x3ec65f6d	0.3874468
20	0x3f168c3a	0.5880772
21	0xbf19cdbc	-0.6007955
22	0xbeec7150	-0.461802
23	0xbf22fc0f	-0.6366586
24	0x3f526fb0	0.8220167
25	0x3ebf32b5	0.37343374
26	0xbedb11c0	-0.4278698
27	0xbef3191c	-0.47480094
28	0xbf2a79f4	-0.66592336
29	0x3e68c33c	0.22730726
30	0xbf071531	-0.5276671
31	0x3ea171b4	0.3153206

sequential/lstm/Read_2/ReadVariableOp1 f4 [64]
0	0xbbf5f003	-0.0075054183
1	0x3dd9a98d	0.10628042
2	0x3eeea602	0.4661103
3	0x3dfa28a0	0.1221478
4	0xba8a4513	-0.001054915
5	0x3e25f437	0.16206442
6	0x3dad581c	0.08464071
7	0xbd41740e	-0.04722982
8	0x3d020ea7	0.031752255
9	0x3894c95e	7.0946975e-05
10	0x3dba4cd0	0.09096682
11	0x3d94404c	0.07238826
12	0x3e3f18f8	0.18661869
13	0x3e857207	0.26063558
14	0x3db0dc1e	0.08635734
15	0x3ede225b	0.43385586
16	0x3f65d5c5	0.8977931
17	0x3f8a2e31	1.0795346
18	0x3f82c343	1.0215839
19	0x3f940413	1.1563743
20	0x3f690a4b	0.9103133
21	0x3f96e80a	1.1789563
22	0x3f81e55b	1.0148119
23	0x3f93604f	1.1513766
24	0x3f9548db	1.1662859
25	0x3f92f272	1.1480238
26	0x3f9b1ef2	1.2118819
27	0x3f9b3189	1.2124492
28	0x3f8ca514	1.0987878
29	0x3f791371	0.9729529
30	0x3f8f992c	1.1218619
31	0x3f80a17c	1.0049281
32	0xbdb5e1b1	-0.08880938
33	0xbdf1ac97	-0.11800497
34	0xbe7d9585	-0.24764068
35	0x3e8473a5	0.2586948
36	0x3ae64933	0.0017569422
37	0xbd8d26b4	-0.06892148
38	0xbe3ea051	-0.18615843
39	0x3e7eb6d2	0.24874428
40	0x3c488107	0.012237794
41	0x3b8f56d5	0.004374365
42	0xbe5c3ca4	-0.21507508
43	0x3d57d707	0.0526953
44	0xbdf1d868	-0.11808854
45	0x3dce71b5	0.10080282
46	0xbdb52a4a	-0.088459566
47	0xbe92e868	-0.28692937
48	0x3d2fd1c3	0.042924654
49	0x3e749b19	0.2388729
50	0x3f0862bd	0.5327566
51	0xbe202f5c	-0.15643066
52	0x3d31d16d	0.043412615
53	0x3e1c483b	0.15261929
54	0xbc234690	-0.009965554
55	0x3dec87c6	0.11549334
56	0x3daf8a27	0.08571272
57	0x3e06c35f	0.13160466
58	0x3e56661d	0.2093739
59	0x3e1bd4e9	0.15217938
60	0x3e16b4c6	0.14717397
61	0x3de4c95c	0.11171219
62	0x3df5acf8	0.11995882
63	0x3eb47655	0.3524653
