models/model.tflite (tflite, 274044 bytes, 23 tensors)

sequential/conv2d/BiasAdd/ReadVariableOp f4 [32]
00000000: a547 9a3e 74db 923e 2236 fbbd a46f 9b3c
00000010: e0b1 fdbe 4da9 66be e4b4 713f 4012 7e3e
00000020: d825 353f f203 92be a432 933f 5845 92bb
00000030: 195c f63e d4be 6bbe d7f4 d83d 3d34 253d
00000040: f4c1 ee3e 9bf4 9f3f 93c3 1bbf 4ffe cbbe
00000050: f14c 84be 757c 563e 0090 a8be be2a a93f
00000060: 110f e13e 794f ce3e 0f72 55be 21b2 21bd
00000070: dbd3 18be 79d9 8fbe fdcf 8c3f ee44 1b3e
0.30132785 0.28683054 -0.122661844 0.018974133 -0.4954977 -0.2252552 0.9441664 0.2481165
0.7076087 -0.28518635 1.1499829 -0.004463833 0.4811714 -0.23022014 0.105935745 0.04033302
0.4663235 1.2496523 -0.608453 -0.3984246 -0.25839952 0.20945914 -0.32922363 1.3216169
0.43956807 0.40295008 -0.20844291 -0.039476518 -0.14924566 -0.28095606 1.1000973 0.15163013

sequential/conv2d_1/BiasAdd/ReadVariableOp f4 [45]
00000000: acac 81be 6118 27be e3e0 e4bd 5562 1cbe
00000010: 2650 cc3c f3ed 04be 93f3 283f 7708 cd3c
00000020: b486 303e f27c 4d3e 79f8 493d d4ee ebbd
00000030: d4c7 45bf f44d babc 6f1d 19bb ab6f dabd
00000040: b865 a83d de80 93be 2042 d0bc cdd4 e93e
00000050: e139 35bd a1fe e0be 5a26 613e adac 843e
00000060: c405 7d3d dd5e 44bd e0f1 94be 6bf0 53be
00000070: cffd ec3d b285 6e3d 2c54 50be eb24 2ebd
00000080: 32b7 cf3d ad03 d93e 5180 713e 0bde 9f3d
00000090: 9aa0 48be bb95 b2bd 6b08 db3e 6477 ca3e
000000a0: a471 94be e992 b0be 7069 d73e a02d afbd
000000b0: 5700 283f
-0.2532705 -0.16317894 -0.11175706 -0.15271886 0.024940562 -0.12981395 0.65996665 0.02502845
0.17238885 0.20067194 0.049309228 -0.11520162 -0.7725804 -0.02274225 -0.002336349 -0.1066583
0.08222526 -0.28809255 -0.025422156 0.45670167 -0.04424465 -0.43944266 0.21987286 0.2591299
0.061773077 -0.04794203 -0.29090786 -0.20697181 0.11571848 0.05823297 -0.20344609 -0.042515676
0.101423636 0.42385617 0.23584105 0.07806023 -0.19592515 -0.08719965 0.4277986 0.39544213
-0.2899295 -0.34487084 0.4207263 -0.08553624 0.6562552

sequential/conv2d_2/BiasAdd/ReadVariableOp f4 [60]
00000000: 0f30 643e f9d7 36be f876 90be 14e8 1cbf
00000010: aa19 7cbc e816 87be cc98 b0be bb35 c9be
00000020: ba89 a2be 8406 52be 7a59 18bf 957c 7bbe
00000030: 689e ddbe 7e3b f3bc 2e7b e7be 9295 26be
00000040: ca9c 0fbf e610 77be bd62 a5be 7e84 29bc
00000050: 8d6f 0dbf 2960 f93d 4180 46bf bb55 20bf
00000060: bbbe 14bf 3a7f 18bf 9ec4 52bd e327 33bf
00000070: 9cf1 c53d ab2e 28bf 2899 8abe 2944 eebe
00000080: 5c6d 09bf bd84 0dbf 845c b5be 2193 73be
00000090: edb8 f6be 592e 1cbe 5c0e 01be 29c8 a13d
000000a0: 093d 3e3e caab 7cbe 5855 fdbe a325 1bbf
000000b0: 51d7 7b3e 9966 543c 6fe8 71be 18be 53be
000000c0: c9fb 31be fdb7 07bf e33f 45be 21b8 b6be
000000d0: 7ea4 5ebe 37fc 9ebc 3f76 d1be 0df8 983e
000000e0: 9a7f 5cbf 9ccc cbbe d787 3fbf ba92 a6bc
0.22283958 -0.17855825 -0.28215766 -0.61291623 -0.015386978 -0.26384664 -0.34491575 -0.39298806
-0.31745702 -0.20510298 -0.5951153 -0.24559243 -0.43284917 -0.029691454 -0.45211166 -0.16267994
-0.56098616 -0.2412754 -0.32301894 -0.01034653 -0.5524834 0.12176544 -0.7753945 -0.62630814
-0.5810353 -0.5956913 -0.05145704 -0.6998274 0.09665224 -0.6569621 -0.27069974 -0.46536377
-0.53682494 -0.5528067 -0.35422146 -0.23786594 -0.48187962 -0.15252055 -0.12603134 0.07899506
0.1857797 -0.24674907 -0.49479175 -0.60604304 0.24593855 0.012963914 -0.23623823 -0.20677984
-0.17381205 -0.5301512 -0.19262652 -0.35687354 -0.21742436 -0.019407375 -0.40910527 0.29876748
-0.86132205 -0.39804542 -0.7481665 -0.020333637

sequential/conv2d/Conv2D f4 [32, 3, 3, 1]
00000000: 706d 8ebe d718 633c 1a55 f63d 8137 5bbe
00000010: bbf6 6f3e 2bc1 423e c407 013f 108c 0abc
00000020: 0212 ebbe f561 373c 31f8 4bbe b366 d33d
00000030: 14ae 203e 104f e1bb 8002 a03e 6d7d 903e
00000040: 92a1 813e 4656 0a3e 9293 a43c fa6f 35be
00000050: e4f8 693d 4375 ffbd cb19 19bf 1605 d23d
00000060: bbe7 ad3e 7631 2fbe 50f4 b93e 84ae e33e
00000070: 6087 94be e760 86bc 8aef 4a3e aad2 6fbe
00000080: 0bf0 48be bf73 d53e 54f9 223e 530d abbe
00000090: 0a72 773d a496 d5be dbee ddbe b4d6 093e
000000a0: 6683 54be 1251 91bd 3664 e5bd 3747 ddbe
000000b0: ec81 e7bd 6e78 17be 9a16 8b3e ac1c d63e
000000c0: 7353 0cbe 1c59 75bd 89a0 77bd 5178 a53e
000000d0: 9d95 113e 37e7 d63e 5e43 11be 6f1b 2e3d
000000e0: 347e f8bd ff70 e83e 9e3e a93e abe3 1fbe
000000f0: 8f10 27be 5f89 a23b 5edc a43e 16b7 623d
00000100: 64eb 043e ff41 0e3f 6fcd 4bbe e5dc 2fbd
00000110: db23 823d a9b1 04bf aaf7 63be 4f6a 863d
00000120: 07b3 223e 5930 c33e 7b47 cc3e ee42 25be
00000130: 2acd 1a3c 3da3 903e a416 80be e0a6 41be
00000140: 30a5 66be ba24 49bd 489b b63d 1221 efbd
00000150: ee22 dc3e 0a60 023f 0365 a43c eb4f 6c3e
00000160: da63 693e 15b7 bdbd 7bc2 283d 25a2 1ebe
00000170: 15af c5be 78b2 283e 6856 063f 445c 00be
00000180: 63df e43d 2d8d 22bd eaf4 86be a2eb 56bc
00000190: 973b cb3e b386 903e 7342 01be a66c 503e
000001a0: 3d97 e13e 814b 1abe e8a1 4cbe 998b edbd
000001b0: 0558 d0be c41b 8c3e 557a aa3e 0b7f 073e
000001c0: 74d7 953e bedc 91be a60f 213e e47c d9b9
000001d0: 36cb bcbe 2844 973c baa6 d8be 1a73 a33c
000001e0: def6 2ebd cdc0 15bf b757 853e b0cc febc
000001f0: 41a3 b4bd ea36 b93e 0360 61be 3248 c03e
00000200: 3f2f 773e ccf5 34be 6b94 873e 8dc0 7f3e
00000210: f38a aabe fdd8 4bbd 6e63 af3e 8f56 0dbd
00000220: dde5 e7be d9fc cc3e 49bf 8ebe a329 84bd
00000230: d785 883d ad3d 1abe 3573 8c3e 2dd5 e0bd
00000240: 7efc a93e 5774 d63e 6245 60be 50fd 2dbe
00000250: d022 c8be 2005 7fbe 0ece b53c 5ac6 883e
00000260: 30ed 903e d8fc 13be f49e 61be 4054 23be
00000270: 79fa 1d3e e700 e4bd fa8a a3bd 79c7 8f3e
00000280: 9fcb e23e 9210 893d 5fd2 91bd ea31 043e
00000290: 1266 f83d 0cd8 18be 3707 eebd 7a40 2d3e
000002a0: 5fdc 1d3f 99e3 693e 28d1 813e 97bf a43e
000002b0: 6d47 be3d a543 74bd 5e53 4e3e 7706 41be
000002c0: 7a2c 5e3e 7be8 093e 3a9e db3d 1443 863e
000002d0: f7c3 25bd 1049 d93e 0ae3 563e 86ff 6abe
000002e0: 02bf 37bd 4f29 9ebd 8e45 8abe 15e1 9e3e
000002f0: e289 6b3e 7b54 6ebe 8f43 64be 43dd b83e
00000300: e08c 2dbe 367a 783e a32f 6d3e db71 cc3d
00000310: 1298 953e 4d74 ddbe 9c2f 2abc f8ec 8f3e
00000320: 4b44 593e df15 97be 87c1 75bc f2fc ba3d
00000330: 4462 143f 9d31 45bd d0e2 9e3e e704 d73e
00000340: ae3e 323e 5c64 8bbe 00de d23e e63c 0abe
00000350: a772 93be ae32 173b 812b 08be 6c11 e4bb
00000360: 8745 c9be 1244 b5be 34cc 53be b438 27bd
00000370: 3cd6 763d 373f eabc 1c6b f83e b6fa 613e
00000380: b24b 1e3e 7483 8dbe dc2b 653c 5108 8c3d
00000390: b1da 9abe 9ca6 58bd 9db4 953e ced3 9ebe
000003a0: 18e2 5b3e b63c 0d3f f41b 8abe 4d67 f7be
000003b0: 0ae8 49bd 43cf 583c 5c2a 41be df1a 8d3e
000003c0: b9fc 59be 91b8 e7be 9514 d63d f912 8dbd
000003d0: be06 cc3c 0fad 393e e424 4f3a 3f65 573e
000003e0: e1fa 17be f399 9a3d b26a dd3e 6bd6 9b3e
000003f0: c744 a93d 656b 9ebe 8bd3 4dbd c3a2 873e
-0.2781787 0.013860903 0.120279506 -0.21407892 0.23433964 0.19019 0.50402474 -0.008456245
-0.45912176 0.011192788 -0.19918896 0.10322323 0.15691406 -0.00687588 0.31251907 0.28220692
0.2531858 0.13509473 0.020089898 -0.17718497 0.057122126 -0.12473538 -0.5980498 0.10254876
0.3396586 -0.17108712 0.36319208 0.44469082 -0.29009533 -0.016403629 0.1981794 -0.23420206
-0.19622819 0.4168987 0.15915424 -0.33408603 0.06041149 -0.41716492 -0.43346295 0.13460809
-0.2075325 -0.07095541 -0.11200754 -0.43218395 -0.113040775 -0.14792034 0.2716568 0.4181875
-0.13703708 -0.059899434 -0.060455833 0.32318357 0.14217229 0.41973278 -0.14185855 0.04250663
-0.12133446 0.4539871 0.33055586 -0.15614192 -0.1631491 0.0049602236 0.32199377 0.055350386
0.1298042 0.5556945 -0.19902585 -0.04293527 0.06354495 -0.5183359 -0.22262445 0.065632455
0.15888606 0.38122824 0.39898285 -0.16138813 0.009448329 0.2824954 -0.25017273 -0.18911314
-0.22523952 -0.04910729 0.08916336 -0.116762295 0.429954 0.50927794 0.020067697 0.23077361
0.22791997 -0.09263436 0.041201096 -0.1549154 -0.3861014 0.1647433 0.52475595 -0.12535197
0.1117542 -0.039685417 -0.2635873 -0.013117703 0.396939 0.28227767 -0.12623005 0.20353946
0.44060698 -0.15067865 -0.19983637 -0.11598892 -0.40692154 0.27364933 0.33296457 0.13232057
0.2926594 -0.28488725 0.15728626 -0.00041482516 -0.36873788 0.018465117 -0.42314702 0.019952346
-0.0427159 -0.58497316 0.26043484 -0.031103462 -0.08820201 0.3617471 -0.22009282 0.3755508
0.24139117 -0.17671889 0.2648042 0.24975796 -0.33309135 -0.049767483 0.34255546 -0.034506377
-0.4529256 0.40036657 -0.27880314 -0.06453254 0.06666153 -0.1506259 0.27431646 -0.1097816
0.3320045 0.41885635 -0.21901467 -0.16991162 -0.3908906 -0.24904299 0.022192981 0.2671383
0.2830596 -0.14451921 -0.22033292 -0.15950108 0.15427579 -0.111329846 -0.07985492 0.28081873
0.44295976 0.06692614 -0.07120203 0.12909666 0.12128843 -0.14926165 -0.1162247 0.16919127
0.61664385 0.22840728 0.25354886 0.3217742 0.09290967 -0.059634823 0.2014899 -0.18850122
0.21696654 0.1346759 0.10723539 0.26223052 -0.04047009 0.42438555 0.20985046 -0.22949037
-0.044859894 -0.07722723 -0.2700619 0.310311 0.23001817 -0.23274414 -0.22291397 0.3610631
-0.16948271 0.2426537 0.23162703 0.09982654 0.29217583 -0.43252793 -0.0103873275 0.2811048
0.21217458 -0.29508874 -0.014999754 0.09130277 0.5796244 -0.048143018 0.3103242 0.41995928
0.17406723 -0.27225006 0.41184998 -0.13499793 -0.2879841 0.002307098 -0.13297845 -0.0069600847
-0.39310858 -0.35403496 -0.20683366 -0.04082556 0.060262904 -0.028594596 0.48519218 0.22068295
0.15458563 -0.27639353 0.013987508 0.06837524 -0.30244973 -0.052893266 0.2923936 -0.3102097
0.21472967 0.5517076 -0.26974452 -0.48321 -0.049293555 0.013233009 -0.18863815 0.27559564
-0.21287812 -0.45258 0.104531445 -0.06888384 0.024905559 0.18132423 0.00079019205 0.21034716
-0.14841796 0.07548895 0.43245465 0.30437025 0.08265071 -0.3094131 -0.05025057 0.26491365

sequential/conv2d_1/Conv2D f4 [45, 3, 3, 32]
00000000: faab 15be 4b90 a63e b278 1f3e feac 013e
00000010: ad61 37bd ee9d 44be f037 613d dcfe 98be
00000020: 39b2 eabe e2a6 813e 749e ed3d 746c 983e
00000030: 60b2 2a3e 4a5d ae3d 1e73 00bf 80c6 ca3d
00000040: b79d 203e e4ba f93b aa57 ef3c ec24 963d
00000050: b8ac 81bc bf33 c03e 6435 f9bc 067a 053e
00000060: 71d7 473e cc03 383f 5dfc c6bd 3876 8ebd
00000070: f50f 7f3c 9927 a23d 535f 3abf acec 823e
00000080: 1b39 d23e 6df7 963e d425 093e 7c26 36be
00000090: 76ff 80bd 546d 8cbe 7097 da3e 6e1c 8639
000000a0: 979f 09be 8ab3 83bd 425b bb3e e385 f4bd
000000b0: c6f1 463d a681 033e 519e 553e d60f c53e
000000c0: c902 3f3e f051 a43d 7ee5 a6be 4b23 efba
000000d0: a259 13bd 540a 383e 5d7c 023e 3641 94bb
000000e0: 21c1 933e da1c 77bd 6ab1 39be d09a 2b3b
000000f0: 5b98 ef3d 78fe a2be 0e1b 47be 1448 3d3e
00000100: 0bd0 a0bd 8c76 eb3d 1ed0 4d3e cc82 adbe
00000110: 4d1c d9bd f3f8 5d3e 0927 943e 6a06 523d
00000120: e299 99be 1597 83bc a304 a6bd a043 e2bd
00000130: bd7e d4be 52fb 4e3e b5c9 42be daab e73e
00000140: 9f65 0c3e 6379 14bd e33c 383e 7794 98bd
00000150: 4c16 c8bc f874 a63e fbef 263c 937f 0cbf
00000160: a958 b93c 0754 1e3e 4a70 e5bc 2be1 7cbd
00000170: c0c4 15be 7459 03be 4bda febd 97e6 723e
00000180: 70b6 293f be37 10be f73e 1bbf 0a80 99bb
00000190: 3b3d 6dbe b531 b0be c5ff e3bd be35 c8be
000001a0: 1d88 8a3c 586c 39be d20c e03e e878 5fbe
000001b0: ebac 033f 3d76 f4be 1ef2 2d3d 0ec4 4b3e
000001c0: 8c3a cb3e f68d 863e 94f9 ddbe 41a3 dcbe
000001d0: c30c a6bc dfd9 003f ba18 d5be c827 80bd
000001e0: 5a0f f03e fe76 593d 983e c3be 14be e53d
000001f0: 1c11 12bf 7259 c3be 41dc 7cbe e418 bebd
00000200: 3aa5 ae3e a3aa f3bc 031f 1ebe d4e4 0cbf
00000210: 5542 123e 360a e8be cc7e a5be 283c bbbd
00000220: 844b b83d 60bd 27be 8549 5fbd 36f8 953d
00000230: 1f26 f93d 2c6b 78bb ab6f 3f3e c69c cd3c
00000240: 5756 283e 92fd 4bbd 3310 95be b115 d03d
00000250: 8174 8cbe 15b9 1e3e 43a8 24be 8922 bf3e
00000260: f17c ad3d 5faa 99be 966f 9ebd 51b6 61be
00000270: bc35 b7bd 51e5 abbe 1080 ce3d 9796 1a3e
00000280: 45ba 9c3e 5075 a4be 4c9e 64be d2be 3bbf
00000290: 1111 99bc f739 1cbe 98be 34bf 0dbf da3d
000002a0: 4b37 0dbd cdd4 cebe 2029 06bf 300d 9ebe
000002b0: 3037 c33e b123 3abe a98e acbe 7bcf 1b3e
000002c0: 7537 56bd ca6f 32bf d653 6abd 0405 b4bd
000002d0: c917 26be 4bc6 af3e bbbb 78bd 2a7f 44bd
000002e0: 3498 b6be 09f4 9bbc f8a2 86bd c99c 02be
000002f0: ba74 85be 9c55 553e 337f 4ebd f38b 8dbe
00000300: 6052 51be 253c afbe 6ed9 86be d4dc 073d
00000310: 94de c2bd c2be 80be 0f88 0cbf f08c 2a3d
00000320: 79f3 393e 3529 8e3c 05c3 16be 995d 953d
00000330: 9c71 e93e 60e8 c6be b8a7 143e 9c1e dbbe
00000340: c466 5fbe f936 86be c2ca 7bbe 3177 6c3e
00000350: da5f a9be e458 e6be 8e4c f7bd b2e0 023f
00000360: ee4e 74be 3098 2cbf c9c1 99be 45f7 74be
00000370: 197d 18be f50f 30bc 8d4c 833d 35e1 35be
00000380: d3b4 55bf 67f8 2e3e 15bc a9bd 77be e2bd
00000390: ed53 25be 12ed 943d 867e 40bf 2f85 45bd
000003a0: 2229 2b3e 2690 83be ccdb 4cbe 7556 f2bd
000003b0: 415a 67be 9c8c 92bd 876e c7bd 4dbe 44bd
000003c0: 62b3 dbbe e313 89be 034f 07be f870 ab3e
000003d0: 736f d3bd aa07 b6be b6e7 a0bd aaf7 1e3d
000003e0: a03f 07be 3ff7 c23e 2ae4 20be a95b e7bc
000003f0: e115 7ebd 33d2 973c 6a68 113e 166f 9fbd
-0.14616385 0.32531962 0.15573385 0.12663648 -0.044770885 -0.1920087 0.054984987 -0.29881942
-0.45839098 0.25322634 0.11602488 0.29770243 0.16669607 0.08513887 -0.50175655 0.09901142
0.15685163 0.007621156 0.029216606 0.07331261 -0.015829429 0.3753948 -0.030420966 0.1303483
0.19515778 0.71880794 -0.09716103 -0.06956142 0.015567769 0.07917709 -0.72801703 0.2557119
0.41059193 0.29485646 0.13393337 -0.17788118 -0.06298725 -0.2742716 0.42693663 0.00025579653
-0.13439785 -0.06430729 0.36593062 -0.11939599 0.048570417 0.12842426 0.20861174 0.38488644
0.18653406 0.08023441 -0.32596964 -0.0018244771 -0.035974152 0.1797269 0.12742753 -0.0045243753
0.28858283 -0.06033025 -0.18134084 0.0026184805 0.116989814 -0.3183477 -0.19443914 0.18484527
-0.07852181 0.114972204 0.20098922 -0.33888853 -0.10601101 0.21676998 0.2893603 0.05127565
-0.30000216 -0.016063252 -0.08106353 -0.11048055 -0.41502944 0.20213059 -0.19022258 0.452483
0.1371064 -0.036248576 0.17991976 -0.074501924 -0.024424694 0.32511115 0.010189052 -0.5488216
0.022625284 0.15461741 -0.028007645 -0.061738174 -0.14625835 -0.12827092 -0.1244398 0.23720776
0.66294 -0.14083764 -0.6064295 -0.004684453 -0.23167889 -0.34412923 -0.111327685 -0.39103502
0.016910607 -0.18107736 0.4375978 -0.21823466 0.51435727 -0.4774646 0.04246723 0.19899008
0.39693105 0.26280183 -0.43354475 -0.43093303 -0.020269757 0.50332445 -0.41620427 -0.06257588
0.46886712 0.053091995 -0.38133693 0.11217895 -0.57057357 -0.3815418 -0.24693395 -0.09282091
0.34110433 -0.029744452 -0.15441518 -0.55036664 0.14283116 -0.4532029 -0.323233 -0.09142333
0.089987785 -0.16380835 -0.054513473 0.07322733 0.12165474 -0.0037905676 0.18694942 0.02509917
0.16439186 -0.04980237 -0.29113922 0.10160387 -0.27432635 0.1550029 -0.16079812 0.37331036
0.08471096 -0.30012795 -0.07736127 -0.22042204 -0.08945796 -0.33573392 0.1008302 0.15096508
0.30610862 -0.32120752 -0.2232601 -0.73338044 -0.018684896 -0.15256487 -0.70603323 0.10680971
-0.03447656 -0.4039673 -0.524065 -0.30869436 0.38128042 -0.18177678 -0.3370259 0.15215866
-0.05229898 -0.69701827 -0.05720886 -0.08790019 -0.16220011 0.34330973 -0.06072591 -0.047972836
-0.35662997 -0.019037263 -0.065740526 -0.12755121 -0.26065618 0.20833439 -0.050414275 -0.27645835
-0.2044158 -0.34225574 -0.2633776 0.033169582 -0.0951511 -0.25145537 -0.5489511 0.041638315
0.18159284 0.017353633 -0.14722832 0.07293243 0.4559449 -0.38849163 0.14517105 -0.4279679
-0.21816546 -0.26213816 -0.24589065 0.23092343 -0.3308094 -0.44989693 -0.120751485 0.5112411
-0.23858234 -0.6741972 -0.3003066 -0.23922451 -0.14891471 -0.010745992 0.06411085 -0.17761691
-0.8347904 0.17086945 -0.08287827 -0.110714845 -0.16145296 0.0727178 -0.7519306 -0.048222717
0.1671491 -0.25695914 -0.20005721 -0.118328966 -0.22593023 -0.07155725 -0.09737878 -0.048033047
-0.42910296 -0.26772985 -0.13213734 0.33484626 -0.103239916 -0.35552722 -0.07856695 0.03881041
-0.13207865 0.3807926 -0.15712038 -0.02824195 -0.062032584 0.018532848 0.14199987 -0.0778486

sequential/conv2d_2/Conv2D f4 [60, 3, 3, 45]
00000000: 380a a3bd 6f2f a3be e471 e4bc 0eec fbbd
00000010: 4bda 223f 59a7 853e 4f8c a1be d0c7 603e
00000020: 522b 48be 25b0 00bf ffe9 513e 4017 90be
00000030: 60b6 07bf 91b6 8fbd 7980 573e 3f14 c5be
00000040: 68b5 e23e e828 e73e 34b4 5d3e bbbb f5bd
00000050: 17e3 483e 525a 673e 2fc5 d93e 169a 8a3e
00000060: 0ee5 16bf f277 8d3d 2213 9fbe d20a 0b3e
00000070: 53da 10be 270e 5c3f f026 a13e 4110 cb3d
00000080: 54fc dcbe 1c4a e7be def6 ae3d 0eb9 fcbe
00000090: 25e2 c13d a97b a5be 6aa0 83be b8c4 8c3e
000000a0: 1362 2ebe a4c7 61be 9ba7 a7be e7e8 70be
000000b0: aded 6c3c e16c 6b3e 5ef8 a33e c9cf ebbe
000000c0: 2e3f 0c3f eb7e a73e 3f6e 9abe 297e ea3e
000000d0: 2ae5 063d 926a 0c3d 9709 38be 490a 1f3d
000000e0: 3099 5e3e d788 86be 05cb 643e 548f b43e
000000f0: 763f 8b3e 76fe c93e ea5a 87be 5e1d d3bc
00000100: 4ed3 073d 84c2 1cbf eeaf 1abe 684a 12bc
00000110: 80b0 87be 8916 213e 0bdc 75ba 6e06 1abf
00000120: 5952 f0bd 60b8 673e 5561 c73e 577d 3e3e
00000130: 8a10 32be 037c 03be 500e f0bc 6776 143f
00000140: 75b7 c63e 3dd6 0d3f 7b1a 21bf ba0c ba3e
00000150: 912b c33e c8d0 be3e c34a 36bf 0752 1bbf
00000160: ea12 b5bd cec8 3b3d 88a8 60be 5692 ecbe
00000170: 3de9 b4be 3653 4bbe b179 663c 9617 ef3d
00000180: ff31 933e 7cb7 8dbd c9b8 7e3e 998d e3be
00000190: 3119 9a3e ec04 e7bd 2450 eabe f818 4dbe
000001a0: daa1 90bd b8c7 d63d 1bed ad3c ae56 a53e
000001b0: 8043 6fbe 5e17 503e b680 f6bd a407 a53d
000001c0: 2cb8 b53d b4f2 f53d 850e 513d fc58 983e
000001d0: def9 80bd 9e94 ee3d 9aad 313e bdfc 1f3f
000001e0: db1b ed3d 54eb 773e bc00 2cbf 65b4 4c3e
000001f0: 5399 c1bb d1de 82be 0405 90be ec8a cf3d
00000200: d651 ed3d 5adb 14be 8465 0bbf 8d5a 0ebe
00000210: e277 b0be 6fea 233e 4252 1a3e 3d54 1dbe
00000220: 6bd6 0b3f 281d d93d c1ee 61be d381 afbd
00000230: a396 3bbd eee2 073f bd56 59be ffb2 9ebe
00000240: 163f 56be 5b21 a7bd 4645 0bbe 0b64 cb3d
00000250: bad5 d23e 231c a4be a56e ec3e d0d8 bf3c
00000260: f4a8 89be a6be 00bd 7906 41be 4480 de3e
00000270: d7ce 1fbc fe8d ebbe 0305 653e 6cc1 36be
00000280: cd23 643d a4a9 10bf 86dd d3be ead0 2d3e
00000290: d7fd 1b3d e637 303e 2320 e6be b2f1 373c
000002a0: c66d acbd 7dd4 d3be 0665 8abb 4a38 f83c
000002b0: 16c6 8fbe 6647 af3e 92c5 27bf 7fdb ca3e
000002c0: 2a53 893e f424 98be 90c1 61be 09a0 6bbe
000002d0: 959b 123e e548 cebd 134a 93be 4bfa 783e
000002e0: 978c c83b 3d4c ee3d a7a3 80bd 8289 ca3e
000002f0: 9d50 91bd cc0c 4f3d e19f e83e 6f51 42bd
00000300: ca29 c13d 16fe af3e 00d1 73be 27c5 8f3e
00000310: 495b 013e 09da 1b3f 1207 6fbf 807c 183e
00000320: bcce d53c 3150 2abe 79fb 933e d1d0 86be
00000330: 6bd9 debd b8fc 1b3d c82e f5be 6140 dcbc
00000340: 7037 d43e 0bbc a63d c36e f2be 4ea4 033f
00000350: a58e 963e e7f7 37be e358 b23e f481 c5be
00000360: e0e0 32bd d04e 1dbe 3d73 083e 03e1 34bd
00000370: d5e9 bb3e 7057 87bd 80eb 14be 2b21 053e
00000380: 8359 2fbe aeac 1a3e 8da1 403e db2e d23d
00000390: 8ee7 b03d 82e3 68be d1f0 e03e f732 713e
000003a0: 2cff 3dbe 14cf c7bd ceec 0fbe 448b 943d
000003b0: 59a0 12be 0e10 303e 3ff5 a03d 598d b6be
000003c0: 30f5 f23e 34e0 fa3b 497a 20be f626 153f
000003d0: 8e59 d73d 2906 d3bc c3fb d93e 21d0 9b3d
000003e0: bb96 1a3e 9b48 473d 5ef0 463e 955b 093f
000003f0: 6d55 00be 960d 25be d8a0 983e 3a94 273f
-0.079609334 -0.31872126 -0.027886339 -0.12300883 0.6361434 0.2610424 -0.3155236 0.21951222
-0.19547775 -0.50268775 0.20499419 -0.28142738 -0.5301266 -0.07017244 0.21045102 -0.3849201
0.44279027 0.45148396 0.21650773 -0.11998697 0.19617878 0.22593048 0.42533252 0.27070683
-0.5894326 0.069076434 -0.31069285 0.13578346 -0.14145784 0.85959095 0.3147502 0.099152096
-0.4316126 -0.45173728 0.0854318 -0.49359936 0.09466962 -0.32320908 -0.25708324 0.27493834
-0.170296 -0.22048813 -0.3274506 -0.23526345 0.014460963 0.22990753 0.32025427 -0.46056965
0.54783905 0.32714018 -0.30162236 0.45799378 0.03293339 0.03428132 -0.17972408 0.038828168
0.21738124 -0.26276276 0.22343071 0.352656 0.27196854 0.3945195 -0.2643655 -0.02577084
0.0331605 -0.6123431 -0.15106174 -0.008928873 -0.26501846 0.15731253 -0.0009378797 -0.6016606
-0.117344566 0.22628927 0.38941446 0.18602501 -0.17389122 -0.12840275 -0.0293037 0.5799317
0.38811842 0.55405027 -0.6293103 0.36337835 0.38119176 0.37268662 -0.7120783 -0.6067204
-0.08841498 0.0458458 -0.2193929 -0.46205395 -0.35334197 -0.19855961 0.014067099 0.116744205
0.28749081 -0.069197625 0.24875177 -0.44443968 0.30097345 -0.11280236 -0.45764267 -0.20029056
-0.07062121 0.10487312 0.021231225 0.32292694 -0.23365593 0.20321414 -0.120362684 0.08058098
0.088730186 0.120091826 0.051039238 0.2975539 -0.062976584 0.1164944 0.1735138 0.62495023
0.11577579 0.24210864 -0.6718862 0.1999069 -0.0059081702 -0.2556062 -0.28128827 0.10133919
0.115878746 -0.14536801 -0.54451776 -0.1390173 -0.34466463 0.16007398 0.15070441 -0.15364166
0.5462405 0.10601264 -0.22063734 -0.08569684 -0.045797955 0.5308064 -0.21224494 -0.30995938
-0.20922503 -0.08160659 -0.13600644 0.09931191 0.41178685 -0.32052717 0.46178165 0.023418814
-0.26886714 -0.031431817 -0.18850125 0.43457234 -0.009753904 -0.4600677 0.22365193 -0.17847222
0.055698205 -0.5650885 -0.41379946 0.16974226 0.038083877 0.17208824 -0.44946393 0.011227058
-0.08419375 -0.41373053 -0.0042234687 0.030300278 -0.28080815 0.3423416 -0.65535843 0.39620587
0.26821262 -0.29715693 -0.22046494 -0.23010267 0.14317162 -0.10072497 -0.28767452 0.24314229
0.0061202752 0.11635635 -0.06281214 0.39558035 -0.07095454 0.050549313 0.45434478 -0.047440942
0.09431799 0.3437354 -0.23810196 0.28080103 0.12632479 0.6087957 -0.93370163 0.14891243
0.026099555 -0.16632153 0.28902796 -0.2633119 -0.10881313 0.03808281 -0.47887254 -0.026886167
0.41448545 0.08141335 -0.4735013 0.51422584 0.29405704 -0.17965661 0.3483344 -0.3857571
-0.04367149 -0.15362096 0.1332521 -0.0441599 0.36701837 -0.06608474 -0.14542961 0.13000934
-0.1712399 0.15104935 0.18811627 0.10262843 0.086379156 -0.22743037 0.43933728 0.23554598
-0.18554372 -0.09756294 -0.14055178 0.07253125 -0.1431898 0.17193624 0.07859277 -0.35654715
0.47452688 0.0076561216 -0.15671648 0.58262575 0.10515128 -0.025759773 0.4257489 0.07608057
0.15096562 0.048653226 0.1942763 0.5365537 -0.12532587 -0.16118464 0.29810214 0.6546055

sequential/dense/BiasAdd/ReadVariableOp f4 [64]
00000000: 14b8 c7bd 02b2 a03c 12e1 eabd 59a5 253e
00000010: 3bb6 ea3b 9773 07be 1f20 6cbe 997b 4ebd
00000020: 329b cbbb 6d1b 3dbe 6f9a 49be 3394 163d
00000030: bb60 87bc 1933 8b3e 109a 0bbe 3c59 27be
00000040: b485 a0be 7a4e 753d d4ea 88be 7293 073e
00000050: 36d4 84be 19a0 0cbe 3a05 69be 077c c0be
00000060: 08fb ab3d 799c 90be 37d6 80be d385 96be
00000070: 693a 61bd b451 88bd 6d65 043e 1c3a c7bd
00000080: 7c12 663d 5bcb cb3d 6512 1bbe 5e9a 14be
00000090: b444 133e e968 093e dc78 98be 723a 7ebe
000000a0: f2e4 a2bd 93ba 2abe 13a3 2cbe c262 69be
000000b0: 8f08 0e3e 8fb0 1fbe d7fc 753d b23e 21be
000000c0: 2647 9ebe 4dd3 1abe 34d6 06be 0614 a8be
000000d0: ec12 34be aec3 cf3d 0fa7 a7bd e380 443e
000000e0: c417 183c b09a 22bd 4b9e 3fbe f0c5 61be
000000f0: 8051 08be 0742 553d 6428 943c 35fb 17be
-0.09751907 0.01961613 -0.1146871 0.16176356 0.007162837 -0.13227688 -0.23059128 -0.05041084
-0.006213569 -0.18467493 -0.19687818 0.036762428 -0.016525617 0.27187422 -0.13632989 -0.16342634
-0.31352007 0.059889294 -0.2674166 0.1323984 -0.25943154 -0.13732947 -0.227559 -0.37594625
0.0839749 -0.2824438 -0.25163433 -0.29398975 -0.054987345 -0.06656209 0.12929316 -0.0972788
0.05616997 0.09950896 -0.15143736 -0.14512011 0.14381677 0.13418926 -0.29779708 -0.24826983
-0.07953824 -0.16672735 -0.16859083 -0.2279158 0.13870452 -0.15594696 0.06005558 -0.15746573
-0.30913657 -0.15119667 -0.1316765 -0.32827777 -0.17585343 0.10144745 -0.08186161 0.19189791
0.00928301 -0.039698303 -0.18712728 -0.22048163 -0.1331234 0.05206492 0.018085666 -0.14841922

sequential/bidirectional/forward_lstm/Read_2/ReadVariableOp f4 [80]
00000000: 25d3 143e e55d 05be 8e4b 683e 8c5c 0bbe
00000010: 6a99 583d 0c81 74bd 990f ffbd be84 c33d
00000020: a526 f33e 4857 7f3d c05f 22be ea49 8e3e
00000030: 5ab8 763e 4dde 48be f3c7 6fbd 14f1 73bc
00000040: 1fc0 923d cfc4 943e d235 db3e 0e91 ba3e
00000050: e3ad 913f 9090 7c3f 3b9b a73f 5435 a23f
00000060: 8b8a 7b3f 03cc 883f f66b 6b3f 945c 463f
00000070: dad9 b63f d539 543f f90e 3f3f 4153 433f
00000080: 4cb9 eb3e 4fb0 523f ce9b 5d3f 6e3c 783f
00000090: 9ae5 7d3f f0c8 743f e725 753f c7ac 903f
000000a0: ec85 1dbe e6bc 8a3d 349c 6c3e 0256 acbe
000000b0: 2af5 0e3e a981 95be 19e2 8d3e 0c2c 52bb
000000c0: 020c 163f 559d a93b 5d8d 423e 6f7f 0ebe
000000d0: 5a69 843e fd2b 4cbc de89 953e 8702 a63d
000000e0: 0dea 8d3e e57c c1be c7f8 d3be 3df2 11bf
000000f0: 0cfe 023c 3b7f 6d3d 8a58 ce3d 7973 1b3f
00000100: 1768 8c3e 02b7 bd3c d434 2bbd 11d6 253e
00000110: 4c32 963e 23d0 dcbd 723c 8c3c 64f9 443e
00000120: a336 78be 7fc1 ab3e a247 24be c4a7 0e3e
00000130: 4975 96bd 2193 b43c 0e74 3f3e 7ca1 643e
0.1453367 -0.13024099 0.22685072 -0.13609523 0.052880682 -0.05969338 -0.12454147 0.09546803
0.4749042 0.062339097 -0.15856838 0.27790767 0.24093762 -0.19616051 -0.058540296 -0.0148890205
0.071655504 0.29056403 0.428145 0.36438793 1.1381191 0.98658085 1.3094248 1.2672524
0.98258275 1.068726 0.9196161 0.77485013 1.4285233 0.82900745 0.7463222 0.7629891
0.46039808 0.82300276 0.86565864 0.9696721 0.9917847 0.95619106 0.9576096 1.1302727
-0.15383118 0.06774311 0.23106462 -0.3365937 0.1396071 -0.29200485 0.2771156 -0.003206971
0.5861207 0.005176226 0.18999238 -0.139158 0.25861627 -0.0124616595 0.29206747 0.08105951
0.2771763 -0.377906 -0.4140074 -0.5701025 0.00799514 0.057982665 0.10075481 0.6072307
0.27423164 0.023158554 -0.041798428 0.16194941 0.29335248 -0.107818864 0.017118666 0.1923576
-0.24239592 0.33546063 -0.16042951 0.13931185 -0.07346589 0.022042813 0.18696615 0.22327226

sequential/bidirectional/backward_lstm/Read_2/ReadVariableOp f4 [80]
00000000: aca4 1dbe 1c5f 573e c6ea ca3d ee81 74bd
00000010: bf15 403e e5de b0bd 7143 47be b75c 5e3e
00000020: 0d99 853d 15ea 833e e096 8b3e 1e3a 3a3d
00000030: ffc1 843e ca09 063e ec70 653c 0656 dd3d
00000040: 2aca 32be 22ef 8c3c df0b 273e 808c 6d3e
00000050: 8a98 723f 6168 7c3f 11af 843f f37e 8a3f
00000060: cabc 603f b378 823f e9e3 4a3f 13a6 273f
00000070: ec41 8f3f 2bc7 563f 0795 483f fb03 503f
00000080: d513 7e3f d67b 853f d0ca 603f 17b4 813f
00000090: 8545 853f 270f a63f f3c2 763f 9b4e 383f
000000a0: 6a98 ba3c 58b3 eebe 0f70 453e 7509 e4be
000000b0: 45f6 e5be f3b3 e53e f4f6 4cbe 5f4e ddbc
000000c0: 2808 343e e19d a9bd 9ec3 fb3d d185 803e
000000d0: 8de9 ffbe a50b c3be 3800 83bc dd59 a43e
000000e0: 396b c7be 95fe 5c3e bc2c 5dbd 0ea1 063f
000000f0: 6bbe 44be b98d e8bc 89ad 7f3e 1ab5 27be
00000100: 5554 abbd 0e5e 193e 20d7 e1bd 7573 923d
00000110: ead6 003e 6386 10be b91c a3be 0789 603e
00000120: 133d aa3e 9b76 043e f9a6 49be 8873 be3e
00000130: 65f6 0e3e 5eca 973d 8a18 a1bd f5a8 39be
-0.15394849 0.21032375 0.09908061 -0.059694223 0.18758295 -0.08636264 -0.1945932 0.21715055
0.06523333 0.25764528 0.27263546 0.04546558 0.25929257 0.13089672 0.014003973 0.10807423
-0.17459932 0.017203871 0.16313122 0.23198128 0.94764006 0.9859677 1.0365926 1.0819992
0.8778807 1.0193084 0.79254013 0.65487784 1.1191993 0.83897656 0.783524 0.81256074
0.9924901 1.0428417 0.8780947 1.0133084 1.0411841 1.2973374 0.9639122 0.7199494
0.022777755 -0.46621203 0.19281028 -0.44538465 -0.4491445 0.44863853 -0.2001608 -0.02701491
0.17581236 -0.08282066 0.122931704 0.25102094 -0.49982873 -0.38094822 -0.015991315 0.3209981
-0.38948992 0.2158149 -0.05399774 0.525895 -0.19213264 -0.028387891 0.24968542 -0.16377679
-0.083656944 0.14977285 -0.1102736 0.07150928 0.12581983 -0.14113764 -0.3185785 0.21927272
0.3324972 0.1293587 -0.19692601 0.37197518 0.1396118 0.07411645 -0.078660086 -0.18130858

sequential/batch_normalization/FusedBatchNormV3 f4 [32]
00000000: 138f 5140 a65c 063f cb0b 973e da05 1d40
00000010: 2e7d 363d c344 f13f 5fbf 1c40 6029 c83e
00000020: 7ef5 413f 22b9 1741 2eef 1f3f 3d69 923f
00000030: c10a 0440 1d36 0a3e 6212 1940 a0ce 403d
00000040: a47d 1b40 dbfb da3f cb8d a540 171a aa40
00000050: 6400 f33f 324b 2740 fa69 f53f 7145 1940
00000060: 0dc6 e43e 0124 f73f afad 9d3d e88a 0741
00000070: b0a1 a83d fe77 7041 e59e 323f 223a fe3f
3.2743576 0.5248512 0.29501185 2.4534822 0.044552974 1.884911 2.4491804 0.39094067
0.75765216 9.482698 0.62474334 1.1438366 2.0631564 0.13497205 2.391747 0.047072053
2.4295435 1.710811 5.1735587 5.315685 1.8984494 2.6139646 1.9172966 2.3948634
0.4468235 1.9307863 0.07699143 8.471413 0.082339644 15.029295 0.69773704 1.9861491

sequential/batch_normalization/FusedBatchNormV31 f4 [32]
00000000: c961 74bf ac16 10bd a2a0 b7be 2ed2 c8be
00000010: 653e e6be 205d fb3b 0f09 50be 517f 00bf
00000020: 3300 e4be dc5f 9abd 49cc 80bf 0847 1ebe
00000030: 9489 68bf 1750 cfbe 9e26 48be cb0b 25be
00000040: aca9 a7be 7677 58bf d448 f6bc 5ed6 57bd
00000050: 5204 34bd 3667 08bf 8d5a f5bd 6c15 c8bf
00000060: e803 73bf bb74 48bf e4ab f1be eb46 e9be
00000070: cc94 a4be b4dd 7a3d b207 febe ac29 b4be
-0.9546171 -0.03517787 -0.3586474 -0.39222854 -0.44969478 0.0076710135 -0.20315956 -0.5019427
-0.44531402 -0.07537815 -1.0062343 -0.15456784 -0.9083493 -0.4049079 -0.19545981 -0.1611778
-0.32746637 -0.8455728 -0.030064024 -0.05269467 -0.043949433 -0.5328249 -0.11980162 -1.5631537
-0.94927835 -0.78303117 -0.47201455 -0.4556192 -0.32144773 0.06124659 -0.49615246 -0.35188043

sequential/batch_normalization_1/FusedBatchNormV3 f4 [45]
00000000: ff5d 383e d88d 8e3e b059 0d3e 37eb 733e
00000010: d693 743e 08ab 993e f87f 5e3e 218f 963e
00000020: da0f 823e ee0b 843e 1297 933e c0e9 723e
00000030: 3952 dd3d 6e31 bb3e 5ed5 363e 16e6 573e
00000040: 4368 893e fca2 df3e 8266 8d3e 8c83 223e
00000050: fce5 933e d1ab 8c3e ec4e 8d3e f973 a13e
00000060: c4bd 813e fdd5 5f3e 0d6f 443e f021 a53e
00000070: 269f 933e a47e 9a3e c63c 6b3e 94e4 7d3e
00000080: f7b9 213e 3610 313e eeb6 123e 3cd5 5a3e
00000090: 6cee 6d3e b560 983d a5c1 883e 6898 963e
000000a0: 6898 643e 1377 ec3d ce81 113e 16c6 4e3e
000000b0: 800a 893e
0.18004607 0.27842593 0.13803744 0.23820196 0.2388452 0.300133 0.21728504 0.29406074
0.2540272 0.25790352 0.28826195 0.23721981 0.10806698 0.3656115 0.1785483 0.21083865
0.26837358 0.43679035 0.2761727 0.15870494 0.28886402 0.27474836 0.27599275 0.31533793
0.25340092 0.21858974 0.19182988 0.32252455 0.28832358 0.30174744 0.22972402 0.24794227
0.15793596 0.1729134 0.14327595 0.21370405 0.23235482 0.074403204 0.2671024 0.29413152
0.22323763 0.11546149 0.14209673 0.20192751 0.26765823

sequential/batch_normalization_1/FusedBatchNormV31 f4 [45]
00000000: b5fd 97bf 0076 89bf 8032 44bf ac41 96bf
00000010: 2ecf c8bf 71a8 2fbf 20c5 cebf 32e0 43bf
00000020: 2c67 2fbf 687c 52bf c87c 98bf 7c5c 53bf
00000030: 6e2a 39bf da78 5ebf 6280 36bf 42b5 27bf
00000040: 904d 8abf bfd3 4bbf 0583 c4bf 6a7a 92bf
00000050: 22a8 90bf f52f b4be 36f8 9ebf 8ad4 9abf
00000060: 524a 75bf 460b 6bbf 286b 50bf 5a07 17bf
00000070: aa94 9cbf 04fb a0bf 399a 77bf 4a6c 93bf
00000080: 7e99 5cbf 0802 86bf 3278 18bf 54d8 4ebf
00000090: 1fc1 acbf e750 a3be 78cd 79bf 4431 a8bf
000000a0: e1f8 98bf a802 5dbf 6dee 1bbf 9032 a6bf
000000b0: f376 a2bf
-1.18743 -1.0739136 -0.76639557 -1.1738791 -1.5688226 -0.68616396 -1.6153908 -0.7651397
-0.685168 -0.8222108 -1.191308 -0.82562995 -0.7233037 -0.86903155 -0.71289647 -0.6551095
-1.080492 -0.79619974 -1.5352484 -1.1443608 -1.130131 -0.35192838 -1.2419498 -1.2096112
-0.9581653 -0.91814077 -0.8141351 -0.5899559 -1.2232869 -1.2576604 -0.967197 -1.1517422
-0.8617171 -1.046937 -0.59558403 -0.8079884 -1.3496436 -0.3189766 -0.97579145 -1.3140035
-1.1950952 -0.8633218 -0.60910684 -1.298418 -1.269255

sequential/batch_normalization_2/FusedBatchNormV3 f4 [60]
00000000: a1e9 863d ebaa 773e 1796 a93e b77d 593e
00000010: c35a 553e d997 153e e1a7 7f3e 2e64 a23e
00000020: 8d82 5b3e cccd 353e c69e 143e a8f7 443e
00000030: a96c 9e3e 5384 d63e 57f4 6d3e fdca c73e
00000040: 43b8 463e 339a 393e 2b47 703e 29c8 883e
00000050: a385 813e c6b1 243e 0cb3 803e 1697 9c3e
00000060: 606c 4f3e 3fb8 803e f23a 353e dd04 8d3e
00000070: d2e8 c73e dc1d 733e 9d4f 243e 9e0c a33e
00000080: 74bc 2e3e c6df 643e 72a3 9d3e dce4 0f3e
00000090: c417 ed3e b7b9 1f3e fe03 ac3e 149d 2e3e
000000a0: f9fa 903e 022b 483e c406 6e3e a11a 503e
000000b0: 1ddc 023e 1ba3 493e 6e66 423e cd84 123e
000000c0: f99b 4d3e 2d8e 663e a0f2 b63e 30ec a73e
000000d0: 8c63 673e 4889 9c3e 62a9 9f3e bc55 203e
000000e0: 7c4f 983e eb32 a53e 48ad 773e 94c4 683e
0.0658753 0.24186294 0.33122322 0.21239363 0.20835404 0.14608707 0.24966384 0.31717056
0.2143652 0.17754287 0.14513692 0.19235098 0.30942276 0.4189783 0.2323774 0.39022055
0.19406228 0.18125229 0.23464648 0.2671521 0.2529727 0.1608344 0.25136602 0.3058402
0.20256186 0.2514057 0.17698267 0.27542773 0.39044815 0.23741859 0.16045995 0.31845564
0.17064077 0.22350988 0.3078876 0.14052147 0.46307194 0.15598188 0.33596796 0.17052108
0.28316477 0.19547656 0.23244768 0.20322658 0.12779279 0.19691126 0.18984386 0.14308472
0.2007903 0.22515173 0.35731983 0.32797384 0.22596568 0.30573487 0.31183916 0.15657705
0.29748142 0.3226541 0.24187195 0.22731239

sequential/batch_normalization_2/FusedBatchNormV31 f4 [60]
00000000: 89d3 d3be 1eb3 1dbf c47c 95be 72d3 c8be
00000010: da4b 2dbf 1457 35bf c028 09bf d228 7fbe
00000020: d596 27bf a135 86be 964e 59be f853 5bbe
00000030: d034 03be 30bc 7bbd a31c 24bf 1a3f a0be
00000040: 285d edbe 6ba7 8bbe 9950 0bbf 1ef2 b4be
00000050: 9cac fabe 2c2e 94be a2e0 99be 881c eebe
00000060: bc3e ddbe 54a3 b0be f8d2 18be 7eb0 4fbe
00000070: b9a0 e8be 6cfd b0be 39ca 1fbf 9807 93bd
00000080: 79aa 19bf 72ab e8be a04a dfbe 8d11 65bf
00000090: e2ca 33be c4d5 13bf 78ed b7be 9c68 ebbe
000000a0: c7a9 20bf cd9b 76be f433 19be e8ca 22bf
000000b0: dcea 33bf dc59 bebe 8453 14bf 9e83 b6be
000000c0: 9e65 6fbe 552b 03bf 4ad8 f0be 18a9 13be
000000d0: 3869 9ebe adde 22be b5da 22bf 953b 5dbf
000000e0: ea88 42be ba8a 05bf 9e7b 1abf b668 5abf
-0.41372326 -0.61601436 -0.2919675 -0.3922382 -0.67693865 -0.70835996 -0.53577805 -0.24917915
-0.65464526 -0.2621279 -0.21221384 -0.2141875 -0.12813115 -0.061458766 -0.64106196 -0.31298143
-0.46360135 -0.27276167 -0.5441986 -0.3534097 -0.48959816 -0.28941476 -0.30054194 -0.46506143
-0.43211925 -0.3449961 -0.14924228 -0.2028217 -0.45435122 -0.34568346 -0.6241794 -0.07179183
-0.60025746 -0.45443302 -0.43611622 -0.89479905 -0.17557862 -0.57748055 -0.35923362 -0.45978248
-0.6275906 -0.24082871 -0.14961225 -0.6359086 -0.7028024 -0.37177932 -0.57939935 -0.3564729
-0.23378608 -0.51237994 -0.47040015 -0.14419973 -0.3093965 -0.15905257 -0.6361497 -0.8641904
-0.18997541 -0.52164805 -0.60344875 -0.85316026

sequential/dense/MatMul f4 [64, 40]
00000000: 62a4 b3b9 4f4f ac3c 919d 2abf 32b0 c5bd
00000010: c945 c7be 98e3 8f3e 2112 b1be 3d18 d3bd
00000020: fe53 a1be aca2 0ebd f019 e73e 6882 5a3e
00000030: 8b85 acbe b886 edbd bb50 3abe 0448 903d
00000040: 2a3f 02bd b473 fb3e d8b8 113f b7d0 c73e
00000050: d489 c3bd ccd5 f23e 4396 b6bc 21bb ee3d
00000060: 0937 9a3c a48c 44be 67fd 653e a68f 213c
00000070: 1b8f c6be 122e d4be 7251 b1be 1068 22bd
00000080: 8ebd 1b3f 8803 953e 1a0e f33e c9f2 89be
00000090: 89fa 443f fb7a 833c e87c d63e 8a0d 53be
000000a0: e3d5 f6be 1efa 5e3e 1998 f63e 0808 bfbe
000000b0: e6eb e33e 8ba9 e1be 9277 cc3e 5765 b23d
000000c0: bd1f 75be cbe5 153e 31b6 28be 98ed e43d
000000d0: b776 d83d 9f5e 903e 1f6b fd3d 49ca d5be
000000e0: 604b c4bd fc03 fdbd db7f 913d 369e 9cbe
000000f0: 81a6 763e f379 08bf 383f 853d 5bd5 c0bc
00000100: 038f 03bf c9ef b53e 42d0 eebd 64cf 80be
00000110: 60bc 353c 5f37 193f f973 133f bf20 813e
00000120: e5b7 cabe cbf7 6cbe b865 b8be a5b5 083f
00000130: df34 7cbe e4f3 ad3d 27e1 24be 7bb4 3e3f
00000140: 2060 973d f9ca 6d3d b5c8 c6be 5315 853e
00000150: 3ff3 c7be 7c36 823e f9c6 1cbe 8db7 65be
00000160: 2f6c 0f3d f26b afbd 2a86 dc3e b6b1 9a3e
00000170: 4cb4 3fbd c1f5 10bf 03ae 1cbe 9841 a63e
00000180: 8b79 203e c12f 1b3f 4a7a b03e 9b47 a73e
00000190: b2e3 13be c1c2 0e3f eaa7 3a3e 02f0 453f
000001a0: f5f7 733e 9967 15bf 375e 463e 32a6 323e
000001b0: bc26 febc 36a2 cbbe c467 93bd e4eb 6bbd
000001c0: 7176 8a3e 8b5f 143e 5b19 313f 4b5d 0dbf
000001d0: d27e 603e 25d7 96be 81b1 9d3e 0f23 e4be
000001e0: b099 bebe 82d4 d2bd a953 303e 4b70 91be
000001f0: 4448 85bd 010f 54bd 1a91 203e 0ea9 c83e
00000200: f94f 3e3e 9430 763e 62b5 54be 3792 60be
00000210: 26be 793e 3273 a53e 6168 293f b46b b0be
00000220: 6595 afbd fa42 81be 0f63 a5be a84e 94be
00000230: 384b 8d3e f00f cbbe 00b0 3b3e 9115 933d
00000240: 0562 abbe 5118 a93e ed4c 1abe aefe 55be
00000250: 2b16 943d da06 d73d d892 3c3e db73 ad3d
00000260: 5689 d6be c481 a7be 71b8 a6bc 9b95 063e
00000270: 6158 8bbe b9a8 69bc 7a43 0ebf e3ba 263f
00000280: b5a0 143e a909 043e ef9e f13e 2caf 8ebe
00000290: b624 1f3d 5568 f9be 4877 153f 4694 e43e
000002a0: c1f2 c43e ae3f 983e c77b 87bc e0d1 03be
000002b0: 1788 9b3d 3526 fb3e 1f64 11be 4170 0dbe
000002c0: 0eb0 c53e abbd d2be 5fca 1abe 5ca5 a3bb
000002d0: 4fab b73e f710 77be a8fc 8d3e eaac 32bf
000002e0: 9526 e8be 1624 5cbe 4542 e23d 7ece e5be
000002f0: 2f79 953e eff2 e33e 695f 463f e9ff 953d
00000300: 61dc 62be 7ea0 01bf 6b32 84be 2827 9b3e
00000310: 2439 00bf 2420 b23c 2a46 9bbe dcb2 57bd
00000320: 1146 8abe 4a47 a93d 4535 103e a1e3 d13d
00000330: ee32 b83c 7b6b b2bd ce25 d83e dd2d 743e
00000340: 55de 083e 9965 973d 7f76 24be 4bc9 ccbe
00000350: 1bd3 b83e 012a 8dbd a0da 913e 62fe f0be
00000360: 412b 833e 82bd c7bd 9cd0 1bbd d707 f4be
00000370: 8fc0 0f3e 4110 0abf b089 843d b111 36be
00000380: f5f4 c8be 1a40 373e 58fc b7be bdcf a5be
00000390: 4ef1 603d 869c 3f3f cd96 a53e 00ee 083c
000003a0: 263b 08bf 1dc4 02bf 04d9 8ebe cf64 b93e
000003b0: f9b5 a4be 9fc6 a23d 736c 08bf 7cb6 2d3e
000003c0: 80be d4bd fcb6 fabd b240 ecbe d44f fa3c
000003d0: 6d14 f5be 9120 503e 455f dfbe ed5f 9abe
000003e0: 9bf5 5abe 522a d9bd 7fb9 473c f9ce fbbd
000003f0: 290d e8bd ec1c 23be 4d86 27be eb77 0c3f
-0.00034264015 0.021033911 -0.6664668 -0.09652747 -0.3892043 0.28103328 -0.34584144 -0.103073575
-0.31509393 -0.034823105 0.45136976 0.21338809 -0.33695635 -0.11597961 -0.18194859 0.07044986
-0.03179852 0.49111712 0.56922674 0.39026424 -0.09547773 0.4742874 -0.022288447 0.11656786
0.018825071 -0.19194275 0.22459947 0.009860909 -0.38781056 -0.414414 -0.3463245 -0.039650023
0.6083611 0.29104257 0.47471696 -0.26943043 0.76944786 0.016049853 0.4189217 -0.20610633
-0.48210058 0.217751 0.48162916 -0.37310815 0.44515914 -0.44074664 0.39934975 0.08710735
-0.23937888 0.1463844 -0.1647575 0.1117813 0.10569518 0.2819719 0.12373947 -0.41755894
-0.09584689 -0.123542756 0.071044646 -0.30589455 0.24086954 -0.5331108 0.06506199 -0.023539236
-0.51390094 0.35534504 -0.11660816 -0.25158226 0.011092275 0.59850115 0.57598835 0.25220296
-0.39593425 -0.231414 -0.36015105 0.5340217 -0.24629544 0.08493784 -0.16101514 0.7449414
0.07391381 0.058054898 -0.38825002 0.25992832 -0.3905277 0.25432193 -0.15310277 -0.224333
0.03501528 -0.08565511 0.4307111 0.30213708 -0.046802804 -0.5662499 -0.15300755 0.3247192
0.15671365 0.6061974 0.344683 0.32671818 -0.14442328 0.5576592 0.18228117 0.7731935
0.23825057 -0.583612 0.19371878 0.17446211 -0.03102433 -0.39772195 -0.07197526 -0.05759801
0.2704349 0.14489572 0.69179314 -0.5522048 0.21923378 -0.29461017 0.30799487 -0.44557998
-0.3722663 -0.10294439 0.17219414 -0.28405985 -0.06507924 -0.05177212 0.15680352 0.39191478
0.18585195 0.24041969 -0.20772317 -0.21930777 0.24388942 0.3231445 0.66174895 -0.3445717
-0.085734166 -0.25246412 -0.32302138 -0.2896626 0.2759645 -0.39660597 0.18328857 0.07181848
-0.3347322 0.33026364 -0.15068407 -0.20897934 0.07230791 0.10499354 0.18415391 0.08469363
-0.41901654 -0.3271619 -0.02035162 0.13143007 -0.27215865 -0.014261418 -0.5557171 0.65128917
0.1451443 0.1289431 0.4719157 -0.2786802 0.03885337 -0.48712412 0.58385134 0.44644374
0.38466457 0.29736084 -0.016538514 -0.1287303 0.075943165 0.49052587 -0.1419835 -0.13812353
0.38610882 -0.4116033 -0.15116261 -0.0049940776 0.35872886 -0.24127565 0.27731824 -0.69795096
-0.45341936 -0.2149814 0.11047796 -0.44884104 0.29194018 0.4452128 0.77489334 0.073242016
-0.2215438 -0.50635517 -0.25819716 0.3030331 -0.5008719 0.021743841 -0.30326968 -0.052660808
-0.2700658 0.082655504 0.1408282 0.10248495 0.022485223 -0.087119065 0.42216343 0.2384562
0.13366063 0.07392425 -0.16060828 -0.39997324 0.3609856 -0.06892777 0.2848711 -0.4706908
0.25618938 -0.097529426 -0.038040742 -0.4766223 0.14038299 -0.5393105 0.06471574 -0.17780186
-0.39249387 0.17895547 -0.3593471 -0.32385054 0.054917626 0.7484821 0.32341614 0.008357525
-0.53215253 -0.51080495 -0.27899945 0.36209723 -0.32170084 0.0794804 -0.5329048 0.16964144
-0.103878975 -0.12241933 -0.4614311 0.030555643 -0.47867146 0.20324923 -0.43627372 -0.3015131
-0.21382754 -0.10603775 0.012190222 -0.12295336 -0.11330635 -0.15929002 -0.16359825 0.5487048

sequential/dense_1/MatMul f4 [1, 64]
00000000: a884 493e 92d5 a0be 9f86 303e 608a 82bd
00000010: 9f2c 9ebe ffa1 e9bd cdaa 233e b872 98be
00000020: 8ff0 01be ae15 873e 676b 8a3e a857 2abe
00000030: a354 debd a481 19be c173 083e 4ec7 2c3e
00000040: fbb9 8f3e 6ecc d4bd 4fc6 193e 8dcb 66be
00000050: 4722 913d 271c 88be 336e 883e 7b69 b13e
00000060: e614 85be 4783 bc3e e2b3 0d3e 8b4e dc3d
00000070: c5de 4d3e bd15 25be ca94 56be 3a8d b23e
00000080: 5baa 29be 6e43 86be 30b3 993e da2e f7bc
00000090: a322 8abe 7725 d4bd 180d 00bf 8546 5a3e
000000a0: 1af2 47be 01ee 693e 7570 69be f076 7d3e
000000b0: 3486 5cbe cb79 3bbd 6476 2bbe 241f 9b3e
000000c0: 1347 d03d b24d 7e3e e30a 57be 5d00 723e
000000d0: cfed 50be b530 4fbe f53a 853e c7a5 35be
000000e0: 1155 46be e51a 66be ea11 653e c053 ea3d
000000f0: c251 6c3e e10f 7dbe e35a 49be b837 a43e
0.1967951 -0.3141294 0.17238854 -0.06374049 -0.30893418 -0.114078514 0.15983124 -0.29775023
-0.12689422 0.26383728 0.27035066 -0.16635 -0.10855987 -0.1499086 0.13325407 0.16872904
0.2807158 -0.10390554 0.15017055 -0.22538586 0.07086616 -0.2658398 0.26646575 0.34650788
-0.25992507 0.36818907 0.13838151 0.107571684 0.20104511 -0.16121574 -0.20955196 0.34873372
-0.16568892 -0.2622332 0.30019522 -0.030173708 -0.2697955 -0.10358708 -0.5001998 0.21315964
-0.19525948 0.22844698 -0.22796805 0.24752402 -0.2153557 -0.045770448 -0.16744381 0.30297196
0.10169806 0.24834326 -0.21000247 0.23632951 -0.20403217 -0.20233424 0.26021543 -0.1773902
-0.19368388 -0.22471197 0.22370115 0.11441755 0.23078063 -0.24713089 -0.19663577 0.3207376

sequential/bidirectional/backward_lstm/Read_2/ReadVariableOp1 f4 [80]
00000000: aca4 1dbe 1c5f 573e c6ea ca3d ee81 74bd
00000010: bf15 403e e5de b0bd 7143 47be b75c 5e3e
00000020: 0d99 853d 15ea 833e e096 8b3e 1e3a 3a3d
00000030: ffc1 843e ca09 063e ec70 653c 0656 dd3d
00000040: 2aca 32be 22ef 8c3c df0b 273e 808c 6d3e
00000050: 8a98 723f 6168 7c3f 11af 843f f37e 8a3f
00000060: cabc 603f b378 823f e9e3 4a3f 13a6 273f
00000070: ec41 8f3f 2bc7 563f 0795 483f fb03 503f
00000080: d513 7e3f d67b 853f d0ca 603f 17b4 813f
00000090: 8545 853f 270f a63f f3c2 763f 9b4e 383f
000000a0: 6a98 ba3c 58b3 eebe 0f70 453e 7509 e4be
000000b0: 45f6 e5be f3b3 e53e f4f6 4cbe 5f4e ddbc
000000c0: 2808 343e e19d a9bd 9ec3 fb3d d185 803e
000000d0: 8de9 ffbe a50b c3be 3800 83bc dd59 a43e
000000e0: 396b c7be 95fe 5c3e bc2c 5dbd 0ea1 063f
000000f0: 6bbe 44be b98d e8bc 89ad 7f3e 1ab5 27be
00000100: 5554 abbd 0e5e 193e 20d7 e1bd 7573 923d
00000110: ead6 003e 6386 10be b91c a3be 0789 603e
00000120: 133d aa3e 9b76 043e f9a6 49be 8873 be3e
00000130: 65f6 0e3e 5eca 973d 8a18 a1bd f5a8 39be
-0.15394849 0.21032375 0.09908061 -0.059694223 0.18758295 -0.08636264 -0.1945932 0.21715055
0.06523333 0.25764528 0.27263546 0.04546558 0.25929257 0.13089672 0.014003973 0.10807423
-0.17459932 0.017203871 0.16313122 0.23198128 0.94764006 0.9859677 1.0365926 1.0819992
0.8778807 1.0193084 0.79254013 0.65487784 1.1191993 0.83897656 0.783524 0.81256074
0.9924901 1.0428417 0.8780947 1.0133084 1.0411841 1.2973374 0.9639122 0.7199494
0.022777755 -0.46621203 0.19281028 -0.44538465 -0.4491445 0.44863853 -0.2001608 -0.02701491
0.17581236 -0.08282066 0.122931704 0.25102094 -0.49982873 -0.38094822 -0.015991315 0.3209981
-0.38948992 0.2158149 -0.05399774 0.525895 -0.19213264 -0.028387891 0.24968542 -0.16377679
-0.083656944 0.14977285 -0.1102736 0.07150928 0.12581983 -0.14113764 -0.3185785 0.21927272
0.3324972 0.1293587 -0.19692601 0.37197518 0.1396118 0.07411645 -0.078660086 -0.18130858

while/MatMul_11 f4 [80, 20]
00000000: 33bd 69be e798 2ebe ea3c a4bd 9cb9 5fbe
00000010: 8920 4abe c2aa 66be e660 d6be bd5c 183e
00000020: a2d3 343e d692 5a3c bee4 d73d a13c 05be
00000030: acf8 6d3f 6573 e13d 8598 50be c8d7 a2be
00000040: 5a7e 2bbe 3385 bf3e 02be 9f3e 16fa 0cbb
00000050: 16c3 5d3c ba03 b5bd ac06 b7be 6cee 323e
00000060: 3694 60be 273f a63d 9193 a43e 0478 1e3f
00000070: a750 253f 5da2 733e b99d 82be 0ba7 0b3f
00000080: 8843 b53d df30 f7be a1b8 8b3e f0a1 773d
00000090: 65ad 05bf ff13 2d3f 35da 813d 90f5 a7be
000000a0: 1202 dcbd 6895 b7be 4497 57bf dd80 48be
000000b0: 33ea c43d a8e7 6dbe e0b5 c13b 4feb 3c3e
000000c0: 9680 70be 9738 563e 438d 443f b33f 54bd
000000d0: 9edd 0dbd 0141 fc3e 25e0 18be 9573 93be
000000e0: 9564 633e 47e1 17bf ab96 31be 4371 a2be
000000f0: d8d3 13bd 9ead fa3e 9f3c 083f 2c80 783d
00000100: cb2c 35be 87cc b43d ecb7 03be 48e1 093e
00000110: 9622 053d 61de b5bc 3982 a0be de90 27be
00000120: e053 9e3c cb70 5c3e abcb edbe 79b5 0b3e
00000130: 3008 1abe aa7f d93e 7659 503e b7f6 b43d
00000140: fd25 82be 1229 e73e deb8 a1bd e585 17be
00000150: f8e9 133c f6a3 a53e 666b 06be 12bf 97be
00000160: 571c 1dbe 48fd dabd ba7f 8ebd 550d c1be
00000170: 7eea a3be 42fd 34be 23d1 8c3d 4b09 433e
00000180: 6184 b4bd 8ce9 d13c ce5c 063e c29c b0bd
00000190: 1e6c cc3e de48 2c3d db8f 143d 4ee8 8bbe
000001a0: 05a9 bb3d 15ce b3bd 64ae a43e 30f3 63bf
000001b0: 8311 0fbf 7afa 1abd af25 d03e f6ed 57be
000001c0: 8412 b1be e16a 023e f8f5 c73e d711 35be
000001d0: 7750 253e 659a 6fbe 7bcd 33be 276e ee3e
000001e0: b91e c2be 8acd 0d3e b7c5 1d3e ca2b 8a3e
000001f0: 837e e83e 9c72 88be df73 e23e 028f cd3e
00000200: 711a 123f 89be a03c ee84 28bf b174 353e
00000210: fd0b 343e a99b 263e 24c4 acbe 25b5 adbe
00000220: be32 1fbe 7212 003d 8225 ce3e da31 bebe
00000230: 6891 45bf bdcf 99be 086a 3e3e 0138 51be
00000240: 7d8b fbbe 9049 a43d 7dea 473d 1873 6cbe
00000250: 75ec 853e e26b c63e ed5b 9a3e ba25 063f
00000260: 0606 623e f1c2 c13c 9099 893e 62ad 1dbd
00000270: 69fd 56be c025 37bd d069 fb3d 15c5 10be
00000280: 650a a4be 3972 0b3d 17af 0b3e 7aef 3dbe
00000290: a452 97be 98fc 3c3e e9ff 1bbe e259 b1bd
000002a0: 7f8c 77bc 9f6d b73e 23fb 323e 4fc1 c53d
000002b0: d8d2 fdbe c9c7 47bf 2632 e03d 4810 e03e
000002c0: dad2 843d 98c8 15be a9a2 e6bd cc38 e73d
000002d0: cb57 2c3d 95dd 39be 957a 833e 2704 8bbd
000002e0: 19b7 19be e0bf e43e ff53 ef3d dd7b 99be
000002f0: 63c1 2b3e 2e6e 7c3e 3c9d 9cbe ebd0 433e
00000300: 21e0 c1bd 8b45 1cbe 4794 e6bb 78af d13d
00000310: 2c41 f6bd 0724 5bbe e6c8 6e3e 037e b93e
00000320: 2c2b 45bc 994e 533d fc6a de3d 6a47 323d
00000330: 6174 9e3d ef8e cfbe 3cf0 273e ab85 653e
00000340: 5aff 8dbe ed01 dbbe b073 3d3e 60be 35be
00000350: d7c7 41be 8a40 983e 61cb 7c3e c9cf d3bd
00000360: 20a2 9c3e 6bef 483e 8afc 2bbe a15a 153d
00000370: 7e3c 91bd 2a06 efbb 557f 90be 055b cfbe
00000380: dc01 f6be 9a06 123f b9d8 7d3e 0095 0cbf
00000390: 0328 86be d4c8 b93e da17 003f 99cd 31be
000003a0: 1d13 573e 55e7 9d3e 54a1 7fbe bc5e 373d
000003b0: 375a 50be df7c 593d 3a15 c6be 12d7 ec3b
000003c0: a458 71be 3f7b 163f 879c a9bd d896 ba3d
000003d0: fe19 993e acd1 90bd 64fd fcbe acee 923e
000003e0: 7069 0abd b3c6 09bf 275e 95bc 5698 073e
000003f0: 1445 57be 8097 96be d4ca 7b3e 94f4 97be
-0.2282608 -0.17050515 -0.08019431 -0.21848148 -0.19738974 -0.22526076 -0.41870803 0.14879127
0.17658857 0.0133406725 0.10541676 -0.1301141 0.9295757 0.11008338 -0.20370682 -0.31805253
-0.16747418 0.3740631 0.31199652 -0.0021511368 0.013535282 -0.088386014 -0.35747278 0.17473763
-0.21931538 0.08117514 0.32143834 0.6190188 0.6457619 0.23792405 -0.25510958 0.5455176
0.08850771 -0.48279473 0.27289298 0.06045717 -0.52217704 0.67608637 0.06340448 -0.32804537
-0.107425824 -0.35856175 -0.8421519 -0.19580407 0.096149825 -0.23232901 0.005911574 0.18449138
-0.23486552 0.20920025 0.7677805 -0.05181856 -0.03463518 0.49268344 -0.14929254 -0.2879912
0.22206338 -0.5932812 -0.17342632 -0.31727037 -0.0360907 0.48960584 0.532175 0.06066911
-0.17692868 0.08828073 -0.1286313 0.13464844 0.032503687 -0.022200765 -0.31349352 -0.16363856
0.019327104 0.21527402 -0.4644445 0.13643445 -0.15042186 0.42480212 0.20346627 0.088361196
-0.25419608 0.45148522 -0.07896589 -0.1479717 0.0090279505 0.32351655 -0.13126907 -0.29637963
-0.15342842 -0.10692841 -0.06957956 -0.37705484 -0.3201484 -0.17674735 0.06875827 0.19046514
-0.08814312 0.02562406 0.1312134 -0.08623649 0.39926237 0.04206168 0.036270004 -0.27325672
0.09163097 -0.087795414 0.321643 -0.8904295 -0.55886096 -0.03783653 0.4065375 -0.21086869
-0.3458444 0.12736084 0.39054847 -0.17682587 0.16143976 -0.2339874 -0.17558853 0.46568415
-0.37914065 0.13847938 0.15407453 0.26986533 0.4540902 -0.2664994 0.44229028 0.4014817
0.57071596 0.019622104 -0.65827835 0.17720295 0.17582698 0.16270317 -0.33743393 -0.33927265
-0.155467 0.03126759 0.4026299 -0.3714741 -0.77175 -0.30041304 0.18595135 -0.2043152
-0.4912986 0.080218434 0.04880761 -0.2309078 0.26156965 0.38754183 0.3014826 0.52401316
0.2207261 0.023652526 0.2687497 -0.03849543 -0.20995106 -0.044713736 0.122760415 -0.14137681
-0.3203918 0.034044478 0.1364101 -0.18548384 -0.29555237 0.18455732 -0.1523434 -0.08659722
-0.0151091805 0.35825822 0.17478614 0.09656011 -0.49574924 -0.7803922 0.10947065 0.43762422
0.06485529 -0.14627302 -0.11261494 0.1129013 0.042075913 -0.18150933 0.2567946 -0.06787901
-0.15011252 0.4467764 0.11685943 -0.29977313 0.1677299 0.24651405 -0.3058871 0.19122665
-0.09466577 -0.15260904 -0.007036719 0.10238546 -0.12024149 -0.21400462 0.23318824 0.36228952
-0.012034219 0.05158863 0.108602494 0.043525137 0.07737041 -0.40538737 0.16400236 0.22414272
-0.2773388 -0.42774907 0.18501163 -0.17748404 -0.18923889 0.2973674 0.24686958 -0.10342366
0.30592442 0.1962258 -0.16795555 0.036463384 -0.07091616 -0.007294436 -0.28222147 -0.4049913
-0.48048294 0.57041323 0.24789704 -0.54914856 -0.26202402 0.36286032 0.50036395 -0.17363586
0.21003385 0.30840555 -0.24963886 0.04476808 -0.20346914 0.053097602 -0.3868807 0.007227787
-0.2356897 0.5878181 -0.08281808 0.091108024 0.29902643 -0.07071242 -0.49412072 0.28697717
-0.03379196 -0.53818816 -0.018233372 0.13241705 -0.21022445 -0.2941246 0.24589092 -0.29678786
