models/model.tflite (tflite, 586292 bytes, 17 tensors)

sequential/conv2d/BiasAdd/ReadVariableOp f4 [32]
0.14418113 0.047707886 0.04176891 0.030546267 0.07121979 0.027595337 0.017699057 0.060347356
0.18715903 -0.004894979 0.031541 0.12411097 0.1655699 0.025027303 0.02265413 0.07293614
0.0922644 0.07588196 0.002860357 0.12862006 0.081253074 0.19055365 0.011975389 0.013196826
0.089678265 0.13252793 0.08584689 0.05423598 0.07111658 0.05767221 0.09807742 0.026424529
00000000: 38a4 133e 5869 433d e015 2b3d 2a3c fa3c
00000010: aedb 913d 9e0f e23c 9dfd 903c ca2e 773d
00000020: 9ea6 3f3e 0f66 a0bb 2331 013d e42d fe3d
00000030: 288b 293e 0f06 cd3c 2795 b93c 8b5f 953d
00000040: 1ef5 bc3d 0068 9b3d d474 3b3b fab4 033e
00000050: 0368 a63d 7f20 433e 6c34 443c 8037 583c
00000060: 3da9 b73d 67b5 073e 7fd0 af3d 8c26 5e3d
00000070: 92a5 913d b239 6c3d d0dc c83d 4178 d83c

sequential/conv2d_1/BiasAdd/ReadVariableOp f4 [64]
-0.009771622 0.105608456 0.05216299 -0.10870768 -0.0094783185 -0.058925357 -0.010825157 -0.047421355
-0.00083876663 0.010421594 -0.04774474 0.01905025 0.04918787 -0.030860733 -0.13023351 0.020125829
0.08409114 -0.009127537 -0.21132548 0.12573011 -0.0408935 -0.0060286513 0.1317149 -0.025766224
-0.13448644 -0.065703 0.042706173 0.16881903 -0.18571481 -0.0023604883 0.0781371 -0.055935357
0.036126193 0.09705978 -0.03379374 0.07863707 -0.075649664 -0.062275503 0.15184356 -0.061963744
-0.03494628 0.0381834 0.045872398 -0.037728086 0.14769188 -0.01621666 -0.17428255 0.1430989
-0.045965374 0.108897366 0.020311937 -0.021077773 -0.11969052 0.13482371 -0.103233 0.08333602
-0.2314747 0.07691064 0.12068378 -0.025976386 -0.027227947 -0.00045475105 0.004277494 -0.09914914
00000000: 2719 20bc 3f49 d83d dca8 553d 22a2 debd
00000010: f34a 1bbc b75b 71bd 005c 31bc e53c 42bd
00000020: ade0 5bba 55bf 2a3c fd8f 43bd 450f 9c3c
00000030: 3879 493d a6cf fcbc ef5b 05be ecde a43c
00000040: fa37 ac3d aa8b 15bc b565 58be 65bf 003e
00000050: f17f 27bd fe8b c5bb 45e0 063e b013 d3bc
00000060: d0b6 09be 4b8f 86bd abec 2e3d e5de 2c3e
00000070: 062c 3ebe 6cb2 1abb 5806 a03d 791c 65bd
00000080: 0ff9 133d 47c7 c63d 4e6b 0abd 790c a13d
00000090: 36ee 9abd 9914 7fbd e17c 1b3e b2cd 7dbd
000000a0: d523 0fbd 3266 1c3d b2e4 3b3d c488 1abd
000000b0: 8a3c 173e cdd8 84bc 2077 32be 8588 123e
000000c0: 3046 3cbd 9505 df3d 3865 a63c 4bab acbc
000000d0: 4e20 f5bd 3a0f 0a3e d36b d3bd 13ac aa3d
000000e0: b407 6dbe 5383 9d3d 0f29 f73d 6ecc d4bc
000000f0: 250d dfbc a76b eeb9 382a 8c3b b40e cbbd

sequential/conv2d_2/BiasAdd/ReadVariableOp f4 [128]
-0.022657484 -0.037355117 -0.04018552 -0.06761094 -0.16630276 -0.1709988 0.0033260232 -0.0061393846
-0.05077816 0.007990474 -0.012663498 0.095077895 0.025794245 -0.014637128 -0.016895141 0.07528215
-0.053267762 -0.23018698 -0.14691944 -0.011585635 0.06051888 -0.20151766 -0.09552812 -0.04386327
-0.07312899 -0.051631365 -0.11708808 0.077854834 0.03633321 0.040148694 -0.06397767 0.16038716
0.06324657 -0.15503904 -0.09858905 -0.016987145 -0.053170215 -0.021898232 -0.061774686 -0.053919908
0.039781738 -0.049157485 -0.04834471 -0.0049167415 -0.14768097 -0.057290595 -0.027238917 -0.036718316
0.009171095 -0.14174977 0.109393336 -0.11078859 0.005993394 0.03324383 -0.10344647 -0.039530102
-0.11053257 -0.019614771 -0.04163217 0.041304182 -0.060976714 0.0857844 -0.023907177 0.07881668
-0.14959362 -0.0850986 -0.055840034 0.011729629 -0.009872645 -0.004612142 -0.09045983 -0.072963774
-0.1176035 -0.037439097 0.0035498796 0.041008484 -0.081240565 -0.048486717 0.05426647 0.01911418
-0.15256493 -0.03930179 -0.13300158 -0.1072549 -0.08605074 0.019031947 -0.11253639 -0.07007275
0.113520496 0.082555026 0.040139098 -0.087809004 -0.043240707 -0.06486883 -0.03324337 -0.083493344
-0.08178722 -0.067893215 0.03044138 -0.11299245 -0.03511972 -0.06583032 -0.04504944 -0.06255299
-0.054948986 -0.012187402 -0.17487039 0.020173464 -0.042954113 0.037377544 -0.18342265 -0.029941846
-0.008575435 -0.19856751 -0.054413762 0.010867777 -0.0549165 -0.105785795 -0.07721702 -0.1373752
-0.034910273 0.015543782 -0.026045183 -0.07922324 0.11306907 -0.120072044 -0.08452139 -0.0679595
00000000: 309c b9bc ae01 19bd 9299 24bd 9b77 8abd
00000010: 454b 2abe 4f1a 2fbe 69f9 593b e42c c9bb
00000020: c3fc 4fbd 7aea 023c 8f7a 4fbc 33b8 c23d
00000030: 744e d33c 91d0 6fbc ae67 8abc 872d 9a3d
00000040: 4c2f 5abd 23b6 6bbe 0d72 16be add1 3dbc
00000050: a5e2 773d a55a 4ebe 3fa4 c3bd f9a9 33bd
00000060: a7c4 95bd 697b 53bd e0cb efbd 5b72 9f3d
00000070: 22d2 143d f572 243d ba06 83bd 883c 243e
00000080: 6b87 813d 8ec2 1ebe 0ee9 c9bd a028 8bbc
00000090: 03c9 59bd ec63 b3bc 7407 7dbd 1fdb 5cbd
000000a0: 2df2 223d 5c59 49bd 1a05 46bd 9e1c a1bb
000000b0: ae39 17be 8ba9 6abd 2624 dfbc f265 16bd
000000c0: 5c42 163c da26 11be 9d09 e03d 21e5 e2bd
000000d0: 3c64 c43b af2a 083d bedb d3bd 51ea 21bd
000000e0: e65e e2bd 28af a0bc 7f86 2abd 932e 293d
000000f0: b8c2 79bd bbaf af3d fcd8 c3bc a46a a13d
00000100: 122f 19be 2d48 aebd 85b8 64bd a12d 403c
00000110: e0c0 21bc 7421 97bb 0143 b9bd 086e 95bd
00000120: 1bda f0bd bd59 19bd 19a5 683b 83f8 273d
00000130: 7461 a6bd 029a 46bd 8546 5e3d 5795 9c3c
00000140: fb39 1cbe eafa 20bd 9131 08be 75a8 dbbd
00000150: 5f3b b0bd e3e8 9b3c 7b79 e6bd 4d82 8fbd
00000160: 6f7d e83d 9c12 a93d e568 243d 35d5 b3bd
00000170: 2b1d 31bd f3d9 84bd 332a 08bd 8ffe aabd
00000180: 0f80 a7bd 990b 8bbd 3360 f93c 9668 e7bd
00000190: b2d9 0fbd 0cd2 86bd c385 38bd c81b 80bd
000001a0: 3012 61bd abad 47bc 3911 33be d242 a53c
000001b0: a7f0 2fbd 3219 193d 26d3 3bbe 9a48 f5bc
000001c0: fb7f 0cbc 4855 4bbe f7e0 5ebd c30e 323c
000001d0: 20f0 60bd 39a6 d8bd f523 9ebd 16ac 0cbe
000001e0: 13fe 0ebd 59ab 7e3c b55c d5bc cb3f a2bd
000001f0: c290 e73d 55e8 f5bd 8d19 adbd 5a2e 8bbd

sequential/conv2d/Conv2D f4 [32, 5, 5, 1]
-0.066471316 -0.034113545 -0.032378357 0.17385045 -0.03180824 -0.016664416 -0.006629117 -0.08665322
-0.014836601 -0.0038014452 0.12682253 0.10713213 0.08181949 -0.07231424 -0.036887255 0.15006764
0.06178277 -0.06270906 -0.10228743 -0.09495946 0.074948005 -0.098528355 -0.18808872 -0.07618587
-0.08190506 -0.20525877 -0.111572616 -0.09306588 -0.024101654 -0.061539188 -0.19629218 -0.105181545
-0.21570507 -0.04745091 0.045808274 -0.13667884 -0.2757893 -0.30866504 -0.033090353 0.073586345
0.13229153 -0.08901133 -0.058418646 0.061188474 0.014976219 -0.0027045356 0.07434116 0.09037542
0.08909521 -0.006676798 0.13882089 0.03933415 0.0055526183 0.20330122 0.08614504 0.11635609
0.045411043 0.02371099 0.085181035 0.0066334507 0.032826636 -0.031129686 -0.06614767 0.021394594
0.04432235 -0.012448029 -0.13270584 -0.022543006 -0.14531708 -0.05191407 -0.16030559 -0.24865893
0.0002831054 -0.047225744 -0.021623323 0.06617462 0.018996393 0.13059418 0.07071905 0.045805074
-0.076923765 0.057355627 0.088658795 0.07969406 0.09007284 -0.09710863 0.118796125 0.001631924
0.015037406 0.12656243 -0.09973635 0.025442807 -0.15498127 -0.13647711 -0.08993136 0.12414609
-0.11779918 -0.16964348 -0.20489989 -0.24168718 -0.084369525 0.026253993 0.014241837 0.105120406
-0.17933752 0.015071114 -0.25923398 -0.14933254 -0.007200419 -0.050427996 0.12974404 0.18430458
0.12880628 -0.091004744 -0.10078627 -0.014774135 0.07302074 -0.1142285 -0.01571595 0.14815266
-0.14833769 -0.03731947 0.05905509 -0.024902914 -0.099144235 -0.24069983 0.0034780037 -0.02931918
0.011736656 -0.033160616 -0.1417549 -0.04148185 0.058649827 -0.07665036 -0.10595638 -0.1701356
-0.020733638 0.14363748 -0.007576499 -0.030867862 -0.16286194 0.12840812 0.04200252 -0.15386309
-0.13489357 -0.15876077 0.106763065 -0.081135616 -0.29436323 0.01083534 0.026657708 -0.067789756
-0.059007827 -0.03383455 0.09450154 0.060379907 0.11342684 0.030726489 0.030807463 0.016832478
0.1211497 0.09069185 0.11308573 0.014020397 -0.15490818 -0.27262262 -0.19594507 -0.018118225
-0.39517623 -0.30759627 -0.0422588 0.03415589 0.049352646 -0.25835058 -0.3003958 -0.112871386
-0.05038354 0.061139867 0.040865116 0.07332864 -0.035618097 -0.008650528 0.15933722 0.19834223
-0.083967134 0.010456644 0.018058592 0.15180424 0.2787174 0.023732036 0.09583581 0.009627295
0.10826874 0.20930502 0.05256817 -0.03503994 0.10794918 0.062900506 -0.0005458747 -0.0020838762
0.04405157 0.062637776 0.027899522 0.21655598 0.22734989 -0.109817244 -0.056179076 0.0021405478
-0.05243193 0.12777923 -0.10333897 -0.020066774 -0.05528928 -0.055693887 0.048933376 -0.068260066
-0.06924058 0.06617493 0.0021508639 0.22922684 -0.0956757 -0.078173436 0.024290277 0.15716979
0.08017855 0.01212143 0.0267278 -0.17781514 -0.032214276 -0.12959678 -0.086217254 -0.26438692
-0.12050019 0.19572458 -0.24456638 0.022616934 0.024477433 0.003507374 0.087012045 -0.17985089
0.054976065 0.006269784 0.079075836 -0.0015793651 -0.16917525 -0.0970447 0.038117178 0.11436042
-0.048877142 -0.1022218 -0.119026296 -0.15990597 -0.15069348 -0.077553645 -0.054676045 0.12626415
00000000: 1d22 88bd a5ba 0bbd 2b9f 04bd da05 323e
00000010: 5b49 02bd d083 88bc 1039 d9bb 3e77 b1bd
00000020: 3715 73bc ab21 79bb c4dd 013e 1768 db3d
00000030: fa90 a73d 7d19 94bd 1717 17bd 55ab 193e
00000040: ee0f 7d3d 9c6d 80bd 127c d1bd 1b7a c2bd
00000050: 577e 993d 3cc9 c9bd 549a 40be 5607 9cbd
00000060: d7bd a7bd 5b2f 52be 2f80 e4bd 5399 bebd
00000070: d570 c5bc 8410 7cbd d100 49be 6c69 d7bd
00000080: cae1 5cbe e35b 42bd 75a1 3b3d 8af5 0bbe
00000090: 4134 8dbe 5809 9ebe c089 07bd 70b4 963d
000000a0: 6e77 073e 924b b6bd 6448 6fbd c4a0 7a3d
000000b0: d15e 753c 943e 31bb 2e40 983d c016 b93d
000000c0: 8d77 b63d 0bc9 dabb 1027 0e3e d81c 213d
000000d0: bdf2 b53b 322e 503e d06c b03d 1a4c ee3d
000000e0: ee00 3a3d 8d3d c23c 6573 ae3d 6b5d d93b
000000f0: 3975 063d af03 ffbc 6e78 87bd b743 af3c
00000100: 5a8b 353d d1f2 4bbc 0ae4 07be 1cac b8bc
00000110: 00ce 14be d9a3 54bd 2627 24be 72a0 7ebe
00000120: c36d 9439 c86f 41bd 6523 b1bc 8f86 873d
00000130: 539e 9b3c 7bba 053e 26d5 903d 1a9e 3b3d
00000140: 358a 9dbd bced 6a3d be92 b53d a436 a33d
00000150: 1c78 b83d e4e0 c6bd 624b f33d 48e6 d53a
00000160: 745f 763c 9599 013e 9242 ccbd 6f6d d03c
00000170: 69b3 1ebe a8c0 0bbe ef2d b8bd 4e40 fe3d
00000180: b240 f1bd 05b7 2dbe 47d1 51be d87c 77be
00000190: eec9 acbd 9d12 d73c 9856 693c 5e49 d73d
000001a0: 41a4 37be d5ec 763c 51ba 84be a1ea 18be
000001b0: 7ef1 ebbb 968d 4ebd 9fdb 043e 57ba 3c3e
000001c0: cbe5 033e b260 babd 0869 cebd 370f 72bc
000001d0: e68b 953d a2f0 e9bd bcbe 80bc 55b5 173e
000001e0: d6e5 17be 4ddc 18bd c0e3 713d 3201 ccbc
000001f0: 220c cbbd 047a 76be 38ef 633b c72e f0bc
00000200: 1a4b 403c 6dd3 07bd 3228 11be dfe8 29bd
00000210: cd3a 703d ddfa 9cbd a9ff d8bd 0738 2ebe
00000220: 97d9 a9bc b415 133e 4844 f8bb 99de fcbc
00000230: 48c5 26be 6b7d 033e d60a 2c3d 498e 1dbe
00000240: 8a21 0abe 2f92 22be 98a6 da3d 6e2a a6bd
00000250: c7b6 96be b686 313c 4461 da3c 5bd5 8abd
00000260: 31b2 71bd 1996 0abd 068a c13d ec50 773d
00000270: 554c e83d 1eb6 fb3c ef5f fc3c 44e4 893c
00000280: 551d f83d a6bc b93d 7e99 e73d cfb5 653c
00000290: 40a0 1ebe 3195 8bbe d3a5 48be ac6c 94bc
000002a0: 8a54 cabe 427d 9dbe 9017 2dbd 0ce7 0b3d
000002b0: 0026 4a3d 8746 84be 7acd 99be 1d29 e7bd
000002c0: f95e 4ebd cc6d 7a3d 2e62 273d 532d 963d
000002d0: 48e4 11bd f2ba 0dbc 4c29 233e 3a1a 4b3e
000002e0: f6f6 abbd 5852 2b3c 9def 933c 9272 1b3e
000002f0: 0cb4 8e3e b069 c23c 9145 c43d cdbb 1d3c
00000300: 00bc dd3d 0e54 563e b951 573d 0a86 0fbd
00000310: 7614 dd3d fbd1 803d 0819 0fba a491 08bb
00000320: 6b6f 343d 3c48 803d 8a8d e43c dac0 5d3e
00000330: 69ce 683e dde7 e0bd 081c 66bd 6f48 0c3b
00000340: ddc2 56bd 8fd8 023e 62a3 d3bd 1363 a4bc
00000350: 0377 62bd 461f 64bd 5d6e 483d efcb 8bbd
00000360: 01ce 8dbd b986 873d 82f5 0c3b 71ba 6a3e
00000370: 9ff1 c3bd 6519 a0bd 67fc c63c 1ef1 203e
00000380: a734 a43d f698 463c 42f4 da3c 2c15 36be
00000390: 1ef3 03bd 05b5 04be ac92 b0bd b95d 87be
000003a0: cec8 f6bd 066c 483e 9c6f 7abe 2647 b93c
000003b0: e684 c83c f9db 653b 5f33 b23d d52a 38be
000003c0: 952e 613d c372 cd3b 83f2 a13d b302 cfba
000003d0: 473c 2dbe 5fbf c6bd c220 1c3d cc35 ea3d
000003e0: 6633 48bd aa59 d1bd 0fc4 f3bd 64be 23be
000003f0: 644f 1abe 72d4 9ebd fdf3 5fbd 644b 013e

sequential/conv2d_1/Conv2D f4 [64, 5, 5, 32]
-0.03355977 0.036973227 -0.28426805 -0.2699727 -0.14080368 -0.033406876 -0.14088975 -0.14872824
-0.1599708 -0.1187001 -0.13516586 -0.10778293 0.014017915 -0.15759788 -0.24892184 -0.091129996
0.12756188 0.03620486 -0.0858723 0.04719404 0.019391526 0.025790831 0.06269264 0.052644394
0.08872739 -0.031683777 -0.0056196973 -0.2796748 -0.043822844 0.0936603 -0.18774796 -0.013288547
-0.10324437 -0.044615746 -0.04799229 -0.085118376 -0.13615929 0.046564452 -0.002337705 0.022539176
0.08379608 -0.034151852 -0.10468581 -0.028802833 0.123109855 -0.0031539362 0.05174596 -0.10272911
0.025108047 -0.08798816 0.08053876 -0.010488243 -0.0064874017 -0.03588444 -0.094224505 -0.094669014
-0.09988364 0.10006594 0.056878127 -0.054368377 0.078395136 0.13423546 0.006527515 0.1091737
-0.02699147 -0.08064271 0.04705343 -0.06544183 0.006210871 0.042084605 0.025068097 -0.06172988
0.080258705 0.084379725 -0.032735378 -0.05051748 -0.0009821017 0.0074979253 -0.04110619 0.046351627
-0.015259536 0.019718308 0.105978996 0.07381334 0.098516874 0.11984528 0.037933882 -0.017880857
0.08240237 -0.024848755 0.015261263 0.02047708 -0.00873123 0.046233274 -0.010684162 0.06163188
-0.04321756 0.010210366 -0.11420572 0.019071512 -0.045209836 -0.06808666 -0.0067216 -0.037665132
-0.062042568 -0.010012045 -0.021650253 -0.031983133 -0.11532414 -0.008268735 0.044294044 0.0643522
0.0495723 -0.017110957 0.014938559 -0.03791846 -0.11749039 0.045812745 0.05652936 0.008998453
-0.010388719 -0.13170305 -0.0145503245 0.011537826 0.0143851405 0.00981504 -0.1390498 0.00534706
-0.09834562 -0.038846057 -0.024764927 -0.09633355 -0.13315739 0.056585386 0.047637664 -0.080164455
0.00051720225 -0.08109034 0.008654374 -0.06657177 0.043958984 -0.004279258 0.020246 0.10528057
-0.16240892 -0.018570557 -0.089104116 0.1445842 -0.0059088804 0.026548402 0.10165207 -0.07330062
0.12317297 -0.001746513 -0.016292775 0.052071612 0.0043328865 -0.09378498 -0.03286416 -0.011719469
0.066090144 -0.030071827 -0.25741914 -0.15944722 -0.032454718 0.086569354 -0.15945317 -0.06319023
-0.20154919 -0.09944466 0.04188805 0.024933362 -0.06580221 -0.21917666 -0.24852346 -0.086491704
0.02854109 0.053771704 -0.06774221 0.03321661 -0.019268716 0.117047645 0.0859908 0.11112105
0.010223307 0.06860956 -0.15485427 -0.09594821 0.007910131 -0.06853487 -0.16341025 -0.10137548
-0.10843768 -0.01589713 -0.118655995 -0.12907387 0.067392685 0.025504801 -0.025355931 -0.043318402
0.021023069 0.009932325 -0.030231645 -0.08181725 0.042579073 0.031495467 -0.022077577 0.08684016
-0.08979905 -0.16349229 -0.1169299 -0.0045022164 0.024127044 -0.042695504 -0.093223415 -0.08871108
0.17368251 -0.0075761178 -0.13969354 -0.081800066 0.08944085 -0.054613795 0.007915581 0.10540191
-0.019242264 -0.015094669 -0.1119479 -0.10377917 0.07730739 -0.068959884 0.010985977 -0.007843619
-0.058974598 -0.0150459595 0.0027872673 0.009099735 -0.02533769 -0.08234985 -0.03547962 -0.07895538
-0.045373533 0.064720385 0.045454636 -0.030791664 -0.012199567 0.094980784 0.0807848 -0.083792135
0.028713305 -0.0068371925 -0.039378367 -0.010856894 0.10200516 -0.00673898 0.005230095 -0.08461203
00000000: f875 09bd 3d71 173d 958b 91be dd39 8abe
00000010: d72e 10be a6d5 08bd 6745 10be 374c 18be
00000020: 63cf 23be 0a19 f3bd eb68 0abe 4cbd dcbd
00000030: 66ab 653c 5761 21be 5ee5 7ebe 5da2 babd
00000040: 959f 023e 8c4b 143d d1dd afbd 8a4e 413d
00000050: fada 9e3c 4b47 d33c 0065 803d a6a1 573d
00000060: b5b6 b53d d9c6 01bd 7025 b8bb 8931 8fbe
00000070: 957f 33bd f9d0 bf3d 0041 40be 35b8 59bc
00000080: c971 d3bd 00bf 36bd 9093 44bd 8b52 aebd
00000090: 576d 0bbe 5eba 3e3d 2f34 19bb 14a4 b83c
000000a0: 479d ab3d d0e2 0bbd 8465 d6bd ebf3 ebbc
000000b0: 0521 fc3d 45b2 4ebb 92f3 533d a463 d2bd
000000c0: 64af cd3c 2333 b4bd 81f1 a43d e1d6 2bbc
000000d0: 4594 d4bb 90fb 12bd c7f8 c0bd d4e1 c1bd
000000e0: cb8f ccbd 5fef cc3d 0af9 683d 60b1 5ebd
000000f0: a18d a03d 0575 093e c4e4 d53b 7696 df3d
00000100: 371d ddbc 0128 a5bd 19bb 403d 5e06 86bd
00000110: 9084 cb3b e860 2c3d 9c5b cd3c 78d8 7cbd
00000120: ad5e a43d 47cf ac3d 8815 06bd 6beb 4ebd
00000130: ddb9 80ba 28b1 f53b f75e 28bd 34db 3d3d
00000140: 2203 7abc 4a88 a13c 840b d93d 732b 973d
00000150: 37c3 c93d 7171 f53d 8f60 1b3d e07a 92bc
00000160: 93c2 a83d 9e8f cbbc 600a 7a3c 8dbf a73c
00000170: 6f0d 0fbc 1a5f 3d3d a00c 2fbc b671 7c3d
00000180: e504 31bd 6149 273c b0e4 e9bd dc3b 9c3c
00000190: f32d 39bd 0571 8bbd de40 dcbb c146 1abd
000001a0: 5920 7ebd 8f09 24bc df5b b1bc bf00 03bd
000001b0: 102f ecbd 9779 07bc ac6d 353d 16cb 833d
000001c0: 530c 4b3d 472c 8cbc dcc0 743c 6350 1bbd
000001d0: cd9e f0bd 25a6 3b3d 558b 673d 3f6e 133c
000001e0: 7235 2abc 2add 06be 7c64 6ebc 2609 3d3c
000001f0: a7af 6b3c 43cf 203c 1263 0ebe 6436 af3b
00000200: 6e69 c9bd 0b1d 1fbd d1df cabc 864a c5bd
00000210: 695a 08be 14c6 673d b61f 433d 432d a4bd
00000220: db94 073a b112 a6bd 13cb 0d3c c856 88bd
00000230: 560e 343d 0539 8cbb f0da a53c 579d d73d
00000240: 864e 26be 4821 98bc 387c b6bd e10d 143e
00000250: 489f c1bb 097c d93c f62e d03d a31e 96bd
00000260: 1c42 fc3d 40eb e4ba 6d78 85bc 0b49 553d
00000270: e3fa 8d3b 5712 c0bd 929c 06bd 0403 40bc
00000280: 455a 873d 3159 f6bc 71cc 83be 2246 23be
00000290: 3def 04bd 464b b13d b147 23be e169 81bd
000002a0: e962 4ebe a4a9 cbbd ce92 2b3d 0d41 cc3c
000002b0: 4fc3 86bd d96f 60be ef7c 7ebe 9022 b1bd
000002c0: 01cf e93c b83f 5c3d 6ebc 8abd 240e 083d
000002d0: 6dd9 9dbc adb6 ef3d f21b b03d 6f93 e33d
000002e0: a87f 273c 2b83 8c3d 1e92 1ebe 7f80 c4bd
000002f0: 7e99 013c 035c 8cbd 0455 27be f39d cfbd
00000300: 9314 debd b33a 82bc ea01 f3bd f12b 04be
00000310: 2d05 8a3d 72ef d03c 3eb7 cfbc a36e 31bd
00000320: 9238 ac3c 31bb 223c 5ba8 f7bc cd8f a7bd
00000330: 6567 2e3d 6401 013d 09dc b4bc 41d9 b13d
00000340: 90e8 b7bd 866a 27be f278 efbd 5487 93bb
00000350: 14a6 c53c 7be1 2ebd ebeb bebd 28ae b5bd
00000360: d4d9 313e 1541 f8bb d30b 0fbe cb86 a7bd
00000370: c42c b73d b7b2 5fbd 5ab0 013c f5dc d73d
00000380: f4a1 9dbc a14f 77bc f144 e5bd 2c8a d4bd
00000390: 5653 9e3d d73a 8dbd 87fe 333c 8682 00bc
000003a0: 598f 71bd 5483 76bc 96aa 363b 0e17 153c
000003b0: fd90 cfbc 0aa7 a8bd 1453 11bd 5cb3 a1bd
000003c0: 99d9 39bd 1f8c 843d a42e 3a3d cd3e fcbc
000003d0: b1e0 47bc 4985 c23d 8072 a53d 369b abbd
000003e0: 2a38 eb3c 870a e0bb 364b 21bd 1de1 31bc
000003f0: 15e8 d03d a9d2 dcbb 3761 ab3b 1249 adbd

sequential/conv2d_2/Conv2D f4 [128, 3, 3, 64]
0.08580997 -0.06765588 -0.13699329 -0.1875102 0.06579554 -0.10755111 -0.045852024 -0.018244317
-0.22659151 -0.14025876 -0.071173064 -0.059375044 -0.059864055 -0.037718568 -0.011401999 0.15452388
-0.015605664 0.09256961 0.03305819 0.0859014 -0.003746932 -0.07283311 -0.056492765 0.030445479
0.076676615 -0.17159198 -0.034638364 -0.045370072 -0.03550295 -0.017070156 -0.19368373 0.014401433
0.020122875 -0.16012412 -0.025573628 0.026027765 0.019302731 -0.17408651 -0.2110735 0.02311315
-0.077640265 0.019111173 -0.15601934 -0.14262278 0.040710304 -0.12411448 -0.03285694 -0.10535421
-0.11818411 0.14591457 -0.0023489557 0.12967277 -0.10498825 0.14542347 0.06611222 -0.09571355
-0.17963786 -0.027577141 -0.0062805717 -0.003769871 0.10759108 0.046105646 -0.119071156 0.071104035
0.0023136742 -0.17718674 0.04179591 0.041845493 -0.09279279 -0.035032272 0.04610162 -0.10806062
-0.042275205 -0.0756152 -0.19788541 0.004777679 -0.06418858 -0.020549318 0.115669526 -0.042212885
-0.104953945 -0.10771637 0.036603387 0.032385807 -0.04306841 -0.2960512 -0.005556783 -0.023947798
0.039836124 -0.030213289 0.07894082 0.07257693 -0.04238233 -0.095727526 0.19087173 -0.15040377
-0.18813469 -0.07725956 -0.017475959 -0.09335187 -0.055786636 0.07202082 -0.12055605 -0.092697226
-0.10496054 -0.06873126 -0.07065251 -0.011420962 -0.04594793 -0.056571513 -0.03710579 -0.11449995
0.034985203 -0.09597129 -0.16090003 0.09804619 0.03801839 0.036142483 -0.11332212 -0.10680389
0.014250929 -0.068429396 -0.08895971 -0.05136184 -0.30766493 -0.22160637 -0.20019329 -0.092409484
-0.09974917 -0.06993505 -0.035105128 0.08470574 -0.0018212232 -0.0043745744 -0.114315405 0.036917824
-0.1773481 -0.013281769 0.09929491 0.013138923 -0.10434743 -0.13271116 -0.07681857 0.027400881
0.03456467 -0.12635222 0.041433442 0.029357031 -0.016591627 0.08218601 0.16049632 0.042757407
-0.08582686 0.009834675 0.13065928 0.007929287 -0.09320056 -0.095430866 0.013423244 0.03159004
-0.07456187 0.08255463 0.0962379 0.10705316 0.10643711 -0.01851123 -0.0059649474 -0.008848413
-0.03492712 -0.0031829446 0.032910172 -0.0077274004 -0.06352957 -0.00487422 0.16201231 0.0036815093
0.073261544 -0.07867057 -0.061230432 -0.06418475 0.085781164 0.06844446 -0.026266469 -0.11062569
0.0012367449 0.011787613 -0.054487396 -0.01026275 -0.030945802 -0.008438739 -0.07957617 -0.03897906
-0.04615886 -0.24225082 0.11886837 -0.22274029 0.006011796 -0.19318059 -0.10847167 0.05918757
0.08081814 -0.18648382 -0.036726866 0.014179853 0.11659716 0.024228388 -0.037155524 -0.22274163
-0.121675976 -0.026940618 0.03943686 0.0018637559 -0.025922127 -0.06627936 -0.08820692 -0.09909631
0.24593556 -0.057346597 -0.29300106 0.00891807 0.10822635 -0.11608604 -0.2223569 -0.010848537
0.0044889874 -0.15027758 -0.20210066 -0.057164337 0.041377284 -0.016755702 -0.00562356 0.004538665
-0.010636644 0.0024929454 0.1182354 -0.07787377 -0.15145412 -0.015371939 -0.0496002 -0.16220203
-0.05658864 0.0122452 -0.077969655 -0.11381972 -0.18786685 0.07144736 0.113370806 -0.124121495
-0.057693843 -0.0161062 -0.18981841 -0.043433234 -0.050024122 0.04325267 -0.030260101 0.04277584
00000000: 23bd af3d 2a8f 8abd f847 0cbe ad02 40be
00000010: d0bf 863d c243 dcbd 55cf 3bbd 1b75 95bc
00000020: 9b07 68be fe9f 0fbe 2fc3 91bd 3f33 73bd
00000030: 0334 75bd c97e 1abd 73cf 3abc 823b 1e3e
00000040: e6ae 7fbc 2395 bd3d 0668 073d 13ed af3d
00000050: 168f 75bb 8729 95bd f564 67bd cc68 f93c
00000060: a108 9d3d cfb5 2fbe f5e0 0dbd f8d5 39bd
00000070: 8b6b 11bd b6d6 8bbc 0755 46be fdf3 6b3c
00000080: bad8 a43c 94f7 23be c97f d1bc 2e38 d53c
00000090: c320 9e3c bc43 32be a723 58be ca57 bd3c
000000a0: dc01 9fbd 098f 9c3c 89c3 1fbe b50b 12be
000000b0: d9bf 263d bc2f febd 0095 06bd f3c3 d7bd
000000c0: 830a f2bd a16a 153e f0f0 19bb f0c8 043e
000000d0: 1404 d7bd e4e9 143e d865 873d 7705 c4bd
000000e0: fdf2 37be 75e9 e1bc 41cd cdbb f10f 77bb
000000f0: b658 dc3d 46d9 3c3d 94db f3bd fe9e 913d
00000100: 03a1 173b 7170 35be 3032 2b3d 2e66 2b3d
00000110: 250a bebd 007e 0fbd 0dd5 3c3d e34e ddbd
00000120: c428 2dbd 24dc 9abd 79a2 4abe 148e 9c3b
00000130: 4d75 83bd 0b57 a8bc 25e4 ec3d 6be7 2cbd
00000140: 18f2 d6bd 669a dcbd 6fed 153d fba6 043d
00000150: 8068 30bd 0694 97be ad15 b6bb 2c2e c4bc
00000160: 342b 233d dc81 f7bc baab a13d 37a3 943d
00000170: 1899 2dbd cb0c c4bd e173 433e 7203 1abe
00000180: 61a6 40be 433a 9ebd be29 8fbc 442f bfbd
00000190: 8780 64bd a77f 933d 17e6 f6bd 0bd8 bdbd
000001a0: 8df5 d6bd fac2 8cbd 43b2 90bd fd1e 3bbc
000001b0: e633 3cbd 88b7 67bd 3efc 17bd f37e eabd
000001c0: a54c 0f3d 988c c4bd fac2 24be 71cc c83d
000001d0: 2cb9 1b3d 240a 143d 6d15 e8bd ffbb dabd
000001e0: ba7c 693c b624 8cbd 8230 b6bd cb60 52bd
000001f0: 4286 9dbe c8ec 62be 78ff 4cbe 2f41 bdbd
00000200: 4b49 ccbd 1c3a 8fbd 65ca 0fbd 347a ad3d
00000210: 1cb6 eeba 9758 8fbb 321e eabd 2537 173d
00000220: be9a 35be c79b 59bc 215b cb3d a344 573c
00000230: 1bb4 d5bd 6fe5 07be 0e53 9dbd d077 e03c
00000240: af93 0d3d 7a62 01be 1db6 293d 287e f03c
00000250: 2aeb 87bc 2451 a83d 2659 243e 6422 2f3d
00000260: fec5 afbd 9e21 213c 8ccb 053e d7e9 013c
00000270: efdf bebd 4271 c3bd 2aed 5b3c 8f64 013d
00000280: e5b3 98bd 6712 a93d 6018 c53d b03e db3d
00000290: b3fb d93d dda4 97bc 9b75 c3bb eff8 10bc
000002a0: bd0f 0fbd f398 50bb d1cc 063d 2236 fdbb
000002b0: cb1b 82bd ecb7 9fbb 8ee6 253e 7a45 713b
000002c0: 260a 963d 091e a1bd c3cc 7abd 4b73 83bd
000002d0: 09ae af3d 9c2c 8c3d c72c d7bc b98f e2bd
000002e0: 461a a23a d520 413c 2d2e 5fbd 1825 28bc
000002f0: 0d82 fdbc a342 0abc d5f8 a2bd 82a8 1fbd
00000300: 1311 3dbd 9910 78be 4371 f33d 0816 64be
00000310: 9afe c43b 22d1 45be 6526 debd aa6e 723d
00000320: fb83 a53d 9df5 3ebe e96e 16bd 9d52 683c
00000330: 7eca ee3d 9d7a c63c 6430 18bd 6216 64be
00000340: 4131 f9bd 92b2 dcbc 8b88 213d 4549 f43a
00000350: a45a d4bc 79bd 87bd d4a5 b4bd 02f3 cabd
00000360: 88d6 7b3e 44e4 6abd 3c04 96be 191d 123c
00000370: c7a5 dd3d 85be edbd 87b1 63be 10be 31bc
00000380: 5b18 933b 5ee2 19be 7af3 4ebe 2725 6abd
00000390: 3a7b 293d 4143 89bc d745 b8bb 15b9 943b
000003a0: 5245 2ebc af60 233b 6725 f23d 487c 9fbd
000003b0: ca16 1bbe 96da 7bbc 9429 4bbd 4a18 26be
000003c0: 7dc9 67bd 17a0 483c 8eae 9fbd 501a e9bd
000003d0: 2b60 40be fe52 923d f42e e83d 6933 febd
000003e0: 6150 6cbd 26f1 83bc c25f 42be 0ce7 31bd
000003f0: 18e6 4cbd b629 313d 08e4 f7bc b835 2f3d

sequential/lstm/Read_2/ReadVariableOp f4 [32]
0.020697141 0.03580793 0.07656809 0.065064766 0.16833551 0.10836443 0.034972675 0.05302524
1.0535048 1.1519226 1.1282157 1.0728459 1.0425403 1.0772407 1.0668393 1.0610732
-0.0657602 -0.14803375 0.096378624 0.072244585 -0.074111454 0.14599025 0.041005924 0.09717615
0.011731376 0.23096472 0.1391225 0.20099452 0.30857867 0.11206504 0.14656287 0.24239582
00000000: 0d8d a93c 56ab 123d bbcf 9c3d ad40 853d
00000010: 2560 2c3e 2cee dd3d 823f 0f3d fe30 593d
00000020: 3fd9 863f 3372 933f 5f69 903f 0453 893f
00000030: f671 853f 06e3 893f 318e 883f 3fd1 873f
00000040: 49ad 86bd 2996 17be 2862 c53d f8f4 933d
00000050: bfc7 97bd 787e 153e d4f5 273d 4a04 c73d
00000060: f534 403c 0482 6c3e 2176 0e3e 82d1 4d3e
00000070: 06fe 9d3e 5b82 e53d 9414 163e 9c36 783e

sequential/batch_normalization/FusedBatchNormV3 f4 [32]
1.9797442 7.436639 1.6273179 2.6032546 5.5724163 3.8849986 6.596803 0.39816144
0.9954204 5.161688 0.8399405 3.1397355 5.2469625 2.1658034 0.67560107 7.3953323
6.561575 2.7710505 5.324855 4.9392195 8.878668 5.1912036 13.750987 2.2036977
10.474783 3.2170463 5.288421 3.1207929 22.078156 7.8915944 5.774558 4.6318398
00000000: 4268 fd3f f2f8 ed40 f44b d03f b99b 2640
00000010: 3c51 b240 d1a3 7840 0319 d340 d1db cb3e
00000020: dfd3 7e3f 8c2c a540 5706 573f 6df1 4840
00000030: 1ee7 a740 869c 0a40 31f4 2c3f 90a6 ec40
00000040: 6cf8 d140 e458 3140 3665 aa40 160e 9e40
00000050: 060f 0e41 571e a640 0b04 5c41 6209 0d40
00000060: b698 2741 16e4 4d40 bf3a a940 12bb 4740
00000070: 10a0 b041 f187 fc40 2ec9 b840 0838 9440

sequential/batch_normalization/FusedBatchNormV31 f4 [32]
-0.2612065 -0.14062925 -0.11864216 -0.17094418 -0.32523894 -0.12637804 -0.1626527 -0.07900652
-0.13651305 -0.05286455 -0.13975766 -0.34687537 -0.6611794 -0.0422049 -0.037709445 -0.39535958
-0.33852425 -0.22236735 -0.081086144 -0.55115986 -0.35362077 -0.82865524 -0.048085794 -0.12722099
-0.49009174 -0.3723001 -0.3725058 -0.12569505 -0.38943696 -0.3348988 -0.31798017 0.04842642
00000000: dcbc 85be 1d01 10be a9fa f2bd fe0b 2fbe
00000010: b885 a6be 3f69 01be 6e8e 26be 2cce a1bd
00000020: 14ca 0bbe 8088 58bd a21c 0fbe a699 b1be
00000030: 0e43 29bf 0cdf 2cbd 3875 1abd 926c cabe
00000040: 0d53 adbe 44b4 63be 7e10 a6bd d018 0dbf
00000050: c80d b5be c022 54bf 9cf5 44bd 3846 02be
00000060: 4eed fabe 1e9e bebe 15b9 bebe 34b6 00be
00000070: 4864 c7be db77 abbe 4cce a2be c85a 463d

sequential/batch_normalization_1/FusedBatchNormV3 f4 [64]
0.2874103 0.15363471 0.27971983 0.9597965 0.37595436 0.04695806 0.8393762 0.103338584
0.49330702 0.54739344 0.15531023 0.76074475 0.8315014 0.2359541 1.367688 0.85805833
0.6656187 1.1192634 0.8758212 0.7892267 1.4597656 0.6542098 0.8216381 2.0879307
1.449829 0.3766373 0.4437315 0.104609646 0.3061024 0.23709883 0.44534877 0.40145704
0.18963443 0.15458043 0.41449514 0.66513586 1.0881364 0.7739906 0.1428216 0.9474496
0.18509795 0.57995844 0.81023735 0.9492128 0.3613275 0.62290716 0.44311556 0.1474524
0.7425417 0.63382816 0.51157844 1.0759503 0.61711276 0.71892047 0.2745025 0.616334
0.14561959 0.4192125 0.78083473 0.065691315 0.29441324 0.53647584 0.30861303 1.2690986
00000000: 7127 933e 6b52 1d3e 7037 8f3e 39b5 753f
00000010: 177d c03e 1857 403d 5ce1 563f 2ea3 d33d
00000020: bd92 fc3e fa21 0c3f a509 1f3e 2bc0 423f
00000030: 47dd 543f f49d 713e 6610 af3f b6a9 5b3f
00000040: fd65 2a3f 0644 8f3f d135 603f c30a 4a3f
00000050: 99d9 ba3f 4b7a 273f e056 523f a8a0 0540
00000060: ff93 b93f 9bd6 c03e c630 e33e 953d d63d
00000070: 74b9 9c3e 09ca 723e c104 e43e c78b cd3e
00000080: 872f 423e 554a 1e3e b538 d43e 5846 2a3f
00000090: 0e48 8b3f 3f24 463f d33f 123e 0f8c 723f
000000a0: 518a 3d3e 2878 143f b76b 4f3f 9cff 723f
000000b0: ebff b83e d876 1f3f 0be0 e23e c3fd 163e
000000c0: 3617 3e3f 9042 223f cef6 023f bdb8 893f
000000d0: 1afb 1d3f 2c0b 383f 978b 8c3e 11c8 1d3f
000000e0: 4d1d 153e 05a3 d63e c9e4 473f 2b89 863d
000000f0: 55bd 963e 7b56 093f 8702 9e3e d371 a23f

sequential/batch_normalization_1/FusedBatchNormV31 f4 [64]
-0.17955399 -0.043989822 -0.0830372 -0.22044672 -0.062311023 -0.025474712 -0.088266015 -0.09910251
-0.07958658 -0.27851123 -0.08763689 -0.31755078 -0.2609119 -0.012964383 0.024763674 -0.2798146
-0.31735706 -0.30135757 -0.17132767 -0.21944137 -0.17797537 -0.39955494 -0.6799505 -0.3449259
-0.16607136 -0.10446446 -0.25867087 -0.074193835 -0.018207684 -0.15089996 -0.257172 -0.0726686
-0.043156266 -0.14585973 -0.03702572 -0.25695547 -0.28837752 -0.19566952 -0.14239863 -0.23068577
-0.0033548176 -0.1815077 -0.42171785 -0.40878138 -0.3433003 -0.05112417 -0.040500656 -0.154886
-0.060805038 -0.38070866 -0.18675685 -0.2684897 -0.045048505 -0.23140329 -0.10044345 -0.35368967
-0.003940165 -0.1992833 -0.59907925 -0.09720453 -0.18501738 -0.24938354 -0.21955092 -0.18560418
00000000: 00dd 37be ac2e 34bd 680f aabd c9bc 61be
00000010: d839 7fbd 58b0 d0bc d0c4 b4bd 42f6 cabd
00000020: 4afe a2bd 0699 8ebe f87a b3bd 0496 a2be
00000030: 3f96 85be 9068 54bc 30dd ca3c dc43 8fbe
00000040: a07c a2be 8a4b 9abe 8570 2fbe 3db5 60be
00000050: 2d3f 36be 7792 ccbe 3c11 2ebf 219a b0be
00000060: 9c0e 2abe 76f1 d5bd 8270 84be f0f2 97bd
00000070: 4828 95bc 8585 1abe 0cac 83be 46d3 94bd
00000080: a0c4 30bd 415c 15be 48a8 17bd ab8f 83be
00000090: 38a6 93be 975d 48be f2d0 11be e438 6cbe
000000a0: 80dc 5bbb 28dd 39be 67eb d7be cb4b d1be
000000b0: 0fc5 afbe 9467 51bd 04e4 25bd 709a 1ebe
000000c0: b40e 79bd 3fec c2be 303d 3fbe 7b77 89be
000000d0: c884 38bd fcf4 6cbe 4cb5 cdbd d016 b5be
000000e0: 801c 81bb ec10 4cbe 425d 19bf 2b13 c7bd
000000f0: 3275 3dbe 665e 7fbe f5d1 60be 060f 3ebe

sequential/batch_normalization_2/FusedBatchNormV3 f4 [128]
1.8074903 1.0052799 1.506333 1.4622378 0.7156185 1.045382 0.07039532 0.2971434
0.46602747 0.22946577 0.10980802 0.17204729 0.40727186 0.50850004 1.3285472 1.3282812
0.2884283 1.2725693 0.50545883 0.1911363 0.19265187 2.1427186 0.6692806 0.52300745
0.14541984 0.7927363 1.2106096 0.10841129 0.54398996 0.09715716 0.51964426 1.3168218
0.1288975 0.6480189 0.24569982 0.08670887 0.61206454 0.55944836 1.6483285 0.5080962
0.5775895 0.13111003 0.11006021 0.9751121 1.0292089 1.0049893 0.2421363 0.42140743
0.85473746 0.55880356 0.1273349 0.11408511 0.2516066 0.5710672 0.08394212 1.3490852
0.35646263 0.5555227 0.15671629 0.8722628 0.11119465 0.14443867 0.23645563 0.14279984
0.9471481 1.4574505 0.18510339 2.9203022 0.10693084 0.33677247 1.8815881 0.53911984
1.1067244 0.061501436 0.19579378 0.51190084 0.278726 1.1906576 0.116871394 0.088448524
2.4970489 0.18991053 1.7533083 0.72744286 0.7844919 0.34524623 0.10193969 0.41371417
0.5914295 0.19504035 0.7433356 0.47964677 1.7830502 0.5992384 0.14170133 0.098178506
0.80175614 1.0449967 0.28896415 0.3571593 0.16500868 0.69792295 0.4857304 0.11168175
0.22166352 0.62074876 1.8224095 0.73713446 1.7769272 0.16171351 1.185525 0.62677747
0.6206007 1.2356982 0.20078938 0.11311426 0.44608465 1.1129899 0.52760446 1.0766947
0.1480886 0.296437 1.2272282 1.6134485 1.4580483 0.7026069 2.314518 0.62386376
00000000: d85b e73f 03ad 803f 85cf c03f 9c2a bb3f
00000010: c632 373f 14cf 853f 6c2b 903d 2e23 983e
00000020: 279b ee3e 13f9 6a3e 07e3 e03d 2a2d 303e
00000030: f085 d03e 0f2d 023f d60d aa3f 1e05 aa3f
00000040: e0ac 933e 8de3 a23f c065 013f 3cb9 433e
00000050: 8846 453e 4d22 0940 f955 2b3f d1e3 053f
00000060: f0e8 143e c4f0 4a3f 41f5 9a3f bd06 de3d
00000070: ed42 0b3f 55fa c63d 6807 053f 9e8d a83f
00000080: b5fd 033e 91e4 253f bc98 7b3e 6c94 b13d
00000090: 43b0 1c3f 0238 0f3f 6efc d23f 9812 023f
000000a0: e8dc 133f b541 063e 3f67 e13d f2a0 793f
000000b0: 1ebd 833f 7da3 803f 94f2 773e b7c2 d73e
000000c0: 13d0 5a3f c00d 0f3f 1464 023e 74a5 e93d
000000d0: 95d2 803e 7631 123f d9e9 ab3d d3ae ac3f
000000e0: 4582 b63e bc36 0e3f 3c7a 203e 9d4c 5f3f
000000f0: 05ba e33d bbe7 133e 6d21 723e 1f3a 123e
00000100: 4c78 723f bd8d ba3f be8b 3d3e 3be6 3a40
00000110: 8efe da3d 716d ac3e e1d7 f03f c203 0a3f
00000120: 25a9 8d3f eee8 7b3d 2a7e 483e ef0b 033f
00000130: 2db5 8e3e 7867 983f 455a ef3d 8024 b53d
00000140: a6cf 1f40 e877 423e 686c e03f b239 3a3f
00000150: 76d4 483f 1dc4 b03e c2c5 d03d 58d2 d33e
00000160: ec67 173f a8b8 473e 3e4b 3e3f 4394 f53e
00000170: fd3a e43f b067 193f 271a 113e d011 c93d
00000180: e43f 4d3f 74c2 853f 1cf3 933e 95dd b63e
00000190: 09f8 283e 14ab 323f a8b1 f83e 67b9 e43d
000001a0: c3fb 623e 64e9 1e3f b744 e93f d8b4 3c3f
000001b0: 5a72 e33f 3a98 253e 48bf 973f 7d74 203f
000001c0: b0df 1e3f 5c2b 9e3f bb9b 4d3e 73a8 e73d
000001d0: 3565 e43e 7476 8e3f 1611 073f 22d1 893f
000001e0: 8aa4 173e 97c6 973e d015 9d3f 7b85 ce3f
000001f0: 54a1 ba3f 0cde 333f 1021 1440 89b5 1f3f

sequential/batch_normalization_2/FusedBatchNormV31 f4 [128]
-0.11416574 -0.2815913 -0.09075218 -0.20534787 -0.21832058 -0.12518571 -0.51807284 -0.36047575
-0.37381068 -0.5304792 -0.66252047 -0.380411 -0.38449687 -0.5639411 -0.22467662 -0.17791097
-0.30270594 -0.2549481 -0.14007595 -0.50173134 -0.370288 -0.22886229 -0.12626071 -0.30820417
-0.4352458 -0.34833792 -0.2594477 -0.38711673 -0.17371403 -0.49920255 -0.38249612 -0.18997273
-0.5661595 -0.22900808 -0.5238549 -0.63587016 -0.080322415 -0.19491088 -0.28658924 -0.34774813
-0.130126 -0.37560198 -0.42238727 -0.17108487 -0.23129284 -0.2373144 -0.3341905 -0.35053995
-0.5136131 -0.28286472 -0.5569684 -0.5032443 -0.13939717 -0.5700594 -0.29412475 -0.17312258
-0.53717214 -0.47807378 -0.559102 -0.42632598 -0.45053333 -0.525409 -0.38700232 -0.6629544
-0.22924569 -0.31856862 -0.38728085 0.028367162 -0.61215293 -0.17104995 -0.056782857 -0.25028083
-0.2407391 -0.56908035 -0.6105485 -0.19886824 -0.1476942 -0.19229095 -0.38542953 -0.31452423
0.025069676 -0.53336716 -0.27787268 -0.32803267 -0.33996147 -0.35567245 -0.49707067 -0.5008284
-0.33716092 -0.2846087 -0.3396307 -0.19259706 0.0029985383 -0.3365729 -0.53795755 -0.58179283
-0.22008842 -0.25249404 -0.39728236 -0.23475878 -0.47703576 -0.2704834 -0.21056646 -0.44434902
-0.25168124 -0.36849934 -0.21453261 -0.17805219 -0.49171713 -0.4334738 -0.107332274 -0.29837513
-0.33986354 -0.058851942 -0.46124607 -0.64863104 -0.5280364 -0.095028624 -0.355471 -0.30051732
-0.4928752 -0.44895586 -0.16745338 -0.070332415 -0.043506503 -0.3471972 -0.045304835 -0.54136795
00000000: bacf e9bd bc2c 90be 47dc b9bd b646 52be
00000010: 6e8f 5fbe af30 00be 6ca0 04bf 4790 b8be
00000020: 1d64 bfbe 7ccd 07bf f19a 29bf 3bc5 c2be
00000030: c6dc c4be 725e 10bf a111 66be 4b2e 36be
00000040: 46fc 9abe 8f88 82be 1270 0fbe 7771 00bf
00000050: 6496 bdbe e05a 6abe 7d4a 01be f0cc 9dbe
00000060: 8ad8 debe 5959 b2be 54d6 84be 2a34 c6be
00000070: 17e2 31be 7a97 ffbe 88d6 c3be 3688 42be
00000080: d4ef 10bf 1881 6abe 5b1b 06bf 63c8 22bf
00000090: 1480 a4bd b896 47be d3bb 92be 0b0c b2be
000000a0: c03f 05be e74e c0be 2543 d8be df30 2fbe
000000b0: 08d8 6cbe 8c02 73be 041b abbe f979 b3be
000000c0: 267c 03bf a5d3 90be 7b95 0ebf 9ed4 00bf
000000d0: 22be 0ebe 6aef 11bf 8597 96be 0c47 31be
000000e0: 1d84 09bf 16c6 f4be 4f21 0fbf 6647 dabe
000000f0: 4eac e6be 3481 06bf 2b25 c6be 61b7 29bf
00000100: 62bf 6abe 6d1b a3be ad49 c6be 4062 e83c
00000110: 0eb6 1cbf b827 2fbe 2495 68bd cf24 80be
00000120: 5084 76be 40af 11bf e84c 1cbf 1ea4 4bbe
00000130: 263d 17be ebe7 44be 0557 c5be 5209 a1be
00000140: ec5e cd3c c08a 08bf 5445 8ebe e6f3 a7be
00000150: 6e0f aebe b31a b6be 0c80 febe 4a36 00bf
00000160: 5ba0 acbe 3bb8 91be 13e4 adbe 2a38 45be
00000170: 2083 443b 4853 acbe 96b7 09bf 60f0 14bf
00000180: dc5e 61be e646 81be 9868 cbbe 9b64 70be
00000190: 083e f4be cd7c 8abe bc9e 57be b781 e3be
000001a0: 5ddc 80be f2ab bcbe 70ae 5bbe 5053 36be
000001b0: 59c2 fbbe 47f0 ddbe 06d1 dbbd a0c4 98be
000001c0: 9802 aebe bc0e 71bd 7228 ecbe af0c 26bf
000001d0: 652d 07bf 5e9e c2bd 4b00 b6be 68dd 99be
000001e0: 235a fcbe 8bdd e5be e678 2bbe 710a 90bd
000001f0: e033 32bd d5c3 b1be 9091 39bd 1797 0abf

sequential/dense/MatMul f4 [1, 8]
-1.021898 1.1576314 -1.7817851 -1.4857482 1.4139495 -1.5100418 -1.4282355 -1.1849096
00000000: 8ecd 82bf 442d 943f 8911 e4bf ff2c bebf
00000010: 4cfc b43f 0d49 c1bf 6cd0 b6bf 1eab 97bf

sequential/lstm/Read_2/ReadVariableOp1 f4 [32]
0.020697141 0.03580793 0.07656809 0.065064766 0.16833551 0.10836443 0.034972675 0.05302524
1.0535048 1.1519226 1.1282157 1.0728459 1.0425403 1.0772407 1.0668393 1.0610732
-0.0657602 -0.14803375 0.096378624 0.072244585 -0.074111454 0.14599025 0.041005924 0.09717615
0.011731376 0.23096472 0.1391225 0.20099452 0.30857867 0.11206504 0.14656287 0.24239582
00000000: 0d8d a93c 56ab 123d bbcf 9c3d ad40 853d
00000010: 2560 2c3e 2cee dd3d 823f 0f3d fe30 593d
00000020: 3fd9 863f 3372 933f 5f69 903f 0453 893f
00000030: f671 853f 06e3 893f 318e 883f 3fd1 873f
00000040: 49ad 86bd 2996 17be 2862 c53d f8f4 933d
00000050: bfc7 97bd 787e 153e d4f5 273d 4a04 c73d
00000060: f534 403c 0482 6c3e 2176 0e3e 82d1 4d3e
00000070: 06fe 9d3e 5b82 e53d 9414 163e 9c36 783e

while/MatMul_11 f4 [32, 8]
-0.16381116 -0.29202163 -0.04643122 0.040962458 0.29436657 0.004329498 0.13571139 -0.08208982
0.27399442 -0.051594865 0.58594984 0.49541965 -0.07931331 0.32496452 0.5818028 0.22954544
0.5242644 0.049705513 -0.19765253 -0.09452845 -0.13300137 0.21583249 0.0007964965 -0.08432633
0.15274508 -0.18358162 0.8413527 0.21072915 -0.24301945 0.26135576 0.6060085 -0.082340784
-0.18813945 0.06255607 0.31246313 -0.04316849 -0.17934723 0.4091886 -0.047433376 0.089864165
0.17167553 -0.18536341 0.078146525 0.06257098 -0.17642845 -0.024859035 0.47559854 0.1245121
0.05626915 0.28191945 -0.17260124 0.0136171365 0.009376467 0.07630118 -0.4846561 -0.13545805
-0.05806063 0.15257807 0.03659188 0.41771296 -0.20340271 0.574879 0.11288224 -0.08179104
0.025233999 -0.3387506 0.20159045 0.38138473 0.049454454 -0.42745215 -0.1568961 0.46729654
0.09984298 0.31857812 0.2556897 -0.07912489 0.2324857 0.31187668 -0.052248303 -0.03194359
0.25464404 -0.41193768 0.12111134 0.12274981 0.23695877 0.23969139 -0.16813813 0.33088186
0.13974878 -0.2294462 -0.20913851 -0.025505882 -0.39109406 0.11234193 -0.027446914 -0.10627396
0.22861007 -0.017845834 -0.32194912 0.1755951 -0.22358958 -0.24052642 -0.13209784 -8.557108e-05
0.24640743 -0.28040907 0.14015453 0.13455932 0.06266608 0.23948568 0.028184598 0.004341126
0.091620766 0.025097614 0.13226202 0.16702905 -0.09895749 0.09440689 0.44699076 0.34139755
-0.06386178 -0.073921315 -0.24284478 0.31133264 0.0436832 -0.060747974 -0.3577694 -0.035750598
0.25721186 -0.11822585 0.2898179 0.38802263 -0.14600678 0.011817234 0.559365 0.23294206
-0.1519741 0.4011074 0.06342174 0.18160677 -0.070882656 -0.41654664 -0.22747143 0.07136501
0.33049014 -0.19053619 0.09494226 0.06434564 -0.45626554 0.047159385 0.33676383 0.22592023
0.17600739 -0.07105887 0.23912817 0.044561867 -0.15983005 0.09355604 0.14175776 0.035919137
-0.13913003 0.51980466 -0.40992087 -0.14027771 0.23840423 -0.0005771936 -0.2600952 -0.14301565
-0.082738675 -0.27351484 0.1796923 0.5033121 -0.48885792 0.08873563 0.5128707 0.58378917
-0.019193498 -0.429424 0.4998075 0.44437495 -0.56496924 0.15326965 -0.05236872 0.15367298
-0.12352663 -0.16000625 -0.113373905 0.32179382 -0.18613276 -0.23900147 0.174481 -0.305959
0.46306005 0.22579014 -0.46448565 -0.049515303 0.3487018 0.020284092 -0.23152354 -0.365979
-0.18748464 -0.09217488 0.054728437 0.13237426 -0.29092717 0.37416148 0.07142605 -0.16509789
-0.17614317 -0.20225818 -0.002757604 0.26179427 0.26943275 0.33177382 -0.08330785 0.08450079
0.26254314 -0.06288472 -0.19531633 0.12552737 -0.038271755 0.100340255 -0.003379386 -0.18164551
0.18258803 -0.09691977 0.22053571 -0.31887326 -0.30433503 0.097066075 0.07150716 -0.20921601
-0.0096004205 0.053867016 0.20370686 -0.107073024 -0.27702743 0.1427938 -0.1657777 0.2786967
0.15045822 0.2727287 0.090316325 -0.337367 0.07038049 0.06981459 0.10643895 -0.19509163
-0.11547933 -0.006273474 0.14314444 -0.19487013 0.17848322 0.10618962 0.3545399 -0.052930996
00000000: 1dbe 27be dc83 95be aa2e 3ebd 40c8 273d
00000010: 37b7 963e 76de 8d3b edf7 0a3e b51e a8bd
00000020: ff48 8c3e 2355 53bd cf00 163f a5a7 fd3e
00000030: 046f a2bd c061 a63e 07f1 143f f60d 6b3e
00000040: 3136 063f 0298 4b3d 6d65 4abe 2298 c1bd
00000050: 8331 08be 3103 5d3e facb 503a 48b3 acbd
00000060: 3569 1c3e d2fc 3bbe e462 573f 62c9 573e
00000070: 17da 78be 6cd0 853e 6023 1b3f 49a2 a8bd
00000080: a1a7 40be 661d 803d 2bfb 9f3e 71d1 30bd
00000090: cda6 37be 2b81 d13e 8049 42bd b40a b83d
000000a0: b6cb 2f3e e8cf 3dbe 490b a03d 3725 803d
000000b0: a9a9 34be 2da5 cbbc a781 f33e 3300 ff3d
000000c0: 7b7a 663d bf57 903e 61be 30be 691a 5f3c
000000d0: c19f 193c cb43 9c3d d824 f8be 84b5 0abe
000000e0: fcd0 6dbd 6d3d 1c3e 5ee1 153d 79de d53e
000000f0: cd48 50be 452b 133f ce2e e73d 1082 a7bd
00000100: 88b7 ce3c b870 adbe ba6d 4e3e dc44 c33e
00000110: c190 4a3d 02db dabe 5fa9 20be 7e41 ef3e
00000120: 7a7a cc3d ac1c a33e c3e9 823e 3b0c a2bd
00000130: bb10 6e3e 4dae 9f3e 5102 56bd 48d7 02bd
00000140: b460 823e 7fe9 d2be 3909 f83d 4164 fb3d
00000150: 52a5 723e a971 753e 672c 2cbe 5969 a93e
00000160: 4e1a 0f3e f2f3 6abe 6828 56be b6f1 d0bc
00000170: 7b3d c8be 8713 e63d 5ad8 e0bc 29a6 d9bd
00000180: c218 6a3e 6d31 92bc 84d6 a4be 34cf 333e
00000190: abf4 64be 8f4c 76be a844 07be a074 b3b8
000001a0: 3b52 7c3e c791 8fbe ab84 0f3e ebc9 093e
000001b0: 1357 803d bc3b 753e 63e3 e63c 0140 8e3b
000001c0: aba3 bb3d 8399 cd3c b26f 073e aa09 2b3e
000001d0: 39aa cabd 6658 c13d f9db e43e a9cb ae3e
000001e0: f7c9 82bd 0f64 97bd 4dac 78be fe66 9f3e
000001f0: 28ed 323d ded2 78bd 8d2d b7be 386f 12bd
00000200: 46b1 833e 6520 f2bd 0363 943e e7aa c63e
00000210: cd82 15be 129d 413c 8b32 0f3f 5d88 6e3e
00000220: 199f 1bbe f35d cd3e 42e3 813d 20f7 393e
00000230: ed2a 91bd 9a45 d5be 45ee 68be d227 923d
00000240: 0136 a93e eb1b 43be 1671 c23d a6c7 833d
00000250: a39b e9be 332a 413d 4f6c ac3e a257 673e
00000260: 483b 343e 5087 91bd 04de 743e 8186 363d
00000270: 7daa 23be 4f9a bf3d f228 113e f21f 133d
00000280: 1a78 0ebe eb11 053f 26e1 d1be f6a4 0fbe
00000290: 3d20 743e cf4e 17ba 332b 85be b272 12be
000002a0: e572 a9bd 230a 8cbe 4201 383e 10d9 003f
000002b0: 964b fabe 07bb b53d 7f4b 033f 3573 153f
000002c0: af3b 9dbc 76dd dbbe c5e6 ff3e 1d85 e33e
000002d0: d3a1 10bf b8f2 1c3e 9580 56bd 735c 1d3e
000002e0: 88fb fcbd aed8 23be 9430 e8bd 29c2 a43e
000002f0: 9699 3ebe cdbc 74be 26ab 323e a8a6 9cbe
00000300: 3516 ed3e 8835 673e 10d1 edbe 8fd0 4abd
00000310: 0b89 b23e d32a a63c 8214 6dbe 9961 bbbe
00000320: f9fb 3fbe 2fc6 bcbd ed2a 603d 1e8d 073e
00000330: 68f4 94be 1892 bf3e d247 923d 6c0f 29be
00000340: e05e 34be c51c 4fbe ebb8 34bb e609 863e
00000350: 17f3 893e 42de a93e 4e9d aabd c00e ad3d
00000360: 0e6c 863e b4c9 80bd 0101 48be 3f8a 003e
00000370: d8c2 1cbd 317f cd3d b078 5dbb 4801 3abe
00000380: 5bf8 3a3e df7d c6bd 1dd4 613e 5b43 a3be
00000390: cdd1 9bbe 94ca c63d 5972 923d b93c 56be
000003a0: 154b 1dbc a9a3 5c3d 8898 503e 1a49 dbbd
000003b0: 8ad6 8dbe 8a38 123e a1c1 29be 55b1 8e3e
000003c0: b811 1a3e 19a3 8b3e c4f7 b83d 5ebb acbe
000003d0: a523 903d f4fa 8e3d aafc d93d 1ac6 47be
000003e0: 6d80 ecbd b791 cdbb 7594 123e 098c 47be
000003f0: 4ec4 363e f279 d93d 4186 b53e 2cce 58bd

while/MatMul f4 [32, 512]
-0.21609735 0.057994794 0.019931935 0.12568878 -0.104464374 -0.011310292 0.18419431 0.11846966
0.039322283 0.16183257 0.09218166 0.061358757 0.041055195 0.13184759 -0.23183216 -0.11967934
-0.03398379 0.10133712 -0.02626222 0.054158427 0.18782236 0.22638997 -0.1661466 0.07584767
0.05268013 0.07420942 0.20532009 0.24098383 -0.034270722 0.021577755 -0.06095551 -0.06610801
0.09796571 0.16693701 -0.032443978 0.01244549 0.007368749 0.16664739 -0.027398089 0.103389196
0.0903591 0.052210454 0.035992857 -0.1700409 0.20956615 -0.029821262 0.118740074 0.15987967
-0.0044624237 -0.0056449138 0.111146115 -0.019909954 0.1995172 -0.1310006 0.095762976 0.045411304
0.07026528 0.048477575 0.19331442 -0.16796081 0.10641799 0.16030017 0.1575814 0.04573611
0.077440076 0.23913163 -0.0063335937 -0.11932779 -0.048373856 0.07708012 0.20552665 -0.047122274
0.07203653 0.17468065 0.042335384 0.059628922 0.1290689 0.16490136 0.062276334 -0.017163541
-0.038409214 0.10361287 -0.010945461 -0.0042334874 0.10039017 -0.20298707 0.091778785 0.03533784
-0.050324935 0.13107716 0.11497936 0.13141733 0.034625277 -0.021656755 0.087570354 0.040351477
-0.20106117 0.13944833 0.18521391 0.12294971 -0.018364275 0.2252978 -0.002894838 0.0011133575
0.059015423 0.091491856 -0.21989505 -0.0019998532 -0.091794044 0.07240957 0.0145162605 -0.256898
0.15583603 0.06528837 0.12643108 0.111824915 0.07873275 0.015715184 0.25706136 -0.10448289
0.12609626 0.2158186 0.061626855 -0.07064041 0.08508423 0.07241019 -0.09205998 -0.11098461
-0.012181803 0.17657818 0.21149817 -0.053446755 0.055036645 0.02357114 0.041873436 0.30757618
-0.017610904 0.13734289 0.039146226 0.042396635 -0.20269462 0.058011577 0.08414366 0.051783636
0.18089887 -0.07865517 0.14471416 -0.03793492 -0.08437629 -0.039982684 -0.02308799 -0.036304347
0.09811661 -0.12069387 0.07604923 0.054124206 0.15996477 0.12013619 0.078286424 0.030110205
0.15667982 0.030447923 0.09424872 0.11436306 0.18346487 0.20348877 -0.081010744 0.07423705
-0.04522047 0.105739266 0.11134949 0.030981366 0.12503694 0.028851278 -0.24093774 -0.06028389
-0.05315445 0.16109902 0.17236452 0.10442528 0.2820677 -0.16631359 0.09658463 -0.06442291
0.0014800278 -0.17165346 0.11171766 -0.079638064 0.16694553 0.11867747 0.0074837427 0.19026552
0.0026207287 -0.051752537 0.031686563 -0.04492672 0.089302845 -0.074739985 0.00079983444 0.08001312
0.027022345 0.14720994 0.076965295 0.12236787 0.011846148 -0.0009789984 0.13022731 0.21852441
0.08554005 0.023988137 0.27740774 0.17892596 0.019152788 -0.04009391 0.2316136 0.21546923
0.04378887 0.09396223 0.230672 0.1156888 0.04390659 0.043414198 0.047544654 0.071469456
-0.018927675 -0.21777081 -0.035963885 0.18600631 0.12018863 -0.059270106 -0.19792625 0.15126753
-0.04757838 0.16247533 0.019015549 0.21088125 -0.021057442 0.26654378 0.022126619 -0.039641686
0.21784021 0.05884235 0.23952244 0.23222217 0.15489195 0.2607225 0.254848 0.01639549
0.17825976 -0.054619007 -0.031003146 0.18054985 -0.118633576 0.22851923 -0.05502281 0.026189808
00000000: a048 5dbe f38b 6d3d 4c48 a33c 8fb4 003e
00000010: 6bf1 d5bd ce4e 39bc 6f9d 3c3e 39a0 f23d
00000020: 6710 213d 70b7 253e bdc9 bc3d 5253 7b3d
00000030: 7e29 283d 0e03 073e 6965 6dbe 711a f5bd
00000040: 9632 0bbd d689 cf3d de23 d7bc 3ad5 5d3d
00000050: 8154 403e c6d2 673e 5622 2abe 0656 9b3d
00000060: 1fc7 573d 1cfb 973d 6e3f 523e 77c4 763e
00000070: 755f 0cbd d5c3 b03c 7cac 79bd a363 87bd
00000080: 3fa2 c83d 89f1 2a3e fae3 04bd 2be8 4b3c
00000090: 8c75 f13b 9da5 2a3e f571 e0bc b7bd d33d
000000a0: 310e b93d a1da 553d 3f6d 133d 341f 2ebe
000000b0: 8298 563e b84b f4bc ff2d f33d 7fb7 233e
000000c0: 8639 92bb f8f8 b8bb 93a0 e33d 331a a3bc
000000d0: 3d4e 4c3e 0525 06be 611f c43d 3401 3a3d
000000e0: 3ee7 8f3d 6c90 463d 37f4 453e ebfd 2bbe
000000f0: adf1 d93d ba25 243e 055d 213e ca55 3b3d
00000100: e798 9e3d ecde 743e 098a cfbb 2162 f4bd
00000110: aa23 46bd 2fdc 9d3d 9475 523e 4903 41bd
00000120: e387 933d 7cdf 323e de67 2d3d 753d 743d
00000130: a32a 043e e7db 283e 7815 7f3d 8e9a 8cbc
00000140: fb52 1dbd fc32 d43d 9754 33bc 11b9 8abb
00000150: 5d99 cd3d d8db 4fbe 84f6 bb3d 69be 103d
00000160: 8521 4ebd 1739 063e 4c7a eb3d 4492 063e
00000170: 3cd3 0d3d 8269 b1bc 1658 b33d 9747 253d
00000180: fbe2 4dbe 8bcb 0e3e b7a8 3d3e 0fcd fb3d
00000190: ad70 96bc 77b4 663e 53b7 3dbb 14ee 913a
000001a0: 28ba 713d 1560 bb3d 2b2c 61be f80f 03bb
000001b0: 84fe bbbd 784b 943d 9cd5 6d3c 2288 83be
000001c0: 7b93 1f3e e9b5 853d 2677 013e 7604 e53d
000001d0: a33e a13d 21bd 803c 8c9d 833e 20fb d5bd
000001e0: 611f 013e 8dff 5c3e 716c 7c3d ebab 90bd
000001f0: a440 ae3d cb4b 943d f189 bcbd e64b e3bd
00000200: 2f96 47bc e9d0 343e fa92 583e fcea 5abd
00000210: 1b6e 613d 4318 c13c 7b83 2b3d a07a 9d3e
00000220: be44 90bc 9da3 0c3e cb57 203d 18a8 2d3d
00000230: 2e8f 4fbe 8c9d 6d3d 8353 ac3d 141b 543d
00000240: 8e3d 393e f615 a1bd f32f 143e a661 1bbd
00000250: 7acd acbd e2c4 23bd 0623 bdbc deb3 14bd
00000260: 5cf1 c83d 592e f7bd b3bf 9b3d 58b1 5d3d
00000270: cecd 233e f609 f63d a254 a03d ada9 f63c
00000280: ad70 203e ec6d f93c 7905 c13d 2e37 ea3d
00000290: 37de 3b3e 5c5f 503e f6e8 a5bd 9809 983d
000002a0: 1939 39bd d48d d83d 340b e43d a2cc fd3c
000002b0: af09 003e 8459 ec3c 62b8 76be 3eec 76bd
000002c0: 7bb8 59bd 24f7 243e 5380 303e ecdc d53d
000002d0: 2d6b 903e 1c4e 2abe 2ace c53d 29f0 83bd
000002e0: 7efd c13a edc5 2fbe 3bcc e43d 4819 a3bd
000002f0: c5f3 2a3e 2c0d f33d 2f3a f53b f7d4 423e
00000300: 88c0 2b3b 78fa 53bd c5c9 013d 1505 38bd
00000310: 69e4 b63d 4711 99bd fbab 513a ebdd a33d
00000320: f75d dd3c 34be 163e fb9f 9d3d 019c fa3d
00000330: 5916 423c bc51 80ba 4f5a 053e ddc4 5f3e
00000340: 9f2f af3d c582 c43c 6308 8e3e 5e38 373e
00000350: 4fe6 9c3c 8339 24bd 1e2c 6d3e f7a3 5c3e
00000360: f55b 333d 456f c03d 4835 6c3e 40ee ec3d
00000370: 66d7 333d 16d3 313d 2fbe 423d 945e 923d
00000380: 360e 9bbc 50ff 5ebe de4e 13bd 7078 3e3e
00000390: 7525 f63d 36c5 72bd 2ead 4abe e0e5 1a3e
000003a0: 8ce1 42bd ef5f 263e 7fc6 9b3c 41f1 573e
000003b0: a880 acbc 6d78 883e e242 b53c 525f 22bd
000003c0: 8111 5f3e ad04 713d 5f45 753e a6cb 6d3e
000003d0: ff9b 1e3e 6b7d 853e 707b 823e d64f 863c
000003e0: ba89 363e 2eb8 5fbd 4ffa fdbc 0fe2 383e
000003f0: 29f6 f2bd f200 6a3e 995f 61bd 028c d63c
