models/model.tflite (tflite, 288496 bytes, 13 tensors)

sequential/conv2d/BiasAdd/ReadVariableOp f4 [32]
0.04649396 0.090385534 0.21092339 -0.1472133 0.049664 0.07743759 0.0814199 0.014255042
0.021135004 0.039140973 0.044713464 0.007315481 0.051609058 0.13514768 0.02864086 0.0387214
0.10843251 0.09561441 0.043006737 0.09472084 0.18326467 0.06501569 0.047144353 0.07133113
0.13618037 0.058815498 0.03772937 0.0083596 0.10541565 0.017583115 0.06538391 0.036103565
00000000: 7370 3e3d 0d1c b93d 4dfc 573e 15bf 16be
00000010: 7a6c 4b3d 9997 9e3d 7abf a63d fb8d 693c
00000020: 5123 ad3c 4952 203d 7725 373d b4b6 ef3b
00000030: 0564 533d 2764 0a3e 3da0 ea3c 559a 1e3d
00000040: dd11 de3d 7dd1 c33d d527 303d 00fd c13d
00000050: bca9 3b3e f226 853d 701a 413d 0e16 923d
00000060: de72 0b3e 85e8 703d 1d8a 1a3d b4f6 083c
00000070: 29e4 d73d 770a 903c 00e8 853d 55e1 133d

sequential/conv2d_1/BiasAdd/ReadVariableOp f4 [64]
0.03252066 0.020670014 0.025844323 -0.09511626 -0.0017981363 -0.07538353 0.03851991 0.0007942082
-0.052619796 0.003214706 0.13288377 -0.21386161 -0.10899507 -0.15766859 -0.039957844 -0.0050111683
-0.09985748 -0.012453516 0.010989204 -0.005480342 -0.049705163 0.024091441 0.014845845 0.0034804794
-0.09882894 -0.040802214 -0.049522452 -0.14683333 -0.059041966 0.13516867 -0.027244052 -0.05665021
0.027591832 -0.06737792 0.1545617 -0.13496444 -0.23187272 0.053986043 -0.06684295 -0.2239266
-0.023663955 -0.10176407 -0.0043708254 -0.014445002 -0.056657348 0.20810342 -0.16346194 0.029367749
-0.04172834 -0.07640987 -0.04097485 -0.06060527 -0.038193952 0.014612299 0.09242037 0.062354516
-0.06520823 -0.10992523 0.15232348 -0.14859295 -0.081265345 -0.08120879 -0.14297056 -0.020399356
00000000: 6234 053d 2954 a93c 79b7 d33c 50cc c2bd
00000010: 71af ebba ae62 9abd 0ec7 1d3d 6932 503a
00000020: db87 57bd d1ad 523b af12 083e 8afe 5abe
00000030: cf38 dfbd e073 21be d6aa 23bd ba34 a4bb
00000040: 1482 ccbd d509 4cbc 100c 343c 7194 b3bb
00000050: a497 4bbd 6a5b c53c fd3b 733c c118 643b
00000060: d466 cabd 3920 27bd 0ed8 4abd 7a5b 16be
00000070: fdd5 71bd a869 0a3e eb2e dfbc 0d0a 68bd
00000080: 4408 e23c 6ffd 89bd 6c45 1e3e 1e34 0abe
00000090: 0b70 6dbe 7820 5d3d f5e4 88bd 044d 65be
000000a0: e9da c1bc ae69 d0bd 2439 8fbb bbaa 6cbc
000000b0: 8911 68bd 1019 553e 9162 27be a294 f03c
000000c0: 56eb 2abd c77c 9cbd 3fd5 27bd 3b3d 78bd
000000d0: 4371 1cbd 6d68 6f3c e446 bd3d 7367 7f3d
000000e0: e48b 85bd 7b20 e1bd b0fa 1b3e c028 18be
000000f0: 726e a6bd cb50 a6bd e066 12be 8d1c a7bc

sequential/conv2d/Conv2D f4 [32, 5, 5, 1]
-0.12845123 -0.2034595 0.07600109 0.19994907 0.12559499 0.06568208 -0.15551703 -0.114694186
-0.045556646 -0.07102566 0.08378378 0.08701174 -0.30664688 -0.19979864 -0.17612343 0.09079604
0.09508818 -0.109472714 0.1490828 0.17487603 -0.08197912 -0.043235842 -0.11842893 -0.13601233
0.10722396 0.15605778 0.088029645 0.027170308 -0.03052648 -0.20037971 0.0759898 0.1810402
0.086134434 -0.15028071 -0.3922006 -0.0082466835 0.029202968 -0.022037514 -0.22458522 -0.25014237
-0.022648994 -0.1273442 0.049507834 -0.07968731 -0.074960396 -0.009096551 0.069911346 0.04530779
0.04082903 -0.13087204 0.15693708 -0.2518321 -0.2317088 -0.069993794 0.03935348 -0.14442211
-0.22979563 -0.16392204 0.084755756 0.15789379 0.01535181 0.060036004 0.0057833036 -0.005836737
0.026694443 -0.059099574 0.15143913 0.04063406 -0.09871411 0.11203011 -0.10826153 0.027403792
-0.02961826 -0.08976086 -0.060708802 0.024900315 -0.08763881 -0.04442386 0.08317534 0.1608901
0.058791555 -0.037450563 -0.16015083 -0.021042868 0.076829955 -0.12205162 0.028913626 -0.13560513
0.010887834 -0.10313481 -0.22182782 0.035552464 -0.058850426 -0.008151804 -0.18177667 -0.049540095
0.19270237 0.2152497 0.08913341 0.024095392 0.22052546 0.041860715 0.12483971 0.066823825
0.061215248 0.1342797 0.11540775 0.08618901 0.04680035 0.024822706 0.038725063 0.020270217
-0.050023995 0.012672543 -0.10020209 -0.042640638 -0.061140377 -0.10402653 0.028395452 -0.046731442
-0.23560876 -0.31301397 -0.13556698 -0.095090024 -0.23129342 0.16523235 0.013937892 -0.38633293
-0.47075874 -0.109397545 0.019050134 -0.11555268 -0.18341832 -0.09860677 0.14284453 -0.06702001
-0.29205185 -0.27212033 -0.2726364 -0.0547052 -0.19628465 -0.30693296 -0.18407223 0.16895662
-0.039728064 -0.065760486 -0.23953062 -0.33362794 0.06541781 -0.08275662 0.09036754 0.084895715
0.029236216 -0.032512907 0.24054871 0.047588296 -0.11588483 0.026982035 0.097295545 0.151862
0.056918103 -0.22483169 0.07056362 0.1496695 -0.033061583 0.08518778 -0.30342394 0.07592808
0.127981 -0.1168844 -0.0436663 -0.36743665 0.0699741 0.022574876 -0.1866687 0.21324256
0.087762244 0.03129508 -0.12975797 0.011227527 0.013959819 -0.024077628 0.13606152 -0.2313358
-0.27449837 -0.08086905 -0.020871306 -0.057118274 -0.014292325 -0.12652372 -0.18574849 -0.039605543
0.0089262985 -0.12236772 -0.15116493 -0.13004416 -0.113353945 -0.1768057 -0.1335916 -0.07189118
-0.094386786 -0.19311051 -0.115325905 0.027416281 -0.11199115 0.084286004 0.022287017 0.19011928
0.14270627 0.2195314 0.14137208 -0.061241996 0.031443596 0.088690326 0.090334944 -0.18021868
-0.20120531 0.040571693 -0.116453595 -0.06281583 -0.10038788 0.091815576 0.18780234 -0.14796476
-0.11523855 -0.3582143 -0.21263738 -0.043192603 -0.24304476 -0.41937047 -0.14893357 0.08357381
-0.04237165 -0.1388885 -0.10429425 -0.10399654 0.10364781 0.12982199 -0.043946575 0.011075631
0.09317963 0.07587847 0.07949396 0.017415578 -0.10971031 0.10621261 -0.09540643 -0.14415048
-0.1320044 0.048368968 0.1304983 -0.017721929 -0.073151074 -0.053512536 -0.38502106 -0.067344375
00000000: b888 03be b057 50be 76a6 9b3d 73bf 4c3e
00000010: f99b 003e 5484 863d db3f 1fbe c9e4 eabd
00000020: 9b99 3abd e775 91bd d596 ab3d 3633 b23d
00000030: d200 9dbe 0498 4cbe b359 34be 46f3 b93d
00000040: 97bd c23d 3b33 e0bd 29a9 183e b412 333e
00000050: abe4 a7bd 1118 31bd de8a f2bd d146 0bbe
00000060: 3c98 db3d 9ccd 1f3e e348 b43d 4494 de3c
00000070: ab12 fabc 5730 4dbe 8aa0 9b3d 9a62 393e
00000080: 4067 b03d 30e3 19be 84ce c8be 191d 07bc
00000090: 103b ef3c 0488 b4bc abf9 65be a912 80be
000000a0: 628a b9bc 8566 02be bac8 4a3d 1a33 a3bd
000000b0: d684 99bd b309 15bc ae2d 8f3d a994 393d
000000c0: 573c 273d 5203 06be 1db4 203e 23f0 80be
000000d0: 1245 6dbe e858 8fbd 1d31 213d 64e3 13be
000000e0: 8c4f 6bbe 2edb 27be 6d94 ad3d e9ae 213e
000000f0: 2886 7b3c 50e8 753d de81 bd3b 1942 bfbb
00000100: 4eae da3c 6512 72bd dc12 1b3e e66f 263d
00000110: a02a cabd 0b70 e53d 39b8 ddbd eb7d e03c
00000120: fea1 f2bc 8bd4 b7bd cba9 78bd bffb cb3c
00000130: fa7b b3bd cbf5 35bd d557 aa3d 60c0 243e
00000140: 6acf 703d c365 19bd 94fe 23be 1862 acbc
00000150: 0659 9d3d 33f6 f9bd 45dc ec3c 12dc 0abe
00000160: e362 323c 5838 d3bd d526 63be 769f 113d
00000170: 250d 71bd 258f 05bc aa23 3abe 8eea 4abd
00000180: c553 453e 6b6a 5c3e 948b b63d b363 c53c
00000190: 6dd1 613e 2476 2b3d f6ab ff3d eeda 883d
000001a0: d7bc 7a3d 9e80 093e e65a ec3d dd83 b03d
000001b0: b9b1 3f3d fd58 cb3c 2c9e 1e3d ba0d a63c
000001c0: f6e5 4cbd 7fa0 4f3c c136 cdbd f3a7 2ebd
000001d0: 556e 7abd dd0b d5bd 949d e83c 7869 3fbd
000001e0: 6c43 71be 5e43 a0be 12d2 0abe 8fbe c2bd
000001f0: 2fd8 6cbe ab32 293e c25b 643c 6ecd c5be
00000200: 4a07 f1be d20b e0bd 070f 9c3c e2a6 ecbd
00000210: 03d2 3bbe 59f2 c9bd d645 123e c941 89bd
00000220: d287 95be 5b53 8bbe 0097 8bbe 8f12 60bd
00000230: d8fe 48be 5126 9dbe 6e7d 3cbe f702 2d3e
00000240: e5b9 22bd 6fad 86bd 8447 75be 48d1 aabe
00000250: c6f9 853d 4e7c a9bd 9e12 b93d cedd ad3d
00000260: ca80 ef3c 412c 05bd 6752 763e f2eb 423d
00000270: 0755 edbd 6e09 dd3c e342 c73d b681 1b3e
00000280: f522 693d 473a 66be a983 903d f642 193e
00000290: 956b 07bd ee76 ae3d 625a 9bbe 2e80 9b3d
000002a0: 740d 033e 1761 efbd 6fdb 32bd a820 bcbe
000002b0: 954e 8f3d f2ee b83c 1426 3fbe 425c 5a3e
000002c0: b1bc b33d 452f 003d 46df 04be a9f3 373c
000002d0: bab7 643c 723e c5bc b653 0b3e 4be3 6cbe
000002e0: 0d8b 8cbe ac9e a5bd 4dfa aabc daf4 69bd
000002f0: 5b2a 6abc 6f8f 01be da34 3ebe 6c39 22bd
00000300: 9c3f 123c ed9b fabd fbca 1abe 4c2a 05be
00000310: 1d26 e8bd 8e0c 35be 3dcc 08be af3b 93bd
00000320: dc4d c1bd c3be 45be fd2f ecbd 1c98 e03c
00000330: 9e5b e5bd 249e ac3d 4393 b63c a1ae 423e
00000340: 9821 123e d7cc 603e d8c3 103e e3d8 7abd
00000350: 00cb 003d 46a3 b53d 8701 b93d 3f8b 38be
00000360: c408 4ebe 812e 263d 397f eebd 96a5 80bd
00000370: 2998 cdbd ce09 bc3d 424f 403e 1384 17be
00000380: 3002 ecbd dd67 b7be 9dbd 59be baea 30bd
00000390: bae0 78be bab7 d6be 0b82 18be bf28 ab3d
000003a0: e58d 2dbd c938 0ebe 3998 d5bd 23fc d4bd
000003b0: 4e45 d43d 0ef0 043e 5301 34bd 9076 353c
000003c0: f6d4 be3d 2c66 9b3d bbcd a23d 1dab 8e3c
000003d0: cdaf e0bd ff85 d93d 7264 c3bd 2f9c 13be
000003e0: 292c 07be 8a1e 463d 59a1 053e 942d 91bc
000003f0: 3bd0 95bd f62f 5bbd 7b21 c5be d9eb 89bd

sequential/conv2d_1/Conv2D f4 [64, 5, 5, 32]
0.014875007 -0.044344116 -0.13653535 -0.1387227 -0.032918047 -0.045236807 -0.00139687 -0.09345849
0.037649482 0.05483797 -0.0028777863 0.056583922 -0.047049545 0.026302528 0.06304351 -0.09941042
0.09471356 0.070947744 -0.09743031 0.05827873 -0.04467514 -0.086213365 -0.044768725 -0.034058336
0.034620136 0.04628377 0.038691215 0.00839313 -0.10475173 0.0048671407 0.01974704 -0.094849594
0.09026003 -0.030406125 -0.01667915 -0.07280332 -0.012864327 -0.12117787 -0.09220169 0.03610397
-0.10464232 0.061110426 0.06397803 -0.040920332 0.046443798 0.019281179 0.018790768 0.15835783
-0.11572748 -0.016683316 0.03378951 -0.16259393 0.06937816 -0.017797431 -0.22574337 0.022854397
0.03722442 0.030567722 0.006882156 -0.07545075 -0.04143778 0.038477495 -0.0052637327 -0.17041649
0.22639407 0.03600896 0.055455286 0.018917946 -0.18955088 -0.081755094 -0.18525621 -0.13338071
0.042491384 0.1748616 0.063544646 0.101207174 0.06389572 -0.053662486 -0.094243966 -0.05997609
-0.09577143 0.06478712 0.04897114 0.035161983 -0.07261402 0.14203764 0.11566353 0.08712954
0.018705057 -0.07323091 -0.04550283 -0.13120475 -0.17547187 -0.07269148 -0.036636755 0.068671346
-0.03093055 -0.033968374 -0.04890877 0.09743554 -0.18914403 -0.04177526 -0.06525758 -0.15791716
0.061249696 0.03126405 0.08201148 -0.22140904 0.027203161 0.025335506 -0.083064266 0.02546329
0.10136022 0.070749156 -0.0066419174 0.13624363 0.109428965 0.036712788 0.07792221 0.10356927
0.023539225 -0.032187395 -0.10811778 -0.043710966 -0.06569182 0.063295886 -0.06277954 -0.03273543
-0.20220752 -0.024444021 0.080592394 -0.08861878 -0.09188948 0.10250345 0.024495382 -0.005923395
0.0048228535 0.049180314 -0.044725712 -0.037633847 -0.19270654 0.013844349 0.24467745 0.01621246
0.09309274 0.030927023 -0.041065156 0.23030232 -0.09288373 -0.023551006 -0.12825868 -0.21295564
-0.01298362 0.0041103875 0.027092068 0.016381169 -0.041011326 0.0612957 -0.032734238 -0.0008631233
0.19885194 -0.040453635 -0.117384106 -0.08337299 0.048983537 0.09548152 0.0098908795 0.042950258
0.12187267 -0.053409588 -0.091986306 0.056101937 -0.14791313 -0.01686465 0.038435187 -0.048849534
0.17268698 3.674872e-05 -0.11903164 0.029735189 -0.08695558 0.03649476 0.03616611 -0.07439036
0.109534144 -0.019728316 0.053582136 0.08919187 0.084050715 0.024603207 0.00271344 0.07570039
0.21867357 0.04032851 0.06729994 -0.1453384 0.055169974 0.06825492 -0.06003584 0.14228666
-0.04073682 -0.16186874 -0.012272793 0.033627868 -0.022294754 -0.009568348 0.036960404 0.02414175
-0.0614617 -0.020009268 -0.113449566 -0.013148052 0.007571832 -0.018261433 -0.021531535 -0.034346536
0.05981699 0.027600106 -0.06372409 -0.019967219 0.11857858 -0.02189297 -0.046716984 -0.13121654
-0.15117884 0.01985929 0.0063115475 -0.1373127 -0.091342315 -0.039522424 -0.07349174 -0.024979323
0.10061531 0.075216465 -0.05503551 -0.013424326 -0.019769281 -0.066854596 -0.084514074 -0.10715579
-0.09510511 -0.09113466 0.00754127 0.01562505 -0.00924335 0.08002611 -0.033925936 -0.1032668
-0.115960784 -0.040393457 -0.065979466 -0.02556497 -0.09336803 -0.036399093 0.0038576284 -0.06124571
00000000: 4db6 733c 2da2 35bd eccf 0bbe 530d 0ebe
00000010: 13d5 06bd 3b4a 39bd 2e17 b7ba 2a67 bfbd
00000020: 5836 1a3d c79d 603d 3e99 3cbb 8bc4 673d
00000030: 06b7 40bd 6678 d73c f51c 813d b197 cbbd
00000040: 2ff9 c13d 0d4d 913d 8b89 c7bd adb5 6e3d
00000050: 48fd 36bd a290 b0bd 695f 37bd c180 0bbd
00000060: d8cd 0d3d 0d94 3d3d ae7a 1e3d 5783 093c
00000070: 1388 d6bd 897c 9f3b 8bc4 a13c 8140 c2bd
00000080: 40da b83d 4416 f9bc b6a2 88bc e819 95bd
00000090: e6c4 52bc 1a2c f8bd 3dd4 bcbd c2e1 133d
000000a0: b64e d6bd ed4e 7a3d ea06 833d 149c 27bd
000000b0: da3b 3e3d 90f3 9d3c 19ef 993c 8e28 223e
000000c0: 8702 edbd 73ab 88bc df66 0a3d 067f 26be
000000d0: 2316 8e3d ebcb 91bc 4529 67be 2539 bb3c
000000e0: a278 183d 2969 fa3c b583 e13b ec85 9abd
000000f0: a9ba 29bd 949a 1d3d 647b acbb a981 2ebe
00000100: d9d3 673e 227e 133d 1525 633d cff9 9a3c
00000110: a019 42be 376f a7bd ceb3 3dbe f494 08be
00000120: 720b 2e3d eb0e 333e b223 823d b545 cf3d
00000130: c2db 823d 32cd 5bbd fb02 c1bd 7da9 75bd
00000140: d023 c4bd 1caf 843d f695 483d 0306 103d
00000150: a9b6 94bd 5172 113e 00e1 ec3d f970 b23d
00000160: 593b 993c 16fa 95bd 2d61 3abd 8a5a 06be
00000170: e6ae 33be 45df 94bd 6c10 16bd 90a3 8c3d
00000180: 1162 fdbc 6c22 0bbd 9054 48bd 498c c73d
00000190: f9ae 41be 891c 2bbd c4a5 85bd 09b5 21be
000001a0: f6e0 7a3d bc0e 003d a3f5 a73d 0db9 62be
000001b0: 2ad9 de3c 688c cf3c 991d aabd 6498 d03c
000001c0: f295 cf3d efe4 903d 71a4 d9bb 7383 0b3e
000001d0: 4b1c e03d 2660 163d ae95 9f3d 201c d43d
000001e0: 55d5 c03c eed6 03bd db6c ddbd 450a 33bd
000001f0: 6f89 86bd 46a1 813d 8f92 80bd 9615 06bd
00000200: 7d0f 4fbe d43e c8bc a00d a53d c37d b5bd
00000210: 8d30 bcbd 54ed d13d 8aaa c83c 0a19 c2bb
00000220: 0709 9e3b 4c71 493d 4f32 37bd f325 1abd
00000230: dd54 45be 69d3 623c ba8c 7a3e fecf 843c
00000240: 68a7 be3d ab5a fd3c f033 28bd 5fd4 6b3e
00000250: d339 bebd 0aee c0bc 3e56 03be 0b11 5abe
00000260: 40b9 54bc 6eb0 863b 2ff0 dd3c cd31 863c
00000270: 7efb 27bd 3311 7b3d 5614 06bd 3943 62ba
00000280: d89f 4b3e b6b2 25bd 1467 f0bd 75bf aabd
00000290: f6a2 483d d18b c33d 5b0d 223c 9cec 2f3d
000002a0: 6198 f93d 03c4 5abd 5163 bcbd 25cb 653d
000002b0: 8a76 17be bc27 8abc 376e 1d3d 7316 48bd
000002c0: dbd4 303e a322 1a38 dcc6 f3bd 3697 f33c
000002d0: c415 b2bd 887b 153d ea22 143d f959 98bd
000002e0: 7053 e03d 479d a1bc f178 5b3d 3aaa b63d
000002f0: c822 ac3d aa8c c93c f8d3 313b ce08 9b3d
00000300: f7eb 5f3e 822f 253d 8dd4 893d 97d3 14be
00000310: e9f9 613d 3cc9 8b3d 24e8 75bd 98b3 113e
00000320: a7db 26bd ebc0 25be d313 49bc 60bd 093d
00000330: 7da3 b6bc 8fc4 1cbc cb63 173d ebc4 c53c
00000340: 43bf 7bbd 7aea a3bc 3f58 e8bd ed6a 57bc
00000350: 211d f83b 0099 95bc e762 b0bc f4ae 0cbd
00000360: a902 753d 9e19 e23c c781 82bd 4b92 a3bc
00000370: 54d9 f23d e358 b3bc 4f5a 3fbd a15d 06be
00000380: a0ce 1abe f3af a23c 19d1 ce3b b39b 0cbe
00000390: ae11 bbbd 44e2 21bd d682 96bd 70a1 ccbc
000003a0: 660f ce3d 170b 9a3d ea6c 61bd b4f1 5bbc
000003b0: 30f3 a1bc 10eb 88bd b715 adbd 7f74 dbbd
000003c0: 78c6 c2bd cfa4 babd c21c f73b 1b00 803c
000003d0: 6b71 17bc bbe4 a33d ecf5 0abd 8b7d d3bd
000003e0: d97c edbd 9c73 25bd 3e20 87bd a16d d1bc
000003f0: bd37 bfbd 3717 15bd 44d0 7c3b c8dc 7abd

sequential/lstm/Read_2/ReadVariableOp f4 [32]
0.22219607 0.09160548 -0.10075472 0.12777175 0.12987174 -0.16106763 0.028932828 0.088082045
1.0434314 1.0988114 1.1670314 1.1149983 1.0532538 1.2226169 1.1744577 1.0652759
0.15251529 -0.101443775 0.16646953 0.10180169 0.0526505 -0.10935866 0.13795744 -0.1092859
0.12122344 0.42314482 0.009990924 0.4249895 0.15495655 0.24285033 0.2917102 0.14238158
00000000: 5e87 633e a79b bb3d 7e58 cebd 99d6 023e
00000010: 19fd 043e eaee 24be 8a04 ed3c 5c64 b43d
00000020: 298f 853f daa5 8c3f 4961 953f 44b8 8e3f
00000030: 05d1 863f b67e 9c3f a154 963f f65a 883f
00000040: f82c 1c3e c1c1 cfbd fd76 2a3e 687d d03d
00000050: 0da8 573d 6ff7 dfbd b744 0d3e 49d1 dfbd
00000060: ff43 f83d 70a6 d83e f9b0 233c 3998 d93e
00000070: eeac 1e3e c2ad 783e 0a5b 953e 7acc 113e

sequential/batch_normalization/FusedBatchNormV3 f4 [32]
10.231532 2.512317 9.767437 4.3547187 3.2470565 23.183002 1.9422604 8.408325
2.7735014 10.69017 6.0103955 8.165534 3.3452668 1.6346902 1.204449 5.1517596
3.3255694 1.9009787 1.7872154 3.9215696 5.267919 10.043061 15.617499 7.9618816
3.540321 0.91788316 34.05325 2.5424368 3.1674755 4.551074 0.9546639 14.83325
00000000: 5bb4 2341 cdc9 2040 6c47 1c41 db59 8b40
00000010: c6cf 4f40 ca76 b941 fd9b f83f 8088 0641
00000020: 0c81 3140 f00a 2b41 2955 c040 07a6 0241
00000030: da18 5640 873d d13f 632b 9a3f 37db a440
00000040: 21d6 5440 4553 f33f 79c3 e43f fffa 7a40
00000050: cb92 a840 61b0 2041 47e1 7941 bcc7 fe40
00000060: 9f94 6240 64fa 6a3f 8736 0842 49b7 2240
00000070: ebb7 4a40 66a2 9140 da64 743f fe54 6d41

sequential/batch_normalization/FusedBatchNormV31 f4 [32]
-0.33994067 -0.28188124 -1.5850165 -0.06869612 -0.27853122 -0.70370126 -0.21452782 -0.11349477
-0.042671673 -0.3461114 -0.2998873 -0.040608965 -0.08501896 -0.20341724 -0.023982704 -0.25870064
-0.2817777 -0.14352931 -0.089854985 -0.25377038 -0.8406126 -0.5190233 -0.45309806 -0.27976745
-0.46817946 -0.051207133 -0.35323697 -0.085371375 -0.3617594 -0.09970854 -0.20195407 -0.27922744
00000000: b40c aebe bd52 90be d2e1 cabf 8db0 8cbd
00000010: a59b 8ebe c425 34bf 2ead 5bbe f26f e8bd
00000020: 7ec8 2ebd 8335 b1be d48a 99be 9655 26bd
00000030: 6c1e aebd 9c4c 50be 6077 c4bc 6974 84be
00000040: 2b45 90be 59f9 12be e405 b8bd 31ee 81be
00000050: 6332 57bf b6de 04bf 78fc e7be ae3d 8fbe
00000060: 38b5 efbe 92be 51bd 7adb b4be 30d7 aebd
00000070: 8738 b9be fe33 ccbd 0ccd 4ebe e6f6 8ebe

sequential/batch_normalization_1/FusedBatchNormV3 f4 [64]
0.32237804 0.65814245 0.48733285 0.4796582 0.8471986 0.46144575 0.243804 0.3065558
0.5500265 0.72565943 0.66097003 1.0105926 1.157819 1.2233363 0.63131416 0.09289426
0.41611674 0.18563461 0.13941602 0.14062615 0.43269178 0.09930231 0.6783324 0.40191016
0.44616106 0.3982063 0.21311128 0.43102032 0.8553394 0.73851854 0.13981704 0.08267871
0.5693271 1.029637 0.30202132 0.58989596 0.21302861 0.19380772 0.3356424 0.054792836
0.45662335 0.38493875 0.08534906 0.092924625 0.63655055 0.69783854 0.052818246 0.6570707
0.7004723 0.2781408 0.9487586 0.17621908 0.07366597 0.25050968 0.18598498 0.25906885
0.10296654 0.07189095 0.2013944 0.96828663 0.23558949 0.36222216 0.46679702 0.87578654
00000000: bc0e a53e 067c 283f b183 f93e c295 f53e
00000010: 02e2 583f 9e42 ec3e c1a7 793e e2f4 9c3e
00000020: 89ce 0c3f d1c4 393f 5535 293f 195b 813f
00000030: 6a33 943f 4996 9c3f ce9d 213f 593f be3d
00000040: 410d d53e 0017 3e3e 13c3 0e3e 4d00 103e
00000050: c789 dd3e 025f cb3d 31a7 2d3f 2bc7 cd3e
00000060: 396f e43e b2e1 cb3e d839 5a3e b2ae dc3e
00000070: 86f7 5a3f 8d0f 3d3f 332c 0f3e 7553 a93d
00000080: 6cbf 113f 25cb 833f 8aa2 9a3e 6c03 173f
00000090: 2c24 5a3e 8875 463e 52d9 ab3e 746e 603d
000000a0: 89ca e93e b116 c53e 7dcb ae3d 444f be3d
000000b0: faf4 223f 8ca5 323f f257 583d c935 283f
000000c0: 2752 333f 7968 8e3e d8e1 723f c672 343e
000000d0: 2fde 963d ce42 803e d972 3e3e aca4 843e
000000e0: 1fe0 d23d 903b 933d 553a 4e3e a2e1 773f
000000f0: 5f3e 713e 2f75 b93e 0500 ef3e 8c33 603f

sequential/batch_normalization_1/FusedBatchNormV31 f4 [64]
-0.9754581 -0.013565883 -0.089388594 -0.31259197 -0.45511362 -0.4071381 -0.32697445 -0.2579514
-0.060029104 -0.12714155 -0.4654842 -0.2934999 -0.041693643 -0.3120792 -0.06326541 -0.016213894
-0.050730973 -0.10361299 -0.15408227 -0.25788838 -0.3051742 -0.18960975 -0.24107957 -0.3636919
-0.12252664 -0.08219705 -0.25594702 -0.22488925 -0.043604463 -0.50138724 -0.25870022 -0.31559294
-0.18015516 -0.50427896 -0.51282716 -0.20036197 -0.15644646 -0.29840726 -0.3687261 -0.03368324
-0.34964418 -0.2841495 -0.13015148 -0.16999587 -0.01474566 -1.7733321 -0.032937154 -0.12078944
-0.032094 -0.16852948 -1.0586895 -0.12684602 -0.13940966 0.030712977 -0.40668535 -0.48524368
-0.10894989 -0.058848962 -0.29301217 -0.03844233 -0.10585569 -0.15295374 -0.25645587 -0.19344345
00000000: 9fb7 79bf 7043 5ebc 5e11 b7bd 0e0c a0be
00000010: a704 e9be 6874 d0be 3269 a7be 3512 84be
00000020: 14e1 75bd 6531 02be f253 eebe 9e45 96be
00000030: f4c6 2abd d8c8 9fbe 4c91 81bd 00d3 84bc
00000040: 48cb 4fbd 0c33 d4bd bec7 1dbe f209 84be
00000050: cb3f 9cbe 0f29 42be 90dd 76be d335 babe
00000060: 3fef fabd ed56 a8bd 7d0b 83be 5e49 66be
00000070: 989a 32bd ea5a 00bf 5b74 84be 6695 a1be
00000080: 987a 38be 6d18 01bf a448 03bf b02b 4dbe
00000090: 8033 20be d6c8 98be abc9 bcbe 70f7 09bd
000000a0: 9004 b3be 0b7c 91be 6e46 05be 6613 2ebe
000000b0: c897 71bc 8cfc e2bf 1ce9 06bd 7460 f7bd
000000c0: 0075 03bd fe92 2cbe 2383 87bf ece3 01be
000000d0: 68c1 0ebe c899 fb3c 1039 d0be dc71 f8be
000000e0: 1f21 dfbd 9c0b 71bd b105 96be b475 1dbd
000000f0: deca d8bd e89f 1cbe 2f4e 83be 0a16 46be

sequential/dense/MatMul f4 [1, 8]
-1.6315571 1.5223204 -1.043684 -1.5004841 -1.5508747 1.4861383 -1.0674525 1.3744755
00000000: ddd6 d0bf 65db c23f 7097 85bf dd0f c0bf
00000010: 1083 c6bf c839 be3f 49a2 88bf d0ee af3f

sequential/lstm/Read_2/ReadVariableOp1 f4 [32]
0.22219607 0.09160548 -0.10075472 0.12777175 0.12987174 -0.16106763 0.028932828 0.088082045
1.0434314 1.0988114 1.1670314 1.1149983 1.0532538 1.2226169 1.1744577 1.0652759
0.15251529 -0.101443775 0.16646953 0.10180169 0.0526505 -0.10935866 0.13795744 -0.1092859
0.12122344 0.42314482 0.009990924 0.4249895 0.15495655 0.24285033 0.2917102 0.14238158
00000000: 5e87 633e a79b bb3d 7e58 cebd 99d6 023e
00000010: 19fd 043e eaee 24be 8a04 ed3c 5c64 b43d
00000020: 298f 853f daa5 8c3f 4961 953f 44b8 8e3f
00000030: 05d1 863f b67e 9c3f a154 963f f65a 883f
00000040: f82c 1c3e c1c1 cfbd fd76 2a3e 687d d03d
00000050: 0da8 573d 6ff7 dfbd b744 0d3e 49d1 dfbd
00000060: ff43 f83d 70a6 d83e f9b0 233c 3998 d93e
00000070: eeac 1e3e c2ad 783e 0a5b 953e 7acc 113e

while/MatMul_11 f4 [32, 8]
0.0071858694 0.24477534 -0.240427 -0.3916834 -0.31764695 -0.14158542 -0.241401 0.25318235
-0.067306176 -0.06266937 0.16832338 0.19367725 0.3485864 -0.16843353 0.434656 -0.2969422
0.14332834 -0.59908193 -0.038724072 0.60134906 -0.12138915 -0.5428029 0.64979875 -0.41699502
-0.4579937 0.023116875 0.19713113 -0.4206423 0.097006984 0.23508058 0.4188497 0.5562952
-0.009773706 0.3795511 0.048276115 -0.08351689 0.1857104 0.13363917 0.016160728 -0.23921761
0.10987649 -0.12681374 0.088427745 0.07747144 -0.07256248 -0.17037961 0.35918978 -0.37987244
0.27704787 -0.58391196 0.042724144 0.7482664 0.29086512 -0.19231728 0.42916283 -0.1999408
-0.37649193 0.047624957 0.057708494 -0.08612972 -0.0071015195 -0.31712165 0.16543582 0.26898694
-0.09230285 -0.21828252 0.22724247 0.21948336 -0.29374748 -0.85875505 0.7000902 -0.38734075
-0.14483465 0.124472685 0.0007513573 -0.15235105 -0.17761487 -0.19275315 -0.055459786 0.11152806
0.4190619 0.093297735 0.3008118 0.119522944 0.04114621 0.35848743 0.045506965 0.28349972
0.025813347 0.06565095 -0.2112476 -0.14392892 -0.06388028 -0.09163026 -0.17435136 -0.14050712
-0.09005075 -0.25177962 -0.08321767 0.008290524 -0.5051859 -0.63236135 0.40507746 -0.33692977
0.18489969 -0.26551968 0.22219315 -0.16876097 -0.19108798 -0.07540308 -0.07908922 0.09361329
0.09529278 0.43952996 0.30672812 -0.29569095 -0.23292021 0.089802995 -0.207224 -0.10859462
0.118610285 0.14525601 -0.11241338 0.31605542 -0.27586737 -0.29769683 -0.15719704 -0.1772657
0.16290921 -0.9598769 0.5140269 0.56020623 0.12122725 -0.67221516 0.79454505 -0.4178808
0.12610838 -0.20196521 0.24924088 -0.7093225 0.21206544 0.30893552 -0.88914466 0.2025987
0.267421 -0.28023833 0.07159373 0.27620605 -0.041125767 -0.55423063 0.07975928 -0.07795006
0.08227461 -0.19517358 0.22058615 -0.21454138 -0.3180043 -0.72790325 0.94835323 -0.4030071
0.34106895 -0.5389844 0.36730686 0.74175406 0.22364743 -0.4137132 0.66628915 -0.2537375
-0.14747132 0.030371165 -0.29912925 -0.18020695 -0.4198159 0.39810276 -0.22412165 0.37947384
0.07120829 0.043064248 0.030977903 -0.347197 0.19342163 -0.13017358 0.0052994373 -0.15836477
-0.04013569 0.8328672 -0.6348178 -0.7448654 0.08918373 0.2630243 -0.5750241 0.16528483
0.16662686 -0.03293115 -0.26039994 0.12949976 -0.11341749 -0.03653803 -0.06567921 -0.06996471
0.1518387 -0.08967669 0.47056437 0.08883354 0.0831492 -0.32928094 -0.16207655 0.08678449
0.042496398 -0.28713843 -0.25469598 0.44618708 0.11840782 -0.056144767 0.73200965 -0.29681352
-0.10325788 -0.037566826 0.054520395 -0.21154432 0.20275572 0.034608163 -0.18628953 0.08843567
0.3915597 -0.31631464 -0.07440995 -0.09271793 0.29568174 0.27365464 -0.38250718 0.19845267
-0.055995706 -0.24453925 0.17421575 0.1044395 0.069754936 0.02452848 -0.0941287 -0.2761431
0.17824301 0.3539597 0.18435508 -0.25069454 0.07513132 0.16706651 0.23732716 0.39010853
0.09777219 0.19571516 0.15715781 0.0025366116 -0.13664094 -0.22394189 0.25923765 0.23352966
00000000: 7177 eb3b 63a6 7a3e 7f32 76be ba8a c8be
00000010: 9fa2 a2be c5fb 10be d331 77be 1ea1 813e
00000020: d2d7 89bd cc58 80bd f75c 2c3e 5453 463e
00000030: eb79 b23e d779 2cbe 3b8b de3e cf08 98be
00000040: aac4 123e 6f5d 19bf 229d 1ebd 03f2 193f
00000050: e09a f8bd 21f5 0abf 3659 263f 5f80 d5be
00000060: 267e eabe 9a5f bd3c bedc 493e 6d5e d7be
00000070: 99ab c63d f7b8 703e 7873 d63e 5d69 0e3f
00000080: e521 20bc 8654 c23e 2dbd 453d e70a abbd
00000090: de2a 3e3e b5d8 083e 8163 843c 76f5 74be
000000a0: ed06 e13d 76db 01be 9b19 b53d 59a9 9e3d
000000b0: a39b 94bd fe77 2ebe b9e7 b73e a47e c2be
000000c0: 38d9 8d3e 417b 15bf 83ff 2e3d 638e 3f3f
000000d0: 46ec 943e d2ee 44be 3bbb db3e 48bd 4cbe
000000e0: 8dc3 c0be 6312 433d be5f 6c3d c764 b0bd
000000f0: ddb3 e8bb c55d a2be 0268 293e a8b8 893e
00000100: 4709 bdbd 7485 5fbe 40b2 683e 3fc0 603e
00000110: 1266 96be 5fd7 5bbf 1d39 333f 8751 c6be
00000120: 894f 14be 89eb fe3d bcf6 443a ea01 1cbe
00000130: ace0 35be 1561 45be cd29 63bd d368 e43d
00000140: 488f d63e e212 bf3d 0104 9a3e 72c8 f43d
00000150: ee88 283d aa8b b73e 8365 3a3d e026 913e
00000160: 8376 d33c 0174 863d 4a51 58be 1a62 13be
00000170: aad3 82bd a5a8 bbbd 2a89 32be 19e1 0fbe
00000180: 876c b8bd 42e9 80be 076e aabd fad4 073c
00000190: dd53 01bf 6fe2 21bf 5066 cf3e 0f82 acbe
000001a0: 5856 3d3e 32f2 87be 9a86 633e adcf 2cbe
000001b0: 91ac 43be ee6c 9abd 87f9 a1bd 53b8 bf3d
000001c0: dc28 c33d 120a e13e 780b 9d3e ce64 97be
000001d0: a382 6ebe a2ea b73d 8732 54be db66 debd
000001e0: f3e9 f23d febd 143e fc38 e6bd 04d2 a13e
000001f0: 7d3e 8dbe b86b 98be 43f8 20be 2485 35be
00000200: acd1 263e 7eba 75bf 4497 033f ad69 0f3f
00000210: fe45 f83d 4b16 2cbf 4e67 4b3f 79f4 d5be
00000220: 8e22 013e f8cf 4ebe 0039 7f3e 2996 35bf
00000230: af27 593e cc2c 9e3e fc9e 63bf 0976 4f3e
00000240: 68eb 883e 667b 8fbe bc9f 923d e16a 8d3e
00000250: 7e73 28bd 0fe2 0dbf d558 a33d 48a4 9fbd
00000260: 977f a83d 95db 47be 56e1 613e bcb0 5bbe
00000270: 76d1 a2be de57 3abf 47c7 723f f256 cebe
00000280: 97a0 ae3e e2fa 09bf a50f bc3e 98e3 3d3f
00000290: d503 653e 37d2 d3be ed91 2a3f e2e9 81be
000002a0: b902 17be f3cc f83c 7827 99be 2c88 38be
000002b0: 1cf2 d6be 20d4 cb3e 2580 65be 654a c23e
000002c0: a7d5 913d 2364 303d 5fc5 fd3c cec3 b1be
000002d0: 5210 463e 394c 05be e7a6 ad3b 602a 22be
000002e0: 5265 24bd c936 553f 6b83 22bf 80af 3ebf
000002f0: f6a5 b63d 1fab 863e c834 13bf 6d40 293e
00000300: 3ba0 2a3e d0e2 06bd 2453 85be 969b 043e
00000310: 6e47 e8bd e7a8 15bd d282 86bd a849 8fbd
00000320: 9b7b 1b3e 6aa8 b7bd d0ed f03e 5cee b53d
00000330: 214a aa3d 8397 a8be 65f7 25be 11bc b13d
00000340: b410 2e3d cf03 93be 8367 82be a272 e43e
00000350: cd7f f23d 0ef8 65bd fc64 3b3f f1f7 97be
00000360: de78 d3bd acdf 19bd c750 5f3d 139f 58be
00000370: 329f 4f3e 4ac1 0d3d afc2 3ebe c31d b53d
00000380: 837a c83e fef3 a1be 3e64 98bd e6e2 bdbd
00000390: 9963 973e 761c 8c3e fbd7 c3be 2d37 4b3e
000003a0: c15b 65bd 7f68 7abe 9d65 323e 60e4 d53d
000003b0: addb 8e3d f3ef c83c 8cc6 c0bd a162 8dbe
000003c0: 5685 363e 353a b53e 94c7 3c3e 095b 80be
000003d0: 73de 993d 7c13 2b3e e405 733e 4ebc c73e
000003e0: c93c c83d 8e69 483e faed 203e 483d 263b
000003f0: 9aeb 0bbe 0651 65be ccba 843e 6622 6f3e

while/MatMul f4 [32, 512]
0.07717669 0.06063419 -0.03155144 -0.14675757 -0.09437086 -0.08419279 0.1252939 -0.031412825
0.13517876 -0.042914726 -0.12047872 -0.22619742 -0.047940817 -0.11687154 0.03111295 0.07680538
-0.17981015 -0.017982304 -0.038095973 0.009330748 -0.10209998 0.07207828 -0.0713653 -0.093030326
-0.13789584 0.040339645 0.105739415 0.00042986794 0.1516072 0.030373292 0.12097278 -0.14120354
0.20225914 -0.15361555 0.0130835995 0.08543314 -0.046499074 -0.033407304 0.18781906 0.16423394
0.04095293 0.16983 0.026309324 -0.015454045 -0.029149974 -0.015968716 -0.006262833 0.084810674
0.1557221 0.032826647 -0.017150044 -0.0056557003 0.20394383 -0.19836444 0.28144965 0.10220305
0.19321954 0.027343653 0.100299776 0.08595352 0.14015855 -0.07944348 0.13382678 0.13390023
-0.087534904 0.25597396 0.17816432 -0.06626002 0.054137357 -0.025091665 0.16331758 0.07554547
0.034074172 0.032732755 -0.05940349 -0.07612964 -0.13430738 0.14372534 0.072563715 0.05954223
0.13708699 0.010267085 0.036142144 -0.07927266 -0.013566523 0.11005129 0.075895056 -0.25157717
-0.09502473 0.1058612 0.09280353 0.04600672 -0.14409788 0.055808898 0.0989179 0.009525897
-0.22540087 -0.122767225 -0.11056924 0.08082652 -0.07957542 -0.069481894 0.108538166 0.0315087
0.101820156 -0.120016225 0.07068887 -0.002766167 -0.19948938 -0.0773044 -0.02197016 0.02310378
-0.002472262 0.046196528 -0.04884148 0.111261204 0.045789473 -0.08785488 0.11712733 0.019744053
0.09480607 0.011176644 -0.12463416 -0.18046178 -0.014079141 -0.052745342 0.06561992 -0.10144079
-0.015385761 0.24290924 -0.0765193 -0.015042661 -0.097740285 0.040517703 -0.0015559867 0.054955572
0.08900794 -0.1411153 0.046451118 -0.090951204 0.09925142 -0.14656535 0.18563683 0.02768169
-0.021222766 0.05795515 -0.24530543 0.20404443 -0.009849378 -0.20325728 0.08043222 0.16575624
-0.4058754 -0.20296948 0.17374846 -0.082464054 -0.10987985 -0.117081836 -0.025055688 0.13158119
0.08223204 0.046916068 0.026905084 0.17188638 0.06623452 -0.008605124 0.15894526 0.110739924
-0.022882402 0.030419787 0.022498868 0.05729341 -0.18779147 0.14382973 0.047668662 -0.35617554
-0.19302489 0.11140753 -0.28123096 0.19462766 -0.009192533 -0.09717743 0.095407225 -0.035131354
0.042526703 0.06316278 -0.05620612 -0.13014485 -0.066125944 -0.017883627 -0.16449818 0.21793194
-0.021531874 0.09132066 -0.17310834 -0.18646246 -0.0016664688 0.1144365 -0.013430953 0.19058673
-0.0037830055 0.006705265 -0.07125362 0.04092054 0.03627781 -0.17819881 0.33909464 0.023290375
-0.14586698 -0.08218265 0.14250265 0.08414792 0.0021889068 -0.04327438 -0.0958578 0.04519299
0.19442114 0.084893495 0.017415743 -0.0777942 -0.11275653 0.35176086 0.025776392 0.045264423
-0.1133002 -0.07827018 -0.021799376 -0.020582132 -0.087581106 -0.13265783 -0.1563709 -0.039243966
0.032717373 -0.010025612 -0.10987763 -0.022926044 -0.024880534 0.0065163556 0.20356077 0.013612499
-0.060117844 0.020158593 -0.008532943 0.19455983 0.13228782 -0.022212585 -0.009480918 -0.0021015808
0.021939406 -0.02899977 -0.020192219 0.23072776 -0.15900604 -0.17773764 0.019014642 0.23475212
00000000: d00e 9e3d 8e5b 783d 153c 01bd 9e47 16be
00000010: 8245 c1bd 456d acbd 0b4d 003e bcaa 00bd
00000020: 4d6c 0a3e 5ac7 2fbd 8cbd f6bd 4ca0 67be
00000030: 975d 44bd 595a efbd 96e0 fe3c 244c 9d3d
00000040: 2720 38be a04f 93bc 860a 1cbd fedf 183c
00000050: cb19 d1bd c79d 933d f827 92bd af86 bebd
00000060: 9134 0dbe 2f3b 253d e88d d83d e65f e139
00000070: eb3e 1b3e 69d1 f83c 94c0 f73d a997 10be
00000080: 051d 4f3e 654d 1dbe 985c 563c 92f7 ae3d
00000090: d075 3ebd 19d6 08bd a453 403e f12c 283e
000000a0: 42be 273d eae7 2d3e a786 d73c f632 7dbc
000000b0: edcb eebc d3d0 82bc 7338 cdbb 38b1 ad3d
000000c0: 9d75 1f3e 3c75 063d 407e 8cbc 7453 b9bb
000000d0: a7d6 503e 0c20 4bbe 2b1a 903e d54f d13d
000000e0: 58db 453e ccff df3c f869 cd3d 6608 b03d
000000f0: b985 0f3e 43b3 a2bd e309 093e 241d 093e
00000100: 8045 b3bd 050f 833e b570 363e 55b3 87bd
00000110: 22bf 5d3d 098d cdbc b93c 273e 95b7 9a3d
00000120: 5c91 0b3d c812 063d 1351 73bd dbe9 9bbd
00000130: e087 09be bc2c 133e 499c 943d 8ee2 733d
00000140: 8860 0c3e 4737 283c c909 143d b459 a2bd
00000150: 1f46 5ebc 9262 e13d de6e 9b3d b9ce 80be
00000160: 539c c2bd c2cd d83d c70f be3d 8b71 3c3d
00000170: 658e 13be df97 643d 7895 ca3d 8212 1c3c
00000180: 7ccf 66be 626d fbbd 2072 e2bd 6088 a53d
00000190: 70f8 a2bd 864c 8ebd 4249 de3d 440f 013d
000001a0: 1687 d03d 11cb f5bd 54c5 903d 9548 35bb
000001b0: f246 4cbe c551 9ebd c4fa b3bc 2344 bd3c
000001c0: ac05 22bb 9238 3d3d 010e 48bd eadc e33d
000001d0: be8d 3b3d 42ed b3bd 74e0 ef3d 48be a13c
000001e0: af29 c23d 3e1e 373c 3240 ffbd f9ca 38be
000001f0: 33ac 66bc 800b 58bd bd63 863d 30c0 cfbd
00000200: 8f14 7cbc 33bd 783e 27b6 9cbd 7e75 76bc
00000210: 0f2c c8bd e4f5 253d 40f2 cbba 1819 613d
00000220: cb49 b63d 8780 10be 8743 3e3d a044 babd
00000230: 5444 cb3d 3a15 16be 9517 3e3e b6c4 e23c
00000240: 5edb adbc 6162 6d3d 5931 7bbe 06f1 503e
00000250: 495f 21bc ad22 50be a6b9 a43d 01bc 293e
00000260: e7ce cfbe 3bd7 4fbe 1eeb 313e eae2 a8bd
00000270: b008 e1bd 9ac8 efbd 9641 cdbc 38bd 063e
00000280: 4669 a83d 102b 403d 0d68 dc3c fc02 303e
00000290: f7a5 873d 82fc 0cbc 8cc2 223e 9dcb e23d
000002a0: e073 bbbc eb32 f93c 8c4f b83c 7fac 6a3d
000002b0: 684c 40be 1a48 133e 3740 433d a45c b6be
000002c0: 51a8 45be a229 e43d 81fd 8fbe 794c 473e
000002d0: 479c 16bc f604 c7bd dd64 c33d e5e5 0fbd
000002e0: 7b30 2e3d 7d5b 813d 6338 66bd b144 05be
000002f0: 0a6d 87bd af80 92bc 3672 28be 8d29 5f3e
00000300: 9d63 b0bc 5406 bb3d 5043 31be 04f0 3ebe
00000310: 6a6d daba af5d ea3d 800d 5cbc 2b29 433e
00000320: 4dec 77bb d7b7 db3b 6bed 91bd 4c9c 273d
00000330: 0a98 143d c079 36be d09d ad3e 75cb be3c
00000340: 275e 15be 614f a8bd 37ec 113e bf55 ac3d
00000350: c373 0f3b 7a40 31bd 1851 c4bd 491c 393d
00000360: 5616 473e a4dc ad3d 76ab 8e3c 9152 9fbd
00000370: e5ec e6bd 001a b43e 0329 d33c 3067 393d
00000380: ef09 e8bd 1e4c a0bd 9b94 b2bc dc9b a8bc
00000390: b95d b3bd 74d7 07be b11f 20be 48be 20bd
000003a0: a702 063d 7742 24bc 8607 e1bd 66cf bbbc
000003b0: 43d2 cbbc 2787 d53b 3c72 503e f606 5f3c
000003c0: 213e 76bd a223 a53c c2cd 0bbc b13a 473e
000003d0: 7576 073e 2bf7 b5bc da55 1bbc adba 09bb
000003e0: 45ba b33c ed90 edbc 276a a5bc e643 6c3e
000003f0: 7bd2 22be db00 36be 98c4 9b3c dc62 703e
