models/model.tflite (tflite, 243428 bytes, 25 tensors)

sequential/conv2d/BiasAdd/ReadVariableOp f4 [28]
-0.42301401 0.9803076 0.06429513 1.4798727 0.4205591 0.3319291 1.3680321 -0.26260868
-0.13519366 -0.27712238 0.567454 -0.1813442 0.07098681 0.060952652 0.89142036 1.0242445
0.22303818 0.7631969 0.784084 0.20704876 -0.11497192 0.87359107 -0.29246175 0.08338293
-0.42069292 -0.20367384 -0.390915 0.021075549
00000000: 4b95 d8be 70f5 7a3f 2aad 833d 786c bd3f
00000010: 8653 d73e 9cf2 a93e ad1b af3f a574 86be
00000020: 3570 0abe fce2 8dbe aa44 113f 4bb2 39be
00000030: 8861 913d 7da9 793d 2034 643f 721a 833f
00000040: 1f64 643e df60 433f bbb9 483f 9704 543e
00000050: 6676 ebbd aaa3 5f3f 8cbd 95be abc4 aa3d
00000060: 1065 d7be e08f 50be 0326 c8be a1a6 ac3c

sequential/conv2d_1/BiasAdd/ReadVariableOp f4 [32]
-0.43383747 0.07016624 0.2026302 -0.01059765 0.11391515 -0.17067882 0.27831188 0.07999916
0.42959592 -0.06938998 0.14690256 0.6120131 0.6384297 -0.30001447 -0.042412724 -0.29366234
0.22389756 0.5552894 0.06076488 -0.13496372 0.009583972 0.54527134 0.47328016 -0.06054758
0.054713495 0.34922075 0.2104421 0.25384426 0.2618525 0.14760524 0.17018203 -0.097846694
00000000: f21f debe 51b3 8f3d 4b7e 4f3e c4a1 2dbc
00000010: 594c e93d 6ec6 2ebe e57e 8e3e 99d6 a33d
00000020: fff3 db3e 551c 8ebd a06d 163e e4ac 1c3f
00000030: 2170 233f 7f9b 99be f7b8 2dbd e95a 96be
00000040: 6745 653e 7227 0e3f 98e4 783d ee33 0abe
00000050: 1806 1d3c e796 0b3f c751 f23e bd00 78bd
00000060: 421b 603d 10cd b23e 227e 573e e0f7 813e
00000070: 8811 863e d425 173e 3344 2e3e d963 c8bd

sequential/conv2d_2/BiasAdd/ReadVariableOp f4 [60]
-0.26263878 -0.19416991 -0.51941454 -0.32436162 -0.3139597 -0.3521615 -0.715584 -0.1822649
-0.2879437 0.0044852514 -0.32641783 -0.414442 -0.15994559 -0.05564344 -0.038751766 0.10265444
-0.69798464 -0.35470775 0.051699884 -0.38170487 -0.39202157 -0.5754548 -0.34208363 -0.38132197
-0.71714586 -0.31500575 -0.57602483 0.037267745 -0.6749183 -0.09616797 -0.40720516 -0.3971225
-0.37003833 0.11530484 -0.6101969 0.08924015 -0.52299434 -0.5044964 -0.01437879 -0.28217456
-0.01677683 -1.1202648 -0.40220082 -0.337871 -0.69926953 0.10284318 -0.44731197 -0.5198891
-0.27662587 -0.3611497 -0.28973174 -0.18700574 -0.1981753 -0.0979267 -0.33061552 0.14413059
-0.67628014 0.26457527 0.23308197 0.050416756
00000000: 9778 86be 7ad4 46be 5af8 04bf ba12 a6be
00000010: 53bf a0be 834e b4be 8330 37bf a6a3 3abe
00000020: 5b6d 93be 04f9 923b 3d20 a7be be31 d4be
00000030: c7c8 23be 60ea 63bd 2cba 1ebd 7e3c d23d
00000040: 1faf 32bf 419c b5be 42c3 533d d26e c3be
00000050: 0db7 c8be 0151 13bf 9625 afbe a23c c3be
00000060: df96 37bf 6f48 a1be 5d76 13bf 10a6 183d
00000070: 72c7 2cbf b6f3 c4bd 327d d0be a453 cbbe
00000080: aa75 bdbe f224 ec3d dd35 1cbf 8ac3 b63d
00000090: f5e2 05bf ad26 01bf 0495 6bbc 2f79 90be
000000a0: 906f 89bc d664 8fbf 44ed cdbe 6dfd acbe
000000b0: 5403 33bf 729f d23d 1306 e5be 7417 05bf
000000c0: e8a1 8dbe 9de8 b8be b857 94be 6f7e 3fbe
000000d0: 77ee 4abe cb8d c8bd 7046 a9be f896 133e
000000e0: b220 2dbf 6976 873e 0aad 6e3e cd81 4e3d

sequential/conv2d/Conv2D f4 [28, 3, 3, 1]
-0.16249967 -0.35498333 0.088694 0.32430992 0.3218146 -0.08900033 0.2787181 0.05102022
-0.06623398 0.30875465 -0.2164264 -0.3015764 0.219265 0.5248867 -0.09464946 -0.3554535
0.051822554 0.035445284 0.061669346 -0.19266328 -0.3834964 0.4162227 0.116260745 0.45244938
-0.14432174 -0.3737083 0.061458264 0.3638826 0.14618185 -0.29867083 0.42904684 -0.22329378
-0.20443194 0.13257241 -0.17196444 -0.07440077 0.05783704 -0.14774455 0.12602854 0.21955112
0.02187652 0.40325296 0.04503967 -0.7648261 -0.14789958 -0.46331593 0.22750348 0.29636756
0.16291477 0.40307057 -0.30821356 0.33313367 -0.23407689 -0.15162702 -0.09899462 -0.24280037
-0.17186643 0.08898287 -0.1217031 -0.11273087 0.23223986 0.5233003 0.20682274 0.25389296
0.061283518 -0.16775528 -0.25248268 0.06991255 -0.64317083 -0.30465668 -0.19340932 -0.48598713
-0.5428446 0.24526957 0.0931583 -0.3193486 0.19342004 0.47480544 -0.18533985 -0.11964918
0.03468269 -0.0041393396 0.17383659 -0.38660148 -0.12168911 0.17708096 -0.1388974 -0.15522869
0.26730886 -0.006672254 -0.056219436 0.40446058 0.3698038 -0.08267457 -0.44337633 -0.42315117
-0.032265134 0.20973834 0.08018885 0.030469645 0.017339118 -0.02233674 0.42845002 -0.27287978
0.024967344 0.0033110133 -1.0444336 0.37190902 0.022171501 0.3246046 0.5095454 0.21445306
0.0046604946 -0.32281852 0.20552178 0.23128408 0.029336492 -0.31966835 0.67400223 -0.061765663
-0.20718686 0.15155679 0.12534015 -0.014707755 0.37405092 0.013054119 -0.13545242 -0.27585188
-0.0017700735 -0.3670255 0.24730256 0.2156926 -0.2970423 0.38692853 0.3551437 0.26151526
0.21150494 0.37671775 0.074304774 -0.014946248 0.22933288 -0.1410835 -0.25338727 -0.32868397
0.1419867 0.30619127 0.09691508 0.022931913 -0.21099289 -0.23911601 0.09027935 -0.23293808
-0.4679015 -0.24841204 0.3896897 0.40702173 -0.3424174 -0.046945825 0.32150197 -0.23799787
-0.26570332 0.23311089 0.3488068 0.44368082 0.22544214 0.15270759 0.39430058 0.17804162
-0.17353906 0.0648809 0.007882455 0.32151237 0.5527914 0.37118065 0.4321773 -0.10944025
-0.106270835 0.0122900065 -0.13097781 -0.2482055 -0.36339632 -0.58546966 -0.1748623 0.25367
-0.101384416 -0.48525208 0.20968689 0.004755321 -0.3041171 0.025746616 0.41973367 0.16407649
-0.26027504 0.042746093 0.37430423 -0.21875009 -0.27734667 0.24023561 0.2395687 0.0735626
-0.22285426 0.47417298 0.2864456 -0.24974701 0.04960898 0.23747599 0.093791954 -0.17009614
-0.25553337 0.13660441 -0.26270303 -0.36787373 -0.16532864 0.60057884 -0.15837564 0.087292634
0.1943359 0.23562202 0.13542365 0.30951753 0.15425846 0.14393623 0.016014112 -0.16947235
0.13920894 -0.118763275 -0.25608972 -0.091005124 0.13449898 0.0418418 0.017145026 0.6195293
0.5122114 0.26051432 -0.05476466 -0.05634559 -0.32921705 -0.21891971 -0.40263942 0.11803642
-0.063041255 0.05993099 0.2647085 -0.11346292 0.32544008 0.6887391 -0.13247973 -0.038799215
-0.1518387 0.34943718 0.17227142 -0.040943716
00000000: 5066 26be 60c0 b5be 33a5 b53d f30b a63e
00000010: e2c4 a43e ce45 b6bd 24b4 8e3e 94fa 503d
00000020: aea5 87bd 1715 9e3e e29e 5dbe 3968 9abe
00000030: 0187 603e fa5e 063f 93d7 c1bd 00fe b5be
00000040: e343 543d 132f 113d ff98 7c3d 8649 45be
00000050: a459 c4be 241b d53e 1d1a ee3d 72a7 e73e
00000060: 14c9 13be b256 bfbe a9bb 7b3d d24e ba3e
00000070: b2b0 153e 62eb 98be 07ac db3e 20a7 64be
00000080: 9b56 51be 10c1 073e 7217 30be 6e5f 98bd
00000090: 88e6 6c3d 594a 17be a00d 013e 02d2 603e
000000a0: 6336 b33c 2c77 ce3e 847b 383d a5cb 43bf
000000b0: fd72 17be bf37 edbe acf6 683e 7dbd 973e
000000c0: 21d3 263e 445f ce3e 2bce 9dbe 7f90 aa3e
000000d0: dab1 6fbe 1d44 1bbe b1bd cabd a9a0 78be
000000e0: c1fd 2fbe a73c b63d 7a3f f9bd 71df e6bd
000000f0: 49d0 6d3e 02f7 053f 57c9 533e 42fe 813e
00000100: 6d04 7b3d 0ac8 2bbe 6945 81be 502e 8f3d
00000110: d8a6 24bf f6fb 9bbe 180d 46be 4ed3 f8be
00000120: ddf7 0abf f227 7b3e c7c9 be3d a981 a3be
00000130: e70f 463e b319 f33e bbc9 3dbe a10a f5bd
00000140: 700f 0e3d 4ca3 87bb 3802 323e a1f0 c5be
00000150: 2438 f9bd b654 353e 1f3b 0ebe 45f4 1ebe
00000160: b5dc 883e eca2 dabb 5a46 66bd 7515 cf3e
00000170: ec56 bd3e 4951 a9bd 3902 e3be 45a7 d8be
00000180: 7228 04bd a6c5 563e 0d3a a43d 7a9b f93c
00000190: c40a 8e3c 8afb b6bc cd5d db3e e6b6 8bbe
000001a0: 5188 cc3c 96fd 583b 00b0 85bf dc6a be3e
000001b0: 02a1 b53c 9332 a63e 9171 023f 9599 5b3e
000001c0: 10b7 983b 7848 a5be 4d74 523e bcd5 6c3e
000001d0: 1553 f03c 92ab a3be 698b 2c3f fefd 7cbd
000001e0: cb28 54be b431 1b3e 2b59 003e ccf8 70bc
000001f0: 9a83 bf3e f2e0 553c 0ab4 0abe 753c 8dbe
00000200: d001 e8ba c4ea bbbe e23c 7d3e 85de 5c3e
00000210: ee15 98be 7f1b c63e 65d5 b53e 54e5 853e
00000220: c094 583e 26e1 c03e 1a2d 983d 1ce1 74bc
00000230: 3dd6 6a3e 3178 10be fabb 81be 4449 a8be
00000240: f664 113e 1ac5 9c3e 6a7b c63d b5db bb3c
00000250: 850e 58be d4da 74be 61e4 b83d 5287 6ebe
00000260: c990 efbe ba5f 7ebe 6985 c73e 2765 d03e
00000270: 5551 afbe 444a 40bd e89b a43e b7b5 73be
00000280: 440a 88be 9fb4 6e3e ce96 b23e 222a e33e
00000290: 4eda 663e 615f 1c3e c4e1 c93e 8b50 363e
000002a0: 39b4 31be 47e0 843d 6a25 013c 459d a43e
000002b0: bd83 0d3f 640b be3e 5846 dd3e 3622 e0bd
000002c0: 86a4 d9bd 065c 493c 0c1f 06be 9529 7ebe
000002d0: 150f babe 57e1 15bf 1a0f 33be 09e1 813e
000002e0: a2a2 cfbd f672 f8be 29b8 563e 86d2 9b3b
000002f0: 3db5 9bbe 91ea d23c 55e7 d63e ab03 283e
00000300: c542 85be 8716 2f3d cea4 bf3e 0600 60be
00000310: 6200 8ebe 5300 763e 7f51 753e fda7 963d
00000320: e833 64be cdc6 f23e ffa8 923e aebd 7fbe
00000330: c932 4b3d e82c 733e ff15 c03d af2d 2ebe
00000340: 45d5 82be 07e2 0b3e 0381 86be f259 bcbe
00000350: e94b 29be 89bf 193f 392d 22be 7bc6 b23d
00000360: fdff 463e e646 713e 7fac 0a3e 1579 9e3e
00000370: eef5 1d3e 0564 133e 0730 833c 298a 2dbe
00000380: ca8c 0e3e 293a f3bd 311e 83be e560 babd
00000390: 1aba 093e 4f62 2b3d ba73 8c3c 7999 1e3f
000003a0: 4920 033f 2262 853e e850 60bd a2ca 66bd
000003b0: 238f a8be 7d2c 60be c126 cebe 14bd f13d
000003c0: c61b 81bd 337a 753d df87 873e 3f5f e8bd
000003d0: 15a0 a63e 3551 303f c4a8 07be edeb 1ebd
000003e0: 9b7b 1bbe 6ee9 b23e eb67 303e 99b4 27bd

sequential/conv2d_1/Conv2D f4 [32, 3, 3, 28]
0.25022346 0.288321 0.29760632 0.16947068 -0.07813397 0.45172703 0.3515139 -0.3823468
-0.8116061 0.04819929 0.035881646 -0.44704577 0.07839557 -0.10715317 -0.54475504 0.3660666
0.4795129 -0.38978776 0.7984711 0.7036621 -0.2444958 -0.29099083 0.25715557 -0.43765643
0.18609196 0.2287017 -0.24028592 0.5461128 0.03856765 -0.05655279 -0.01538043 0.29996985
0.017587349 0.17608249 0.21007457 -0.23837313 -0.48000607 0.022574248 -0.13644738 -0.13408545
-0.08259721 0.042327717 0.014727164 0.03532144 0.036399174 -0.28669456 -0.03503091 0.23259056
-0.08248584 -0.23343319 0.18683216 -0.18064402 0.058773253 -0.36450914 -0.18599992 -0.16624716
-0.14516328 0.14656222 0.050391305 0.2699645 0.06492887 -0.30835858 0.073695146 -0.15232557
-0.16405198 -0.034579195 -0.22002263 -0.12358354 0.21251178 -0.024879385 -0.3884983 -0.007150285
0.23126557 0.14950013 -0.20167492 -0.5004009 0.024706341 0.18038496 0.13008425 -0.27357787
0.2729068 0.08975518 -0.25959253 0.20960256 -0.13750601 -0.40903187 0.04329454 0.43430066
0.1622637 -0.32206354 -0.58483106 0.12160673 -0.28541997 0.0036477714 0.092622876 -0.025577005
0.047276072 -0.07788941 -0.42156407 0.2484719 0.47835475 -0.32134807 0.2452204 0.15677762
-0.39924613 -0.21860439 0.41530734 -0.21398579 0.32453993 0.21272969 0.034970544 -0.04454559
-0.08060565 0.33708063 -0.12122066 0.024240129 0.053924363 -0.55312747 -0.13135603 0.057710797
-0.057984266 -0.07027711 0.011840895 0.08348816 -0.07647026 0.07206496 -0.0703745 0.058526
0.10036035 0.07813446 -0.29856992 -0.31527126 -0.1751907 -0.08261994 0.03564086 -0.124383464
0.17652757 0.1745703 -0.03517563 -0.15401156 -0.16454768 0.16597189 -0.2910726 0.07288631
-0.19978431 -0.45730978 0.38539985 0.03569784 -0.3271943 0.022639094 0.08938132 -0.033177424
0.22855134 0.301293 -0.06181869 0.11050314 0.16131212 0.047154076 0.12630908 -0.47759604
-0.1413645 0.22332777 0.046444114 0.022230811 0.16945343 0.05282551 -0.17138505 0.3274407
0.10514381 0.2800256 0.27711487 -0.5344884 -0.0045839245 -0.339948 0.98586166 -0.24570315
-0.3467281 -0.022946447 -0.06621291 0.02543921 0.080500074 -0.080056764 0.1944347 -0.13284548
-0.26968527 -0.24892814 0.12375792 0.42803746 -0.045823555 0.00091001124 0.34521136 0.45877704
0.17008995 0.11789319 -0.10671155 0.046206884 0.31340966 0.2403383 0.294776 -0.69413656
-0.15376785 -0.23573092 0.747923 -0.21759121 0.10319512 -0.073449865 0.31134295 -0.14254156
0.04965805 -0.2992466 0.08473198 -0.03346177 -0.39829823 -0.22457235 0.0003451379 0.1843895
0.029496655 0.2724443 0.16419393 0.49186227 0.14598545 0.062916085 -0.024090383 -0.08999507
-0.1547038 0.2627251 0.19127625 -0.08801728 -0.09218655 -0.079514824 0.6584059 -0.1604941
-0.06638593 0.0609799 0.20136234 -0.24173577 0.24624044 0.23942624 0.4972219 0.24473599
-0.22922222 -0.2340273 -0.10922786 0.029665 -0.13347915 0.3950052 0.31219876 -0.105826415
0.35405114 -0.11719935 -0.002538501 0.50414747 -0.032186627 -0.5849592 -0.50275123 -0.7766725
00000000: 4a1d 803e cf9e 933e db5f 983e b989 2d3e
00000010: b404 a0bd c448 e73e a1f9 b33e f6c2 c3be
00000020: 6bc5 4fbf 9e6c 453d a2f8 123d 2fe3 e4be
00000030: db8d a03d 1f73 dbbd 1175 0bbf 156d bb3e
00000040: b782 f53e 4392 c7be 9a68 4c3f 3323 343f
00000050: 1b5d 7abe c0fc 94be e5a9 833e 8114 e0be
00000060: e48e 3e3e c730 6a3e 830d 76be 0cce 0b3f
00000070: 1df9 1d3d e6a3 67bd 33fe 7bbc a695 993e
00000080: 5813 903c f84e 343e ca1d 573e 1618 74be
00000090: 5bc3 f5be a1ed b83c ddb8 0bbe b24d 09be
000000a0: ba28 a9bd d45f 2d3d 344a 713c 37ad 103d
000000b0: 4d17 153d a1c9 92be 927c 0fbd 382c 6e3e
000000c0: 56ee a8bd 1c09 6fbe ee50 3f3e bffa 38be
000000d0: 39bc 703d f1a0 babe c376 3ebe b23c 2abe
000000e0: afa5 14be 6814 163e 1d67 4e3d c938 8a3e
000000f0: 6df9 843d 2de1 9dbe 7bed 963d 3cfb 1bbe
00000100: 3efd 27be eaa2 0dbd 9d4d 61be 5e19 fdbd
00000110: b09c 593e dacf cbbc 40e9 c6be f04c eabb
00000120: e2d0 6c3e 9016 193e df83 4ebe 461a 00bf
00000130: f464 ca3c d6b6 383e ce34 053e 6612 8cbe
00000140: 71ba 8b3e 90d1 b73d 50e9 84be 0ea2 563e
00000150: 60ce 0cbe a06c d1be 9e55 313d a85c de3e
00000160: 7528 263e 83e5 a4be 7db7 15bf f30c f93d
00000170: 9122 92be 730f 6f3b 10b1 bd3d de86 d1bc
00000180: 8ea4 413d 7c84 9fbd 3fd7 d7be 6b6f 7e3e
00000190: eaea f43e bc87 a4be 0e1b 7b3e 508a 203e
000001a0: fd69 ccbe d4d9 5fbe 2aa3 d43e 171f 5bbe
000001b0: 192a a63e d0d5 593e 463d 0f3d 7075 36bd
000001c0: 9314 a5bd d595 ac3e 8a42 f8bd 3c93 c63c
000001d0: cbdf 5c3d c399 0dbf 3282 06be 2862 6c3d
000001e0: e980 6dbd 72ed 8fbd 5000 423c d7fb aa3d
000001f0: 719c 9cbd cb96 933d 8120 90bd f5b8 6f3d
00000200: ba89 cd3d f604 a03d 28de 98be 3c6b a1be
00000210: 3165 33be a534 a9bd 27fc 113d c2bc febd
00000220: a5c3 343e 8fc2 323e 5214 10bd 35b5 1dbe
00000230: 307f 28be 89f4 293e 7807 95be 6b45 953d
00000240: 4294 4cbe 8224 eabe 2153 c53e e637 123d
00000250: 0386 a7be 9f75 b93c 8e0d b73d 0de5 07bd
00000260: 5d09 6a3e 1343 9a3e 9835 7dbd 784f e23d
00000270: 012f 253e a224 413d 2b57 013e 7887 f4be
00000280: dbc1 10be 09b0 643e 2f3c 3e3d 641d b63c
00000290: 3385 2d3e 905f 583d 907f 2fbe 4fa6 a73e
000002a0: a355 d73d 845f 8f3e 00e2 8d3e 3bd4 08bf
000002b0: bf34 96bb aa0d aebe 6e61 7c3f 9b99 7bbe
000002c0: 5886 b1be 30fa bbbc a29a 87bd e465 d03c
000002d0: 39dd a43d cdf4 a3bd e419 473e a508 08be
000002e0: 3014 8abe 05e7 7ebe cb74 fd3d ba27 db3e
000002f0: 7bb1 3bbd d28d 6e3a 8bbf b03e d3e4 ea3e
00000300: 0f2c 2e3e fc71 f13d 968b dabd 6e43 3d3d
00000310: 3b77 a03e 3e1b 763e e1ec 963e efb2 31bf
00000320: 5275 1dbe 7263 71be e277 3f3f 3bd0 5ebe
00000330: f757 d33d e26c 96bd 5868 9f3e 6af6 11be
00000340: 3d66 4b3d da36 99be f687 ad3d 350f 09bd
00000350: bfed cbbe 4bf6 65be a0f3 b439 9ad0 3c3e
00000360: f8a2 f13c d27d 8b3e 7422 283e 5fd5 fb3e
00000370: 367d 153e 26da 803d 3259 c5bc 564f b8bd
00000380: ac6a 1ebe e883 863e ecdd 433e 6742 b4bd
00000390: 4dcc bcbd abd8 a2bd 4a8d 283f 9158 24be
000003a0: 59f5 87bd 0fc6 793d ee31 4e3e 9589 77be
000003b0: 7426 7c3e 272c 753e de93 fe3e 129c 7a3e
000003c0: 3bb9 6abe daa4 6fbe dbb2 dfbd 0404 f33c
000003d0: c2ae 08be 1f3e ca3e 84d8 9f3e 85bb d8bd
000003e0: 3146 b53e 3606 f0bd fb5c 26bb cf0f 013f
000003f0: 20d6 03bd e3bf 15bf 4eb4 00bf 02d4 46bf

sequential/conv2d_2/Conv2D f4 [60, 3, 3, 32]
0.45704323 -0.10059875 -0.4178655 -0.6588745 -0.01938347 0.016934214 -0.10590613 -0.016400067
-0.054474007 -0.025829436 0.021980252 0.44210744 -0.4140763 -0.29803088 0.29125053 -0.16539273
0.22909875 -0.22685437 0.20676868 -0.010585446 0.17439757 0.026573913 0.25087893 -0.12917663
0.08299735 0.03433956 0.17196502 -0.054788146 -0.33071828 0.1475875 -0.0271745 -0.34450266
-0.16328824 -0.14564914 -0.31510273 -0.7535912 0.27379933 -0.23722039 -0.26617035 0.40821025
0.026502386 -0.40574953 -0.5675145 0.33924356 -0.041660335 -0.22614156 -0.3867014 -0.13618678
0.2466657 -0.055151805 -0.19943571 0.21213916 -0.20518105 0.24956715 -0.10550672 -0.814116
0.33016944 0.18378438 0.2526584 -0.44228387 0.16218501 0.2971165 -0.36292914 -0.47425726
-0.44120753 -0.11142502 0.06812584 0.26633298 -0.37768614 0.084007785 -0.10304736 -0.35781956
-0.63200843 -0.21172132 0.040505238 -0.57636726 -0.34028786 -0.20923391 0.4031757 -0.7882844
-0.013181976 -0.16852126 0.03956079 0.26001236 -0.19547352 -0.16788033 -0.41552714 -0.431034
0.4152475 -0.43315175 0.20797507 -0.0053114076 -0.33082762 0.17350923 0.14751829 -0.12248579
0.23903738 -0.41009519 -0.021136083 0.322186 -0.41502288 0.09220031 -0.48456654 -0.2460222
0.025233522 0.3066843 0.46505722 0.22021373 0.06335725 -0.17109728 -0.19563375 -0.2783043
0.2239183 -0.22138985 0.13723044 0.22605672 -0.081303135 -0.021697985 -0.2908691 -0.0008982467
-0.2548895 -0.080138475 0.03468348 -0.17749526 0.040185012 0.2617975 -0.00038105217 0.4192179
0.1434626 0.300441 0.5299794 0.048694517 0.40850574 -0.48005095 -0.13183345 -0.13113865
-0.035225194 0.19581184 0.29851836 -0.40802217 -0.0028841477 0.22706364 -0.1492366 -0.45945153
-0.07220528 -0.21669945 0.30256322 -0.7887682 -0.536604 0.1105774 0.29238334 -0.442004
-0.5268882 -0.06475786 -0.10035482 -0.085279815 0.21922976 -0.01962441 -0.24794884 0.08984435
0.079052806 -0.28158557 0.0684444 -0.23875065 -0.56876034 -0.23249006 0.016035898 -0.4079321
-0.25225186 -0.30317146 -0.30225182 0.05573579 -0.23127438 -0.35621032 -0.18397515 -0.24328081
-0.31670666 -0.03477442 0.42740732 -0.16839373 -0.0053030206 -0.38058615 0.3754278 -0.41479242
-0.3119678 -0.84828395 0.029123345 0.09730507 0.13369091 -0.46667045 0.115406744 0.030750494
-0.11705137 -0.5568505 -0.012075144 -0.1743323 -0.23756029 -0.0096987225 -0.1605144 -0.19954613
-0.36258712 0.051001895 -0.0032903561 -0.10404919 -0.26696754 0.09572297 -0.61952037 -0.63387793
-0.108566396 -0.36279893 0.1126003 -0.021990674 0.19659834 -0.098357186 0.18462987 0.17733204
0.0128173195 -0.0130453175 -0.049587037 0.3522766 -0.16347231 0.09159227 -0.34547356 -0.01441014
-0.0594473 0.112335145 -0.7128046 -0.31642395 0.31255084 -0.08444577 0.15606998 -0.1503963
-0.17524703 0.4851409 0.021257564 0.49572536 -0.11181267 -0.64321524 -0.35723096 0.35783845
-0.020890793 -0.3864004 -0.19482738 -0.098803736 0.39263457 -0.28730637 0.22925487 0.30239984
0.18155673 -0.18625356 -0.5369373 0.05832767 -0.07333899 0.0699767 0.1946075 -0.17533068
00000000: 9201 ea3e b806 cebd 78f2 d5be 00ac 28bf
00000010: 15ca 9ebc 9fb9 8a3c 50e5 d8bd 6f59 86bc
00000020: 2320 5fbd 4198 d3bc ee0f b43c e85b e23e
00000030: cf01 d4be 8197 98be ca1e 953e b65c 29be
00000040: dd98 6a3e 834c 68be 2bbb 533e 946e 2dbc
00000050: 4795 323e 89b1 d93c 3473 803e e146 04be
00000060: 84fa a93d a3a7 0c3d 9917 303e 8969 60bd
00000070: e853 a9be 2d21 173e 0f9d debc a762 b0be
00000080: 0835 27be 0c25 15be 2555 a1be 5aeb 40bf
00000090: 6d2f 8c3e e7e9 72be 7b47 88be ef00 d13e
000000a0: 881b d93c 67be cfbe a148 11bf 55b1 ad3e
000000b0: 07a4 2abd a791 67be bafd c5be 8c74 0bbe
000000c0: ef95 7c3e dce6 61bd e038 4cbe 023b 593e
000000d0: fb1a 52be 888e 7f3e e813 d8bd e869 50bf
000000e0: f80b a93e f931 3c3e 715c 813e 0873 e2be
000000f0: d413 263e a71f 983e d9d1 b9be d9d1 f2be
00000100: f4e5 e1be cd32 e4bd 8f85 8b3d cc5c 883e
00000110: 1460 c1be 460c ac3d 7f0a d3bd 2034 b7be
00000120: 4ecb 21bf 79cd 58be d2e8 253d ce8c 13bf
00000130: 363a aebe 6a41 56be 0c6d ce3e 02cd 49bf
00000140: 37f9 57bc d690 2cbe 7f0a 223d 5720 853e
00000150: 362a 48be d2e8 2bbe f9bf d4be 7db0 dcbe
00000160: 529b d43e 11c6 ddbe 6bf7 543e 510b aebb
00000170: 3d62 a9be 67ac 313e 090f 173e d4d9 fabd
00000180: 37c6 743e fff7 d1be 9425 adbc 90f5 a43e
00000190: e17d d4be 84d3 bc3d 1b19 f8be 3eed 7bbe
000001a0: 88b6 ce3c b905 9d3e fb1b ee3e b57f 613e
000001b0: 72c1 813d 2034 2fbe 3754 48be e77d 8ebe
000001c0: d74a 653e 05b4 62be 2386 0c3e 6a7b 673e
000001d0: 4282 a6bd f9bf b1bc cbec 94be 5178 6bba
000001e0: e080 82be a41f a4bd 4410 0e3d 51c1 35be
000001f0: 0a99 243d 520a 863e f5c7 c7b9 bba3 d63e
00000200: dce7 123e 67d3 993e bbac 073f e773 473d
00000210: aa27 d13e 3dc9 f5be 59ff 06be 3649 06be
00000220: 4b48 10bd e682 483e 66d7 983e 48e8 d0be
00000230: f803 3dbb 5f83 683e 7bd1 18be 3b3d ebbe
00000240: 5de0 93bd 76e6 5dbe 91e9 9a3e b6ec 49bf
00000250: e15e 09bf 6776 e23d 45b3 953e 594e e2be
00000260: 25e2 06bf c59f 84bd d486 cdbd 2fa7 aebd
00000270: c47d 603e 5fc3 a0bc 4de6 7dbe 5100 b83d
00000280: 70e6 a13d fc2b 90be 942c 8c3d 0d7b 74be
00000290: 479a 11bf e011 6ebe b75d 833c 7adc d0be
000002a0: 2827 81be 4a39 9bbe c0c0 9abe 364b 643d
000002b0: 31d3 6cbe 3361 b6be fb63 3cbe 9b1e 79be
000002c0: 6027 a2be 9f6f 0ebd 22d5 da3e 686f 2cbe
000002d0: f6c4 adbb 30dc c2be 1338 c03e ac5f d4be
000002e0: 3eba 9fbe 2329 59bf 1594 ee3c e147 c73d
000002f0: 45e6 083e 6eef eebe 5f5a ec3d 76e8 fb3c
00000300: a1b8 efbd c18d 0ebf d3d6 45bc 2b84 32be
00000310: 0143 73be 64e7 1ebc e35d 24be d255 4cbe
00000320: 05a5 b9be 5de7 503d 04a3 57bb be17 d5bd
00000330: f8af 88be 680a c43d e398 1ebf d345 22bf
00000340: 0f58 debd c8c0 b9be fc9a e63d c925 b4bc
00000350: 1351 493e 7e6f c9bd 9d0f 3d3e 8896 353e
00000360: bcff 513c 07bc 55bc c71b 4bbd 995d b43e
00000370: 4965 27be ba94 bb3d e9e1 b0be 8218 6cbc
00000380: 037f 73bd f80f e63d 5d7a 36bf 5202 a2be
00000390: aa06 a03e e7f1 acbd cfd0 1f3e 7d01 1abe
000003a0: f573 33be 6364 f83e 5824 ae3c b7cf fd3e
000003b0: 0bfe e4bd c1a9 24bf fae6 b6be 9a36 b73e
000003c0: 2b23 abbc 46d6 c5be d480 47be 9d59 cabd
000003d0: 6607 c93e d219 93be cac1 6a3e 27d4 9a3e
000003e0: 02ea 393e 41b9 3ebe b974 09bf ffe8 6e3d
000003f0: c132 96bd f24f 8f3d 3047 473e e389 33be

sequential/dense/BiasAdd/ReadVariableOp f4 [64]
-0.39066237 0.14687593 -0.13510765 -0.3234586 -0.32260466 -0.4847979 -0.38530976 -0.33050317
-0.07386193 -0.14309278 -0.11330218 -0.17000693 -0.28648826 0.11858877 0.0687543 -0.5118728
-0.035901356 -0.20065188 -0.4635265 -0.37185428 -0.22494353 -0.10568116 0.03064876 -0.31299466
-0.41373247 -0.5085555 -0.34557578 0.00035896234 -0.58664733 -0.58571076 0.01745315 -0.1206546
0.044792045 0.009726026 -0.19392398 -0.07593439 -0.29052225 0.10225874 -0.11520723 0.11375437
-0.22784774 -0.5297394 -0.64363766 0.10651072 -0.3379822 -0.32333887 -0.55067825 -0.09302828
-0.3719336 -0.442511 -0.28207386 -0.042032268 -0.06990015 -0.3713115 -0.436859 -0.31577253
-0.22654918 -0.033607658 -0.16023004 -0.1482818 -0.044173166 -0.05046304 -0.12379378 0.10571502
00000000: e604 c8be a566 163e a959 0abe 5e9c a5be
00000010: 702c a5be 6e37 f8be 5247 c5be b637 a9be
00000020: ec44 97bd ea86 12be f90a e8bd 4c16 2ebe
00000030: 97ae 92be abde f23d 0ecf 8c3d 190a 03bf
00000040: 4d0d 13bd b077 4dbe 5853 edbe af63 bebe
00000050: 9957 66be 5d6f d8bd 1c13 fb3c d640 a0be
00000060: bed4 d3be b130 02bf 4fef b0be 1c33 bc39
00000070: 852e 16bf 24f1 15bf e9f9 8e3c c219 f7bd
00000080: dd77 373d e959 1f3c 0294 46be 7d83 9bbd
00000090: 55bf 94be 086d d13d c5f1 ebbd 0df8 e83d
000000a0: eb50 69be 009d 07bf 70c5 24bf 4b22 da3d
000000b0: 010c adbe ac8c a5be 40f9 0cbf 9c85 bebd
000000c0: 156e bebe cd90 e2be fc6b 90be 072a 2cbd
000000d0: cf27 8fbd 8a1c bebe fcab dfbe f0ac a1be
000000e0: 82fc 67be 2fa8 09bd 5813 24be 2fd7 17be
000000f0: ecee 34bd 55b2 4ebd 9887 fdbd 1e81 d83d

sequential/dense_1/BiasAdd/ReadVariableOp f4 [64]
0.09041133 0.104586855 -0.029414859 0.33916503 -0.16179752 -0.21014027 0.45083937 -0.19183233
-0.06258012 -0.025355645 0.3131797 -0.17322657 0.06666867 -0.082617216 -0.06970098 0.34460595
-0.5142607 0.093139425 0.25541294 0.14540632 0.2060771 0.31904975 0.36075687 -0.15590394
-0.030993605 -0.2211398 -0.027456999 0.006374173 -0.12665388 -0.066437505 0.30595255 0.3829484
0.26546922 0.5239365 0.3447775 0.19332398 0.32799926 0.121829405 -0.14489007 -0.08665182
-0.3918728 -0.06347528 -0.12749936 0.07834359 -0.01713624 0.16001049 -0.010719965 0.12342663
0.10577169 -0.25513378 0.27500552 -0.009549003 0.21434496 0.28778955 -0.029053647 0.0073758517
0.012070083 -0.06555978 0.21397322 -0.1442839 0.12077584 0.15809368 -0.38348213 -0.12543422
00000000: 9329 b93d a231 d63d 6ef7 f0bc 0aa7 ad3e
00000010: 40ae 25be 032f 57be 6bd4 e63e b26f 44be
00000020: 022a 80bd a4b6 cfbc 1759 a03e 4e62 31be
00000030: 9589 883d 3733 a9bd 63bf 8ebd 3170 b03e
00000040: 97a6 03bf e2bf be3d 7cc5 823e 65e5 143e
00000050: e005 533e 7d5a a33e 20b5 b83e 48a5 1fbe
00000060: 4de6 fdbc 7972 62be 80ed e0bc 70de d03b
00000070: 8eb1 01be 6310 88bd d0a5 9c3e d011 c43e
00000080: 95eb 873e b420 063f ad86 b03e b9f6 453e
00000090: 85ef a73e b281 f93d 105e 14be 8276 b1bd
000000a0: 8da3 c8be 54ff 81bd 318f 02be 9b72 a03d
000000b0: 4d61 8cbc cad9 233e cba2 2fbc 1ac7 fc3d
000000c0: d49e d83d e5a0 82be 86cd 8c3e 6c73 1cbc
000000d0: 3f7d 5b3e 2759 933e ea01 eebc 21b1 f13b
000000e0: 99c1 453c 3544 86bd cc1b 5b3e 29bf 13be
000000f0: 5359 f73d 4fe3 213e c557 c4be d471 00be

sequential/bidirectional/forward_lstm/Read_2/ReadVariableOp f4 [80]
0.002484082 -0.08716124 0.3353618 0.19883187 0.09463871 -0.532115 -0.08637397 -0.7138837
0.09049362 0.14349405 -0.567342 -0.11508081 0.1556724 0.07031555 -0.05352592 -0.047413908
0.15734595 0.0006794167 -0.10680899 -0.09886703 0.89996624 0.784686 1.3752888 1.0996165
1.2611843 0.9595701 0.9120686 0.87383866 0.8409534 0.91901207 1.0730433 0.85680485
0.98348176 1.0702107 0.84860957 1.2007952 1.1590289 0.72505546 0.8261096 0.86858124
0.08323478 0.28484008 0.6164233 0.3417805 0.021464167 -0.16330995 -0.4458308 -0.03782277
-0.3120425 -0.50326496 0.12332389 0.138295 -0.3725764 -0.35712954 -0.10167556 -0.60644245
0.36318368 -0.17619373 -0.25848332 0.49103388 0.10474063 0.02380655 0.13714854 0.055538725
-0.17198585 -0.60193557 0.26817325 -0.19836862 0.15272902 0.10802126 -0.17914389 -0.35928854
0.2744091 0.22485586 -0.10228673 -0.01660749 0.14096177 0.034172792 0.16266592 0.07889873
00000000: fbcb 223b 9881 b2bd 8bb4 ab3e 959a 4b3e
00000010: f1d1 c13d b038 08bf d6e4 b0bd 15c1 36bf
00000020: b854 b93d 1bf0 123e 533d 11bf 7daf ebbd
00000030: 9668 1f3e 9901 903d ff3d 5bbd 1635 42bd
00000040: 4c1f 213e e21a 323a acbe dabd cc7a cabd
00000050: 3064 663f 2fe1 483f 7709 b03f 3cc0 8c3f
00000060: 7d6e a13f 63a6 753f 547d 693f e4b3 5f3f
00000070: b948 573f 6044 6b3f 7c59 893f 9057 5b3f
00000080: 76c5 7b3f aafc 883f 7a3e 593f a8b3 993f
00000090: 0f5b 943f 3c9d 393f eb7b 533f 575b 5e3f
000000a0: ff76 aa3d 8fd6 913e ebcd 1d3f dbfd ae3e
000000b0: 9fd5 af3c b93a 27be ef43 e4be 0dec 1abd
000000c0: 09c4 9fbe f9d5 00bf 3c91 fc3d 349d 0d3e
000000d0: 55c2 bebe afd9 b6be 473b d0bd d03f 1bbf
000000e0: 36f3 b93e 216c 34be ed57 84be cb68 fb3e
000000f0: 4182 d63d f405 c33c ab70 0c3e 937c 633d
00000100: 0f1d 30be 7318 1abf 014e 893e 2521 4bbe
00000110: ff64 1c3e 403a dd3d 7f71 37be abf4 b7be
00000120: 597f 8c3e 9d40 663e b57b d1bd 6e0c 88bc
00000130: 4858 103e c5f8 0b3d e591 263e a895 a13d

sequential/bidirectional/backward_lstm/Read_2/ReadVariableOp f4 [80]
-0.18788047 0.02379456 0.17455935 0.060323894 -0.10133025 -0.37486887 -0.018930063 -0.027411247
-0.18026742 -0.04181623 -0.0031979198 -0.010308628 -0.08302719 0.10019836 0.34963554 0.16221565
-0.3624614 -0.10584229 -0.05062791 0.17787014 1.0572935 1.1997018 1.3328722 1.0390493
0.64188665 0.7241762 0.8072215 1.0086676 1.2433319 0.9412735 1.1878676 0.66407186
1.066633 0.70939356 0.8632924 1.1188347 0.41390762 1.0461305 0.9670978 0.9173175
0.26537198 -0.11678333 0.2021829 0.17049032 -0.34388435 -0.25667015 0.03487313 -0.41039485
-0.035824183 0.09400765 0.69617295 0.5116048 0.41002893 0.17082047 -0.2518464 0.45780355
-0.09333659 0.49244878 -0.36016792 0.19960652 -0.26806292 0.2742872 0.17420323 -0.019162634
-0.40928188 -0.024789646 0.043398745 0.026095074 0.032359388 0.13626695 -0.12364438 0.083718345
0.13404667 0.019025328 0.1444731 -0.3145994 -0.43766376 -0.12982944 0.14519611 -0.033506792
00000000: bd63 40be cfec c23c b0bf 323e 3016 773d
00000010: 3c86 cfbd d0ee bfbe 3813 9bbc 8d8d e0bc
00000020: 0698 38be 7f47 2bbd 3194 51bb 85e5 28bc
00000030: 290a aabd cc34 cd3d 6e03 b33e dc1b 263e
00000040: 8a94 b9be d8c3 d8bd 365f 4fbd 9723 363e
00000050: 6555 873f d48f 993f 8e9b aa3f 91ff 843f
00000060: af52 243f 9d63 393f 11a6 4e3f 051c 813f
00000070: 8025 9f3f 4df7 703f 0c0c 983f 9d00 2a3f
00000080: 6e87 883f d19a 353f bb00 5d3f fa35 8f3f
00000090: b3eb d33e 9be7 853f b993 773f 52d5 6a3f
000000a0: d6de 873e 192c efbd 0909 4f3e 0495 2e3e
000000b0: 9c11 b0be 456a 83be 21d7 0e3d 461f d2be
000000c0: 61bc 12bd 1587 c03d 6438 323f 88f8 023f
000000d0: 50ef d13e 90eb 2e3e 03f2 80be 3a65 ea3e
000000e0: 4127 bfbd 3f22 fc3e ee67 b8be a765 4c3e
000000f0: 8b3f 89be 5f6f 8c3e 5562 323e f5fa 9cbc
00000100: 658d d1be a813 cbbc e2c2 313d 56c5 d53c
00000110: 478b 043d 9089 0b3e 4439 fdbd 8674 ab3d
00000120: 8843 093e 01db 9b3c c2f0 133e 2c13 a1be
00000130: 7715 e0be 02f2 04be 4aae 143e 6b3e 09bd

sequential/batch_normalization/FusedBatchNormV3 f4 [28]
-0.016902672 1.888781 0.4437558 2.1412385 0.32974008 5.5537105 1.8704377 0.063636616
0.47656938 0.038475573 0.9414184 0.23471646 4.3823767 4.685852 1.0575485 0.910127
0.017680649 1.3092818 3.1252968 2.5474591 0.057485912 2.1339667 13.096327 0.30484423
10.263247 1.1700671 0.05003738 5.211751
00000000: 7977 8abc 93c3 f13f f633 e33e 0d0a 0940
00000010: b1d3 a83e ffb7 b140 816a ef3f ea53 823d
00000020: e700 f43e 9098 1d3d cc00 713f 8359 703e
00000030: 6e3c 8c40 80f2 9540 c05d 873f 15fe 683f
00000040: 02d7 903c 8c96 a73f dd04 4840 9209 2340
00000050: 5976 6b3d e992 0840 8e8a 5141 8b14 9c3e
00000060: 4236 2441 c2c4 953f fff3 4c3d aac6 a640

sequential/batch_normalization/FusedBatchNormV31 f4 [28]
-0.043257814 -0.73503566 -0.16119662 -1.9200574 -0.25776756 -0.7484747 -0.9950501 -0.62901783
-0.6929371 -0.08401486 -0.8234472 -0.4802771 0.076280825 -0.1852504 -0.66468835 -0.5324373
-0.104493074 -0.61835104 -0.06077227 -0.033894032 -0.4240991 -0.39713192 -0.0017470792 -1.1677873
-0.19711043 -0.14909269 -0.20510754 -0.07541867
00000000: 1b2f 31bd 4c2b 3cbf ba10 25be 71c4 f5bf
00000010: 1cfa 83be 0a9c 3fbf 9abb 7ebf 5007 21bf
00000020: 5364 31bf fc0f acbd 70cd 52bf e1e6 f5be
00000030: 1f39 9c3d 48b2 3dbe 0429 2abf d04d 08bf
00000040: 7700 d6bd 414c 1ebf 58ec 78bd 78d4 0abd
00000050: 8423 d9be e054 cbbe 40fe e4ba 0e7a 95bf
00000060: 51d7 49be c1ab 18be b607 52be 1b75 9abd

sequential/batch_normalization_1/FusedBatchNormV3 f4 [32]
0.16381057 0.286331 0.27473417 0.16383763 0.3819157 0.39651757 0.31446296 0.29981202
0.2433597 0.31684363 0.22076318 0.31896022 0.15821896 0.21510497 0.26203007 0.20083003
0.21278712 0.22088888 0.3546152 0.3257619 0.34086132 0.2644748 0.37239596 0.26805958
0.24308133 0.24660118 0.289168 0.32331184 0.27403444 0.3866342 0.23340437 0.2711801
00000000: f5bd 273e fa99 923e f5a9 8c3e 0dc5 273e
00000010: 748a c33e 5a04 cb3e 4a01 a13e f680 993e
00000020: 4933 793e 5439 a23e be0f 623e c14e a33e
00000030: 2704 223e 7a44 5c3e ce28 863e 63a6 4d3e
00000040: dee4 593e b230 623e 2090 b53e 44ca a63e
00000050: 6085 ae3e 3e69 873e afaa be3e 1b3f 893e
00000060: 50ea 783e 0585 7c3e d40d 943e 2189 a53e
00000070: 3e4e 8c3e ebf4 c53e 8e01 6f3e 1ed8 8a3e

sequential/batch_normalization_1/FusedBatchNormV31 f4 [32]
-0.41955402 -1.1178123 -1.3380709 -0.63244927 -1.3046858 -1.0204031 -1.2698369 -1.5724566
-0.6694209 -1.2124778 -0.88505757 -1.0747674 -0.8094907 -0.759614 -1.2226336 -1.5418876
-1.277925 -1.2309742 -1.2087426 -1.2689837 -1.2074564 -0.77660304 -1.0824388 -0.80504704
-1.0264453 -0.9755622 -1.3953097 -0.8812391 -1.447802 -1.2337394 -1.23593 -0.7487824
00000000: c9cf d6be 7914 8fbf e845 abbf 32e8 21bf
00000010: f2ff a6bf 929c 82bf 048a a2bf 4246 c9bf
00000020: 2b5f 2bbf 7932 9bbf 2293 62bf fa91 89bf
00000030: c83a 4fbf 1076 42bf 427f 9cbf 935c c5bf
00000040: 0c93 a3bf 9090 9dbf 14b8 9abf 0f6e a2bf
00000050: ee8d 9abf 75cf 46bf 5b8d 8abf 9017 4ebf
00000060: 8f62 83bf 72be 79bf 8299 b2bf e398 61bf
00000070: 9351 b9bf 2ceb 9dbf f432 9ebf 34b0 3fbf

sequential/batch_normalization_2/FusedBatchNormV3 f4 [60]
0.39863577 0.30855888 0.20885147 0.3257717 0.17934959 0.24043258 0.15670659 0.32802808
0.32643512 0.3216285 0.35282686 0.24537446 0.21830831 0.32267016 0.2595094 0.41173577
0.23903343 0.2935718 0.1554047 0.4893058 0.23612422 0.20371144 0.19784899 0.27933392
0.2372492 0.36674944 0.20919058 0.30556756 0.22113371 0.3009354 0.19096962 0.3724639
0.1926488 0.2323199 0.17347279 0.23901536 0.19673726 0.3273151 0.4492107 0.34934795
0.28464246 0.31742457 0.15620863 0.23329297 0.20671938 0.10936696 0.18371005 0.17099583
0.3236243 0.23135851 0.27389288 0.37250787 0.19789463 0.3828215 0.25734556 0.22307748
0.33266905 0.28766856 0.21226488 0.31469667
00000000: fd19 cc3e 6efb 9d3e 29dd 553e 8ccb a63e
00000010: 6ba7 373e f533 763e b177 203e 4cf3 a73e
00000020: 8122 a73e 7eac a43e b9a5 b43e 7143 7b3e
00000030: 378c 5f3e 0635 a53e 6bde 843e 08cf d23e
00000040: 2ec5 743e 0b4f 963e 6922 1f3e 4a86 fa3e
00000050: 8cca 713e bb99 503e ed98 4a3e db04 8f3e
00000060: 74f1 723e 95c6 bb3e 0e36 563e 5a73 9c3e
00000070: e070 623e 3414 9a3e 8a8d 433e 97b3 be3e
00000080: ba45 453e 45e5 6d3e daa2 313e 71c0 743e
00000090: 7e75 493e d895 a73e f2fe e53e bcdd b23e
000000a0: a8bc 913e 7985 a23e 28f5 1f3e 5ae4 6e3e
000000b0: 3fae 533e c9fb df3d 7d1e 3c3e 8819 2f3e
000000c0: 16b2 a53e 3fe9 6c3e b03b 8c3e 5ab9 be3e
000000d0: e4a4 4a3e 2e01 c43e ccc2 833e 6c6e 643e
000000e0: 9953 aa3e 4b49 933e f75b 593e ec1f a13e

sequential/batch_normalization_2/FusedBatchNormV31 f4 [60]
-0.21505031 -0.6406376 -0.32975766 -0.38107336 -0.5054237 -0.16677968 -0.4593393 -0.3353938
-0.26597497 -0.29287767 -0.51242626 -0.5529603 -0.30585295 -0.22914626 -0.37784132 -0.17269754
-0.44766778 -0.23403208 -0.57544947 -0.12204519 -0.334199 -0.54845876 -0.48745382 -0.33775413
-0.31264356 -0.28197592 -0.5333623 -0.09320404 -0.6075822 -0.31919074 -0.59327984 -0.29188302
-0.26042506 -0.44202638 -0.42713815 -0.4584728 -0.26406252 -0.3644689 -0.50896955 -0.3146037
-0.54622835 -0.5255124 -0.5821747 -0.48153773 -0.45423245 -0.3276249 -0.53282344 -0.57952726
-0.39405268 -0.2992476 -0.516897 -0.34034365 -0.3138466 -0.39018854 -0.39133772 -0.7472814
-0.45587316 -0.48869243 -0.661997 -0.39250392
00000000: 2636 5cbe d300 24bf ffd5 a8be 0c1c c3be
00000010: 7363 01bf 4bc8 2abe 852e ebbe bcb8 abbe
00000020: df2d 88be 10f4 95be 5e2e 03bf ce8e 0dbf
00000030: c298 9cbe 51a5 6abe 6b74 c1be a0d7 30be
00000040: b634 e5be 1ba6 6fbe a850 13bf d4f2 f9bd
00000050: 221c abbe cb67 0cbf 8c93 f9be 1cee acbe
00000060: d112 a0be 265f 90be 6f8a 08bf c2e1 bebd
00000070: 828a 1bbf f86c a3be 30e1 17bf b171 95be
00000080: 6f56 85be 4851 e2be dab1 dabe f2bc eabe
00000090: 3433 87be ab9b babe d44b 02bf bc13 a1be
000000a0: 9fd5 0bbf fb87 06bf 6709 15bf 1d8c f6be
000000b0: 2891 e8be 73be a7be 1e67 08bf e65b 14bf
000000c0: 46c1 c9be fb36 99be 5d53 04bf 8641 aebe
000000d0: 80b0 a0be cbc6 c7be 6b5d c8be d54d 3fbf
000000e0: 3568 e9be e535 fabe a378 29bf 46f6 c8be

sequential/dense/MatMul f4 [64, 40]
-0.154597 -0.18410955 -0.3410345 -0.2657345 0.46835876 0.2479847 0.043125127 0.072672166
0.26109752 0.33848658 0.12980656 -0.050645754 0.55712384 0.1287662 0.30982897 0.45500207
-0.21860129 0.1713208 0.58390325 -0.39658022 -0.2587039 0.3649513 -0.2094595 -0.45294878
0.12309766 0.42490917 -0.40363148 0.5536357 0.053143766 -0.33515325 -0.78297263 -0.51858103
-0.3003245 -0.4217953 0.3560982 -0.13511805 -0.5558777 -0.18108128 0.25069982 0.0831942
-0.06799337 0.0966196 0.57445157 0.3103823 -0.40835047 -0.6517318 -0.43185687 -0.20702656
-0.6440584 -0.08860276 0.2521133 -0.019342225 -0.175663 -0.42798263 0.22727904 -0.09277003
0.21424754 -0.40006337 0.037572976 0.24631317 0.07137623 -0.27607805 0.47621027 0.37309453
-0.08574528 -0.07551824 -0.022908784 -0.11153102 -0.10268267 0.27286223 0.39157537 0.36203194
0.21632895 -0.008267337 -0.34621775 0.46590054 0.37301934 0.38265243 -0.47625712 -0.0697187
-0.087249815 0.27903718 0.13769802 0.46661985 -0.22560747 -0.13603742 -0.062892124 0.03301859
-0.29508966 -0.21804903 0.3034276 -0.17115209 -0.29122967 -0.5583396 0.18161407 -0.23398754
-0.10442376 -0.38215053 -0.0973428 0.019036107 0.28375018 -0.20449932 0.36485168 0.6907109
0.30008447 -0.55119354 0.20137067 -0.35462078 0.08726265 0.5050739 0.15248293 0.16783926
0.48485494 0.42230815 -0.1563209 0.17291795 0.03191924 0.0027429364 -0.15285572 0.33025682
0.058106545 0.525262 0.19469759 0.20110106 -0.33496577 -0.3909705 -0.39689475 -0.44993913
-0.009347804 -0.35890102 -0.19173793 0.4913643 -0.6793234 0.01414746 -0.06584954 -0.17804281
0.1564598 0.01775064 -0.35068092 0.442482 0.046528842 -0.2127362 0.2817607 0.006571134
-0.39336765 -0.17182562 0.21037248 0.31755623 0.027932117 0.07248001 -0.09577619 0.37912387
-0.1646539 0.2614833 -0.13985606 0.6057776 -0.11664291 0.50387186 -0.01850872 0.29671377
0.6694263 0.33417135 -0.14033906 0.14970163 -0.0038982583 -0.26088426 -0.34596753 -0.2332981
-0.386718 -0.35201865 0.0487693 0.59610486 -0.31541649 -0.14935175 -0.3384399 0.13149357
0.452492 -0.3515539 -0.11143865 0.291829 0.19147573 -0.5061893 0.23100138 0.013051383
-0.30404034 -0.5345193 0.015249553 -0.19722761 -0.21239364 0.15679294 0.38220173 0.20506363
0.2089082 0.26195896 -0.2720227 0.6469041 0.19206284 0.22491226 -0.1724492 0.5662937
-0.3159742 -0.017093232 -0.31070703 -0.080625854 0.32405514 0.25341475 -0.09592518 0.20022619
-0.03803398 0.6406249 -0.3105818 -0.6477395 0.3983602 0.053554047 0.40729055 0.7010003
-0.10962342 0.19689809 0.59737927 -0.21637759 -0.6546042 0.07521863 -0.0972129 -0.37003586
0.40323246 0.15982895 -0.456928 0.18908179 0.29354453 -0.4123266 -0.6178225 -0.14482571
-0.29429123 -0.8552079 0.13613494 -0.29244167 -0.1920073 -0.37537524 0.17057109 -0.09560255
-0.020874316 -0.39904004 -0.51977575 -0.74940073 0.3845545 0.3600981 0.39998272 0.20193778
0.36712715 0.11800811 -0.14099853 0.107950926 0.43936473 0.35129398 0.06767737 0.1868429
00000000: ad4e 1ebe 3787 3cbe 139c aebe 5a0e 88be
00000010: b8cc ef3e b4ef 7d3e f9a3 303d 25d5 943d
00000020: 93ae 853e 1d4e ad3e 03ec 043e ec71 4fbd
00000030: ab9f 0e3f 49db 033e e7a1 9e3e 08f6 e83e
00000040: 04d9 5fbe b86e 2f3e af7a 153f 900c cbbe
00000050: d674 84be e6da ba3e 8d7c 56be e7e8 e7be
00000060: a01a fc3d b28d d93e c9a8 cebe 12bb 0d3f
00000070: 47ad 593d 3599 abbe e570 48bf bac1 04bf
00000080: 22c4 99be 8ef5 d7be 8152 b63e 635c 0abe
00000090: 004e 0ebf 5f6d 39be ba5b 803e b961 aa3d
000000a0: 1c40 8bbd 7fe0 c53d 420f 133f 6eea 9e3e
000000b0: 5013 d1be e5d7 26bf 581c ddbe c5fe 53be
000000c0: 03e1 24bf 5d75 b5bd ff14 813e 9673 9ebc
000000d0: 00e1 33be 8a20 dbbe d6bb 683e 37fe bdbd
000000e0: b563 5b3e 1bd5 ccbe 1fe6 193d 8539 7c3e
000000f0: b32d 923d 1a5a 8dbe d5d1 f33e 3f06 bf3e
00000100: 399b afbd 4fa9 9abd 34ab bbbc 606a e4bd
00000110: 4b4b d2bd 99b4 8b3e 917c c83e 405c b93e
00000120: 5685 5d3e ba73 07bc 7443 b1be 848a ee3e
00000130: 64fc be3e 05eb c33e f9d7 f3be aec8 8ebd
00000140: 08b0 b2bd f6dd 8e3e b600 0d3e cce8 ee3e
00000150: a505 67be 654d 0bbe 96cd 80bd 803e 073d
00000160: fe15 97be 3f48 5fbe dd5a 9b3e 7e42 2fbe
00000170: 0e1c 95be 58ef 0ebf 0af9 393e 6e9a 6fbe
00000180: 20dc d5bd 3ca9 c3be a95b c7bd 9cf1 9b3c
00000190: b447 913e 4568 51be d7cd ba3e 6ed2 303f
000001a0: aca4 993e 051b 0dbf 1d34 4e3e db90 b5be
000001b0: c3b6 b23d 864c 013f 7c24 1c3e 0ede 2b3e
000001c0: e83e f83e c638 d83e 9612 20be 6711 313e
000001d0: c0bd 023d d6c2 333b 3686 1cbe 6c17 a93e
000001e0: 2101 6e3d 9277 063f ce5e 473e 70ed 4d3e
000001f0: a280 abbe 492d c8be ca35 cbbe 6c5e e6be
00000200: 8827 19bc e0c1 b7be f356 44be 1a94 fb3e
00000210: 23e8 2dbf c0ca 673c 20dc 86bd db50 36be
00000220: ff36 203e ca69 913c 738c b3be 008d e23e
00000230: 0795 3e3d 85d7 59be f042 903e ab52 d73b
00000240: 7c67 c9be 0ef3 2fbe e26b 573e bb96 a23e
00000250: e5d1 e43c 6670 943d 4f26 c4bd 861c c23e
00000260: 089b 28be 24e1 853e 6d36 0fbe 3e14 1b3f
00000270: 7ae2 eebd bffd 003f 999f 97bc deea 973e
00000280: 865f 2b3f 8218 ab3e 0bb5 0fbe 624b 193e
00000290: ec79 7fbb 9f92 85be a822 b1be b2e5 6ebe
000002a0: e7ff c5be ca3b b4be 51c2 473d 549a 183f
000002b0: 457e a1be aaef 18be ff47 adbe 40a6 063e
000002c0: 08ad e73e dffe b3be f239 e4bd 9c6a 953e
000002d0: 3712 443e 9f95 01bf a08b 6c3e 78d5 553c
000002e0: 2dab 9bbe 42d6 08bf 43d9 793c 09f6 49be
000002f0: b87d 59be 548e 203e f2af c33e 33fc 513e
00000300: 08ec 553e 7c1f 863e 8f46 8bbe 829b 253f
00000310: 1fac 443e 664f 663e 8696 30be a0f8 103f
00000320: 5fc7 a1be 1b07 8cbc fe14 9fbe 2b1f a5bd
00000330: 8eea a53e 94bf 813e 6c74 c4bd 1808 4d3e
00000340: 85c9 1bbd feff 233f 9404 9fbe 42d2 25bf
00000350: def5 cb3e 7d5b 5b3d 6388 d03e c174 333f
00000360: 3e82 e0bd a79f 493e d9ed 183f 1692 5dbe
00000370: 2494 27bf 3a0c 9a3d 8f17 c7bd 5775 bdbe
00000380: 7c74 ce3e 33aa 233e 78f2 e9be a89e 413e
00000390: 784b 963e 791c d3be 9e29 1ebf 314d 14be
000003a0: 57ad 96be e8ee 5abf f566 0b3e eaba 95be
000003b0: 909d 44be 2f31 c0be 30aa 2e3e 45cb c3bd
000003c0: 9d00 abbc fa4e ccbe 0610 05bf bad8 3fbf
000003d0: 54e4 c43e c75e b83e 89ca cc3e c7c8 4e3e
000003e0: 17f8 bb3e 3cae f13d eb61 10be 6015 dd3d
000003f0: 6af4 e03e cedc b33e 6f9a 8a3d bf53 3f3e

sequential/dense_1/MatMul f4 [64, 64]
-0.16005348 0.23503086 0.160285 0.07671959 0.07352648 -0.20761697 -0.5265257 0.47572052
0.50860685 0.27562064 0.50118935 0.25255454 -0.3745968 0.43414515 0.12864959 -0.3073442
0.42232585 0.4355103 -0.25514928 0.25978252 0.19443364 0.1172705 0.34452176 -0.1628507
-0.38441354 -0.013720773 -0.5079829 0.3827624 0.42472547 -0.1658292 0.10220188 0.34758335
-0.027490007 -0.27024955 0.2424514 0.34922796 0.12330425 0.32043138 -0.38117453 0.32920054
0.28071016 0.016114373 0.12531398 0.38544834 0.035579037 0.0056773964 0.29678926 0.2560701
-0.25088018 -0.29691058 -0.38609388 0.06788572 0.17317271 0.18447861 0.39248842 -0.29965553
0.7151107 0.24467918 -0.17000428 0.1310979 0.17890166 0.008399838 0.45630687 0.25899452
0.06422661 -0.3017469 0.051415764 -0.4723152 0.011003186 0.31328028 0.22373515 0.19659926
-0.19585551 0.0055478467 -0.07245457 -0.038165074 0.2187443 0.020354848 -0.06713928 0.28199008
-0.03826588 -0.040815078 0.48411375 -0.071566485 0.010971468 0.10326654 -0.15968953 0.17900205
0.4226713 -0.38760737 0.16757253 -0.34588668 -0.17518498 -0.06545513 -0.045391 -0.18669206
-0.004801923 -0.0036970524 -0.4922259 -0.3350736 -0.19626598 -0.07471916 -0.22932376 -0.16880412
0.05036429 0.3726009 -0.34468997 0.12453812 -0.12982361 -0.0076584783 0.1963536 -0.5294133
0.044846427 0.2865063 0.36257154 -0.014820848 -0.22353658 0.07486074 -0.06680155 0.06432825
-0.10884421 0.064153925 9.840867e-05 -0.07512471 0.09325087 0.17631154 -0.15892655 -0.18056184
-0.51601815 -0.094971925 0.09941817 -0.23501657 -0.1590113 -0.29878956 -0.53732795 0.12794311
0.1335945 0.058209453 -0.24722503 0.35792848 -0.4146929 -0.05223956 0.07454178 -0.06083226
-0.022958782 0.016115423 -0.20850234 -0.029474683 0.012923051 0.42693606 -0.16354288 -0.26053965
-0.55779094 -0.47828263 -0.5862938 -0.02667638 0.18527994 -0.46026406 0.13604175 0.15968493
-0.08428026 -0.37784043 0.44954798 -0.05511158 0.14047666 0.0571671 -0.4332853 -0.012223015
0.37428656 0.20978525 0.20585015 0.1171657 0.33335888 -0.6777651 0.30958593 0.018108077
0.1624171 -0.5105791 -0.33548638 -0.2647196 0.04942207 0.03020819 0.18886699 -0.4647127
0.10317168 0.22748303 -0.067765474 -0.053012036 -0.03145375 0.19938672 0.1116023 0.3157812
0.26595527 -0.3671697 0.038483813 0.10711712 0.16174506 0.36581773 0.19271596 -0.010714601
-0.34664458 0.0075270627 -0.17411229 -0.09021056 0.22861856 -0.08458857 -0.24478944 0.28328174
-0.41423947 0.1502276 -0.10190439 -0.19031318 0.08999303 -0.12495325 -0.20708668 0.17145504
-0.14463218 0.20233302 -0.03067385 -0.3311838 -0.085542075 -0.16033524 -0.16848387 -0.52534515
0.16316186 0.15618508 -0.08254849 -0.37995937 -0.35884124 -0.46388793 0.05602349 0.11365322
-0.13722329 0.18912546 0.40593174 -0.3147483 0.1523029 0.42665645 -0.01623269 -0.23497556
-0.11278795 -0.106470466 0.016182601 -0.03230721 -0.33648214 -0.14658785 -0.014531094 0.086843446
-0.25587386 0.083780006 -0.08561131 -0.1924347 -0.20607616 0.016665377 -0.3076557 -0.56716967
00000000: 0fe5 23be eeab 703e c021 243e 291f 9d3d
00000010: 0d95 963d 8b99 54be 63ca 06bf a491 f33e
00000020: 0f34 023f 261e 8d3e f24d 003f d44e 813e
00000030: 27cb bfbe 4648 de3e b8bc 033e 385c 9dbe
00000040: 183b d83e 35fb de3e eda2 82be 3702 853e
00000050: 9d19 473e 842b f03d 2865 b03e 55c2 26be
00000060: dad1 c4be 18cd 60bc 2b0b 02bf 6ff9 c33e
00000070: 9e75 d93e 21cf 29be 384f d13d 72f6 b13e
00000080: b932 e1bc 265e 8abe 2e45 783e 02ce b23e
00000090: f086 fc3d 950f a43e 4f29 c3be f98c a83e
000000a0: 3eb9 8f3e 4a02 843c 4f52 003e 7c59 c53e
000000b0: 53bb 113d 7409 ba3b c3f4 973e 9f1b 833e
000000c0: 5e73 80be aa04 98be 19ae c5be ab07 8b3d
000000d0: 3054 313e f6e7 3c3e 3ef4 c83e 736c 99be
000000e0: 7f11 373f 2e8d 7a3e 9a15 2ebe 873e 063e
000000f0: ff31 373e 799f 093c 0ea1 e93e ee9a 843e
00000100: 3e89 833d 927e 9abe 5699 523d 4cd3 f1be
00000110: b546 343c 4666 a03e d41a 653e 5151 493e
00000120: 598e 48be b6ca b53b 1063 94bd fb52 1cbd
00000130: 81fe 5f3e 36bf a63c 5280 89bd 0161 903e
00000140: afbc 1cbd b62d 27bd c2dd f73e 7391 92bd
00000150: acc1 333c 687d d33d a785 23be 504c 373e
00000160: 5f68 d83e 7974 c6be 2298 2b3e 0f18 b1be
00000170: b163 33be 570d 86bd eaeb 39bd 342c 3fbe
00000180: 7359 9dbb 3f4a 72bb 0805 fcbe c48e abbe
00000190: f3f9 48be 5c06 99bd d9d3 6abe fdda 2cbe
000001a0: c94a 4e3d 8cc5 be3e 347b b0be d80d ff3d
000001b0: 7bf0 04be f9f3 fabb eb10 493e a187 07bf
000001c0: e3b0 373d f4b0 923e faa2 b93e 24d3 72bc
000001d0: c6e6 64be 9650 993d 40cf 88bd 88be 833d
000001e0: b7e9 debd 2263 833d c160 ce38 fcda 99bd
000001f0: 50fa be3d 038b 343e a4bd 22be 34e5 38be
00000200: c419 04bf a480 c2bd c19b cb3d 2fa8 70be
00000210: dcd3 22be f2fa 98be 538e 09bf 8503 033e
00000220: ffcc 083e 096d 6e3d 8f28 7dbe 6742 b73e
00000230: a152 d4be 26f9 55bd 5ca9 983d 3f2b 79bd
00000240: 0e14 bcbc 7e04 843c a381 55be e474 f1bc
00000250: 34bb 533c 5d97 da3e c977 27be 7465 85be
00000260: 63cb 0ebf 76e1 f4be 5a17 16bf 6c88 dabc
00000270: 06ba 3d3e bba7 ebbe 874e 0b3e 7284 233e
00000280: 219b acbd 4d74 c1be 272b e63e aebc 61bd
00000290: 1dd9 0f3e 0d28 6a3d 92d7 ddbe 0a43 48bc
000002a0: 7da2 bf3e f2d1 563e 62ca 523e 92f4 ef3d
000002b0: 04ae aa3e 0382 2dbf 0c82 9e3e 6457 943c
000002c0: ab50 263e 50b5 02bf dfc4 abbe 5489 87be
000002d0: cc6e 4a3d 2b77 f73c 5966 413e d3ee edbe
000002e0: ac4b d33d 50f1 683e a0c8 8abd 2623 59bd
000002f0: a6d5 00bd 082c 4c3e bf8f e43d 13ae a13e
00000300: 4a2b 883e abfd bbbe 34a1 1d3d 3860 db3d
00000310: 7fa0 253e 764c bb3e 5557 453e 4b8c 2fbc
00000320: 667b b1be 94a5 f63b 7e4a 32be 50c0 b8bd
00000330: fc1a 6a3e c63c adbd 15aa 7abe 4e0a 913e
00000340: 3217 d4be 44d5 193e 40b3 d0bd 75e1 42be
00000350: 444e b83d 7de7 ffbd 880e 54be e991 2f3e
00000360: 751a 14be 6330 4f3e ba47 fbbc ec90 a9be
00000370: af30 afbd ec2e 24be 0987 2cbe 057d 06bf
00000380: e713 273e fbee 1f3e 2f0f a9bd 098a c2be
00000390: 0aba b7be b882 edbe e378 653d 05c3 e83d
000003a0: 4384 0cbe 1baa 413e 49d6 cf3e b026 a1be
000003b0: 4bf5 1b3e b772 da3e 6bfa 84bc 6f9d 70be
000003c0: 5efd e6bd 300d dabd 6091 843c 9154 04bd
000003d0: 6347 acbe 201b 16be d313 6ebc fada b13d
000003e0: e601 83be da94 ab3d fc54 afbd 9a0d 45be
000003f0: a105 53be d485 883c 0c85 9dbe 0832 11bf

sequential/dense_2/MatMul f4 [1, 64]
-0.108688 0.02760069 0.011640691 0.00707994 -0.033253092 0.025426032 0.078396246 -0.066954486
-0.04353305 -0.08324907 0.10598729 -0.0098917335 0.19492744 -0.003326707 -0.022984404 0.074615076
0.016993416 -0.061070837 0.067048624 0.107657135 0.0023047589 0.124314606 0.10829685 -0.103935264
-0.004088884 0.00019366258 -0.0018483243 -0.033994157 0.13458988 -0.0004672135 0.07478674 0.012884261
0.02605658 0.18490447 0.03212349 0.033297062 0.10139519 0.013598865 0.0064589023 0.027472101
0.016766615 -0.048647705 -0.022425704 -0.05378563 -0.07506982 0.045428827 -0.07574765 0.083420664
-0.06291644 -0.023836773 0.07160254 0.0038535628 0.045498222 0.15226597 -0.0720781 -0.032586224
-0.06472444 -0.051246997 0.087415524 0.062817894 -0.034915354 -0.082369804 0.016047359 -0.036894307
00000000: d097 debd d81a e23c 99b8 3e3c d7fe e73b
00000010: 6534 08bd 414a d03c 368e a03d 6f1f 89bd
00000020: b64f 32bd 7d7e aabd dd0f d93d f010 22bc
00000030: 0f9b 473e e204 5abb ca49 bcbc cacf 983d
00000040: c735 8b3c 6a25 7abd ca50 893d 587b dc3d
00000050: 700b 173b a898 fe3d bdca dd3d 03dc d4bd
00000060: 0cfc 85bb e711 4b39 7943 f2ba 753d 0bbd
00000070: eed1 093e 56f4 f4b9 ca29 993d 8218 533c
00000080: 9c74 d53c 9957 3d3e ec93 033d 8062 083d
00000090: 48a8 cf3d c6cd 5e3c 33a5 d33b 2c0d e13c
000000a0: 245a 893c d142 47bd 1cb6 b7bc 524e 5cbd
000000b0: 35be 99bd 9413 3a3d 9521 9bbd 74d8 aa3d
000000c0: 56da 80bd 5645 c3bc 5aa4 923d 0e8c 7c3b
000000d0: 585c 3a3d 9ceb 1b3e af9d 93bd 2279 05bd
000000e0: 3f8e 84bd 5fe8 51bd e906 b33d aba6 803d
000000f0: 6703 0fbd 80b1 a8bd c075 833c 7c1e 17bd

sequential/bidirectional/backward_lstm/Read_2/ReadVariableOp1 f4 [80]
-0.18788047 0.02379456 0.17455935 0.060323894 -0.10133025 -0.37486887 -0.018930063 -0.027411247
-0.18026742 -0.04181623 -0.0031979198 -0.010308628 -0.08302719 0.10019836 0.34963554 0.16221565
-0.3624614 -0.10584229 -0.05062791 0.17787014 1.0572935 1.1997018 1.3328722 1.0390493
0.64188665 0.7241762 0.8072215 1.0086676 1.2433319 0.9412735 1.1878676 0.66407186
1.066633 0.70939356 0.8632924 1.1188347 0.41390762 1.0461305 0.9670978 0.9173175
0.26537198 -0.11678333 0.2021829 0.17049032 -0.34388435 -0.25667015 0.03487313 -0.41039485
-0.035824183 0.09400765 0.69617295 0.5116048 0.41002893 0.17082047 -0.2518464 0.45780355
-0.09333659 0.49244878 -0.36016792 0.19960652 -0.26806292 0.2742872 0.17420323 -0.019162634
-0.40928188 -0.024789646 0.043398745 0.026095074 0.032359388 0.13626695 -0.12364438 0.083718345
0.13404667 0.019025328 0.1444731 -0.3145994 -0.43766376 -0.12982944 0.14519611 -0.033506792
00000000: bd63 40be cfec c23c b0bf 323e 3016 773d
00000010: 3c86 cfbd d0ee bfbe 3813 9bbc 8d8d e0bc
00000020: 0698 38be 7f47 2bbd 3194 51bb 85e5 28bc
00000030: 290a aabd cc34 cd3d 6e03 b33e dc1b 263e
00000040: 8a94 b9be d8c3 d8bd 365f 4fbd 9723 363e
00000050: 6555 873f d48f 993f 8e9b aa3f 91ff 843f
00000060: af52 243f 9d63 393f 11a6 4e3f 051c 813f
00000070: 8025 9f3f 4df7 703f 0c0c 983f 9d00 2a3f
00000080: 6e87 883f d19a 353f bb00 5d3f fa35 8f3f
00000090: b3eb d33e 9be7 853f b993 773f 52d5 6a3f
000000a0: d6de 873e 192c efbd 0909 4f3e 0495 2e3e
000000b0: 9c11 b0be 456a 83be 21d7 0e3d 461f d2be
000000c0: 61bc 12bd 1587 c03d 6438 323f 88f8 023f
000000d0: 50ef d13e 90eb 2e3e 03f2 80be 3a65 ea3e
000000e0: 4127 bfbd 3f22 fc3e ee67 b8be a765 4c3e
000000f0: 8b3f 89be 5f6f 8c3e 5562 323e f5fa 9cbc
00000100: 658d d1be a813 cbbc e2c2 313d 56c5 d53c
00000110: 478b 043d 9089 0b3e 4439 fdbd 8674 ab3d
00000120: 8843 093e 01db 9b3c c2f0 133e 2c13 a1be
00000130: 7715 e0be 02f2 04be 4aae 143e 6b3e 09bd
