models/model.tflite (tflite, 281580 bytes, 25 tensors)

sequential_1/time_distributed/sequential/conv2d/BiasAdd/ReadVariableOp f4 [32]
0.08916219 0.19981244 0.048178945 0.12559132 0.19926503 0.08888315 0.08623834 0.071919665
0.049034867 0.096241355 0.063898966 0.04391486 0.33245093 0.22772053 0.0646826 0.017718246
0.030317374 0.027619345 0.07753782 0.19463412 0.14266847 0.12559025 0.2661863 0.11481404
0.024620604 0.036508515 0.08571064 0.09511523 0.095897466 0.19928193 0.072010234 0.12452084
00000000: ab9a b63d a29b 4c3e 4957 453d 039b 003e
00000010: 220c 4c3e 5e08 b63d ba9d b03d 9e4a 933d
00000020: c9d8 483d 301a c53d 76dd 823d 11e0 333d
00000030: 0237 aa3e 922f 693e 5078 843d db25 913c
00000040: 245c f83c f741 e23c 26cc 9e3d 2b4e 473e
00000050: af17 123e bb9a 003e 9249 883e a023 eb3d
00000060: 26b1 c93c f489 153d 0f89 af3d c6cb c23d
00000070: e465 c43d 9010 4c3e 1a7a 933d c804 ff3d

sequential_1/time_distributed/sequential/conv2d_1/BiasAdd/ReadVariableOp f4 [64]
0.17905842 0.03894423 -0.036358915 0.032887395 0.06121739 -0.17711297 0.20587718 0.041938018
0.11724576 0.22334121 0.0047560027 -0.02812258 0.14929122 0.11198903 -0.012969554 0.24370427
0.1286351 -0.093893215 0.042280484 0.06280177 -0.2198269 0.056891833 -0.056834187 0.033923678
-0.1095243 -0.06507041 0.047668803 0.030118978 0.055314884 0.17377253 0.39138705 -0.0063399444
0.19465171 0.11104098 0.103880435 0.2682548 0.07578504 0.11666015 0.12854433 0.05796138
0.11270282 -0.07656305 0.17347442 0.28923902 0.13993953 0.04725884 0.14299197 0.27926716
0.3937564 0.23864993 0.115637735 0.20061131 -0.033091277 0.16016783 0.04171259 -0.12053781
0.026820373 -0.049198184 0.06527997 -0.09308716 0.04389634 0.05466596 0.050587762 0.053612
00000000: 175b 373e fc83 1f3d 16ed 14bd efb4 063d
00000010: 16bf 7a3d 1a5d 35be 78d1 523e 33c7 2b3d
00000020: 8c1e f03d 8fb3 643e 3ed8 9b3b 5361 e6bc
00000030: ccdf 183e 815a e53d 417e 54bc 9d8d 793e
00000040: ebb8 033e 164b c0bd 4d2e 2d3d 379e 803d
00000050: 4e1a 61be 6907 693d f7ca 68bd 8ef3 0a3d
00000060: 474e e0bd a343 85bd 5d40 433d 13bc f63c
00000070: dc91 623d 6df1 313e e263 c83e 4fbf cfbb
00000080: c752 473e 7469 e33d 44bf d43d b158 893e
00000090: 3035 9b3d 84eb ee3d 20a1 033e e968 6d3d
000000a0: bcd0 e63d 17cd 9cbd 47a3 313e 2317 943e
000000b0: 4f4c 0f3e 7c92 413d 7d6c 123e 1bfc 8e3e
000000c0: 709a c93e a660 743e 7ad3 ec3d 0d6d 4d3e
000000d0: b88a 07bd 0903 243e d2da 2a3d 87dc f6bd
000000e0: 66b6 db3c 0984 49bd 81b1 853d 7ba4 bebd
000000f0: a6cc 333d 6ae9 5f3d 1d35 4f3d 4298 5b3d

sequential_1/time_distributed/sequential/conv2d_2/BiasAdd/ReadVariableOp f4 [64]
-0.069499955 0.072057016 0.09875298 0.10242577 0.050505493 0.029556414 0.17244524 -0.039919745
0.024613403 0.026027845 0.056840703 0.03431869 -0.12715812 0.04415354 -0.0150940735 0.18542808
0.08767348 -0.24553531 0.13399485 -0.091639936 0.01674357 0.09545342 0.2007422 0.21355267
-0.037742496 0.098232776 0.056641437 -0.18800199 -0.073721215 -0.023251753 0.036629703 -0.0038123247
-0.18566035 0.24644332 0.10445807 -0.044897106 -0.24093574 -0.073308885 0.003709079 -0.36997795
0.010321183 -0.13150518 0.12289747 0.3270795 0.062397256 0.038959544 0.12058543 0.023219455
0.18243589 0.091838025 -0.1567596 -0.20772576 -0.07006133 -0.13683 0.029138451 -0.0876218
-0.15367289 -0.066543184 -0.034572084 0.004494322 0.16302596 0.12070377 -0.019769708 -0.06519412
00000000: fe55 8ebd a192 933d 013f ca3d 9ac4 d13d
00000010: d9de 4e3d 4b20 f23c 7c95 303e e382 23bd
00000020: 0ca2 c93c 5938 d53c ccd1 683d c191 0c3d
00000030: bd35 02be 58da 343d 224d 77bc dce0 3d3e
00000040: 278e b33d 9c6d 7bbe f235 093e b8ad bbbd
00000050: d029 893c 157d c33d 5d8f 4d3e 8dad 5a3e
00000060: e097 1abd 442e c93d da00 683d 9883 40be
00000070: 26fb 96bd 767a bebc 0709 163d 32d8 79bb
00000080: bf1d 3ebe a35b 7c3e 1dee d53d 07e6 37bd
00000090: dcb7 76be f822 96bd 0514 733b c06d bdbe
000000a0: 2e1a 293c 4ba9 06be abb1 fb3d f776 a73e
000000b0: 4494 7f3d 0b94 1f3d 7ef5 f63d ba36 be3c
000000c0: 79d0 3a3e 9315 bc3d 9785 20be 10b6 54be
000000d0: 517c 8fbd 2a1d 0cbe c3b3 ee3c 0f73 b3bd
000000e0: 6d5c 1dbe cb47 88bd 759b 0dbd 1b45 933b
000000f0: 47f0 263e 8a33 f73d 15f4 a1bc 7f84 85bd

sequential_1/time_distributed/sequential/conv2d/Conv2D f4 [32, 5, 5, 1]
-0.14823033 0.0027431753 -0.15870492 -0.0875681 0.08271532 -0.25267458 0.097560495 -0.09391847
0.32501996 0.072239585 -0.2873681 -0.07199211 0.009052678 -0.1624693 -0.017094243 -0.11959523
0.022590995 -0.07455448 0.057074253 0.09338389 -0.2258635 -0.18516594 0.003712386 0.294737
0.067801304 -0.11071918 0.015051972 -0.18847775 0.20054257 -0.029142825 -0.06883897 0.02136502
-0.17873827 0.11089531 0.10778674 -0.061702125 0.10257545 -0.06644264 -0.16674753 0.12552416
-0.10008664 -0.014208601 -0.30275142 0.0108173285 0.07106189 -0.18263026 0.21081772 -0.13130936
0.2252207 0.28225344 -0.091839574 0.082771085 -0.042736802 -0.16163737 0.078494154 0.24983035
0.11317481 0.15073633 0.117861345 0.082572766 -0.042443965 -0.20568389 -0.12349077 0.05088741
-0.13181499 -0.3076978 -0.17989509 -0.202874 -0.14394984 -0.32605195 0.035390686 0.15428656
0.14303719 -0.12517738 0.065051794 -0.18426931 -0.21678904 0.026244197 -0.1754233 -0.2645396
-0.0026908566 -0.05759733 0.056217864 -0.056545302 0.013530478 0.039657373 0.2881498 0.12869793
-0.024078432 -0.10416055 0.047980875 0.26155284 0.10330343 -0.21824428 -0.18024702 0.16542092
0.17588277 0.11618094 -0.03571524 -0.12949586 -0.04216476 -0.20409964 -0.037890084 -0.0287712
0.08440122 -0.18131931 -0.3209202 -0.18174268 -0.04232338 -0.009043714 -0.051530488 -0.0054645007
-0.024445703 -0.035294298 0.0022789657 0.19938625 0.09721335 -0.108860776 -0.077004686 -0.01981569
-0.04107694 0.27224618 0.28202116 0.012859787 -0.16449168 -0.08057336 -0.024429927 0.045390677
-0.11417886 -1.0069958 -0.014550847 0.11699511 0.0569052 -0.12060946 -1.0087895 -0.019421684
-0.07158984 0.027964711 -0.039731827 -1.1754984 0.0055479435 -0.08069778 -0.03566367 0.124265485
-1.0726974 0.12508863 0.09111282 -0.021629067 -0.01648153 -0.927263 -0.039291196 0.010170278
0.29641044 -0.048079804 -0.15293989 -0.04763358 0.025071941 -0.0040724883 0.06748645 0.05177037
-0.02732096 -0.013426614 -0.15762542 0.08646147 -0.04372427 -0.29216617 -0.1915795 -0.03268934
0.20275679 -0.042353887 -0.28068036 -0.30271494 0.19650753 0.12806845 0.09642639 -0.065234534
0.18569082 0.13513595 -0.013736297 0.06807492 0.1321801 0.17066851 0.102454916 -0.0051225745
0.14767899 0.07910653 -0.120189704 -0.22651453 -0.25058556 -0.05351034 -0.019152746 -0.34546635
-0.061161537 -0.061874185 -0.0866781 -0.2969942 -0.3757109 -0.21040417 -0.1739208 -0.058640532
-0.029446902 -0.05087644 -0.061280023 0.040186863 0.11497957 0.107090086 -0.19731133 -0.096972205
0.14033094 0.053318303 0.12407295 -0.06821263 -0.2939975 0.15331616 -0.15957679 0.19829045
-0.15922885 -0.15499902 0.16309518 -0.09718617 0.055533107 -0.2179423 -0.2038915 0.20395294
-0.26864934 -0.33285058 -0.34452024 -0.2669941 -0.20995471 -0.07164579 -0.12852837 -0.06399799
0.13954188 0.08316263 0.09711333 0.12430259 0.27888647 -0.00043296046 -0.012649342 0.12726386
-0.14655668 0.064960346 0.095109954 0.072296426 0.14696822 -0.2063879 0.019605912 0.026499374
-0.100181095 -0.14579985 0.25706112 -0.28346258 0.008910057 0.01424593 -0.029394729 0.008236293
00000000: b1c9 17be d8c6 333b 8b83 22be e756 b3bd
00000010: a666 a93d 905e 81be cccd c73d 5458 c0bd
00000020: 0469 a63e 59f2 933d e921 93be 9970 93bd
00000030: af51 143c 5a5e 26be 3a09 8cbc 58ee f4bd
00000040: c010 b93c 05b0 98bd b1c6 693d 0e40 bf3d
00000050: c348 67be 249c 3dbe 804b 733b c5e7 963e
00000060: 69db 8a3d bdc0 e2bd 8c9c 763c 5000 41be
00000070: 085b 4d3e efbc eebc 72fb 8cbd b205 af3c
00000080: 2a07 37be 151d e33d 4bbf dc3d 5ebb 7cbd
00000090: 1413 d23d 1413 88bd ddbf 2abe 6889 003e
000000a0: 39fa ccbd 31cb 68bc 3c02 9bbe 2a3b 313c
000000b0: e588 913d 6d03 3bbe 9ae0 573e f675 06be
000000c0: 41a0 663e 8683 903e 6316 bcbd e383 a93d
000000d0: c90c 2fbd 4484 25be 8bc1 a03d 87d3 7f3e
000000e0: 32c8 e73d a05a 1a3e 4a61 f13d e91b a93d
000000f0: b9d9 2dbd cc9e 52be bbe8 fcbd 516f 503d
00000100: 82fa 06be 918a 9dbe 6b36 38be 34be 4fbe
00000110: 9667 13be 48f0 a6be d3f5 103d 4cfd 1d3e
00000120: 5778 123e 802e 00be e039 853d 18b1 3cbe
00000130: f2fd 5dbe 12fe d63c 2aa2 33be bc71 87be
00000140: 1559 30bb 2eeb 6bbd b444 663d 0c9c 67bd
00000150: f0ae 5d3c c56f 223d 5f88 933e 64c9 033e
00000160: 2240 c5bc 2052 d5bd 9887 443d 41ea 853e
00000170: c090 d33d 6e7b 5fbe ad92 38be 1a64 293e
00000180: 9d1a 343e 46f0 ed3d 254a 12bd 909a 04be
00000190: f5b4 2cbd 7fff 50be a232 1bbd 94b1 ebbc
000001a0: 8cda ac3d c5ab 39be a74f a4be c11a 3abe
000001b0: 485b 2dbd 162c 14bc a211 53bd 8e0f b3bb
000001c0: 5b42 c8bc c190 10bd b35a 153b e92b 4c3e
000001d0: cb17 c73d 66f2 debd a2b4 9dbd 8454 a2bc
000001e0: 4b40 28bd da63 8b3e 1465 903e dbb1 523c
000001f0: 8270 28be a503 a5bd 4521 c8bc 93eb 393d
00000200: 9bd6 e9bd 3de5 80bf ad66 6ebc 229b ef3d
00000210: 6d15 693d 1802 f7bd 0420 81bf 391a 9fbc
00000220: b29d 92bd 4016 e53c d7bd 22bd bb76 96bf
00000230: 86cb b53b e144 a5bd 1214 12bd e77e fe3d
00000240: 264e 89bf 3c17 003e 5c99 ba3d 712f b1bc
00000250: 4604 87bc 1c61 6dbf ceef 20bd 3da1 263c
00000260: 1cc3 973e 54ef 44bd 469c 1cbe 6e1b 43bd
00000270: ac63 cd3c 8272 85bb 5636 8a3d 2b0d 543d
00000280: 35d0 dfbc 4dfb 5bbc 8f68 21be b612 b13d
00000290: 3818 33bd ce96 95be 6b2d 44be 42e5 05bd
000002a0: 7a9f 4f3e 457b 2dbd 56b5 8fbe 74fd 9abe
000002b0: 4539 493e 6024 033e 337b c53d af99 85bd
000002c0: bc25 3e3e 1461 0a3e 350e 61bc dd6a 8b3d
000002d0: 385a 073e bac3 2e3e e2d3 d13d 45db a7bb
000002e0: 2939 173e 9b02 a23d 0526 f6bd 6df3 67be
000002f0: c04c 80be a92d 5bbd 38e6 9cbc f7e0 b0be
00000300: 8584 7abd c96f 7dbd 4a84 b1bd a00f 98be
00000310: 2e5d c0be 3174 57be 4b18 32be 0e31 70bd
00000320: a13a f1bc d063 50bd c300 7bbd fb9a 243d
00000330: 697a eb3d 0c52 db3d fb0b 4abe 5d99 c6bd
00000340: eab2 0f3e 4b64 5a3d f519 fe3d 10b3 8bbd
00000350: d786 96be e9fe 1c3e 1968 23be a70c 4b3e
00000360: e30c 23be 10b8 1ebe 6c02 273e 8b09 c7bd
00000370: af76 633d 442c 5fbe efc8 50be 0ad9 503e
00000380: 688c 89be 646b aabe f564 b0be 73b3 88be
00000390: 5efe 56be 07bb 92bd f19c 03be 6111 83bd
000003a0: 11e4 0e3e 2b51 aa3d 5be3 c63d 5b92 fe3d
000003b0: 35ca 8e3e f8fe e2b9 303f 4fbc 7551 023e
000003c0: f412 16be ee09 853d 02c9 c23d 2610 943d
000003d0: d67e 163e 5a57 53be 949c a03c 3715 d93c
000003e0: bf2b cdbd 8e4c 15be 849d 833e 0222 91be
000003f0: 7dfb 113c c367 693c 37cd f0bc 84f1 063c

sequential_1/time_distributed/sequential/conv2d_1/Conv2D f4 [64, 3, 3, 32]
-0.012242494 0.046880823 -0.0033786057 -0.15227644 -0.32619727 -0.037695725 0.08913341 0.07261165
0.08870175 -0.13055114 -0.10343811 -0.017779214 0.07700382 0.006922557 0.23094179 -0.34888974
-0.041174814 0.23158188 -0.22271425 -0.06994741 -0.04271783 0.080038115 0.14349788 -0.057589833
0.1414286 -0.042470094 0.28560713 -0.34349668 0.07126136 0.07747553 0.24505931 -0.10846629
-0.09795362 -0.15532058 -0.293642 0.103577316 -0.01582479 0.1936525 0.0057718535 -0.2384489
0.1030226 0.12119529 -0.12761512 0.02544881 -0.22206087 0.2575232 -0.29517472 -0.059068605
0.11018358 0.16520885 0.10240297 -0.17773719 -0.0036182073 0.06090862 0.066883735 -0.005602753
0.26849774 -0.04841575 -0.039717197 -0.25054199 -0.30009228 0.09483434 -0.030897297 -0.027125211
-0.3279194 -0.22523941 -0.098186806 -0.24345498 0.09816513 0.009809189 -0.38855627 0.34466565
0.08495266 -0.076961264 -0.049005788 0.027221622 -0.11366258 0.22428839 0.06884675 -0.19055048
-0.21431239 -0.39258182 0.21853569 -0.19904625 -0.26911497 -0.2793463 -0.40426973 -0.18619548
-0.12330117 0.060661916 -0.19790077 -0.3142378 0.14120519 -0.0051119095 0.18230152 -0.26471236
0.0487003 0.12568697 0.15956303 -0.04477853 0.0066539813 -0.14318049 0.10410125 0.069055796
-0.31417203 -0.0763784 -0.03680072 -0.06975864 0.08660745 -0.007899728 -0.042013984 -0.0341619
-0.1552286 0.05164565 -0.10250546 -0.023416111 0.13485822 -0.08343504 0.1138182 -0.23690893
0.1392404 0.057852287 -0.10316573 0.16229047 -0.10860659 0.03448687 -0.0022393516 0.28014356
-0.046308987 -0.08542633 0.2114049 -0.18392539 -0.053146016 0.09520603 -0.09596479 0.09125669
-0.02036439 -0.05212485 -0.17375124 0.10218947 -0.31621537 0.18025179 -0.2320965 0.1400971
-0.1692948 -0.011311921 0.089685895 -0.17080714 0.10845085 -0.03555656 0.22905517 -0.067281425
0.006555898 0.02953479 -0.12785912 0.1772268 -0.045890357 0.0144914705 -0.07911745 0.032420922
-0.18908913 0.077641204 -0.057136115 -0.2871804 0.18422239 0.23667268 -0.602905 0.21880014
-0.16060376 0.17465806 0.21113972 0.038086895 0.0014459703 0.07845376 0.16798946 -0.063373946
0.1321611 -0.37990457 -0.090712205 -0.5802204 -0.59547114 -0.06760323 0.045708414 -0.17478697
-0.46699208 -0.053969257 -0.18513086 -0.109781206 0.41163617 -0.48310918 0.10695278 -0.19569951
-0.23191217 -0.28877628 -0.13900396 0.14034843 0.044458214 -0.09255826 -0.2171515 -0.24502066
-0.055864878 0.17138647 0.2092221 0.16831434 0.0052741575 -0.13465379 -0.21089302 -0.053712662
0.006033898 0.026745604 0.18166098 0.19155176 -0.09464402 0.40337163 0.0027872648 -0.1798065
0.15691538 -0.095658414 -0.14126715 0.071347214 0.0029015578 -0.09470347 -0.13840151 0.12653114
0.005400656 -0.29573092 -0.0032613748 -0.114933245 0.1874098 0.034488864 0.16962901 -0.1667647
0.052165717 -0.087152176 -0.13028692 -0.016564352 -0.12229572 -0.44595763 -0.31223074 0.11761195
0.16309164 0.055037744 -0.065184444 0.071162276 0.16294922 0.050263103 0.07502567 -0.07540039
0.07381554 -0.010496205 0.023147827 0.03955629 0.051808752 -0.04530858 0.017827159 0.048099298
00000000: be94 48bc 1b06 403d 996b 5dbb 5bee 1bbe
00000010: 5403 a7be d566 1abd 948b b63d 6bb5 943d
00000020: 43a9 b53d 33af 05be 5cd7 d3bd b7a5 91bc
00000030: 2eb4 9d3d 9ed6 e23b 017c 6c3e ada1 b2be
00000040: eca6 28bd cd23 6d3e 340f 64be 9640 8fbd
00000050: e4f8 2ebd 06eb a33d 1cf1 123e 51e3 6bbd
00000060: a9d2 103e 1ff5 2dbd 193b 923e ccde afbe
00000070: 7af1 913d 7eab 9e3d d4f0 7a3e 9323 debd
00000080: e89b c8bd 5c0c 1fbe 3f58 96be 5820 d43d
00000090: fda2 81bc d74c 463e d121 bd3b f32b 74be
000000a0: 83fd d23d 3c35 f83d 8aad 02be 067a d03c
000000b0: ed63 63be 15da 833e 2421 97be ecf1 71bd
000000c0: eea7 e13d 822c 293e a6b8 d13d bd00 36be
000000d0: 721f 6dbb 517b 793d 57fa 883d 4c97 b7bb
000000e0: 8978 893e 984f 46bd 80ae 22bd 0a47 80be
000000f0: b2a5 99be 8238 c23d 541c fdbc b135 debc
00000100: 0de5 a7be 29a5 66be 2a16 c9bd 434c 79be
00000110: cd0a c93d b8b6 203c d9f0 c6be 0478 b03e
00000120: a9fb ad3d de9d 9dbd 4bba 48bd e1ff de3c
00000130: edc7 e8bd dbab 653e 86ff 8c3d aa1f 43be
00000140: b574 5bbe 7c00 c9be d2c7 5f3e c8d2 4bbe
00000150: 70c9 89be 7a06 8fbe 71fc cebe 07aa 3ebe
00000160: 5385 fcbd a178 783d 80a6 4abe c7e3 a0be
00000170: 1898 103e ce81 a7bb 40ad 3a3e 6188 87be
00000180: f779 473d 16b4 003e 7e64 233e b169 37bd
00000190: a409 da3b e89d 12be 0933 d53d 206d 8d3d
000001a0: 28db a0be 476c 9cbd 5abc 16bd 9edd 8ebd
000001b0: 3f5f b13d dc6d 01bc db16 2cbd 59ed 0bbd
000001c0: 3ff4 1ebe 648a 533d 62ee d1bd 25d3 bfbc
000001d0: 4618 0a3e fedf aabd 8419 e93d 4198 72be
000001e0: 0995 0e3e 85f6 6c3d 8e48 d3bd 792f 263e
000001f0: 226d debd 1b42 0d3d 16c2 12bb fa6e 8f3e
00000200: 7eae 3dbd 00f4 aebd 877a 583e f056 3cbe
00000210: a3af 59bd 61fb c23d 3089 c4bd cae4 ba3d
00000220: 39d3 a6bc de80 55bd d8eb 31be b648 d13d
00000230: fbe6 a1be ed93 383e b4aa 6dbe 9d75 0f3e
00000240: 9e5b 2dbe a355 39bc 3dad b73d 11e8 2ebe
00000250: 7b1b de3d c1a3 11bd 708d 6a3e d8ca 89bd
00000260: dcd2 d63b f2f2 f13c 80ed 02be f17a 353e
00000270: 87f7 3bbd a26d 6d3c 5408 a2bd cdcb 043d
00000280: 95a0 41be 5a02 9f3d 8f07 6abd 4f09 93be
00000290: cba4 3c3e 535a 723e fb57 1abf 250d 603e
000002a0: 5075 24be 90d9 323e 0335 583e 0101 1c3d
000002b0: b686 bd3a 5dac a03d 6e05 2c3e 33ca 81bd
000002c0: 3d55 073e da82 c2be 52c7 b9bd 5389 14bf
000002d0: cc70 18bf 9073 8abd bf38 3b3d 5bfb 32be
000002e0: 9619 efbe de0e 5dbd f292 3dbe f8d4 e0bd
000002f0: fac1 d23e 165a f7be 0f0a db3d 7465 48be
00000300: 627a 6dbe 7cda 93be 0e57 0ebe 80b7 0f3e
00000310: d119 363d 2f8f bdbd f65c 5ebe b2e6 7abe
00000320: 92d2 64bd ef7f 2f3e 513e 563e 985a 2c3e
00000330: d7d2 ac3b afe2 09be 57f4 57be cf01 5cbd
00000340: 01b8 c53b 9919 db3c 5605 3a3e 2526 443e
00000350: b9d4 c1bd ba86 ce3e 8baa 363b 321f 38be
00000360: 6dae 203e 8fe8 c3bd 56a8 10be 7d1e 923d
00000370: 1028 3e3b e5f3 c1bd 20b9 0dbe 6191 013e
00000380: fcf7 b03b 0b6a 97be cabc 55bb 1f62 ebbd
00000390: 5be8 3f3e 3244 0d3d 3ab3 2d3e 5ec4 2abe
000003a0: b8ab 553d d77c b2bd ef69 05be f7b1 87bc
000003b0: 2e76 fabd 8f54 e4be b5dc 9fbe 89de f03d
000003c0: 7f01 273e 426f 613d 6c7f 85bd 87bd 913d
000003d0: 29dc 263e afe0 4d3d 0fa7 993d 856b 9abd
000003e0: 9a2c 973d 46f8 2bbc 83a0 bd3c c705 223d
000003f0: 6a35 543d 7d95 39bd 430a 923c c503 453d

sequential_1/time_distributed/sequential/conv2d_2/Conv2D f4 [64, 3, 3, 64]
0.23118973 -0.06101252 -0.09189525 0.121292874 0.09057806 0.17655642 -0.16175398 0.10394537
-0.22922759 0.25869623 -0.110713586 -0.18196124 -0.049306914 0.07744489 0.18805656 0.002502234
0.13175687 -0.037095387 0.033514656 0.0914767 -0.11879164 -0.012053491 -0.09404798 0.26176247
-0.060479365 -0.19636561 -0.043677133 0.08648204 -0.13907753 0.05470873 -0.10622088 0.14458162
-0.22136436 -0.0057348846 -0.010358333 -0.09479049 0.22449498 -0.10717373 -0.30219376 0.028557893
0.18417054 0.022758521 -0.0611378 -0.11945448 0.010131594 0.079667985 0.24484816 0.18979198
0.18264614 -0.014146046 -0.016966403 0.052607905 -0.0012146966 0.09673799 0.15632115 -0.082762904
0.084856704 0.050639383 -0.0846409 0.13836986 0.020702733 -0.06784516 0.19863038 -0.20993938
0.16834262 -0.24398124 0.12151967 -0.058667053 0.054562185 -0.15151308 -0.014557046 0.18943891
0.19223201 0.067683294 -0.1058331 -0.029206468 -0.11233367 0.0859296 0.017508194 0.08820279
0.20556127 -0.16876432 -0.05669616 -0.0719517 -0.2720315 -0.03898498 -0.12291415 -0.08468504
-0.04525106 -0.07928225 0.1176572 0.1371652 0.08675193 0.040120117 -0.04202436 0.29266033
-0.14184114 -0.13086142 0.08278503 0.13560665 0.10011239 -0.10484558 0.09133169 -0.3321031
-0.22879636 -0.15915798 0.38627845 0.007462607 -0.16842353 0.069441095 0.2642235 0.1567979
-0.067595616 0.098185584 -0.17930071 0.07510302 0.3452376 0.24284916 0.20348118 0.04418768
0.059723776 0.15202734 -0.0031611442 -0.2406239 0.015264028 -0.17044802 0.20639434 -0.042540945
0.063945696 -0.06810171 0.02169475 -0.044785827 -0.023038946 -0.04026031 -0.0021909773 0.05295244
-0.056086667 -0.026417643 -0.03822514 0.04926391 0.02507811 0.026448958 0.024983883 0.024491437
0.03251577 0.04213479 -0.06287815 -0.0103001185 0.04715833 0.053389505 0.02923897 0.010861494
-0.007475704 0.0009911582 -0.06569134 0.014469825 -0.057260264 -0.028043319 -0.046941876 -0.054317318
-0.06116878 -0.056631975 -0.069257826 0.018502347 -0.04945158 0.037633188 -0.027170524 0.04057701
-0.048711397 0.052678585 -0.037202254 -0.016197912 0.028595604 0.012582369 -0.023820873 -0.032851916
-0.005321294 -0.037626375 -0.029059354 -0.029964201 -0.019230295 0.041252777 -0.04724641 -0.021576695
0.0067700073 -0.026596121 -0.03291804 0.071620464 -0.05898073 0.02943442 -0.060290582 0.0370602
0.012190836 -0.13534765 -0.09009761 -0.29998937 -0.03879769 -0.2763562 -0.040319443 0.09851155
-0.013471797 0.1820878 0.089594536 -0.060368467 0.13812259 0.012108016 0.18373093 -0.09245298
0.01746558 -0.16096094 -0.12912238 -0.023029651 0.2550787 -0.01781245 -0.048123047 0.19310752
0.08684564 -0.064145505 -0.16439761 -0.30272457 0.2632988 -0.025534539 0.14387864 0.09565194
-0.14036927 0.07142203 0.21361679 0.1607027 -0.12408954 0.17122169 0.087144345 0.05601551
0.16663088 -0.09151598 -0.09994424 -0.46115068 0.18677469 0.24741462 0.18262288 -0.07984865
-0.054618195 0.13382466 -0.06247192 0.095079444 0.09832731 0.025762191 0.038115527 0.06768729
-0.056500725 0.042835895 0.068859644 0.19024639 -0.10865214 0.2611822 -0.0392962 0.021717053
00000000: 00bd 6c3e 44e8 79bd 9433 bcbd 6668 f83d
00000010: fd80 b93d 35cb 343e d6a2 25be 4fe1 d43d
00000020: a3ba 6abe d573 843e cebd e2bd 0c54 3abe
00000030: 0cf6 49bd 6d9b 9e3d e691 403e 85fc 233b
00000040: 46eb 063e 55f1 17bd aa46 093d 2358 bb3d
00000050: 0849 f3bd 017c 45bc 3a9c c0bd bb05 863e
00000060: 36b9 77bd 1114 49be cbe6 32bd 7f1d b13d
00000070: 576a 0ebe 4316 603d 558a d9bd 340d 143e
00000080: 57ad 62be b3eb bbbb ffb5 29bc 8421 c2bd
00000090: 03e2 653e e77d dbbd 24b9 9abe 3ef2 e93c
000000a0: 3497 3c3e 1470 ba3c a16b 7abd 8da4 f4bd
000000b0: fcfe 253c f828 a33d 7ab9 7a3e d458 423e
000000c0: 9707 3b3e d1c4 67bc 20fd 8abc 637b 573d
000000d0: 7436 9fba 911e c63d a712 203e 997f a9bd
000000e0: 5ac9 ad3d 3e6b 4f3d 3558 adbd d4b0 0d3e
000000f0: c798 a93c 67f2 8abd c365 4b3e 59fa 56be
00000100: 0262 2c3e 38d6 79be 4edf f83d dd4c 70bd
00000110: 997c 5f3d 3f26 1bbe ad80 6ebc 46fc 413e
00000120: 78d8 443e 8a9d 8a3d 06bf d8bd 6742 efbc
00000130: 320f e6bd dcfb af3d 586d 8f3c aaa3 b43d
00000140: a77e 523e 8ed0 2cbe 3c3a 68bd 6a5b 93bd
00000150: b647 8bbe b7ae 1fbd 6aba fbbd 5a6f adbd
00000160: 2d59 39bd bb5e a2bd 42f6 f03d 0975 0c3e
00000170: ffaa b13d fe54 243d bc21 2cbd 93d7 953e
00000180: ce3e 11be 8900 06be 338b a93d 78dc 0a3e
00000190: ba07 cd3d 48b9 d6bd 1c0c bb3d 6b09 aabe
000001a0: 9849 6abe 4ffa 22be 4ac6 c53e e388 f43b
000001b0: 3877 2cbe 2237 8e3d 4d48 873e a18f 203e
000001c0: 926f 8abd 8615 c93d 9b9a 37be 9dcf 993d
000001d0: fcc2 b03e 73ad 783e 5f5d 503e 24fe 343d
000001e0: eba0 743d 0ead 1b3e 332b 4fbb 1d66 76be
000001f0: f915 7a3c ed89 2ebe 0a59 533e 6a3f 2ebd
00000200: f6f5 823d e978 8bbd 30b9 b13c 5871 37bd
00000210: 2cbc bcbc ffe7 24bd 8096 0fbb a8e4 583d
00000220: 22bb 65bd d069 d8bc f791 1cbd f4c8 493d
00000230: 9c70 cd3c 7cab d83c 00ab cc3c 44a2 c83c
00000240: 422f 053d 8895 2c3d 42c6 80bd d4c1 28bc
00000250: 1829 413d f4ae 5a3d 9086 ef3c 68f4 313c
00000260: c0f6 f4bb c0e9 813a 2e89 86bd d812 6d3c
00000270: bd89 6abd 1abb e5bc 2046 40bd d67b 5ebd
00000280: 1d8c 7abd eef6 67bd 0cd7 8dbd 3c92 973c
00000290: bd8d 4abd 4225 1a3d b894 debc 1434 263d
000002a0: 9a85 47bd 80c5 573d 6461 18bd 7cb1 84bc
000002b0: 5441 ea3c 4826 4e3c fe23 c3bc bb8f 06bd
000002c0: 405e aebb 1d1e 1abd e20d eebc 7c77 f5bc
000002d0: da88 9dbc acf8 283d 7485 41bd 9cc1 b0bc
000002e0: f0d6 dd3b 1ce0 d9bc 11d5 06bd c0ad 923d
000002f0: c795 71bd 7420 f13c 42f3 76bd 70cc 173d
00000300: 12bc 473c 9398 0abe 1985 b8bd 3598 99be
00000310: 54ea 1ebd 8f7e 8dbe 0026 25bd 6cc0 c93d
00000320: d0b8 5cbc 3975 3a3e 577d b73d ed44 77bd
00000330: 0270 0d3e b360 463c f623 3c3e fd57 bdbd
00000340: fa13 8f3c f2d2 24be a838 04be aea8 bcbc
00000350: ad99 823e 6aeb 91bc ac1c 45bd fabd 453e
00000360: 20dc b13d b85e 83bd d957 28be b7fe 9abe
00000370: 1acf 863e cf2d d1bc ec54 133e 2ae5 c33d
00000380: f6bc 0fbe b745 923d 5cbe 5a3e 408f 243e
00000390: a822 febd bd54 2f3e bc78 b23d 8570 653d
000003a0: 49a1 2a3e bb6c bbbd 91af ccbd f11b ecbe
000003b0: dd41 3f3e 425a 7d3e 7e01 3b3e b087 a3bd
000003c0: 54b7 5fbd 5509 093e 8ee2 7fbd 03b9 c23d
000003d0: d45f c93d 3b0b d33c 071f 1c3d a29f 8a3d
000003e0: 4e6d 67bd b174 2f3d 4906 8d3d f3cf 423e
000003f0: 0385 debd acb9 853e 0df5 20bd f6e7 b13c

sequential_1/time_distributed/sequential/dense/BiasAdd/ReadVariableOp f4 [32]
0.0014731393 -0.17050865 -0.17533912 0.07717191 -0.018232679 -0.021461677 -0.17445469 -0.31902382
-0.06405931 -0.13252497 -0.05182842 -0.12184159 0.04530395 -0.21751785 -0.09421873 -0.15041201
-0.10887205 -0.14063571 -0.05656599 -0.17792043 -0.16083565 -0.064066134 -0.24766365 -0.06408625
-0.04040674 -0.2105958 -0.08002934 -0.15883109 -0.13517964 -0.0744098 0.021319509 -0.030830555
00000000: 5a16 c13a d299 2ebe 198c 33be 4e0c 9e3d
00000010: b35c 95bc 66d0 afbc 40a4 32be 1757 a3be
00000020: 8731 83bd a0b4 07be 0a4a 54bd 1588 f9bd
00000030: a290 393d 00bd 5ebe c0f5 c0bd 9b05 1abe
00000040: 4ff8 debd cf02 10be bdb1 67bd c630 36be
00000050: 1ab2 24be 1b35 83bd 8a9b 7dbe a73f 83bd
00000060: 8a81 25bd 6da6 57be 6ce6 a3bd 9ea4 22be
00000070: 886c 0abe 2a64 98bd 40a6 ae3c 5c90 fcbc

sequential_1/lstm/Read_2/ReadVariableOp f4 [64]
-0.0590847 0.1691746 -0.057759903 -0.030416196 0.1754686 0.5911075 0.09182839 0.07891695
0.1024283 0.17025742 0.049998205 0.0699116 -0.12399271 0.18691541 0.12447589 0.26496407
0.9029514 0.67318577 0.9735506 1.0504519 1.1946713 0.9819352 1.096688 0.8521352
0.8370929 0.9532912 1.0809869 1.0927305 0.8124836 0.9025686 0.61595523 0.9848686
0.0040126243 -0.084383816 -0.11356351 -0.29799423 0.0411525 0.35572192 0.13944572 0.13738544
0.14630222 0.15431486 0.075354494 -0.18048246 -0.04744983 0.122766994 -0.1018629 0.16933176
0.1039115 0.3444373 0.09862719 0.07394359 0.030259665 0.12608097 0.16218281 -0.006043533
0.22549185 0.121303804 -0.127104 0.011151956 -0.07215991 -0.1872511 0.24073134 0.17230366
00000000: cc02 72bd 1b3c 2d3e a695 6cbd 632b f9bc
00000010: 0aae 333e d252 173f 8610 bc3d 369f a13d
00000020: eec5 d13d f657 2e3e ebca 4c3d d02d 8f3d
00000030: e4ef fdbd c166 3f3e 37ed fe3d 5fa9 873e
00000040: d327 673f e755 2c3f 9d3a 793f 3575 863f
00000050: fdea 983f 1b60 7b3f 4660 8c3f 8825 5a3f
00000060: b84b 563f e40a 743f c75d 8a3f 98de 8b3f
00000070: edfe 4f3f bc0e 673f 3eaf 1d3f 5920 7c3f
00000080: 557c 833b 6cd1 acbd fc93 e8bd b392 98be
00000090: 868f 283d 2f21 b63e dcca 0e3e c5ae 0c3e
000000a0: 40d0 153e b704 1e3e 7553 9a3d 65d0 38be
000000b0: c15a 42bd 436d fb3d 7f9d d0bd 4e65 2d3e
000000c0: 8dcf d43d 165a b03e 0dfd c93d bd6f 973d
000000d0: 1ee3 f73c 5f1b 013e 4013 263e d408 c6bb
000000e0: 56e7 663e 216e f83d 8d27 02be b2b6 363c
000000f0: 93c8 93bd c1be 3fbe 4782 763e 5f70 303e

sequential_1/lstm_1/Read_2/ReadVariableOp f4 [64]
0.07591363 0.002298832 -0.099790215 -0.10309957 0.121201664 0.20153446 -0.09369924 0.055336352
0.105667725 0.037795935 0.5064493 0.056701183 0.064812936 0.16669586 -0.051060725 -0.031235637
0.77712977 1.0146676 1.0268528 1.0197841 1.0075241 0.9839313 1.078608 1.0539794
0.8545529 1.095551 0.91948396 1.1192088 1.2433516 0.9541561 0.968304 0.9612951
-0.06303936 -0.07861761 0.06317885 -0.049233936 -0.058631334 0.05633238 -0.026025493 0.04473832
-0.03793929 -0.055461787 -0.10430855 -0.10389464 -0.05740295 0.035941437 -0.04941642 -0.05869097
-0.022823267 0.059148267 -0.04181994 -0.08260767 0.27593288 0.05464404 -0.006797759 -0.014814189
0.039926585 0.11607835 0.41425204 0.039555244 0.20538232 0.19772515 -0.13159235 -0.056051906
00000000: 9b78 9b3d 00a8 163b d05e ccbd de25 d3bd
00000010: 9438 f83d 0d5f 4e3e 63e5 bfbd 5fa8 623d
00000020: 5268 d83d e9cf 1a3d a9a6 013f 803f 683d
00000030: a5bc 843d 52b2 2a3e 0d25 51bd e1e1 ffbc
00000040: faf1 463f a1e0 813f ea6f 833f 4988 823f
00000050: 8df6 803f ece2 7b3f d40f 8a3f cce8 863f
00000060: fbc3 5a3f 043b 8c3f 4d63 6b3f 3c42 8f3f
00000070: 2526 9f3f 9343 743f c5e2 773f 7017 763f
00000080: c81a 81bd 4502 a1bd ea63 813d 86a9 49bd
00000090: 6927 70bd c8bc 663d 6a33 d5bc 873f 373d
000000a0: 3b66 1bbd e62b 63bd b99f d5bd b7c6 d4bd
000000b0: 5b1f 6bbd 5437 133d df68 4abd f165 70bd
000000c0: dcf7 babc 7445 723d 634b 2bbd 362e a9bd
000000d0: 1347 8d3e 6ed2 5f3d bcbf debb 36b7 72bc
000000e0: 0f8a 233d 7cba ed3d d818 d43e ae04 223d
000000f0: be4f 523e 7678 4a3e 25c0 06be af96 65bd

sequential_1/dense_1/BiasAdd/ReadVariableOp f4 [32]
-0.038345426 -0.07945381 0.12365077 0.14453013 -0.11006424 -0.054739866 -0.025653824 0.08230993
-0.03945232 0.17328203 -0.10494732 0.12475012 -0.027737102 -0.05080262 0.021537188 0.10165405
-0.017680801 0.198397 -0.05445708 0.0581439 0.17055753 -0.096563175 0.09020158 -0.068673454
0.008905127 0.19833674 0.063790284 -0.07791736 0.16833586 0.09800723 -0.019149965 -0.113165185
00000000: 1810 1dbd aeb8 a2bd 9d3c fd3d b5ff 133e
00000010: 5c69 e1bd e936 60bd f827 d2bc 1c92 a83d
00000020: c298 21bd d870 313e 9fee d6bd fe7c ff3d
00000030: eb38 e3bc 6816 50bd c26e b03c 0030 d03d
00000040: 54d7 90bc 9528 4b3e 630e 5fbd 4c28 6e3d
00000050: a2a6 2e3e eac2 c5bd 9bbb b83d aba4 8cbd
00000060: cfe6 113c c918 4b3e 7ba4 823d 2393 9fbd
00000070: 3c60 2c3e 04b8 c83d 63e0 9cbc 26c3 e7bd

sequential_1/time_distributed/sequential/batch_normalization/FusedBatchNormV3 f4 [32]
2.564436 2.1661584 7.4233155 0.9577621 4.2620316 14.124724 1.8020905 8.440777
2.1647623 3.341421 4.100236 13.281056 2.9897208 3.471146 32.126762 4.2139707
1.0577383 0.4315621 1.68466 1.1781232 2.8436472 2.5134943 1.5373683 2.4720252
1.0001655 3.5666862 1.9591302 6.167517 3.5031216 1.0384977 5.7372556 2.15865
00000000: b81f 2440 57a2 0a40 cd8b ed40 e62f 753f
00000010: 9062 8840 dffe 6141 e7aa e63f 6c0d 0741
00000020: 778b 0a40 d7d9 5540 2235 8340 357f 5441
00000030: 9657 3f40 4227 5e40 ce81 0042 d9d8 8640
00000040: f863 873f b5f5 dc3e f0a2 d73f becc 963f
00000050: 51fe 3540 17dd 2040 7cc8 c43f a935 1e40
00000060: 6c05 803f 9644 6440 c7c4 fa3f 4d5c c540
00000070: 2533 6040 7eed 843f 9997 b740 5227 0a40

sequential_1/time_distributed/sequential/batch_normalization/FusedBatchNormV31 f4 [32]
-0.13713183 -0.5221107 -0.2511656 -0.40674603 -0.4808023 -0.4690522 -0.3210097 -0.4742395
-0.15977515 -0.09028059 -0.12302317 -0.25516406 -0.77946645 -0.700044 -0.5079945 -0.09456721
-0.15189995 -0.38424334 -0.065011576 -0.3054501 -0.3622909 -0.4285696 -0.41648883 -0.2345648
-0.37458012 -0.18999404 -0.12889919 -0.46272576 -0.20310304 -0.20459673 -0.17418769 -0.3804753
00000000: 496c 0cbe 0ca9 05bf c798 80be 0441 d0be
00000010: b82b f6be 9c27 f0be 625b a4be 85cf f2be
00000020: 199c 23be 08e5 b8bd 92f3 fbbd dda4 82be
00000030: 1d8b 47bf 1536 33bf ed0b 02bf 74ac c1bd
00000040: a98b 1bbe 8bbb c4be ca24 85bd f563 9cbe
00000050: 317e b9be 7a6d dbbe 063e d5be c131 70be
00000060: f7c8 bfbe cc8d 42be 26fe 03be 64ea ecbe
00000070: 3efa 4fbe ce81 51be 425e 32be a9cd c2be

sequential_1/time_distributed/sequential/batch_normalization_1/FusedBatchNormV3 f4 [64]
0.6853943 1.2930576 2.4706748 1.01616 1.2269434 0.93609226 0.95646834 0.40117696
1.1065763 0.35640934 0.70981616 0.51562446 0.43058968 0.310441 0.65725154 0.819355
0.60203904 1.1712062 1.409912 1.4838767 0.7460008 0.4811443 0.860741 1.1596657
1.4022242 0.6576726 0.49796972 1.1714034 0.37774807 2.0226762 0.619886 1.5009431
0.60416305 0.7203818 0.3912538 0.35000023 0.8347036 0.38132137 0.5926878 1.6680896
0.8271177 1.0205926 0.68838197 0.8768083 0.4926056 0.7911967 0.46574947 0.959035
0.8003748 0.48812863 0.32406256 1.0235345 1.6439993 0.3365742 1.2957749 0.26709256
0.65070844 0.74238634 0.95665306 0.5990611 1.1066313 0.7062497 0.9453949 0.30011553
00000000: 0076 2f3f e982 a53f 891f 1e40 8811 823f
00000010: 7b0c 9d3f bea3 6f3f 1cdb 743f 1167 cd3e
00000020: 4ba4 8d3f 497b b63e 83b6 353f f7ff 033f
00000030: 4076 dc3e 1ff2 9e3e a341 283f 40c1 513f
00000040: 3b1f 1a3f 16ea 953f ff77 b43f acef bd3f
00000050: e9f9 3e3f 8c58 f63e 8659 5c3f ed6f 943f
00000060: 157c b33f 3b5d 283f e3f5 fe3e 8cf0 953f
00000070: 3268 c13e 8773 0140 d9b0 1e3f e71e c03f
00000080: 6eaa 1a3f f16a 383f 6b52 c83e 3b33 b33e
00000090: 23af 553f 8e3c c33e 63ba 173f f683 d53f
000000a0: fcbd 533f c7a2 823f cd39 303f 8276 603f
000000b0: cd36 fc3e de8b 4a3f b776 ee3e 5183 753f
000000c0: 5de5 4c3f ffeb f93e 87eb a53e 2e03 833f
000000d0: 926e d23f 7453 ac3e f4db a53f 5bc0 883e
000000e0: d494 263f 080d 3e3f 37e7 743f 115c 193f
000000f0: 18a6 8d3f c8cc 343f 6605 723f bea8 993e

sequential_1/time_distributed/sequential/batch_normalization_1/FusedBatchNormV31 f4 [64]
-0.7306018 -0.85263056 -0.80485755 -0.4470077 -0.50809956 -0.46536773 -0.6833699 -0.62313485
-0.23488271 -0.40012154 -0.2859574 -0.3410793 -0.57831985 -0.4517813 -0.30951017 -0.7899312
-0.34116507 -0.47158393 -0.7660494 -0.581046 -0.19931379 -0.34211645 -0.49648356 -0.68210614
-0.57070315 -0.8794049 -0.67416036 -0.3163846 -0.33387893 -0.48098767 -0.50829005 -0.61376077
-0.54269123 -0.3326515 -0.46137 -0.4571127 -0.30853787 -0.25081998 -0.3920315 -0.8784716
-0.33247003 -0.5559512 -0.39039594 -0.9167563 -0.45377868 -0.47144285 -0.29246914 -0.5622774
-0.7552739 -0.37834808 -0.33653477 -0.6824161 -0.5953813 -0.30079353 -0.9513979 -0.16572207
-0.36426526 -0.41637835 -0.5790288 -0.49966463 -0.80691665 -0.30121803 -0.36901677 -0.30985552
00000000: b808 3bbf ff45 5abf 250b 4ebf 31de e4be
00000010: d012 02bf ae44 eebe 54f1 2ebf c485 1fbf
00000020: 1885 70be bbdc ccbe 0269 92be f2a1 aebe
00000030: c50c 14bf e14f e7be 1e78 9ebe ee38 4abf
00000040: 30ad aebe 7373 f1be d01b 44bf 6ebf 14bf
00000050: ea18 4cbe e329 afbe 1833 febe 829e 2ebf
00000060: 9a19 12bf ae20 61bf c695 2cbf 2afd a1be
00000070: 2ef2 aabe 0444 f6be 4c1f 02bf 6d1f 1dbf
00000080: d0ed 0abf 4c51 aabe b038 ecbe ad0a eabe
00000090: adf8 9dbe 7a6b 80be 5ab8 c8be 84e3 60bf
000000a0: 8339 aabe d152 0ebf fae1 c7be 8ab0 6abf
000000b0: ae55 e8be f560 f1be 84be 95be 69f1 0fbf
000000c0: a159 41bf d7b6 c1be 494e acbe d2b2 2ebf
000000d0: e96a 18bf 9c01 9abe d08e 73bf 0cb3 29be
000000e0: fa80 babe 8b2f d5be 3b3b 14bf 0bd4 ffbe
000000f0: 1792 4ebf 4039 9abe c4ef bcbe 62a5 9ebe

sequential_1/time_distributed/sequential/batch_normalization_2/FusedBatchNormV3 f4 [64]
0.11549861 0.5375568 0.19107139 0.20386302 1.1006742 0.3292501 0.7670257 0.3243556
1.2715956 0.34846398 0.4336621 0.37014627 0.5444214 0.81121635 0.62503076 0.7327392
0.25798005 0.37378004 0.3025513 1.4254236 0.39266872 0.4297724 0.18313022 0.6864824
0.7287032 0.30913538 0.20503668 0.90800464 0.4288073 0.37494072 0.7416763 0.362811
5.6074915 0.23423252 0.5320646 0.590428 0.9537743 0.3574957 0.43958628 0.4573241
1.0606226 0.17608882 0.595913 0.13134605 0.5784138 0.26234013 0.20118037 0.40219948
0.59443176 0.680345 0.44204745 0.29975125 0.5017238 0.7401399 0.16568011 0.16800869
0.36033595 0.63952315 0.28920162 0.14617471 0.30737466 0.236853 0.37735423 0.38821453
00000000: 898a ec3d 539d 093f 38a8 433e 78c1 503e
00000010: e4e2 8c3f 7893 a83e cc5b 443f f011 a63e
00000020: a5c3 a23f df69 b23e f508 de3e d083 bd3e
00000030: 335f 0b3f e0ab 4f3f 0402 203f cc94 3b3f
00000040: f615 843e 1960 bf3e 01e8 9a3e 4874 b63f
00000050: e00b c93e 210b dc3e 7d86 3b3e 50bd 2f3f
00000060: 4b8c 3a3f fe46 9e3e 23f5 513e fe72 683f
00000070: a18c db3e 3bf8 bf3e 7fde 3d3f 5dc2 b93e
00000080: 9270 b340 a6da 6f3e 6335 083f 4a26 173f
00000090: 8d2a 743f ad09 b73e 7411 e13e 6226 ea3e
000000a0: 7bc2 873f a150 343e c18d 183f 947f 063e
000000b0: ed12 143f 7251 863e 3a02 4e3e 17ed cd3e
000000c0: ae2c 183f 172b 2e3f 0b54 e23e ff78 993e
000000d0: f970 003f cf79 3d3f 0ca8 293e 780a 2c3e
000000e0: f47d b83e cab7 233f 3c12 943e d3ae 153e
000000f0: 3660 9d3e 9889 723e 9334 c13e 0ec4 c63e

sequential_1/time_distributed/sequential/batch_normalization_2/FusedBatchNormV31 f4 [64]
-0.69484127 -0.56357294 -0.290151 -0.63467664 -0.16337226 -0.37057313 -0.43266356 -0.35568637
-0.32946032 -0.0687975 -0.08156665 -0.6032397 -0.27710658 -0.30863667 -0.20134106 -0.53648907
-0.43145326 -0.5028281 -0.32280624 -0.11591858 -0.21024406 -0.5352435 -1.1935868 -0.46388602
-0.2965074 -0.5957402 -0.5113853 -0.2658403 -0.3873749 -0.5434494 -0.36406678 -0.5846224
-0.0059784874 -0.45596525 -0.5164831 -0.35769662 -0.2288728 -0.16794808 0.03181173 -0.63528425
-0.18934813 -0.90812635 -0.4116373 -0.54790354 -0.15192392 -0.42557308 -0.84431624 -0.3316929
-0.2563742 -0.42512918 -0.19470726 -0.36844763 -0.26443735 -0.0010131747 -0.6035364 -0.6426545
-0.26293573 -0.38934827 -0.3717312 -0.38828436 -0.85135794 -0.62240285 -0.5282742 -0.4225364
00000000: 1ee1 31bf 5146 10bf ac8e 94be 2b7a 22bf
00000010: 0f4b 27be c3bb bdbe 1486 ddbe 861c b6be
00000020: 06af a8be b4e5 8cbd 6a0c a7bd eb6d 1abf
00000030: eae0 8dbe a005 9ebe 5a2c 4ebe 5957 09bf
00000040: 71e7 dcbe 58b9 00bf dc46 a5be b866 edbd
00000050: 384a 57be b805 09bf 74c7 98bf 7882 edbe
00000060: d1cf 97be 6e82 18bf 26ea 02bf 381c 88be
00000070: 0156 c6be 801f 0bbf f666 babe d0a9 15bf
00000080: 30e7 c3bb 4774 e9be 3d38 04bf 0324 b7be
00000090: a25d 6abe 95fa 2bbe 044d 023d fda1 22bf
000000a0: 7ae4 41be f87a 68bf 20c2 d2be 6843 0cbf
000000b0: f291 1bbe b7e4 d9be 1c25 58bf a7d3 a9be
000000c0: 7b43 83be 88aa d9be 5761 47be 2ba5 bcbe
000000d0: 5564 87be 80cc 84ba 5d81 1abf 0185 24bf
000000e0: 839f 86be a858 c7be 8d53 bebe 35cd c6be
000000f0: 98f2 59bf cb55 1fbf fa3c 07bf b156 d8be

sequential_1/time_distributed/sequential/dense/MatMul f4 [32, 64]
-0.20695888 0.21489301 0.1853767 -0.035915393 -0.22898327 -0.17176658 -0.13141635 -0.13593622
0.56240267 0.030297447 0.21737285 0.028558668 -0.08188343 0.22996442 0.09160483 -0.18815081
-0.17882663 0.17505911 0.058215972 0.3652801 0.2248554 0.21743128 0.15882505 0.23659274
-0.09978128 0.22609751 -0.1155403 -0.035884876 0.035257608 -0.0421328 -0.36562097 0.27099797
0.467143 -0.040116042 -0.3878307 -0.32268897 -0.27252966 -0.107341535 -0.16698283 -0.042653825
0.07393811 -0.10442884 0.22916152 -0.39760247 -0.089591846 0.052194316 0.10176771 -0.05390513
-0.09480774 0.26573122 -0.10382783 -0.108604856 -0.04681353 -0.33388856 -0.10951022 -0.40803564
-0.12330024 -0.121017225 -0.086151876 -0.33647686 0.11222861 0.17616808 -0.19713856 0.19349487
0.09405103 -0.27203554 -0.11402566 0.042328328 -0.061658554 -0.15646788 0.33933425 0.18806776
-0.01785749 -0.05573463 -0.18419906 0.088863775 -0.16435032 0.1187944 -0.032168 0.24148566
-0.18513145 0.25226665 -0.027645806 0.020292692 -0.075816564 -0.26968744 0.12110414 -0.27306405
0.11886073 -0.2758529 -0.24148451 0.19896515 0.31354475 -0.01865843 -0.11701925 -0.091585904
0.085393935 0.3514644 0.12850071 -0.1068604 -0.0019205101 -0.022261707 -0.17668484 0.37675118
-0.2188156 0.2570479 -0.3242427 -0.017035997 -0.20505749 0.03262967 -0.13531724 -0.08625006
-0.28132305 -0.13807216 -0.20777991 -0.124979265 0.2428826 -0.10459802 -0.08297979 0.12816933
0.117460616 0.36219385 -0.31471932 -0.031842425 0.09677695 -0.14869638 -0.3562994 0.1722297
0.1998408 -0.08251157 0.18060617 0.026855014 0.10345118 -0.096413635 -0.29525605 0.1783257
-0.10571614 -0.16040991 0.02475345 0.3461997 -0.01616799 0.18250813 0.07005164 0.30889392
-0.18584898 0.27471408 0.14966409 -0.029691905 -0.16532448 -0.09437535 0.036383547 -0.052979633
-0.2173776 0.123926535 -0.30107868 0.29095635 0.312198 0.19438174 0.18411699 -0.049469452
0.26388338 0.084059745 -0.13651167 0.2554073 -0.009774759 0.012183555 -0.03640531 -0.097101
0.072162926 0.28097436 -0.13615084 0.021252923 0.2103905 0.0749473 -0.4381243 0.13050538
-0.10626466 -0.24390605 0.17216061 -0.015987467 -0.32954136 -0.19995399 0.10386652 0.07609043
0.10079231 -0.14429761 -0.077038705 -0.14866735 0.25951463 -0.1650341 -0.060081344 0.20254734
-0.09260745 0.2189751 -0.07322437 -0.03165725 -0.022812044 0.111613095 -0.3101715 -0.08496457
-0.030302713 -0.021389361 0.06081739 0.055439856 0.003443927 -0.26040423 0.116051234 -0.06465485
0.2309464 -0.11763942 -0.20193672 -0.18168338 0.32499376 0.19120431 0.18138644 -0.025869032
0.053831033 0.1853064 0.3906311 0.06959425 -0.07265798 -0.07313877 -0.01738989 0.18020459
-0.057430826 0.11097215 0.07971892 -0.33663514 0.25673765 -0.24009243 -0.23928672 -0.055015206
0.16476329 -0.16557331 -0.026233124 -0.2922982 -0.056904107 -0.0057380027 -0.04455395 0.07078275
0.049609832 0.2595442 0.1253256 0.0028797607 0.13503872 -0.20225872 -0.12809859 -0.11842003
-0.037011467 0.041316304 -0.121851675 0.0068365643 -0.021351948 0.05674048 0.24340758 -0.07349863
00000000: 07ed 53be ea0c 5c3e 64d3 3d3e 051c 13bd
00000010: 977a 6abe 94e3 2fbe 0292 06be dd32 0bbe
00000020: 9ff9 0f3f 5a32 f83c fd96 5e3e def3 e93c
00000030: 80b2 a7bd cb7b 6b3e 509b bb3d 9baa 40be
00000040: 541e 37be b242 333e df73 6e3d fe05 bb3e
00000050: 7e40 663e 4ea6 5e3e 09a3 223e 5e45 723e
00000060: 215a ccbd 1b86 673e 65a0 ecbd 05fc 12bd
00000070: 486a 103d 7193 2cbd ac32 bbbe 3fc0 8a3e
00000080: 5e2d ef3e b850 24bd bf91 c6be 7d37 a5be
00000090: 0289 8bbe e1d5 dbbd 8cfd 2abe c7b5 2ebd
000000a0: dd6c 973d cade d5bd 51a9 6a3e 8d92 cbbe
000000b0: ee7b b7bd b5c9 553d 976b d03d a0cb 5cbd
000000c0: 8f2a c2bd ec0d 883e afa3 d4bd 396c debd
000000d0: 8bbf 3fbd 71f3 aabe e546 e0bd 0cea d0be
000000e0: d684 fcbd e1d7 f7bd 6570 b0bd b246 acbe
000000f0: 1dd8 e53d 6865 343e b1de 49be 8523 463e
00000100: d49d c03d 3e48 8bbe 4986 e9bd 7860 2d3d
00000110: ae8d 7cbd 1e39 20be 38bd ad3e d694 403e
00000120: df49 92bc ff49 64bd ae9e 3cbe 36fe b53d
00000130: 734b 28be 7a4a f33d 98c2 03bd 0448 773e
00000140: 1993 3dbe 1829 813e 7579 e2bc dc3c a63c
00000150: b745 9bbd 7914 8abe 7305 f83d 0dcf 8bbe
00000160: 416d f33d 973c 8dbe b747 77be 85bd 4b3e
00000170: f088 a03e 90d9 98bc caa7 efbd 6491 bbbd
00000180: 04e3 ae3d 24f3 b33e b195 033e a0d9 dabd
00000190: a0b9 fbba 2f5e b6bc dfec 34be 88e5 c03e
000001a0: 3211 60be c89b 833e 2403 a6be 138f 8bbc
000001b0: 97fa 51be b0a6 053d 9a90 0abe dfa3 b0bd
000001c0: 9309 90be ca62 0dbe 42c4 54be 21f5 ffbd
000001d0: 37b6 783e 7d37 d6bd 4ff1 a9bd d23e 033e
000001e0: 318f f03d 7971 b93e e422 a1be 346d 02bd
000001f0: fe32 c63d dd43 18be e06c b6be fc5c 303e
00000200: 11a3 4c3e d3fb a8bd d3f0 383e 0cff db3c
00000210: 36de d33d 8374 c5bd cd2b 97be 039b 363e
00000220: b481 d8bd 7f42 24be bfc7 ca3c 1641 b13e
00000230: bc72 84bc 69e3 3a3e 3c77 8f3d 5827 9e3e
00000240: 324f 3ebe 53a7 8c3e 8b41 193e 703c f3bc
00000250: d24a 29be dd47 c1bd ea06 153d 2c01 59bd
00000260: 3c98 5ebe 32cd fd3d fc26 9abe 3bf8 943e
00000270: 6bd8 9f3e 020c 473e 2a89 3c3e 7ba0 4abd
00000280: b91b 873e 8427 ac3d b7c9 0bbe bfc4 823e
00000290: 5026 20bc 899d 473c bc1d 15bd e4dc c6bd
000002a0: 28ca 933d dfdb 8f3e 206b 0bbe 9c1a ae3c
000002b0: 9b70 573e f87d 993d d451 e0be 34a3 053e
000002c0: 49a1 d9bd 82c2 79be df4a 303e 26f8 82bc
000002d0: a5b9 a8be bdc0 4cbe f8b7 d43d 4dd5 9b3d
000002e0: 336c ce3d c1c2 13be 78c6 9dbd 413c 18be
000002f0: 1adf 843e b3fe 28be db17 76bd 9268 4f3e
00000300: faa8 bdbd 023b 603e a9f6 95bd 08ab 01bd
00000310: 53e0 babc 6895 e43d cdce 9ebe e801 aebd
00000320: 653d f8bc be38 afbc a81b 793d e714 633d
00000330: 82b3 613b b453 85be 45ac ed3d c369 84bd
00000340: 377d 6c3e f0ec f0bd 80c8 4ebe 350b 3abe
00000350: 9565 a63e 10cb 433e 5ebd 393e 4beb d3bc
00000360: ee7d 5c3d f6c0 3d3e cd00 c83e 6e87 8e3d
00000370: b5cd 94bd c8c9 95bd 3e75 8ebc 8d87 383e
00000380: 963c 6bbd 5e45 e33d ac43 a33d 715b acbe
00000390: 1e73 833e cada 75be 9407 75be a057 61bd
000003a0: b5b7 283e 0d8c 29be d9e6 d6bc 1ca8 95be
000003b0: 4814 69bd db05 bcbb 347e 36bd 8cf6 903d
000003c0: ae33 4b3d fae2 843e 5b55 003e 5eba 3c3b
000003d0: 9747 0a3e e91c 4fbe 472c 03be 3386 f2bd
000003e0: 5699 17bd 493b 293d 5f8d f9bd 4205 e03b
000003f0: 48ea aebc b568 683d d63f 793e 7386 96bd

sequential_1/dense_1/MatMul f4 [32, 16]
0.29620892 0.32772171 -0.27406558 -0.20698243 0.17132743 -0.5078274 -0.15939859 -0.10657658
0.06798721 0.6021139 0.47248888 0.25052893 0.009679552 -0.41282725 -0.18142088 0.50697446
-0.069538064 0.39248243 -0.18243203 -0.17775525 0.6667321 -0.52781564 -0.19619793 -0.43685535
-0.021562673 0.30868325 0.17826045 0.0011858102 -0.045078322 -0.4109657 0.033710644 -0.12492166
0.36045033 -0.49974614 -0.021478282 -0.087308586 -0.18783474 0.48119324 -0.30197772 0.3730633
-0.4215614 0.044505037 -0.7236519 -0.47665682 -0.4097657 0.35437372 0.118652776 -0.20813464
0.020272406 -0.38035452 0.34594336 0.112001635 -0.1954731 0.26885417 -0.3796804 -0.045344315
-0.027702313 -0.38175339 -0.29517028 -0.010222017 -0.21235316 0.22381194 -0.40298447 -0.12264843
0.18743551 0.3592296 -0.3396634 0.030827072 0.5259719 0.040229335 0.17180267 -0.2014067
0.41661966 0.3180674 0.65630215 0.04804537 0.11375058 -0.617818 -0.029145695 0.36700898
-0.09688576 0.10594172 0.24502982 0.17770422 0.63037825 0.0031005326 -0.13761501 -0.08728933
0.31169066 0.4261424 0.39676312 0.20166108 0.32206103 -0.30648994 0.31882912 -0.20599042
-0.092368804 0.24965867 -0.1684053 0.14426671 0.3440292 -0.47609645 0.00029485926 -0.12061079
0.4664637 0.1530201 0.18466014 -0.017856648 0.30666012 -0.10109116 0.37307715 -0.1883909
0.3575392 -0.32469675 0.36738545 0.13929299 -0.57197946 0.3840988 -0.4099526 0.3082592
-0.41814107 -0.0010180001 -0.59146106 0.1283 -0.3881514 0.14874165 -0.08734925 -0.005504967
-0.37314484 -0.054150797 0.11061402 0.10497513 0.5754926 -0.25999922 0.21594596 -0.23942943
0.16436617 0.39722434 0.7058108 0.2468865 0.11507868 -0.15914296 0.3634963 0.036648467
0.04394113 -0.49047208 0.21516626 -0.26556015 -0.4707965 0.2732864 -0.5371289 0.053710647
-0.21239837 -0.4505744 -0.71417 -0.1128215 -0.09913847 0.3833242 -0.30530384 0.0661508
-0.13018753 0.27140096 -0.30899763 0.015456142 0.6886179 -0.03017662 0.4686012 -0.2690862
0.4571862 0.59687024 0.59621906 0.43275177 0.4251697 -0.26449043 0.3756604 -0.2135161
-0.10702969 -0.30928496 0.30409637 -0.22442089 -0.06650298 0.28579223 -0.040917933 0.27184838
-0.19644672 -0.32362065 -0.40883595 -0.21872176 -0.32926577 0.33334634 -0.29750198 -0.16867362
0.23272213 0.0151964715 0.31821832 0.20303707 0.31259468 -0.5386454 -0.17289206 -0.13468184
-0.062223144 0.47130024 0.23943089 0.34729183 0.446526 -0.4728058 0.2689578 0.026270201
0.31719708 0.24765244 0.24046601 0.24353872 0.016018672 -0.3504724 0.43751553 -0.46899176
0.39337325 0.15794267 0.29699564 -0.14919677 0.38941577 -0.55311596 0.19321871 0.09354685
-0.06469925 -0.34217194 0.07620774 -0.16882992 -0.0035716558 0.64526796 -0.29610258 0.024705738
-0.13677071 0.08930702 -0.7675044 0.17638765 -0.273157 0.40062287 -0.04477532 -0.15960634
0.02366302 -0.26406693 -0.045032717 0.14201443 -0.10041488 0.11927551 -0.51961327 -0.14102529
-0.029519178 -0.28814778 -0.67331994 -0.44374958 -0.5239811 -0.07563925 -0.48574418 -0.22582862
00000000: b2a8 973e 24cb a73e 5352 8cbe 34f3 53be
00000010: 7570 2f3e fa00 02bf 6239 23be d244 dabd
00000020: e13c 8b3d 2324 1a3f 10ea f13e 5445 803e
00000030: fc96 1e3c 185e d3be 65c6 39be 14c9 013f
00000040: f969 8ebd 75f3 c83e 76cf 3abe 7905 36be
00000050: f4ae 2a3f ed1e 07bf 1ce8 48be 81ab dfbe
00000060: 34a4 b0bc bb0b 9e3e e889 363e 306d 9b3a
00000070: 0ca4 38bd 196a d2be 2c14 0a3d edd6 ffbd
00000080: f28c b83e bade ffbe 39f3 afbc d8ce b2bd
00000090: c057 40be f65e f63e d39c 9abe 2702 bf3e
000000a0: e5d6 d7be ea4a 363d 4041 39bf 5d0c f4be
000000b0: cfcc d1be 7970 b53e 3a00 f33d 3f21 55be
000000c0: 5112 a63c d4bd c2be 7d1f b13e 1d61 e53d
000000d0: 1a2a 48be 41a7 893e 7865 c2be f6ba 39bd
000000e0: f6ef e2bc 2e75 c3be 8f20 97be 3f7a 27bc
000000f0: 1b73 59be f52e 653e fb53 cebe 1a2f fbbd
00000100: 18ef 3f3e f1ec b73e 5ce8 adbe 0e89 fc3c
00000110: 18a6 063f 84c7 243d 0aed 2f3e 8f3d 4ebe
00000120: 2c4f d53e bbd9 a23e 6b03 283f 39cb 443d
00000130: 10f6 e83d 5229 1ebf f4c2 eebc 9ae8 bb3e
00000140: 0b6c c6bd f9f7 d83d 19e9 7a3e 18f8 353e
00000150: 7860 213f 4e32 4b3b f3ea 0cbe c0c4 b2bd
00000160: eb95 9f3e 562f da3e 8924 cb3e 3e80 4e3e
00000170: 2fe5 a43e 40ec 9cbe 923d a33e 27ef 52be
00000180: db2b bdbd 86a6 7f3e 7072 2cbe a7ba 133e
00000190: 9824 b03e eac2 f3be 5797 9a39 ca02 f7bd
000001a0: 55d4 ee3e 4db1 1c3e 8c17 3d3e 1b48 92bc
000001b0: 8e02 9d3e e208 cfbd f803 bf3e 8be9 40be
000001c0: 610f b73e a73e a6be f219 bc3e d2a2 0e3e
000001d0: 3f6d 12bf 99a8 c43e 4fe5 d1be 26d4 9d3e
000001e0: 9616 d6be 6a6e 85ba fe69 17bf 1361 033e
000001f0: c8bb c6be bb4f 183e 2ae4 b2bd 0363 b4bb
00000200: d70c bfbe 3acd 5dbd 9a89 e23d 33fd d63d
00000210: 7c53 133f 9e1e 85be f020 5d3e fd2c 75be
00000220: 9b4f 283e fd60 cb3e 04b0 343f d1cf 7c3e
00000230: 5fae eb3d 5ff6 22be 301c ba3e b41c 163d
00000240: 9dfb 333d 281f fbbe 8b54 5c3e 80f7 87be
00000250: 3d0c f1be 32ec 8b3e 4881 09bf b2ff 5b3d
00000260: f57e 59be b0b1 e6be d8d3 36bf f50e e7bd
00000270: 1c09 cbbd 1243 c43e c950 9cbe 127a 873d
00000280: e14f 05be 11f5 8a3e f034 9ebe c23b 7d3c
00000290: 4349 303f f634 f7bc 7fec ef3e abc5 89be
000002a0: 4f14 ea3e 7dcc 183f d0a1 183f a491 dd3e
000002b0: d8af d93e 4a6b 87be 8f56 c03e f7a3 5abe
000002c0: 6232 dbbd 995a 9ebe 85b2 9b3e 97ce 65be
000002d0: b732 88bd 5c53 923e 9099 27bd b62f 8b3e
000002e0: 5429 49be 9bb1 a5be f252 d1be 99f8 5fbe
000002f0: 8695 a8be 5fac aa3e 2e52 98be c7b8 2cbe
00000300: b64e 6e3e 9ffa 783c 83ed a23e f3e8 4f3e
00000310: 690c a03e aae4 09bf 9e0a 31be 09ea 09be
00000320: b2dd 7ebd 444e f13e 5f2d 753e 3cd0 b13e
00000330: 0e9f e43e 9a13 f2be d6b4 893e 9b34 d73c
00000340: a867 a23e 9a98 7d3e b93c 763e 3762 793e
00000350: 9739 833c 1e71 b3be 0902 e03e b01f f0be
00000360: 3868 c93e b9bb 213e d00f 983e 0ac7 18be
00000370: 8161 c73e 0299 0dbf 20db 453e 7e95 bf3d
00000380: 0a81 84bd 2931 afbe ce12 9c3d c0e1 2cbe
00000390: 7112 6abb 4830 253f c29a 97be b063 ca3c
000003a0: 9f0d 0cbe 99e6 b63d 2b7b 44bf f79e 343e
000003b0: 3cdb 8bbe 711e cd3e 5366 37bd d86f 23be
000003c0: f3d8 c13c c833 87be 3a74 38bd 3b6c 113e
000003d0: 51a6 cdbd b846 f43d 6005 05bf ef68 10be
000003e0: 34d2 f1bc 1b88 93be b25e 2cbf 2533 e3be
000003f0: a023 06bf c0e8 9abd 76b3 f8be 9e3f 67be

sequential_1/dense_2/MatMul f4 [1, 32]
0.42158726 0.46938998 -0.59818584 -0.56219065 0.5080996 0.5394714 0.43502098 -0.7543222
0.6457994 -0.40828595 0.39755923 -0.58093363 0.7193918 0.38266563 -0.6635151 -0.43744045
0.53857046 -0.4119102 0.44296095 -0.72934735 -0.38039264 0.39815876 -0.510833 0.36019757
0.43690687 -0.3812288 -0.44758323 0.37718627 -0.37080756 -0.47176057 0.38238642 0.46232787
00000000: 49da d73e e253 f03e b522 19bf baeb 0fbf
00000010: d112 023f cc1a 0a3f 12bb de3e 421b 41bf
00000020: 1c53 253f db0a d1be e28c cb3e 11b8 14bf
00000030: 102a 383f c0ec c33e 20dc 29bf 32f8 dfbe
00000040: c1df 093f e5e5 d2be c7cb e23e 82b6 3abf
00000050: d3c2 c2be 77db cb3e f4c5 02bf d16b b83e
00000060: 42b2 df3e 6c30 c3be a129 e5be 8f1e c13e
00000070: 7dda bdbe 9a8a f1be 27c8 c33e 3db6 ec3e

sequential_1/lstm/Read_2/ReadVariableOp1 f4 [64]
-0.0590847 0.1691746 -0.057759903 -0.030416196 0.1754686 0.5911075 0.09182839 0.07891695
0.1024283 0.17025742 0.049998205 0.0699116 -0.12399271 0.18691541 0.12447589 0.26496407
0.9029514 0.67318577 0.9735506 1.0504519 1.1946713 0.9819352 1.096688 0.8521352
0.8370929 0.9532912 1.0809869 1.0927305 0.8124836 0.9025686 0.61595523 0.9848686
0.0040126243 -0.084383816 -0.11356351 -0.29799423 0.0411525 0.35572192 0.13944572 0.13738544
0.14630222 0.15431486 0.075354494 -0.18048246 -0.04744983 0.122766994 -0.1018629 0.16933176
0.1039115 0.3444373 0.09862719 0.07394359 0.030259665 0.12608097 0.16218281 -0.006043533
0.22549185 0.121303804 -0.127104 0.011151956 -0.07215991 -0.1872511 0.24073134 0.17230366
00000000: cc02 72bd 1b3c 2d3e a695 6cbd 632b f9bc
00000010: 0aae 333e d252 173f 8610 bc3d 369f a13d
00000020: eec5 d13d f657 2e3e ebca 4c3d d02d 8f3d
00000030: e4ef fdbd c166 3f3e 37ed fe3d 5fa9 873e
00000040: d327 673f e755 2c3f 9d3a 793f 3575 863f
00000050: fdea 983f 1b60 7b3f 4660 8c3f 8825 5a3f
00000060: b84b 563f e40a 743f c75d 8a3f 98de 8b3f
00000070: edfe 4f3f bc0e 673f 3eaf 1d3f 5920 7c3f
00000080: 557c 833b 6cd1 acbd fc93 e8bd b392 98be
00000090: 868f 283d 2f21 b63e dcca 0e3e c5ae 0c3e
000000a0: 40d0 153e b704 1e3e 7553 9a3d 65d0 38be
000000b0: c15a 42bd 436d fb3d 7f9d d0bd 4e65 2d3e
000000c0: 8dcf d43d 165a b03e 0dfd c93d bd6f 973d
000000d0: 1ee3 f73c 5f1b 013e 4013 263e d408 c6bb
000000e0: 56e7 663e 216e f83d 8d27 02be b2b6 363c
000000f0: 93c8 93bd c1be 3fbe 4782 763e 5f70 303e
