models/model.tflite (tflite, 238148 bytes, 23 tensors)

sequential/conv2d/BiasAdd/ReadVariableOp f4 [32]
-0.3483212 -0.30406144 -0.64785385 -0.39637733 1.1173885 0.6249283 -0.21586137 -0.12996197
0.40775022 -0.14847986 0.059056804 -0.28853437 0.8008917 0.013749293 -0.1506124 1.2422923
-0.2654283 -0.22376575 -0.34881747 -0.12319302 -0.053737 -0.37700593 -0.3966526 -0.3302358
0.22375531 0.8551168 0.4097166 -0.53423995 -0.3331267 0.40967122 -0.46697104 -0.45171937
00000000: 2857 b2be f1ad 9bbe c0d9 25bf f8f1 cabe
00000010: 9606 8f3f 4dfb 1f3f c30a 5dbe c014 05be
00000020: a3c4 d03e 1b0b 18be 8ce5 713d c7ba 93be
00000030: 3d07 4d3f b744 613c 233a 1abe 6f03 9f3f
00000040: 38e6 87be d922 65be 3498 b2be 9f4c fcbd
00000050: 541b 5cbd ec06 c1be 0d16 cbbe ab14 a9be
00000060: 1d20 653e efe8 5a3f 60c6 d13e f3c3 08bf
00000070: 958f aabe 6dc0 d13e d416 efbe c347 e7be

sequential/conv2d_1/BiasAdd/ReadVariableOp f4 [45]
0.021855898 0.30325353 0.468539 0.17465025 -0.2653007 0.122555345 0.031477757 0.21271281
-0.8714965 0.28579414 -0.37523228 0.3996769 0.20834483 -0.4793238 0.596464 -0.6182811
-0.3498061 0.096490316 -0.47194436 0.23948275 0.0014626867 0.06178164 0.05784063 -0.016672187
-0.13707753 0.60222363 -0.2858371 -0.25474685 -0.08850683 -0.3031392 -0.09916835 -0.008971868
-0.32513356 -0.07571023 -0.2268885 -0.10456226 -0.56865275 -0.12703146 -0.7324732 -0.27655232
-0.34544083 -0.15588136 -0.21258388 -0.29055855 -0.64702564
00000000: 240b b33c 0c44 9b3e 58e4 ef3e 84d7 323e
00000010: 7ed5 87be 4cfe fa3d d2ee 003d 63d1 593e
00000020: 651a 5fbf 9c53 923e 721e c0be 73a2 cc3e
00000030: 5958 553e ee69 f5be ddb1 183f ac47 1ebf
00000040: c919 b3be b79c c53d b1a2 f1be f73a 753e
00000050: 9fb7 bf3a bf0e 7d3d 4cea 6c3d 1c94 88bc
00000060: 0d5e 0cbe 542b 1a3f 3e59 92be 2e6e 82be
00000070: 1243 b5bd 1035 9bbe c718 cbbd befe 12bc
00000080: e877 a6be f70d 9bbd 7555 68be bd24 d6bd
00000090: 3a93 11bf 8914 02be 5d83 3bbf 4498 8dbe
000000a0: 9fdd b0be 5d9f 1fbe 97af 59be 17c4 94be
000000b0: 79a3 25bf

sequential/conv2d_2/BiasAdd/ReadVariableOp f4 [55]
-0.16262546 -0.55002993 0.013499381 0.24361834 0.13311434 -0.10412349 0.09607174 0.009120017
-0.5554197 -0.3974237 0.45974043 -0.1902382 -0.44520497 -0.69006014 -0.83574206 -0.27474055
-0.53955656 -0.42538443 -0.505981 -0.17635572 -0.48277843 -0.8879774 -0.15880549 -0.036126636
-0.27744818 -0.44703576 0.16561678 -0.60394204 -0.058460716 -0.09789899 0.07640971 0.39055562
-0.27281114 -0.027800865 -0.17609535 -0.28522858 -0.21090832 -0.29430953 0.048083354 -0.39727998
-0.26591462 -0.2917426 -0.43037772 -0.8354953 -0.39903364 -0.25785166 -0.10224205 -0.29562297
-0.23915333 -0.54589105 -0.25100258 -0.16497046 -0.32512242 -0.47947493 -0.3253364
00000000: 4a87 26be c3ce 0cbf 822c 5d3c 1677 793e
00000010: 204f 083e b23e d5bd 43c1 c43d 206c 153c
00000020: fc2f 0ebf 1f7b cbbe 1963 eb3e cdcd 42be
00000030: e8f1 e3be c8a7 30bf 31f3 55bf cbaa 8cbe
00000040: 6120 0abf fdcb d9be f987 01bf 9896 34be
00000050: bc2e f7be 7d52 63bf e89d 22be 86f9 13bd
00000060: b00d 8ebe dfe1 e4be 7297 293e f29b 1abf
00000070: 8174 6fbd 447f c8bd b27c 9c3d e8f6 c73e
00000080: e7ad 8bbe a4be e3bc 5752 34be 7b09 92be
00000090: 5af8 57be bdaf 96be 0df3 443d 4868 cbbe
000000a0: f625 88be 495f 95be 785a dcbe 05e3 55bf
000000b0: 234e ccbe 2205 84be 4864 d1bd e55b 97be
000000c0: 9ce4 74be 84bf 0bbf 6983 80be 04ee 28be
000000d0: 7276 a6be bd7d f5be 7e92 a6be

sequential/conv2d/Conv2D f4 [32, 3, 3, 1]
0.058357105 0.021240726 0.2165028 -0.22256318 -0.6963406 -0.2540728 -0.1307674 -0.04318588
-0.09008828 0.063500814 -0.18985616 -0.13283873 0.098361045 -0.1264569 0.5659258 0.065257795
-0.06922614 0.575757 0.10663596 -0.20306954 0.069275774 0.08429632 0.038211185 0.19704723
0.10619006 0.0106842965 0.47450417 0.12233088 0.19084798 0.27055007 0.36439535 0.19470355
0.37749684 -0.13500084 -0.40519914 -0.018317655 0.44338143 0.04297666 -0.24479155 0.40917984
-0.22336462 -0.16248885 0.20750187 -0.22884516 -0.15343615 -0.18871714 -0.22057463 -0.41416362
0.008090742 0.30131206 0.062095147 0.07911712 0.41227952 0.34894058 -0.23227973 0.12518702
-0.13248545 -0.3103666 0.12219006 -0.13909107 -0.28963435 0.18291484 0.2291381 0.19304809
0.42504355 0.3588279 0.2660788 0.29101005 0.1309627 -0.26052725 -0.17417952 -0.18124051
-0.23549412 -0.3520806 -0.16684748 0.37035057 -0.11067694 -0.0149473455 0.24884818 -0.23976313
0.06409484 0.65257263 0.39992657 0.09616323 0.4874987 0.2290879 0.0180542 0.089391515
-0.0004979195 -0.13495928 -0.22202973 -0.57122207 -0.105067976 -0.018533912 -0.22444287 0.053119928
0.26520246 0.29490095 0.4451575 0.34170496 0.5726252 0.09992926 0.062169876 0.27205598
0.007219076 0.18385741 0.07283043 -0.013418813 0.3316542 0.5058089 0.04088822 0.12636349
-0.012513106 -0.00688703 -0.29194802 -0.32770374 -0.23392856 -0.17478447 -0.0062437286 -0.18420696
0.3757381 0.3324587 0.054143634 0.5440313 0.2901683 -0.11291201 -0.08979872 -0.20654738
-0.019687857 0.07198208 0.22573546 0.4569539 0.43811896 0.17809395 0.33247402 0.091923825
0.015700761 -0.17436695 0.2867581 0.1422664 -0.37138763 0.22060026 0.26553655 -0.33958575
-0.12900007 -0.38286626 -0.015478886 -0.2508639 -0.16527274 0.11114593 -0.045089107 -0.03749443
0.37643647 0.11582936 -0.6644176 -0.25059655 0.23574804 0.13905713 0.02485006 -0.27079952
-0.101848185 -0.05598855 0.1679074 -0.19915353 0.2415317 0.099663824 -0.23330233 0.33705723
0.27405697 -0.028413204 0.28867087 0.70128477 -0.12641968 -0.057825245 0.54787153 0.08182223
-0.00011545237 0.59026915 -0.1723027 0.13256474 0.74616885 0.043771002 -0.10805798 0.25425556
0.28846213 -0.011746487 0.4327104 -0.0180713 0.0638915 0.39895892 -0.001470429 0.2273929
0.2532819 -0.07164777 0.06243589 0.19023171 -0.11143153 0.17365006 0.3429777 0.13958386
0.28145683 -0.14274019 -0.55493206 -0.06106485 -0.061965276 -0.2169855 0.023368005 -0.42929325
-0.35094398 0.07860517 0.22909433 -0.06765794 0.039366614 0.06804573 -0.0042206924 0.0465921
-0.12681937 0.07684391 -0.051490862 0.23827246 0.07123195 -0.32666013 0.46069968 0.34955856
0.14058325 -0.26231068 0.45700336 -0.15180779 -0.12181909 0.31321317 -0.06113674 -0.116313
0.33795056 -0.15125112 -0.13318978 0.2921616 0.29652876 -0.36780983 0.01487465 0.34671745
-0.4658664 -0.18102886 0.2072024 0.12084328 0.18021418 0.45047465 0.14417642 -0.17725457
0.24519296 0.25558537 -0.29693723 0.12108559 -0.12794937 0.27329406 0.21314101 -0.10337568
00000000: dc07 6f3d 0801 ae3c e9b2 5d3e 9ae7 63be
00000010: 6143 32bf d415 82be e4e7 05be ade3 30bd
00000020: 3480 b8bd b70c 823d a769 42be e006 08be
00000030: 8471 c93d eb7d 01be 83e0 103f e1a5 853d
00000040: 6fc6 8dbd d064 133f f463 da3d 76f1 4fbe
00000050: 75e0 8d3d 8da3 ac3d 5583 1c3d c0c6 493e
00000060: 2d7a d93d 300d 2f3c 36f2 f23e 9d88 fa3d
00000070: a76d 433e 8a85 8a3e 0792 ba3e 5e60 473e
00000080: 4447 c13e a93d 0abe 4376 cfbe e80e 96bc
00000090: e402 e33e 4b08 303d a3aa 7abe 0580 d13e
000000a0: b2b9 64be 7a63 26be 5f7b 543e 6356 6abe
000000b0: 5e1e 1dbe 113f 41be 51de 61be 410d d4be
000000c0: 088f 043c 9345 9a3e 7b57 7e3d 2808 a23d
000000d0: 4d16 d33e 57a8 b23e bdda 6dbe 0731 003e
000000e0: 44aa 07be 5fe8 9ebe c83e fa3d e46d 0ebe
000000f0: f44a 94be 074e 3b3e 2ea3 6a3e 66ae 453e
00000100: 4f9f d93e 4ab8 b73e 7b3b 883e 45ff 943e
00000110: 161b 063e d463 85be 1e5c 32be 1d97 39be
00000120: 5f25 71be e943 b4be 11da 2abe 979e bd3e
00000130: 97aa e2bd b6e5 74bc 0fd2 7e3e 7784 75be
00000140: 2844 833d 000f 273f 2dc3 cc3e 3af1 c43d
00000150: 6e99 f93e 0596 6a3e 67e6 933c e612 b73d
00000160: d086 02ba c432 0abe c35b 63be 9c3b 12bf
00000170: e12d d7bd 6ed4 97bc 5ad4 65be 4894 593d
00000180: 9ec8 873e 42fd 963e afeb e33e f4f3 ae3e
00000190: 9197 123f b6a7 cc3d d7a5 7e3d ec4a 8b3e
000001a0: 008e ec3b 1e45 3c3e 1f28 953d 95da 5bbc
000001b0: 94ce a93e b17c 013f 687a 273d 6e65 013e
000001c0: c503 4dbc 98ac e1bb 367a 95be c9c8 a7be
000001d0: f88a 6fbe b3fa 32be 3198 ccbb c0a0 3cbe
000001e0: bf60 c03e 0738 aa3e b7c5 5d3d a345 0b3f
000001f0: f090 943e 693e e7bd 64e8 b7bd 2881 53be
00000200: 6e48 a1bc 576b 933d 3227 673e ddf5 e93e
00000210: 2151 e03e 435e 363e 093a aa3e 8f42 bc3d
00000220: e29e 803c 408d 32be f5d1 923e 48ae 113e
00000230: 8526 bebe 09e5 613e 68f4 873e 2fde adbe
00000240: 9818 04be 0c07 c4be 279b 7dbc 3c71 80be
00000250: 423d 29be 7aa0 e33d 5baf 38bd c293 19bd
00000260: 48bc c03e f237 ed3d 4617 2abf 314e 80be
00000270: ef67 713e fe64 0e3e 5a92 cb3c 3ca6 8abe
00000280: c895 d0bd 4054 65bd ebef 2b3e e7ee 4bbe
00000290: 1654 773e 8c1c cc3d cee6 6ebe c492 ac3e
000002a0: 3251 8c3e cfc2 e8bc abcc 933e 6687 333f
000002b0: 2974 01be 2ada 6cbd 4f41 0c3f 6a92 a73d
000002c0: 051f f2b8 e11b 173f 1e70 30be 0dbf 073e
000002d0: ec04 3f3f 3949 333d 814d ddbd c92d 823e
000002e0: 4fb1 933e 5674 40bc 388c dd3e 430a 94bc
000002f0: 8cd9 823d 5844 cc3e 69bb c0ba afd9 683e
00000300: 2aae 813e 11bc 92bd c7bc 7f3d 1acc 423e
00000310: 3736 e4bd 52d1 313e c69a af3e 12ef 0e3e
00000320: 1c1b 903e 7c2a 12be 0710 0ebf 231f 7abd
00000330: 4dcf 7dbd 7231 5ebe 426e bf3c 53cc dbbe
00000340: eeae b3be bffb a03d b497 6a3e 3f90 8abd
00000350: e33e 213d 8f5b 8b3d bc4d 8abb 5cd7 3e3d
00000360: f0dc 01be 5760 9d3d 15e8 52bd b2fd 733e
00000370: 0ee2 913d ff3f a7be d4e0 eb3e 57f9 b23e
00000380: 0ef5 0f3e 964d 86be 58fc e93e 8073 1bbe
00000390: 497c f9bd 7a5d a03e 856a 7abd 8335 eebd
000003a0: db07 ad3e 93e1 1abe e762 08be 3596 953e
000003b0: 9ed2 973e 9251 bcbe ceb4 733c f384 b13e
000003c0: 0a86 eebe a15f 39be de2c 543e ae7c f73d
000003d0: 118a 383e 9da4 e63e fca2 133e 3982 35be
000003e0: dd13 7b3e 16dc 823e 2808 98be b9fb f73d
000003f0: 2905 03be 33ed 8b3e a341 5a3e a1b6 d3bd

sequential/conv2d_1/Conv2D f4 [45, 3, 3, 32]
-0.18762614 -0.12755613 -0.07151344 -0.14096168 0.04926555 0.44409606 0.0960888 -0.18847124
0.4846765 -0.3987703 0.36623394 -0.3667932 -0.5864392 -0.3620795 0.16776296 0.25281304
-0.019687926 -0.011677989 -0.0865379 -0.21465617 -0.23101303 0.18813552 -0.45945525 0.017873729
0.09923018 -0.30745178 -0.462716 -0.06330336 -0.041763403 -0.0065656225 -0.20262799 -0.3324478
-0.0064335 -0.120148785 -0.24796969 -0.051089212 0.28939876 0.4258424 0.3800295 -0.23147886
0.21534635 -0.3686196 0.34625548 -0.30823424 -0.10004888 0.30059585 0.3641995 0.4084813
-0.34352303 0.012134738 -0.36759132 -0.024898853 -0.20544915 -0.05705183 -0.17695206 0.086086415
0.05629699 0.029414317 -0.17153741 -0.1169236 0.13296013 0.07728307 -0.039159585 -0.27580485
-0.52289104 -0.19233954 -0.32166907 0.4040799 -0.6018726 0.020311445 -0.078285314 -0.01430114
-0.061343677 -0.19594659 0.20171331 0.008181246 -0.07482351 -0.3602107 -0.07094765 -0.1916187
0.1489878 -0.027445493 -0.37253535 0.0726998 -0.35656816 -0.022843882 -0.33848497 0.08003121
-0.4958189 -0.41054446 -0.22172683 -0.21219936 -0.07506577 -0.20676677 0.02399708 -0.13597493
0.122171335 0.16241442 0.20106134 -0.30066723 -0.07428528 0.5281426 0.010386869 -0.08149015
0.095517 -0.4422904 0.0028079043 -0.29944912 0.248964 -0.07737703 0.07083303 0.041250367
-0.20727682 -0.25139603 0.2518014 -0.28430662 -0.32926315 0.16935351 -0.25855595 0.035677522
-0.08876806 0.07461301 0.061327428 -0.24836707 0.21263391 -0.14002307 0.2623128 -0.20935582
0.005637987 -0.21741582 0.016066134 -0.13999614 0.17980936 0.932021 0.3449414 -0.022687236
0.015718907 0.15725046 0.058894202 -0.13855176 -0.06331216 -0.019167481 0.017211424 0.2548198
-0.36411944 -0.07841229 -0.3840809 0.0843454 -0.0021383702 0.06345558 -0.61570144 0.15390876
-0.039383788 0.2905745 -0.29971397 -0.073746376 0.07799143 -0.35942376 0.013684874 -0.24663995
-0.16058333 0.07619325 -0.0012687444 -0.18046251 0.115470946 0.12754542 -0.0018480676 -0.48110697
-0.14794548 -0.4950787 0.18124714 -0.2537826 -0.4046297 -0.10553228 -0.083603255 -0.020695971
0.34151694 -0.29841843 -0.09508385 0.013433691 -0.30424502 -0.111851566 -0.22180855 0.135044
-0.12676805 -0.32103974 -0.31935433 0.09397054 -0.47717455 -0.13707262 -0.09709044 -0.21254098
0.22402361 0.15051211 0.031043638 -0.08463013 -0.28659767 -0.35983372 -0.16102177 -0.025766198
-0.295145 0.0113504175 -0.6121315 -0.12134872 0.38162497 0.08985234 -0.22207764 -0.32294214
-0.40236247 -0.32244867 -0.084081285 0.16937198 0.034225453 0.2740168 0.100778475 0.2794971
0.16268666 -0.19560695 0.2135132 0.19426192 0.18497337 -0.13406649 0.17638491 -0.24844584
0.04343286 -0.40675846 -0.32380605 0.13345748 -0.2664198 -0.28172132 -0.04602779 0.05123798
-0.52096725 -0.011070506 -0.8248608 -0.11471477 0.6352588 0.01658823 -0.57079047 -0.18787076
-0.643703 -0.43606728 -0.50444406 0.04912527 -0.026432864 0.04798781 -0.059643332 -0.17853662
-0.2116981 0.11434189 0.6848927 0.29347298 0.18534483 -0.0068606758 -0.07537271 -0.059339665
00000000: 1121 40be 139e 02be a375 92bd 4258 10be
00000010: acca 493d 8f60 e33e 34ca c43d 9bfe 40be
00000020: 8527 f83e 9f2b ccbe 0483 bb3e 51cc bbbe
00000030: e120 16bf 7c62 b9be 0eca 2b3e b670 813e
00000040: 9348 a1bc 0955 3fbc c83a b1bd d4ce 5bbe
00000050: ae8e 6cbe 99a6 403e b83d ebbe ed6b 923c
00000060: 3139 cb3d 526a 9dbe 1de9 ecbe 31a5 81bd
00000070: 1a10 2bbd 6f24 d7bb b67d 4fbe 9936 aabe
00000080: 1cd0 d2bb 9110 f6bd c4eb 7dbe ec42 51bd
00000090: 132c 943e 0408 da3e 3a93 c23e cb08 6dbe
000000a0: c183 5c3e b5bb bcbe 6648 b13e e1d0 9dbe
000000b0: 6de6 ccbd b3e7 993e 5b78 ba3e 7624 d13e
000000c0: 40e2 afbe c8d0 463c ee34 bcbe aef8 cbbc
000000d0: 4361 52be 2eaf 69bd ec32 35be 134e b03d
000000e0: ac97 663d 4bf6 f03c 81a7 2fbe a475 efbd
000000f0: b326 083e 9646 9e3d cd65 20bd 4b36 8dbe
00000100: 30dc 05bf a8f4 44be cfb1 a4be 90e3 ce3e
00000110: 5314 1abf 3064 a63c 0d54 a0bd 544f 6abc
00000120: 8243 7bbd 39a6 48be ef8d 4e3e a20a 063c
00000130: 123d 99bd 896d b8be 004d 91bd b137 44be
00000140: 4290 183e 5fd5 e0bc f4bc bebe a2e3 943d
00000150: 1a90 b6be 1823 bbbc e74d adbe 67e7 a33d
00000160: fadb fdbe e232 d2be 5c0c 63be ca4a 59be
00000170: 15bc 99bd abba 53be 8695 c43c 033d 0bbe
00000180: f734 fa3d f74f 263e 06e3 4d3e 0ef1 99be
00000190: e222 98bd 5a34 073f b02d 2a3c 4fe4 a6bd
000001a0: 6b9e c33d e373 e2be d104 383b 6551 99be
000001b0: 6bf0 7e3e d977 9ebd e810 913d 25f6 283d
000001c0: 6040 54be fbb6 80be 1dec 803e a390 91be
000001d0: 2e95 a8be 026b 2d3e 7261 84be 9822 123d
000001e0: 07cc b5bd b5ce 983d 7832 7b3d f053 7ebe
000001f0: b4bc 593e 3562 0fbe dd4d 863e 5f61 56be
00000200: ddbe b83b 41a2 5ebe 209d 833c 265b 0fbe
00000210: f21f 383e ee98 6e3f 299c b03e 95da b9bc
00000220: f0c4 803c 4406 213e 0c3b 713d 83e0 0dbe
00000230: cea9 81bd 1f05 9dbc f9fe 8c3c be77 823e
00000240: dd6d babe 9f96 a0bd 40a6 c4be 48bd ac3d
00000250: e623 0cbb 00f5 813d 9c9e 1dbf 429a 1d3e
00000260: e550 21bd 2ec6 943e 1c74 99be 5708 97bd
00000270: f9b9 9f3d 6406 b8be 8636 603c 2f8f 7cbe
00000280: f56f 24be 350b 9c3d ff4b a6ba 2acb 38be
00000290: 087c ec3d 449b 023e dc3a f2ba a753 f6be
000002a0: 057f 17be f57a fdbe da98 393e cbef 81be
000002b0: a02b cfbe 4f21 d8bd 2f38 abbd 998a a9bc
000002c0: 4fdb ae3e 4dca 98be 52bb c2bd fc18 5c3c
000002d0: 01c6 9bbe 6f12 e5bd c821 63be f948 0a3e
000002e0: 7ccf 01be 525f a4be 6982 a3be a073 c03d
000002f0: 3950 f4be c45c 0cbe 5ad7 c6bd 58a4 59be
00000300: 7266 653e d91f 1a3e 3a4f fe3c 9052 adbd
00000310: eebc 92be 203c b8be e4e2 24be a213 d3bc
00000320: 3f1d 97be 1af7 393c a6b4 1cbf ad85 f8bd
00000330: 5964 c33e 8104 b83d 5268 63be ac58 a5be
00000340: 7402 cebe fe17 a5be cf32 acbd d96f 2d3e
00000350: fd2f 0c3d ee4b 8c3e f264 ce3d 3e1a 8f3e
00000360: 5597 263e 304d 48be 34a3 5a3e 99ec 463e
00000370: a969 3d3e ba48 09be 3f9e 343e 9668 7ebe
00000380: a8e6 313d a542 d0be e8c9 a5be 14a9 083e
00000390: 2d68 88be c73d 90be a387 3cbd ebde 513d
000003a0: 1c5e 05bf 1161 35bc 142a 53bf 94ef eabd
000003b0: 52a0 223f 0ae4 873c 531f 12bf 3161 40be
000003c0: b8c9 24bf 3644 dfbe 3f23 01bf 9437 493d
000003d0: bc89 d8bc de8e 443d 914c 74bd 4ed2 36be
000003e0: 63c7 58be 152c ea3d 2155 2f3f 1742 963e
000003f0: 09cb 3d3e 85cf e0bb 025d 9abd 260e 73bd

sequential/conv2d_2/Conv2D f4 [55, 3, 3, 45]
-0.017561598 -0.122907445 0.04816657 -0.16063441 -0.19404246 -0.4565496 -0.19606507 -0.0038408956
-0.089858904 -0.10360058 -0.1419623 -0.1727681 -0.31543612 -0.12315583 -0.18380997 -0.39449608
-0.07723811 -0.1236961 0.63081276 0.114774294 -0.011148816 0.004799113 -0.019791432 -0.66517085
-0.24502201 -0.10776652 -0.24166548 -0.24090704 -0.110067 -0.17852454 0.2012346 0.08876969
0.45349678 -0.14699225 0.027064195 0.18374069 -0.24103172 -0.08010671 -0.3527257 -0.3224296
-0.031274192 -0.4465359 0.09290217 0.3423557 -0.5691211 -0.48377258 -0.3975977 0.56397736
-0.25754222 -0.32788894 0.0012440506 -0.20381439 -0.17121603 -0.2554206 -0.11629963 -0.3816386
-0.16566235 -0.2687088 0.3369587 0.18748553 -0.17450455 0.05010787 -0.15630266 0.10184821
-0.1808544 0.4430013 -0.47140563 0.18787187 -0.20806697 0.018182315 0.07093646 -0.1511463
-0.56073123 -0.2345951 0.15122186 0.038141813 -0.052661754 0.10597638 0.21861817 -0.47939858
-0.2065199 -0.31268328 -0.20098625 -0.2245357 -0.5132404 0.12292024 -0.597358 -0.53721774
0.38840622 -0.06314433 0.23477295 -0.4289978 0.018615868 0.028206555 0.20447722 -0.15990555
0.2510781 -0.1474104 0.052604247 0.3805453 -0.31009364 0.4415548 0.13668892 0.31720868
-0.33408302 -0.2914839 0.24616084 -0.43358162 0.22861336 -0.25114116 0.009096505 0.04673458
-0.34927183 0.48395532 -0.31886423 -0.220774 0.22140078 -0.29659048 -0.0731288 0.20698299
0.01135504 -0.22348917 -0.05914981 -0.17629379 -0.13225594 0.38080916 -0.035697803 0.17514853
0.079476364 -0.20094258 0.74610555 0.056135938 0.044071745 0.011846661 0.020811392 -0.13005301
0.24575055 0.113519855 0.0018542111 -0.005863265 -0.042127904 0.2687417 0.34585157 0.37754378
-0.05826936 0.34277308 0.07953009 -0.13509645 0.14820296 0.28214866 0.11945268 -0.13375415
-0.29365304 -0.35640103 0.31466722 0.28672183 0.07921076 -0.02344636 -0.18416923 0.13185097
-0.3080769 0.14466932 0.019178007 -0.16234364 -0.1623408 -0.023093209 -0.4033817 0.056431353
0.12701447 0.20208 0.31776363 0.063157745 -0.19384423 0.4074191 0.21848431 -0.21392
-0.3532128 -0.08855685 0.36481798 0.04003644 -0.79040974 -0.18599467 0.45971018 -0.07197156
-0.113444455 0.18446486 -0.49858043 -0.16060124 -0.25493994 0.13114409 0.008503803 -0.3017075
-0.4404425 -0.07700267 -0.137576 0.25439033 0.60840905 0.23815325 -0.30569178 0.51711905
0.55446815 -0.21200074 0.26150593 0.24427895 0.2182831 -0.15334001 0.3024536 0.6024085
0.223993 0.24638139 0.12983754 -0.7297191 -0.3021455 0.5435001 -0.8815221 0.018835917
0.12022668 0.6624182 0.06076269 0.060913827 -0.3906085 0.3395086 -0.18945168 0.44129348
-0.06794542 -0.21066888 0.26098707 -0.6008032 -0.059535064 -0.44554105 -0.1789388 -0.333395
0.41703066 -0.084296815 0.083430976 0.13409853 -0.056732822 -0.64808786 0.30680764 -0.31771398
-0.38742325 -0.47811872 0.3079264 -0.031665552 0.19236526 -0.40847397 0.2283354 0.29838896
0.1597724 -0.03689173 0.0072662993 -0.37793124 -0.14313902 -0.14011239 0.2802356 -0.22070499
00000000: 57dd 8fbc e6b6 fbbd 4f4a 453d 597d 24be
00000010: 11b3 46be dfc0 e9be 48c5 48be 89b7 7bbb
00000020: f207 b8bd 8a2c d4bd 915e 11be 1fea 30be
00000030: d880 a1be 2039 fcbd ae38 3cbe 64fb c9be
00000040: 042f 9ebd 6254 fdbd f27c 213f c90e eb3d
00000050: 86a9 36bc e141 9d3b a421 a2bc a348 2abf
00000060: 0de7 7abe b1b4 dcbd 2877 77be 56b0 76be
00000070: cf6a e1bd 23cf 36be 7110 4e3e e2cc b53d
00000080: bb30 e83e 2385 16be bbb5 dd3c 8526 3c3e
00000090: 05d1 76be fd0e a4bd 7798 b4be 7e15 a5be
000000a0: 5e19 00bd 5aa0 e4be 7e43 be3d 3f49 af3e
000000b0: ecb1 11bf 0ab1 f7be ed91 cbbe d260 103f
000000c0: 93dc 83be 0fe1 a7be 690f a33a b8b4 50be
000000d0: 4153 2fbe 7dc6 82be 802e eebd 2266 c3be
000000e0: 64a3 29be 3394 89be da85 ac3e 35fc 3f3e
000000f0: 52b1 32be e93d 4d3d ce0d 20be cb95 d03d
00000100: e531 39be 11d1 e23e 145c f1be 7c61 403e
00000110: 820f 55be 14f3 943c 2247 913d 18c6 1abe
00000120: 158c 0fbf b339 70be e7d9 1a3e 973a 1c3d
00000130: dab3 57bd 250a d93d 71dd 5f3e bb73 f5be
00000140: f479 53be 0618 a0be 57cf 4dbe b0ec 65be
00000150: b963 03bf 9bbd fb3d 74ec 18bf 1a87 09bf
00000160: 2edd c63e d151 81bd 5268 703e 9aa5 dbbe
00000170: 4e80 983c 6f11 e73c 7a62 513e 48be 23be
00000180: 4f8d 803e c0f2 16be 8d77 573d d5d6 c23e
00000190: 98c4 9ebe 7913 e23e 2ef8 0b3e 2d69 a23e
000001a0: ee0c abbe 613d 95be 9611 7c3e 69fe ddbe
000001b0: 9f19 6a3e 9395 80be 8209 153c c26c 3f3d
000001c0: c2d3 b2be fec8 f73e 2c42 a3be 9412 62be
000001d0: e3b6 623e b5da 97be 8dc4 95bd 59f3 533e
000001e0: 7d0a 3a3c 58da 64be 1247 72bd 5c86 34be
000001f0: 1a6e 07be 6bf9 c23e dc37 12bd 235a 333e
00000200: 81c4 a23d e4c3 4dbe c600 3f3f ccee 653d
00000210: 9384 343d 7f18 423c a77c aa3c 9e2c 05be
00000220: 08a6 7b3e 197d e83d 0009 f33a a220 c0bb
00000230: 4f8e 2cbd 8398 893e 7513 b13e 6b4d c13e
00000240: daab 6ebd f47f af3e ace0 a23d b956 0abe
00000250: 84c2 173e ca75 903e 9ba3 f43d d9f6 08be
00000260: b159 96be 327a b6be 101c a13e 34cd 923e
00000270: 4039 a23d 9512 c0bc dc96 3cbe f103 073e
00000280: 41bc 9dbe 3224 143e 321b 9d3c 693d 26be
00000290: ab3c 26be f82d bdbc 0c88 cebe 9024 673d
000002a0: 1510 023e 0fee 4e3e eab1 a23e d958 813d
000002b0: 1a7f 46be 3c99 d03e 5aba 5f3e d80d 5bbe
000002c0: 4fd8 b4be 4b5d b5bd 6cc9 ba3e 40fd 233d
000002d0: 4b58 4abf 6375 3ebe 225f eb3e d365 93bd
000002e0: 9155 e8bd 5be4 3c3e ef45 ffbe a774 24be
000002f0: 7d87 82be a34a 063e 8953 0b3c 6879 9abe
00000300: ae81 e1be 93b3 9dbd b9e0 0cbe 733f 823e
00000310: b2c0 1b3f 72de 733e a283 9cbe ea61 043f
00000320: a0f1 0d3f b916 59be 1be4 853e 4324 7a3e
00000330: 9b85 5f3e 2a05 1dbe 33db 9a3e 7237 1a3f
00000340: 6c5e 653e 674b 7c3e 22f4 043e dfce 3abf
00000350: d1b2 9abe d322 0b3f 6fab 61bf c84d 9a3c
00000360: 6839 f63d 3d94 293f 4ce2 783d c780 793d
00000370: d6fd c7be 12d4 ad3e 9fff 41be 38f1 e13e
00000380: f826 8bbd 95b9 57be 19a0 853e 3dce 19bf
00000390: 0adb 73bd f51d e4be bc3b 37be c0b2 aabe
000003a0: 0b85 d53e cfa3 acbd dcdd aa3d 2051 093e
000003b0: ad60 68bd 16e9 25bf e415 9d3e 68ab a2be
000003c0: 575c c6be facb f4be 87a8 9d3e bdb3 01bd
000003d0: 66fb 443e 8023 d1be c1d0 693e 70c6 983e
000003e0: 609b 233e c81b 17bd 231a ee3b 3480 c1be
000003f0: 0993 12be 9f79 0fbe 0a7b 8f3e 7d00 62be

sequential/dense/BiasAdd/ReadVariableOp f4 [64]
-0.0119891055 0.020834941 -0.23489358 0.10277785 -0.14811283 0.00502408 0.103070155 0.06908379
-0.047881532 -0.24397027 -0.023660759 -0.12099823 0.06383352 0.13916938 -0.27131438 0.0618247
-0.26937574 -0.16510342 -0.25903967 -0.0072512343 0.029949004 0.07046043 0.033367086 0.046612587
-0.108232446 0.099651985 -0.09141912 -0.22010452 -0.049069524 -0.21213266 -0.19047232 -0.12911671
-0.19064286 0.1663563 -0.124953054 -0.27485922 -0.21741419 0.040248606 -0.2991667 -0.18776904
0.10759183 -0.14987205 -0.089170866 0.068741396 0.015785908 -0.20615491 -0.0034608948 -0.07846943
-0.038869396 -0.39271867 0.021794695 -0.12085679 -0.24995756 -0.16808036 -0.24120656 -0.04756251
0.030451123 0.078918636 0.055409186 -0.2346663 -0.20650479 -0.11468731 -0.16003883 -0.006701591
00000000: f46d 44bc 0aae aa3c f187 70be 327d d23d
00000010: e4aa 17be 0aa1 a43b 7216 d33d cd7b 8d3d
00000020: 6d1f 44bd 58d3 79be 35d4 c1bc eccd f7bd
00000030: 26bb 823d 6b82 0e3e b8e9 8abe e63b 7d3d
00000040: 9eeb 89be df10 29be d9a0 84be c39b edbb
00000050: 9d57 f53c 8f4d 903d edab 083d d7ec 3e3d
00000060: f9a8 ddbd 5716 cc3d f339 bbbd 1463 61be
00000070: 20fd 48bd 4e39 59be 2d0b 43be 2c37 04be
00000080: e237 43be 4e59 2a3e 63e7 ffbd 59ba 8cbe
00000090: d3a1 5ebe b9db 243d 612c 99be 8746 40be
000000a0: 1b59 dc3d 0f78 19be 379f b6bd 4ac8 8c3d
000000b0: 7351 813c 461a 53be 2ed0 62bb 95b4 a0bd
000000c0: 8435 1fbd 6c12 c9be ca8a b23c c483 f7bd
000000d0: e0f4 7fbe 421d 2cbe dafe 76be e8d0 42bd
000000e0: a274 f93c 18a0 a13d bef4 623d 5d4c 70be
000000f0: fe75 53be 2ee1 eabd 38e1 23be 0599 dbbb

sequential/bidirectional/forward_lstm/Read_2/ReadVariableOp f4 [64]
-0.36218444 -0.46499953 -0.33174956 -0.19587219 -0.21319619 0.159636 -0.60705924 -0.07677289
-0.27262032 0.022770315 -0.08772368 -0.2060685 0.2499724 0.12342782 0.23251204 0.28790218
1.0721772 1.0078883 0.88414305 1.1293908 0.9317826 1.1891974 1.1016134 0.92631245
0.63152 0.8855779 1.1704913 1.3304077 1.3836588 0.91098535 1.6828803 1.3417307
-0.15656245 0.08179375 0.26964325 0.339869 0.50247854 -0.5932069 -0.28455275 -0.29433623
-0.05727749 -0.013920957 0.317665 0.4493064 0.57625407 0.16585931 -0.61781555 -0.63143474
-0.025255438 0.02897001 0.39563096 -0.06931994 0.10323117 0.45388317 0.2772984 0.14254512
-0.08713942 0.3111939 0.4215844 -0.35139158 0.08085807 0.011093268 0.22353698 0.18432972
00000000: 3d70 b9be 6b14 eebe 14db a9be b892 48be
00000010: 1a50 5abe 9f77 233e 3c68 1bbf 1b3b 9dbd
00000020: e494 8bbe d088 ba3c 79a8 b3bd 9f03 53be
00000030: c4f8 7f3e bac7 fc3d a317 6e3e ea67 933e
00000040: 1a3d 893f 7c02 813f 3357 623f e18f 903f
00000050: 4e89 6e3f 9f37 983f ab01 8d3f d022 6d3f
00000060: 4bab 213f 3cb5 623f a9d2 953f cd4a aa3f
00000070: bb1b b13f 5636 693f 9f68 d73f d5bd ab3f
00000080: e851 20be 7b83 a73d ae0e 8a3e 4f03 ae3e
00000090: 6fa2 003f 68dc 17bf e6b0 91be 3db3 96be
000000a0: cd9b 6abd ba14 64bc fda4 a23e 7d0b e63e
000000b0: 6385 133f 06d7 293e 2929 1ebf b5a5 21bf
000000c0: 7ee4 cebc 8452 ed3c 2490 ca3e 9df7 8dbd
000000d0: dd6a d33d 6063 e83e 0efa 8d3e 59f7 113e
000000e0: 2776 b2bd cf54 9f3e e9d9 d73e 99e9 b3be
000000f0: ea98 a53d 8ac0 353c e1e6 643e eec0 3c3e

sequential/bidirectional/backward_lstm/Read_2/ReadVariableOp f4 [64]
-0.03302729 0.46970323 0.2718974 -0.040521957 0.2562105 0.19562626 -0.0532143 -0.2024003
0.045323618 -0.257932 -0.1190897 -0.06229666 -0.13614665 -0.03831176 -0.022543991 -0.09919121
0.9031648 1.4500874 1.1042634 0.97958314 1.2321904 1.1992339 0.8271991 0.99292725
1.2935929 1.0149152 0.730581 1.0198643 0.72224474 1.1570388 0.93664443 0.948099
0.21663754 0.7713124 0.59694874 -0.049184985 0.46595886 -0.37471393 0.22084236 0.30514207
-0.122364156 0.020106351 -0.3072594 0.22221224 0.039307352 0.309048 0.16809133 -0.30518755
0.21904941 0.22199628 0.3518931 0.13232496 0.4115283 0.34105155 0.55556726 0.47857878
-0.32909608 -0.017696049 0.18174891 -0.066424206 0.077762604 0.3806617 0.0828073 0.45751917
00000000: a047 07bd f17c f03e 2336 8b3e 5afa 25bd
00000010: 062e 833e 4052 483e 3df7 59bd 0642 4fbe
00000020: 42a5 393d aa0f 84be 4de5 f3bd c82a 7fbd
00000030: 076a 0bbe cbec 1cbd 2dae b8bc c324 cbbd
00000040: cf35 673f 779c b93f 8158 8d3f f6c5 7a3f
00000050: 6ab8 9d3f 7f80 993f 52c3 533f 7b30 7e3f
00000060: 7494 a53f bee8 813f 5b07 3b3f ea8a 823f
00000070: 08e5 383f d919 943f eec7 6f3f 9eb6 723f
00000080: 3bd6 5d3e bb74 453f a2d1 183f 3276 49bd
00000090: 2992 ee3e 81da bfbe 8024 623e 953b 9c3e
000000a0: 0f9a fabd 13b6 a43c 1b51 9dbe 9b8b 633e
000000b0: bf00 213d 8a3b 9e3e 2220 2c3e 8b41 9cbe
000000c0: 7d4e 603e fe52 633e 552b b43e 3280 073e
000000d0: d6b3 d23e 4f9e ae3e a839 0e3f 4708 f53e
000000e0: 487f a8be 4ef7 90bc 631c 3a3e 6a09 88bd
000000f0: 0042 9f3d 17e6 c23e e096 a93d f43f ea3e

sequential/batch_normalization/FusedBatchNormV3 f4 [32]
0.0011475227 4.3687263 1.9115175 1.4016179 2.3023036 2.3410592 0.040338088 1.7137038
0.048759475 2.5346758 0.98396575 0.9659176 2.1169844 3.41792 1.0047451 1.5506405
0.123408295 0.09277571 0.67415184 1.6561743 2.0231636 0.3316967 0.3818103 0.007108754
3.522202 2.4680667 1.6193436 3.8638523 0.11594068 1.5720972 3.5157266 3.780425
00000000: 7968 963a 9bcc 8b40 9bac f43f 3768 b33f
00000010: f158 1340 ead3 1540 8d39 253d a55a db3f
00000020: 04b8 473d 2138 2240 2ee5 7b3f 6046 773f
00000030: ac7c 0740 34bf 5a40 7d9b 803f 637b c63f
00000040: 7dbd fc3d 3101 be3d 3795 2c3f 85fd d33f
00000050: 837b 0140 26d4 a93e a47c c33e 8df0 e83b
00000060: c26b 6140 cef4 1d40 a746 cf3f 5b49 7740
00000070: 4f72 ed3d 7b3a c93f aa01 6140 7cf2 7140

sequential/batch_normalization/FusedBatchNormV31 f4 [32]
-0.016520716 0.0982506 -0.008355001 -0.020593736 -1.558138 -0.15839657 -0.10745361 -0.00010024384
-0.048773527 0.12396021 -0.87779826 0.04519993 -0.75689244 -0.16080835 0.034883335 -0.91013485
-0.42221695 -0.35314518 0.06282973 -0.050119884 0.08516116 0.0051858355 -0.6266816 -0.0035858452
0.079699926 -0.8313097 -1.1991882 -0.10321647 0.017416162 -0.32106733 0.07949796 0.070052326
00000000: 7456 87bc 9c37 c93d 6ae3 08bc 32b4 a8bc
00000010: 1171 c7bf b632 22be a310 dcbd 003a d2b8
00000020: c0c6 47bd dade fd3d 63b7 60bf 9023 393d
00000030: b4c3 41bf f2aa 24be d4e1 0e3d 99fe 68bf
00000040: d22c d8be 72cf b4be e0ac 803d 824a 4dbd
00000050: f968 ae3d f1ed a93b 356e 20bf 8000 6bbb
00000060: b739 a33d b6d0 54bf 007f 99bf 2863 d3bd
00000070: 57ac 8e3c f062 a4be d4cf a23d 9877 8f3d

sequential/batch_normalization_1/FusedBatchNormV3 f4 [45]
0.2459122 0.20060326 0.36433542 0.23087949 0.26457238 0.2407601 0.35199225 0.32108533
0.17822932 0.24657837 0.04319434 0.49502885 0.12281512 0.49268648 0.30509484 0.21349655
0.33571154 0.38543275 0.673947 0.20940958 0.34491798 0.18918386 0.46073684 0.30103981
0.2828138 0.38309535 0.1907637 0.06971581 0.1395335 0.46474263 0.19535221 0.36822006
0.5184085 0.24648213 0.16290423 0.18969616 0.096591055 0.19238943 0.15105416 0.11997003
0.6065993 0.27598986 0.28796265 0.35687983 0.053462546
00000000: 68d0 7b3e f16a 4d3e 2c8a ba3e ac6b 6c3e
00000010: 0876 873e d189 763e 5438 b43e 4c65 a43e
00000020: bf81 363e 0a7f 7c3e 8cec 303d 6c74 fd3e
00000030: 7e86 fb3d 6741 fc3e 6435 9c3e d79e 5a3e
00000040: 62e2 ab3e 7157 c53e ca87 2c3f 776f 563e
00000050: 1799 b03e 6ab9 413e b3e5 eb3e e421 9a3e
00000060: f8cc 903e 1325 c43e 8f57 433e 2ac7 8e3d
00000070: dfe1 0e3e bff2 ed3e 690a 483e 5787 bc3e
00000080: 6bb6 043f d065 7c3e 5ed0 263e b63f 423e
00000090: 88d1 c53d bc01 453e f1ad 1a3e d9b2 f53d
000000a0: 174a 1b3f 8b4e 8d3e d76f 933e f4b8 b63e
000000b0: 8bfb 5a3d

sequential/batch_normalization_1/FusedBatchNormV31 f4 [45]
-0.15187792 -0.5901851 -1.1806152 -0.7372659 -0.8086285 -0.89801675 -0.6273644 -1.2004473
-0.4437379 -1.2360301 -0.15664847 -1.216488 -0.52459526 -0.7807784 -1.3390095 -0.7421558
-1.0726653 -1.2428302 -0.5767392 -0.93161476 -0.6692578 -1.0726345 -1.241619 -1.1331277
-1.0298123 -1.7691274 -0.8287872 -0.35231012 -0.7405648 -1.117992 -0.6984507 -0.6033003
-1.238526 -0.7345391 -0.3405177 -0.85120463 -0.09553513 -0.8333951 -0.1980918 -0.22473529
-1.2687297 -1.0617368 -0.90718275 -0.708071 -0.07451598
00000000: e385 1bbe 5f16 17bf 661e 97bf 75bd 3cbf
00000010: 4702 4fbf 6de4 65bf f49a 20bf 42a8 99bf
00000020: 9d31 e3be 3c36 9ebf 7568 20be e1b5 9bbf
00000030: e04b 06bf 18e1 47bf aa64 abbf ecfd 3dbf
00000040: 194d 89bf 0f15 9fbf 2ea5 13bf 4e7e 6ebf
00000050: 7b54 2bbf 164c 89bf 5fed 9ebf 540a 91bf
00000060: e4d0 83bf c472 e2bf 662b 54bf fe61 b4be
00000070: a895 3dbf 5d1a 8fbf aacd 32bf e371 1abf
00000080: 0588 9ebf c10a 3cbf 5658 aebe 8ce8 59bf
00000090: eca7 c3bd 6259 55bf 94d8 4abe 0221 66be
000000a0: bc65 a2bf fee6 87bf 213d 68bf 2444 35bf
000000b0: d69b 98bd

sequential/batch_normalization_2/FusedBatchNormV3 f4 [55]
0.12357018 0.20029148 0.14307354 0.21224578 0.1269356 0.10450993 0.10562417 0.17430897
0.1392008 0.14696084 0.11957645 0.1892818 0.11845296 0.11650191 0.31873852 0.121099435
0.17546374 0.055958636 0.1217195 0.1572103 0.18154962 0.095120445 0.22090904 0.15650554
0.11536452 0.19484362 0.17197573 0.06695396 0.21111444 0.149036 0.087350376 0.06732818
0.1271301 0.13530779 0.16055939 0.1843084 0.15603867 0.1475685 0.17813532 0.17227349
0.23654181 0.12131676 0.12083553 0.10371493 0.24882312 0.14069596 0.10562026 0.16418849
0.13854004 0.15718123 0.124474324 0.08677304 0.08784283 0.07565743 0.11575976
00000000: 5d12 fd3d 3619 4d3e df81 123e f556 593e
00000010: 68fb 013e 4d09 d63d 7c51 d83d 0d7e 323e
00000020: a88a 0e3e e77c 163e 7fe4 f43d 17d3 413e
00000030: 7797 f23d 8e98 ee3d b231 a33e fb02 f83d
00000040: c4ac 333e e234 653d 1348 f93d bdfb 203e
00000050: 25e8 393e 82ce c23d fb35 623e fd42 203e
00000060: 3c44 ec3d 1685 473e 681a 303e 281f 893d
00000070: 622e 583e e59c 183e c1e4 b23d 5be3 893d
00000080: 652e 023e 208e 0a3e ae69 243e 57bb 3c3e
00000090: 9ac8 1f3e 321c 173e 1b69 363e 7668 303e
000000a0: 0438 723e ec74 f83d 9e78 f73d 7e68 d43d
000000b0: 7dcb 7e3e 9a12 103e 6f4f d83d 0721 283e
000000c0: 71dd 0d3e 1ef4 203e 65ec fe3d 10b6 b13d
000000d0: f1e6 b33d 48f2 9a3d 7413 ed3d

sequential/batch_normalization_2/FusedBatchNormV31 f4 [55]
-0.36996457 -0.03883183 -0.43246233 -0.3907827 -0.25747645 -0.3839151 -0.3754567 -0.1899879
-0.37448746 -0.13933906 -0.7149297 -0.27966648 -0.21231584 -0.25072452 -0.14128777 -0.24654001
-0.14840783 -0.2555033 -0.32472217 -0.31621358 -0.2811137 -0.43491545 -0.09327994 -0.3133499
-0.26216793 -0.10803765 -0.31148666 -0.17140141 -0.49260017 -0.24547873 -0.29193655 -0.4190312
-0.17423399 -0.38246182 -0.4415018 -0.16722116 -0.122385174 -0.30271557 -0.30162096 -0.17918575
-0.3074962 -0.1629031 -0.43328738 -0.23529173 -0.15903012 -0.20537584 -0.45180967 -0.21847512
-0.36026964 -0.28742096 -0.23703383 -0.58527213 -0.57242703 -0.32344252 -0.30788803
00000000: ff6b bdbe 200e 1fbd b46b ddbe ac14 c8be
00000010: f4d3 83be 8590 c4be dc3b c0be 308c 42be
00000020: d2bc bfbe e6ae 0ebe a205 37bf 7230 8fbe
00000030: 5369 59be f75e 80be bead 10be fc74 7cbe
00000040: 39f8 17be 54d1 82be fc41 a6be bfe6 a1be
00000050: 23ee 8fbe 3dad debe 8e09 bfbd 666f a0be
00000060: e03a 86be d842 ddbd 2e7b 9fbe da83 2fbe
00000070: 1736 fcbe c75e 7bbe b578 95be 428b d6be
00000080: 656a 32be 09d2 c3be 860c e2be 063c 2bbe
00000090: 14a5 fabd 89fd 9abe 106e 9abe 787c 37be
000000a0: 2470 9dbe 12d0 26be d8d7 ddbe 51f0 70be
000000b0: cbd8 22be 0b4e 52be 9953 e7be f1b7 5fbe
000000c0: 4375 b8be d728 93be ffb8 72be 65d4 15bf
000000d0: 948a 12bf 429a a5be 80a3 9dbe

sequential/dense/MatMul f4 [64, 32]
0.056836907 0.4980751 0.64919126 0.4789635 0.451753 -0.57207394 -0.28835595 -0.32493594
-0.04027555 0.07831646 0.23599355 0.5721281 0.050315723 0.09932882 -0.610268 -0.54172236
0.13282987 0.48253646 0.32807153 0.027242858 0.4332078 -0.3109229 0.3325772 0.16111371
0.3318566 0.14801018 0.08069476 -0.19405954 0.5066607 0.17083685 -0.34653533 -0.18420286
-0.26061907 -0.12601724 0.17018001 0.36827615 0.08266978 0.2813343 -0.375724 -0.2814435
0.74334466 0.098760635 0.3288572 0.48914617 -0.108528115 0.19485594 -0.09062915 -0.37751642
0.11547752 0.27771777 0.021483384 -0.46205986 0.5458767 -0.0835382 -0.13885802 0.51657873
0.52446795 0.4503962 -0.5027699 -0.25770333 0.3746048 0.5860761 -0.14155246 -0.40257815
0.050801016 -0.5613429 0.21498594 -0.42466182 -0.30059132 0.15015616 -0.41376853 -0.12152977
-0.1315379 0.019917386 0.03237185 -0.32649562 -0.44142896 0.06981725 -0.19437672 0.30876037
-0.14389783 -0.033607595 -0.4034103 0.24698968 -0.8291481 0.33462596 -0.51686996 -0.44260436
-0.27830428 -0.485278 0.4283263 0.14376676 -0.09966655 -0.37475953 0.19881602 0.57203263
-0.3763001 -0.20692465 0.31569993 0.0013174359 0.3692219 0.0564545 0.0014204246 -0.33690906
0.60727483 0.3118022 0.31341138 0.52103573 0.16902612 -0.14144586 -0.5872047 -0.3071419
0.044248633 0.46199092 0.615885 -0.02008611 0.2786078 -0.4537361 0.33855408 0.15486161
0.31543222 0.45232496 -0.39054522 -0.28237146 0.1046443 0.64566857 -0.46088234 -0.44345087
0.21822341 -0.33332416 -0.35476384 -0.07640909 -0.44116166 0.21155348 0.09171525 0.14827214
-0.26608276 0.021924827 -0.06238388 -0.6910074 -0.04670517 0.020048158 0.107241295 0.45457605
-0.30101722 -0.37107798 -0.43896154 0.21267815 -0.32344326 0.12841128 -0.5822416 -0.59474564
-0.15645747 -0.3370398 0.37823448 0.4551675 -0.19861154 -0.65888035 0.23754004 -0.1265533
-0.2724792 0.28893414 0.071612045 0.25580224 0.23538241 -0.30966598 0.2854946 -0.60249394
0.53247195 0.089852095 0.9768627 0.37883028 0.063025914 0.22625507 -0.6576708 -0.42165235
0.23520967 0.43167955 0.389201 -0.201175 0.61815023 -0.35630515 0.10470494 0.13579763
0.09485917 0.3617685 -0.5288751 -0.29225156 0.48194847 0.21677706 -0.08029302 -0.20089528
-0.18923056 0.57433015 0.16399507 0.34651762 0.4572981 -0.37181908 0.005813133 -0.5225442
0.18079363 -0.1115295 0.15411022 0.54554385 0.032140497 0.39519376 -0.7901169 -0.48037586
0.14087817 0.6102503 0.40699133 0.0012952315 0.5721144 -0.09730984 0.021304294 -0.19369581
0.3738231 -0.087977655 0.24635035 -0.43503195 0.45194718 0.3088363 -0.0713327 -0.1703181
-0.09492668 -0.047328014 0.7875985 0.26885623 -0.01161736 0.32120445 0.13372985 -0.3016539
0.64744085 0.32847992 0.34288508 0.33962154 0.22090878 -0.15853037 -0.44684118 -0.2983872
-0.09294538 0.37372875 0.7864882 -0.6695047 -0.030510427 -0.38481122 0.67731667 0.39969853
0.38938954 0.5150017 -0.2485464 -0.100717 0.22027172 0.34403715 -0.40668547 0.16567558
00000000: d1cd 683d b303 ff3e 6631 263f b43a f53e
00000010: 2b4c e73e 7073 12bf 64a3 93be 015e a6be
00000020: faf7 24bd 6164 a03d 4ba8 713e fd76 123f
00000030: dc17 4e3d e96c cb3d 863a 1cbf 51ae 0abf
00000040: 8e04 083e 050f f73e fef8 a73e 6a2c df3c
00000050: 6acd dd3e 4931 9fbe 8f47 aa3e fefa 243e
00000060: 1ce9 a93e fb8f 173e 4b43 a53d 8bb7 46be
00000070: 84b4 013f dbef 2e3e 146d b1be ad9f 3cbe
00000080: dd6f 85be aa0a 01be ab43 2e3e b18e bc3e
00000090: c64e a93d 0d0b 903e e55e c0be 5d19 90be
000000a0: d64b 3e3f 0443 ca3d f95f a83e 5e71 fa3e
000000b0: fd43 debd 5188 473e c79b b9bd d549 c1be
000000c0: 7a7f ec3d 0631 8e3e ecfd af3c 1c93 ecbe
000000d0: 93be 0b3f 1316 abbd cc30 0ebe 813e 043f
000000e0: 8843 063f 559a e63e 87b5 00bf b1f1 83be
000000f0: 33cc bf3e 1509 163f 21f3 10be b91e cebe
00000100: ba14 503d 2bb4 0fbf 4625 5c3e 466d d9be
00000110: 1be7 99be 89c2 193e 78d9 d3be 9ae4 f8bd
00000120: dfb1 06be c929 a33c 5898 043d 6f2a a7be
00000130: fa02 e2be 59fc 8e3d b10a 47be d715 9e3e
00000140: f459 13be 1ea8 09bd cb8b cebe ddea 7c3e
00000150: 0d43 54bf 1854 ab3e 9751 04bf 0a9d e2be
00000160: e67d 8ebe 5c76 f8be 964d db3e 9837 133e
00000170: fa1d ccbd 7be0 bfbe 6d96 4b3e bb70 123f
00000180: 68aa c0be 0ee4 53be 6ca3 a13e d0ad ac3a
00000190: a70a bd3e d53c 673d 8a2d ba3a 587f acbe
000001a0: 5d76 1b3f 8aa4 9f3e 7577 a03e 9962 053f
000001b0: 2f15 2d3e 2fd7 10be 0c53 16bf b441 9dbe
000001c0: 0e3e 353d 138a ec3e a4aa 1d3f a08b a4bc
000001d0: aea5 8e3e 1950 e8be f656 ad3e 0b94 1e3e
000001e0: 5580 a13e 2397 e73e 8bf5 c7be fe92 90be
000001f0: c04f d63d 894a 253f c5f8 ebbe fe0b e3be
00000200: f575 5f3e 77a9 aabe 9ba3 b5be 5e7c 9cbd
00000210: f1df e1be 7aa1 583e 34d5 bb3d a7d4 173e
00000220: 003c 88be b29b b33c 3d86 7fbd dce5 30bf
00000230: ec4d 3fbd 093c a43c 53a1 db3d 31be e83e
00000240: ee1e 9abe effd bdbe 91bf e0be 4dc8 593e
00000250: 5b9a a5be 3f7e 033e c90d 15bf 4041 18bf
00000260: 6336 20be 7b90 acbe f3a7 c13e b70b e93e
00000270: d360 4bbe 62ac 28bf b23d 733e 3097 01be
00000280: 6582 8bbe 2def 933e 56a9 923d 83f8 823e
00000290: 1608 713e 8a8c 9ebe 592c 923e 0b3d 1abf
000002a0: 1550 083f 6004 b83d ad13 7a3f 0bf6 c13e
000002b0: bb13 813d 69af 673e 1d5d 28bf d1e2 d7be
000002c0: ceda 703e 1a05 dd3e 5a45 c73e d200 4ebe
000002d0: 183f 1e3f a16d b6be 8b6f d63d 890e 0b3e
000002e0: 8645 c23d b939 b93e 5c64 07bf ffa1 95be
000002f0: f3c1 f63e cefa 5d3e ab70 a4bd 7eb7 4dbe
00000300: a8c5 41be 4d07 133f 53ee 273e c26a b13e
00000310: fa22 ea3e 125f bebe 187c be3b 75c5 05bf
00000320: f721 393e 9469 e4bd 12cf 1d3e c3a8 0b3f
00000330: c1a5 033d d656 ca3e 1a45 4abf d3f3 f5be
00000340: 5e42 103e 5d39 1c3f 2b61 d03e c2c4 a93a
00000350: 1776 123f 624a c7bd 5886 ae3c 3258 46be
00000360: be65 bf3e a12d b4bd 4443 7c3e 82bc debe
00000370: 9f65 e73e cb1f 9e3e e116 92bd de67 2ebe
00000380: eb68 c2bd 05db 41bd 0ea0 493f 86a7 893e
00000390: bd56 3ebc e974 a43e 7af0 083e 6172 9abe
000003a0: afbe 253f 852e a83e a28e af3e e0e2 ad3e
000003b0: e935 623e c955 22be 5ec8 e4be 35c6 98be
000003c0: 265a bebd 6059 bf3e 4a57 493f a964 2bbf
000003d0: 01f1 f9bc fa05 c5be a064 2d3f 49a5 cc3e
000003e0: 115e c73e 27d7 033f f382 7ebe b744 cebd
000003f0: e98e 613e a325 b03e 1439 d0be dca6 293e

sequential/dense_1/MatMul f4 [1, 64]
-0.28883386 -0.36289698 0.5658677 -0.30370018 0.29891735 -0.25957894 -0.27810615 -0.44563857
-0.38771543 0.31741017 -0.27396286 0.24991053 -0.557663 -0.4360933 0.20794234 -0.2883488
0.4602433 0.5895863 0.23339249 -0.2812185 -0.29221934 -0.48802608 -0.30554706 0.3625826
0.27258235 -0.17558332 -0.26138613 0.30520135 0.5545569 0.20253292 0.44250312 0.27943218
0.3549916 -0.39142072 0.25836408 -0.52375656 0.3756345 -0.33555517 0.57032436 0.29838246
-0.2827235 0.44370598 0.35368937 -0.30077672 -0.36954987 0.48919764 0.620407 0.42069122
-0.2269465 0.5892811 -0.27323756 0.21704037 0.53710616 0.39515474 0.35617277 -0.33481258
-0.24279857 -0.26452732 -0.4870755 0.309989 -0.32892615 -0.3860055 0.2646637 -0.26894388
00000000: 08e2 93be a2cd b9be b5dc 103f 977e 9bbe
00000010: b20b 993e 88e7 84be ee63 8ebe bd2a e4be
00000020: a382 c6be 9683 a23e dc44 8cbe 8ce8 7f3e
00000030: 01c3 0ebf 9f47 dfbe d6ee 543e 74a2 93be
00000040: 03a5 eb3e 21ef 163f 71fe 6e3e dffb 8fbe
00000050: c69d 95be 8ede f9be aa70 9cbe 6da4 b93e
00000060: ea8f 8b3e 1dcc 33be 67d4 85be 5a43 9c3e
00000070: 71f7 0d3f ca64 4f3e c58f e23e bc11 8f3e
00000080: 76c1 b53e 4c68 c8be 4c48 843e e914 06bf
00000090: 2a53 c03e e3cd abbe c700 123f 96c5 983e
000000a0: 22c1 90be 6e2d e33e c616 b53e 68ff 99be
000000b0: a435 bdbe 1d78 fa3e fed2 1e3f d764 d73e
000000c0: aa64 68be 20db 163f cbe5 8bbe d53f 5e3e
000000d0: ca7f 093f b951 ca3e 475c b63e 8e6c abbe
000000e0: 30a0 78be 2070 87be f661 f9be e1b6 9e3e
000000f0: 0269 a8be 83a2 c5be 0082 873e 03b3 89be

sequential/bidirectional/backward_lstm/Read_2/ReadVariableOp1 f4 [64]
-0.03302729 0.46970323 0.2718974 -0.040521957 0.2562105 0.19562626 -0.0532143 -0.2024003
0.045323618 -0.257932 -0.1190897 -0.06229666 -0.13614665 -0.03831176 -0.022543991 -0.09919121
0.9031648 1.4500874 1.1042634 0.97958314 1.2321904 1.1992339 0.8271991 0.99292725
1.2935929 1.0149152 0.730581 1.0198643 0.72224474 1.1570388 0.93664443 0.948099
0.21663754 0.7713124 0.59694874 -0.049184985 0.46595886 -0.37471393 0.22084236 0.30514207
-0.122364156 0.020106351 -0.3072594 0.22221224 0.039307352 0.309048 0.16809133 -0.30518755
0.21904941 0.22199628 0.3518931 0.13232496 0.4115283 0.34105155 0.55556726 0.47857878
-0.32909608 -0.017696049 0.18174891 -0.066424206 0.077762604 0.3806617 0.0828073 0.45751917
00000000: a047 07bd f17c f03e 2336 8b3e 5afa 25bd
00000010: 062e 833e 4052 483e 3df7 59bd 0642 4fbe
00000020: 42a5 393d aa0f 84be 4de5 f3bd c82a 7fbd
00000030: 076a 0bbe cbec 1cbd 2dae b8bc c324 cbbd
00000040: cf35 673f 779c b93f 8158 8d3f f6c5 7a3f
00000050: 6ab8 9d3f 7f80 993f 52c3 533f 7b30 7e3f
00000060: 7494 a53f bee8 813f 5b07 3b3f ea8a 823f
00000070: 08e5 383f d919 943f eec7 6f3f 9eb6 723f
00000080: 3bd6 5d3e bb74 453f a2d1 183f 3276 49bd
00000090: 2992 ee3e 81da bfbe 8024 623e 953b 9c3e
000000a0: 0f9a fabd 13b6 a43c 1b51 9dbe 9b8b 633e
000000b0: bf00 213d 8a3b 9e3e 2220 2c3e 8b41 9cbe
000000c0: 7d4e 603e fe52 633e 552b b43e 3280 073e
000000d0: d6b3 d23e 4f9e ae3e a839 0e3f 4708 f53e
000000e0: 487f a8be 4ef7 90bc 631c 3a3e 6a09 88bd
000000f0: 0042 9f3d 17e6 c23e e096 a93d f43f ea3e

while/MatMul_11 f4 [64, 16]
-0.39463 0.094415724 -0.14307438 0.3381033 0.25207546 0.5012302 -0.3065408 -0.20741202
-0.56381184 0.49571422 0.10990957 0.21997377 -0.67681164 -0.42955893 -0.005930111 0.07173242
0.3034422 0.33995572 0.8303575 -0.33897838 0.28807202 -0.8595279 0.20092647 0.4832453
0.3784446 0.27695307 -0.30215016 0.032547787 0.37526026 0.8083906 -0.18342565 -0.10816925
-0.021919848 0.27734613 -0.8414077 -1.0600183 -0.28404546 -0.8235605 -0.028398277 -0.009437786
0.8928504 0.55828804 0.33829066 -0.1682695 -0.24615242 -0.1276285 -0.7413521 -0.62772375
-0.35600427 -0.22784893 0.31510162 -0.10133642 -0.009446284 -0.22493163 0.52512234 -0.32665145
0.08737219 0.09524452 -0.24233657 -0.3305773 1.1433762 0.276102 -0.46412534 -1.2676239
0.41810995 0.080338694 0.014442412 0.2864088 0.072709225 0.16264044 -0.515821 -0.5635689
-1.384324 0.084094375 0.5267133 0.95814574 -0.9384492 -0.1278105 0.33250085 0.3473627
-0.0154482825 0.071194746 0.33438393 0.08754094 0.20021968 -0.04171065 0.8171008 -0.7609369
0.79646903 -0.31285515 0.2851202 -0.42171106 0.378154 -0.21337248 -0.6255129 -0.36028636
0.057602547 0.393826 0.5198862 -0.955038 -0.3286987 0.11123535 0.81252635 0.033246484
0.96217656 -0.13412003 -0.34570774 -0.93576455 0.6414965 0.6134025 -0.7367964 -0.31854105
-0.4410877 0.07535751 -0.1980973 0.1136399 -0.061938774 -0.5372295 -0.6068843 0.057288866
0.27851915 1.1151334 -0.48942095 -0.59137464 0.7780965 0.251284 -0.4487489 -0.46426594
-0.27822098 -0.040806577 0.18662436 -0.08661368 0.29120278 0.039922763 0.5947804 -0.68633217
0.83432174 0.7593794 -0.28618312 -0.55387837 0.81761986 -0.07408061 -0.044160515 -0.87655705
-0.338363 0.31965545 0.21150619 -0.414969 0.35525575 0.07960983 -0.1130003 -0.22759093
0.2540157 -0.14889994 -0.55710906 -0.67152846 -0.15498151 0.623432 -0.18888521 0.60661286
-0.7044863 0.19672601 0.48261493 -0.11504613 0.28117698 0.004023193 0.082616925 -0.7529266
0.35416308 -0.26144794 -0.050795328 -0.46460232 0.4676264 0.58179384 0.33432543 0.5755168
-0.23570001 0.16243953 0.6949543 -0.6962838 0.16990925 0.21841832 0.47836635 -0.52156186
0.8642641 0.62871766 -0.11133791 -0.7481786 0.2932615 -0.18205494 -0.65759426 -0.3356167
-0.16060802 0.19368225 0.3990025 -0.24100348 -0.15714747 0.6904504 1.0876472 -0.71002245
0.06780871 -0.15854701 -0.2869219 -0.656847 0.8856275 -0.13892893 -0.04235805 0.01807124
-0.084514715 -0.016906474 0.23325303 0.290029 -0.7007658 0.6061547 0.18117522 0.20859857
0.24970399 0.82074916 0.61057925 -0.47997558 0.5020111 -0.8479966 -0.13083988 -0.37447605
0.09463957 0.4486594 0.22301768 0.107967444 0.01490396 -0.11251478 0.11977372 -0.121215425
0.5231639 0.30172527 0.15975587 -0.09848962 0.03853343 0.3517147 -0.28520447 -0.6102232
-0.38435104 0.13352722 0.43978083 -0.6069243 -0.50497377 -0.24007586 -0.0825007 -0.08147084
0.6903716 -0.49076888 -0.09703102 -1.1585375 0.8825368 0.34974384 -0.35573843 -0.49750084
00000000: f20c cabe 085d c13d 1782 12be e01b ad3e
00000010: 0910 813e 9f50 003f eaf2 9cbe d163 54be
00000020: f955 10bf 41ce fd3e 4518 e13d ce40 613e
00000030: 8743 2dbf 26ef dbbe 6051 c2bb 72e8 923d
00000040: c75c 9b3e ad0e ae3e 4f92 543f 938e adbe
00000050: 2d7e 933e 050a 5cbf abbf 4d3e ee6b f73e
00000060: 7ec3 c13e cbcc 8d3e 6db3 9abe d450 053d
00000070: 1d22 c03e b0f2 4e3f efd3 3bbe d787 ddbd
00000080: 4191 b3bc 5000 8e3e 7f66 57bf aeae 87bf
00000090: 686e 91be dcd4 52bf 81a3 e8bc f2a0 1abc
000000a0: d891 643f f7eb 0e3f 6f34 ad3e d74e 2cbe
000000b0: 610f 7cbe 0cb1 02be 40c9 3dbf 81b2 20bf
000000c0: 3146 b6be 3b51 69be 0055 a13e 7889 cfbd
000000d0: 96c4 1abc 7a54 66be 6b6e 063f dc3e a7be
000000e0: 31f0 b23d 8f0f c33d 1427 78be 6e41 a9be
000000f0: 275a 923f 3e5d 8d3e d6a1 edbe 8041 a2bf
00000100: 8212 d63e 9d88 a43d de9f 6c3c 2da4 923e
00000110: 93e8 943d 378b 263e d80c 04bf 0d46 10bf
00000120: 8731 b1bf ac39 ac3d afd6 063f 0a49 753f
00000130: 353e 70bf c1e0 02be 8d3d aa3e 86d9 b13e
00000140: cb1a 7dbc 8dce 913d 5f34 ab3e aa48 b33d
00000150: 6306 4d3e c9d8 2abd 852d 513f c3cc 42bf
00000160: 65e5 4b3f 8d2e a0be 46fb 913e 83ea d7be
00000170: 679d c13e 517e 5abe 9d21 20bf 7477 b8be
00000180: a6f0 6b3d 90a3 c93e 4317 053f 5f7d 74bf
00000190: 324b a8be 5ccf e33d ba01 503f 772d 083d
000001a0: 3451 763f c356 09be 9b00 b1be 448e 6fbf
000001b0: 1d39 243f f207 1d3f b09e 3cbf d017 a3be
000001c0: 3fd6 e1be 0a55 9a3d 05da 4abe 09bc e83d
000001d0: 83b3 7dbd df87 09bf c55c 1bbf bba7 6a3d
000001e0: 109a 8e3e b1bc 8e3f 6295 fabe 5464 17bf
000001f0: 5531 473f 4ca8 803e 6ac2 e5be 44b4 edbe
00000200: fb72 8ebe cc24 27bd 751a 3f3e 8362 b1bd
00000210: 8818 953e 0d86 233d 8743 183f 77b3 2fbf
00000220: 1c96 553f b066 423f 9886 92be f9ca 0dbf
00000230: 894f 513f 93b7 97bd a8e1 34bd 0b66 60bf
00000240: ea3d adbe e1a9 a33e 1495 583e d176 d4be
00000250: 15e4 b53e 7b0a a33d b46c e7bd 990d 69be
00000260: 590e 823e 3a79 18be b39e 0ebf 4ae9 2bbf
00000270: 79b3 1ebe 3d99 1f3f 206b 41be fb4a 1b3f
00000280: 3759 34bf 8b72 493e 4e19 f73e 4e9d ebbd
00000290: 6ef6 8f3e fdd4 833b 1033 a93d ccbf 40bf
000002a0: dd54 b53e 81dc 85be c30e 50bd 5be0 edbe
000002b0: ba6c ef3e 71f0 143f b42c ab3e 1255 133f
000002c0: 585b 71be 8c56 263e 86e8 313f a83f 32bf
000002d0: b1fc 2d3e 0da9 5f3e 6fec f43e 1485 05bf
000002e0: 6940 5d3f a4f3 203f 2105 e4bd a288 3fbf
000002f0: 5f26 963e 9c6c 3abe 1958 28bf f4d5 abbe
00000300: 6e76 24be a454 463e 0e4a cc3e 9ec9 76be
00000310: 44eb 20be 5bc1 303f 0638 8b3f 08c4 35bf
00000320: 4bdf 8a3d 265a 22be 6de7 92be 2027 28bf
00000330: 7cb8 623f 6343 0ebe a27f 2dbd 230a 943c
00000340: 0d16 adbd 727f 8abc e2d9 6e3e ae7e 943e
00000350: 6365 33bf f42c 1b3f ff85 393e dd9a 553e
00000360: 67b2 7f3e 9e1c 523f ec4e 1c3f 5cbf f5be
00000370: cd83 003f 4e16 59bf e4fa 05be 53bb bfbe
00000380: 64d2 c13d afb6 e53e bf5e 643e 091e dd3d
00000390: bd2f 743c 266e e6bd ed4b f53d cb3f f8bd
000003a0: 12ee 053f bc7b 9a3e 0b97 233e edb4 c9bd
000003b0: 3bd5 1d3d f313 b43e 5206 92be 9637 1cbf
000003c0: a9c9 c4be 5cbb 083e f42a e13e 645f 1bbf
000003d0: f645 01bf 72d6 75be 21f6 a8bd 2fda a6bd
000003e0: 31bc 303f 0f46 fbbe 33b8 c6bd f54a 94bf
000003f0: efed 613f a011 b33e 5923 b6be 6eb8 febe
