models/model.tflite (tflite, 256596 bytes, 23 tensors)

sequential/conv2d/BiasAdd/ReadVariableOp f4 [32]
000000 47 5b 4c 3f a8 b6 19 3f f0 1e c3 3e 6f bd 46 3f
       0.7982678 0.60044336 0.3810954 0.776328
000010 76 31 8e 3f 8d f1 b1 3d 9c 8e a2 bc 0b 58 cf bd
       1.1108844 0.0868865 -0.019843392 -0.10124215
000020 e9 d2 1a 3f 7a 67 1f bd 98 86 62 3e 32 63 6d 3e
       0.60478073 -0.038917042 0.22121656 0.23182371
000030 ef 77 1e 3f fd 43 04 3f 64 c9 0f 3f b1 12 7d 3f
       0.61901754 0.5166624 0.5616667 0.98856646
000040 27 76 1c bd 9a d6 81 3f ed 5a 7a 3f fd f2 ac 3e
       -0.038198616 1.0143616 0.9779499 0.33779135
000050 3b 02 0e 3f 66 99 71 be 81 f8 9c be 1a ae f8 3e
       0.55472153 -0.23593673 -0.30658343 0.4857033
000060 c3 74 91 3f de 24 3e 3d f9 8a 66 3e f7 84 6b 3f
       1.1363758 0.046421878 0.22513951 0.91999763
000070 03 12 1e 3f ca 6f f9 3e a7 0d 08 be 7f 3f 49 3f
       0.61746234 0.487181 -0.13286458 0.7861251

sequential/conv2d_1/BiasAdd/ReadVariableOp f4 [55]
000000 83 ca 94 be d4 10 35 3e 8f 40 34 be 39 75 2f 3e
       -0.29060754 0.176822 -0.17602752 0.1713456
000010 eb dc d3 be 2e 2b 9e be 81 df bd be d2 4f 3e bf
       -0.41379485 -0.30892318 -0.37084582 -0.74340546
000020 c4 bd bc bc e6 f5 ba be 0b b1 64 bf 95 e4 0c bf
       -0.023039706 -0.3651573 -0.89332646 -0.5503629
000030 5e 0e b5 be 5a f4 97 be a1 71 2b bd a4 4f cc be
       -0.35362524 -0.29678613 -0.04185641 -0.3990451
000040 9e de 2d 3e 4a c7 bb bc 73 29 71 3e 64 af c2 be
       0.16979453 -0.022922177 0.23550968 -0.38024437
000050 3e 54 ba bd 94 8e 4d 3f bf 73 79 3d 84 7a e4 be
       -0.09098099 0.8029568 0.0609014 -0.44624722
000060 be bc c0 be 0a cb 82 be 09 5a a0 be 95 c1 a5 bd
       -0.37644 -0.25545532 -0.3131869 -0.080935635
000070 ce dd 94 be bf 26 16 bd 38 00 d0 bd 5f fa fa 3c
       -0.29075474 -0.036658045 -0.10156292 0.030636964
000080 73 e8 39 bd 6a d9 5e be 2d d8 b7 be a0 58 03 bf
       -0.045387696 -0.21762624 -0.35907117 -0.51307106
000090 c5 26 49 bf 2e c4 8c be e7 fe 21 3d cc 84 e9 bd
       -0.7857478 -0.27493423 0.039549734 -0.11402282
0000a0 4e 3d fe bd b9 97 6f 3d 27 06 8f 3b 58 65 06 be
       -0.12414037 0.058494303 0.004364747 -0.13124597
0000b0 d6 8e 50 bd f4 ab 2f be e2 b7 be 3b 27 f5 c5 be
       -0.05091747 -0.17155439 0.0058202604 -0.386636
0000c0 b9 f1 75 bd 5a ed 00 3e eb 25 9b be 27 97 d8 be
       -0.060044978 0.12590542 -0.30302367 -0.4230282
0000d0 e8 d4 08 be ef fb f8 be 3b c7 32 3e
       -0.13362467 -0.4862971 0.17458813

sequential/conv2d_2/BiasAdd/ReadVariableOp f4 [60]
000000 c6 34 7d be 52 dc a7 bc cd 51 a1 be 09 84 23 bd
       -0.24727163 -0.0204908 -0.31507722 -0.03992084
000010 20 8b 31 be 11 93 24 3e df 70 6b 3e f4 bd 27 bd
       -0.17338228 0.16071726 0.22992276 -0.040952638
000020 a6 ec ab 3d e7 a8 80 3e a2 04 b9 bd ba b9 ab be
       0.083947465 0.25128862 -0.09034087 -0.33540136
000030 f4 41 3f 3d 41 1e 9e 3b 11 8d dd 3b af a2 8d be
       0.046693757 0.004825384 0.006761201 -0.2766318
000040 1c 9e 56 3e 1b 50 a6 3c 33 a3 fd bd 4a c7 3e 3a
       0.20958751 0.02030187 -0.123846434 0.0007277621
000050 59 e0 3b 3d 4c c8 ba bd 0c 14 83 3e 50 0d ef bc
       0.04586825 -0.09120235 0.25601232 -0.029181153
000060 83 63 c4 3d 1a 12 08 be f5 55 df bd 69 90 53 3d
       0.09589293 -0.13288155 -0.10905067 0.051651392
000070 d0 f6 98 be 66 62 30 3c d9 91 41 be f7 c0 d7 3d
       -0.29875803 0.0107656475 -0.18903293 0.10534852
000080 04 e6 0a bc 27 38 b2 be 55 fd dc bd d8 21 11 be
       -0.008477692 -0.34808466 -0.10790507 -0.14173067
000090 f3 5b 5b 3e 9a 45 34 bc c2 5d 85 bd 9d fa 61 bd
       0.21421795 -0.011002922 -0.065120235 -0.055170644
0000a0 07 b8 d0 3d 42 4e 84 be 1d 09 00 3f e1 3c 85 bd
       0.101913504 -0.25840956 0.50013906 -0.06505752
0000b0 ca 64 3b bd 8a 5a de 3b 74 c6 da 3e c5 83 08 3d
       -0.045750417 0.0067856954 0.42729533 0.03332879
0000c0 e1 1c f2 3c 48 2f bb be 8f de 2d 3d 17 20 79 3d
       0.029554786 -0.3655951 0.042448577 0.06082162
0000d0 2c a1 a2 be 65 53 30 be f0 8b 63 be 5b 80 66 3e
       -0.3176359 -0.17219312 -0.2222135 0.22509901
0000e0 a5 1c 5c be 16 e1 9d be ac 00 ba bc 3c 91 bb bb
       -0.21495302 -0.3083579 -0.022705398 -0.0057241004

sequential/conv2d/Conv2D f4 [32, 5, 5, 1]
000000 24 79 0c bd 97 fa 04 3f 2f 5a 4e 3c 94 a9 4d be
       -0.034295216 0.5194487 0.012594744 -0.2008422
000010 04 e9 28 be 19 b3 8f 3e ff 9b ae 3e fa da 28 bd
       -0.16495138 0.28066328 0.3410339 -0.041224457
000020 2d ed b7 be 7e 2e 9b bd 54 70 84 3e 0f ab f0 bd
       -0.35923138 -0.07577227 0.2586695 -0.11751377
000030 c8 5e 39 be de 7f 09 be 52 dd 29 3e 32 b1 dd 3d
       -0.18102562 -0.13427684 0.16588333 0.10824813
000040 55 59 c4 be 07 0c 33 be 6f 37 a5 3d 6b c2 9d 3e
       -0.38349405 -0.17485057 0.08067214 0.30812392
000050 67 27 5d be 8e b8 6d be f3 5f 99 bc dd 10 3b 3e
       -0.21597062 -0.23214933 -0.01872251 0.18268152
000060 a6 d1 62 3e 45 a6 22 be 93 1f 30 be 1f e8 3e be
       0.22150287 -0.1588374 -0.17199545 -0.18643235
000070 0d ad 80 bd 88 70 2d 3e b3 fd 90 be 64 89 60 be
       -0.06283007 0.16937459 -0.28318557 -0.2192741
000080 b1 57 a7 3d 40 2f c7 3e 50 5c ac 3e 45 91 3c be
       0.08171023 0.38903236 0.3366418 -0.18414791
000090 06 9d 92 3d 4c 57 d3 3e 78 85 63 3e 1f 4f a9 bd
       0.07158856 0.4127754 0.22218883 -0.08267044
0000a0 ff 56 2f 3e 2d b2 db 3e 64 08 98 bd 27 ca 56 be
       0.1712303 0.42909375 -0.074234754 -0.20975552
0000b0 d3 f6 9a be 8c 77 99 3e de cd d1 3d 73 c2 56 be
       -0.30266437 0.2997402 0.10244344 -0.20972614
0000c0 d2 e1 3d be 12 bc 58 be 0f 1c 28 3f 2e 29 a6 3d
       -0.18543175 -0.21165493 0.65667814 0.08113323
0000d0 89 fb 32 3e 58 fd 9e 3e ea 3c fe 3e 8c fc fa 3d
       0.17478766 0.3105266 0.4965585 0.12255201
0000e0 fa fa 1f be 66 9a 8c bc eb ce 15 3c b3 35 1e 3e
       -0.15623084 -0.017163467 0.009143571 0.15450172
0000f0 8f 33 d5 3e 9b 52 05 be 4b 9a 5c bd 50 8e 27 bc
       0.416409 -0.13019793 -0.053858083 -0.010226801
000100 9a 82 37 be a5 2e 15 3f bb 50 01 bc 8e da 3d be
       -0.17920914 0.582743 -0.007892783 -0.18540403
000110 2d a4 8e be 12 a8 82 be 2e 97 9c 3e 8a 3b 1f 3d
       -0.2785963 -0.25518852 0.3058409 0.03887514
000120 9e 0a 0a be ff b5 b4 bd bb 12 10 be b1 84 d2 be
       -0.13480613 -0.088237755 -0.14069645 -0.4111686
000130 67 f7 9b 3e a1 3c 91 3e 49 12 d2 bd 70 43 1f be
       0.3046219 0.2836657 -0.10257394 -0.15553069
000140 01 cb c7 3b bf 61 b4 3e f7 cf 29 3e 91 ea 14 be
       0.006097198 0.35230824 0.16583239 -0.14542605
000150 44 55 82 3d 4d 34 1a 3e 6c aa 32 3e 92 7b 4b bd
       0.063639194 0.15059014 0.17447823 -0.049678393
000160 a1 7f a8 be 5c b5 df 3d 4f 00 83 3e c0 3b ad be
       -0.32909873 0.109232634 0.25586173 -0.33834648
000170 b0 79 8f be 0a ac 90 be ae 8d d1 3d fc 6f ab 3e
       -0.28022528 -0.28256255 0.102321014 0.33483875
000180 4e 75 fe bd ba 7e 1b be f4 7e a4 3d b2 53 fa 3d
       -0.12424718 -0.15185061 0.08032027 0.12222995
000190 3a 5a e8 bd 18 9a c4 bd 1d cd bd bd 27 83 ab be
       -0.11345334 -0.095997036 -0.09267638 -0.334985
0001a0 a0 67 c9 bd 49 78 31 be 3c 93 14 be c8 c5 77 be
       -0.09834218 -0.17331041 -0.1450929 -0.24196541
0001b0 ff 5f af be 1f 3c 1d be 21 a4 46 bc 37 d5 2d 3d
       -0.34252927 -0.15354966 -0.012124092 0.042439666
0001c0 07 c6 37 bc 1e 79 b7 bc eb 02 f1 3a 1c 96 9a 3c
       -0.011216647 -0.02239662 0.001838771 0.018870406
0001d0 fc 52 e3 3e 59 dc e1 3e 9d 42 7d 3e c1 7d 8f bd
       0.4439925 0.44113424 0.24732442 -0.070064075
0001e0 54 ce 90 be dd 41 17 3d af 5e 46 3e c3 dd 9b 3e
       -0.28282416 0.036928046 0.19372056 0.30442628
0001f0 82 a1 22 3e 77 43 61 3e 2f 1f 4d 3d 44 a4 06 be
       0.15881923 0.21998392 0.050078567 -0.131486
000200 fa aa 49 be 94 b0 be be 9b 7e 8f 3e 7d d9 f1 3c
       -0.19694129 -0.37244093 0.2802628 0.029522652
000210 59 3e 21 be 7d b0 97 be d2 d5 91 be 2d 8f 30 3e
       -0.1574644 -0.29626837 -0.28483444 0.17242117
000220 d0 7a 47 bd 24 2d b5 be 6e 58 d8 be e4 d0 89 be
       -0.048701108 -0.35386002 -0.42254966 -0.26917183
000230 d2 1c b6 bd 2b b3 9d 3d ae 5e 24 bd 40 c5 a7 3d
       -0.08892216 0.07700189 -0.040129356 0.08191919
000240 2b 63 c6 3d 44 63 71 bd e5 7e 91 3e b7 1c 05 3e
       0.096868835 -0.058932558 0.28417125 0.12999235
000250 fb ab 9a 3c 0b ae 80 3d 60 1e c7 3e f7 41 7a 3e
       0.018880835 0.06283196 0.38890362 0.24439226
000260 aa b7 ca 3d 35 a4 c6 bd be 4a 89 be 57 65 d9 3c
       0.098983124 -0.09699289 -0.26814836 0.02653758
000270 51 0d 18 be af 51 62 be 70 1f d4 3d df 5e 99 bc
       -0.1484883 -0.22101472 0.10357559 -0.018721996
000280 b2 3e 59 bc 55 b2 f8 bc f0 e2 49 be 8a 60 26 3e
       -0.013259577 -0.030358473 -0.19715476 0.16247764
000290 8f 40 7d 3e d9 0d 3b be 25 76 a8 bd a0 f9 bc bd
       0.24731658 -0.18267001 -0.08225659 -0.092273
0002a0 f5 df ad 3e 49 be f4 3e 1c af fd 3d 1d 3f c8 bd
       0.33959928 0.47801426 0.12386915 -0.09777663
0002b0 fa 5a f9 bd 43 b0 96 3e 21 0a 97 3e 9a 53 33 3e
       -0.121755555 0.29431352 0.29499915 0.1751236
0002c0 e3 11 34 3f db a4 7c 3e c4 40 0d 3e 9e 66 25 3e
       0.7033979 0.24672262 0.13794237 0.16152427
0002d0 ed 36 09 3f 9e dc ee 3e 58 94 cf 3e 48 60 07 bc
       0.53599435 0.46652693 0.40542865 -0.008262701
0002e0 57 7a ac 3e b8 60 85 3e cb f7 ed bd 9a be b3 3e
       0.33687088 0.26050353 -0.116195284 0.35106355
0002f0 f4 70 91 3c 74 65 2c 3e 07 08 91 3d 8c cd af bd
       0.017754056 0.16835576 0.07081609 -0.08584127
000300 5a f3 3a 3e 06 7b 25 be b7 54 a8 3d a8 71 82 bd
       0.18256894 -0.16160211 0.08219283 -0.063693345
000310 05 47 fa bc 5a a3 8b bd 16 59 8e be 6b 40 39 3d
       -0.030551443 -0.06818266 -0.27802342 0.04522745
000320 cb 58 d5 3d 1a d3 35 be 94 77 86 bd b6 fb 36 be
       0.104173265 -0.1775631 -0.065657765 -0.17869458
000330 46 49 da 3d 62 b0 2f 3e 8c 61 89 3e c5 93 6e be
       0.10658507 0.17157128 0.26832235 -0.23298557
000340 b3 df 81 be ba 2e 00 3d 58 1b 68 3e 12 84 b6 3e
       -0.2536598 0.031294562 0.22666681 0.35647637
000350 bc 60 27 3e 7d c5 35 bd 08 d1 c2 be 86 a7 b2 be
       0.16345495 -0.044377793 -0.38050103 -0.34893435
000360 1c 1d e0 3d 60 f5 c2 3e 8b d6 25 3e 80 0e a9 3d
       0.10943052 0.3807783 0.16195123 0.08254719
000370 d4 58 d0 be 96 9b 50 be 35 13 cf 3d 1f b4 12 3e
       -0.4069277 -0.20371851 0.10111085 0.14326523
000380 f1 d9 84 3e 47 66 59 3e 91 2e 49 3e d5 55 7b be
       0.25947526 0.21230422 0.1964667 -0.24544461
000390 29 a1 b3 be b6 dc e8 bc b3 e0 df 3d ec ad 5c 3d
       -0.35083893 -0.028425556 0.1093153 0.053876802
0003a0 83 30 ac be 53 92 30 be 72 f8 24 bd 7b 03 b6 3d
       -0.33630762 -0.17243318 -0.040276 0.088873826
0003b0 4f 1d d4 b9 36 33 fd bd e7 b4 0b 3e 12 fd 50 3e
       -0.00040457628 -0.12363283 0.13643228 0.20409039
0003c0 68 f8 0b bd 05 f9 9e be 31 9b 0d be c0 bd 9c 3e
       -0.034172446 -0.31049362 -0.13828732 0.30613518
0003d0 82 10 12 3e 98 f4 6b be 8c 26 1a bf 86 93 1a bd
       0.1426411 -0.23042524 -0.6021507 -0.037738346
0003e0 57 c0 2d 3e f4 4b 66 3d 03 ff d9 3e 0a c7 e4 3e
       0.16967903 0.05622478 0.4257737 0.44683105
0003f0 d3 02 2d be 8f 83 af be f2 f7 af 3d d2 b6 52 3c
       -0.16895609 -0.3428006 0.08592214 0.012860971

sequential/conv2d_1/Conv2D f4 [55, 3, 3, 32]
000000 bb f4 fc be 50 4e 31 be 64 cf 18 3e 5f 48 b7 be
       -0.49405465 -0.1731503 0.14922863 -0.35797402
000010 87 6a 6e 3e bc a0 09 be 69 20 d4 bd 53 dc 61 be
       0.23282824 -0.13440222 -0.10357744 -0.22056703
000020 f2 18 9b 3d f4 fa 81 be fc 34 81 be 61 e1 9b 3e
       0.07573117 -0.25386775 -0.25235736 0.30445388
000030 17 61 8a 3d 7d ff a3 be b2 8e 6f 3d 9c b3 ba bd
       0.067568 -0.3203086 0.058485694 -0.09116289
000040 cc 15 0b be a9 29 c9 be d5 72 69 3e ab 81 a9 be
       -0.13582534 -0.39289597 0.22797711 -0.3310674
000050 69 e7 ac be 85 21 0b bd fc 17 0e 3e 17 5b ae be
       -0.33770302 -0.033967514 0.13876337 -0.3405387
000060 7a 5e 8d be 53 d4 9a be f6 d7 67 be 11 8f cc be
       -0.27611142 -0.30240116 -0.22640976 -0.399529
000070 74 78 3b be 2a a8 bb be 3a 12 e8 bd 93 db b5 3d
       -0.18307668 -0.36651736 -0.113316014 0.08879771
000080 39 44 4c 3e 4f b2 0e 3e 77 6e 59 3d 99 fb a0 be
       0.199479 0.13935207 0.053083863 -0.31441954
000090 63 41 31 3e 3a a7 91 3c fe 59 90 be f0 52 60 be
       0.173101 0.017779935 -0.2819366 -0.21906638
0000a0 9d d6 a4 ba 25 ce 93 bd 7d 53 9a bd 85 88 c7 3e
       -0.0012576167 -0.07217053 -0.075354554 0.38971344
0000b0 8a 99 0e bd 0c 3c 87 be af 34 94 3d 0d a6 6f be
       -0.034814395 -0.26413 0.07236611 -0.23403187
0000c0 78 bb 3a be 86 d2 39 3b 1b 31 0c 3e 0b 39 52 bd
       -0.18235576 0.0028354242 0.13690607 -0.05132393
0000d0 09 5c c0 bd 9b 98 13 be fd 9b 1e 3e 4b 90 4a bd
       -0.09392554 -0.14413683 0.15489192 -0.049454015
0000e0 d0 da ae 3d 1a 97 97 be fe c4 c4 be 47 79 a8 be
       0.08537829 -0.2960747 -0.38431543 -0.32905027
0000f0 c2 18 0f 3d 99 8a 44 bf 13 b1 43 be 05 4f 79 3e
       0.03493572 -0.76773983 -0.19110517 0.2434655
000100 9e 14 8b be bf 33 23 3e e4 36 79 bd a6 73 7a be
       -0.27164167 0.15937708 -0.060843363 -0.24458179
000110 b9 73 9e bd eb 82 30 be 64 dc a0 bd 04 3a 40 be
       -0.07736916 -0.17237441 -0.07854536 -0.18772131
000120 46 30 07 3d 33 73 16 3e d7 aa 2e 3d 48 3b 1c 3e
       0.03300502 0.14692383 0.042643394 0.15256989
000130 86 54 d1 3d 25 1b 9b be 8b 3a 05 be 17 7e 7a be
       0.102212 -0.30294147 -0.13010614 -0.24462162
000140 3e db a7 be a7 ae 39 be 5d 46 6e be c6 7f 41 bd
       -0.32784456 -0.18133031 -0.23269029 -0.047240995
000150 e3 06 87 be a7 d8 3e be 69 a5 34 be 6c b1 11 be
       -0.26372442 -0.18637334 -0.17641224 -0.14227837
000160 79 c7 5a be c1 36 3e be 34 2b 85 be 44 6e fc be
       -0.21365155 -0.18575574 -0.26009524 -0.49302876
000170 aa a9 cb 3d db b2 85 be 05 8e c6 bd 9a d0 db bd
       0.0994447 -0.26113018 -0.09695057 -0.10733147
000180 24 90 2c 3c 6f 3f 08 be b7 67 09 bf 1d aa 9b be
       0.010532413 -0.13305448 -0.5367388 -0.30403224
000190 79 b9 95 3e ea 46 72 bc e9 6a c4 3d e3 1a 0a be
       0.29243067 -0.014787415 0.09590704 -0.13486819
0001a0 47 8e 10 3e ae c7 d5 be 71 84 24 bd 21 e8 fe bc
       0.14116774 -0.41753906 -0.04016537 -0.031116547
0001b0 f9 6a e0 3e a6 05 38 be e1 1c 70 bd c9 d5 e0 3d
       0.43831614 -0.17970905 -0.05862129 0.10978276
0001c0 95 71 f5 bd 9f 8f a1 be e5 01 d6 3e 38 66 51 be
       -0.11984555 -0.31554887 0.4179832 -0.2044915
0001d0 8a 34 74 be f2 88 79 3d 99 02 46 be dc 97 25 bd
       -0.23848167 0.060921617 -0.19336928 -0.040428028
0001e0 07 9a 02 3d aa d7 22 bd 0b 44 d7 bd f5 8b 79 bc
       0.031885173 -0.039756455 -0.10511025 -0.015231122
0001f0 59 2a 9a 3e a6 64 f4 3c 03 5e 94 be 0c d1 43 be
       0.30110434 0.02983315 -0.28977975 -0.19122714
000200 a7 fc 69 3d 2d 00 ad bc 64 f3 ed 3d 55 2b a3 3d
       0.057125714 -0.021118248 0.11618689 0.07967249
000210 8d a1 11 be 24 2f 87 3d 82 06 3a be 44 6e 8f bd
       -0.14221783 0.06600788 -0.18166545 -0.070034534
000220 5f 27 84 be b8 f7 b4 be 1d b9 28 be 4d 96 0d be
       -0.25811288 -0.35345244 -0.16476865 -0.13826866
000230 2a 94 bd be 0c 95 c4 bd 45 09 10 3d 5a a7 a9 bd
       -0.37027103 -0.09598741 0.03516509 -0.08283873
000240 2a 78 a2 3e 79 05 82 3b 4c 63 84 be 5c 2a 25 be
       0.31732303 0.0039679375 -0.25857008 -0.1612944
000250 3f 34 3f be e5 83 16 3e fb 1d fb bd 8f 49 54 3e
       -0.18672274 0.14698751 -0.12261578 0.20731185
000260 40 d7 c5 3d d4 41 8b 3d ae e4 31 3e b8 90 5f bd
       0.09660196 0.06799665 0.1737239 -0.054581374
000270 6d a7 26 be 97 41 88 be 17 a3 c5 3c 16 96 23 3e
       -0.16274805 -0.2661254 0.024125619 0.15975222
000280 ee 6a 2a bd ac 12 38 3c 19 5c 70 be 99 16 d8 3e
       -0.041605882 0.0112349205 -0.23472632 0.4220474
000290 d8 9e 2d be 7f 5a 9f bd e1 e7 fd 3d 83 37 07 3e
       -0.16955125 -0.07780933 0.12397743 0.1320477
0002a0 c3 90 07 bf e3 7c 12 3e 92 ec bc 3e 48 f8 2a be
       -0.52955264 0.14305453 0.3689924 -0.16696274
0002b0 20 03 cd be 93 e2 00 3e ab 9c 8d bd 73 5a 53 be
       -0.40041447 0.12586431 -0.06914648 -0.20639972
0002c0 3c fc 94 3d 3c 21 f9 bd 13 62 b0 be e3 7c 0a bd
       0.072746724 -0.12164542 -0.34449825 -0.033810508
0002d0 ef 18 c2 3d 1e bf 2d be a3 c3 3a be 7b 7d 80 bd
       0.09477412 -0.16967437 -0.18238692 -0.062739335
0002e0 d6 27 3b be dd c2 3f 3e d6 32 25 3e ec 8e 2e 3e
       -0.18276915 0.18726678 0.16132674 0.17046708
0002f0 7b fe 7e be ef e7 6d 3d 04 88 c6 3c 77 d7 de bc
       -0.24901764 0.058082517 0.02423478 -0.027202351
000300 cd 62 fa be 88 e7 c3 3d ab 7e f6 be b7 10 d2 be
       -0.48903504 0.095656455 -0.48143515 -0.41028377
000310 71 ad 92 3e 28 2f e9 bd c1 78 c8 bc ec 4d 50 be
       0.2864795 -0.113859475 -0.024471642 -0.20342225
000320 77 33 7c 3e de 61 19 bf de 1e 97 be 98 88 c4 3d
       0.24629007 -0.5991496 -0.29515737 0.09596366
000330 77 bf 34 3f 4a 2f 06 3e e0 2d 06 3e ba 18 87 be
       0.7060465 0.13103977 0.13103437 -0.26386052
000340 e3 1d 12 be f5 d2 08 bf 6a 9e 20 3f 83 3e c3 bd
       -0.14269213 -0.53446895 0.6274172 -0.095334075
000350 86 9a c7 3d 2b 44 28 3e 54 3b 05 bd 6b 4d 7b be
       0.0974627 0.16432254 -0.032527283 -0.24541251
000360 18 88 27 bc 80 f5 df be 04 b6 d2 bd f4 59 fa 3e
       -0.010225318 -0.4374199 -0.10288623 0.48896754
000370 40 19 67 3e c8 ca 0a 3f 61 a5 9d bd 81 d7 5c be
       0.22568226 0.5421567 -0.07697559 -0.21566583
000380 c8 34 98 3e 5f 35 00 3e 94 c0 ba bd 47 33 cf 3e
       0.2972777 0.1252036 -0.091187626 0.4046881
000390 bc 95 63 3e 8e 61 04 3d 9d 78 9b be 2f f6 e0 bc
       0.22225088 0.032319598 -0.30365458 -0.02746114
0003a0 56 21 6d 3e da 79 ae be 5f fa 8e be 6f 61 1e 3d
       0.23157248 -0.3407734 -0.27925393 0.03866714
0003b0 80 fe 76 be 3f bb 29 be ae 51 97 3e c6 a1 1c 3d
       -0.24120522 -0.16575335 0.29554504 0.038240217
0003c0 02 4b 88 ba 29 7b f1 3c 2f ed 13 3e 78 d3 85 bd
       -0.0010398331 0.029477673 0.14445947 -0.06534475
0003d0 fc 8b 91 be 58 0b 9e 3e 72 ac 81 bd be 78 45 3e
       -0.28427112 0.3086803 -0.063317195 0.1928434
0003e0 ec 91 88 3d 27 91 df bc d8 d8 02 bd 7a a4 f8 be
       0.066684574 -0.027290894 -0.03194508 -0.48562986
0003f0 d6 db b3 3d 13 73 12 bf ee a1 67 be 51 53 f1 3d
       0.08782165 -0.5720684 -0.22620365 0.117834695

sequential/conv2d_2/Conv2D f4 [60, 3, 3, 55]
000000 32 61 d2 3d 1f c9 ce 3d b6 8b f8 3d c0 fc f0 bd
       0.10272445 0.100969546 0.12136023 -0.11766958
000010 3a 5b 27 be 96 94 dc 3c dc 2a 16 be a2 d5 c0 be
       -0.16343394 0.02692632 -0.14664787 -0.3766299
000020 db 9b 9f 3e 9b f6 93 be 96 b6 a6 bd 24 4c 33 be
       0.31173596 -0.28899083 -0.08140294 -0.17509514
000030 1f bf 82 be dc 50 0c be dc 06 0e bd f1 58 e1 be
       -0.2553644 -0.1370272 -0.03467451 -0.4401317
000040 6b 58 5b 3d 97 f7 8f bd 98 14 40 3e ff 91 62 be
       0.05355112 -0.07029646 0.18757856 -0.22126006
000050 61 6f 6a be 9d d3 b8 3d a2 ba 14 3f 80 b1 03 bf
       -0.2289405 0.09024737 0.5809728 -0.5144272
000060 69 9e 8a be bc 50 8e be d8 93 14 3e 6b dc b5 3d
       -0.27073982 -0.2779597 0.14509523 0.08879932
000070 45 22 ce bd a3 13 c5 3e cf 70 ab be d7 43 f7 3e
       -0.1006513 0.38491544 -0.33484504 0.48293945
000080 c2 40 00 3e a3 f6 af bd b0 5b 67 be 0b f9 af be
       0.12524703 -0.08591964 -0.2259357 -0.34369692
000090 52 34 76 be 4e 7e 33 3e f3 e9 e1 3d 56 21 ee 3d
       -0.24043396 0.1752865 0.110309504 0.11627452
0000a0 a3 2b 99 be e1 ab b1 bd 14 2f f9 3c 4e 16 2a bd
       -0.29916105 -0.086753614 0.030417956 -0.041525178
0000b0 55 cc d8 bd bd f1 9d bc cb 62 20 be 58 1c 46 be
       -0.10585848 -0.019280309 -0.15662687 -0.1934675
0000c0 fc 61 ce 3d c4 75 e3 3e 0b 52 a2 3e af 4f bb bd
       0.10077283 0.44425786 0.3170322 -0.09146058
0000d0 ee 16 ad bd 32 8a 57 3d c6 ca 56 3e cf a9 8e 3d
       -0.08451639 0.052622028 0.2097579 0.06965982
0000e0 28 1e bf be 30 73 4e be 30 77 26 3e 87 b2 3d 3d
       -0.37327695 -0.20161128 0.16256404 0.046312835
0000f0 e7 dc 2e 3e 55 af db bd 7b a1 a7 be 45 59 2c 3e
       0.17076455 -0.10726801 -0.32740387 0.16830929
000100 37 75 5a 3e d9 ba 08 be e2 55 09 be 38 0a 1c bd
       0.21333776 -0.13352527 -0.13411668 -0.038095683
000110 28 19 88 3d 52 6b c0 bc a7 44 d6 3e b1 e1 2a 3e
       0.06645423 -0.023488674 0.41849253 0.16687657
000120 34 47 f1 3d f2 13 6a bd 9d cf 97 3d 3c af 5a be
       0.11781159 -0.057147928 0.07412646 -0.21355909
000130 71 22 f1 3d 5e f1 53 3e d0 5b 08 bc ec 80 14 bd
       0.11774147 0.20697543 -0.008322671 -0.036255762
000140 e1 fd c3 3d f0 3b d3 3e 4f 69 2b be ee 84 5a bd
       0.09569908 0.41256666 -0.16739391 -0.053349428
000150 39 99 9c 3c ed 27 be 3d b7 2b 68 be cd 0f 83 bd
       0.019116031 0.09284959 -0.22672926 -0.06399498
000160 a0 f7 72 3e 3e 1d 8a be 59 51 26 bd 6a 27 13 be
       0.23727274 -0.26975435 -0.040604923 -0.14370504
000170 e6 8e dc be e7 25 5e bd 9b 82 b3 bd 8a 51 2c be
       -0.43077773 -0.054235365 -0.087651454 -0.1682798
000180 53 f1 de 3e a3 1c 3c be 07 a0 bd 3d 5d 78 50 3c
       0.4354349 -0.18370299 0.092590384 0.012724009
000190 71 e3 53 3c 1c 88 4f 3d dd dc 06 3e cb c9 3f 3e
       0.012932644 0.050666913 0.1317019 0.18729322
0001a0 1c 07 13 be 00 a4 8c bd ea d8 48 3e 30 3f 5a be
       -0.14358181 -0.06867218 0.19613996 -0.21313167
0001b0 2d e5 4d 3e 43 ff 93 3d ea b7 5d 3d 98 ad bf 3c
       0.20106955 0.07226422 0.054130472 0.023398206
0001c0 4d 13 1e bd 16 65 59 3d fc 77 36 3d 37 90 8d 3d
       -0.038592625 0.05307492 0.04454802 0.069122724
0001d0 df 29 58 bd 72 3d 15 3d d7 3e 5b bd ae 4d 1d bd
       -0.052774306 0.036435552 -0.053526726 -0.03840416
0001e0 9f d8 62 bd 4c aa 6e bd 5c d9 00 3d 9f f5 6d bd
       -0.055382367 -0.058267877 0.03145729 -0.05809557
0001f0 14 24 31 3d 7e cb 0b 3d 68 3a 7c bc f0 c6 45 3d
       0.043247297 0.034129612 -0.0153947845 0.048285425
000200 c6 b8 0e 3d 00 30 e8 bc fa 87 a7 bc 5a 9d a6 bc
       0.034844182 -0.0283432 -0.02045058 -0.020338703
000210 24 21 f3 3c c0 38 d4 bb 50 07 eb bc b2 a8 0b 3d
       0.029678889 -0.0064764917 -0.02869001 0.034096427
000220 98 42 29 bc 3e ba af bc c0 27 2c 3c 58 d4 25 3c
       -0.010330819 -0.021451112 0.010507524 0.0101214275
000230 1e fd 99 bc 00 4a 2d b9 ac 14 74 bc 4b ef 90 3d
       -0.018797453 -0.00016526133 -0.014897507 0.070768915
000240 9e 7c 59 3d 20 ea ef 3c 48 b9 5e bd f4 c4 c5 3c
       0.05309736 0.029286444 -0.054375917 0.024141766
000250 bd d1 8c 3d 2c cb df 3c d2 19 27 3d 8e 77 65 3d
       0.06875942 0.02731856 0.04079611 0.05602222
000260 ca 9a 0f bd 30 1a 6d bd da 38 2e 3d a4 a4 cc bc
       -0.035059728 -0.057886302 0.042534687 -0.02498085
000270 e6 bf ef bc b4 ce 61 bc 38 06 91 3c 9c 3d 0a bd
       -0.029266309 -0.013782192 0.01770316 -0.03375016
000280 4b ae 7d bd f8 46 b6 3c 2e 63 3d bd 28 b3 b3 3c
       -0.061933797 0.022250637 -0.046237163 0.021936014
000290 22 19 37 3d a4 08 17 be 41 fa 01 bf cc 09 82 3e
       0.044701703 -0.1474939 -0.5077248 0.253981
0002a0 ed 49 66 3e c7 52 c0 bd 0c 1b b5 3e be a5 e7 be
       0.22489138 -0.093907885 0.35372198 -0.4524364
0002b0 8e 00 19 be c8 3d 90 3d 17 6f 1f bf 6a 5d 75 be
       -0.14941618 0.07043034 -0.62278885 -0.23961416
0002c0 96 1f f0 3c 37 9d b2 bd 6c 80 77 be 5e b7 08 bd
       0.029311936 -0.087213926 -0.24170083 -0.033377998
0002d0 4f 7b 8a be 8a b2 76 3c e1 8e 43 3e 37 4a 00 be
       -0.27047202 0.0150572155 0.19097473 -0.1252831
0002e0 c6 18 c5 3e d8 4d 0c 3d ba 68 95 be 38 da 3d be
       0.38495463 0.034253925 -0.29181463 -0.18540275
0002f0 b3 6e 16 be b9 52 53 be ee 53 5f bd e2 24 b7 3e
       -0.14690666 -0.20637025 -0.0545234 0.35770327
000300 ad 73 06 3d b0 37 58 3d a7 f0 35 bc 0f 39 d2 be
       0.03282516 0.052787483 -0.011104739 -0.41059157
000310 74 2e 12 bf 3b ba 99 be b3 b8 b9 3e 4b b2 96 bd
       -0.5710213 -0.30024895 0.36273727 -0.073582254
000320 3a e8 a8 be 15 61 b4 3d 31 4b 04 be 83 77 ad bc
       -0.32989675 0.088075794 -0.12919308 -0.021175152
000330 5b 4f 1b bf a0 f8 a5 3b 3e cd 0e 3e b7 1d cb be
       -0.6066796 0.005065039 0.13945481 -0.39671108
000340 8e 7b aa 3e 35 6e 64 3e 82 fd 82 be b3 d1 c3 3d
       0.3329739 0.22307666 -0.25584036 0.09561481
000350 2c c9 d5 bd 98 3e 1d 3f 73 fd 5d 3e 11 32 88 be
       -0.10438761 0.61423635 0.21678714 -0.26600698
000360 d7 cd db be a8 e1 2a be 78 3a d1 be ba b2 1e 3f
       -0.4293048 -0.16687644 -0.4086492 0.61991465
000370 a0 23 af be 48 11 8a bd f9 5c 24 3e 8a 41 c2 bd
       -0.34206867 -0.067415774 0.16051091 -0.09485157
000380 51 b3 43 3e cd 22 38 bd 99 1e e9 3d d6 02 9b be
       0.19111373 -0.044955064 0.11382789 -0.302756
000390 66 4f 18 3d dd 89 ae 3e 46 c0 1a 3e 4a 59 9b 3e
       0.037185095 0.34089556 0.15112409 0.3034156
0003a0 c2 6e 9f be 14 63 0e 3e fb 7c 64 3e 2e 04 42 3e
       -0.3113919 0.13904983 0.22313301 0.18946907
0003b0 78 0c 9a be b2 59 08 bb a7 41 87 be ce e8 0d be
       -0.30087638 -0.0020805416 -0.26417276 -0.13858339
0003c0 59 b5 a2 be 4f da 70 3c 77 0f a1 3c c3 4f 7c 3d
       -0.31778982 0.014700486 0.019660695 0.061599504
0003d0 33 8c f2 3d 27 a8 25 3e d4 5a c1 3d 09 69 05 3f
       0.11843147 0.16177426 0.09441152 0.52113396
0003e0 ca 42 2c 3d 53 54 3f 3d ba 0d 04 be 18 76 bf 3d
       0.042055883 0.046711277 -0.12895861 0.093486965
0003f0 40 e4 dd bd bf 3a b2 be b6 a0 f1 bd ba a8 f8 bd
       -0.10834551 -0.34810445 -0.11798231 -0.12141557

sequential/dense/BiasAdd/ReadVariableOp f4 [64]
000000 4d 98 7d bd d5 76 84 3d 0d e9 d5 3c 60 c3 62 3e
       -0.061912823 0.06467978 0.026112104 0.22144842
000010 db 13 c6 bc 41 52 c4 be 7e 0b 87 3e 23 2e d7 3d
       -0.02417939 -0.38344005 0.26375955 0.10506847
000020 82 44 53 bc c6 b9 41 3e 47 81 bd 3d bd 6e 2c bc
       -0.0128947515 0.18918523 0.09253173 -0.010524449
000030 a0 4e 0a 3d ba 0c 23 3d 66 71 df bc 08 27 fa bd
       0.03376639 0.03980706 -0.027275752 -0.12214476
000040 de 81 f8 3c 18 87 5d be ad 35 6b bd 0e dd 0d be
       0.030335363 -0.21633565 -0.057424236 -0.13853857
000050 e7 74 1c 3e c0 6a 72 be cb f1 79 3e a3 f8 44 3d
       0.1527897 -0.23673534 0.24408643 0.04808868
000060 1e a9 fe 3d d9 8f 42 bd a1 20 d4 bd f0 e5 22 3e
       0.124346 -0.047500465 -0.10357786 0.15908027
000070 4c 5d 81 3c b8 20 fe bd b8 6f 28 3e c2 48 e8 bd
       0.015791558 -0.12408584 0.16448867 -0.113420025
000080 39 d2 6c 3e 5f 59 6e 3c e6 e1 e1 3c 2c 17 8d 3d
       0.23127069 0.014547675 0.027573537 0.06889185
000090 46 20 64 be 55 48 c8 3d cd d8 a7 bd e9 e5 c9 3d
       -0.22277936 0.09779421 -0.08195648 0.09858305
0000a0 87 18 b6 3d 68 2b 88 bd 95 fd 73 3e 74 b3 c9 3d
       0.08891397 -0.06648904 0.23827203 0.09848681
0000b0 5f 7d ae 3d 3c ac 45 bd 49 d9 f1 3c 95 de 07 3e
       0.085200064 -0.04825996 0.029522555 0.13268502
0000c0 3a 93 03 be 3e 7b f5 bc 3d 56 38 bb 48 e3 7f bd
       -0.12849131 -0.029965993 -0.0028127574 -0.06247261
0000d0 ec ca 91 3d 59 9c be 3d ac 12 69 bd 32 59 c3 3c
       0.071187824 0.09307165 -0.056902573 0.023846243
0000e0 de 11 da bd eb 7a b9 3d 9a 68 45 be 42 31 06 be
       -0.10647939 0.09056648 -0.19278184 -0.13104728
0000f0 f3 72 45 bd 3e 15 ba 3d 40 98 a3 bc 3b 1a c6 bd
       -0.048205327 0.09086083 -0.01997006 -0.09672972

sequential/bidirectional/forward_lstm/Read_2/ReadVariableOp f4 [64]
000000 e3 8b 5a be 7d 95 86 be 9b 2c b5 bb f9 cd 8c 3e
       -0.21342425 -0.26285926 -0.005528999 0.27500895
000010 9b 37 99 3e 22 b5 cc be 18 73 0b bd d1 d5 fe be
       0.29925236 -0.39981943 -0.03404531 -0.49772504
000020 6e 05 c9 3e 6b 5b 05 be 49 8f 0e 3d 0b f2 92 bb
       0.39261955 -0.13023154 0.034804616 -0.00448442
000030 05 a3 59 bd 3c 39 65 be 89 f3 df bd cc 59 b1 3d
       -0.053133983 -0.22385114 -0.109351225 0.086597055
000040 30 b1 78 3f 48 f8 73 3f 4d 55 74 3f 85 6e 8c 3f
       0.97145367 0.9530072 0.9544266 1.0971228
000050 6d 5f 4d 3f 74 79 7a 3f 5b 22 99 3f 3a 5a a2 3f
       0.80223733 0.9784157 1.196361 1.2683785
000060 8d 89 5d 3f 65 c4 bd 3f 54 2e ab 3f f4 0a 82 3f
       0.8653801 1.482556 1.3373513 1.0159593
000070 25 18 5a 3f b4 f2 8f 3f 9e 84 8b 3f 4d 16 57 3f
       0.8519309 1.1245942 1.0899847 0.84018403
000080 b1 61 66 bd 71 d8 38 be bb a9 c1 3c 72 d3 0f be
       -0.05624551 -0.18051316 0.023640504 -0.14045504
000090 ca 55 a6 3e 1e 96 27 be 64 ca c7 bd 8b c2 ea bd
       0.32487327 -0.16365859 -0.097554 -0.114628874
0000a0 58 53 4f 3e 80 63 f9 3d 95 ce 3c 3e e4 c9 7e 3e
       0.20246637 0.12177181 0.1843818 0.24881703
0000b0 bb ed 5f be fe 30 f7 bb 0d 7a 52 3e 73 2d 54 bd
       -0.2186803 -0.007543682 0.20554371 -0.051801156
0000c0 17 41 3d bc 9f 5c 88 3d 32 8c a1 3e f0 e2 3f 3d
       -0.011551163 0.06658291 0.31552273 0.046847284
0000d0 73 2d 8f 3e e9 b4 62 3e 85 dc f5 bd dd ae 9d 3e
       0.27964363 0.22139324 -0.120049514 0.30797473
0000e0 16 3f b5 3e c5 ea 93 3e 7c e1 5e 3e 5c b5 b8 3d
       0.35399693 0.28890052 0.21765703 0.090189666
0000f0 c8 a0 2f 3f ff 2d 2d 3d 54 f3 0d 3e 37 9b 49 be
       0.6860471 0.042280193 0.13862354 -0.19688116

sequential/bidirectional/backward_lstm/Read_2/ReadVariableOp f4 [64]
000000 7d cb e8 3d 7e cf ce be 18 50 7d bd 9c 36 76 3d
       0.11366937 -0.4039268 -0.06184396 0.060110673
000010 cc 9b a5 3d 38 4f c3 3c 7f ee 19 3c e3 a0 35 3e
       0.080863565 0.023841485 0.009395241 0.17737155
000020 de 75 e3 3e 98 63 14 bf 85 ae 62 be 04 d5 b1 3d
       0.44425863 -0.5796447 -0.22136886 0.08683208
000030 dd 54 90 3e 81 8a cc bd 22 d4 59 be 84 8e 79 3e
       0.28189746 -0.09987355 -0.21272328 0.24370772
000040 fd e1 6a 3f 91 98 86 3f 58 0b 63 3f 68 54 88 3f
       0.9175108 1.051531 0.88689184 1.0650759
000050 d6 f3 40 3f b0 42 84 3f e9 87 87 3f 3a 65 11 3f
       0.75372064 1.0332851 1.0588351 0.56795084
000060 86 42 7d 3f e1 9c 9c 3f 36 bd 40 3f d4 6f 98 3f
       0.9892963 1.2235376 0.7528871 1.1909127
000070 cb 66 76 3f a9 91 49 3f 7d a9 38 3f 26 d4 92 3f
       0.962506 0.78737885 0.7213362 1.1470993
000080 dc e8 de bd ed cb 7f be 63 4d 6f bd 8a a0 f7 3e
       -0.10884258 -0.24980135 -0.05842341 0.4836467
000090 7f f4 6c 3e 21 da 52 be 46 d3 25 3e 96 47 5b be
       0.23140143 -0.20591022 0.16193876 -0.21414027
0000a0 8d 4c 89 3e 49 a4 a9 bd bc 52 a6 3e 99 65 53 be
       0.26816216 -0.08283288 0.32484996 -0.20644225
0000b0 d3 2a d1 3d 68 5b b7 be 24 3b e3 bd 97 b6 1b 3e
       0.10213246 -0.35811925 -0.110952646 0.15206371
0000c0 b8 5d 0f 3e 38 d2 8d 3e e1 57 35 3e 2f 03 88 3e
       0.14000595 0.27699447 0.17709304 0.2656493
0000d0 d1 7c 94 3c 6a 66 24 3f 46 32 93 3d ef 26 86 3e
       0.018125923 0.6421877 0.07187323 0.2620158
0000e0 6c e2 ec bc a8 06 3e bd 81 03 f5 3d 95 03 a1 3e
       -0.02891656 -0.046393067 0.11963559 0.31448045
0000f0 c7 66 e5 3d f8 53 19 3d e7 6d 95 3e 76 a4 38 3e
       0.11201244 0.037433594 0.2918541 0.18031487

sequential/batch_normalization/FusedBatchNormV3 f4 [32]
000000 09 d4 52 3f 82 ce 9e 3f f2 f2 1a 3f 77 0e 43 3f
       0.8235479 1.2406771 0.60526955 0.76193947
000010 2b f0 f8 3d df ed 22 3b 93 6d 64 3e c1 c3 11 3e
       0.121551834 0.002486102 0.22307424 0.1423483
000020 71 22 51 3f f6 99 96 3c c2 11 8e 3d 6b 1c 99 3d
       0.8169318 0.018383961 0.06936981 0.074761234
000030 a2 b3 46 3e 7d 62 0e 3f 04 0a b1 3e 63 aa 41 3f
       0.19404462 0.5561903 0.34577954 0.75650615
000040 1c 68 fe 3d f5 2b 05 3f c6 ca 6c 3e ea 30 bd 3e
       0.12422201 0.520202 0.23124227 0.3695138
000050 8d 06 c1 3e 63 f4 e4 3e f0 87 f2 3c 64 db d7 3e
       0.3770031 0.44717702 0.029605836 0.4215957
000060 8a bf 29 3e d2 95 9c 3d 05 66 04 3e e2 4d d4 3e
       0.16576973 0.076457635 0.12929542 0.4146567
000070 19 ba 88 3f 72 9c a8 3e 6a 3c ee 3f 59 c7 83 3d
       1.0681792 0.32931858 1.8612187 0.06434507

sequential/batch_normalization/FusedBatchNormV31 f4 [32]
000000 63 05 0f bf 92 73 e3 be 48 07 ea be 14 28 05 bf
       -0.55867594 -0.4442411 -0.4570868 -0.5201428
000010 a2 75 9b be 4b ec 3c bc bc 09 63 3c b6 84 12 3d
       -0.30363184 -0.011530946 0.013857301 0.035771094
000020 1a 5f 75 be c0 22 e6 bc ba 67 29 be 04 e1 06 bf
       -0.2396206 -0.028092742 -0.16543475 -0.52687097
000030 b7 01 3e bf 4c bc c4 3d 55 e5 22 bf 00 37 e4 3a
       -0.74221367 0.09606227 -0.6363118 0.0017411411
000040 6c 58 04 3c bf 4e e9 be d8 de ad be b4 29 1e bf
       0.008077722 -0.4556789 -0.3395908 -0.61782384
000050 de d9 c3 3d 82 f2 9c 3d b4 c6 d2 be 78 de 27 3d
       0.09563039 0.07663442 -0.41167223 0.040983647
000060 52 5a 99 bd 0e f9 d3 be 84 18 26 3b 50 fb ef be
       -0.0748793 -0.4140095 0.0025344202 -0.46871424
000070 1a 9d d2 be 8f 5a cf be dd 53 1d bd d1 f2 92 be
       -0.41135484 -0.40498778 -0.038410056 -0.2870088

sequential/batch_normalization_1/FusedBatchNormV3 f4 [55]
000000 ae d5 74 3f 20 08 ec 3e d4 27 f1 3e 19 83 75 3e
       0.9563855 0.4609995 0.471007 0.23975791
000010 df b1 eb 3e e8 f2 0f 3f 00 8d b3 3e 62 ea be 3e
       0.46034142 0.5623002 0.35068512 0.37288195
000020 24 7f d6 3e 1a 6b 07 3f 07 50 e1 3e 20 56 c9 3e
       0.41893876 0.528978 0.4400637 0.3932352
000030 31 d5 ac 3e f8 ee dd 3e 57 c4 d0 3e 68 b6 e1 3e
       0.33756402 0.4334638 0.40774795 0.44084477
000040 5e c4 00 3f c4 04 d4 3e 4e 0e 1e 3f 4d 2a c4 3e
       0.5029963 0.41409886 0.6174058 0.38313523
000050 ef ec b1 3e b1 e5 e0 3e 19 ca e6 3e 63 6a 9a 3f
       0.34751078 0.4392524 0.45076063 1.2063717
000060 63 08 3a 3e 0e 50 8d 3e 13 4d 03 3f 23 df 0d 3f
       0.18167262 0.2760014 0.5128948 0.55418605
000070 95 75 28 3e 3f ca 42 3f b8 f8 b4 3e 68 20 ab 3e
       0.16451104 0.76089853 0.35346007 0.33423162
000080 db fc 38 3f 05 47 b1 3e 48 16 44 3e 74 16 7a 3e
       0.72260827 0.34624496 0.19149125 0.24422628
000090 a2 4a ad 3e 42 31 94 3e f1 10 e5 3e bc 60 ac 3e
       0.33846003 0.2894383 0.44739488 0.33667552
0000a0 df dd 5f 3e 2a 5e f5 3e 8f 70 fd 3e 69 1c 04 3f
       0.21861981 0.47923404 0.49499938 0.5160585
0000b0 8d a4 90 3e b7 1c f9 3e b1 69 0e 3f 95 de 49 3e
       0.28250542 0.4865472 0.5563002 0.19713815
0000c0 b2 47 b6 3e 49 0c 09 3f ae 04 20 3f 51 26 9e 3e
       0.35601574 0.5353437 0.6250714 0.30888608
0000d0 07 97 a8 3e c4 74 8d 3f 9b b3 8b 3e
       0.32927725 1.1051259 0.27285466

sequential/batch_normalization_1/FusedBatchNormV31 f4 [55]
000000 97 6c a2 be 70 f7 90 bf f8 fb 0f bf 92 20 6a bf
       -0.31723472 -1.1325512 -0.5624385 -0.9145595
000010 06 05 85 be 87 be 03 bf b5 e5 54 be 30 ee 34 bd
       -0.25980395 -0.51462597 -0.20790751 -0.044172466
000020 0f 9c 26 bf 70 1b c5 be 12 db 9c bd d2 04 2d bf
       -0.65081877 -0.38497496 -0.07658972 -0.6758548
000030 b2 e4 81 bd 03 4a b3 be 25 da 12 bf d9 d1 a2 be
       -0.06342448 -0.35017404 -0.5736411 -0.31800726
000040 e0 d9 5c bf 66 69 51 bf ab 38 7f bf bf b0 03 bf
       -0.8626995 -0.8180145 -0.99695843 -0.5144157
000050 49 58 21 bf 88 e1 be bf 74 6d 6c bf fe a3 0f be
       -0.6302534 -1.4912577 -0.9235451 -0.14027402
000060 a7 1c 95 be e8 86 c9 be b1 01 cc be f7 46 59 bf
       -0.29123423 -0.39360738 -0.3984504 -0.8487391
000070 c8 0b c7 be 8a 04 24 bf 62 c1 c8 be 7c 88 4d bf
       -0.38876176 -0.64069426 -0.3921004 -0.80286384
000080 4a 12 45 bf 5f a4 19 bf 1a 8b eb be 5a f3 f2 bd
       -0.7698103 -0.60016435 -0.46004564 -0.11862822
000090 48 89 a4 3c 9b b0 11 bf 0a 51 41 bf c8 3e 2e bf
       0.020084992 -0.56910104 -0.7551428 -0.68064547
0000a0 03 80 f9 be e0 e2 39 bf d6 7e 41 bf 98 50 28 bf
       -0.48730478 -0.7261181 -0.7558416 -0.65747976
0000b0 ef a3 8f bf 1a 12 7d bf 29 11 36 bf 04 52 ac be
       -1.1221904 -0.98855746 -0.71119934 -0.33656323
0000c0 21 76 8f bf aa 8e 98 bf d8 1d 29 bf ea f1 18 bf
       -1.1207925 -1.1918538 -0.6606116 -0.5974413
0000d0 2b 64 0b bf 08 a7 59 bd cf 19 17 bf
       -0.5444972 -0.05313781 -0.59023756

sequential/batch_normalization_2/FusedBatchNormV3 f4 [60]
000000 85 e0 43 3e 27 aa 05 3e f7 09 30 3e 74 23 be 3e
       0.19128616 0.13053189 0.17191301 0.37136424
000010 d3 0d 17 3e 76 22 8b 3e 48 0d 2e 3e fe fc 9a 3e
       0.14751367 0.2717473 0.16997254 0.30271143
000020 cd e0 b3 3e af 82 5d 3e 2b 0a 6f 3e 98 9e 8e 3e
       0.35132447 0.21631883 0.23343723 0.27855372
000030 89 96 11 3f 0f a4 5a 3e 90 bd c8 3e ab bc 0f 3e
       0.56870323 0.21351646 0.39207125 0.14036815
000040 4c ae 03 3f 69 e9 7b 3e bf 4b a0 3e 71 3b 16 3e
       0.5143783 0.24600758 0.3130779 0.14671113
000050 02 8d 51 3e 8d 9b 5c 3e 3a 5e 91 3e 72 76 b6 3e
       0.20463946 0.21543713 0.28392202 0.35637242
000060 dc 9b a7 3e 8f 3a 85 3e 47 0d 6d 3e 69 b7 55 3e
       0.327361 0.2602124 0.23149596 0.20870747
000070 d6 da 42 3e e8 46 8d 3e b3 79 7a 3e 22 dc 9e 3e
       0.19028792 0.2759316 0.24460487 0.31027323
000080 86 aa a9 3e 1f d8 95 3e 23 db 94 3e 8e 21 9f 3e
       0.33137912 0.2926645 0.29073438 0.31080288
000090 8b cb 0d 3e 8d 91 4a 3e c3 88 93 3e 5f 7f 89 3e
       0.13847177 0.19782086 0.28815278 0.2685499
0000a0 87 09 ae 3e 81 2a 75 3e 24 bc 60 3e c3 d0 d4 3d
       0.33991644 0.23941995 0.2194677 0.10391381
0000b0 9f c3 5c 3e e9 bf e8 3e 0f 31 86 3e 69 0a da 3d
       0.21558999 0.45458916 0.26209304 0.10646517
0000c0 b4 86 87 3e 07 58 28 3e 26 c6 81 3e e0 30 30 3e
       0.26469958 0.1643983 0.25346488 0.17206144
0000d0 ad 8f ab 3e 65 64 59 3e 38 35 6c 3e 88 a6 a2 3e
       0.33508053 0.21229704 0.23067176 0.31767678
0000e0 e8 59 bc 3e df 98 03 3f 1b d9 9d 3e d8 62 b1 3e
       0.36787343 0.5140514 0.308297 0.34645724

sequential/batch_normalization_2/FusedBatchNormV31 f4 [60]
000000 3a 45 e2 be f1 33 dd be 9d f3 0d bf 22 39 b8 bd
       -0.4419344 -0.4320369 -0.5544985 -0.08995272
000010 a6 5b cd be b5 3f e3 be 48 1f 65 bf 63 02 50 be
       -0.40108985 -0.44384542 -0.89500856 -0.2031341
000020 22 fe cd be 67 ec 5a bf 3c dc 01 bf 9a 94 a1 be
       -0.4023295 -0.8551697 -0.50726676 -0.31558686
000030 ec 21 9c be a0 82 43 bf 5a db bb bd 7b f5 02 bf
       -0.3049463 -0.7637119 -0.09172697 -0.51155823
000040 48 93 9b be af 6c e2 be 32 ed 02 bf ab 0c eb be
       -0.30385804 -0.44223544 -0.5114318 -0.45908102
000050 2a 35 ef be 47 d0 e8 be 10 bb 23 bf 24 9a e0 be
       -0.46720248 -0.45471403 -0.6395731 -0.438676
000060 12 f0 2a bf a0 94 f8 be f1 62 c7 be 95 03 16 bf
       -0.6677257 -0.48550892 -0.38942674 -0.58599216
000070 c7 59 c1 be c7 c7 16 bf 8c f1 d5 be 0a 1c e3 be
       -0.37763807 -0.58898586 -0.41785848 -0.4435733
000080 6d b5 d6 be 0d f8 4b be d3 91 c8 be 8d 0f b8 be
       -0.41935292 -0.19918843 -0.39173755 -0.35949364
000090 9a 88 2d be bd 3e 08 bf 74 a1 0c bf 79 7d 77 bf
       -0.1694664 -0.5322073 -0.5493386 -0.9667583
0000a0 d2 5b c9 be 7c c2 87 be d2 1e 62 bf 92 b9 b0 be
       -0.39327866 -0.26515567 -0.8832828 -0.3451658
0000b0 71 a1 43 be fe 83 fe be 60 07 dd be a8 bb cb be
       -0.19104554 -0.49710077 -0.4316969 -0.39791608
0000c0 5a d5 e3 be d8 ad ea be b6 7b c9 be 3c 14 67 bd
       -0.44498712 -0.45835757 -0.39352196 -0.05641578
0000d0 14 74 43 be 45 ec 00 bf 52 66 e0 be 5c 0c 71 bf
       -0.19087249 -0.5036052 -0.43828064 -0.94159484
0000e0 e2 69 61 be 70 c5 56 bc 74 9d 12 bf 3c e5 00 bf
       -0.22013047 -0.013108596 -0.57271504 -0.50349784

sequential/dense/MatMul f4 [64, 32]
000000 24 b8 8e be 73 d7 8a 3d 4f a4 88 3e 27 c5 32 bf
       -0.27874863 0.06779375 0.26687858 -0.6983208
000010 ce 1a 5a 3e df 52 55 bd af 21 a9 3e 69 94 cf bd
       0.21299288 -0.052080985 0.3303351 -0.10135729
000020 c6 b2 ae 3c a8 e3 c5 bc af a0 aa 3e 4c 96 50 bd
       0.02132548 -0.024156407 0.33325717 -0.050924584
000030 00 c2 41 bf 19 59 1d 3e 45 bb 3e be c0 fc 15 bf
       -0.75686646 0.1536602 -0.18626125 -0.5858879
000040 35 0b 91 3e 83 d6 ba bd bd 4c e7 bd 8a 61 9a 3e
       0.28328863 -0.09122946 -0.112939335 0.3015254
000050 56 4c df 3d 0e 48 c3 3d d4 f5 28 3e 81 9c 71 be
       0.10903232 0.09535228 0.16500026 -0.23594858
000060 a2 e0 09 3e 31 58 b3 be ee 7b bd b8 dc 0e 3d be
       0.13464597 -0.35028222 -9.035306e-05 -0.184627
000070 a0 82 1e bd 71 a7 0b bf 59 b8 c0 be 89 44 50 3e
       -0.038698792 -0.5455237 -0.37640646 0.20338644
000080 13 b3 9d bd 67 20 bf be 19 de 11 3f 35 5d bf be
       -0.07700171 -0.3732941 0.5697952 -0.373758
000090 fb 9c a8 bd ed e4 ec be df a8 b7 be c7 8a aa be
       -0.08233067 -0.46268407 -0.35871026 -0.33309004
0000a0 ac 3b 44 3e 6f da d1 3d 50 cc 98 3e b9 46 5b 3e
       0.19163388 0.10246741 0.29843378 0.21413697
0000b0 fa a6 07 be 90 39 a5 3e e0 ac 7b be c6 90 79 be
       -0.1324729 0.3227048 -0.24577665 -0.24371633
0000c0 37 bc c8 3e 9a 6c 06 bf 2c 6c d6 be c8 cb f5 bd
       0.39206097 -0.5250946 -0.41879404 -0.12001759
0000d0 c2 9c 72 3e a1 97 b8 be 6b d3 4d 3e 7c 7d 90 be
       0.23692611 -0.36053184 0.20100181 -0.28220737
0000e0 c3 92 b9 3e 39 cf df be 5d 18 a7 3e 79 37 8c bc
       0.36244783 -0.43712786 0.32635775 -0.017116295
0000f0 81 97 63 be 3a 02 eb be 7c 3a 57 be 80 84 50 3d
       -0.22225763 -0.45900136 -0.21018404 0.05090761
000100 07 1d c8 be 70 5c dc bd 0d 5b 52 3e 18 b0 e8 be
       -0.39084646 -0.107598186 0.20542546 -0.4544685
000110 e0 38 92 3e 1f 00 a7 3d 85 74 1a be aa c5 a2 3d
       0.28559017 0.0815432 -0.15083511 0.07947858
000120 2a 35 70 3e d9 c4 ae bd b8 91 ff 3e 49 c4 94 3e
       0.2345778 -0.085336395 0.49915862 0.29056004
000130 3b 46 fd be 8d ec b3 3e b1 56 43 be 72 cc d6 be
       -0.49467644 0.3514141 -0.19076039 -0.41952854
000140 dc 8b f0 3e 0d 96 03 bf 2f 0c 8f be a7 64 da 3e
       0.46981704 -0.51400834 -0.27938983 0.42654917
000150 e3 22 6d 3e fa 5a b3 be dc 5c 2b 3e d6 d6 a5 be
       0.2315784 -0.35030347 0.16734642 -0.3239047
000160 96 0b 6c 3d 88 11 dd bb 5a 80 68 3e 61 1c 40 3c
       0.057628237 -0.0067464747 0.22705212 0.011725516
000170 86 b2 99 bd c4 28 69 be c8 78 65 be 60 27 19 be
       -0.07504754 -0.22769457 -0.22409356 -0.14956427
000180 54 58 47 3c be b1 89 be 21 72 4f 3e f1 91 56 be
       0.012167055 -0.2689342 0.2025838 -0.2095411
000190 ba 8f ac 3e 29 a3 84 be 55 14 94 3e 2c 75 e6 be
       0.33703405 -0.2590573 0.28921762 -0.4501127
0001a0 47 18 b1 3d 54 51 56 be 16 5b 94 3e 7b 83 a3 3e
       0.08647209 -0.20929462 0.28975743 0.3193625
0001b0 db 8c 91 be 42 3e ca bc 0c 84 09 3d ad 7c 99 be
       -0.28427777 -0.02468789 0.033573195 -0.29977933
0001c0 7c 9d 84 3e 57 bb 18 bd 83 95 17 3e 99 07 90 3e
       0.259014 -0.037288036 0.14803128 0.28130797
0001d0 97 d7 10 3f ca 1e eb be 9e b7 d3 3e db 39 95 be
       0.56578964 -0.45921928 0.41351026 -0.29145703
0001e0 d9 8e ce bd 56 1b ba be 38 35 c2 bd 79 dc 85 be
       -0.1008584 -0.3634898 -0.09482807 -0.2614477
0001f0 f0 50 65 be 0d 1e ca be 12 b9 20 be c7 49 57 3e
       -0.22394156 -0.39476052 -0.15695599 0.21024238
000200 6c 5a 8e bd 86 b1 70 3a 5d c9 97 be af dc 13 3f
       -0.0695084 0.00091817265 -0.29645815 0.5775861
000210 2d eb ef be 38 09 ce 3d 9c b9 c3 3e a3 c5 74 3e
       -0.46859112 0.10060352 0.38227546 0.23903517
000220 a3 84 9b be 8d a6 c7 bd 78 17 92 3d e2 b6 06 bf
       -0.3037463 -0.09748564 0.071333826 -0.5262281
000230 d4 92 38 3e 1b 70 cb bd 4f 9d be be d5 f7 39 3e
       0.1802476 -0.09933492 -0.37229392 0.18160947
000240 f3 24 d2 be db 92 d8 3e cb e2 bf 3e 7e 50 92 be
       -0.41043815 0.42299542 0.37477717 -0.28577036
000250 64 75 0f bf e5 ca 6d 3e 59 ce ac be 34 53 3b 3e
       -0.560385 0.2322193 -0.3375118 0.18293458
000260 f7 db e8 be 9d d4 be 3d 5d bb 2f be 43 ce b1 3e
       -0.4548032 0.093178965 -0.17161317 0.34727678
000270 87 33 8f 3e 41 36 af 3e e8 7e 09 3d 5c 9f 8e 3d
       0.27969 0.3422108 0.033568293 0.06963989
000280 44 28 7b 3d b8 63 54 bb 15 4a 52 bc 36 fe f7 bd
       0.061317697 -0.003240807 -0.012835045 -0.12109034
000290 75 3e c6 bc db 73 c2 bd 5e 1c 4f be ab 12 22 3d
       -0.024199704 -0.09494754 -0.20225665 0.039568584
0002a0 e9 1f 49 be 43 42 bc 3d b6 26 99 3d 7e 48 fb bd
       -0.19641079 0.09192326 0.07478087 -0.12269686
0002b0 72 39 90 3c 75 be 9d bc c0 78 0b be 35 45 6c 3d
       0.017605517 -0.019255856 -0.13620281 0.05768319
0002c0 4f 07 e1 bd 8e c4 6c bd cf 9a e0 bc 81 65 4e be
       -0.10987722 -0.057804637 -0.027417568 -0.20155908
0002d0 a1 a9 cc bd 04 a4 83 bc 2b 0d de bd 3e 99 07 3d
       -0.09993292 -0.01606942 -0.10842355 0.033105128
0002e0 b4 e8 37 3d 58 bb dc bd 87 67 82 bd 19 a7 02 be
       0.044899657 -0.107779205 -0.063674025 -0.12759055
0002f0 13 1e 2d be 32 1d 8b bc 12 4b 01 be c1 11 2a 3d
       -0.16906004 -0.016981695 -0.12626293 0.041520838
000300 2a 64 82 be d4 27 b4 be d1 ff a2 3e 06 ea 56 be
       -0.25467044 -0.35186636 0.31835797 -0.2098771
000310 74 85 fa 3e f2 65 1f be 57 5b 97 bd 71 c3 1d be
       0.48929942 -0.15566233 -0.073904686 -0.15406586
000320 a7 60 41 3e 42 7d 25 be 51 a1 4e 3e 91 73 d0 3b
       0.18884526 -0.16161063 0.20178725 0.006361433
000330 1a c0 6e be 05 05 87 3e 73 28 c4 bd 45 67 96 be
       -0.23315468 0.26371017 -0.095780276 -0.29375663
000340 e9 d0 f2 bb 3a 3a 34 bf 6a 8a 67 be ac 73 30 3f
       -0.007410158 -0.70401347 -0.22611395 0.689265
000350 ec cf b3 3e 72 84 9c be 62 f2 85 3e 69 77 90 be
       0.3511957 -0.30569798 0.26161486 -0.28216103
000360 3a a1 24 3e fe 4c 93 be b1 4a ae 3e d5 48 98 be
       0.16077128 -0.28769678 0.3404136 -0.29743066
000370 34 f2 82 be e4 90 90 be a1 ea 2c be ed f0 48 3e
       -0.2557541 -0.28235543 -0.16886379 0.19623156
000380 56 3c fa be fe 98 d3 be bc d4 6a 3d 66 43 de be
       -0.48874158 -0.4132766 0.057331786 -0.43410796
000390 31 9a 10 3e 8d d9 06 bf 37 98 86 bc b8 13 41 be
       0.1412132 -0.52675706 -0.016430004 -0.18855178
0003a0 90 37 f1 3e a1 7a 26 be 44 db 58 3e 30 fe c7 3e
       0.47112703 -0.16257717 0.21177393 0.39061117
0003b0 55 29 3c be 7f fa 8b 3e f7 07 0e 3e 2b 9f 9e bd
       -0.18375142 0.2733955 0.13870226 -0.07745203
0003c0 7a 15 c7 3e b2 69 8f be 03 b8 96 be 12 28 8c 3e
       0.38883573 -0.28010327 -0.29437265 0.2737432
0003d0 a2 c3 d5 3e d0 bb 01 be 89 97 8a 3e 0f 01 2a bf
       0.41750818 -0.12669301 0.27068737 -0.66407865
0003e0 60 f3 26 3d 67 3f e8 be 5d 14 08 3e 17 78 66 be
       0.040759444 -0.45360872 0.13289018 -0.22506748
0003f0 ec 74 26 be ca b8 9a be f2 3f c3 bd d1 b2 58 3e
       -0.1625554 -0.30219108 -0.09533681 0.21161963

sequential/dense_1/MatMul f4 [1, 64]
000000 81 1b 7e be c3 61 8c be c6 92 b1 be 09 d9 75 be
       -0.2481518 -0.27418336 -0.34682292 -0.24008574
000010 4b 48 df 3e 03 e0 2e bc 10 eb a0 be 40 9b 95 be
       0.43609843 -0.010673526 -0.31429338 -0.2922001
000020 9b 6f a0 3e 05 9d c3 be c3 46 c2 be 75 56 d3 3e
       0.31335148 -0.38205734 -0.37944612 0.412769
000030 5b 49 92 3e 90 61 b7 be 55 16 a6 3e 97 7d b1 3e
       0.2857159 -0.35816622 0.32438913 0.3466613
000040 c6 69 c3 be af 32 b1 3e 9d 4e df 3e 52 a4 fb 3e
       -0.38166636 0.3460898 0.43614665 0.49148804
000050 c2 24 aa be 6c 2f b6 3e 7b 9f b2 be 89 83 19 be
       -0.3323117 0.35583055 -0.348873 -0.14991583
000060 b5 c0 0c bf ac ba b6 3e 02 75 a6 3e c5 0b e6 be
       -0.5498155 0.35689294 0.32511145 -0.44930854
000070 14 5f dc be c7 d6 de 3e 6f 4d 6b be 60 30 df 3e
       -0.4304129 0.43523237 -0.22978757 0.43591595
000080 46 a6 94 be 71 8f aa 3e e7 a5 89 be 49 c3 23 3f
       -0.29033107 0.33312562 -0.26884386 0.63969857
000090 f0 23 4f be 6b 09 e7 be a1 54 d2 3e e0 57 04 be
       -0.20228553 -0.45124373 0.41080192 -0.12924147
0000a0 b8 69 c2 be 32 da cb 3e 5b 17 d9 be 59 10 bc be
       -0.37971282 0.39814907 -0.4240063 -0.36731222
0000b0 64 c3 a6 be 8f f7 e2 be 66 11 36 be e2 01 b5 be
       -0.32570946 -0.44329497 -0.17780074 -0.35353
0000c0 29 4d 93 3e a6 35 aa 3e 16 ca da be 9f d4 ed 3e
       0.28769806 0.33244056 -0.42732304 0.4645128
0000d0 b3 a6 d7 be 96 51 a7 3e 80 dc c8 3e 40 c9 74 3e
       -0.4211937 0.32679433 0.39230728 0.23904896
0000e0 c4 97 9e 3e ef 80 dd 3e 0d 1b 9f 3e dc d9 e0 be
       0.30975163 0.4326243 0.31075326 -0.43916214
0000f0 bc 22 c6 be 50 13 b8 be 7b 01 ee be 29 ba a0 be
       -0.38698375 -0.35952234 -0.46485505 -0.3139203

sequential/bidirectional/backward_lstm/Read_2/ReadVariableOp1 f4 [64]
000000 7d cb e8 3d 7e cf ce be 18 50 7d bd 9c 36 76 3d
       0.11366937 -0.4039268 -0.06184396 0.060110673
000010 cc 9b a5 3d 38 4f c3 3c 7f ee 19 3c e3 a0 35 3e
       0.080863565 0.023841485 0.009395241 0.17737155
000020 de 75 e3 3e 98 63 14 bf 85 ae 62 be 04 d5 b1 3d
       0.44425863 -0.5796447 -0.22136886 0.08683208
000030 dd 54 90 3e 81 8a cc bd 22 d4 59 be 84 8e 79 3e
       0.28189746 -0.09987355 -0.21272328 0.24370772
000040 fd e1 6a 3f 91 98 86 3f 58 0b 63 3f 68 54 88 3f
       0.9175108 1.051531 0.88689184 1.0650759
000050 d6 f3 40 3f b0 42 84 3f e9 87 87 3f 3a 65 11 3f
       0.75372064 1.0332851 1.0588351 0.56795084
000060 86 42 7d 3f e1 9c 9c 3f 36 bd 40 3f d4 6f 98 3f
       0.9892963 1.2235376 0.7528871 1.1909127
000070 cb 66 76 3f a9 91 49 3f 7d a9 38 3f 26 d4 92 3f
       0.962506 0.78737885 0.7213362 1.1470993
000080 dc e8 de bd ed cb 7f be 63 4d 6f bd 8a a0 f7 3e
       -0.10884258 -0.24980135 -0.05842341 0.4836467
000090 7f f4 6c 3e 21 da 52 be 46 d3 25 3e 96 47 5b be
       0.23140143 -0.20591022 0.16193876 -0.21414027
0000a0 8d 4c 89 3e 49 a4 a9 bd bc 52 a6 3e 99 65 53 be
       0.26816216 -0.08283288 0.32484996 -0.20644225
0000b0 d3 2a d1 3d 68 5b b7 be 24 3b e3 bd 97 b6 1b 3e
       0.10213246 -0.35811925 -0.110952646 0.15206371
0000c0 b8 5d 0f 3e 38 d2 8d 3e e1 57 35 3e 2f 03 88 3e
       0.14000595 0.27699447 0.17709304 0.2656493
0000d0 d1 7c 94 3c 6a 66 24 3f 46 32 93 3d ef 26 86 3e
       0.018125923 0.6421877 0.07187323 0.2620158
0000e0 6c e2 ec bc a8 06 3e bd 81 03 f5 3d 95 03 a1 3e
       -0.02891656 -0.046393067 0.11963559 0.31448045
0000f0 c7 66 e5 3d f8 53 19 3d e7 6d 95 3e 76 a4 38 3e
       0.11201244 0.037433594 0.2918541 0.18031487
