models/model.tflite (tflite, 274044 bytes, 23 tensors)

sequential/conv2d/BiasAdd/ReadVariableOp f4 [32]
00000000: 75d3 aabd 448b 35bd 896e c23e f20d b73e
00000010: b58f c7be 5172 adbd 72d6 853f 4687 1ebe
00000020: a3ab 4a3e 1316 70be f382 db3d 6652 0bbd
00000030: 58cc 7e3f a5b8 4abe 7c7c e7be d671 133e
00000040: e274 ef3e 7217 053e 1091 d03e f308 893d
00000050: 9692 df3c 93fd e63d 7a72 753e 06d8 89be
00000060: 8f5e 9bbd 142e 063f 6576 c3bd 8084 ab3e
00000070: 9572 583e 7ee2 6c3f 7682 85bd 7988 f03d
-0.083411135 -0.044322267 0.37974957 0.35752827 -0.38976827 -0.0846907 1.0456069 -0.1548129
0.19792037 -0.2344592 0.10718336 -0.03401413 0.99530554 -0.19796999 -0.45212162 0.14398894
0.46768862 0.12997225 0.40735674 0.0669116 0.027291577 0.11278834 0.2396945 -0.26922625
-0.07586395 0.5241406 -0.09544066 0.33499527 0.2113746 0.925331 -0.06519024 0.1174478

sequential/conv2d_1/BiasAdd/ReadVariableOp f4 [45]
00000000: 4507 8e3d 0d58 07be 3947 bb3b 7b32 d2bd
00000010: db06 03be 83b1 963d 8e81 0f3f 94e5 f5bd
00000020: c760 0a3e 1741 763e aa51 d03e 0a73 28be
00000030: b65f 50bd d7ae 063e 87f1 c83e 826b 82bb
00000040: ddfe 1f3e b9ac 283e d6b2 d2be 8a0c a23e
00000050: 7b54 46bd e52c 5ebe 107a a53e 9fe7 983d
00000060: 3426 67bc 3313 093f 0f33 aa3e cd1b aebd
00000070: c39f afbe ff12 c93d cf9a b53e 1371 e33e
00000080: 7831 3d3e 067e 1ebe 55a4 023e b5ab 493e
00000090: 2eed 4dbd 0cc5 963d 5425 d73e b0f4 eabd
000000a0: a45a 473d 350d eb3d 4cf2 0abd 909c 0abe
000000b0: 4b3e 773e
0.0693498 -0.13217182 0.0057152775 -0.10263535 -0.12795584 0.073580764 0.5605706 -0.12006679
0.1351348 0.24048267 0.40687305 -0.16450134 -0.050872527 0.13152634 0.3924677 -0.003980101
0.15624566 0.16472138 -0.41152066 0.31650192 -0.04842041 -0.21696813 0.3231969 0.07466053
-0.014108229 0.5354492 0.3324208 -0.08501396 -0.34301576 0.09818076 0.35469672 0.44422206
0.18475902 -0.15477762 0.12758 0.19694407 -0.05027502 0.073618025 0.42020667 -0.11472452
0.048670426 0.114771284 -0.03392248 -0.13536286 0.24144857

sequential/conv2d_2/BiasAdd/ReadVariableOp f4 [60]
00000000: 8358 063c 7a1b 123e a64b fdbe dead eabd
00000010: cf25 a0be d596 0dbf 4948 b9bd 8aab debe
00000020: b4cf 9e3d eb12 35bf 6f3b fcbe 4fbc 13bf
00000030: 96b2 a23e 0517 afbe 7f63 683e 52a4 a2be
00000040: ba0d 90be a78a 2fbe 7335 23bf 7927 bdbe
00000050: 3771 27be c239 ddbe eea4 07be 99e0 8cbd
00000060: 0ee8 6d3d 4d6f afbe 52d6 8bbe 0c2c b7be
00000070: 897e a0be 0b54 3fbe a4c9 8cbe 2e0e 97be
00000080: 01c0 acbe 351a 09bf 85f0 2bbe 6e3f ccbe
00000090: 521e 00bf e0e7 15bf 0aee 8ebe f984 c6be
000000a0: 5bd5 82be 7688 893d 572e cbbe 4f2c 1bbf
000000b0: 3d2c b0be 923f a8bd d6fb eebd 1fbe 853d
000000c0: aa70 cbbe af4a c1be cc85 9dbe 6596 5dbe
000000d0: cc94 03be 6122 17bf ae0f 35be ae31 dabe
000000e0: 8aa3 2e3c 58b9 103d 3aa2 ca3c 32c1 00bf
0.008199814 0.14268294 -0.49471778 -0.11458944 -0.31278846 -0.55308276 -0.090469904 -0.4349025
0.0775446 -0.7073199 -0.49264094 -0.5770921 0.31776875 -0.3419725 0.22694205 -0.3176599
-0.28135473 -0.17142735 -0.6375343 -0.36944178 -0.16351782 -0.43208128 -0.1324651 -0.06878776
0.058082633 -0.34264603 -0.2731195 -0.35775793 -0.3134654 -0.18684404 -0.2749759 -0.29503006
-0.33740237 -0.53555614 -0.1679097 -0.39892143 -0.50046265 -0.5855694 -0.27915984 -0.38773325
-0.25553402 0.06715481 -0.39683792 -0.60614485 -0.3440875 -0.0821525 -0.11669128 0.06530403
-0.39734393 -0.37752292 -0.3076614 -0.21639402 -0.1284973 -0.59036833 -0.17681763 -0.42616028
0.010659108 0.035333008 0.024735559 -0.5029479

sequential/conv2d/Conv2D f4 [32, 3, 3, 1]
00000000: 9417 7fbd fb97 34be c57e 9b3e b89f 373d
00000010: 2dd9 b93d d25d e23c 7b16 c43e 27c9 f23d
00000020: 0c6b a63c 1b43 143e a834 783e d429 0abe
00000030: d0db 213e db19 67be c40e bc3d 8698 54be
00000040: 4679 05bf bf46 fa3c 56bf f73d 9af4 04be
00000050: 32f3 ddbd db58 91bd 3df5 82be 8aef 693e
00000060: e34e c5be 4f4e b83e 64fd c83e 8a4f 7ebe
00000070: 7d9a dfbe a732 65be 99a7 003f 2377 0d3d
00000080: 0b07 223d 5cb7 b63d de02 463d c63e 183c
00000090: 0ddd 8e3e 70ab 8c3d eef9 b43d 1f53 a53e
000000a0: c223 283d e0f5 733e 2e86 8ebd b1a5 0dbd
000000b0: 9a23 da3d 6720 2d3e 6ef8 c8bd 2686 153f
000000c0: f7ca 013e 67f9 3dbd 49e9 0bbd f205 2b3e
000000d0: 4515 8d3d 2694 4b3e e37d d73e 4951 be3d
000000e0: 861b aabe 715d 683e a624 32bd 0bbb 8fbe
000000f0: 5a9c dc3d 035d 2b3c 9b65 11be 60d9 1dbe
00000100: f246 433d c5d6 a53e 1ceb a1bd d615 ea3d
00000110: d532 973d 1e15 fcbc 59f4 d23e 1543 b93d
00000120: 84a0 90bd 99ab a63e 7091 9e3c 5883 dcbd
00000130: 2be5 183d bc94 bb3e 6d66 7bbe fe82 dabc
00000140: e7d6 873e e775 eb3e a407 bbbb 0bcd 14be
00000150: 303d 053f ab62 b33d 85ec 1e3c 2bf6 f33d
00000160: d91f cf3d 29ef 1dbe 07ff c0bd 926f 083e
00000170: df94 e53d b90c 62be 26c1 42be ca85 7a3d
00000180: 5c2a b0be 5788 acbd 1fcc 923e 2ea1 d23d
00000190: 7ea6 2cbf 3ddd c03c 05dc 853d 5ca5 96bd
000001a0: e9b9 2d3e 8115 70be 8fd1 67be a892 f33c
000001b0: 3987 15bd ec95 aabe 24a5 f6bd 84ea 693d
000001c0: c302 ce3d 6834 28be 9df4 1a3e a367 d83e
000001d0: e0fe a43d 0915 c6bd c989 a2be fad2 243e
000001e0: 2d70 24bd 8b4d 04bf 6a1e 173e b0e6 34be
000001f0: a78f 7abd 9320 7c3e eaec 483e 67f4 edbd
00000200: 73b6 f53d 0074 173e 331b fa3d 8f86 203e
00000210: a265 16bd b4d5 3abe b79b e53d c263 95be
00000220: 6c30 2abd 06b6 793e 28e7 97bd 11ee df3e
00000230: 24ab 9dbd e28b b73e df26 51bd 33c1 abbe
00000240: 2b38 123e cbda 93be 4811 8ebe 545a d23e
00000250: 166c d03e 2725 253c c71c 3ebe a329 4cbe
00000260: cf05 333d 2be8 d53e 7192 f03d 33ce 30be
00000270: e2aa 513e f969 75be b53f 073d 9551 83bd
00000280: 3a4a 22be 047e 8d3e 9eeb 383e 4c50 0b3e
00000290: cf0a 5e3e 79e1 6abe da79 79be b0d6 97be
000002a0: 54ab 8d3e 6d22 c53d ab5c 2c3d d645 c43e
000002b0: 1be0 b43e 2f81 e63e 9842 2fbc ec51 d2bc
000002c0: c75d debd 9f1f 0cbe b5cd 0dbe 2c4f 0ebe
000002d0: 4321 343e a832 90bd 4e51 44be ff0c 873e
000002e0: 2136 ed3e 562e 8b3d a98d 57be af1f 38be
000002f0: 2c9d 063e 7a2c a6bd 385a babb 292b 31be
00000300: 4265 42be e613 54be cefe 89be ed0b a43e
00000310: cb41 223d be77 653e 91ce 1bbe 5854 473e
00000320: 4c4f 863e 46aa 11be f560 d7bd 5e27 acbe
00000330: f2fa 663b 37fd 313d 2d4a a73e 46bc 323c
00000340: 4b27 75bd 938c b9be 6ffc 89be c02f f13d
00000350: 566d 5cbe 0c92 bd3d 3a96 bc3d ca73 c2bd
00000360: d390 96bb 0778 0ebc 7a62 a43c 2aac aa3e
00000370: 6683 103f da7c 263f 3b91 21be acc9 16bc
00000380: 812f 153d 57cf 03be 285e 1cbe 246b ccbd
00000390: bc4f dd3e f6da 663e 4b9e b7bd afdd 92bd
000003a0: a21b 483e fea7 ce3e a469 efbd 3422 fc3e
000003b0: aee8 703d a2cb 6abe 06be 883d 96b3 eebb
000003c0: fb2a 64bc 7425 73bc 5594 26be e268 52be
000003d0: ae38 9c3e 626c 9f3e 81be 6cbe 8d66 27be
000003e0: 0092 c03e 51ec f3bd ed05 52be 28e8 323e
000003f0: 43f2 0f3e 727c 03bc 6209 ca3d f3f9 343e
-0.062278345 -0.17636101 0.30370155 0.044830054 0.09074626 0.027632628 0.382984 0.11854773
0.020314716 0.14478724 0.24238837 -0.13492519 0.15806508 -0.22568457 0.09182504 -0.20761308
-0.52138174 0.030551312 0.12097041 -0.12983933 -0.108374014 -0.07097026 -0.25577727 0.22845283
-0.38536748 0.35997245 0.39255822 -0.24835029 -0.43672553 -0.22382604 0.50255734 0.034537446
0.039557498 0.08921692 0.048342578 0.00929231 0.27903023 0.068686366 0.08836733 0.3228998
0.041049726 0.23824263 -0.069591865 -0.034581844 0.10651322 0.16906892 -0.09813009 0.5840782
0.12675081 -0.046380427 -0.034158025 0.16701487 0.068888225 0.19880733 0.4208823 0.09292848
-0.33224124 0.22691895 -0.043491982 -0.2807239 0.10772009 0.010459187 -0.14198916 -0.15414953
0.04767508 0.3239042 -0.07906172 0.11429946 0.07382742 -0.030771788 0.41202047 0.09045998
-0.07061866 0.32552794 0.01935646 -0.10767239 0.037327927 0.36636913 -0.24550791 -0.02667379
0.26531145 0.4598839 -0.005707698 -0.14531343 0.5204649 0.08759054 0.009699945 0.11912187
0.10113496 -0.15423264 -0.094236426 0.1332381 0.112100355 -0.22075166 -0.19018993 0.061162747
-0.34407318 -0.08424442 0.28671357 0.10284649 -0.67441547 0.023542995 0.06536106 -0.073557585
0.1696545 -0.23445703 -0.22638534 0.029733017 -0.03650591 -0.33317506 -0.12043217 0.057108417
0.100591205 -0.16426241 0.15132375 0.4226657 0.08056426 -0.09671981 -0.31745747 0.16096106
-0.04014604 -0.5168082 0.14757696 -0.17666125 -0.061172154 0.24621801 0.19621626 -0.11618882
0.1199769 0.14790344 0.12212219 0.1567633 -0.03671802 -0.18245584 0.11211341 -0.29177672
-0.041550085 0.24385843 -0.074171364 0.43736318 -0.07698658 0.3584891 -0.05106246 -0.33545837
0.14279239 -0.28877863 -0.2774756 0.4108454 0.40707463 0.010079659 -0.18565665 -0.19937758
0.04370671 0.41778693 0.117466815 -0.17266159 0.20475343 -0.23966207 0.03301974 -0.06412045
-0.15848628 0.27635205 0.18058631 0.1360485 0.2168381 -0.22937573 -0.24362889 -0.2965598
0.27669775 0.09625707 0.042080563 0.3833453 0.3532723 0.45020434 -0.0106970295 -0.025673829
-0.1085773 -0.13683937 -0.13848002 -0.13897389 0.17590813 -0.07040912 -0.1917164 0.26377103
0.4633036 0.06795947 -0.21050133 -0.17980836 0.13145894 -0.08113952 -0.0056870244 -0.1730162
-0.1898394 -0.20710716 -0.26952213 0.3204035 0.039613526 0.2240896 -0.15215518 0.19465768
0.26232374 -0.1422511 -0.1051654 -0.33623785 0.003524479 0.043454375 0.3267378 0.010909146
-0.059851926 -0.36240062 -0.26950404 0.11776686 -0.21526083 0.09256372 0.09208341 -0.09494741
-0.004594901 -0.008695609 0.020066489 0.33334476 0.564505 0.6503426 -0.15778057 -0.009203356
0.036422256 -0.12872063 -0.15270293 -0.09981373 0.43224895 0.22544464 -0.08965739 -0.07171189
0.19541791 0.40362543 -0.11690071 0.49244845 0.05881565 -0.22929242 0.06676869 -0.007284592
-0.013926263 -0.0148404725 -0.16267522 -0.20547822 0.30511993 0.31137377 -0.23119546 -0.16347714
0.3761139 -0.11910308 -0.20510073 0.17471373 0.1405726 -0.008025276 0.09865071 0.17673473

sequential/conv2d_1/Conv2D f4 [45, 3, 3, 32]
00000000: 928b a33d 1568 65be 7142 ca3b e08a 7bbe
00000010: cbf3 c5ba 8edf a43e 0ba7 00be 5133 023e
00000020: 7453 43bb 3675 7b3d c1ab aa3d 94d2 dcbe
00000030: 29e1 5fbe 29ee efbd aba3 23bc cee0 c93e
00000040: 9f75 9fbe 6edc 36be 6f07 25be 9e78 9fbd
00000050: 27fc 87bd e836 483e 2d26 f63c fff0 e03e
00000060: 5ff5 9fbd 35d4 00bd 7e52 17be f133 223e
00000070: eec3 94be 78d4 07bf 102f 3f3d fcff dfbe
00000080: 093a 5fbe 8c1f cbbd f5d2 793d ac2c adbe
00000090: 8e75 1ebe 2d94 f23c c2cc 2c3e 4487 70bd
000000a0: df8b 96be a5c7 54be fec3 88bd 9ad3 c2be
000000b0: 5d6b b9bd 61ea a4be a9c1 903c dba1 3cbe
000000c0: e60b db3c 2643 9b3d ca26 1f3e e2b7 08bd
000000d0: b944 3cbe 38db b4bd 581f fb3d 4a53 4b3e
000000e0: c1c2 a3be fee4 3b3e 06af 15be 2184 193d
000000f0: f98a 8ebe bac2 e6bc 4cff 9bbd 07b9 81be
00000100: 9db7 babd da7d 003e 5b05 33be 2019 96be
00000110: 6e4e 023e ed2e 11be 0326 c33e ea80 7e3d
00000120: 7b26 ce3d be68 92bc 0023 e73d b945 67be
00000130: 708f 43be ce43 233d c11c 333d 8bb8 943e
00000140: 7951 8d3e aaf2 283e b1f4 933e e2ea c33d
00000150: e65a 7f3d 05e9 c5bd eb61 9f3e 946c 513e
00000160: a5f6 223e bedd 883c 0eff 943e 3427 343e
00000170: e47e a0bc 2318 b03e 5751 c93d 6819 4dbe
00000180: 6a1d 41bd 16e4 b6bd b6e7 1a3e 8bae e9be
00000190: 761b 54be 6db7 80be a05f ab3c da92 ae3c
000001a0: b67f 65be 393b d53d 0eb2 233e 56d9 d2be
000001b0: 5b92 2fbe adfb 9abe 743f b13b 4286 a03e
000001c0: f8ec 0cbe 94ca a4bc c558 8cbe 21ca 07bc
000001d0: 6453 6ebe e13b 19be 6c0a 793d cd07 39bd
000001e0: 978a d7be e4cb 7b3d 4230 17be 1e04 8ebe
000001f0: 7d21 9dbe 7558 96be 1794 cbbe 8c1e a9be
00000200: 975f 01be 4f20 07be 154a 9cbd 54ae 9fbe
00000210: 3aa6 6bbe 2452 96be d49f 9d3e a228 903d
00000220: 2062 dabd 4d58 df3c 45fb d6bd 33d5 24be
00000230: ee45 abbe 00f5 cdbe 7278 3dbc a545 1d3f
00000240: 6a50 12bd b673 563d b1c2 d63d c208 efbd
00000250: 4bba 7ebe 8907 b3bd fa4f 2cbf 918d aebc
00000260: caaf febe c41c 49be 0c48 f33c 16ae a9be
00000270: 6949 1e3e 4d41 bd3d 75eb 133e 7111 09be
00000280: d7a2 463d f4cf 0a3e 17d5 2fbf 8c7c ea3d
00000290: 8d7d c13b 1fd9 263d b953 cd3e c90b d63b
000002a0: 9282 8e3e 24fc a93d 2fba 91bd 3e4f 653e
000002b0: e5fd 22bf 9b3d 8c3e d41e 4bbd 02b8 8a3e
000002c0: 6b1e 76bc cc1e 0c3e b2fd 1fbe 1b5f 5e3d
000002d0: 44f9 cdbd bcfe a3bd 2ddf 08bf b95d ca3b
000002e0: f4e9 a03d 4fd4 1cbf 57ef 083e c5a9 e23b
000002f0: afe6 46be d50f b53e ab2b 08be 39a5 323e
00000300: c74b 9a3d 1dee 09be 0faa 233d c4ab 8abe
00000310: 539c f4bd aa3b 39be e26d 05be c76c b5bc
00000320: f2a4 5cbe 0035 863e 499c 50be 762c 99be
00000330: 835b dfbe 334e 90be cce7 53be 186b 0e3e
00000340: c024 9cbe 531c 94be 2f5f c33d bd03 d2bd
00000350: 3418 89be 8103 b23d c407 33bb cfd9 8cbd
00000360: aef0 41be cc44 443d b91c 893e d236 903d
00000370: 25d9 2fbe 9d5f 263e 6651 5b3e eae9 9dbe
00000380: 4542 4fbd bc46 29be ba80 593d a0e5 983d
00000390: 4736 bdbe 880d 563e 8839 433e 3ba9 153d
000003a0: e6c8 b0bd 5a13 de3d 4da8 68be 8b26 2dbe
000003b0: d7ea 41bd 8b4c 4dbe eed5 72bd 3f57 6fbe
000003c0: 636f 623d 828d c9bc b8ee 73bc a68c a13d
000003d0: ae37 d5bd dff3 84bd d39c 203e ffb0 163e
000003e0: 5c30 afbd 4e7e 9fbe a372 9cbe ec0b 9cbc
000003f0: 47c3 333e a701 363d d287 7d3d d42c 32be
0.07985605 -0.22402985 0.006172471 -0.24564695 -0.0015102563 0.3220181 -0.12563722 0.12714888
-0.002980438 0.061391078 0.08333541 -0.43129408 -0.21863236 -0.11715347 -0.009987752 0.39429325
-0.31144425 -0.17857525 -0.16116117 -0.07786678 -0.06639891 0.19552195 0.0300475 0.43933865
-0.07810473 -0.031452376 -0.14777562 0.15840127 -0.29055732 -0.53058577 0.04667574 -0.43749988
-0.21799482 -0.099181265 0.0609922 -0.33823144 -0.15474531 0.029611671 0.16874984 -0.05872275
-0.29403588 -0.20779283 -0.066780075 -0.38052064 -0.09053681 -0.32210067 0.01767047 -0.18421118
0.026739072 0.07581167 0.1554214 -0.03337849 -0.1838559 -0.08830875 0.12261838 0.19855991
-0.31984523 0.18349072 -0.14617547 0.037479524 -0.27840403 -0.028169025 -0.076170534 -0.25336477
-0.09117053 0.12548009 -0.17482512 -0.29316044 0.12725231 -0.14178057 0.38114938 0.06213466
0.10065933 -0.01787221 0.112859726 -0.22585191 -0.19097686 0.039859585 0.043728594 0.29047045
0.2760122 0.16498819 0.28897622 0.09566285 0.062342547 -0.096635856 0.31129393 0.20451576
0.159144 0.016707297 0.2910084 0.1759308 -0.019591756 0.34393415 0.098299675 -0.20029223
-0.047147192 -0.08930223 0.15127453 -0.45640978 -0.207136 -0.25139943 0.020919621 0.021310259
-0.22411999 0.104116865 0.15985891 -0.4118144 -0.17145674 -0.30270138 0.0054091755 0.3135243
-0.13762271 -0.020116128 -0.27411476 -0.008287937 -0.23273998 -0.14964248 0.060800955 -0.045173455
-0.42097923 0.061473742 -0.14764503 -0.27737516 -0.30689612 -0.29364362 -0.3976142 -0.33031118
-0.12634121 -0.13195919 -0.076313175 -0.3118769 -0.23012629 -0.29359543 0.30786002 0.07039
-0.10663247 0.027263785 -0.104971446 -0.16096954 -0.3345179 -0.40225983 -0.011564361 0.61434394
-0.03572122 0.052356444 0.10486353 -0.11671592 -0.24875753 -0.087416716 -0.67309535 -0.021307738
-0.4974349 -0.1963988 0.02969744 -0.3314063 0.15457691 0.09240971 0.14445288 -0.1338556
0.04849514 0.1355589 -0.68684524 0.11449537 0.0059048594 0.040734407 0.40102938 0.0065321666
0.27833992 0.08300045 -0.0711559 0.2239351 -0.6366866 0.2739075 -0.049589947 0.27093512
-0.015021901 0.13683623 -0.15624121 0.05428992 -0.10057309 -0.08007571 -0.5346554 0.0061757234
0.07857123 -0.6126146 0.13372551 0.0069172108 -0.19423936 0.3536364 -0.13297908 0.1744584
0.07533985 -0.1346974 0.039957102 -0.27084172 -0.11943879 -0.18089166 -0.13030198 -0.022146596
-0.21547297 0.2621231 -0.20372118 -0.29916734 -0.43624505 -0.2818466 -0.20693892 0.1390804
-0.30496788 -0.2892786 0.09539639 -0.10254619 -0.26776278 0.086920746 -0.002731786 -0.06877481
-0.18939468 0.047917172 0.26779726 0.07041706 -0.17172678 0.16247411 0.2141777 -0.30842525
-0.05060031 -0.1653089 0.05310128 0.074656725 -0.36955473 0.209036 0.19064915 0.036538344
-0.08632068 0.10843535 -0.22720452 -0.16909234 -0.0473431 -0.2004873 -0.05928605 -0.23373125
0.055282008 -0.024603609 -0.014888458 0.07888155 -0.10411011 -0.06491827 0.15684824 0.14715956
-0.08554146 -0.3115105 -0.3055621 -0.019048654 0.17554961 0.04443517 0.061897106 -0.17399913

sequential/conv2d_2/Conv2D f4 [60, 3, 3, 45]
00000000: 2354 90be 2dee 2fbd 70f5 8ebe 8f86 b93e
00000010: ff84 31be 66a5 9cbe 550f 513e f848 c13c
00000020: 3466 a03d 5d40 d1bd 58f3 a03d b345 243e
00000030: f78d 8e3d 30fd 3bbf 3e2d 8bbe b73f a5be
00000040: 4f7c a0be 7ebf 2b3e 8ada 78be 80c9 46bd
00000050: fa23 b6bd 8ebc 233e 13a1 dbbe d167 123e
00000060: 022a d8b9 a68c d53d b58f 78be 12b5 c0be
00000070: fb2d a9bd 9bd3 49bf 776b 9abe f64f 50be
00000080: b9ed 94bd 57b2 f6be 3700 f4be 71e4 243e
00000090: 3737 a33c 5c10 0bbf b359 4d3d 47c8 403e
000000a0: 62a6 243e 437d c2bd 2d9a 41be 9143 a3bd
000000b0: 200b 89be e106 233e c230 133e 0ed3 b03e
000000c0: 611e 73be 47ca 053e 59bf c6be 102d 4f3e
000000d0: 27e9 d9bd 7950 333e c13b 993e 31e6 90be
000000e0: e3e9 32bd c117 51bc 5acd bb3e c59a acbc
000000f0: df51 583e ae61 d4be e3fa 6dbc 8b05 463d
00000100: 6f52 8f3e 9c31 71be a11e debe 15df 77be
00000110: 8205 473e 9ac6 20ba 5fbe cf3e 8f5e c0be
00000120: 1557 45be 7a7a a6bd a9db e6bd 89f9 303e
00000130: f23b a03d 7ca6 55bd 63f2 54be 80bb 9ebe
00000140: 74af 0c3d 11e1 633d 379e d9bd 43d1 0a3e
00000150: ee61 b6be 629f 01bf 5305 863e 94ba aa3e
00000160: 1ee1 1abe 3540 d6bd 81cf b5be bb42 c4be
00000170: 2d5c 7e3d 8113 e9be adbd d13d 79f8 ac3e
00000180: 308e d1be c0d9 433e d735 ddbe 2b98 c33e
00000190: 693a b83d 96d4 85be 5d9a d2bd 7b14 b43e
000001a0: b1d7 8e3e 3e89 c83e 7b30 523c 6e12 e3be
000001b0: 8b87 ee3d f72c 703e a7e7 8cbe 6dd2 cfbe
000001c0: 28cc ad3e 4fc3 b1be eecc 33be 342a 17be
000001d0: b03b fd3d 4c6a 1ebe 59c5 74be 17b8 9e3e
000001e0: 2714 1c3e 68e7 e93c 0c06 1c3e 235b abbd
000001f0: 00ee 60bd 67be d9be 530e b0be ed17 0bbc
00000200: 2e9f 07bf 23fd a9be 0058 8ebe 4dfb 893e
00000210: f84e 4f3e d999 5b3e 2bea 153e 14ef ac3d
00000220: daab 9ebe d260 ad3d db10 8cbe 7744 58bd
00000230: 4983 223e 49ac ccbe a1f1 c33d 46c8 00bf
00000240: eb3b 073e d408 0fbd e9eb b4be 70bb 7bbe
00000250: 0bf9 79be c7c1 343e 0d6f e2bd 3681 5f3e
00000260: 70ef d23d d90d e73d 6fe1 3d3b df7d bbbc
00000270: c2a9 9ebe dd03 1dbf 2fd9 7abe 13e8 64be
00000280: 1180 87bd 720c 9bbe 4efc a0bc 95a0 b63e
00000290: f933 debd 293b 84be d0c1 80bd 6f92 b03d
000002a0: 4dfe 623e a666 96bd b27c 823d 55cc 34be
000002b0: a58c 85be f7c9 d8bd d794 97bd 7439 69bf
000002c0: da8f e03d 7204 30be 6d07 0bbf 0541 34bc
000002d0: 22d5 f5be a2ef 30be 201a 463e 2a00 3fbe
000002e0: 9987 133e 7c05 d53e b216 21be d3ed d1bd
000002f0: b0c3 1f3e c902 40bf 2dd5 933d b14f e0be
00000300: 972c 8dbe 3f03 a93e 6f53 23bf 471c cebc
00000310: fa61 d7bd 4ce2 cabe 36cf 063e 246e 24bf
00000320: ac1a 8e3e 4508 43be d291 84bd a16d c5be
00000330: d290 63be 4862 8ebf 1ea7 f1be 4635 3bbd
00000340: 0421 093e 8d47 5ebe 31da 7dbd e147 08bf
00000350: 6094 663e 9795 e4bd 6c3c d13d 95e3 02be
00000360: 73c3 cbbd ead4 43bf 545e 513d 1b14 a6bf
00000370: 18ae 62bd fba4 bb3d 9b53 c13e d676 d9bd
00000380: a8e7 95be 7cb4 0cbc 358b 73be dcb2 6a3e
00000390: 61df e0bd 7c1d 133e f136 033f c993 933b
000003a0: cb5a b93d 22ba 07be dc3d 7e3a b0f0 09be
000003b0: 50ff 9d3d 0d48 56be e387 eb3e 696e 10be
000003c0: 54b3 a13d 4b1d 123e e536 02be 314f fdbd
000003d0: e657 2bbe 1b70 95be 77f2 e1bd 1c9f 83bd
000003e0: a002 94be fec7 1a3e 5d10 85be 620f d4bd
000003f0: f57f a13d 5c50 07be 77e0 a23e 0f68 5e3e
-0.2818919 -0.04295175 -0.2792163 0.36235473 -0.1733589 -0.3059494 0.20416005 0.023594365
0.07831994 -0.102173544 0.07858914 0.16042213 0.069606714 -0.7343321 -0.27182955 -0.32275173
-0.3134484 0.16772267 -0.24302116 -0.04853201 -0.08893581 0.15989897 -0.42896327 0.14297415
-0.0004123003 0.10427217 -0.2427357 -0.37638146 -0.08260723 -0.7883851 -0.30160114 -0.20343003
-0.072719045 -0.48182938 -0.47656414 0.16102768 0.01992379 -0.5432184 0.050134372 0.188264
0.16079095 -0.09496548 -0.1890647 -0.07971872 -0.267663 0.15920593 0.14374068 0.34536022
-0.23742057 0.13065444 -0.38817862 0.20232034 -0.106401734 0.17511167 0.299284 -0.28300622
-0.043680083 -0.012762011 0.36680108 -0.021069894 0.21124981 -0.41480774 -0.014525148 0.04834513
0.2799258 -0.2355408 -0.43382743 -0.24206193 0.19435695 -0.00061331096 0.4057493 -0.37572142
-0.192715 -0.08128829 -0.112723656 0.1728269 0.07823934 -0.052160725 -0.20795588 -0.31002426
0.034347013 0.055634562 -0.1062588 0.1355639 -0.3562159 -0.50633824 0.26175937 0.33345473
-0.15124938 -0.10461465 -0.35509875 -0.3833216 0.062099624 -0.45522693 0.10241256 0.3378332
-0.40928793 0.19126034 -0.4320514 0.38202032 0.08995516 -0.26138753 -0.10283349 0.35171875
0.27898934 0.39167207 0.012828941 -0.44349998 0.116469465 0.23454653 -0.27520487 -0.4059023
0.3394482 -0.3471932 -0.17558643 -0.14762193 0.123649 -0.15470237 -0.23903407 0.30999824
0.15242063 0.028552726 0.15236682 -0.08366992 -0.054914474 -0.42528078 -0.3438593 -0.008489591
-0.52977264 -0.3320094 -0.27801514 0.2694954 0.20244968 0.21445407 0.14640109 0.08444038
-0.30990487 0.08465733 -0.2735661 -0.05279967 0.15870394 -0.39975193 0.095675714 -0.50305593
0.1320645 -0.03492053 -0.35336235 -0.2458322 -0.24411409 0.17652045 -0.110563375 0.21826634
0.10299575 0.11281938 0.002897348 -0.022887168 -0.3098889 -0.6133402 -0.24496911 -0.22354154
-0.066162236 -0.30282933 -0.019651558 0.3566939 -0.10849757 -0.25826386 -0.06286967 0.0862168
0.2216732 -0.073437974 0.0637144 -0.17656071 -0.26083866 -0.10585397 -0.07401436 -0.9110329
0.109649375 -0.17189196 -0.54308206 -0.01100183 -0.4801417 -0.17278913 0.19345903 -0.18652406
0.14407195 0.41605747 -0.15731314 -0.102504395 0.15601993 -0.7500425 0.072183944 -0.438108
-0.27573082 0.3301029 -0.63799185 -0.025159968 -0.105167344 -0.39625776 0.13164982 -0.6423056
0.27754724 -0.19046123 -0.064731255 -0.38560203 -0.22223213 -1.1123743 -0.47197813 -0.045705102
0.133915 -0.21706982 -0.06197566 -0.5323468 0.22517538 -0.111613445 0.10216603 -0.12782128
-0.09949388 -0.76496756 0.05111535 -1.2974886 -0.05534181 0.09162327 0.37759098 -0.10618369
-0.29278302 -0.008587953 -0.23783572 0.22919792 -0.10980106 0.14366716 0.5125571 0.0045037013
0.090505205 -0.13254598 0.0009698549 -0.13470721 0.077147126 -0.20925923 0.4600211 -0.14104618
0.07895532 0.14268987 -0.12716253 -0.1236862 -0.1673275 -0.29187092 -0.110325746 -0.06426832
-0.28908253 0.15115353 -0.25989047 -0.103544965 0.07885734 -0.13214248 0.31811878 0.21719383

sequential/dense/BiasAdd/ReadVariableOp f4 [64]
00000000: afb0 43be 0b2a 403c 92a8 173e fce8 2ebe
00000010: 54ca 003e 82a9 febd 69d2 f93a a274 023e
00000020: dc7f 8fbe 872b 74bd f029 49bc dd14 fabd
00000030: 578f 29bd 563e d5bd d7ae e13a 7ded 08be
00000040: 615d 0cbe b124 f1bd 5f3a 65bc 95c4 02be
00000050: b017 31be 3f83 abbd ff11 2f3e 8d76 48bc
00000060: e338 95bd 1b28 97be 205d dcbc c031 29be
00000070: b790 d53d 4aea fd3c 61be 2fbe c106 72be
00000080: f5f6 ffbc 330d 49bd 25ce ffbd d47f a5bd
00000090: e598 81be ccc5 ad3d a18f 3fbd 95c9 afbd
000000a0: 630e c63d e9e5 9c3d 64d2 763e eb32 9f3d
000000b0: 55ba 9f3c 605a 87bd 4a8c 9f3d 8578 84be
000000c0: 2665 53bd efd4 dabd 7c48 2cbe df3f 00be
000000d0: d23c 9a3d 3309 303e 542a 223d 7ceb 91bd
000000e0: 7540 a8bd c6c3 d63d 6164 50be cfab 79be
000000f0: e8d9 a0be 5652 14be 757a c43d 9990 703d
-0.19110368 0.011728774 0.14810398 -0.17081064 0.12577182 -0.12434675 0.00190599 0.12739804
-0.28027236 -0.059611823 -0.012278065 -0.122110106 -0.041396465 -0.1041228 0.0017218244 -0.13371845
-0.13707496 -0.117745765 -0.013990968 -0.12770303 -0.17294192 -0.083746426 0.17096709 -0.012235296
-0.07286241 -0.29522786 -0.026899874 -0.16522884 0.10427993 0.030995507 -0.17162468 -0.23635389
-0.031245688 -0.049084853 -0.12490491 -0.08081022 -0.25311962 0.084849924 -0.046767835 -0.085833706
0.09670713 0.076610394 0.24103695 0.07773384 0.01949803 -0.066090345 0.0779043 -0.258732
-0.051610135 -0.10685145 -0.16824526 -0.12524365 0.07531132 0.17191009 0.03959115 -0.07124993
-0.08215419 0.104865596 -0.20350792 -0.24381946 -0.3141625 -0.14484534 0.09593669 0.05873165

sequential/bidirectional/forward_lstm/Read_2/ReadVariableOp f4 [80]
00000000: eec9 08be dd05 82bd b3fa 8cbd 4476 08be
00000010: 5b35 a93c a164 4a3e f021 f0bd 4e1c a0be
00000020: 0e89 13bd 6ae8 f13d 1b2c 8a3b a3af 313e
00000030: d44d 77bd 6ee5 10be 6b75 573e fba2 9c3d
00000040: b745 843e 5887 14bd bb18 bfbd 7883 553e
00000050: 03b5 673f 5810 543f fda0 863f d324 4b3f
00000060: 5b87 4a3f 44aa 993f f697 5f3f 782d 6a3f
00000070: 361c b23f 1d7f 833f 3f68 893f 0ee7 993f
00000080: a14b 3c3f d335 643f 158c 8f3f 1264 493f
00000090: 8985 8b3f af7f 473f 130a 7e3f 2205 963f
000000a0: 3fe6 26bd 39f3 80be 754f 57be 32fd 193d
000000b0: 2fe3 9fbd bbe6 8ebe f594 d7bd 7364 2cbd
000000c0: 1d19 94be 7578 77be 3070 0cbe ce61 953e
000000d0: 62f0 89bc ae6e a3bd f902 0ebf 4261 713e
000000e0: 7018 0c3e 8ffc 16bd c2bf 75be 355d d33e
000000f0: 1732 9d3e ec52 6fbe 0bae 033d 782e 28be
00000100: d051 043f accc 413e 50be 30b9 ea60 4abe
00000110: d63e 953d 03d9 9f3e 00be 703d 09dd 7e3e
00000120: b2e4 ba3d 6db7 a3bc 49d3 c63d 0457 fc3d
00000130: 1b17 28be f945 a2bd 9ec5 0d3d d8fd 293e
-0.1335828 -0.063487746 -0.068837546 -0.13326365 0.020655325 0.1976495 -0.11725223 -0.31271595
-0.036019377 0.118119076 0.0042166836 0.17352156 -0.060376957 -0.1415002 0.21040885 0.076482736
0.25834438 -0.036261886 -0.09330889 0.20850933 0.90510577 0.8283744 1.051788 0.79353064
0.79112786 1.2005086 0.8734125 0.9147563 1.3914859 1.0273167 1.0734938 1.2023637
0.735529 0.8914463 1.1214625 0.7866832 1.0900127 0.77929205 0.9923412 1.1720316
-0.040746924 -0.25185564 -0.21026404 0.03759498 -0.07807004 -0.27910408 -0.10526458 -0.042087983
-0.2892541 -0.24167044 -0.13714671 0.29176182 -0.016838256 -0.07980095 -0.55473286 0.23572257
0.13681197 -0.036861952 -0.23998931 0.4128205 0.30702278 -0.23371476 0.032148402 -0.16423976
0.51687336 0.18925732 -0.00016855565 -0.19763532 0.07287376 0.31220254 0.058774948 0.24889006
0.091256514 -0.019984925 0.09708268 0.123212844 -0.16415064 -0.079235025 0.03461229 0.1660074

sequential/bidirectional/backward_lstm/Read_2/ReadVariableOp f4 [80]
00000000: 9168 fabc c8cf 87bd 0842 ca3e bb4a 843d
00000010: 0d8e 76bd 8e03 433d 3363 10bd bfd6 e73d
00000020: 7421 993d 634a a73d 2c86 19be ed6b 6d3e
00000030: 08e9 d03d 3bbb c33d 4d1e 9ebd 6d93 c2bd
00000040: afe9 3fbd 16f1 6d3e 0ddd af3e 4ac0 4e3e
00000050: d5d3 303f a293 4a3f 0a76 433f f9d7 5b3f
00000060: bc11 593f 06e7 3d3f 1e38 683f b156 573f
00000070: 5de7 853f ad04 823f 2d4c 553f 83b7 763f
00000080: c10a 353f 691e 463f dd9c 4f3f 0a40 703f
00000090: 6cdb 373f 8495 383f 556a 683f 6f2f 2f3f
000000a0: 99da 65bd dbca 0fbc 15bf 0ebe 5e5b 533e
000000b0: d224 383e 123a 9c3e ba6f 6b3e 8ba6 43be
000000c0: db30 05be d1ff a13d cdd7 cdbd b8d0 22be
000000d0: 2a82 003f 71b6 283d 5c56 84bd d47a 0c3d
000000e0: 01af a6be bd86 f1be b909 b83e 8b72 193d
000000f0: be7a b5bd 12e6 f3bd e8e2 653e 26fd 5d3e
00000100: 8945 11be 5303 81bc 3f92 afbd ffe1 df3d
00000110: 24e2 b93e e5b7 eebb 61d0 2b3e 9092 713d
00000120: 51bf 4a3c f755 80be acd0 85be 8577 36be
00000130: 2184 8e3d 1776 7fbd c329 503e 1d92 993e
-0.03056744 -0.06631428 0.39503503 0.06459566 -0.060194064 0.047610812 -0.035250854 0.113202564
0.07477084 0.08168485 -0.14992589 0.23185702 0.10200697 0.09557196 -0.07720623 -0.095007755
-0.046853717 0.23236498 0.34348336 0.2019054 0.6907323 0.7913152 0.7635199 0.85876423
0.84792686 0.7418064 0.9071063 0.84116656 1.0461231 1.0157677 0.8331936 0.96373767
0.70719534 0.7739015 0.8109873 0.93847716 0.71819186 0.7210314 0.9078725 0.6843175
-0.056116674 -0.008776392 -0.1394008 0.20640323 0.17982796 0.30513054 0.22991839 -0.191065
-0.13006918 0.07910121 -0.10050926 -0.15899932 0.50198615 0.041189615 -0.06461784 0.034296826
-0.32555392 -0.4717311 0.35944918 0.037462752 -0.08861302 -0.11909117 0.22449839 0.216786
-0.14186682 -0.015748655 -0.08572816 0.10931777 0.36305344 -0.0072851055 0.16778709 0.058977664
0.012374715 -0.25065586 -0.26135767 -0.1781903 0.06958795 -0.06236848 0.20328431 0.29994288

sequential/batch_normalization/FusedBatchNormV3 f4 [32]
00000000: bbd3 e93e b409 893d d460 5040 ddbf d43e
00000010: fdb7 fe40 50b9 eb40 58af 0c40 60b0 c340
00000020: 626b dc3f 48da 5141 c6c8 6a3b 122f d63d
00000030: 087e 983f 7540 313e 17e7 2440 ae9e b440
00000040: f967 d13f b936 b340 6991 5d3f 1a2d 303f
00000050: b101 c33f 704b f73c 9e62 193f 9807 7e3d
00000060: 27d2 8340 9a59 5040 1e1e 12bc f5cd 4c40
00000070: be57 833f 248e 6c3f ae36 2540 b25c 923d
0.4566935 0.06691304 3.25591 0.4155263 7.9599595 7.366371 2.1982021 6.11528
1.7220271 13.115791 0.0035825237 0.10458197 1.1913462 0.17309745 2.5766046 5.64437
1.6359855 5.60043 0.86550003 0.6881882 1.5234891 0.030187339 0.599161 0.06201896
4.1194034 3.2554688 -0.008918313 3.2000706 1.0261152 0.9240439 2.5814624 0.071465865

sequential/batch_normalization/FusedBatchNormV31 f4 [32]
00000000: a42c 53bd f914 66be cc2d 6cbf 2f10 febe
00000010: 8e4f d9bc 8bad 0abd e7e2 a3bf 73de afbd
00000020: b2cc a03c a081 3f3c ca17 e93b 9310 0cbf
00000030: f465 a0bf 88d3 20bf c0cc 42ba 64e2 35bf
00000040: 8c21 4abf 9084 32bc 18f1 8e3c 7839 c63c
00000050: bc56 bebc 2036 75bd b55c d3bd 1252 70be
00000060: 18a3 59bd df19 05be d356 4e3c 5982 35bf
00000070: 2078 f6bc 080d 90bf f7d7 98bc 045a 03bf
-0.051556244 -0.22468938 -0.9225738 -0.49621722 -0.026527192 -0.03385691 -1.280362 -0.08587351
0.019628856 0.01168862 0.0071134316 -0.5471279 -1.2531114 -0.6282277 -0.0007431023 -0.7104857
-0.7895744 -0.010895863 0.017448947 0.024197325 -0.023234718 -0.05986607 -0.10320417 -0.23468807
-0.053134054 -0.1299815 0.012593943 -0.7090202 -0.030086577 -1.1253977 -0.018657668 -0.5130923

sequential/batch_normalization_1/FusedBatchNormV3 f4 [45]
00000000: a721 c73e 6799 633e 57b0 843e ee25 e73e
00000010: e861 b83e 3ae3 b93e 38af 603e f1f6 bc3e
00000020: 4805 c53e 4ef0 703e 6bba 063f 026f 013f
00000030: f4bf ca3e c503 3d3f 701f c53e 6817 0b3f
00000040: a317 e23e 6946 cd3e ec33 e73e a540 4a3e
00000050: 3496 d13e ceff 693e 51ab dc3e 479b 043f
00000060: 891d c53e 4ae2 653e 9b27 913e f92f 023f
00000070: 2df5 1b3f 2a25 163f 51e9 c13e b38b d93e
00000080: f6f6 b93e dbe7 c83e 8244 ef3e 7b17 c43e
00000090: 7adf fb3e 09ef c33e 16a9 8b3e b0c9 183e
000000a0: 0c1a e53e 5b8a 843e 4210 c83e ca0f a23e
000000b0: 7855 373e
0.38892862 0.22226487 0.25915787 0.45146126 0.36012197 0.36306173 0.2194184 0.3690715
0.38480592 0.23529169 0.526282 0.5056001 0.39599574 0.73833877 0.38500547 0.5433259
0.44158658 0.4009278 0.451568 0.19751222 0.40934908 0.22851488 0.43099454 0.51799434
0.38499096 0.22449604 0.2835053 0.5085445 0.60920984 0.5865046 0.3787332 0.42489395
0.3632123 0.39239392 0.46731955 0.38299164 0.49193937 0.38268307 0.2727744 0.14920688
0.44746435 0.25886807 0.39074904 0.3165267 0.17903697

sequential/batch_normalization_1/FusedBatchNormV31 f4 [45]
00000000: 91ce 92bf 915b 11bf c8ad 91bf a64f 53bf
00000010: 1646 8dbf d268 7fbf 8e09 81bf e13e 6abf
00000020: fd08 82bf deea 26bf 86a4 acbf 1d0b 77bf
00000030: f667 41bf ee19 7cbf 96a0 9bbf 6ab2 88bf
00000040: 652d 57bf b413 89bf 3ea7 47bf 3ca9 fcbe
00000050: ee23 37bf 0ced cebe 2dcb 5abf c875 88bf
00000060: 886b 61bf a265 4dbf bfca 5dbf 74ff 91bf
00000070: 1d7c 48bf fe4d 3ebf 7612 8bbf 4064 64bf
00000080: 7272 acbf c56e b8bf 9c6b 4cbf a604 64bf
00000090: 9624 78bf ecf5 8bbf e9da 80bf 9b56 06bf
000000a0: 9aed 7bbf 5a5c 32bf e93d 3dbf 7496 58bf
000000b0: 9a72 4abf
-1.1469289 -0.56780344 -1.1381159 -0.8254341 -1.1037014 -0.9976932 -1.0081041 -0.91502196
-1.0158993 -0.6520213 -1.3487709 -0.9650133 -0.75549257 -0.98477066 -1.2158382 -1.0679448
-0.8405364 -1.0709138 -0.77989566 -0.49347866 -0.715392 -0.40415227 -0.8546627 -1.0660944
-0.88054705 -0.80233204 -0.8663749 -1.1406083 -0.7831438 -0.74337757 -1.0865009 -0.8921547
-1.3472426 -1.4408804 -0.798517 -0.8906959 -0.96930826 -1.0934424 -1.0066806 -0.524759
-0.98409426 -0.6967217 -0.7392259 -0.84604573 -0.7908112

sequential/batch_normalization_2/FusedBatchNormV3 f4 [60]
00000000: c564 e33e f022 b33e 2733 0b3f 9678 d93e
00000010: e52c a73e 9676 a23e 76c9 373e 06e5 8f3e
00000020: 910c b03e 388f 0f3f 6804 f33e fab8 583e
00000030: 9ea7 c93e aef2 ca3e 4b7f 6c3e ce88 9a3e
00000040: 6511 9f3e af0a 233e 7f3a ee3e 866b 4c3e
00000050: a036 b63e c969 ed3e 6bae a43e da21 853e
00000060: 7bba ac3e c61f 833e 0100 b73e f295 b53e
00000070: 7047 3e3f a9df 493e 9f54 153e 3458 893e
00000080: 2d4d 613e 06f3 c03e 0eaf 863e 5898 053f
00000090: 22d3 7c3e 6eb2 253e 4996 543e 5baa 8a3e
000000a0: e69e 823e 2c04 833e 8d61 7b3e 8134 a33e
000000b0: 475b a93e 1e82 803e 0fd9 6f3e ed01 a03e
000000c0: 744d 763e acde 763e 7168 743e e71b aa3e
000000d0: 1c80 9a3e de3e fb3e 6937 833e 5ffa eb3e
000000e0: fc47 533e fa0f d13e ef97 0e3f 1f71 f33e
0.4441282 0.34987593 0.5437493 0.42474812 0.3265144 0.317311 0.17947945 0.2810442
0.34384587 0.5607791 0.474643 0.21164313 0.39385694 0.39638275 0.23095433 0.301825
0.31067958 0.15922044 0.46529004 0.19962892 0.3558855 0.4636977 0.3216432 0.2600239
0.33736023 0.2561018 0.3574219 0.35465962 0.74327755 0.19714226 0.14583062 0.26825106
0.22002096 0.37685412 0.2630543 0.52185583 0.24689916 0.16181347 0.20760454 0.27083096
0.25511855 0.2558912 0.24548931 0.31875995 0.33077452 0.25099272 0.23422645 0.3125147
0.24052984 0.2410838 0.23867966 0.33224413 0.30175865 0.490714 0.25628212 0.46089455
0.20632929 0.40832502 0.5570058 0.47547242

sequential/batch_normalization_2/FusedBatchNormV31 f4 [60]
00000000: 61ff 07bf a5e1 60be 5a4c 13be c6c4 1abe
00000010: 0ad5 84be 86a1 82be b104 0cbf 6cae 01bf
00000020: e8da 4fbe e03d 5cbe 0133 75be d654 8fbe
00000030: 6759 adbe 38ba 4ebf 142d 07bf 121a 2ebe
00000040: 2449 22be 0d48 30bf 5fad f6be 5b93 0dbf
00000050: 709e f0be 95fe e2be 6ad3 1abf 1dfb 1abf
00000060: dee0 d1be b2c8 a0be 48f2 0fbd 10a7 bfbd
00000070: 3c0e d4be 28eb f9be 4662 12bf 9632 a1be
00000080: b553 c3be 7ae0 69be ed9f 01bf f39e a6be
00000090: 37e0 0dbf fef4 8bbe 6dbe 7ebf f75b ccbe
000000a0: 13ab 1bbf 8c14 15bf bf9d d4be 2e40 c5be
000000b0: 5377 62be 0e4e 16bf 8d41 3bbf 34cf dcbe
000000c0: c144 74be bf0e 27bf f723 c6be 6c46 9cbd
000000d0: 7eef 64be 9354 02bf 5ca5 8fbe 407d 06bf
000000e0: eaa8 31bf dcc6 3bbe 0a7c 6dbe a55a 07bf
-0.5312405 -0.21961077 -0.14384595 -0.15114126 -0.25943786 -0.25513858 -0.5469466 -0.5065677
-0.2029835 -0.21507978 -0.23945238 -0.27994412 -0.3385727 -0.807529 -0.5280316 -0.17002133
-0.15848213 -0.6885994 -0.48179147 -0.5530297 -0.46995878 -0.44334856 -0.6047884 -0.6053942
-0.40991873 -0.31403118 -0.035143167 -0.093580365 -0.4141711 -0.48812222 -0.57181203 -0.31483907
-0.381498 -0.22839537 -0.5063465 -0.32543144 -0.5542025 -0.27335352 -0.99509317 -0.39913914
-0.60807914 -0.5823448 -0.415266 -0.38525528 -0.22115831 -0.5871285 -0.731469 -0.43126833
-0.23854353 -0.65256876 -0.38699314 -0.076306194 -0.22356984 -0.509103 -0.28055847 -0.52534866
-0.6939837 -0.18337578 -0.23191848 -0.5287269

sequential/dense/MatMul f4 [64, 40]
00000000: 24df 2e3e a83c 033f 5b04 553e 3abd 83be
00000010: 67cb 133e f3b1 cb3e f918 6a3e 0a18 bbbc
00000020: 4fc0 193e ffc0 293e eccf 643d 843b 1fbf
00000030: 24cc 6b3e dc48 623d a4a5 a43e a101 32be
00000040: 6d2d b13c 7009 613e 71ec eb3a 767b c4be
00000050: 9ece bf3e 4d11 8d3e 1bfa 333e af23 9dbe
00000060: 1be2 f43d aad5 52be 5182 f1be ad4e c93e
00000070: c71d c83e 4c5a babc 0fc0 f43c e361 063e
00000080: 4f3d 73bd 95c1 f9bd b4dc 0c3f 3ae1 9fbe
00000090: f03e b23e a242 9b3e f4b2 4bbe 8879 813e
000000a0: 739e cd3c 41ab 373e f16c b13d 7c1b dfbc
000000b0: 8a75 05bd eebc ea3e 63e3 243e 1151 8abe
000000c0: dace 823d 7377 1a3e be82 213f b0ad 15be
000000d0: 2a49 a53e 87be 4e3e 3f91 563e 1fda f3bd
000000e0: 5955 c43d 374b 5c3e 92b0 c33e 0934 96bd
000000f0: 08a1 c33e 611d 033f 026e cd3e 7619 63be
00000100: 0355 5d3e 287d 19bd e4da e9be 02f5 863c
00000110: 9e47 a73d 4961 32bf 8fa4 eb3e c8e1 8e3c
00000120: 0e07 d7bd cd90 79be 3f7b e13e 442b c1bd
00000130: 5cca d53e 80be c03e 0de8 90be 96dc 4a3e
00000140: e8d0 ebbe 9b43 2cbe 140f 28be 4e67 bd3e
00000150: 6c58 603c cd91 b8bd e060 cabe d3b1 8d3e
00000160: 8218 85be ab77 82bd f9c2 27bf 4245 c53e
00000170: 0590 69be 249c a83c c3c3 acbe 9425 8f3e
00000180: 1045 c43d 8e8a 57be 1e4b 323d 2d5e 1c3e
00000190: ded0 74be e330 823d 8435 1abe d9ef f13d
000001a0: 6c5a f13c 7532 9abe 0e18 143f 54da debd
000001b0: 9fd7 16be 52e5 253e d0a2 52be 1715 8fbd
000001c0: 958a fe3e 8a02 623e f8ba b2be 9a80 2a3d
000001d0: 4f1a 52be 5b03 c1be 70a7 1b3e 1f14 7fbe
000001e0: 7f63 493e 228f f63e 91a0 1e3e 2207 b6be
000001f0: 1c68 423e 7913 403d 7e50 f63e b359 27be
00000200: f478 a13d f22f fb3d ba97 783e 4093 a2be
00000210: 4fac 3d3e b1c5 cf3e 6b12 ad3e bbdd 58bd
00000220: b324 dabd e1da 313e a156 d93e 625d b4be
00000230: afc6 803d 0301 5c3d 50ce a33e f9fc c4bd
00000240: 714a b63e 68f6 febd d081 b2be b823 02be
00000250: 668f ce3d 9193 83bd 15ad 103f e2e6 c43e
00000260: 6cc2 64bd 7710 28be 3d79 fa3d b41d b9be
00000270: c008 773e 3a9b 1b3e 43e2 acbe 8b4d 8e3d
00000280: 0061 4ebe ab3e 7c3e f985 04bf 8572 afbe
00000290: 33f9 8abe 3516 9fbe dd7e 90be 2340 d73e
000002a0: 6926 883d a98b 90be ec89 bcbe 575f ad3e
000002b0: ae9f cebd d80a 88be 34a5 61be 3963 1c3e
000002c0: 8cbb b2bd c63e 90bd d53b 3cbe d8a3 8b3e
000002d0: 3f68 9bbe 9eb6 54bf 8011 96be ec5b 1c3e
000002e0: f9db a2be 05ac bd3c 3da5 0a3f 9067 14be
000002f0: 502a 68be 2086 e93e 005e b2be 7762 a6be
00000300: 12ca a43e 99f6 6a3e 814a ebbd 96b4 803e
00000310: 9e38 19be 46f5 03be b406 223e 55b6 c2bd
00000320: 49e8 e63e eb79 3b3c 63d8 853e 39e0 e13d
00000330: 156b 943d 76e6 df3e d2b3 9b3e 1d3e 3ebe
00000340: 869b 5b3e 7951 d53e a986 c93e 8957 7cbe
00000350: 039b f13d 7ace 623e 74ae d3bd f3da 95be
00000360: 5cff 53be 9b1b a93e 7106 c03e 5e67 d8bd
00000370: 113a 663e 1a15 82bb 5be6 4fbd 6977 80be
00000380: cf1c 173f 5641 4e3b 35b8 c0be 21b5 923e
00000390: eea8 86bd a3c5 f2be 58c6 743e 5ddf ea3d
000003a0: 0807 94be a8a7 d1be e198 a73d 178f d4be
000003b0: 428e 253e 7f4c 3c3e 396f 293e 0abd 8a3e
000003c0: 0026 98be 5a1c 22be 9712 8ebe c0d4 aa3e
000003d0: 6fbc 7f3e d1f5 ebbe 25ad 953d 7ef0 b83e
000003e0: cbee 16be e7b0 b0be 8b2d 8dbe 9eaf 053e
000003f0: a5e1 a6bc bfd1 57bb 2e6a c6be 4564 e43e
0.17077309 0.5126443 0.20802443 -0.25730306 0.1443306 0.39784202 0.22861089 -0.022838611
0.15014766 0.16577528 0.055862352 -0.6220019 0.23027092 0.055245265 0.32157624 -0.17383434
0.021628106 0.21976256 0.0017999542 -0.38375443 0.37462324 0.27552262 0.17575876 -0.30691287
0.11957189 -0.20589319 -0.47169736 0.39317837 0.39085218 -0.022748135 0.029876737 0.13123278
-0.05938464 -0.12195126 0.55024266 -0.31226522 0.34813643 0.30324274 -0.19892484 0.25288033
0.025099969 0.17936422 0.08663357 -0.027234785 -0.032582797 0.45847267 0.16102366 -0.27014974
0.0638711 0.15084629 0.6309012 -0.14617038 0.32282382 0.20189868 0.20953844 -0.11906838
0.09586591 0.21513067 0.3822065 -0.07334144 0.38208795 0.51216704 0.40122992 -0.22177681
0.2161446 -0.037472874 -0.45674813 0.01647425 0.08167957 -0.69679695 0.46023986 0.017441645
-0.104993924 -0.24371643 0.44039342 -0.094320804 0.4175595 0.3764534 -0.2830204 0.1981071
-0.4605782 -0.16822664 -0.16412002 0.36992878 0.013692956 -0.09012184 -0.39527035 0.27674732
-0.2599526 -0.06370481 -0.6553188 0.38529402 -0.22808845 0.020582266 -0.33743104 0.27958357
0.09583485 -0.21048948 0.04352867 0.152703 -0.23907802 0.06356981 -0.15059477 0.118133254
0.029462062 -0.3011662 0.57849205 -0.108814865 -0.1473069 0.1620076 -0.2056992 -0.069864444
0.49715105 0.22071281 -0.3490827 0.04162655 -0.20517848 -0.37697873 0.15200591 -0.2491002
0.19666861 0.48156077 0.15490939 -0.35552317 0.18985027 0.04689357 0.48108286 -0.16342811
0.07884398 0.12265004 0.24276629 -0.31752968 0.18522762 0.40580514 0.33803114 -0.052945834
-0.10651531 0.17368652 0.42448905 -0.35227495 0.06287896 0.053711902 0.3199334 -0.09618563
0.3560367 -0.12449342 -0.34864664 -0.12708938 0.10085945 -0.064246304 0.565141 0.384574
-0.055849478 -0.16412531 0.122301556 -0.36155474 0.24124432 0.15195933 -0.33766374 0.06948384
-0.2015419 0.24633281 -0.51766926 -0.3426706 -0.2714325 -0.3107163 -0.2822179 0.4204112
0.06647951 -0.28231552 -0.36823976 0.338618 -0.1008905 -0.26570773 -0.22035676 0.15272225
-0.08727178 -0.07043223 -0.18382199 0.2727344 -0.3035297 -0.8309115 -0.29310226 0.1526944
-0.3180845 0.023153314 0.54158384 -0.14492631 -0.22672391 0.45610142 -0.3483734 -0.32496998
0.32185417 0.22945632 -0.1148882 0.25137776 -0.14963004 -0.12886533 0.1582287 -0.09507433
0.45099095 0.011442642 0.26141652 0.11029095 0.07246987 0.43730515 0.3041063 -0.18578382
0.21446046 0.4166372 0.3936055 -0.24642767 0.11797144 0.22149077 -0.10336009 -0.29268607
-0.2070288 0.33028874 0.37504914 -0.10566591 0.22483088 -0.0039698007 -0.050756793 -0.25091103
0.59028333 0.0031472049 -0.3764054 0.28653815 -0.065751895 -0.4741641 0.23903787 0.114683844
-0.28911614 -0.40948224 0.08183456 -0.4151542 0.16167548 0.18388556 0.16546334 0.2709735
-0.29716492 -0.15831128 -0.27748558 0.3336544 0.24974225 -0.4608598 0.07308415 0.3612098
-0.1473953 -0.34509966 -0.2757381 0.13055274 -0.020371268 -0.0032931415 -0.38752884 0.4460775

sequential/dense_1/MatMul f4 [1, 64]
00000000: e291 eb3d b11b 243e 5017 d9bd 7498 b43d
00000010: f524 6dbe fe77 363e d5e4 5fbe 3170 63be
00000020: cdd6 3fbc 9fc1 653e 0b88 a63e ef54 353e
00000030: 43d6 3c3e 58fc 833e cca9 47be d26f 243e
00000040: f5e3 7c3e 5ca6 253e b218 8bbe 6f10 8abe
00000050: 81be 9abe 5c57 1d3e 575e 96be 736a 84be
00000060: 239d 4abe 62b8 423e e20f 693e 4329 ccbe
00000070: f9c2 86be d217 8ebe bcb1 5fbe 8960 033d
00000080: 70f5 4b3e a16a 03be c645 303e 8895 393e
00000090: a5b4 ac3e 65da 5abe 66f9 91be e148 9b3e
000000a0: 001e 82be 780b 9ebe c6bd f7bd d226 acbd
000000b0: 324a 47be 58b1 8d3d 5a17 963e 2e7b 4d3e
000000c0: fafd 53be ade0 80be 6681 423e b737 8d3e
000000d0: c186 8abe f45e 73be d3d6 283e cbb9 053e
000000e0: fa50 803e 7507 42be 36a8 69be f2d3 833e
000000f0: 7915 97be 2363 883e 02b3 0bbe a5d6 67be
0.11502434 0.16026188 -0.1060015 0.088181406 -0.23158629 0.17819211 -0.21864636 -0.22210766
-0.011708927 0.22437142 0.32525668 0.17708181 0.1844111 0.2577846 -0.19498366 0.16058281
0.24696334 0.16176742 -0.2716728 -0.26965663 -0.30223468 0.15365356 -0.2936885 -0.25862464
-0.19786505 0.19015649 0.22759965 -0.3987523 -0.26320627 -0.27752548 -0.21845144 0.032074485
0.19917846 -0.12833644 0.17214116 0.18123448 0.3373157 -0.21372373 -0.28510588 0.3032904
-0.25413513 -0.30868125 -0.12096743 -0.08405842 -0.19461897 0.06918591 0.2931469 0.2006652
-0.20702353 -0.25171414 0.18994674 0.2758157 -0.27055934 -0.2376669 0.16488199 0.13059156
0.2506178 -0.18948157 -0.22818074 0.2574764 -0.2950857 0.26638135 -0.13642505 -0.22640474

sequential/bidirectional/backward_lstm/Read_2/ReadVariableOp1 f4 [80]
00000000: 9168 fabc c8cf 87bd 0842 ca3e bb4a 843d
00000010: 0d8e 76bd 8e03 433d 3363 10bd bfd6 e73d
00000020: 7421 993d 634a a73d 2c86 19be ed6b 6d3e
00000030: 08e9 d03d 3bbb c33d 4d1e 9ebd 6d93 c2bd
00000040: afe9 3fbd 16f1 6d3e 0ddd af3e 4ac0 4e3e
00000050: d5d3 303f a293 4a3f 0a76 433f f9d7 5b3f
00000060: bc11 593f 06e7 3d3f 1e38 683f b156 573f
00000070: 5de7 853f ad04 823f 2d4c 553f 83b7 763f
00000080: c10a 353f 691e 463f dd9c 4f3f 0a40 703f
00000090: 6cdb 373f 8495 383f 556a 683f 6f2f 2f3f
000000a0: 99da 65bd dbca 0fbc 15bf 0ebe 5e5b 533e
000000b0: d224 383e 123a 9c3e ba6f 6b3e 8ba6 43be
000000c0: db30 05be d1ff a13d cdd7 cdbd b8d0 22be
000000d0: 2a82 003f 71b6 283d 5c56 84bd d47a 0c3d
000000e0: 01af a6be bd86 f1be b909 b83e 8b72 193d
000000f0: be7a b5bd 12e6 f3bd e8e2 653e 26fd 5d3e
00000100: 8945 11be 5303 81bc 3f92 afbd ffe1 df3d
00000110: 24e2 b93e e5b7 eebb 61d0 2b3e 9092 713d
00000120: 51bf 4a3c f755 80be acd0 85be 8577 36be
00000130: 2184 8e3d 1776 7fbd c329 503e 1d92 993e
-0.03056744 -0.06631428 0.39503503 0.06459566 -0.060194064 0.047610812 -0.035250854 0.113202564
0.07477084 0.08168485 -0.14992589 0.23185702 0.10200697 0.09557196 -0.07720623 -0.095007755
-0.046853717 0.23236498 0.34348336 0.2019054 0.6907323 0.7913152 0.7635199 0.85876423
0.84792686 0.7418064 0.9071063 0.84116656 1.0461231 1.0157677 0.8331936 0.96373767
0.70719534 0.7739015 0.8109873 0.93847716 0.71819186 0.7210314 0.9078725 0.6843175
-0.056116674 -0.008776392 -0.1394008 0.20640323 0.17982796 0.30513054 0.22991839 -0.191065
-0.13006918 0.07910121 -0.10050926 -0.15899932 0.50198615 0.041189615 -0.06461784 0.034296826
-0.32555392 -0.4717311 0.35944918 0.037462752 -0.08861302 -0.11909117 0.22449839 0.216786
-0.14186682 -0.015748655 -0.08572816 0.10931777 0.36305344 -0.0072851055 0.16778709 0.058977664
0.012374715 -0.25065586 -0.26135767 -0.1781903 0.06958795 -0.06236848 0.20328431 0.29994288

while/MatMul_11 f4 [80, 20]
00000000: 67b7 d43d 29f1 0c3f cf4a 3c3c fd78 b83d
00000010: 12c3 00bd bbf5 d1bd 1b35 f13d 4d18 bdbd
00000020: 3b62 93be 0e69 d2bd 8e79 99be 56b7 b13e
00000030: 06f5 ea3e 349b d2be a909 99be 4283 14be
00000040: 15cd 283e 7d5a 4f3d e141 de3d 131e b9bc
00000050: e1b2 123e ac53 45bd 8a42 07be 88f2 6bbe
00000060: 65c0 3ebd 41c3 96bd 8fe1 273e b040 d3be
00000070: d802 263c af26 003e ef58 c2bd 5b4b e43d
00000080: f705 f13c 2477 c33e 5ab1 473e b0d1 953d
00000090: 1ad5 e6be 37fc 83be 5a93 883d 2a5b 9dbe
000000a0: 6be0 893d 2ab8 0f3e 9cda a93d 2a5b 043e
000000b0: 503d b43e 4630 6f3e 6d29 80be 06ba 92be
000000c0: e54f 52be 62ca fb3d 6941 e5be 15d6 ca3c
000000d0: 75c2 56bd 8796 ac3d ee14 183c 7edc c0bd
000000e0: 4708 683e 4666 7a3d 3823 e93d f4e8 fbbd
000000f0: 6ad5 26be 1ebd e03e 8260 42be 89b3 febe
00000100: 5c3e 36bf 5961 83be 6342 6b3e 9a71 143e
00000110: 345b 1f3f 8072 30bf c0b2 a8be c5cf 70bd
00000120: c9c1 b13e 9c7d 5dbe ae4f c3bd bba3 c83e
00000130: a835 a1be e14f 2cbe ba2f e43e b5bf 24bf
00000140: 33c9 c7be 1d38 6b3d 6e1a 16be 89eb db3d
00000150: 2a12 79be 00d5 5b3e 7cfc 47be 8f89 673d
00000160: c75a db3e b9eb 0bbe 2961 0fbf 5909 32be
00000170: d866 2c3e 8406 48be cc33 38be 5c47 1ebf
00000180: 3900 293e 4c74 31bd 4837 ca3d cf4e 80be
00000190: 8b21 523e 09a4 893e 0996 363e a1b1 e0bd
000001a0: eaae 06be 2f8a a8be 2af7 f13d 40fd c83e
000001b0: 2cfe 413e c974 883e f158 ecbd 119e 733e
000001c0: ed0a 183d 4fbc 99be 8100 0abe 1433 4a3c
000001d0: e886 33bd f7d7 b5bd 2881 b23e 4545 bdbe
000001e0: dfcf 943e 9e0f d6be d710 12bf 8a24 203f
000001f0: 343e b83e 2bfc de3e 26cc ecbd 1caa 26bf
00000200: d832 99be e2f6 d23e a14e 93be f4a9 73bf
00000210: bd41 edbe 2a39 be3e 1416 a9be 9e7e f1bd
00000220: cf65 8dbd 56bc 51be dbe4 be3e d48d 41be
00000230: 97ac 8fbe 71a5 1abd 7da2 c03e cfdf 95be
00000240: 4896 b5bd c4f0 0e3d 3120 e5bd 8a88 15be
00000250: 0092 4fbd 01fc 6bbe 73ac 90be 3ec1 403d
00000260: bb92 4e3e 27c1 e23e 59d3 ac3e 828b f53c
00000270: 1653 76be 94e2 acbe 4c18 813e 7cb1 e7be
00000280: a642 d93e 84e2 493e 2ce9 db3e 669e 8f3e
00000290: 4344 0a3e 0cae cc3d bf05 91be 2fe0 6ebe
000002a0: 692a 4abe 5099 333e 47be 92be e53d 4abe
000002b0: c69b 5e3c d48e 2c3e 3262 7b3e 9470 98be
000002c0: 1e8a e73d 0069 263d 89e5 a23d 36ce 903d
000002d0: cf49 9bbe 502d ac3e afd4 923e 9e39 16be
000002e0: 6e91 57be 4898 00bf beec a33d 8f96 cd3e
000002f0: afb8 1e3e 96fb c4be a9a4 14be e998 493d
00000300: 24fd 3a3e 144f 213e ca48 6f3f d07a 753e
00000310: 0c8f c53d f4fc 2a3c bfa2 033d 0031 7ebd
00000320: 681d 463e ba96 f33e 6923 b3be d297 b6bd
00000330: 4ace 133e 9de5 bcbe 7f8b 68be b219 60be
00000340: 1ab2 34be 1323 d8bc f282 4dbe ea8a e93c
00000350: 526a 95bd 1039 1ebd 7c72 f4be 7dd8 f4be
00000360: 3a8b 4e3b 6f0f 273e daf5 65bd fe31 51be
00000370: bedf 42be 7cf9 97be 0a74 18be 29c8 103c
00000380: e65d 22be 2a92 7cbe 78bc 2b3f 167b bcbe
00000390: b29c a23e ac8e aabe 6889 da3e edef 233e
000003a0: bc90 113e 8ab2 6d3d a24c 603c f0ce d63e
000003b0: f16a be3d 5a77 46bd 1d29 02be 4969 1f3e
000003c0: 3d17 073e 1b55 2f3f 0788 9b3e ef2d 773d
000003d0: 999f 56be 1a65 03bf 249d 1e3f f894 403e
000003e0: 264e f5bd 4a8e 58be 0f3f 9fbe b956 ebbd
000003f0: 5a8e 763d 451f 123e aced 88be 683c 423d
0.10386544 0.5505548 0.011492445 0.09007452 -0.031436034 -0.102519475 0.11777707 -0.09233151
-0.2878588 -0.10273944 -0.2997555 0.34710187 0.45890063 -0.41134036 -0.29890183 -0.14503196
0.16484483 0.050623406 0.10852409 -0.022597348 0.1432605 -0.0481755 -0.13208976 -0.23041737
-0.0465702 -0.073614605 0.16394638 -0.4126029 0.010132514 0.12514757 -0.09489619 0.111471854
0.02942179 0.38176835 0.19501248 0.07315385 -0.4508446 -0.25778362 0.0666873 -0.30733615
0.067322575 0.14035097 0.082936496 0.12925401 0.35203028 0.23358259 -0.25031605 -0.2865755
-0.2053829 0.12294461 -0.44776466 0.024760285 -0.052431542 0.08427148 0.009282334 -0.094170555
0.22659408 0.06113269 0.113836706 -0.12300292 -0.16292349 0.43894285 -0.18982127 -0.4974635
-0.711889 -0.25660208 0.22974543 0.1449646 0.6224854 -0.68924713 -0.32948875 -0.058791894
0.3471816 -0.21629947 -0.09536682 0.39187416 -0.3148625 -0.16827346 0.44567662 -0.6435502
-0.3902069 0.05742656 -0.1465852 0.10738284 -0.24323335 0.21467972 -0.19529909 0.05652767
0.42842695 -0.1366414 -0.5600763 -0.17386378 0.16836107 -0.19533736 -0.17988509 -0.61827636
0.16503991 -0.0433238 0.09873825 -0.25060126 0.20520608 0.2688296 0.17830671 -0.1097138
-0.13152662 -0.32917926 0.11814721 0.39255714 0.18944615 0.266516 -0.11540402 0.23790766
0.037119795 -0.3002648 -0.13476755 0.01234128 -0.04382983 -0.08879083 0.34864163 -0.3696691
0.29064843 -0.4180879 -0.57056946 0.62555754 0.35984957 0.43551764 -0.11562376 -0.65103316
-0.29921603 0.41203982 -0.28770927 -0.951812 -0.46339217 0.37152988 -0.33024657 -0.117917284
-0.06904184 -0.20482 0.37283978 -0.1890176 -0.28061363 -0.037755433 0.3762397 -0.29272315
-0.088665545 0.03489758 -0.11187781 -0.14602867 -0.050676346 -0.2304535 -0.28256568 0.04705929
0.2017316 0.4428799 0.33754995 0.02997375 -0.24055132 -0.33766615 0.2521385 -0.45252597
0.4243366 0.19715315 0.42951334 0.28050536 0.13502602 0.09994134 -0.28324696 -0.23327707
-0.1974274 0.17538953 -0.28660795 -0.19750173 0.013586944 0.1685136 0.24549177 -0.2977339
0.11305641 0.04062748 0.079539366 0.070705816 -0.3032975 0.3362832 0.2867789 -0.14670417
-0.21051571 -0.5023236 0.08004139 0.4015393 0.15500139 -0.38473195 -0.14515938 0.049218092
0.18260628 0.15752822 0.9347044 0.2397263 0.09646425 0.010436285 0.03213763 -0.06205845
0.19347155 0.47575933 -0.34987953 -0.08915676 0.14434162 -0.3689393 -0.22709464 -0.21884802
-0.17646065 -0.026383912 -0.20069483 0.028508622 -0.072956696 -0.038628638 -0.47743595 -0.47821417
0.003151609 0.16314481 -0.056142665 -0.20429227 -0.19030663 -0.2968253 -0.14888015 0.008836784
-0.15856132 -0.24665132 0.67084455 -0.36812657 0.31760174 -0.33311975 0.42682958 0.16009493
0.14215368 0.058031596 0.013690146 0.41954756 0.09297741 -0.048453666 -0.12710996 0.15567507
0.13192458 0.68489236 0.30377218 0.06034654 -0.20959319 -0.51326144 0.6195853 0.18806827
-0.11977796 -0.21148029 -0.31102797 -0.114911504 0.06019435 0.14269741 -0.2674383 0.04742089
