models/model.tflite (tflite, 281580 bytes, 25 tensors)

sequential_1/time_distributed/sequential/conv2d/BiasAdd/ReadVariableOp f4 [32]
000000 68 c1 01 3b a6 5b 85 3e 0c 1f 40 3d 29 1b 49 3e
       0.0019799117 0.26046485 0.04690461 0.19639267
000010 b7 39 6c 3d 4d eb 86 3e 7f 99 93 3e 36 89 5c 3d
       0.05767223 0.26351395 0.28828046 0.053841792
000020 a2 56 8e 3d 18 a4 42 3d 5b aa f0 3d 6f 1c db 3d
       0.06950118 0.047519773 0.11751243 0.10698783
000030 6b c4 2f 3a 60 97 a9 3b c1 46 4e 3e ab 72 2e 3e
       0.0006704989 0.005175516 0.20144178 0.1703593
000040 8f 16 10 3e 6b 20 9c 3d 74 fa 21 3e 31 a6 88 3d
       0.14071105 0.07623371 0.15818197 0.066723235
000050 bd 42 d1 3e 80 4d b5 3d 13 45 d1 3c a3 e0 70 3e
       0.4087123 0.088526726 0.025545632 0.23523192
000060 f6 2d 17 3e 7c 19 75 3e f1 ab 44 3e 01 84 24 3d
       0.14763626 0.23935503 0.19206215 0.04016495
000070 fc 3f 2f 3e 54 c1 f0 3e ea 57 af 3d 13 6a 8a 3e
       0.17114252 0.47022498 0.0856169 0.27034053

sequential_1/time_distributed/sequential/conv2d_1/BiasAdd/ReadVariableOp f4 [64]
000000 8a 38 6f 3e 8d 99 f1 3e 7e 2a bf bc 39 ed 09 bd
       0.23361412 0.47187462 -0.023335692 -0.0336735
000010 69 67 f7 3d 21 3d 8f bd 15 08 dd be a7 ed 8f bc
       0.12080271 -0.06994081 -0.4317023 -0.017569376
000020 12 5e 67 bd 69 f2 da 3d e1 90 ff be eb 50 98 be
       -0.056486197 0.10690767 -0.4991522 -0.29749236
000030 1a 27 83 be d9 1f db 3d 9b 43 b3 3d de 82 89 be
       -0.2561577 0.10699434 0.08753129 -0.26857656
000040 08 13 57 be bb 80 2a 3e cb 5c 67 be 6b 9b 7e 3e
       -0.21003354 0.1665067 -0.22593991 0.24863975
000050 6f d7 3b be 1b f1 f8 be 41 05 94 be 78 28 03 3e
       -0.183439 -0.4862145 -0.28910258 0.12808406
000060 c3 95 19 3d 45 58 b3 bd 53 28 97 3d 0c 4b ec 3c
       0.03749634 -0.087570705 0.07380738 0.028844379
000070 66 5c 04 be 52 f1 c2 3b ae 2e b2 be 4f 8e d7 bc
       -0.12925872 0.005949178 -0.3480124 -0.026312975
000080 74 27 33 be ad 0b 90 3d 8b 1d 00 be ab a7 87 bd
       -0.17495519 0.07033477 -0.1251127 -0.06623777
000090 7b 2d c7 bd 51 cd 2e be e2 db 65 be 98 41 89 bd
       -0.097254716 -0.1707051 -0.2244716 -0.06701964
0000a0 b8 e2 8f be 7f 8e 99 bd 0e 02 85 be 67 bb 24 be
       -0.2810266 -0.07497882 -0.2597813 -0.16087113
0000b0 7e 72 92 3d 6f e2 18 3d 4f 35 a1 bd 87 bc 16 3d
       0.07150744 0.03732532 -0.07871496 0.036800887
0000c0 73 32 52 be d2 f8 15 be 70 94 35 bd bb d1 db bd
       -0.20527057 -0.14645699 -0.044331014 -0.10733362
0000d0 d8 5a c8 bc e8 5e eb bc 0e 98 9e bd 4a 4e 10 be
       -0.02445738 -0.028731778 -0.07743846 -0.14092365
0000e0 65 33 6d 3e e3 71 b9 bd 57 cf 86 3e 5e 1f 13 bd
       0.23164137 -0.09054925 0.26330063 -0.035918586
0000f0 5c f7 69 be 4f a6 ae 3e 87 31 44 be 8f ea 38 3e
       -0.22848266 0.34111258 -0.19159518 0.18058227

sequential_1/time_distributed/sequential/conv2d_2/BiasAdd/ReadVariableOp f4 [64]
000000 5b 71 b4 3e 2b 18 1b bc c1 f6 19 be 46 d1 80 bc
       0.35242733 -0.009466211 -0.15035535 -0.01572479
000010 37 ff c5 be 06 da 98 bd 54 c5 fd be d8 53 20 be
       -0.38671276 -0.0746346 -0.49564612 -0.15656984
000020 fd db 3d be c6 9b 22 bd 75 e6 e9 3d 6f 5b dd bd
       -0.1854095 -0.03969934 0.11420909 -0.10808455
000030 34 85 cc bc 28 4f 52 3d 44 82 89 be 16 b9 a7 3d
       -0.02496586 0.05134502 -0.26857197 0.08189599
000040 f1 09 c1 3d 83 bb 08 3e 0a 3a 1d 3e 9c 0a 16 3e
       0.09425724 0.1335278 0.15354171 0.14652485
000050 5a 49 ed 3b f9 bc 26 3e 18 30 5d bd 49 be b6 bd
       0.00724141 0.16283025 -0.054000944 -0.08923013
000060 70 db 9c be 10 b3 1d be 0c 3c 38 be bb 29 fb ba
       -0.30636168 -0.15400338 -0.17991656 -0.0019162217
000070 69 2d 31 3d 2c ca b9 bd 0d a5 f5 be c7 fe a6 3d
       0.043256197 -0.09071764 -0.47977486 0.08154064
000080 43 52 12 bc da 8f 58 3c d5 7c 8e 3d 6e 8a 3f be
       -0.008930746 0.013217891 0.069574036 -0.1870515
000090 62 4d 53 3d 50 86 45 3d e9 a2 34 be 41 5e 77 3e
       0.05158747 0.048223794 -0.1764027 0.24157049
0000a0 d6 7f c6 bd 84 e7 4e 3d a4 5a a4 bc d1 c6 2b 3e
       -0.096923515 0.05051376 -0.020062752 0.16775061
0000b0 e0 ec a1 3d fb 5b ea 3d d2 6d 70 be 98 df 8c bd
       0.079065084 0.11443325 -0.23479393 -0.068785846
0000c0 57 40 b3 3d 7e f4 ea 3c 44 5a 03 3e 2c 55 42 be
       0.08752506 0.028681036 0.12827402 -0.18977803
0000d0 49 a7 56 be ee ba 91 3b 69 cc 8c bd 72 93 f0 3d
       -0.20962252 0.0044473326 -0.06874926 0.11746873
0000e0 19 03 12 be a2 1d 72 3e e4 0b 33 be ba f4 47 bd
       -0.14258994 0.23644117 -0.17485005 -0.048817374
0000f0 32 9a ee 3d f6 7d 83 bc 1e a7 8a be 0d 4b ba be
       0.11650504 -0.016051274 -0.27080625 -0.36385384

sequential_1/time_distributed/sequential/conv2d/Conv2D f4 [32, 5, 5, 1]
000000 05 c1 a8 3d 85 eb 92 3e 2a e7 3a be 6b c0 c3 bc
       0.082399406 0.28695312 -0.18252245 -0.023895463
000010 40 6e ca bd 01 d9 4a 3e 16 b6 d6 3e 19 34 3a bd
       -0.0988431 0.19809343 0.41935796 -0.04545984
000020 e1 e5 30 3c 6f 8b e2 3c 8f da bf 3d 4c ff b9 3e
       0.010796995 0.027654378 0.093678586 0.3632759
000030 22 6f 1d 3d 98 c5 f3 3c 50 bf dc 3d f6 f9 cf bc
       0.038436063 0.029757306 0.107786775 -0.025387745
000040 a8 fa a9 3e ac ee d6 bb 16 22 98 bc b2 db 25 3d
       0.33199048 -0.0065592136 -0.018570941 0.04049272
000050 0e d0 70 3d 2d 49 c4 3e 66 c8 fc bd 8a a2 2e be
       0.058792166 0.3833708 -0.123429105 -0.17054191
000060 f1 fe 23 3c 28 36 f3 bd 45 99 33 3e 27 37 06 3e
       0.010009513 -0.11875564 0.17538936 0.13106976
000070 67 61 97 3d a5 38 be be a0 d0 ee 3d 43 03 e9 3d
       0.07391625 -0.3715259 0.11660886 0.11377575
000080 db a3 3e 3e 04 41 e9 bc 99 18 ac be fb d4 e3 3c
       0.18617193 -0.028473385 -0.33612517 0.027811518
000090 a5 c2 b4 bd ae 70 53 3e 76 e2 b3 3d dc 26 8b be
       -0.08826188 0.20648453 0.08783428 -0.27178085
0000a0 3b 20 51 3e b2 8c 05 be eb b7 d9 bd 47 a3 90 be
       0.20422451 -0.13041952 -0.10630783 -0.2824957
0000b0 82 a4 3a be ec 59 05 3c 9b 82 48 be 5f 34 8a be
       -0.18226817 0.008139115 -0.19581072 -0.2699308
0000c0 4c 53 78 be 9f 5d 79 3c ef a9 d5 bd 65 75 b9 bd
       -0.24250525 0.015220075 -0.10432803 -0.09055594
0000d0 0f fa 71 be cc a7 36 3e ae f5 a1 bd e7 ac e9 bc
       -0.23630546 0.17837447 -0.07908188 -0.02852483
0000e0 98 46 d1 bd b8 65 8e be 3d 8f 97 3d 42 9f e6 bd
       -0.10218543 -0.2781198 0.074003674 -0.11260845
0000f0 74 0e 01 3e 63 af d5 3e a8 04 51 3e fb 93 e7 bc
       0.1260317 0.41735372 0.20411932 -0.028268805
000100 a2 6a 08 be 6b cb 25 bd 7d f8 5c 3d d5 ce 8f 3d
       -0.13321927 -0.040477198 0.053947914 0.07021872
000110 7c b8 28 be 7d 6f 35 be 12 b3 88 bd 6c ad d9 bd
       -0.16476625 -0.1771831 -0.0667478 -0.10628781
000120 c9 cd 7e 3e 26 e3 b2 3b 23 62 9e 3d bc 19 4b 3c
       0.24883188 0.005459207 0.07733562 0.012396272
000130 ad ac 68 3d 11 10 3e 3e a9 75 91 be 71 a9 4f 3d
       0.0568053 0.18560816 -0.2841008 0.0506987
000140 f1 d6 87 bd 61 7a 7d 3d a5 09 00 3e 71 bc 44 be
       -0.06632794 0.061884288 0.12503679 -0.1921251
000150 a6 0b 7a bd 9f 9d 1b 3d 35 9b d9 bd a3 10 5c be
       -0.061046265 0.037992116 -0.106253065 -0.21490721
000160 e6 f9 ac bd fa 6a 1c be 7b fd d5 bd 39 20 1c bc
       -0.08446102 -0.15275183 -0.10448738 -0.009529167
000170 cf 46 46 3e d5 19 e1 ba 7b aa 1e be f2 b7 34 3d
       0.19362949 -0.0017173836 -0.1549472 0.044120736
000180 71 4c 98 3e a1 39 f1 3e 28 ad 1f 3d bc f7 49 be
       0.2974582 0.4711428 0.038983494 -0.1972341
000190 f6 29 e2 bd 2c 1e 37 3e e6 d1 ec 3e a4 7b f2 bd
       -0.1104316 0.17882603 0.4625389 -0.11839989
0001a0 d6 e9 10 3c 2a df 3a bd 11 07 0c 3d bc 3b 9f 3e
       0.008844813 -0.045622982 0.034186427 0.3110026
0001b0 1c 90 11 3e ea ba b6 3d 91 1e 7e bd cc 61 74 3c
       0.1421513 0.0892237 -0.06204087 0.014915895
0001c0 fb de 2c 3e 82 b8 68 3e 67 28 c1 3c f8 3f 04 be
       0.16881935 0.22726634 0.023578836 -0.12915027
0001d0 3f 84 54 3d 98 fa e9 bb 77 01 07 bc d5 bf 43 3e
       0.051883932 -0.007140469 -0.008240095 0.19116147
0001e0 0a 75 a2 bd 60 20 2e 3e 43 e1 3b 3e af 52 e7 bc
       -0.0793248 0.17004538 0.1834765 -0.028237669
0001f0 58 d2 58 3e bf 59 ab be d4 48 3b 3c c1 e6 4e 3d
       0.2117399 -0.33466908 0.011430938 0.050513033
000200 b4 b4 1b 3e f0 b5 ab 3e 77 e6 8a be 74 05 c8 bd
       0.15205652 0.33537245 -0.27128956 -0.09766665
000210 f7 fd 9d 3c 9b 08 c5 3d 0d f6 8f 3d fd da 98 bd
       0.019286139 0.09620782 0.07029352 -0.07463644
000220 ff 40 b8 bd 34 7f 2c 3e ce 25 4f bd 7f 20 f0 3d
       -0.08996772 0.16845399 -0.050573163 0.11724948
000230 fb 93 35 3d f6 a3 90 be 35 05 0b be 4c bf 15 b9
       0.04433058 -0.28250092 -0.13576205 -0.00014281011
000240 c8 b3 bb bd 0f 7f 86 bd a6 db c7 be c0 48 98 bc
       -0.0916515 -0.06567203 -0.39034766 -0.018589377
000250 67 fc ef 3d 95 ec 83 3e 5c c5 6f 3e 01 43 f2 3d
       0.11718064 0.25766435 0.2341513 0.11829186
000260 93 48 5d bc f9 86 83 3d 8e 41 3b 3e a5 9b 7e bd
       -0.013506073 0.06422228 0.18286726 -0.062160153
000270 d0 10 68 bd a4 e6 55 3e 8f 6c a3 3e 10 d1 00 3e
       -0.05665666 0.20888764 0.3191876 0.12579751
000280 81 c8 27 3d 01 89 1a 3e 61 18 83 3e ce 52 39 3d
       0.0409627 0.15091325 0.25604537 0.045244984
000290 ff 03 7a 3e a8 d0 ea 3d e7 07 ba 3d f6 ea 31 be
       0.24415587 0.11465579 0.090835385 -0.17374787
0002a0 98 e2 c0 bd 73 29 e0 3d 8c 1d d3 bd cb c1 04 bc
       -0.09418219 0.10945406 -0.1030837 -0.0081028445
0002b0 f6 66 c5 be 8b a3 9b be 8f 9a 27 3d 17 aa 28 bd
       -0.38555115 -0.3039821 0.040918883 -0.041177835
0002c0 e6 0b 20 3e 68 58 ba 3e a7 37 12 bd cd a4 5a 3d
       0.15629539 0.36395574 -0.035697605 0.053379823
0002d0 26 2f 40 be 92 87 08 be d6 07 5e be 30 c6 90 bd
       -0.18767986 -0.13332966 -0.21682677 -0.07069051
0002e0 61 a5 85 bd 0e 4b 72 3c b2 47 63 be 0a 24 06 be
       -0.06525684 0.014788402 -0.22195318 -0.13099685
0002f0 c6 61 83 be c4 64 ad bc ae a3 9f 3d 8d 63 4d bc
       -0.25660533 -0.021166213 0.07794891 -0.012535942
000300 f3 02 85 3e 46 50 04 3e 1f 7d 00 be 0e 39 f8 bb
       0.25978813 0.12921247 -0.1254773 -0.007575161
000310 0a 8a 46 be 08 12 be 3d 47 51 be bd 49 59 ab 3c
       -0.19388595 0.09280783 -0.09292846 0.020916598
000320 e3 84 bf bd 17 7e b7 bb af b7 31 3e 68 32 ab 3d
       -0.09351518 -0.005599748 0.17355226 0.083592236
000330 c3 5a a7 3d 49 15 f4 bc f0 12 75 be 3c 12 45 3e
       0.08171608 -0.029795306 -0.23933005 0.19245237
000340 09 f8 d0 bd 02 6d 36 bb 58 6e 1a be 7f 0a 9d be
       -0.10203559 -0.002783597 -0.15081155 -0.3067207
000350 bf 29 07 bb 78 29 10 be 5c bb 85 be 8e 14 79 3d
       -0.0020624248 -0.14078319 -0.26119506 0.060810618
000360 4c fe ff be 6d 85 19 be 65 03 ba bd f3 e7 33 be
       -0.499987 -0.14992304 -0.09082679 -0.1756895
000370 e4 e4 07 3e 3d 03 20 bf 97 91 d9 bd 69 b6 fe bd
       0.13270909 -0.6250494 -0.10623472 -0.12437136
000380 70 d1 04 be 5d bd 4e bd 8e a7 42 be 04 5d 4e be
       -0.12970519 -0.05047356 -0.1900923 -0.2015267
000390 3b d7 2a bd a5 7c 97 bc bf eb f7 3d eb 09 98 3c
       -0.041709166 -0.018492052 0.12105512 0.018559417
0003a0 78 50 30 3e 73 1a 0d 3f 5a fb 2f 3e 26 f7 f1 3b
       0.17218196 0.55118483 0.17185727 0.0073841987
0003b0 7d 8f 94 bd 5a e4 9b bc e2 c9 d3 bd 11 4e f7 bc
       -0.07253931 -0.019029785 -0.103412405 -0.030188592
0003c0 35 1a 11 be 7a 9f 2f 3d 55 70 73 bd 9e 2b ec be
       -0.14170153 0.042876698 -0.0594333 -0.46127027
0003d0 dc 62 1b bd de 13 fd 3b fb 4c 0a 3d b6 83 81 b9
       -0.037936077 0.0077233156 0.03376482 -0.0002470293
0003e0 92 d4 8d be e8 38 6f be 1d 46 b3 bd 3d 9f 8c be
       -0.2770124 -0.23361552 -0.087536074 -0.2746524
0003f0 a8 ec 7b be 6d c9 36 3d a2 0d b3 bd ca 69 7d 3e
       -0.24601996 0.04462569 -0.08742835 0.24747387

sequential_1/time_distributed/sequential/conv2d_1/Conv2D f4 [64, 3, 3, 32]
000000 6a 14 07 3b 8e ce 01 be 4c d4 a5 bd 8d 06 03 3d
       0.0020611533 -0.1267645 -0.08097133 0.03198867
000010 53 b7 a9 bb 96 26 37 be 21 85 05 bd 16 da a1 3d
       -0.0051793247 -0.17885813 -0.032597665 0.07902925
000020 66 11 3b 3e 87 87 85 3e ac c5 6d 3e d7 49 bb 3c
       0.18268356 0.26079962 0.23219937 0.022862358
000030 45 d0 24 3d 71 bd 8b 3e 28 c5 7e bd 9d 08 ae bd
       0.040237684 0.2729297 -0.06219974 -0.084977366
000040 9a 9c 05 3d e0 fe 78 3e 34 b4 71 3e a1 8a 58 3c
       0.03262005 0.24315977 0.23603898 0.013216645
000050 34 92 34 3e d5 32 40 be 6c 2b 82 be 30 d0 d0 bc
       0.17633897 -0.18769391 -0.25423753 -0.025489897
000060 ae fc 84 3e d7 3d 0e 3d 91 94 b8 bd 6e cb ed 3a
       0.2597403 0.034726944 -0.09012712 0.0018142292
000070 f8 04 1c 3d 03 dc 91 3d 14 dd 74 3e d0 44 1a bd
       0.038090676 0.07122042 0.2391246 -0.03766328
000080 8a 30 f3 3c e4 d0 1a be 50 b5 ab bd 43 fd a0 3d
       0.029686231 -0.15118748 -0.08384192 0.07860806
000090 55 5a fd bd 90 19 c8 be 2a a9 96 be cd 47 cf 3d
       -0.12370745 -0.39082003 -0.29425937 0.10121117
0000a0 60 d4 d6 be 0c ce 26 3e 8c 49 5e 3d 62 0b 78 bd
       -0.41958904 0.16289538 0.05426936 -0.06055773
0000b0 b2 69 81 be 9e e8 b4 3e ca c7 b8 be bc 1d 7f 3e
       -0.25275952 0.35333723 -0.36089927 0.24913687
0000c0 1e e9 b4 3e 3c 21 42 3e ee 42 bd bd 65 08 99 bc
       0.35334104 0.1895799 -0.092412814 -0.01868076
0000d0 75 f1 02 be d6 92 30 3e 0c 4e 3e bf 0e 8b ec bd
       -0.12787421 0.17243513 -0.7433784 -0.1154996
0000e0 c8 ea 26 3e dc c0 f3 3c 28 41 a6 be 1d 0b 0d bd
       0.163005 0.029755048 -0.32471585 -0.034434427
0000f0 03 88 85 be 19 56 16 bd 4a c9 61 3e 6e f4 68 be
       -0.2608033 -0.036703203 0.22049442 -0.22749493
000100 13 90 b8 be 46 bb 8a be 0a ce 13 bf 81 a1 21 be
       -0.3604742 -0.27096003 -0.57736266 -0.15784265
000110 c2 50 15 be 0e f1 34 3e 14 2b 5e bd 3e 9a 01 3e
       -0.14581588 0.1767008 -0.0542403 0.12656495
000120 9a 39 a3 bd a3 69 b2 3e 70 23 0c bf 79 63 c6 bd
       -0.07969971 0.3484622 -0.54741573 -0.09686942
000130 2b 16 91 3d 41 a7 8c 3e 8c eb 99 3e ca 7e dc be
       0.07084306 0.27471355 0.3006252 -0.43065482
000140 2b be 71 be af 5e b0 3d 14 4c 05 3e f0 17 1f 3d
       -0.236077 0.086118095 0.13017303 0.038841188
000150 2c 29 c0 3c c8 4f 2f 3e 1b 6f fa bb 00 75 a0 3d
       0.023457132 0.17120278 -0.0076426393 0.07834816
000160 5f 48 a1 bd 40 26 3f be 86 df b2 3e fe a5 14 be
       -0.07875132 -0.18666935 0.3493616 -0.14516446
000170 c6 1c 82 be 0a 4c 2d be b8 a1 14 bc e9 d7 aa 3e
       -0.25412577 -0.16923538 -0.00907176 0.3336785
000180 5f 5d c2 3d c5 9a 9e bd 66 b6 53 3e a8 57 32 bd
       0.094904654 -0.07744364 0.20675048 -0.043540627
000190 e2 64 81 bc e2 69 d7 3c dc a3 8d bc 53 1a 9d 3c
       -0.015795175 0.026295606 -0.017290048 0.019177591
0001a0 8c 0c ec bd 2f 96 19 3c d5 16 70 3e a9 44 ae bd
       -0.115258306 0.009374185 0.2344621 -0.0850919
0001b0 58 98 31 be a2 a2 a2 3e e0 2c e9 bc 44 e6 ac 3d
       -0.17343271 0.31764704 -0.02846378 0.08442357
0001c0 d9 2b 3c 3e a2 ba 2e 3e f2 e5 bd bc dc 0b 16 3e
       0.18376102 0.17063382 -0.023180936 0.14652961
0001d0 ed 95 82 3d 08 c6 36 3e 3d 63 68 3d 3c 77 b4 3d
       0.06376252 0.1784898 0.056735266 0.08811805
0001e0 83 27 02 bd 13 8d d4 bd 95 4a 00 be 87 6b 15 bd
       -0.031775963 -0.1037847 -0.12528451 -0.0364795
0001f0 93 ee e7 3d 11 18 b5 bb 1c e5 ef bc 9e 4f 27 3c
       0.11324801 -0.0055265506 -0.029284053 0.010211853
000200 76 56 15 bd 72 0b 95 bd 1f 06 52 3e e6 a4 25 3d
       -0.03645941 -0.07277574 0.20510148 0.040440463
000210 08 c9 c8 3c 18 97 d8 be 2f b1 64 3e dd e3 e3 bd
       0.024509922 -0.42302775 0.22333215 -0.11127446
000220 62 3d 91 be 40 18 4e 3d c0 52 38 bd a4 5d f2 3c
       -0.28367144 0.050316095 -0.04500079 0.029585667
000230 8b f4 b2 bd 06 47 f7 3d 7f 2d 9b bd f4 8e 9a 3d
       -0.08738049 0.120740935 -0.07577037 0.075467974
000240 ff 1a 9e 3e ad 81 51 3e 33 76 45 be e8 e4 0e 3f
       0.3087997 0.20459624 -0.1928337 0.55818033
000250 5d be 52 3e 18 a1 53 bb 9d ce 68 be 29 a8 48 3b
       0.2058043 -0.0032292064 -0.22735067 0.003061781
000260 4a b1 45 3d 25 55 2a 3e 4c 54 55 be f0 90 a6 3d
       0.04826478 0.16634043 -0.20832938 0.081331134
000270 b0 63 a9 be 76 14 99 bd 77 8f 0f 3d e6 b4 1c 3e
       -0.33083868 -0.07474606 0.035048928 0.15303382
000280 5e d7 4b be ef 0f cb 3d 8a 58 90 3d bb 92 34 be
       -0.19906375 0.099151485 0.070481375 -0.17634098
000290 0c a7 01 be b7 16 47 be 7c c0 1a 3d 2d 9a b8 3b
       -0.1266138 -0.19442259 0.037781224 0.0056336136
0002a0 d3 e4 4d 3e 2e a7 57 3e 8b 47 23 bc 8c 79 db 3d
       0.20106821 0.21059868 -0.009965788 0.107165426
0002b0 c5 83 11 bd 4e 79 33 3e 03 28 ae bd 3d 38 92 bd
       -0.035526056 0.17526743 -0.085037254 -0.07139633
0002c0 f9 5e bd 3c a0 b7 72 bd a4 47 42 bd b3 ae dc 3d
       0.023116576 -0.05925715 -0.047431603 0.10775509
0002d0 0b e9 74 3c ae 03 9d 3e 65 73 69 3d 21 eb 54 3d
       0.01494814 0.3066687 0.056994814 0.05198205
0002e0 68 f6 65 3e 1c 27 88 bd 61 f2 d9 3d 35 2b 41 be
       0.22457278 -0.066480845 0.10641933 -0.18864138
0002f0 46 11 3e 3e 93 85 1f be 1d ec 72 be ec bd 30 3e
       0.18561277 -0.15578298 -0.23722883 0.1725995
000300 08 39 40 3d 56 eb 06 3e 0e af d2 3d 9c 39 53 3e
       0.04692939 0.13175711 0.10287295 0.20627445
000310 bc d8 bc 3d 14 30 c9 bd 4f bc 39 3e 45 3a 26 be
       0.09221026 -0.09823623 0.1813824 -0.16233166
000320 d0 56 b6 bc 43 03 1e 3e e4 d9 f7 3d 85 b3 ed 3d
       -0.022258192 0.15430932 0.12102106 0.11606506
000330 98 a9 40 be d0 40 08 3e 70 f7 b9 bc 04 ee 91 bc
       -0.18814695 0.13305974 -0.022700995 -0.01781369
000340 32 a5 4e 3e 2c c6 b7 be 47 db a5 3e fd 62 62 3e
       0.20180205 -0.3589338 0.32393858 0.22108074
000350 4e 68 0d bd 87 e5 0a be ff 7b 06 be 9f 56 0a 3d
       -0.0345233 -0.1356412 -0.13133238 0.033774015
000360 82 f5 c9 3d 93 fe 4a 3e 05 e0 cf bc 9c 66 bb 3d
       0.0986128 0.19823675 -0.025375376 0.091504306
000370 cf e7 44 3d f0 f8 d5 3c cd be 3f be 10 5d 09 3d
       0.048072632 0.02611968 -0.18725128 0.033536017
000380 d5 5a 16 3d d2 3f 5d 3e 2b ee 43 be 24 7e 6d 3e
       0.036707718 0.21606377 -0.19133823 0.2319265
000390 31 1b b0 bd a8 a2 12 be bb 18 29 be 01 c7 fc bd
       -0.08598936 -0.14319861 -0.1651334 -0.123426445
0003a0 b0 ad 8d 3d a6 fc 9f 3e 62 f4 0b 3e 0d 52 22 3e
       0.06917894 0.31247443 0.13667443 0.15851612
0003b0 2a db e1 bc 29 36 f7 bd bb 20 8a be b3 24 d0 bb
       -0.027570326 -0.12070877 -0.26978096 -0.006352031
0003c0 f3 89 4c 3e f2 f8 c7 bd c0 4d b2 bd 9d 34 b2 3e
       0.19974498 -0.097642794 -0.08706236 0.34805766
0003d0 8c d4 af b9 3a 86 69 3e a0 fe 6e bc c1 33 89 bd
       -0.0003353696 0.2280511 -0.0145870745 -0.066993244
0003e0 42 a8 18 3e 1e 47 51 3c 96 4d 4a 3d 13 07 31 bb
       0.14907935 0.012773303 0.049390398 -0.0027012273
0003f0 ea 1e 15 3e 42 74 56 be 63 13 1d bd a0 44 e7 3d
       0.14562574 -0.20942786 -0.038348567 0.11292386

sequential_1/time_distributed/sequential/conv2d_2/Conv2D f4 [64, 3, 3, 64]
000000 6e a6 0a bd c7 1f 44 3e d0 55 54 3d 02 ff 8b bd
       -0.033850126 0.19152747 0.05183965 -0.06835748
000010 95 e4 3f bd 12 fc bf bd 49 87 01 3c 75 a4 52 3e
       -0.046848852 -0.093742505 0.00790579 0.20570548
000020 53 3c d0 bd 1d fc 47 3d b3 97 d6 bd 2b 52 af bd
       -0.10167756 0.04882442 -0.10478153 -0.08560594
000030 0d f9 b5 bd ef c5 51 bb 5e e8 06 be 89 82 83 3e
       -0.08885393 -0.0032008847 -0.13174579 0.25685528
000040 bb 0c 70 3d 44 af 50 3d ea 15 14 3e 18 4c b9 3d
       0.05860589 0.050948396 0.14461485 0.09047717
000050 9f d3 58 bd 30 00 f8 bd 61 1e 69 be 76 ce 22 be
       -0.052936193 -0.12109411 -0.22765495 -0.15899071
000060 f7 ae fb 3d 13 27 06 3e 9a 6f 84 3e 72 2c 6e be
       0.12289231 0.13100843 0.25866395 -0.23259142
000070 4c 53 81 3c d9 c5 da bc c2 1b 8b bd 13 18 2c be
       0.01578679 -0.02670567 -0.06792404 -0.16806059
000080 c9 32 77 3e 0b 8b a0 bd 6a aa 8a 3e 63 be 1a 3e
       0.24140467 -0.0783902 0.2708314 0.1511169
000090 bf 15 15 3e 64 d2 68 bc cf 1c 09 3d 05 cc 83 3e
       0.14559077 -0.014210317 0.03347474 0.25741592
0000a0 b1 2e e7 3d 41 f8 e7 3d 9d d0 96 be af 48 a5 bd
       0.112882026 0.113266475 -0.29456034 -0.08070504
0000b0 9e f9 58 be c3 1b 83 3e 5a 35 26 be f1 99 bc 3d
       -0.21188971 0.25607118 -0.1623129 0.092090495
0000c0 c1 6d 8f bc 54 4f d8 3d 01 64 20 3d a0 41 b6 be
       -0.01750839 0.10562006 0.03915787 -0.35596943
0000d0 4c 99 12 be 2d c7 ae 3d 33 35 13 be ae a3 cd bd
       -0.1431629 0.085340835 -0.14375763 -0.10040985
0000e0 60 49 96 3e 60 c6 37 3e de 42 26 bd f5 8c 56 3c
       0.29352856 0.17946768 -0.040591113 0.01309513
0000f0 76 45 cc bd 93 5c 52 be ce 15 00 3e 6f f8 d6 3c
       -0.09974186 -0.20543127 0.12508318 0.02624151
000100 42 e8 85 be f9 4c 97 3d ff 02 1c 3e 38 5d 74 3d
       -0.2615376 0.07387728 0.15235518 0.059659213
000110 48 ae a3 3e 18 9f 87 3e 21 8c 87 3e 95 ab d4 3d
       0.31968904 0.26488566 0.26474097 0.10384289
000120 8e e1 b4 be 32 81 c1 be 04 e2 71 3e 56 0e 16 3e
       -0.35328335 -0.3779388 0.23621374 0.14653906
000130 37 40 21 be a5 e2 b6 3e 5c 8d d4 3d fd 37 8b be
       -0.15747152 0.3571979 0.10378525 -0.27191153
000140 ad be 7d be 4d 1b ce 3d 3d a4 ae 3e ac db a3 be
       -0.24779768 0.10063801 0.3410968 -0.32003534
000150 cc b9 1d be 24 12 e3 be ca c2 9d 3e c5 f1 70 3e
       -0.15402907 -0.44349778 0.30812675 0.23529728
000160 84 06 c9 3d b8 20 7c be cc 26 ce 3e 1a 16 a9 bd
       0.09815696 -0.24621856 0.40263975 -0.08256169
000170 f0 fa be be e1 b5 06 3d 78 5d 7f be d0 75 29 3c
       -0.37300825 0.032888297 -0.24937999 0.01034303
000180 f0 a3 30 be 44 d8 20 be 45 d9 fa be b0 65 97 be
       -0.17250037 -0.15707499 -0.48993888 -0.2956977
000190 3a 3b 07 bd 17 95 17 3e 47 a8 a4 bd 71 4d f4 bc
       -0.033015467 0.14802967 -0.08039909 -0.029822083
0001a0 1e 07 6d 3d 57 0f 9c bd cf 14 e1 bc 97 1e 17 be
       0.057868116 -0.07620113 -0.027475743 -0.14757763
0001b0 65 56 08 be 9a 15 96 3e be b4 48 bd 25 8c 0d be
       -0.13314207 0.29313356 -0.049000494 -0.13822992
0001c0 08 7e 62 3d 3c 6f 62 3e 3b 10 04 3d 41 d2 ab bd
       0.055295974 0.22112745 0.03224204 -0.08389712
0001d0 93 ee c8 be 2b 35 8b 3e 06 01 82 bd cd 2d d0 bd
       -0.39244518 0.27189 -0.063478515 -0.10164986
0001e0 8f 39 4e bd 22 99 8a 3d 79 90 9a be 81 84 a8 3d
       -0.05034786 0.06767489 -0.3018835 0.08228398
0001f0 a2 cc 54 3e 6b 86 08 be 94 1e 81 bd c0 86 cc bd
       0.20781186 -0.13332526 -0.063046604 -0.09986639
000200 49 a0 62 bd d0 bc 1e 3d 18 e8 af 3c 8d 53 79 bd
       -0.05532864 0.038754284 0.021472976 -0.060870696
000210 48 1f 21 bc d7 28 59 bd 10 c9 68 3d a0 05 5c bd
       -0.009834118 -0.053017464 0.056832373 -0.053716302
000220 50 2a 07 3d a4 b6 8f 3d d7 ac 77 bd 11 a6 52 bd
       0.032999337 0.07017258 -0.060467567 -0.051427905
000230 10 48 e3 3c 42 ce c8 bc 40 2b 8e 3d cc ac 6c 3d
       0.027744323 -0.024512414 0.06941843 0.05778198
000240 8e d2 90 bd 76 24 48 bd 84 4a 47 3d dc 30 db 3c
       -0.0707141 -0.048862897 0.048655048 0.026756696
000250 04 71 8b bd 3f b6 4c bd 6f 40 1e bd 88 1d 7e 3d
       -0.068086654 -0.04997849 -0.038635667 0.062039882
000260 c0 b1 92 3d be 7c 2b 3d 80 4d 1b ba fa cd 90 3d
       0.07162809 0.04186701 -0.0005924329 0.07070537
000270 40 87 d1 3a d6 2b 8d bd 48 2b 6e 3c 10 73 6f bd
       0.0015985742 -0.06893127 0.014536686 -0.05845934
000280 a2 05 6a bd 80 d0 a5 3b 40 7a 97 ba c0 6a 13 3b
       -0.057134278 0.0050602555 -0.0011556819 0.0022494048
000290 80 56 e6 3b 58 d5 09 3c 18 85 68 3c 07 7a 08 bd
       0.0070293546 0.0084126815 0.014191888 -0.0333195
0002a0 8a 74 4c 3d 2a 07 04 3d bc ca 8e 3d f0 4e 7f bc
       0.049915828 0.032233395 0.06972262 -0.015582785
0002b0 60 8c 4f 3d 40 58 da 3a 80 6e a2 3c 53 6c 30 bd
       0.05067098 0.0016658381 0.019828081 -0.043072056
0002c0 6e 5b 3e 3d 34 e9 86 bc 92 1c 5b bd 78 0a 12 bc
       0.046473913 -0.016468622 -0.053494044 -0.008913629
0002d0 f3 9c 17 bd a0 2f 7e 3d 9c a1 89 3d 40 19 f0 3c
       -0.037014913 0.062057137 0.06720278 0.029308915
0002e0 82 b3 86 bd 9c 34 98 3c 94 7d 22 3d 98 50 74 3d
       -0.06577207 0.018579774 0.039670542 0.059647173
0002f0 04 2f ad 3c 3a 47 fa bc 2a b5 ea bc 14 f2 8a bc
       0.021140583 -0.030551542 -0.028650839 -0.016961135
000300 29 c5 54 3e 56 1a 7c bd 32 c2 cb 3c a8 c9 0e 3e
       0.20778336 -0.061548553 0.024872873 0.13944113
000310 eb 7b 37 3d b8 9f 4d bd 50 58 5c 3e 5f 6f 73 3e
       0.04479591 -0.050201148 0.21518064 0.23772953
000320 19 c0 cc bc 28 78 cd 3d 06 21 14 3e f5 8a a2 3d
       -0.024993943 0.100326836 0.14465722 0.0793666
000330 0f cb 53 3e 0d ee 31 3e 1a f8 9e bd 03 33 c0 bc
       0.2068293 0.17375965 -0.07762165 -0.023461824
000340 88 b9 b6 bd a2 45 b9 3d 74 93 46 3e 58 90 f2 3d
       -0.08922106 0.090464845 0.19392186 0.11843938
000350 58 61 c7 3d f2 0a 21 be 92 b7 8f be d5 8f 39 3d
       0.09735364 -0.15726832 -0.2806974 0.045303185
000360 5f 7f 9f be e1 96 ae 3c 13 16 8c 3c c7 32 43 3d
       -0.31151864 0.021312179 0.01710037 0.047655847
000370 33 7c c7 bd af 28 2b be b5 20 eb 3d b4 c2 90 3d
       -0.09740486 -0.16714738 0.11480848 0.07068387
000380 56 9d 45 3d 34 24 cb bd e1 5f 97 3d ef 37 26 bd
       0.04824575 -0.099190146 0.07391334 -0.040580686
000390 aa 4f 1f 3d 89 a5 24 3b 5c 5a 07 be ec 4b 24 3a
       0.038894333 0.002512308 -0.13218063 0.0006267417
0003a0 a0 37 3a 3e 8e 11 f2 b9 34 a3 c0 bd 90 8d 00 be
       0.18185282 -0.00046170916 -0.094061285 -0.12554002
0003b0 70 6e 69 bd c2 8e e9 bd 49 b3 e3 3c 90 cb cc 3d
       -0.056990087 -0.11404182 0.02779545 0.09999764
0003c0 29 2f 42 3e 0e 5c 64 bd b4 e4 32 3e f2 23 60 be
       0.18963303 -0.055751853 0.17470056 -0.21888712
0003d0 da 7d a0 3d e6 ac 94 3d 2d e0 95 bd 22 c4 01 3c
       0.07836504 0.0725954 -0.07318149 0.007920297
0003e0 68 4a e5 3d af 16 cf 3e 4c d7 7f 3e 2d 82 9d bc
       0.111958325 0.40446994 0.24984473 -0.019227112
0003f0 4d 4e d7 bd 21 05 87 3d 0f 50 a4 3e ba 6f da bd
       -0.105129816 0.06592775 0.3209233 -0.106658414

sequential_1/time_distributed/sequential/dense/BiasAdd/ReadVariableOp f4 [32]
000000 da b8 b1 be e8 79 9d bb 8f 8f 6a be f8 58 0c be
       -0.34711343 -0.004805792 -0.22906326 -0.13705814
000010 29 73 5d bd 3e 02 b8 bd 3b 82 35 be db f0 97 be
       -0.054064903 -0.08984803 -0.1772546 -0.29675946
000020 dd e1 2e be 83 dd 10 be 56 a3 71 bc 19 89 04 be
       -0.17078348 -0.14147 -0.014748415 -0.12942924
000030 40 aa 35 3b 43 16 00 3d 6d 00 10 be 2e c8 64 bd
       0.0027719885 0.03127123 -0.14062662 -0.05585497
000040 04 a9 c6 bd d4 a3 ed bd 7f 61 60 bd 66 f1 e6 bc
       -0.09700206 -0.11603513 -0.05478048 -0.02819128
000050 63 a6 95 bc d9 ee 63 bd 3f 85 17 bd d1 3e 65 be
       -0.018267816 -0.055647705 -0.036992308 -0.22387244
000060 c2 55 39 be d9 16 cc bd 03 ce 1a be 18 51 cc 3d
       -0.1809912 -0.09965295 -0.1511765 0.09976405
000070 87 29 a4 bd 6a 65 1f be ac 7d 8f bc e6 b2 6d bc
       -0.08015733 -0.1556603 -0.01751598 -0.014507985

sequential_1/lstm/Read_2/ReadVariableOp f4 [64]
000000 c6 51 ae 3d e1 cc 4e bd f8 60 a6 bc 0d 22 f3 3d
       0.08511691 -0.050488357 -0.02030991 0.11871729
000010 d0 47 90 3c 48 79 79 3e d0 fa 56 3e ac 71 4a 3e
       0.017612368 0.24362671 0.20994115 0.19769925
000020 54 14 0c 3e 70 bb 39 3e 1d 90 70 be c0 85 42 3e
       0.1367963 0.18137908 -0.23492475 0.18996334
000030 51 b8 56 3d dd c8 6a be 15 8e 9c 3c 7d 19 16 3e
       0.05242187 -0.22928186 0.019110719 0.1465816
000040 bd 88 7c 3f c1 60 53 3f 1d a2 88 3f 59 f6 56 3f
       0.98646146 0.8256951 1.0674473 0.83969647
000050 d5 92 5e 3f 8f 75 69 3f 49 75 70 3f 5e 36 77 3f
       0.869428 0.91195005 0.9392896 0.9656733
000060 1d af 86 3f ef 84 9a 3f 47 7b 80 3f f7 2d 6a 3f
       1.052219 1.2071818 1.0037621 0.91476387
000070 98 e2 88 3f 0e 82 b1 3f 2d b4 68 3f 92 98 8b 3f
       1.0694151 1.3867815 0.90899926 1.0905936
000080 1c 6b 93 bd 52 7d 87 3d d8 8f 24 be 0d 7e 0c bc
       -0.07198164 0.066157 -0.16070497 -0.008574975
000090 c9 6b 00 3d 9e 3e 23 3e 7f 80 29 be b3 c0 03 be
       0.031352792 0.15941855 -0.16552924 -0.12866478
0000a0 37 ab 88 3e 19 31 0c be a7 f1 98 bd d6 c3 06 be
       0.26693127 -0.13690604 -0.074679665 -0.13160643
0000b0 fa cd fa bc aa b3 72 ba df 34 56 3b 79 7b 95 3e
       -0.030615795 -0.00092583394 0.0032685322 0.29195765
0000c0 d7 4a 95 3d 92 85 2e bd 04 c9 c9 3d f1 be 56 3e
       0.07289665 -0.04260785 0.09852794 0.20971276
0000d0 be 75 c5 3d ab fe a6 3e 35 6d 5f 3e 14 e1 8c 3d
       0.09641598 0.3261617 0.21819003 0.06878868
0000e0 e2 fa e6 3b 7c 05 53 3e c8 33 15 3d a8 de 01 3e
       0.0070489505 0.20607561 0.036426336 0.12682593
0000f0 0f c3 49 3e 58 af 8b ba a3 f5 31 3e f2 b0 a9 3d
       0.19703315 -0.0010657115 0.17378859 0.08285703

sequential_1/lstm_1/Read_2/ReadVariableOp f4 [64]
000000 a7 57 12 be a9 dd c9 3d 9d cd 5a be fc 16 9f 3c
       -0.14291249 0.098567314 -0.21367498 0.01942014
000010 3b 75 38 3d 1e 2a 7a bd 94 a2 61 3d 0a 8c e8 3d
       0.045033675 -0.061075322 0.055086687 0.11354835
000020 ab e8 d5 3e c5 44 ee bc 76 e4 b3 bd 35 4a d1 3e
       0.41779074 -0.029085526 -0.0878381 0.40876928
000030 34 52 6c be bd b5 49 3e b0 22 06 be 55 7f 33 be
       -0.23078233 0.19698234 -0.1309917 -0.17529042
000040 09 c8 70 3f e8 f1 75 3f 3d c9 4b 3f 7a 10 79 3f
       0.9405523 0.96072245 0.7960394 0.97290766
000050 d6 39 8d 3f d6 43 54 3f 85 d2 8f 3f 37 34 83 3f
       1.1033275 0.8291601 1.123612 1.025031
000060 38 7e 83 3f 1b 2c 88 3f 06 b0 91 3f 6b de 88 3f
       1.0272894 1.063846 1.1381843 1.0692877
000070 fe 66 73 3f 8d 18 97 3f 14 b3 6b 3f 27 59 66 3f
       0.9507903 1.1804367 0.92070127 0.89979786
000080 9d a2 0e bd 51 93 b9 3c 74 1c c3 bd f4 dc 39 3c
       -0.03482305 0.022653254 -0.095269114 0.011344183
000090 e0 2a 70 3d dc ac 99 bc 5e 6f ab bd e8 27 e5 3d
       0.05863464 -0.018759184 -0.08370851 0.11189252
0000a0 bb 6d 2e bc c7 a3 73 3d 21 a5 97 3c 33 1a 72 3d
       -0.010646279 0.059482362 0.018511357 0.059107017
0000b0 39 8c fe bc a8 aa b9 bc 52 63 ba bc ce 09 17 3e
       -0.031072723 -0.022664383 -0.022752438 0.14749834
0000c0 ca 98 be bd 39 e6 44 3e 92 75 9b bd d3 37 71 3d
       -0.09306486 0.19228448 -0.07590784 0.05889113
0000d0 12 00 1f 3e aa 6e 54 bd 75 4b 08 3d e6 53 44 3e
       0.1552737 -0.05186335 0.033275086 0.1917263
0000e0 e8 f0 e3 3e 7b 3b 0c 3d ca ed b2 bc 28 f6 18 3f
       0.44519734 0.034236412 -0.021841902 0.59750605
0000f0 36 f7 b5 be a7 fe 73 3c c7 80 53 bd 61 a3 6b be
       -0.3554017 0.014892257 -0.051636484 -0.23011543

sequential_1/dense_1/BiasAdd/ReadVariableOp f4 [32]
000000 69 83 52 3b 84 de 63 bd 24 9c 8b 3d a9 0d 0d bd
       0.0032121784 -0.05563213 0.06816891 -0.034436855
000010 cb f8 4d 3d 6b 3c 51 bc 0a ae e6 3c ff cd b9 3d
       0.050286096 -0.012770752 0.02815916 0.09072494
000020 58 eb 76 bd de 6a e5 3d 1a 05 ca bc cc a0 a7 3d
       -0.060283035 0.11202024 -0.024660636 0.081849664
000030 8c 35 16 be 76 2c c8 3d a8 07 12 3b 03 68 5b 3d
       -0.14668864 0.09774105 0.0022282396 0.05356599
000040 78 ff aa 3d ff 91 e1 bd bf 63 99 3d a2 30 24 3d
       0.08349508 -0.11014175 0.07489728 0.040085442
000050 02 ea 2b bc d3 f2 8c 3c f8 75 54 3d 52 7a bc bc
       -0.0104928035 0.017205631 0.051870316 -0.023007546
000060 8f 74 fe 3b 89 60 73 bd 89 ab 67 3c c4 21 ee 3d
       0.0077653597 -0.059418235 0.014140018 0.11627534
000070 f6 7a a4 bd e7 d9 79 3d 21 f7 61 3d cb 53 72 3d
       -0.080312654 0.060998823 0.05516732 0.059161942

sequential_1/time_distributed/sequential/batch_normalization/FusedBatchNormV3 f4 [32]
000000 ee 47 be 3e 49 9d 28 40 2e 20 0d 40 a1 03 6e 3f
       0.37164253 2.6346 2.205089 0.9297429
000010 d8 3b 8f 3e 88 c6 16 40 49 58 39 3f 8f 44 39 40
       0.27975345 2.3558674 0.7240034 2.8948095
000020 5e b3 f5 40 ef 97 c8 40 11 ab f4 3f d7 8d 92 3f
       7.6781454 6.2685466 1.9114705 1.1449536
000030 3e 6b 9b 40 2e d0 48 41 b9 91 bd 3f a6 f1 03 40
       4.856841 12.550825 1.4810096 2.061624
000040 86 73 91 40 58 42 b1 41 9f d0 88 3f ae 1e 52 41
       4.545352 22.157394 1.0688666 13.13249
000050 b3 78 25 40 0c 10 88 40 5c e1 a3 3f 94 59 59 3f
       2.585492 4.251959 1.2803149 0.8490231
000060 0b ff 21 40 f3 cc 59 3f e5 05 9c 40 09 44 8e 3e
       2.5311916 0.8507835 4.8757195 0.27786282
000070 26 79 4c 40 25 76 21 3f 96 b4 00 42 ba a5 77 40
       3.1948943 0.630709 32.176353 3.8694901

sequential_1/time_distributed/sequential/batch_normalization/FusedBatchNormV31 f4 [32]
000000 08 6c c9 be 6e e8 15 bf 52 fa d5 bd 20 b1 1e be
       -0.39340234 -0.58557785 -0.104481354 -0.15497255
000010 e0 2a 0f be 8c a5 fc be e1 85 00 bf ee 21 c8 bd
       -0.139812 -0.49345052 -0.50204283 -0.097720966
000020 d6 aa 10 be fd d7 e5 bd 2e 70 8d be 1f fd 4d be
       -0.14127669 -0.11222837 -0.2762465 -0.2011609
000030 2d 78 a3 3d c0 f9 76 3b 8b 30 9e be b0 8b be be
       0.07981906 0.0037685484 -0.3089641 -0.37215948
000040 d2 57 c0 be 76 05 b5 be 0c f8 03 be c6 31 a9 be
       -0.37567002 -0.3535573 -0.12887591 -0.33045787
000050 bf bb 80 bf a3 67 4a be 46 c7 90 bd b0 30 47 be
       -1.0057296 -0.19766097 -0.070692584 -0.19452167
000060 3c 53 ab be 2a 62 aa be 2d 38 12 bf 18 de 53 be
       -0.3346194 -0.33278018 -0.5711697 -0.20690191
000070 f1 77 d5 be 3e e7 b9 be 92 bd 85 bf ba 3d 40 bf
       -0.4169307 -0.36309236 -1.0448477 -0.7509419

sequential_1/time_distributed/sequential/batch_normalization_1/FusedBatchNormV3 f4 [64]
000000 8d a7 47 3e 1f 60 91 3e 71 51 60 3e 9b ff 5b 3f
       0.1949751 0.28393647 0.21906067 0.859369
000010 ab 61 b6 3e e9 df 1b 3f 8d bb 80 3e a3 79 f1 3f
       0.3562139 0.60888535 0.2514309 1.8865246
000020 63 50 01 3f d0 00 02 3f bd 97 c0 3e d7 61 89 3e
       0.50513285 0.5078249 0.37615767 0.26832458
000030 15 4e 77 3e 82 31 93 3f 8f 56 a0 3f b7 c9 6d 3f
       0.2415088 1.1499484 1.2526416 0.9288592
000040 2b 62 4e 3f 79 b2 32 3f dd c6 14 3f 04 cb 41 3e
       0.8061854 0.6980358 0.5811594 0.189251
000050 0b 75 1a 3f d0 a2 e3 3f 2e 18 c3 3f bc 2d 8a 3f
       0.60334843 1.7784061 1.5241754 1.0795207
000060 6c 4c 13 3f 80 ac cf 3e 0e eb df 3e 35 f5 5b 3f
       0.57538486 0.40561295 0.4373402 0.8592103
000070 df 5e af 3e cd 3d c8 3e 89 b7 59 3f 28 20 cc 3e
       0.34252068 0.3910965 0.8504568 0.39868283
000080 32 c9 0a 3f 8b df 47 3f 1f 15 2c 3f 1f 26 f6 3e
       0.5421325 0.78075475 0.6721973 0.4807596
000090 ce c9 52 3f 2e 7b 69 3e bd 96 73 3f 34 a3 b2 3e
       0.8233918 0.22800896 0.95151883 0.3489014
0000a0 e2 74 0b 3e cc a8 6d 3e 63 8c a6 3e 2d 62 cc 3f
       0.13618806 0.23208922 0.32528982 1.5967461
0000b0 32 2d 2d 3f fd 03 25 3f 3a 79 04 3f 33 ae 7c 3f
       0.6764709 0.6445921 0.5174748 0.98703307
0000c0 9c ee df 3e 89 1d 93 3e ef 95 1d 3f 35 e2 c2 3f
       0.43736732 0.2873347 0.61556906 1.5225283
0000d0 4d 8d 03 3f 6c 64 9a 3e 24 ba 05 3f c9 16 6a 3f
       0.5138748 0.3015474 0.52237153 0.9144102
0000e0 b7 20 e7 3e 76 26 31 3f 47 d0 fc 3e 9f 81 29 3f
       0.45142147 0.6919931 0.49377653 0.6621341
0000f0 b1 f7 ed 3e f4 86 04 3e 38 df 82 3e 90 b2 f1 3e
       0.46478036 0.12942106 0.25560927 0.47206545

sequential_1/time_distributed/sequential/batch_normalization_1/FusedBatchNormV31 f4 [64]
000000 c5 43 41 bf 14 51 9e be bc d8 98 be ef f8 42 bf
       -0.75494033 -0.30921233 -0.29852855 -0.7616109
000010 73 a2 b4 be 86 bb 61 be 60 37 7b be e1 8f 09 bf
       -0.3528019 -0.22044191 -0.24532843 -0.53735167
000020 dc 08 aa be f4 1f 08 bf 62 78 5f be da 81 43 be
       -0.33209884 -0.53173757 -0.21823266 -0.19092503
000030 4c 3f 54 be 6c de 3d bf 10 dd 2e bf 7b 7a 6a be
       -0.20727271 -0.74167514 -0.68306065 -0.22898285
000040 c3 12 b1 be d0 9d 7f bf ae f5 9e bd bb 9e 23 bf
       -0.34584627 -0.9985018 -0.077617034 -0.6391408
000050 02 02 d0 be da 18 0b bf 60 ef 33 bf f1 fe 49 bf
       -0.40626532 -0.54334795 -0.7028713 -0.78904635
000060 12 bd 0b bf b5 8f ef be 6a 94 17 bf cb b3 0a bf
       -0.54585373 -0.46789327 -0.59210837 -0.5418059
000070 ad b4 ba be a4 04 e7 be 03 48 7e be 87 f5 05 be
       -0.3646597 -0.45120728 -0.24832158 -0.13081942
000080 a6 aa a9 be 41 75 02 bf fc e6 85 bf de 80 09 bf
       -0.33138007 -0.50960165 -1.0461116 -0.5371226
000090 16 67 79 be 2a a4 d8 be ae 1b 91 be dc 39 de be
       -0.2435573 -0.42312747 -0.2834143 -0.43403518
0000a0 55 8b 9f be d2 e8 bc be ea 0c cd be 90 55 30 bf
       -0.3116099 -0.36896378 -0.40048915 -0.6888056
0000b0 36 18 46 bf 0d ca 02 bf 24 24 86 be 2d 61 64 bf
       -0.7738069 -0.51089555 -0.26199448 -0.8921078
0000c0 6a 43 a7 be 9e bb 9f be 9a c4 28 bf 5c 94 6e bf
       -0.3266862 -0.31197828 -0.6592499 -0.9319513
0000d0 6d 1a f4 be f0 a9 7e be 8d 0e 89 be a5 26 03 bf
       -0.4767641 -0.24869514 -0.26768914 -0.5123084
0000e0 ee e9 10 bf 62 3a 0a bf 74 87 15 bf c4 8d f2 be
       -0.5660695 -0.53995335 -0.5840981 -0.47373784
0000f0 c6 bc 4a be 3c 70 18 bf b6 21 73 be 7b 86 22 bf
       -0.19798574 -0.59546256 -0.23743328 -0.6348645

sequential_1/time_distributed/sequential/batch_normalization_2/FusedBatchNormV3 f4 [64]
000000 9c e3 27 3e 71 aa 4d 3e d3 04 46 3e 89 2e 96 3e
       0.1639542 0.2008455 0.19337778 0.29332379
000010 2f c7 f9 3e 88 c1 da 3e 28 5f 97 3e a9 60 df 3e
       0.48784778 0.42725778 0.29564786 0.43628433
000020 94 d0 f0 3e 1f bd 25 3e 50 7e 2c 3f 43 e3 d8 3e
       0.47034132 0.16185425 0.6738024 0.42360887
000030 73 7f 6b 3e 27 30 bb 3e 5f 51 1c 3e ae ff 33 3f
       0.22997837 0.36560175 0.15265416 0.7031201
000040 20 5e 14 3f b0 40 8f 3e ff 86 bc 3e 63 85 12 3f
       0.57956123 0.2797904 0.36821744 0.5723478
000050 8f 7a b6 3f b8 d6 86 3e 3f 05 5b 3f 5d 6f 31 3f
       1.4256152 0.26335692 0.8555488 0.6931055
000060 92 b8 f9 3e 9f 57 c3 3e bc 32 c8 3e c5 02 84 3e
       0.48773628 0.38152787 0.39101207 0.25783363
000070 c7 8c 17 3f cb 8a a7 3e 64 22 02 3f 21 90 17 3f
       0.59199184 0.32723078 0.50833726 0.592043
000080 dc 7c bc 3e 77 70 dd 3e 10 42 1b 3f ea d5 db 3f
       0.3681401 0.43249866 0.6064768 1.7174656
000090 fd 5a f4 3d b2 20 9c 3e fb bc ac 3e 56 75 16 3f
       0.11931417 0.30493695 0.3373793 0.5877279
0000a0 b8 3f 52 3e a8 d6 7b 3e b2 89 bc 3e 78 15 22 3e
       0.2053212 0.24593604 0.36823803 0.15828502
0000b0 61 7e f9 3e cc 11 09 3f c2 c9 de 3e ea 63 97 3f
       0.48729232 0.5354278 0.43513304 1.1827366
0000c0 79 76 03 3e 2f 3b 09 3f 2f f7 f7 3e d5 c2 50 3e
       0.12838162 0.5360593 0.48430774 0.20386823
0000d0 1d 6b 2c 3e 27 e5 cd 3e e8 39 d3 3f aa 92 fb 3e
       0.16837735 0.40213892 1.6502047 0.49135333
0000e0 eb b1 83 3f 59 5f a4 3d 55 49 ba 3f 00 a2 17 3e
       1.0288671 0.080259986 1.4553629 0.14807892
0000f0 ec d1 f7 3e b2 d0 c6 3e f3 b4 15 3f 9b 3d b7 3e
       0.48402345 0.38831097 0.5847923 0.3578919

sequential_1/time_distributed/sequential/batch_normalization_2/FusedBatchNormV31 f4 [64]
000000 00 4a d5 be 3f 7c b5 be fc 11 2a bf 95 96 1c bf
       -0.4165802 -0.35446355 -0.6643369 -0.6116727
000010 da 57 9b be 4e 92 f6 be 76 59 fc be c2 16 02 bf
       -0.30340463 -0.48158497 -0.49287003 -0.50815976
000020 f2 4b 50 be 79 7d fe be 48 26 b8 bd 40 00 05 be
       -0.20341471 -0.49705103 -0.089916766 -0.12988377
000030 38 79 a3 be c4 b4 88 be 2a 0e 50 bf 80 f7 c1 3c
       -0.3192842 -0.26700413 -0.8127161 0.023677588
000040 42 93 a5 be 9c bf 55 bf d9 e3 07 bf ec b9 2f bf
       -0.3233891 -0.834955 -0.5308204 -0.6864307
000050 ce f5 65 be 1f e1 04 bf 00 0d 25 bd 88 58 9b be
       -0.22457048 -0.5190601 -0.0402956 -0.3034098
000060 d6 f4 5b be 24 5a 95 be 82 cf a0 be f5 d7 fb be
       -0.21480116 -0.29170334 -0.31408316 -0.491882
000070 78 4f 09 bf 84 fc 89 be 1f ed 6d be 3c 79 bc be
       -0.53636885 -0.26950467 -0.23234986 -0.36811244
000080 82 fd 9c be fa 20 f8 be c7 a7 a0 be b4 28 f2 bd
       -0.3066216 -0.4846266 -0.31378004 -0.1182417
000090 20 b2 8d be 48 87 f4 be 6a 5a 95 be f3 38 42 bf
       -0.2767496 -0.4775946 -0.29170543 -0.7586815
0000a0 40 d6 09 bf 05 c0 5b bf 35 4e b9 be 9c 4b 37 bf
       -0.53842545 -0.85839874 -0.3619248 -0.71599746
0000b0 dd 87 19 be 49 66 1d be 02 94 e9 be 28 b4 09 be
       -0.14993234 -0.1537105 -0.45620733 -0.1344763
0000c0 fd e0 28 bf 2d ea 55 be 83 fc 2b bf 7c 79 49 bf
       -0.65968305 -0.20890112 -0.6718218 -0.78700995
0000d0 be 61 dd be 40 9f 83 be d7 fb 14 be 78 a9 0a bf
       -0.43238634 -0.25707436 -0.14549194 -0.5416484
0000e0 58 62 27 bc f3 8c 18 bf 5b 6e 8c bd ba 00 35 bf
       -0.010216318 -0.5959007 -0.06856986 -0.70704234
0000f0 85 55 c5 be 02 56 3a be 2e b7 48 be 58 5e 02 bf
       -0.3854181 -0.18196872 -0.19601128 -0.5092521

sequential_1/time_distributed/sequential/dense/MatMul f4 [32, 64]
000000 45 ce 54 be 75 ac 32 3e 83 6c 43 be 65 04 a8 3e
       -0.2078181 0.174486 -0.19084363 0.32815853
000010 75 45 74 3e 6a 6a 89 3a d5 1b 0d 3e 76 17 7e 3e
       0.23854621 0.0010483984 0.13780148 0.24813637
000020 32 5a 88 3c 1a 3a 19 3e b0 dd d2 be 82 66 9d bd
       0.016644571 0.1496357 -0.4118476 -0.076855674
000030 3c ed f4 3d 40 28 4a be b1 d0 74 bd 44 e6 6d be
       0.11959311 -0.19741917 -0.059769336 -0.2323237
000040 52 a5 93 be aa ff 79 bd 00 0f e8 bc 6d ca a9 3e
       -0.28837067 -0.061034836 -0.028327465 0.3316225
000050 17 0c a8 3d ec 01 b0 3c 33 4f 98 bd eb 42 d5 3e
       0.08205431 0.021485291 -0.07436981 0.41652617
000060 f8 6c d9 bc 86 07 14 be 8e f2 66 be 2f 06 e0 bd
       -0.026541218 -0.14455995 -0.22553465 -0.109386794
000070 6e 03 e9 3e 2c bb 82 3d 2f 5f d6 be 12 0f a9 bc
       0.4551043 0.063833565 -0.41869494 -0.020637069
000080 41 fe 8f be f4 90 30 be f9 f7 98 be d1 05 ac bd
       -0.28123668 -0.17242795 -0.29876688 -0.08399547
000090 eb b6 94 be 06 7f b9 3d fd d9 20 bd 3b 13 9a 3e
       -0.29045805 0.09057431 -0.03927039 0.30092797
0000a0 61 67 66 3d 32 4e c3 3d ef 64 c1 3c b4 03 f3 3c
       0.056250934 0.09536399 0.0236077 0.029664852
0000b0 83 64 8e be 45 cb b5 be 7f 8b 4a 3e 0e 8c e7 3c
       -0.2781106 -0.35506645 0.19779776 0.028265025
0000c0 ee 62 a0 be e7 27 68 be e6 7d 84 be dc 64 8e be
       -0.31325477 -0.22671472 -0.25877303 -0.27811325
0000d0 71 e2 88 bd 97 03 eb 3d f2 44 89 3c 1b c0 8f be
       -0.06683815 0.11475294 0.016756508 -0.28076252
0000e0 c6 b6 86 3d dd c8 8d bc c9 dd 10 3e 6f 57 98 bc
       0.0657783 -0.017307693 0.14147104 -0.01859638
0000f0 ff 09 5b 3e e3 63 89 bd 00 a0 80 3d 8e 18 7e 3e
       0.21390532 -0.06708505 0.062805176 0.24814054
000100 32 a4 22 be 89 e8 6a 3e 93 79 c5 3d fd b8 b3 3e
       -0.15882948 0.22940268 0.09642329 0.35102072
000110 bd 70 26 be c4 3e 90 3a cb 21 c5 3d 87 d6 56 be
       -0.16253944 0.0011005034 0.09625586 -0.20980273
000120 13 0b 64 be 3d 50 aa 3d 9a 92 95 be 83 2d 69 3e
       -0.2226985 0.083160855 -0.2921341 0.22771268
000130 f2 cc 9b be b1 0d 90 be f3 d7 b7 be 1f 53 64 be
       -0.30429798 -0.28135446 -0.35906944 -0.22297333
000140 f5 61 e0 be f7 d1 42 3e d5 0e 1a bd 13 02 93 3e
       -0.43824735 0.19025408 -0.0376118 0.2871252
000150 e7 1a bb bd fd e5 f6 3d c7 e5 db 3c bb 9a 8c 3e
       -0.091359906 0.120555855 0.026842965 0.274618
000160 62 b6 d8 3d f5 24 ac be ca 83 66 be e5 a6 b1 3c
       0.10581662 -0.33621946 -0.22511211 0.021686027
000170 e8 99 b0 3e 04 dd dc 3e 21 50 79 be 7e 71 86 be
       0.3449242 0.43137372 -0.24346973 -0.26258463
000180 05 c3 0d be 55 8f 83 be a0 56 db bd 1b 80 da 3d
       -0.13843925 -0.2569529 -0.10709882 0.106689654
000190 4a c7 d5 3d c9 94 1c 3e e7 ec 20 3e ad 89 86 3e
       0.10438402 0.15291132 0.15715371 0.26276913
0001a0 76 1f 16 3e 85 d7 80 bc da 77 a1 3d e7 90 2f 3c
       0.14660439 -0.015727768 0.07884188 0.0107157
0001b0 28 0e 63 be c6 0d 69 be 37 93 2b be c4 e8 4e be
       -0.22173369 -0.2275916 -0.16755377 -0.2020598
0001c0 b0 c9 ba 3c 12 65 77 be d6 c5 ce be 5d 2c 02 be
       0.02280125 -0.24159649 -0.40385312 -0.12712236
0001d0 4e 12 40 3d f5 95 aa bb 9b 4e af 3e 20 f6 c9 be
       0.046892457 -0.0052058646 0.3423966 -0.3944559
0001e0 e7 32 e0 bd eb 22 04 3d f6 c1 93 be 81 94 6c 3e
       -0.10947209 0.032259863 -0.28858918 0.23103525
0001f0 b0 77 95 3e 44 92 f2 bc 87 ec 00 3e d0 64 10 3d
       0.29192877 -0.02961076 0.12590228 0.035252392
000200 09 a3 b6 be 27 11 90 be f0 11 3d 3e 01 ae 9f 3e
       -0.3567126 -0.28138086 0.18463874 0.31187442
000210 d6 b9 03 bd c7 06 7e be 4e be 8a bd 74 99 98 bd
       -0.03215965 -0.24807273 -0.06774579 -0.07451144
000220 92 de bf 3d fa 26 0b bf 1d 8b f5 bd ff 7a a9 be
       0.09368624 -0.5435635 -0.119894244 -0.3310165
000230 54 4b 8b bc bf bc 54 bc df 2c 8a 3e 28 5b 37 3d
       -0.017003693 -0.012984454 0.2698736 0.044764668
000240 58 87 d0 3c 7b 84 e0 3d b4 38 71 3d 30 8b 3d 3e
       0.025455162 0.10962769 0.058891967 0.18510127
000250 99 76 6c be ce ab 9f bd 3f 73 a9 bd ec b3 4f be
       -0.23092116 -0.07796441 -0.082739346 -0.20283478
000260 fa 05 de be 6b 02 99 3d af 8f bc 3e 98 73 6e 3e
       -0.43363935 0.07471164 0.36828372 0.23286283
000270 ba be 56 3e ff bc f8 bd a2 e1 79 3d 63 ad 3d be
       0.20971194 -0.12145423 0.061006196 -0.18523173
000280 6e f5 c5 3c 29 48 75 be d1 03 e3 bc 44 49 1b be
       0.024164882 -0.23953308 -0.02771178 -0.15164667
000290 b0 d3 2e 3d 69 c1 43 3e 7b c7 7f be 4d 89 80 be
       0.04268235 0.19116749 -0.2497844 -0.25104752
0002a0 42 cc 36 3e 9a e1 24 bd 29 1f c1 3d bb 0d 43 3e
       0.17851356 -0.040254213 0.094297715 0.19048207
0002b0 fb 3f 9a 3c 44 5e a2 3d a7 24 42 3e b3 8b e2 3d
       0.018829336 0.07928136 0.18959294 0.11061802
0002c0 c2 27 67 bd 87 44 8a 3e 6a 90 eb bd 92 54 80 3e
       -0.0564344 0.27005407 -0.11502154 0.25064522
0002d0 b5 88 4a 3e 24 1b 36 3e 13 ec 0f bc 40 a4 ad be
       0.19778712 0.17783791 -0.008784312 -0.33914375
0002e0 32 85 d0 bd 5d 14 23 be ef 5d e7 3d ce b7 30 be
       -0.10181655 -0.15925737 0.11297213 -0.17257616
0002f0 a6 a6 17 bd 9b af 3b bd 7f bd 78 bc b3 9a 20 be
       -0.037024163 -0.045821767 -0.015181898 -0.15684013
000300 10 92 5f be 75 57 87 3d 00 96 57 3e 0b d1 14 3e
       -0.21833062 0.06608478 0.21053314 0.14532869
000310 a2 81 64 3d 6c c8 20 3f c1 b2 5c 3e c4 3a 89 3e
       0.05578769 0.6280582 0.21552564 0.26802647
000320 f5 8b e2 bd f0 0f d1 3d 29 17 d6 bd 29 36 25 3e
       -0.11061851 0.10208118 -0.10453636 0.16133942
000330 3d 95 a6 3e 66 d7 c1 3e 24 be 1e be ea 7a 34 3e
       0.32535735 0.37859648 -0.1550222 0.17625013
000340 01 1a b5 bc f9 98 65 bd 74 2c b2 bd dc 1e 58 be
       -0.022107126 -0.05605409 -0.08699885 -0.21105522
000350 f4 25 67 3c 78 f8 48 be b8 53 3a 3e 8e e8 bc 3e
       0.01410817 -0.19626033 0.18195999 0.36896175
000360 69 8d 64 3e d4 a8 1e be 1d a1 92 3e 99 3b 9c be
       0.22319569 -0.1549409 0.28638545 -0.3051422
000370 50 cd ca bd e3 5e c5 bd ac 7c eb bc 53 53 81 be
       -0.099024415 -0.09637239 -0.028745972 -0.25258884
000380 f2 59 dc 3e 21 62 2e 3e d5 23 31 bd 17 89 ca 3d
       0.43037373 0.1702962 -0.043247063 0.09889429
000390 55 89 b7 bd 0b 77 da bd 91 bb f8 ba 9e af a5 3e
       -0.08961741 -0.10667237 -0.0018976798 0.32360548
0003a0 f7 1a ae 3d 5e a7 0a bf 9b fd 72 bd e2 65 93 be
       0.08501237 -0.5416163 -0.05932389 -0.28788668
0003b0 4e aa 11 3e 45 22 91 bd 03 ad 82 3e 4f c3 3e 3e
       0.14225122 -0.070866145 0.25522622 0.18629192
0003c0 3a da 1e bc f2 8a 7d be 62 17 12 be 69 e8 94 be
       -0.009695584 -0.24760035 -0.14266732 -0.29083565
0003d0 a1 f7 12 be 9f 16 71 3c 42 24 0b 3a 9a cf bd bd
       -0.14352275 0.014714866 0.0005307832 -0.092681125
0003e0 a0 83 1e 3e 2a c2 a7 3c 2c 70 37 3e 4c 47 fe bd
       0.15479898 0.020478327 0.17913884 -0.124159425
0003f0 0a 74 56 bd 54 6a ce 3c bd b9 16 3d cb c9 94 bd
       -0.052356757 0.025197186 0.036798228 -0.072650515
