models/model.tflite (tflite, 586292 bytes, 17 tensors)

sequential/conv2d/BiasAdd/ReadVariableOp f4 [32]
000000 ca 20 0e 3e 35 29 05 3d 04 e5 06 3d 45 fb 98 3d
       0.13879696 0.03251 0.03293325 0.07469801
000010 fc 79 43 3c 78 3f c0 3c 57 25 51 3d f5 d9 26 3d
       0.011930939 0.023467764 0.051061 0.040735204
000020 8d 56 d7 3d f9 4b 25 3e 59 e1 97 3c f6 4d 6e b9
       0.10514555 0.16142263 0.018540071 -0.00022726491
000030 68 6b 35 3e a0 1a e4 3c cc 30 1e 3c 1a 93 72 3d
       0.17716753 0.027844727 0.009655189 0.05922232
000040 1c 7e cd 3d b4 a9 02 3d e5 e9 c9 3d b7 aa 13 3d
       0.10033819 0.031900123 0.09859065 0.03605148
000050 02 03 e0 3c 5c 35 ef 3d 3b eb b4 3b 8e a5 e5 3c
       0.027345184 0.11680099 0.0055212057 0.028033044
000060 2d 2d b2 3d 25 78 57 3d 8d 1b de 3a 31 40 19 3e
       0.08700023 0.052604813 0.0016945467 0.14965893
000070 4b 28 14 3d 3b 7a 11 3d 20 c1 a8 3d 59 26 aa 3d
       0.03617124 0.03551696 0.08239961 0.083080955

sequential/conv2d_1/BiasAdd/ReadVariableOp f4 [64]
000000 50 c7 1d bd 19 e6 ae bd 12 84 56 3d 35 32 aa ba
       -0.038520157 -0.085399814 0.052372046 -0.0012984934
000010 60 cf ee bc 4e 2b 99 3d dc 13 73 3d 9b 8b 8e 3b
       -0.029151618 0.07478963 0.05934511 0.0043501384
000020 44 30 10 3d ec 2d a9 3b 0c 0d 2b be 9d 1c 6b bd
       0.03520228 0.005162945 -0.16704196 -0.057400335
000030 43 f7 55 3d b9 11 8f 3d 53 07 fb 3d ad c9 9a bb
       0.05223776 0.06985802 0.12257256 -0.0047237487
000040 78 0d 2a 3d 43 17 ba bd 72 3a 00 3e ff 46 17 bd
       0.04151675 -0.09086468 0.12522295 -0.03693294
000050 cc 74 17 bd 85 21 98 3d 18 5c 0a bc c4 53 b1 bc
       -0.03697662 0.07428268 -0.008444808 -0.021646388
000060 b6 85 af bd 9e 71 00 bd 79 1c 0d b9 da 4f 13 be
       -0.08570425 -0.031358354 -0.00013457415 -0.1438593
000070 46 4b 67 3d d7 cd e5 ba 72 ed 29 ba 05 9d 0c 3e
       0.05646827 -0.0017532659 -0.00064822205 0.13731773
000080 87 d7 d2 bc a0 60 b3 3d bc e6 a3 bd 48 cf 68 3c
       -0.025737537 0.08758664 -0.080029935 0.014209576
000090 01 36 b9 bd 64 4a 78 bd 45 68 07 be 47 32 99 bc
       -0.090435036 -0.06061782 -0.1322337 -0.018700732
0000a0 37 e4 25 3d 62 0e a4 bd 34 ad de bc f8 f5 f3 bb
       0.040500846 -0.08010556 -0.027182199 -0.0074450932
0000b0 fc 09 85 3d 81 ce dd 3b ec aa c0 3c 78 79 a3 bd
       0.06496045 0.006769002 0.023519002 -0.07982153
0000c0 90 bf 1d 3c 4d 22 0c ba e2 17 96 3d fc b0 9f 3c
       0.009628192 -0.00053456874 0.07328774 0.019493572
0000d0 1f 8e 18 3d 1f 2e d9 bc 6d dc aa 3c e6 ff 14 bd
       0.037244912 -0.02651125 0.02085706 -0.036376856
0000e0 12 57 93 bd 95 ea f2 bd 8a 49 a7 3d 49 80 7f bb
       -0.07194342 -0.11861149 0.08168323 -0.0038986376
0000f0 26 83 24 3d d7 ba 0f bd 28 1e a1 3d 04 90 c8 bd
       0.040164135 -0.035090294 0.0786708 -0.09793094

sequential/conv2d_2/BiasAdd/ReadVariableOp f4 [128]
000000 7f 55 80 bc 57 74 e1 bd 86 fe 47 bd b3 9b 7d bd
       -0.015665768 -0.11008518 -0.048826717 -0.061916064
000010 85 2b d5 3d 20 16 03 be 24 dc a0 3b d0 9a 09 3d
       0.10408691 -0.12801409 0.0049090553 0.033594906
000020 05 03 30 3d 20 94 37 be f1 eb e6 bc 2b e7 1a bd
       0.04297163 -0.17927599 -0.028188678 -0.037818115
000030 f0 ee 2c 3c 98 7c 1f bc 05 f9 fb bb 5a bb 04 3d
       0.010555014 -0.009734295 -0.0076895976 0.032405235
000040 90 ac a1 3c d2 51 a4 bb cb 47 73 3d 6a e4 df bc
       0.019735605 -0.0050146366 0.05939464 -0.027330596
000050 e3 a0 c1 bd e7 72 35 be fc c0 5c bd 8c da 7c 3b
       -0.09454515 -0.17719613 -0.05389498 0.0038582413
000060 1d 9a 55 bd db 0e 84 bc d8 2d ff bc 94 a7 59 3d
       -0.052148927 -0.016120365 -0.03114979 0.05313833
000070 e2 99 1d 3c c4 d4 17 3d 4c 28 31 be 57 86 e2 bc
       0.009619208 0.037068143 -0.17300528 -0.027651949
000080 37 76 0d 3d 64 0d aa 3d f2 eb 74 3d a5 ad 00 be
       0.034536567 0.08303335 0.059795327 -0.1256624
000090 ec 09 af 3d 5a 26 6b bd 0e a9 ec bc 11 06 97 bd
       0.08546814 -0.05740962 -0.028889205 -0.07374204
0000a0 df 88 45 bc 98 83 36 3d 8f ec f7 3c 1b 4b 12 be
       -0.012056558 0.04455909 0.030264167 -0.14286463
0000b0 f2 dd b1 bb 84 03 88 3a c0 2d b2 3c 88 ef 2d be
       -0.0054280693 0.0010377024 0.02175033 -0.16985905
0000c0 aa c6 57 3d 24 3a a3 3d f3 3a 11 be ef 91 ce bc
       0.052679695 0.07970074 -0.14182644 -0.025216071
0000d0 8d 0d 3b 3c 8d 01 df 3c 13 5f 8a bd c4 5c dd bc
       0.011416805 0.02722242 -0.06756415 -0.027021773
0000e0 d3 e0 11 bd d2 4f 57 3d b1 8a b1 3c 89 81 9b 3c
       -0.0356148 0.052566357 0.021672579 0.018982666
0000f0 91 00 c6 bd ee 9e 8d bc a5 b4 90 bd 56 3d d6 bc
       -0.09668077 -0.017287698 -0.07065705 -0.026152294
000100 2d d6 cf bb 14 6d f0 bd 26 35 94 bd a9 aa 2f bd
       -0.0063426704 -0.11739555 -0.072367 -0.042887364
000110 03 b7 09 3d 07 1f 90 bd 9a d7 65 bd f0 46 04 be
       0.0336218 -0.07037168 -0.056113817 -0.12917686
000120 14 0d fc 3c 26 9c bd bd 43 94 0a be 73 66 27 3c
       0.030767955 -0.092582986 -0.1353312 0.010217297
000130 77 5b dd bd 0d 68 75 bd 7d c7 11 3c 7e af a7 bd
       -0.10808461 -0.059913684 0.008897659 -0.08187769
000140 92 dd 41 bd 92 94 cb bd 10 24 b9 bd b6 22 19 bc
       -0.047330447 -0.09940447 -0.090400815 -0.009346655
000150 95 8e 61 bd b2 22 c1 bc 7b 04 de bc a8 92 07 3e
       -0.055067617 -0.023576114 -0.027101746 0.13239539
000160 d7 31 d5 bd ce 11 fb 3c 00 84 00 bd 6a ac 8e bd
       -0.10409897 0.030648138 -0.031375885 -0.06966479
000170 ad df fa bc 35 b7 3b bd 94 1e 10 bd e7 31 3d 3b
       -0.030624235 -0.045829017 -0.03518541 0.0028868855
000180 af 40 eb 3a 9b 4c 0c bd b0 71 08 bd 9a d8 36 bd
       0.0017948354 -0.034252744 -0.033311546 -0.04464016
000190 c5 2c 07 bc 0d 91 0e be 45 11 2d bd 6d 34 8a bd
       -0.00825042 -0.1392252 -0.042252798 -0.06748281
0001a0 a6 1e 92 bc 12 a6 0f 3d e1 3a 9a bd 48 0a bd bc
       -0.01783688 0.035070486 -0.075307615 -0.023076192
0001b0 ca e5 fe bc f0 3e 2b bd 96 f7 86 bd 3d 5a e3 bd
       -0.031115431 -0.04180807 -0.06590192 -0.11101196
0001c0 51 71 ff bc c5 04 37 3d 89 58 61 bd 20 4d c3 bd
       -0.031181963 0.044682283 -0.055016074 -0.09536195
0001d0 d0 de 78 bd fc 94 86 bd 8a eb ac bc 66 10 14 bc
       -0.060759366 -0.06571385 -0.021108408 -0.009037113
0001e0 1d 09 8a bc 9b c2 f0 3c 32 a7 84 bb 9a 0d 07 3d
       -0.016850049 0.02938967 -0.0040482515 0.032971956
0001f0 b6 0b 10 be ab 00 a5 3b f7 7d 8a 3c 81 31 15 bc
       -0.14066967 0.00503548 0.016905768 -0.009106041

sequential/conv2d/Conv2D f4 [32, 5, 5, 1]
000000 7e 41 0f 3d 67 3a 32 bd 16 c3 97 3d e5 a2 fb bc
       0.034974568 -0.043512728 0.074102566 -0.030717323
000010 38 f8 ad 3c e2 6b 89 3d f3 34 78 bd 40 9c ee bd
       0.021236524 0.0671003 -0.06059737 -0.11650896
000020 3d f6 80 bb 9a ec bc bc 8d b2 d2 bc e9 15 13 be
       -0.003935604 -0.02306204 -0.025719905 -0.14363827
000030 8e a0 e5 bc ef 5d f2 bd 8a 68 93 3c 3f 7c 52 3d
       -0.02803066 -0.11834323 0.017994184 0.05138802
000040 9f 3e 4a be a5 8f 82 bc 21 ec fb bd 96 8b 72 bc
       -0.1975045 -0.015937636 -0.123008974 -0.014803788
000050 e5 7e 01 bc 17 fb 29 3d 66 bf b6 3d 65 2f 1c 3e
       -0.007903789 0.041499224 0.08923225 0.15252455
000060 db cd db 3d c0 68 16 3d bf 9a c1 3d f2 8b e9 3d
       0.10732623 0.03672099 0.094533436 0.114036456
000070 c6 b1 dd 3d 77 e3 19 3e 9c b8 b3 bd 43 ad fc bd
       0.10824923 0.15028177 -0.08775446 -0.123377346
000080 61 19 9b bd c2 3b d3 3c 6f f7 4c 3d a4 0c e0 bd
       -0.075732 0.02578533 0.05004066 -0.10939911
000090 14 2f 9c bd 3c 94 a2 3c c3 0d 06 be f2 59 0d 3d
       -0.07626167 0.019846074 -0.13091187 0.034509607
0000a0 1c 57 91 bd 02 c3 65 bd 70 3d e3 bd ab 6e c4 3c
       -0.07096693 -0.056094177 -0.11095703 0.023978552
0000b0 68 4d a7 bd 03 d1 b0 3c c8 77 4d bc 56 e1 b3 3d
       -0.08169061 0.02158404 -0.012540765 0.08783214
0000c0 06 06 1c bc 57 23 95 3c 37 fd 51 3d 8f 84 43 bc
       -0.0095229205 0.018205328 0.051266875 -0.01193346
0000d0 c1 3d a4 bd aa 56 12 3e 8a b2 a8 3d 1d 53 79 3d
       -0.08019591 0.14290872 0.082371786 0.06087028
0000e0 c2 97 94 bc cf 37 b4 bd e0 a2 5d bd 01 76 be bb
       -0.01813877 -0.08799707 -0.054110408 -0.005812407
0000f0 1c 17 12 bb f1 23 1d bd 46 dd 10 be 64 b6 4b bd
       -0.0022291606 -0.038364355 -0.14146909 -0.049734488
000100 23 b5 92 3d a3 ef 7b bd 79 b4 46 be c4 1a fb bd
       0.07163455 -0.061507832 -0.19404782 -0.122609645
000110 6f 58 38 3d c5 39 29 bc 2f 50 6a bd ac d3 33 be
       0.04500621 -0.010328715 -0.057205375 -0.17561215
000120 f7 5a 09 be 74 82 bc 3d bb b4 01 be 35 f4 ee bd
       -0.13413607 0.092045695 -0.126666 -0.116676725
000130 13 ef 91 3c cd af 0e be 44 a6 5e be 3e cc 0f be
       0.017814195 -0.1393425 -0.21743113 -0.14042756
000140 f0 7f 9d bd 0a e7 bf 3c df fe 71 3c b8 3f f8 bd
       -0.07690418 0.023425598 0.014770239 -0.121215284
000150 49 8b 04 be 26 06 c8 bc e9 5c 42 bc 6e d7 c8 3c
       -0.12943758 -0.024416994 -0.011862972 0.024516787
000160 18 54 94 3d 5f 8d 92 bd 00 a1 8a 3d 54 e1 23 bd
       0.07242602 -0.07155871 0.067689896 -0.04000981
000170 ac e8 0a be 71 bf 06 be 21 6c cc bc e7 03 91 3d
       -0.1356532 -0.13158967 -0.024953904 0.070808224
000180 96 c0 bd 3d a8 38 04 3e 7f a6 da 3c d2 02 1e bc
       0.092652485 0.12912238 0.02669072 -0.009644227
000190 aa 7d e0 3d 50 0b 12 bd 4e 4f f5 3c 29 92 c4 3d
       0.109614685 -0.03565532 0.029945042 0.0959819
0001a0 1e 7d 08 3d 6a 6d 8c bd d2 db 26 be 79 ed 9a bd
       0.033322446 -0.068568066 -0.16294792 -0.075648256
0001b0 e3 f2 2a bc 7b 23 a8 bc 98 8f b1 3c ae 3b 19 be
       -0.010433885 -0.02052473 0.021674916 -0.14964172
0001c0 ab da 60 bd a0 e2 4d be 8d db 34 be a3 61 34 bd
       -0.054896038 -0.20105982 -0.17661877 -0.044038426
0001d0 40 b8 76 3b 62 a9 02 3d a4 ce 89 3c 27 cb ad 3d
       0.0037646443 0.031899817 0.016822167 0.08486014
0001e0 4c 68 09 bd e4 9c 09 be 72 eb 92 bc aa e2 81 3d
       -0.03354673 -0.13438755 -0.017934535 0.06342061
0001f0 8f de c4 3d ed 53 f0 3d 39 d6 88 3d 4d 5a 2c be
       0.09612762 0.117347576 0.06681485 -0.16831322
000200 50 e3 c0 bd bb ed 88 bb 1c 65 38 be 4a ca 36 be
       -0.094183564 -0.0041787303 -0.1800732 -0.17850605
000210 68 30 2a be 95 07 11 be 7d b4 8c 3d eb 83 4a 3d
       -0.16620028 -0.14163049 0.06870363 0.049442213
000220 69 3d 5f 3b a9 57 f0 bd c9 2a 76 bd 68 7d 38 3d
       0.0034063703 -0.1173547 -0.060099397 0.04504147
000230 2d 9e 7d 3d a1 a9 d5 3d bc 90 62 bd b1 c8 64 3d
       0.061918426 0.10432745 -0.05531381 0.055855457
000240 3c 57 05 3e f1 ef b1 bc 70 c0 65 3d 60 16 78 3d
       0.13021559 -0.021720858 0.056091726 0.060568213
000250 c1 ab 8e 3c 17 11 0f 3d ae fa 09 be 20 ab f1 3c
       0.017415883 0.034928408 -0.13474533 0.029500544
000260 10 bf dc bd 67 ec 27 3e 23 a3 ab bc 08 05 e1 bc
       -0.1077863 0.16398774 -0.020951813 -0.02746822
000270 13 d3 aa 3c 07 96 79 3d e2 95 4c 3d 02 56 1c 3d
       0.020852601 0.060934093 0.049947627 0.03816796
000280 9e cc fc bb f0 f7 1b 3e 2a 54 de 3a 13 84 ec 3d
       -0.007714822 0.152313 0.0016962339 0.11548629
000290 5e 73 e3 3d 2c b2 9d bd 60 84 b4 3d be 0b 79 3d
       0.11105989 -0.07699999 0.08814311 0.060802214
0002a0 3a 2d bf 3d 64 8e dc 3d 86 f6 89 bd 3d 1d 21 3d
       0.09334798 0.10769346 -0.06736474 0.039334524
0002b0 30 8d 91 3d 8d 26 92 bc bc f3 bb bc 69 32 1f 3d
       0.071070075 -0.017840648 -0.02294337 0.038866434
0002c0 83 7f 24 be 65 96 38 bd 3e 3d d9 bd d8 90 6b bd
       -0.16064267 -0.045065302 -0.10607384 -0.05751118
0002d0 a8 ce 97 3d 41 b4 08 be 26 da 33 be cc e3 1d be
       0.074124634 -0.13350011 -0.17563686 -0.15418929
0002e0 fe 41 02 be 78 84 45 3d e7 27 ba 3c 84 8b 20 bd
       -0.12720487 0.048222035 0.022724105 -0.039195552
0002f0 2d db 66 3d fd d2 88 bc f1 09 1d 3d 90 9f dd 3d
       0.056361366 -0.01670217 0.03833956 0.1082145
000300 52 e0 70 3d 29 2f 98 3d fe 7a ab bb c7 95 dd bb
       0.05880768 0.0743087 -0.0052331677 -0.0067622396
000310 aa 26 8c bd de 1c bd 3d 89 00 8c 3d 35 48 cd bc
       -0.06843312 0.092340216 0.068360396 -0.025058845
000320 86 b8 0b bd 14 a6 c8 3d 5c cb 0a 3d a6 0d ac bc
       -0.034111522 0.09797302 0.033885345 -0.021002602
000330 84 4e a9 bd a0 71 c0 3d 0c 38 8e 3c 9e 0a 9e 3d
       -0.08266929 0.09396672 0.01736071 0.07716869
000340 bb ff cd bc 90 0b b3 bd 9c e0 47 3d 0a 4f 9f bd
       -0.025146356 -0.0874244 0.04879819 -0.077787474
000350 39 41 b7 bd c8 31 e8 bd 14 fb 3f bc fc 77 dd bd
       -0.08947987 -0.1133762 -0.0117175765 -0.10813901
000360 85 93 0a bd 56 9a d0 bc 32 3f 44 bd bd 93 9d 3d
       -0.03383209 -0.025464218 -0.04791183 0.076941945
000370 f3 a8 fc bd d5 fa 1d bd 11 53 04 3e f5 2c e2 bd
       -0.12336912 -0.03856929 0.12922312 -0.11043731
000380 77 e3 43 3c 84 fe 01 be 62 da 1f bd 98 d9 85 3d
       0.011956087 -0.12694746 -0.039026625 0.06535643
000390 df 4d 90 bb 81 e4 d8 3c 9f 40 04 be be 8c ea 3d
       -0.004403814 0.026476147 -0.12915276 0.11452626
0003a0 2b d8 f3 3c 62 69 1b 3d 0c e7 1e 3e a6 4b 32 be
       0.029766163 0.037942298 0.15517825 -0.1741167
0003b0 35 41 a9 bb 3f 98 bf bd 0a 6f 55 bd eb 7a 0a be
       -0.005165244 -0.093552105 -0.05210785 -0.13523452
0003c0 6f 09 d9 bd 42 6a 75 ba ba 0d 36 bd ca 19 88 bd
       -0.105975024 -0.0009361842 -0.044446684 -0.06645544
0003d0 44 b7 18 3c 72 7b 85 3c b7 51 88 3d e6 98 4c 3d
       0.009321038 0.016294215 0.06656211 0.049950503
0003e0 b6 04 c1 bd 8d 8f 4e 3d e3 2b cb 39 0e b5 e1 bd
       -0.09424727 0.05042987 0.00038751875 -0.110208616
0003f0 93 fd 29 3d e7 35 22 3d b3 9a ab 3c 05 3b b1 3d
       0.041501593 0.039602187 0.02094779 0.08653835

sequential/conv2d_1/Conv2D f4 [64, 5, 5, 32]
000000 54 11 d6 3b a2 d2 ce 3d c8 d4 9b 3d de f8 d9 bd
       0.0065328274 0.10098769 0.07608944 -0.10643171
000010 61 41 cc bd ba 83 8b 3d e1 2d 67 3b ed 1b 9f 3c
       -0.099734075 0.06812234 0.0035275149 0.019422496
000020 f9 d6 04 3d 2b 30 4f bd e3 56 51 bd 28 16 91 3d
       0.032431576 -0.050583046 -0.051108252 0.07084304
000030 65 35 2b bd 3c a7 93 bd aa 03 cc bd ba 6c 52 3d
       -0.041798968 -0.07209632 -0.09961636 0.05137322
000040 ed 54 c6 3d 0f 16 a3 bd c7 08 15 be 4b e4 db bd
       0.09684167 -0.07963192 -0.1455413 -0.10736903
000050 34 74 4c bd dc 6a 1a bd a4 03 df 3d 3b e9 96 3d
       -0.049915507 -0.037699565 0.10889366 0.07368704
000060 f0 a2 65 bd d7 50 f6 bb 2e c6 df 3d 4d 3a 9a bd
       -0.056063592 -0.007516961 0.10926472 -0.07530651
000070 fb d7 7a 3d d9 a8 b4 bc ff 65 e1 bd 56 e6 72 3d
       0.06124113 -0.02205317 -0.11005782 0.059301697
000080 2b 4a 30 bd 76 9f 0d 3d 0e 4b 24 be 9c 42 01 bd
       -0.043039482 0.034575902 -0.16044256 -0.031557664
000090 b5 1c 82 bd 35 b4 dd 3b c9 f0 e8 bc 89 69 ff 3c
       -0.06353132 0.006765867 -0.028435128 0.031178253
0000a0 2d d3 f9 bc f5 f2 00 bd 09 db 3b bd d9 8d 3c bc
       -0.030496204 -0.031481702 -0.045863185 -0.0115084285
0000b0 44 42 59 3c 73 28 04 bd 7b 4a 06 be 18 df 8a 3d
       0.013260428 -0.032265138 -0.1311435 0.06780833
0000c0 20 f3 a6 3c 00 57 26 bd 6f 3b ce bd b6 df e4 bd
       0.020379603 -0.040610313 -0.1006993 -0.11175482
0000d0 0a b8 89 bd 11 0a 02 bd 81 6b 21 3d 15 e5 26 bd
       -0.06724556 -0.03174788 0.039409164 -0.040745813
0000e0 fd 2d c0 bd c3 2b 69 3d 39 fe 86 bd 43 e7 43 be
       -0.093837716 0.0569265 -0.06591458 -0.19131188
0000f0 06 0c 00 3d cc bc c0 3d 23 30 15 3c 98 86 3e 3c
       0.031261466 0.0941101 0.009105715 0.011628769
000100 f5 24 e7 39 83 05 14 be 6e 34 9b bd 9d 9d 07 be
       0.0004408729 -0.14455228 -0.075783595 -0.13243718
000110 5b 88 8a 3b 95 26 09 be 4a df b9 bd a5 f8 a5 bd
       0.0042276806 -0.13393624 -0.09075792 -0.08104066
000120 6a be e1 3d d3 53 68 be 97 a5 a6 3c 65 7a 03 bd
       0.11022647 -0.22688226 0.020342631 -0.032099146
000130 b6 7b f1 3d cf bd 92 bd 52 4f df bd 12 ec b4 3d
       0.11791174 -0.07165109 -0.10903801 0.08834089
000140 d0 43 94 3d 53 53 b7 3d 8d 5f 66 be be a5 92 bd
       0.07239497 0.0895144 -0.22497387 -0.07160519
000150 6c 44 d3 bb 64 62 21 be 1f b3 56 3d 40 82 cc bc
       -0.0064473655 -0.1576019 0.052416917 -0.024964452
000160 a9 d5 26 be 46 ae 22 3d 1f b8 e7 3c 94 19 1e be
       -0.16292442 0.03971698 0.028286038 -0.15439445
000170 0c f7 57 bd 5c f0 70 3d 23 43 80 be a7 5c 0b 3d
       -0.052725837 0.058822975 -0.2505122 0.034023907
000180 af 7c 9f bc 0e 35 85 bd 8e 52 0b 3e d8 b1 5e bd
       -0.019468633 -0.0650426 0.13605711 -0.054368824
000190 5d 4e e3 3d f7 d8 b6 bd f3 f1 31 be 66 66 ff bc
       0.11098931 -0.089281015 -0.17377453 -0.031176757
0001a0 21 e8 a8 3d 0a e0 05 be a2 44 b4 bb 3e b3 89 bd
       0.082474 -0.13073745 -0.0055013457 -0.06723641
0001b0 1f f6 4f 3d 41 25 02 bd fd 7e 08 3b 4e 4c 5f bd
       0.05077183 -0.03177381 0.0020827644 -0.05451613
0001c0 dc 54 5c bd 86 b9 e6 3d 5e ab 24 3d 29 33 70 3c
       -0.053791866 0.112658545 0.04020249 0.014660635
0001d0 cf e9 e5 3d b4 f7 b0 bd 02 f4 03 3e 11 98 db 3d
       0.11226236 -0.086409956 0.1288605 0.10722364
0001e0 b9 26 d5 bd f8 91 d5 3d ae d0 96 bd dd 6b 02 3d
       -0.104077764 0.10428232 -0.07364021 0.031841148
0001f0 5a ee d1 bd e0 d8 30 3d 59 92 f7 bd 93 2c 49 3d
       -0.1025054 0.043175578 -0.120884605 0.049114775
000200 99 fd 0b 3d 27 16 e9 bd 47 d3 81 3c 79 65 a6 3d
       0.034177396 -0.11381178 0.015847815 0.08124823
000210 df 4f 17 3e 59 b1 a7 bc 9a c5 01 be 99 5f 63 bd
       0.14776562 -0.020470308 -0.12673035 -0.05551109
000220 15 79 07 3e 79 10 22 3d e9 c3 ce 3c 00 fa 01 bd
       0.13229783 0.03956649 0.025239902 -0.03173256
000230 93 66 a4 bd b7 ab 6d bd c9 c8 24 3d 00 d1 7a 3c
       -0.08027377 -0.05802509 0.040230546 0.015308619
000240 dd 97 d8 3d 82 a9 5c 3e db ff 00 bc c5 22 aa 3d
       0.105758406 0.21549037 -0.007873501 0.08307413
000250 07 bf 52 3d e2 f8 58 3d da 2c 8f 3d 0a 29 f7 3d
       0.05145171 0.05297173 0.06990977 0.120683745
000260 30 d7 8b bd a1 e3 09 3d 35 88 86 bc 54 45 cc 3d
       -0.06828153 0.03366435 -0.01642237 0.09974161
000270 ab e7 ff bd 0e c6 33 bd 1a f3 14 3c 6a 76 57 3d
       -0.12495359 -0.04389005 0.009091163 0.052603163
000280 48 77 47 3d f5 ef d9 3d e6 f5 41 bd c1 79 ef bd
       0.04869774 0.10641471 -0.047353648 -0.116931446
000290 f0 d1 12 3c 5c 50 98 3d ef 0a 98 bd 4c 01 65 bd
       0.008961186 0.07437202 -0.074239604 -0.05590944
0002a0 a4 bc c1 3c 05 7e 18 bd 82 40 b4 3c c5 ed 96 bc
       0.023649521 -0.037229557 0.022003416 -0.018423924
0002b0 19 e6 85 3d 27 e4 a8 bd 03 f4 9a bd 73 db 8d 3c
       0.06538028 -0.082466416 -0.07566073 0.017316556
0002c0 e9 48 53 3d 5e 3c 72 3d a9 ac 5a be 40 de a6 bd
       0.051583204 0.059139602 -0.21354927 -0.081478596
0002d0 99 23 f8 3d 83 08 9f bc 48 03 d4 bc 53 ba 74 3d
       0.12116165 -0.019413238 -0.02588047 0.059748005
0002e0 ac 7f ed bd 51 ec 8b 3d 6e fb cb 3d 38 a0 a9 bd
       -0.11596617 0.06832183 0.09960066 -0.082825124
0002f0 03 74 ca 3d f0 c8 ba 3d b6 c1 f7 bd 41 c0 37 3d
       0.09885409 0.09120357 -0.12097494 0.044861082
000300 2a 19 00 3d 84 16 e8 3c e5 15 ed 3c ec 81 7d be
       0.031274 0.028331049 0.028941104 -0.24756593
000310 76 71 00 3e 0d 75 33 bd 20 4d c9 bd 98 0f e6 b9
       0.12543282 -0.0438128 -0.098291636 -0.00043880637
000320 fd 14 8b 3d 8b f7 e7 bc ee 70 01 bd 54 78 54 3c
       0.067911126 -0.02831628 -0.03160184 0.012968142
000330 3e 85 a9 3d 4e 25 e3 bd 56 d0 05 be b1 d9 8e 3d
       0.08277367 -0.110911 -0.13067755 0.06975115
000340 d2 1c 2d bd de c2 1e bb e2 c4 90 bd c9 2a bb bd
       -0.042263813 -0.0024225037 -0.070688024 -0.0913902
000350 c9 76 45 3d 48 68 01 be 36 e7 07 3d d5 50 3e bd
       0.048208985 -0.12637436 0.033179484 -0.046463806
000360 a6 e0 83 be 2f 04 92 3d 50 9a 99 bb a1 7f d8 bd
       -0.2575733 0.07129704 -0.004687585 -0.10571218
000370 ac ed c4 bd f9 f8 f2 3c 86 80 4c bd ef a4 b2 bd
       -0.09615645 0.029659735 -0.049927257 -0.08722865
000380 7a 06 b2 3d 23 90 8a bd 94 8d ab bd b4 d2 89 bc
       0.086926416 -0.06765773 -0.08376613 -0.016824104
000390 60 90 87 3d f6 f0 b4 3c c4 39 25 be 10 0b 4f bd
       0.06619334 0.022087555 -0.16135317 -0.05054766
0003a0 23 31 35 3d 82 3c 92 bd 69 8c 2d be b6 43 93 bd
       0.044236314 -0.07140447 -0.16948093 -0.07190649
0003b0 2f 33 89 bb 47 59 39 be b2 3e 32 bd 2c 7e 64 bd
       -0.0041870098 -0.18100463 -0.043516822 -0.05578439
0003c0 0e 2b 94 bd 94 eb ea 3c 14 83 91 bd c9 21 53 bd
       -0.072347745 0.028676786 -0.07105079 -0.051545892
0003d0 f3 6c 67 3d f1 15 d8 bd 34 10 6b 3b 8d 7a df bc
       0.056500386 -0.1055106 0.0035867812 -0.027280116
0003e0 04 7b 26 bc ce 5f 13 bd 97 47 e8 bc 78 5a e0 bc
       -0.010161165 -0.03598004 -0.02835445 -0.027386889
0003f0 62 5c b6 bd 07 21 ae bd 7d 14 00 be b3 50 1b bd
       -0.089043394 -0.08502393 -0.12507816 -0.037918758

sequential/conv2d_2/Conv2D f4 [128, 3, 3, 64]
000000 60 27 f8 bd e9 35 0b 3c 33 1f 2b bd 7b 59 22 3d
       -0.12116885 0.00849674 -0.0417778 0.039636116
000010 64 90 3b bd 5c 50 0b be ff 04 1e 3d d1 f5 4e 3d
       -0.045792 -0.13604873 0.038578983 0.050527398
000020 b0 a8 d6 3b fb 68 79 bb ef f9 77 bd a3 7e d6 bd
       0.006550871 -0.0038056958 -0.06054109 -0.10473373
000030 6e 3d 48 bd b4 c1 1d ba 5c 99 41 3c ed 83 a5 3a
       -0.04888671 -0.0006017939 0.011816349 0.0012627818
000040 36 5d 69 3d 8c 67 a5 bd bf 46 8f 3d 20 48 36 3d
       0.05697366 -0.080763906 0.069959156 0.044502378
000050 75 24 08 bd 49 fd 70 bd e4 e5 7a 3c 7f 53 c4 3d
       -0.033237893 -0.0588353 0.015313599 0.09586238
000060 0e 25 f5 bd 52 cb 81 bd e0 96 32 bd 2c a7 32 bd
       -0.11969958 -0.063376084 -0.043600917 -0.04361646
000070 82 48 ac bd cc e4 a4 bd cc 05 ca 3d b0 be e4 bd
       -0.08412267 -0.08051452 0.09864387 -0.11169183
000080 12 83 78 bd 2d 1d 82 3d c7 8b 9c bc 47 56 d1 3d
       -0.060671873 0.06353221 -0.01910962 0.10221534
000090 cf 9a 05 3c 15 f7 0e 3d 45 a3 1e 3d 75 dc 76 bd
       0.008154585 0.034903605 0.038729925 -0.060268838
0000a0 a9 5c d7 bc 53 2e 87 bc 1e c6 06 bd 92 8b e9 bd
       -0.026289301 -0.016501581 -0.032903783 -0.11403574
0000b0 6f e8 64 3c fe 24 1a be d0 4a b4 3c 68 3d f7 bc
       0.013971432 -0.15053174 0.02200833 -0.030180648
0000c0 37 d8 8d bd ff c8 5e 3c 5b 59 1a be e5 62 f5 3c
       -0.06926005 0.013597726 -0.15073149 0.029954383
0000d0 eb 30 c4 3d a8 1f 9a 3d 2f 89 ed bd fa 58 ce bc
       0.09579643 0.07525569 -0.11598431 -0.025188912
0000e0 f4 99 e2 bd 7a 5c 5e bd 8c 96 27 3b ec 6a e1 bd
       -0.110645205 -0.05428741 0.002557191 -0.11006722
0000f0 71 9a 5e bd 65 5c a1 bc f0 b2 d6 bc ac 49 21 bd
       -0.054346506 -0.019697377 -0.02620837 -0.0393769
000100 72 03 a6 bd 05 c3 bc 3c 55 dc 5c 3c 1b 3a f8 bd
       -0.08106126 0.023042211 0.013480266 -0.12120458
000110 bd fa a5 bd bb 31 18 bc 28 e7 07 3d bb 38 e8 3c
       -0.08104465 -0.0092892 0.033179432 0.028347364
000120 92 b2 c9 3b 19 e3 80 bb d0 6d 9e bd 2c 4a 94 bd
       0.0061553204 -0.003933322 -0.07735789 -0.0724071
000130 59 d7 8d 3d 1e a2 d3 bc 79 44 8e 3c 4f 3f a5 bd
       0.0692584 -0.02583414 0.017366635 -0.08068716
000140 8f e1 8d 3d 75 08 6c bc 3c b7 f0 bd 93 bb e2 3c
       0.069277875 -0.014406313 -0.11753699 0.027677333
000150 38 3b f6 3c ab f3 14 bc 42 49 d6 bd 67 80 1a 3b
       0.030057535 -0.009091298 -0.104631916 0.002357507
000160 76 78 a5 3d 0b f4 ca bb 6d 1b c2 3c 56 49 76 bd
       0.08079617 -0.006193643 0.023694718 -0.060128532
000170 2f 7a ae bd 19 cd c7 bc 61 65 89 bd 02 a4 ad bd
       -0.085193984 -0.02438979 -0.067087896 -0.08478548
000180 ee 0a 0c bd be c8 93 3c 14 ef af 3c 0c 14 54 3c
       -0.03419011 0.018040057 0.021476306 0.012944233
000190 f4 03 24 bd fb 9b b5 bd 52 19 af bd ac 0f 2d 3d
       -0.040042832 -0.088676415 -0.08549751 0.042251274
0001a0 34 0a 4f bd 6b 93 31 bd 2a c4 6e 3c ce 0b e1 bd
       -0.05054684 -0.04335348 0.014573136 -0.1098858
0001b0 8c 34 28 bd 00 30 76 3d ef 14 44 bd 9b 7b 94 bd
       -0.041065738 0.06010437 -0.047871526 -0.07250138
0001c0 a7 9c bd 3d 91 03 bb 3d a8 cc aa bd 0b ab 22 bd
       0.09258395 0.091315396 -0.08339816 -0.0397139
0001d0 7f 20 c6 3c 2e 1a 0d ba b1 73 01 3d bb 2c 07 3d
       0.024185417 -0.0005382624 0.031604473 0.033001643
0001e0 64 d2 01 be ad c8 c3 bd fe 45 19 3d 59 82 4a bd
       -0.12677914 -0.0955976 0.037420265 -0.049440715
0001f0 f9 f1 dd 3d 22 c9 fd bd 8d c5 88 3c 4f e7 00 3d
       0.10837168 -0.12391879 0.016695762 0.031470593
000200 75 22 a0 bc 27 44 27 3d ed 85 ba bd 30 9d 82 bc
       -0.01954768 0.04083648 -0.091075756 -0.015944093
000210 28 6e a4 bd eb cd d1 3c 9e 3c 0a 3d 1a ec 0b bd
       -0.08028823 0.025610885 0.033749215 -0.03416071
000220 74 31 eb bd d5 70 a8 bd ab 3b 16 3e ca 37 b3 bd
       -0.11484042 -0.08224646 0.14671199 -0.08750875
000230 b2 42 f6 3c ff ff 4c 3d a2 22 dc 3d 9e 22 b8 3d
       0.0300611 0.050048824 0.10748793 0.08990978
000240 2c 56 b7 bc 3e 20 21 bd d3 ef 56 3d 8a 73 ae bc
       -0.022379957 -0.03933739 0.052474808 -0.021295328
000250 96 99 44 3d 5e f7 a5 bb cb 36 ed 3c e2 7b ca 3d
       0.047998033 -0.005064889 0.028956791 0.0988691
000260 ff c9 d1 bd 47 cc 98 3d e1 ac 38 bc 98 a7 74 bd
       -0.10243606 0.07460838 -0.011271686 -0.059730142
000270 a5 3f 37 3b 7b 11 81 3c 44 69 88 bc a3 4f d1 bc
       0.002796152 0.015755406 -0.016651757 -0.025550669
000280 b2 7c 6e bc 05 63 00 3d 77 fa 02 3e 0e 54 ee bc
       -0.014556097 0.031344432 0.12790857 -0.029092815
000290 aa 5d 67 3c 05 30 f5 3c 8b 14 13 bd cf 96 db bc
       0.014121452 0.029930124 -0.035908263 -0.02680531
0002a0 e8 3f 5e 3d 00 6c 2e 37 d3 0d 24 3c ef 83 f1 bd
       0.054260164 1.0396354e-05 0.010013062 -0.117927425
0002b0 1a e5 54 3b 28 3a 24 bd 4c 9d 16 bd 6c 79 1d 3e
       0.0032485188 -0.040094525 -0.036771104 0.1537835
0002c0 3b 96 6a 3d 57 7f 98 3c fa 78 a0 3c 69 77 1c 3d
       0.057272177 0.018615408 0.019588936 0.038199816
0002d0 7e 3a 13 be f6 99 3d bd e0 2c af bc b1 12 90 bd
       -0.14377782 -0.046289407 -0.021383703 -0.07034815
0002e0 93 53 13 bd 56 89 d1 bb 2d b1 da 3b 46 7a 8f 3d
       -0.035968374 -0.0063945455 0.006673953 0.07005744
0002f0 e6 90 9c bd 3d 5d ee 3c b8 e2 c6 bd 92 d5 89 bc
       -0.07644825 0.029097194 -0.09711212 -0.016825471
000300 32 c1 b1 bd d6 80 b6 3d 49 90 75 bd 5c 88 cd bc
       -0.08679427 0.08911292 -0.059952054 -0.025089435
000310 fe 80 83 3d 76 13 24 3d 75 6f 0e bd 0e 6b 72 3c
       0.06421088 0.040057622 -0.034774262 0.014796032
000320 e8 74 90 bd 9b b8 a5 bb 44 59 01 be 99 96 88 bc
       -0.07053548 -0.005057407 -0.12631708 -0.016673373
000330 67 be 05 3d 9d 51 ee bc 65 5c e0 bd 4d 55 6d 3d
       0.032652285 -0.02909165 -0.10955123 0.057942677
000340 b6 96 4a 3d 86 e9 0e bd bc 5a 07 bc 72 3b 63 3c
       0.049460135 -0.034890674 -0.008261379 0.013869153
000350 ed 8d 6b bd d7 a4 e8 bc ed e2 d2 3d 6f da 07 bd
       -0.057508398 -0.028398914 0.10297189 -0.0331673
000360 c3 a8 d0 bd 01 1b 71 3b 28 28 12 bd f6 e9 46 3c
       -0.10188439 0.0036789777 -0.035682827 0.012140742
000370 a3 92 c0 bb 9a 56 c9 bd 85 c8 08 3d d4 88 2a be
       -0.0058768555 -0.09830971 0.033394355 -0.16653758
000380 6c 04 83 3d 01 e6 5d bc c9 88 ad bd 98 bf 76 3d
       0.06397328 -0.013543607 -0.08473355 0.06024131
000390 d8 4a 32 bd 1a a9 06 3d 37 d1 e4 3c b3 ff b8 bd
       -0.043528408 0.03287611 0.027931793 -0.09033146
0003a0 86 5b 9e bc f0 40 4e bd 07 ef 87 bb 3b d9 58 bd
       -0.019330751 -0.050354898 -0.0041483673 -0.052941542
0003b0 20 7b a0 bd 40 b2 03 be 68 c6 5d bd 9f 73 cb 3c
       -0.07835984 -0.12860966 -0.054144293 0.024835406
0003c0 2a 8e 9b bd 2e 09 68 bc 00 9f 89 bd 03 10 b2 bc
       -0.07595475 -0.014162345 -0.0671978 -0.02173615
0003d0 c8 e4 93 bd c2 6a a0 bc e1 3d 03 3d ad 19 5a ba
       -0.07221371 -0.019582156 0.032041434 -0.0008319866
0003e0 be d7 e5 3a 93 60 2c 3c f5 10 cf 3c 7d 07 5b bd
       0.001753561 0.010521072 0.02527664 -0.05347394
0003f0 aa 14 1a be 12 27 c8 bd 7c 4c 7d 3b 42 10 bb 3b
       -0.15046945 -0.09773077 0.0038650325 0.005708725

sequential/lstm/Read_2/ReadVariableOp f4 [32]
000000 1c b2 cb 3d 60 94 af 3d d6 9a a3 3d b5 f0 2f 3d
       0.09946081 0.08573222 0.07988517 0.042954165
000010 ec cb 2b 3d 34 1a 5d bc ee c5 6c 3d b6 3b 09 3e
       0.041942522 -0.013495017 0.057805948 0.13401684
000020 e6 5d 81 3f 1e c5 8b 3f 54 cb 88 3f 48 2c 8c 3f
       1.010678 1.091953 1.0687051 1.0951014
000030 17 5e 8e 3f 22 e5 95 3f e4 71 89 3f a6 84 93 3f
       1.1122464 1.1710551 1.0737882 1.1524856
000040 36 76 3f 3d f6 d0 92 3d 79 18 51 3d 63 e6 8c 3d
       0.046743594 0.071687624 0.05104873 0.0687988
000050 3d 81 77 3d 79 01 47 bd 5f bf 79 bd e7 ef 0f 3e
       0.060425986 -0.04858539 -0.06097352 0.14056359
000060 a6 c1 b7 3d 21 00 2b 3e 3f fa dc 3d 55 b3 c1 3d
       0.089724824 0.16699268 0.10789918 0.09458033
000070 54 9b 4e 3e 69 f5 df 3d 71 73 a6 3d 2a 99 4a 3d
       0.2017644 0.1093548 0.081274875 0.049462475

sequential/batch_normalization/FusedBatchNormV3 f4 [32]
000000 58 a0 83 40 f8 8a 37 40 40 66 f2 40 12 dd b7 40
       4.113323 2.867857 7.5749817 5.745736
000010 ea f6 f7 40 63 a8 77 40 7e 0c 4e 3f 94 a6 6f 40
       7.748891 3.8696525 0.8048781 3.7445421
000020 15 44 a0 40 6c a7 aa 40 a8 a6 4d 40 09 71 3a 3f
       5.008311 5.3329372 3.213297 0.7282873
000030 da c2 42 40 73 46 9b 40 69 fb ae 41 06 94 d1 3f
       3.0431428 4.8523498 21.872759 1.6373298
000040 04 3a 7f 40 36 69 1b 41 86 a5 89 40 66 77 c2 41
       3.987916 9.713186 4.3014555 24.3083
000050 7e bf 0c 41 61 fb 98 3f ae a3 4c 41 2e 25 97 41
       8.796751 1.1951715 12.789961 18.893154
000060 af 4d 26 40 6e a2 1a 41 9e 0a 05 40 ab 9f d8 40
       2.5984914 9.664656 2.078773 6.7694907
000070 89 53 d9 3f 1e 3f aa 40 8c 9f ba 40 92 1c 27 40
       1.6978618 5.3202047 5.831976 2.6111188

sequential/batch_normalization/FusedBatchNormV31 f4 [32]
000000 04 1f ec be 8a bd 83 bd d4 1c fd bd 36 bd 8b be
       -0.46117413 -0.06432636 -0.12359014 -0.27292794
000010 68 66 4f be 70 e2 f3 bd 04 50 8d be 0e 9b 58 be
       -0.20253909 -0.11908424 -0.2760011 -0.21152899
000020 3e 78 c0 be a8 42 07 bf 70 fa c0 bd 54 1b 4c be
       -0.37591738 -0.52836084 -0.09422767 -0.199323
000030 10 4f 04 bf 00 b9 91 bc 1c 50 91 bd 10 b1 2e be
       -0.5168314 -0.01778841 -0.07095358 -0.17059731
000040 20 6e cc be fc 2f 78 be 83 6a a0 be fe 41 6f be
       -0.3992777 -0.24237055 -0.31331262 -0.23365018
000050 57 ae 1a be ed cf 21 be 68 09 50 bc 64 27 9a be
       -0.15105568 -0.15801974 -0.012697555 -0.30108178
000060 ed fa 3d be 70 98 a2 be bf 90 fb bd c6 de 38 bf
       -0.18552752 -0.31756926 -0.122834675 -0.72214925
000070 54 61 40 be 22 cf cc bd 36 bc 7d be 6b e6 97 be
       -0.18787128 -0.10000445 -0.24778828 -0.29667982

sequential/batch_normalization_1/FusedBatchNormV3 f4 [64]
000000 09 a0 91 3f d7 c4 05 3f 9d 31 4b 3e 92 6b 15 3f
       1.1376964 0.5225348 0.19843145 0.58367264
000010 08 f6 d0 3e d3 7c 73 3f 4f 24 d7 3e 0a 06 b1 3e
       0.40812707 0.9511234 0.4201989 0.3457492
000020 ce f0 b2 3e 0f 7f 57 3f 2d 8b 7d 3f 8e de 46 3f
       0.34949344 0.8417825 0.9904049 0.7768334
000030 d4 5d 92 3e 87 17 aa 3e 4a 1a 24 3f 58 8d b2 3d
       0.2858721 0.33221075 0.64102614 0.087183654
000040 e7 70 1f 3f 72 4f a1 3e d7 0d 40 3f 7b 6e 2a 3e
       0.6228165 0.31505924 0.7502112 0.16643707
000050 08 5d 10 3f 5d 47 1f 3f 12 53 43 3f 24 ed 31 3f
       0.56391954 0.62218267 0.7629863 0.6950247
000060 e0 b0 7c 3f a6 2b de 3f 9f 9b 56 3f 29 00 db 3f
       0.9870739 1.735707 0.8383121 1.7109424
000070 63 0f 54 3e 8f 2c c6 3f 81 d8 0a 3f 41 79 07 3f
       0.20708995 1.5482348 0.5423661 0.52919394
000080 75 7b 40 3e 24 af 36 3f 61 99 a5 3f 4f 5f 38 3f
       0.18797095 0.71360993 1.2937433 0.7202043
000090 ea 3b 29 3e 7c 14 78 3f 41 7f ae 3f e0 ee ad 3f
       0.16526762 0.96906257 1.3632585 1.3588524
0000a0 34 8c bf 3e c9 da 96 3f c5 a9 88 3f 80 a0 77 3f
       0.37411654 1.1785518 1.067681 0.9672928
0000b0 cb 03 6c 3e 90 39 96 3f 39 ed a2 3e 3e 22 e1 3f
       0.23048322 1.1736317 0.31821612 1.7588575
0000c0 e1 31 bb 3f 5a 18 8f 3f 35 6a 16 3f 97 bd b8 3e
       1.4624597 1.1179307 0.5875581 0.36082146
0000d0 a3 fe 29 3f 70 ed 27 3f 2d 10 35 3f f2 53 6c 3f
       0.6640417 0.65596676 0.7072781 0.9231559
0000e0 af 6b b4 3e d6 83 83 3e 40 5e 9a 3e 75 ff 50 3f
       0.35238406 0.2568652 0.30150032 0.81639796
0000f0 71 e7 44 3f 8c 78 8f 3f bb e0 9d 3e aa 40 49 3e
       0.7691565 1.1208663 0.30835518 0.19653574

sequential/batch_normalization_1/FusedBatchNormV31 f4 [64]
000000 7b d5 b8 be 42 cf 5f bd da c3 59 be 0c d1 a9 be
       -0.36100373 -0.054641016 -0.21266118 -0.33167303
000010 42 e7 5d be 95 b0 15 bf 70 8d 87 be d0 11 2e be
       -0.21670249 -0.5847257 -0.26475096 -0.16998982
000020 81 af a6 be 38 1c cd be d5 25 97 be 45 d3 82 be
       -0.32555774 -0.40060592 -0.2952105 -0.2555181
000030 d7 a8 2c be ae 97 85 be 72 d6 a7 be b1 43 40 be
       -0.16861282 -0.26092285 -0.32780796 -0.18775822
000040 29 b7 cb be 44 2a 4f bd 90 c0 1d bf d0 34 53 bc
       -0.39788178 -0.050577417 -0.6162195 -0.012891009
000050 49 27 96 be 6b 98 d3 be fd 13 82 be fb 82 85 be
       -0.29326847 -0.41327223 -0.25405875 -0.26076493
000060 00 9c fd ba 5d b5 9d be 76 28 a2 be d9 8c dc be
       -0.001934886 -0.30802432 -0.31671494 -0.43076208
000070 4c 49 2a bd a7 66 3f be c3 40 0d be bd 23 b7 be
       -0.041573808 -0.18691503 -0.13794236 -0.35769454
000080 28 86 7c bd 5d e3 6b be 93 f0 b0 be 40 84 c3 be
       -0.06165138 -0.23035951 -0.34558544 -0.38186836
000090 79 b7 0a be 59 a2 21 be 02 d2 46 be fa 17 cd be
       -0.13546552 -0.15784587 -0.19416049 -0.40057355
0000a0 48 9b 63 be fd 1b b7 be 17 b5 a9 be 06 b4 24 be
       -0.22227204 -0.3576354 -0.33145973 -0.16084298
0000b0 82 8b 8c be 65 d7 1b bf d4 09 65 bd b5 b5 88 be
       -0.27450186 -0.6087554 -0.055917576 -0.2670113
0000c0 bd 7e 13 bf b8 95 bc be 46 2f 8d be c3 6d 6c be
       -0.5761526 -0.36832976 -0.2757513 -0.23088746
0000d0 6b fe 7f be 35 53 a0 be a3 8e 2d be a5 66 9f be
       -0.24999397 -0.31313482 -0.16948943 -0.31133
0000e0 cc 7e 21 be ae 40 30 be a8 86 7e be a6 f1 9a be
       -0.15771025 -0.17212173 -0.24856055 -0.30262488
0000f0 42 35 43 be ee 9a fd bd 62 f9 68 be aa b4 9d bd
       -0.19063285 -0.12383066 -0.22751382 -0.077004746

sequential/batch_normalization_2/FusedBatchNormV3 f4 [128]
000000 04 b8 f0 3e 7e 1a 65 3f 53 92 0d 40 ff 63 06 3f
       0.47015393 0.8949355 2.212056 0.5249633
000010 d7 9a 3b 3f 7d 07 27 3f 77 1d 30 3e 02 d2 30 3f
       0.7328314 0.652458 0.1719874 0.69070446
000020 61 2f 9e 3f bb b0 15 3f 23 32 5a 3e 24 a0 6a 3e
       1.2358209 0.58472794 0.21308188 0.22912651
000030 bd c8 11 3f 4b d7 f5 3e 54 49 05 3e 81 b5 36 3f
       0.5694693 0.48015818 0.13016254 0.71370703
000040 16 3a 50 3f 13 db 02 3e 20 01 94 3e 25 f0 c2 3e
       0.8133863 0.12778883 0.28907108 0.3807384
000050 f1 8c 84 3f 87 51 66 3f fa 53 13 3f 34 35 31 3f
       1.0355512 0.8996815 0.57550013 0.69221807
000060 83 5d 81 3e 51 9e 72 3f d5 fc 64 3e 1d 44 ae 3f
       0.25266656 0.9477282 0.22362073 1.3614537
000070 cd 23 68 3f e4 a1 1b 3f 4c 8f dc 3f 65 e5 83 3e
       0.9067963 0.607939 1.7231231 0.25760952
000080 fd 6a bf 3e 3a d6 be 3e c8 a8 ad 3f 54 10 9f 3f
       0.37386313 0.37272817 1.3567133 1.2426858
000090 25 94 12 3f 3d f8 c0 3e ad b1 ad 3e 04 3d f7 3e
       0.572573 0.3768939 0.33924618 0.4828874
0000a0 1f 54 bb 3e 27 68 b4 3e 74 65 81 3f 10 40 f3 3f
       0.36587617 0.35235712 1.0109086 1.9003925
0000b0 1e fa c9 3e ff 51 88 3f e6 57 b7 3e e5 72 be 3f
       0.39448637 1.0650023 0.3580925 1.4878813
0000c0 93 d6 ff 3f c3 1a 9d 3f 85 a0 b3 3f d7 29 19 3f
       1.9987358 1.2273792 1.4033362 0.5982947
0000d0 d4 0c 6b 3e 03 dc 30 3f 0f 90 9c 3e 18 f9 12 3f
       0.22954112 0.6908571 0.30578658 0.57411337
0000e0 17 63 30 3f 08 e4 d8 3f 32 16 51 3e e0 87 ab 3e
       0.689012 1.694459 0.20418623 0.33502102
0000f0 79 6d 1f 3f fc eb d3 3f 01 ad 5e 3e 50 65 7b 3f
       0.62276417 1.6556392 0.21745683 0.98201466
000100 99 9a 9e 3e 2b 81 06 40 21 7e 42 3f 3f f8 fe 3e
       0.30977324 2.1016338 0.7597371 0.49798772
000110 10 0d 3f 3e c5 32 7f 3e e3 92 33 3f bc ea 96 3f
       0.18657327 0.24921711 0.70146006 1.1790385
000120 ab 66 80 3e dd fa 84 3e cb 96 4b 3f 50 23 21 3e
       0.2507833 0.25972643 0.79526967 0.15736127
000130 02 0f a4 3f 02 80 e1 3f a4 52 2e 3f 22 d4 8e 3e
       1.281708 1.761719 0.6809485 0.2789622
000140 d5 7c 97 3f fb d9 25 3f 89 fb fa 3e e4 96 17 3e
       1.1834971 0.64785737 0.4902003 0.14803654
000150 b7 8b 9f 3f 14 fc 5b 3e c7 33 a8 3e 78 b2 94 3f
       1.2464513 0.21482879 0.32852003 1.1616964
000160 7c 43 db 3f 60 b0 aa 3e e7 dd c7 3f bc be 9d 3f
       1.712997 0.33337688 1.5614594 1.2323833
000170 f6 b7 9e 3f f9 0b a8 3e 93 d9 41 3f f7 03 13 3e
       1.239989 0.32821634 0.75722617 0.14356981
000180 b5 34 11 3e 2f ec d9 3e e9 3d c5 3f 7a 4e 31 3f
       0.14180262 0.42563006 1.5409518 0.6926037
000190 64 b3 18 3f b7 85 db 3f 7b 48 16 3e b8 1f d5 3e
       0.5964873 1.7150182 0.14676087 0.41625762
0001a0 52 c5 14 3f 02 e7 ef 3f 85 4a b8 3e 82 5c 66 3e
       0.58113587 1.8742373 0.35994354 0.22496226
0001b0 3f 6d 14 3e d9 35 38 3e 85 9d 96 3f 70 c4 16 3f
       0.14494799 0.17989291 1.1766821 0.5889349
0001c0 1a 6e 71 3f 12 2f d7 3d 19 9c 11 3f fe c2 bc 3e
       0.94308627 0.10507025 0.5687881 0.36867517
0001d0 75 2c 7e 3e 1d 7f 23 40 d7 61 1c 3e 0a d2 8a 3f
       0.24821647 2.5546334 0.15271698 1.0845349
0001e0 aa 06 7d 3f 53 bc 7f 3f 28 77 30 3f 6c 28 55 3e
       0.98838294 0.99896735 0.6893182 0.20816201
0001f0 6b ec 58 3f 71 3b b0 3f 45 8a d2 3f 1c 7c a1 3f
       0.84735745 1.376814 1.6448447 1.2616

sequential/batch_normalization_2/FusedBatchNormV31 f4 [128]
000000 58 4f 3e be 2d a1 c0 be 15 a0 5e be bb a2 9e be
       -0.18584955 -0.37622967 -0.21740754 -0.30983528
000010 72 ca ca be e4 95 ce be 95 ba 01 bf 19 02 dd be
       -0.3960758 -0.40348732 -0.50675327 -0.43165663
000020 10 f0 92 be b4 fe b6 be 62 24 d9 be 73 2e d4 be
       -0.28698778 -0.35741198 -0.4241057 -0.41441688
000030 32 d4 ba be 32 c4 7c be fc 00 0f bf 74 ec b7 be
       -0.36490017 -0.24684218 -0.5586088 -0.35922587
000040 06 d2 3c be bf f1 fb be 55 1e ff be 69 f0 95 be
       -0.18439493 -0.49207875 -0.4982783 -0.2928498
000050 a6 ac 8f be 8a 6c 23 be 20 aa a8 be 62 1c 62 be
       -0.28061408 -0.15959373 -0.32942295 -0.2208114
000060 9e 60 a9 be 92 9a 64 be 27 23 c3 be 3d 4c 73 be
       -0.33081526 -0.22324589 -0.38112757 -0.23759551
000070 76 d4 7a be 51 33 cd be 05 d1 01 be fd 03 77 be
       -0.2449511 -0.40078214 -0.12677391 -0.24122615
000080 84 a3 86 be 2a 24 c2 be cb 57 39 be 06 0b 67 be
       -0.26296628 -0.37918216 -0.18099897 -0.22562799
000090 0a 08 97 be 26 a2 a0 be 98 9b d1 be b8 67 d3 be
       -0.2949832 -0.3137371 -0.4093902 -0.4129007
0000a0 18 51 cc be e2 b7 35 be 99 4d dd be f1 ca 6b be
       -0.3990562 -0.17745927 -0.43223265 -0.23026635
0000b0 79 29 d2 be 11 be d2 be 42 d5 e9 be 0c 37 88 be
       -0.41047266 -0.41160634 -0.45670515 -0.26604497
0000c0 00 13 a0 be 6d 65 7f be 96 c3 66 be 33 61 93 be
       -0.31264496 -0.24941035 -0.22535548 -0.28785095
0000d0 15 55 05 bf b4 11 e5 be 78 c5 6f be 77 f5 9e be
       -0.5208295 -0.4474007 -0.23415172 -0.3104665
0000e0 b7 42 7b be 9c 15 19 be e7 54 e2 be a6 14 ac be
       -0.24537168 -0.1494965 -0.442054 -0.33609504
0000f0 51 1d dd bd 83 15 07 be 21 f1 ed be d4 c4 f8 be
       -0.10796607 -0.131918 -0.4647303 -0.48587668
000100 80 6d a3 be 48 31 3c be c2 f3 55 be c3 62 82 be
       -0.3191948 -0.18378174 -0.20893767 -0.25465974
000110 7c ee e6 be 78 28 05 bf 40 56 12 be 9e c0 38 be
       -0.45103824 -0.52014875 -0.14290714 -0.18042228
000120 0e e4 d4 be aa 31 00 bf d7 c6 1c be 93 ad 05 bf
       -0.41580242 -0.5007578 -0.15310226 -0.5221798
000130 27 6e c6 be e5 63 a6 be 20 b5 6e be b8 7d db be
       -0.38755915 -0.32498088 -0.23311281 -0.42869353
000140 83 40 88 be 26 6c 67 be 99 f5 f1 be 3f 2c 0c bf
       -0.2661172 -0.22599849 -0.4725769 -0.54755014
000150 f4 4a ae be 2c f9 05 bf f6 26 b9 be 49 fe 02 bf
       -0.3404156 -0.5233333 -0.36162537 -0.5116926
000160 ed 9d 98 be 93 5b 6b be 10 62 88 be 37 8b 82 be
       -0.29807988 -0.22984152 -0.26637316 -0.25496837
000170 ed 25 cf be 79 76 89 be e8 5f 0a bf 5f c4 af be
       -0.40458623 -0.268482 -0.5405259 -0.34329507
000180 ea 67 16 bf 3f 1c 35 be 88 aa b6 be 98 74 88 be
       -0.5875231 -0.17686556 -0.3567698 -0.26651454
000190 53 cf a2 be 99 f3 81 be 52 96 14 bf 7c 24 5a be
       -0.317988 -0.25381163 -0.5804187 -0.2130298
0001a0 0a 8c c0 be 52 9d 1a be 23 f4 0d bf 4d ff db be
       -0.3760684 -0.15099075 -0.5545065 -0.42968217
0001b0 f5 cc 14 bf a8 10 1c bf 40 a6 77 be 79 ce d8 be
       -0.5812524 -0.60962915 -0.24184513 -0.42345026
0001c0 ac f7 95 be 2e 6c 02 bf 16 ff 4d be c6 2b 1d be
       -0.2929052 -0.5094632 -0.20116839 -0.1534873
0001d0 ab cf d9 be 65 d1 12 be 78 04 d5 be 6e 73 87 be
       -0.4254125 -0.1433769 -0.41604972 -0.26455253
0001e0 68 dc 27 be f8 1e 8e be e9 0d 3b be 33 a4 d4 be
       -0.16392672 -0.27758002 -0.18267025 -0.41531524
0001f0 b2 48 3b be 3b 68 f5 bd 44 7c b6 be 39 97 4f be
       -0.1828945 -0.11982771 -0.35641682 -0.2027253

sequential/dense/MatMul f4 [1, 8]
000000 57 59 8c bf 57 37 a9 bf df f8 d9 bf 4f c9 c8 bf
       -1.0964764 -1.3220013 -1.7029074 -1.5686435
000010 ca b4 8f bf f5 3a 57 3f f7 d7 a6 3f 9b bc 4b bf
       -1.1227047 0.84074336 1.3034657 -0.79584664

sequential/lstm/Read_2/ReadVariableOp1 f4 [32]
000000 1c b2 cb 3d 60 94 af 3d d6 9a a3 3d b5 f0 2f 3d
       0.09946081 0.08573222 0.07988517 0.042954165
000010 ec cb 2b 3d 34 1a 5d bc ee c5 6c 3d b6 3b 09 3e
       0.041942522 -0.013495017 0.057805948 0.13401684
000020 e6 5d 81 3f 1e c5 8b 3f 54 cb 88 3f 48 2c 8c 3f
       1.010678 1.091953 1.0687051 1.0951014
000030 17 5e 8e 3f 22 e5 95 3f e4 71 89 3f a6 84 93 3f
       1.1122464 1.1710551 1.0737882 1.1524856
000040 36 76 3f 3d f6 d0 92 3d 79 18 51 3d 63 e6 8c 3d
       0.046743594 0.071687624 0.05104873 0.0687988
000050 3d 81 77 3d 79 01 47 bd 5f bf 79 bd e7 ef 0f 3e
       0.060425986 -0.04858539 -0.06097352 0.14056359
000060 a6 c1 b7 3d 21 00 2b 3e 3f fa dc 3d 55 b3 c1 3d
       0.089724824 0.16699268 0.10789918 0.09458033
000070 54 9b 4e 3e 69 f5 df 3d 71 73 a6 3d 2a 99 4a 3d
       0.2017644 0.1093548 0.081274875 0.049462475

while/MatMul_11 f4 [32, 8]
000000 ae 22 02 be e9 97 c0 bd c9 79 16 be 86 85 d9 3e
       -0.12708542 -0.094039746 -0.14694895 0.42484683
000010 4a 9e b6 bd e6 15 7e be 0e 28 96 3d 28 9b 32 3e
       -0.0891691 -0.24813041 0.073318586 0.17442
000020 0e d9 02 3e 83 b7 78 3d f8 e5 10 3e d1 36 7f 3e
       0.12778112 0.060721885 0.14150226 0.24923255
000030 73 1b ba 3e 27 43 94 bd 1c bb a4 be 7b d2 e1 3e
       0.36349067 -0.07239371 -0.32174003 0.44105896
000040 08 82 01 3e e1 db 83 3e 11 d5 33 3e 98 cc b5 3d
       0.12647259 0.25753692 0.17561747 0.08876914
000050 55 0f a5 3e 01 12 bd 3e 32 31 9c bd e2 a3 3f bd
       0.3223826 0.36927798 -0.07626571 -0.04678715
000060 26 be cb 3e d3 64 05 3d 28 51 90 3e 47 5f 74 3e
       0.3979351 0.032566857 0.28186917 0.2386447
000070 01 3d 08 3e f3 75 a3 bc 30 da f2 bd 1f 31 6a 3e
       0.13304521 -0.019953704 -0.11858022 0.228703
000080 84 44 18 be 6a 19 b4 be ae ac 7f 3d b8 ae c0 be
       -0.14869887 -0.3517564 0.06242054 -0.376333
000090 d3 21 4e be e6 9d ee bd 09 95 e3 3c 29 9a 99 bd
       -0.2013009 -0.116512105 0.027781026 -0.07500107
0000a0 83 df b3 3d f3 5c a1 3e 4d 31 ac 3b fb 05 89 3d
       0.08782866 0.31516227 0.0052549005 0.06690594
0000b0 bc 49 0d be f7 63 39 bd 15 e8 1e be f6 5a 92 be
       -0.13797659 -0.04526135 -0.1551822 -0.28585023
0000c0 41 19 f4 3b 89 6f 8d be b7 25 ed be 6e d9 08 be
       0.0074492996 -0.27624157 -0.46317837 -0.13364193
0000d0 19 b4 26 bf c9 d6 bc 3e 99 ab 9b 3e 6f f1 92 bd
       -0.6511856 0.36882618 0.30404356 -0.07174956
0000e0 7c b5 dd 3e 00 64 ae 3e ab ce 52 bd b7 5a 4f be
       0.43302524 0.3406067 -0.051466625 -0.20249449
0000f0 f6 b5 2d 3e 33 de a2 be 1d 4f b6 be bf 75 af 3e
       0.16963944 -0.3181015 -0.35607234 0.3426952
000100 57 05 9f bd ff b6 64 3e 81 3e 58 3d bd ff f4 bc
       -0.0776469 0.22335432 0.052793983 -0.029907102
000110 cd 3b 2f bd 22 70 68 bb bd b3 20 3e 73 b9 cc bd
       -0.04278164 -0.0035467227 0.15693565 -0.09996309
000120 03 35 09 bf 14 69 0c 3e ec 6b 39 3e 00 4e 3d 3e
       -0.53596514 0.13711959 0.18107575 0.18486786
000130 0e 38 ca 3d 6c 3a 0f 3d f1 b5 6c 3d e4 8f 15 be
       0.09873973 0.034967825 0.0577907 -0.14605671
000140 df 86 3b be 21 d4 a9 3e 37 b9 6f be cb 5f 6c 3e
       -0.18313168 0.33169654 -0.23410498 0.23083417
000150 1e ad ca 3d 51 8d 66 3e a5 6e ee 3d f3 c7 50 3e
       0.09896301 0.22514845 0.116421975 0.20388775
000160 c8 d9 df bd dd 5b 03 be 56 2b 09 be 83 70 39 3d
       -0.1093021 -0.12828012 -0.13395438 0.045273315
000170 2f 65 d4 bc 9b 86 a7 be 6d 69 a3 3e d0 7d 93 be
       -0.025927154 -0.32719883 0.3191637 -0.28806925
000180 2f dc 54 be 96 4b 9c 3e 0c bb 1b bd 8c d6 27 3e
       -0.20787118 0.30526417 -0.03802018 0.16390437
000190 e2 ab fb be fc dd 16 3e e3 61 79 3e 09 f5 93 3e
       -0.49154574 0.14733118 0.24353747 0.28897884
0001a0 15 20 3d 3e 94 e8 f9 bd 62 22 1f 3e 19 7c b8 3e
       0.1846927 -0.12202564 0.1554046 0.3603218
0001b0 ee cb 1c be 10 8c e0 bc c6 35 99 bd db 77 63 3e
       -0.15312168 -0.027410537 -0.074809596 0.2221369
0001c0 a6 c7 0d be 81 66 f6 3d 5e 45 5e bc fb 61 fc 3b
       -0.13845691 0.1203127 -0.013566343 0.00770211
0001d0 7e 21 3a be 88 8a e6 3d 52 bb e8 bd 22 62 e9 bd
       -0.18176839 0.112568915 -0.113638535 -0.113956705
0001e0 3d ee 9a bb 93 79 61 3e 64 25 92 3e b4 f2 22 3e
       -0.0047281072 0.22019033 0.28544152 0.15912896
0001f0 58 db b3 3e 96 6e af be b4 08 89 be 98 5a 93 3d
       0.35128284 -0.34264058 -0.26764452 0.07195014
000200 e3 a0 a9 3e 23 d9 58 3e 58 c1 99 3d 3b 4f a2 3e
       0.3313056 0.21176581 0.075075805 0.31701073
000210 e5 b2 f6 3e 89 2d 57 be 79 6b 86 be 1f c9 b8 3d
       0.4818336 -0.21013464 -0.2625387 0.09022736
000220 7f 1b 05 3d 00 a9 b9 3e 54 ac 7f 3e 2f 40 e7 3e
       0.032496925 0.3626175 0.24968082 0.45166156
000230 f8 4e 4c bd 20 ee f8 be a2 bd 58 be 07 35 94 be
       -0.049879998 -0.48619175 -0.21166089 -0.28946707
000240 6d 65 6f be e7 af 60 bd b3 5c 3e be 41 37 29 3e
       -0.23378535 -0.054855254 -0.1859005 0.16524984
000250 b2 90 a8 bd 52 8b b8 be 5a d9 28 3e 96 d7 5b 3e
       -0.082307234 -0.36043793 0.16489163 0.21468958
000260 e0 58 a2 bd c0 3a 3d 3e 7a 7e 1f 3e 59 a1 88 3d
       -0.07927108 0.18479443 0.1557559 0.066713996
000270 fd 7b 65 3e 08 0f d7 be e5 f5 a2 3e 7f 79 13 3d
       0.22410579 -0.42003655 0.31828228 0.03600454
000280 41 e2 81 be b9 5d 7b 3d 8d 1f 13 be 85 cb ff 3d
       -0.2536793 0.061368678 -0.14367504 0.1248999
000290 4b 38 07 3d 78 b8 ba bd 8b 1b f4 be 4d ce d6 bd
       0.03301267 -0.09117216 -0.47677264 -0.104885675
0002a0 bb d8 a2 bd 40 cb d9 3c 74 eb d0 be 59 af 24 be
       -0.07951494 0.026586175 -0.40804636 -0.16082515
0002b0 eb c0 a3 bd aa dc bc 3c 0b 28 9f 3d a0 50 b0 3e
       -0.079957806 0.02305444 0.077713095 0.34436512
0002c0 3b 26 49 3e 03 b6 c3 be 6a f2 f1 be 3c 0f a6 bd
       0.1964349 -0.382248 -0.4725526 -0.081083745
0002d0 eb 00 2b bd c0 d4 c6 3e 8e 85 fe bd b6 b2 3d be
       -0.041748922 0.3883419 -0.12427817 -0.18525204
0002e0 84 b7 53 3e b1 f4 96 bd 45 d1 aa 3e 3c 19 97 bd
       0.20675474 -0.0737089 0.33362785 -0.0737786
0002f0 f4 3e 95 bc 85 c7 a0 3d b1 4e d6 be 17 35 89 3e
       -0.018218495 0.07850555 -0.41856912 0.26798317
000300 64 48 47 3e 88 ac ed 3d ee 9b 2d 3e 61 f8 83 bc
       0.19461209 0.11605173 0.16954014 -0.016109647
000310 16 cf 72 3d 59 04 b7 bd 25 b2 c4 bb 11 36 a2 3e
       0.059279524 -0.08936376 -0.006002682 0.31681874
000320 44 b6 4a 3e a7 61 ce 3e 4e 04 e9 bd 2a 41 01 be
       0.19796091 0.40308878 -0.11377774 -0.12622514
000330 d1 9a e6 3d 2c 9a 58 3e fb 28 0f 3e 27 72 66 3e
       0.11259998 0.21152562 0.13980477 0.22504483
000340 6c ef 69 3e 6d 72 a2 3a 78 df 84 bb 22 dd f9 3e
       0.22845238 0.0012393721 -0.00405496 0.48801523
000350 d0 d2 20 3d 1d 20 21 be a0 40 d0 3c 52 dc a5 3d
       0.039263546 -0.15734906 0.02542144 0.080986634
000360 18 c2 53 3d 20 10 80 bb 13 18 49 3b e2 6d 19 3e
       0.051698774 -0.0039081722 0.0030684515 0.14983323
000370 5c 11 09 be 78 06 21 be 64 21 b0 bd 19 6c 7e 3e
       -0.13385528 -0.15725124 -0.08600119 0.24845923
000380 b4 51 92 3e 23 91 07 3e 16 b1 97 3e 8a d0 e3 3d
       0.2857796 0.13238959 0.29627293 0.1112376
000390 54 a0 be 3d 99 25 f9 3d c5 0f 8b 3e 82 27 63 3d
       0.09307924 0.12165374 0.2716047 0.0554576
0003a0 2c 12 c4 bc be 8a 05 3e 24 87 64 bc 0f 8b 31 be
       -0.023934446 0.13041207 -0.013948236 -0.17338203
0003b0 09 8c 0a be 30 8c b3 be 17 59 68 3e 4c 86 73 bc
       -0.13529982 -0.35067892 0.22690235 -0.014863562
0003c0 8f ea 71 bd 80 e9 c4 3d ed b5 5c be 9a 70 1f be
       -0.059061583 0.09614849 -0.21553774 -0.15570298
0003d0 cf 64 79 3d 9a 76 e8 b9 6e 90 00 be 8f 43 02 be
       0.060887154 -0.00044338853 -0.12555096 -0.12721084
0003e0 65 76 bb 3e db 4a 2b 3f be 5a 05 3f 18 08 2d 3f
       0.36613765 0.66911095 0.52091587 0.67590475
0003f0 ce 5c ba 3e 79 b5 08 bf 2f 52 09 bf bd c2 dc 3e
       0.3639893 -0.53401905 -0.5364103 0.43117324
