models/model.tflite (tflite, 586292 bytes, 17 tensors)

sequential/conv2d/BiasAdd/ReadVariableOp f4 [32]
000000 6c 56 37 3c d5 d7 2f 3d 19 dc 39 3d 41 fb 8b 3d
       0.011190038 0.042930443 0.045375917 0.06835032
000010 3c 7f 36 3c d7 aa 87 3d 21 ae 05 3e b1 ef d3 3d
       0.0111387335 0.06624382 0.13054706 0.10348452
000020 42 a1 42 3d 4a f0 0f 3d 89 04 23 3d 95 02 b4 3d
       0.04751707 0.035141267 0.039799247 0.08789555
000030 07 55 fc 3c 23 88 cd 3c ac 11 05 3d 14 08 f2 3c
       0.030802263 0.02508933 0.032487556 0.029544868
000040 42 39 c5 bc e5 78 bd 3d 59 3b 39 bc dc b4 93 3d
       -0.024075154 0.092515744 -0.0113056535 0.072122306
000050 5e 43 a6 bc 0c fc 30 3d 17 f2 55 3d fb 1a 3a 3e
       -0.020295795 0.04320912 0.052232828 0.18174355
000060 d7 1c c5 bc 18 d2 84 3d 6b 20 b3 3d a2 dc df 3d
       -0.024061603 0.06485385 0.087464176 0.10930754
000070 55 a0 c5 3d 03 9a 9d 3d dd 7c 13 3e fb 5b 23 3e
       0.096497215 0.07695391 0.144031 0.15953057

sequential/conv2d_1/BiasAdd/ReadVariableOp f4 [64]
000000 16 e3 e4 bd ab c5 1d bc 7e 58 77 bd fc 67 59 3d
       -0.11176126 -0.009629647 -0.060387127 0.053077683
000010 88 a1 2a 3d 00 26 ca bd 02 68 1f be 3d ef 35 3d
       0.041657954 -0.09870529 -0.1556702 0.04441761
000020 ef d3 93 bd a4 28 6f bd 8f a8 22 3b 57 b4 b6 3d
       -0.072181575 -0.058388367 0.0024819707 0.08921116
000030 08 dd d6 3d 3a 90 1c bd 02 c7 40 3d f7 b0 0f be
       0.10491377 -0.038223483 0.04706479 -0.1403235
000040 57 9c c4 bc b3 9e 2e bb af 5a cc bc 61 2f 34 be
       -0.02400033 -0.0026644885 -0.024945585 -0.17596199
000050 c8 9a fa bc e2 74 e8 3c 7f b7 3c 3d 47 c7 b8 3c
       -0.030591384 0.028376047 0.046073433 0.02255596
000060 f1 d9 e4 3d e5 c1 88 bd 7a 74 d0 3c a8 93 17 3d
       0.111743815 -0.066776074 0.025446165 0.03700605
000070 ad 09 8b bc 4a a7 94 bd 7f 9b 65 bd 6b 28 80 bd
       -0.016972387 -0.0725847 -0.056056496 -0.06257709
000080 d7 d9 94 bd 68 7f ea 3c ba 11 97 3c b4 a5 8b 3d
       -0.07268112 0.028625205 0.01844107 0.06818715
000090 c1 70 86 3d b1 cf 5a 3d 2a e3 34 be 43 36 47 3c
       0.06564475 0.053420726 -0.17664781 0.012158933
0000a0 79 8a 59 bc 7a db f2 bd b8 d6 c7 bd 80 80 0c 3c
       -0.013277643 -0.11858268 -0.09757751 0.008575559
0000b0 01 ff 50 3d 50 0c 79 bd e2 c9 bb 3d 8e 7f ac bd
       0.05102444 -0.060802758 0.091693655 -0.084227666
0000c0 bf 69 69 bd be 6e 8b 3d a3 e1 fb bd 30 7f 6f bb
       -0.056985613 0.06808232 -0.12298896 -0.0036544316
0000d0 37 e8 71 bb 5f bc 30 be 66 b1 1d be 69 a6 d2 bb
       -0.0036912092 -0.17259358 -0.15399703 -0.006428529
0000e0 d2 02 58 bd 11 e8 1e be 82 e6 0c bd c5 00 08 be
       -0.052737065 -0.15518214 -0.034399517 -0.13281544
0000f0 c8 a1 b6 bd a9 ba 74 3d 19 4e 7b bd 4a 1d 8b 3d
       -0.08917576 0.059748325 -0.061353777 0.06792696

sequential/conv2d_2/BiasAdd/ReadVariableOp f4 [128]
000000 56 df 18 be 1b 60 56 bc f3 10 08 bd a6 a5 ff bb
       -0.14928946 -0.013084437 -0.03321929 -0.0078017293
000010 30 2f 28 bd 49 3f 1d 3d 96 11 ff bc 95 d2 5e bd
       -0.041060627 0.03839043 -0.031136315 -0.054400045
000020 e5 30 0e bd 5e 5f c4 bd d9 78 17 bc 78 e4 d0 bb
       -0.0347146 -0.09588502 -0.009245121 -0.006374892
000030 46 3f b3 3a 8c e3 a0 bd 55 8e d6 3b e9 0d 3c 3d
       0.0013675473 -0.07855901 0.006547729 0.045911703
000040 8a e6 85 bd 46 9a 30 3c 52 0f 46 bd ec cd 43 3d
       -0.065381125 0.010778969 -0.048354454 0.047803804
000050 1f af 37 be 81 87 7c 3d fd 37 1c bd c7 bd 18 bd
       -0.17937897 0.061652664 -0.038139332 -0.03729036
000060 86 70 a2 bd b2 b4 bc 3d ca 38 b0 bd 4e b4 09 bd
       -0.079316184 0.092141524 -0.08604582 -0.033619218
000070 cb 4a a2 bd cb c1 5f 3b 15 4a 6c 3d 0f d4 66 3c
       -0.07924422 0.003414261 0.057687838 0.014088645
000080 98 04 07 bd 90 2f 29 bd 73 b7 38 3d 57 7f 08 3d
       -0.032963365 -0.041305125 0.045096826 0.033324566
000090 ae 96 2f bd f2 b4 f6 bd 4d b0 19 bb 2f 61 a3 bc
       -0.04286831 -0.12046231 -0.002345103 -0.019943802
0000a0 3c 69 be bd 4b 44 b0 bd ee 74 48 be a6 ae 9e bb
       -0.092974156 -0.08606776 -0.19575855 -0.004842597
0000b0 3d 92 14 be e7 c5 f1 bc 91 bc 3d bd 59 f4 f9 bc
       -0.1450891 -0.029513313 -0.04632241 -0.030512022
0000c0 18 1b af bd 94 9c 91 bd 53 e9 e0 3c 81 10 c8 bc
       -0.085500896 -0.07109943 0.027455008 -0.024421932
0000d0 9b 0d 2f 3c 5b a6 12 bd 41 97 16 bb 97 0b a2 3b
       0.010684396 -0.03580318 -0.0022978338 0.0049452293
0000e0 99 c8 89 bd 80 c6 5f 3c 75 a4 bf bd cf 4f 00 3d
       -0.06727714 0.013658166 -0.093575396 0.03132611
0000f0 25 fc d0 3b 9b b9 33 3d 66 bf 47 3d 2b db 80 3d
       0.006377714 0.04387818 0.048766516 0.06291803
000100 91 3b 0a be 4c dd e8 bd bf d9 b0 bd 78 47 e3 bd
       -0.13499285 -0.11370334 -0.08635282 -0.11097616
000110 6b 58 8a bd 60 3c 1f bc 7e 95 c2 3c 0f 02 88 bd
       -0.06755146 -0.009718984 0.023752924 -0.06641018
000120 f0 62 05 be a4 82 59 bc d7 d8 b8 bd 56 4a b9 bd
       -0.13026023 -0.013275776 -0.09025734 -0.090473816
000130 2b d1 34 bd 5b 32 66 bd 81 7b 19 bd 54 41 2d 3d
       -0.04414479 -0.056200366 -0.037471298 0.04229863
000140 cc 94 53 3b 41 a2 e9 3c 8c ce 15 3c 85 ff 07 bd
       0.0032284735 0.028519752 0.009143483 -0.033202667
000150 11 3e 86 3d 01 c0 8b 3c e3 e7 0e be c6 ae fc 3d
       0.06554807 0.017059328 -0.13955645 0.12338023
000160 8c bb f6 bd 77 3e c4 3d 76 32 e9 bd 1c 64 00 bd
       -0.120474905 0.09582227 -0.11386578 -0.03134547
000170 7a d2 0d be d6 0b 9a bd 0b 92 c1 bd 80 60 56 bd
       -0.13849822 -0.07521789 -0.094516836 -0.052338123
000180 75 24 b3 bd 13 49 10 bd f1 b6 8e bd ca 99 a6 3c
       -0.08747188 -0.03522594 -0.06968487 0.020337004
000190 e4 e9 7f bd e8 7a af bd c6 74 53 3d 1d 3c db bd
       -0.062478915 -0.085683644 0.051625036 -0.10704825
0001a0 20 69 c9 bd 1f b2 6f bd cd de 1b 3c 20 57 00 be
       -0.09834504 -0.05851948 0.009513569 -0.12533236
0001b0 c7 ed 81 bd b1 06 c7 38 57 ea 21 3d 37 b5 7a bd
       -0.063441806 9.490306e-05 0.039530125 -0.061207976
0001c0 c6 6b 2b bc 9d 6b e1 bc 8b 86 a9 bb 19 c1 25 be
       -0.010462707 -0.027517134 -0.0051735095 -0.16186942
0001d0 e1 9c 87 bd b4 1f 01 be 33 56 24 be 02 15 fd bd
       -0.06621719 -0.1260975 -0.16048507 -0.123575225
0001e0 fa 15 5a bd ea 54 7e bc 19 38 58 3b 28 c4 35 bd
       -0.053243615 -0.015523175 0.0032992421 -0.044376522
0001f0 73 69 e3 bd 76 09 01 be 53 e0 ca 3c 0f 3f 3a bd
       -0.11104097 -0.12601265 0.02476517 -0.045470294

sequential/conv2d/Conv2D f4 [32, 5, 5, 1]
000000 08 55 eb 3d 0d 31 cc 3c 70 1e 80 3d be 87 bf bd
       0.11490828 0.024925733 0.062558055 -0.09352063
000010 0f c9 d6 bb 00 36 07 be c3 1c 1d bd 0a 16 2c 3c
       -0.00655473 -0.13204193 -0.038357507 0.010503301
000020 0e f8 d2 bd f7 47 2d bc c4 f7 06 be 50 22 49 be
       -0.10301219 -0.01057624 -0.13180453 -0.19641995
000030 71 46 b3 bc fb 69 8d bd 5c 45 5f be 1f b0 b7 3d
       -0.021884175 -0.0690498 -0.21803802 0.08969139
000040 dd 1b 8e 3c 88 9a 2e 3d 0b 1f 47 be 57 f9 f3 bd
       0.01734727 0.04262784 -0.19445436 -0.11912792
000050 dc cb ad 3d d9 b1 f5 3c 56 8e ac 3d 18 96 58 3c
       0.08486149 0.029992031 0.08425586 0.013219379
000060 fb b6 69 be 2a f8 8b 3d df 8c 14 3e 8a f0 87 3d
       -0.22823708 0.06834443 0.14506863 0.06637676
000070 f9 b7 f4 3b 21 d7 70 3b 19 39 5f 3d 20 48 58 bd
       0.0074682203 0.003674932 0.054497812 -0.05280316
000080 5c cd 92 3d 05 8b 29 3e 19 ed c0 3d 0d 16 0c bd
       0.071680754 0.16556938 0.09420223 -0.034200717
000090 4f ac 7f bd 49 0c 97 3b 87 52 59 3d 4e da c3 3d
       -0.062420186 0.004609619 0.05305722 0.09563123
0000a0 f7 b3 3f be 37 68 89 3c 1d a6 81 bd 36 f9 48 be
       -0.18720995 0.016773326 -0.06330512 -0.19626316
0000b0 cc 5c 77 3d 01 01 cf bd 62 4b 0c be cf 07 2f 3c
       0.060391232 -0.10107613 -0.13700631 0.010683014
0000c0 f2 e9 8c bd 1f bd 54 bc ed 27 5a bd 02 aa 1e be
       -0.06880559 -0.012984543 -0.053260732 -0.1549454
0000d0 e6 7b 14 3e 2b 42 11 3d 8b be 94 bd df b4 51 be
       0.14500389 0.035463493 -0.07262906 -0.20479153
0000e0 9c 02 2e be 35 de 11 be b2 c3 bb bd 4a c0 ff 3a
       -0.16993183 -0.14244922 -0.09168185 0.0019512263
0000f0 11 d5 4b be ec 0b 91 be 3c c0 00 bd 48 59 17 3c
       -0.19905497 -0.28329408 -0.03143333 0.009237595
000100 65 f2 d1 bd 82 17 c9 bc 63 3a 8e bd 30 20 2b bd
       -0.10251311 -0.024547342 -0.0694473 -0.041778743
000110 6b 5b bf 3c e6 3a 5e bd 39 e8 fe 3d 59 d0 04 bb
       0.023359021 -0.05425539 0.12446637 -0.0020265786
000120 f3 e8 23 bc ab a5 17 bb 46 d7 73 3d 15 4d f4 3d
       -0.01000427 -0.0023139517 0.059531473 0.11928765
000130 a6 9c f4 bd 28 41 56 be 30 d8 52 be b9 ee e0 3d
       -0.11943941 -0.20923293 -0.20590281 0.10983033
000140 72 fa 2d be ab 68 24 be 31 c1 c0 bd 71 2d a1 bd
       -0.16990069 -0.16055553 -0.09411848 -0.078699954
000150 4e 46 bb bc 0d fd 13 bc c0 99 ce b9 b7 48 1e be
       -0.022860672 -0.0090325 -0.00039405935 -0.15457426
000160 3c e6 2f 3d a7 1b 35 3d 60 49 2d bd 23 fb 7e 3d
       0.042944178 0.044215824 -0.042306304 0.06225122
000170 81 aa c1 3c 92 10 88 3d 66 be 09 3e f5 24 0f 3c
       0.023640873 0.066437855 0.13451537 0.008736839
000180 cf bb 7e 3c 2b 1a a1 3d b2 28 88 bd c3 56 53 bd
       0.015547707 0.07866319 -0.06648387 -0.051596414
000190 38 26 8a bd b8 3d 03 3d da f4 e3 bd 65 cf aa bd
       -0.06745571 0.03204128 -0.11130686 -0.083403386
0001a0 8e dc 18 be 9a 2e 94 bd 2a 63 18 3c 36 dc 2e 3e
       -0.14927885 -0.07235451 0.009300986 0.17076191
0001b0 82 5e 87 3d f2 f9 06 be b8 c7 cd bb 4c 78 40 ba
       0.06609823 -0.13181284 -0.006279912 -0.00073421444
0001c0 59 44 2b 3e c3 0a 4c 3d d2 5f 78 3d ae 6c 95 3d
       0.16725291 0.04981495 0.060638256 0.0729612
0001d0 67 d5 b3 bc c4 21 48 3e c3 f3 a5 bd 2e 5b 17 be
       -0.021952344 0.1954413 -0.081031345 -0.14780876
0001e0 95 ff 43 3c db 85 55 3b 9e eb bb bc 2a f7 8a 3c
       0.011962791 0.0032581005 -0.0229395 0.01696356
0001f0 53 fd ef bd 27 6b 53 3d db 8b 1a 3d 54 c8 b6 3d
       -0.1171824 0.05161586 0.037731033 0.08924928
000200 bd bc 8a bd e9 7b 72 be ba 67 5a 3d 11 d5 f4 3d
       -0.0677428 -0.2368008 0.053321578 0.11954702
000210 9e 27 33 bb 2d 61 63 be 31 da 64 be c8 92 1f bd
       -0.0027336846 -0.22205038 -0.22348858 -0.03895834
000220 96 74 26 be 87 67 cb bd 8b 6a 2f be c9 26 2d be
       -0.16255412 -0.09931856 -0.17130487 -0.16909327
000230 fd e5 fd bd 7b f4 22 bc ec 3c bb bc c3 49 d2 bd
       -0.123973824 -0.009945984 -0.022856198 -0.10267975
000240 ef cc 35 be 76 6b 1f 3d 1d 2a 4a bc 34 71 24 3c
       -0.17753957 0.038920842 -0.012339142 0.010036755
000250 9a cf a5 3d fc d4 73 be 62 17 57 3d 16 45 75 3c
       0.080962375 -0.23811716 0.052512534 0.014970085
000260 56 32 3a be 6b 19 76 be ca 58 6c be 6e ea 1b 3d
       -0.18183264 -0.24033134 -0.23080745 0.038065366
000270 a8 82 ba 3d 04 ab 4d be c9 1e 7a be b1 0b 9f bd
       0.09106952 -0.20084769 -0.24425806 -0.07765902
000280 1b 76 04 3b 2e 1f c5 bb a7 10 05 be 8d bc 55 bd
       0.0020211998 -0.00601568 -0.12994634 -0.05218177
000290 41 35 d6 3c 8a 63 04 bd de de 92 bd 3e 0e 14 3e
       0.02614844 -0.03232149 -0.07171415 0.14458558
0002a0 b4 f8 f4 3d aa 5c da bc 54 e2 3b bd 0f f6 88 3d
       0.11961499 -0.026655514 -0.04587014 0.06687557
0002b0 f9 a6 29 bc 38 a3 c6 3d e3 0e 04 3d dd c6 24 bd
       -0.010354751 0.096991 0.03224076 -0.040228713
0002c0 32 d1 01 be 99 2f 3d 3d 30 94 f6 3d 3e 73 6e bc
       -0.12677458 0.04618797 0.12039983 -0.014553843
0002d0 20 81 db 3d 82 a3 84 bc ad 0d 82 3d eb 33 29 3e
       0.10717988 -0.016191248 0.06350265 0.16523711
0002e0 6f f4 25 3d b3 c8 2e bd 30 e9 39 be 7e 15 26 3d
       0.040516313 -0.04267187 -0.1815536 0.04054784
0002f0 92 f4 5c bd 09 d5 52 bd fc 19 51 3d 04 48 79 bc
       -0.053944178 -0.051472697 0.05105017 -0.015214924
000300 46 15 90 bd 44 53 8d 3a 64 8a 09 be 86 36 30 3d
       -0.070353076 0.0010782261 -0.13431698 0.043020748
000310 86 40 cb bc 8d 39 19 3d a7 3a 07 be d2 92 35 be
       -0.02481104 0.0374084 -0.13205968 -0.17731789
000320 96 f0 30 bd 3f 27 03 be 72 37 a2 3d 0c e9 72 3b
       -0.04319819 -0.1280794 0.079207316 0.0037065176
000330 bc 9a f9 3d ac 71 45 be 5c c1 75 be 7e a0 e7 3c
       0.12187716 -0.19281644 -0.23999542 0.02827477
000340 df 9a aa bc 5e 3b ca bc d8 60 ab be 45 aa 9f be
       -0.020825801 -0.024686512 -0.33472323 -0.31184593
000350 b0 07 b5 bd ff 8b 2a be bc 1f 95 bc 0d dd ac be
       -0.08839357 -0.16654967 -0.018203609 -0.33762398
000360 96 83 bf be 7b 95 5c be ec c9 cb bd 1f 71 eb bd
       -0.3740508 -0.21541397 -0.09950623 -0.114961855
000370 15 ba 4e be 5e 07 e0 bd 17 a0 1d bd 5d e7 83 bd
       -0.20188172 -0.10938905 -0.03848275 -0.064406134
000380 cd fb d3 3c 53 8b 66 be ea 13 40 bd 15 9e 94 bd
       0.025876904 -0.22514085 -0.04689399 -0.07256714
000390 30 41 d8 bd 14 01 17 3d 1c a4 a0 3b 7b 94 08 be
       -0.105593085 0.036866263 0.004902376 -0.13337891
0003a0 da 01 6a be 7a 6b ba bd 19 43 94 bb f1 95 1a 3e
       -0.22852269 -0.09102531 -0.0045246 0.1509626
0003b0 6b d9 02 3e 36 b5 1c bd 4e 49 35 bd 54 0e d0 3d
       0.12778251 -0.038258754 -0.044259362 0.10158983
0003c0 54 df 1f 3d b1 ea 74 3d 2e e8 98 3d e1 0f 68 3c
       0.03903134 0.05979413 0.0746616 0.014163942
0003d0 97 db c4 3c f4 fc 4d bc fe 5d 66 3c 70 ae 19 3d
       0.02403049 -0.012572516 0.014060495 0.037519872
0003e0 07 06 e0 bd 4a 2f fc bd 71 d9 36 bd 4e 4e b2 bd
       -0.109386496 -0.12313707 -0.044640962 -0.08706342
0003f0 d0 6f 29 be 3d 8b 06 bd 34 2e 56 3d b9 5a 9b 3d
       -0.1654656 -0.03284763 0.052290156 0.07585663

sequential/conv2d_1/Conv2D f4 [64, 5, 5, 32]
000000 4d 4d ef bc 6e af 77 bd 45 fe 2d bd 70 2b ce bd
       -0.029211665 -0.060470037 -0.04247882 -0.10066879
000010 dd 3d a0 bd 28 d5 51 bd 80 2f 60 bd 8a b8 d9 bd
       -0.078242995 -0.051228672 -0.0547328 -0.10630901
000020 ef 2c dc bd 28 53 6c bd 5a 4b 36 bd 8e 79 00 3d
       -0.10750758 -0.05769649 -0.044505455 0.031365924
000030 58 e6 d6 bc 49 e9 d1 bd f6 21 66 bd 58 cd 3e bd
       -0.026232883 -0.10249574 -0.05618473 -0.04658255
000040 30 22 d3 bd 38 79 7e bc 09 92 9e 3d 9f 93 1f bd
       -0.10309255 -0.0155318305 0.07742698 -0.03895914
000050 e4 e9 d5 bd 43 7b 3a 3b 73 dd db bc 40 88 c4 bd
       -0.10445002 0.0028454817 -0.026838994 -0.095963
000060 de 54 98 b9 d3 7c e4 bc f3 7f 2e 3c fc 49 ad bd
       -0.0002905493 -0.027891552 0.010650623 -0.08461377
000070 e5 7c 97 bc 6d 2c 33 3d 1f be 17 bb 66 20 a9 3d
       -0.018492172 0.04374354 -0.0023154092 0.08258133
000080 db 9b 15 3c 58 f3 ac 3c c8 f4 c5 3d f4 b9 82 bd
       0.009131397 0.02111213 0.09665829 -0.06383124
000090 77 9b 28 39 d7 84 18 bc c3 5a 26 bd f6 67 e9 3d
       0.00016079644 -0.009309015 -0.0406139 0.11396782
0000a0 1d a5 38 bd 9e f6 0e be 47 e4 08 bc 31 5b 8e 3c
       -0.04507934 -0.13961264 -0.008355207 0.017377468
0000b0 4a fd 59 3c 00 39 f3 3d fe be cc 3c 6a a9 f5 3b
       0.013305018 0.11876106 0.024993416 0.0074970024
0000c0 06 f5 66 3d f4 2c 22 3d 2b db 28 3d 25 69 6d 3c
       0.056386016 0.039593652 0.04122464 0.0144904
0000d0 58 5f f9 bc c9 a4 d0 bc ff 61 8f bd ec 74 6c b9
       -0.030440971 -0.0254692 -0.07001113 -0.0002255027
0000e0 34 30 90 ba dd d5 9b bc bb a8 62 bd 42 09 24 bd
       -0.0011000694 -0.019022876 -0.055336695 -0.04004789
0000f0 d9 52 2b 3d 47 9c 8a 3b 00 d6 c3 3d fd e1 49 bd
       0.041827057 0.0042300555 0.09562302 -0.049287785
000100 ec 11 b0 3d cf 05 a8 3c 81 e0 fd 3d 7f 37 8d bd
       0.08597168 0.020510582 0.12396336 -0.06895351
000110 4a f6 88 3d 08 9a 0a 3e 6c 7a 5a bc f0 1a 91 bd
       0.06687601 0.13535321 -0.013334852 -0.07085216
000120 b7 97 0f 3c cf 98 bc bc b8 17 af bc 65 de 6d 3d
       0.008764199 -0.023022084 -0.021373615 0.05807342
000130 d2 82 cf 3d 91 89 1e 3e 07 b3 3b 3d 69 fb bb 3d
       0.10132374 0.15482165 0.04582503 0.09178812
000140 ca 08 e7 3d ca cb 0c bb d4 a3 c7 3d 43 4a 02 bb
       0.11280973 -0.0021483772 0.097480446 -0.001988069
000150 cd 2b 34 3d e4 23 78 3c e2 7c 11 3d c4 2b a1 3c
       0.043987084 0.015145276 0.03551949 0.01967419
000160 06 05 8a 3d 99 9c a3 3d 57 84 8b 3d f9 a6 c3 3d
       0.067392394 0.07988853 0.06812351 0.09553332
000170 d7 e4 cf bd bc 01 cd 3d 49 fd 82 3d 12 b4 8e 3d
       -0.101510696 0.100100964 0.063959666 0.069679394
000180 e3 18 f0 3d a5 ad 94 ba d4 ae 75 3c cc bf 13 3d
       0.11723497 -0.0011343254 0.014995296 0.036071584
000190 4b a1 b4 3d f8 45 cf 3c 5a a9 55 3d a2 1f d7 bc
       0.08819827 0.025301918 0.05216346 -0.0262602
0001a0 e9 d4 d2 3d b5 9d 15 3e 12 ac 8a 3a 4a 65 d3 3c
       0.10294516 0.14610942 0.0010579845 0.025805134
0001b0 d9 d6 df 3d 1a 34 54 3c 0c 6a 42 3e e1 8c 0a 3e
       0.10929651 0.012951875 0.18985766 0.13530304
0001c0 fc 24 b7 3d fa b5 8a bb 7d 2b 2b 3d 06 91 44 3d
       0.08942601 -0.004233119 0.04178952 0.047989868
0001d0 f1 63 ce 3d f2 6b cc bc 88 f4 76 bc 32 c7 04 3c
       0.10077656 -0.024953816 -0.015072949 0.0081041325
0001e0 9e 8e ad 3c ad 24 b9 3d 33 3c 40 3d 56 b2 a4 3d
       0.02118617 0.090401985 0.04693241 0.080418274
0001f0 f5 65 9b 3d 42 73 04 3e e6 4f eb ba 7b 31 7e 3d
       0.07587806 0.12934592 -0.0017952889 0.062058907
000200 68 e7 7e bd 32 5f 0f bc 7f 6f 19 bd 60 06 9b 3c
       -0.062232405 -0.008750724 -0.037459847 0.018923938
000210 a2 97 f8 3c ac 9f 9e bd 60 3d 16 be 44 89 87 3b
       0.030345742 -0.07745299 -0.1467185 0.0041362364
000220 d6 0c 86 3d 0b ac 5b 3d aa b8 09 ba 41 81 84 3c
       0.06545417 0.05363087 -0.00052536523 0.016174914
000230 36 9d bd bb 7c b5 d9 bd 85 c8 00 be 93 b1 f8 3c
       -0.0057865633 -0.106303185 -0.12576492 0.030358111
000240 ef f3 29 bd 21 06 2a bc 85 ff eb 3d 6b a7 7e 3b
       -0.0414924 -0.010377438 0.11523346 0.0038857113
000250 5e c3 10 bb 5c a2 d3 bd 13 37 b2 bd c3 80 e6 bc
       -0.0022089104 -0.10333702 -0.08701911 -0.02813757
000260 d4 5d 05 bc fd fb 87 bc 22 27 20 bd 26 14 86 b9
       -0.008140046 -0.01659965 -0.03909982 -0.00025573483
000270 f0 72 eb 3c 3f bf 01 3d 07 03 a4 bd 02 c7 5a bd
       0.02874133 0.031676527 -0.0800839 -0.053412445
000280 18 e8 6f 3d fa 15 07 3c 20 3a 59 bd 55 91 19 3d
       0.05857095 0.008244986 -0.053033948 0.037492115
000290 f7 7a be bc 93 ea ee 3d b7 0f b5 3d 0b e9 de bd
       -0.023251994 0.11665835 0.08840888 -0.10884293
0002a0 1f a6 af bd 88 be 1f bd 18 26 93 bd 6e 11 2e 3d
       -0.08576607 -0.039000064 -0.07185 0.04249709
0002b0 8d 31 8a 3d 63 82 b9 3c 83 16 87 3c c6 c6 8b bc
       0.06747732 0.022645181 0.016490227 -0.017062556
0002c0 be e4 01 bd 36 e7 bc bd 12 e9 5e 3d e9 0c 87 bd
       -0.031712286 -0.092237875 0.054421492 -0.06594259
0002d0 d7 c1 36 bd 38 98 16 3b 92 90 8c bc fc 53 bb bd
       -0.044618454 0.0022978913 -0.01715878 -0.09146878
0002e0 eb 1d 1b bc 29 1d 86 bb b7 e1 de bc 16 19 23 be
       -0.009467582 -0.0040928316 -0.027207239 -0.15927538
0002f0 8d 25 18 bb 81 a5 81 3c a0 75 8c bc 6e 3a 18 3d
       -0.0023215741 0.015825989 -0.017145932 0.037165098
000300 8f 2f 28 3d c5 a3 80 3b 45 a3 38 3e db 29 bc bc
       0.04106098 0.003925773 0.18031032 -0.022969177
000310 83 cd 26 39 75 f2 af bd 13 8e 99 3d 94 bf 02 3e
       0.00015907553 -0.08591167 0.07497802 0.12768394
000320 52 0c a6 bd 04 a6 75 bd 1c 3e 97 3d c8 a8 8d 3c
       -0.08107819 -0.059972778 0.07384893 0.017292395
000330 c2 8e be 3d 73 ec cc 3d a1 3f 73 bd ac a2 87 3d
       0.09304573 0.100060366 -0.059386853 0.06622824
000340 05 bd 75 3e e5 c7 b9 bc 8b 34 e4 3d 88 42 84 bd
       0.23997886 -0.022678325 0.11142834 -0.06458002
000350 80 e7 f9 bb 34 a2 9f 3d 42 c1 f2 bc 6b 03 4b 3c
       -0.007626474 0.0779461 -0.029633168 0.012390952
000360 ec e8 7f 3d 35 58 8d bc 05 51 7a 3d af fc d0 3a
       0.06247799 -0.017253974 0.061112422 0.0015944446
000370 5e 62 9b 3d ab c9 8b 3d 72 47 55 3b 6d 6d e6 3d
       0.075871214 0.068255745 0.0032543805 0.1125134
000380 be 5b c8 3c 2c 00 7f 3d 1c cc de 3c cd b2 7b 3d
       0.024457809 0.062256023 0.027196936 0.061449815
000390 57 f1 39 3b 78 ea 91 3b a0 7f 92 bc 83 b1 b1 3b
       0.002837261 0.0044529997 -0.017883122 0.0054227724
0003a0 ae f7 0d 3d e2 2d 70 3c cd 3b 54 bc 3c f2 0b 3d
       0.034660034 0.014659377 -0.012953711 0.03416656
0003b0 41 e6 e2 bb 5c dd 08 bc d4 e9 89 bc 7c 32 c3 3c
       -0.006924421 -0.008353557 -0.01683513 0.023827784
0003c0 03 0c 79 3c c8 14 ad 3d c7 8b a7 3d 2d f7 8e 3d
       0.015200618 0.08451229 0.08180957 0.06980739
0003d0 7b a4 3b 3d a1 a4 d7 3d 9a 23 c6 3d 0e 81 ee 3c
       0.045811158 0.10529447 0.09674759 0.029114272
0003e0 5b 15 20 3d 5d 3c 6b 3d 62 d2 ad 3d 03 18 0e 3e
       0.039082866 0.057430614 0.08487393 0.13876347
0003f0 14 e5 56 bd c2 7a 98 3d 31 45 88 3d 4b ef 65 3d
       -0.05246456 0.07445289 0.06653822 0.05613641

sequential/conv2d_2/Conv2D f4 [128, 3, 3, 64]
000000 1d c2 23 3d 35 b6 a1 3d 4b 73 33 3d b3 c9 d4 3d
       0.039980043 0.07896081 0.043811124 0.103900336
000010 65 5d 94 bd 0c 37 76 bd a7 14 b1 3d 14 fa 1e bd
       -0.07244376 -0.06011109 0.08646517 -0.03881271
000020 91 e3 0a 3c 5a 09 df bd 90 72 eb bc 46 13 cc bb
       0.008477108 -0.108904555 -0.028741151 -0.0062278835
000030 59 52 bd bd 36 55 bd bd f7 44 cd 3d 01 6d 82 bd
       -0.09244222 -0.09244768 0.100229196 -0.06368447
000040 6b 65 a8 3d c1 7d 60 3c e8 0c 80 bd 00 20 48 bd
       0.08222469 0.013701857 -0.06252462 -0.048858643
000050 3f 4e 63 bd cc ba 0b 3a f3 1c 62 3b 6c 77 0d be
       -0.055494543 0.0005330264 0.0034502118 -0.13815087
000060 53 49 dd bc 97 d2 8b 3d 5f ca 26 3e 28 fa 60 3e
       -0.027012503 0.06827276 0.16288136 0.21970427
000070 c2 bb 2a bd 5e dd 55 bd 3b 78 a9 bd d2 d4 18 bb
       -0.041682966 -0.052213065 -0.08274885 -0.002332021
000080 77 bd a2 bd b5 d7 be bd 7b 17 a3 3d 76 c9 9c bc
       -0.07946294 -0.093184866 0.07963463 -0.019139033
000090 89 5d 0b be a1 ae a3 bd a8 44 37 bc 03 25 9e bb
       -0.136099 -0.07992292 -0.0111858025 -0.0048261895
0000a0 fe 32 07 3e 2e 4d 7b bd 91 2d c1 bd 9f 73 ec bd
       0.13203046 -0.0613529 -0.09432519 -0.115454905
0000b0 32 db 94 3c a7 60 44 3e b5 7d e0 3c 04 22 a2 bd
       0.018170927 0.19177495 0.027403692 -0.07916644
0000c0 1b 3a 30 3d ef 40 2b be 5c 96 d5 bc 94 ce 2a 3d
       0.043024164 -0.16723989 -0.026072673 0.041700915
0000d0 0a 20 9e bc 79 27 a0 bd 29 f9 6f bd ca 76 48 bd
       -0.019302387 -0.07820029 -0.058587227 -0.04894141
0000e0 6b dd d8 bd cf 3a 8f 3c a3 0c 92 bc cb d8 19 bd
       -0.10589107 0.017484097 -0.017828291 -0.037560266
0000f0 82 83 86 bd a8 bc 69 3d 6f dd 1d bc 86 4b c0 bd
       -0.06568052 0.057064682 -0.009635313 -0.09389405
000100 b3 b5 67 bd be cc 84 3d ee 57 1c 3e c2 2f 73 3d
       -0.056569766 0.06484364 0.15267918 0.059371717
000110 0d 8f 8d 3d 72 8a 35 bc b1 5d a6 3d cf c6 0b 3e
       0.069120504 -0.011080371 0.08123339 0.13650058
000120 fb 70 f4 bc be c7 bc 3c bd 34 86 3c 69 a3 4a 3d
       -0.02983903 0.023044463 0.01638257 0.049472246
000130 61 33 39 3d 70 16 2c 3e 86 9a 22 bc 05 d9 73 3c
       0.045215014 0.16805434 -0.009924537 0.014883284
000140 8b 9a c7 bb 15 17 9f bd c0 c2 77 bd 4a d5 ac bd
       -0.006091421 -0.077680744 -0.060488462 -0.08439119
000150 98 e8 5f 3c 5f f4 bd 3d 85 fc 9e bd a5 1d 15 3e
       0.0136662945 0.09275126 -0.07763008 0.1456209
000160 b6 6a e6 39 11 25 22 3b 85 f6 13 bd 2a d3 38 3d
       0.00043948524 0.0024741332 -0.03612377 0.045123257
000170 17 4a 60 3d 88 18 02 3d 1c 27 0f bd c5 41 b9 3d
       0.054758158 0.031761676 -0.034949407 0.09045748
000180 2b 8b 26 bc b7 e0 75 bd 12 90 f9 bd a6 22 7b bd
       -0.010165016 -0.060028758 -0.12185682 -0.06131234
000190 40 09 40 bd c4 d3 cb 3d 1f 72 92 bd bd df 45 3d
       -0.04688382 0.099525005 -0.07150673 0.048309077
0001a0 a2 1c 3f 3d a4 9c 08 3d 24 ac 6b bc cb c9 d9 bd
       0.046658166 0.03335251 -0.014384303 -0.10634192
0001b0 7e 5f ab 3d 54 14 b2 3c eb be 85 bd 58 52 82 3d
       0.08367823 0.021738209 -0.06530555 0.06363362
0001c0 78 e5 57 3d 9a 04 b9 bd 71 f6 f1 bd d6 9b 46 bd
       0.052709073 -0.09034081 -0.11814583 -0.04848846
0001d0 40 da 94 bd d1 f4 33 bd a4 6e 20 bd 92 ce 11 bd
       -0.072681904 -0.043934647 -0.039168015 -0.03559739
0001e0 29 25 58 bd 7e a8 ab bd f9 8e a7 3c c0 51 8b 3b
       -0.052769814 -0.08381747 0.020453917 0.0042516887
0001f0 ab a8 e3 bd 26 35 51 bd d2 1b 0e bd 00 f7 0e 3d
       -0.11116155 -0.051076077 -0.0346945 0.034903526
000200 22 f1 67 3c ca 0f 3c 3e 60 34 ab 3d cf 2b fc bd
       0.014156612 0.18365398 0.08359599 -0.12313043
000210 10 0f f3 bd 31 40 ac 3d 91 f0 35 3c 2e a0 d8 3d
       -0.11868107 0.08410681 0.011104719 0.10577427
000220 56 13 6d bc 08 0b d2 3d ee b7 04 3e fe e2 ec bc
       -0.014469942 0.1025601 0.12960789 -0.028916832
000230 e4 90 90 3d be a9 e5 3d 3d 45 9f bb 3e ce a8 bc
       0.07058886 0.112140164 -0.004860549 -0.020606156
000240 c6 7a 05 be bf e3 3e be 1e 56 02 3e c1 1b dc 3b
       -0.13035116 -0.18641566 0.12728164 0.0067171757
000250 50 5d df 3d 62 1c 72 3c b5 f7 ca bc 0d 5a a8 3d
       0.1090647 0.014777275 -0.024776319 0.08220301
000260 0c 5c 18 bc bc 7a cb 3c a6 b7 b3 3d ee 1c d6 bd
       -0.009299289 0.024838798 0.087752625 -0.10454737
000270 aa 9f d8 3c a0 38 7d bb 49 16 40 bd c6 bc 1a 3d
       0.026443321 -0.0038638487 -0.046896253 0.037777685
000280 a0 71 89 3d 59 52 a7 bd 18 af 76 3d cc 0e 67 bd
       0.067111254 -0.081700034 0.060225576 -0.056410596
000290 03 56 f3 bb f8 69 23 be f7 06 64 bd 04 07 1f bd
       -0.007426025 -0.15958393 -0.055670705 -0.03882505
0002a0 2c 66 52 3e 68 87 a6 bd f6 0f 12 be 53 76 ba bd
       0.20546788 -0.081312954 -0.14263901 -0.091046
0002b0 0b 31 59 3d 7d 8a 97 bc 68 e9 09 bd 15 a1 6d bd
       0.053025287 -0.018498654 -0.03366986 -0.058014948
0002c0 37 9e 35 3c 9e cf 74 bd da b3 01 be 0d ca 91 bd
       0.011085085 -0.05976831 -0.12666264 -0.07118616
0002d0 f6 a4 8a bd 03 df 9e 3b fb 14 ef bd a8 44 71 bd
       -0.06769745 0.0048483624 -0.116739236 -0.058903366
0002e0 a1 d5 24 be d9 73 51 bd 00 b0 49 bd dd 10 16 be
       -0.16097118 -0.05113587 -0.049240112 -0.1465487
0002f0 0f b6 29 3d 01 4a c8 3d a4 e3 97 bc e1 da 53 bc
       0.04143339 0.0977974 -0.018541165 -0.012930603
000300 a8 59 e3 bd 27 ec 4c bd 8e 1b 0d bd f0 56 9a bd
       -0.11101085 -0.0500299 -0.034450106 -0.07536113
000310 29 78 ff bd 25 26 67 be f4 fe 45 3e 65 98 c8 bd
       -0.124740906 -0.22573145 0.19335538 -0.09794692
000320 b5 73 05 3d 7a 1c bf bd cc f9 64 39 54 4b d1 bc
       0.03258105 -0.09331603 0.00021836831 -0.025548615
000330 4b e5 05 be 84 b8 3e 3d 0b 90 27 3e 94 e0 ca 3c
       -0.1307575 0.046562687 0.16363542 0.02476529
000340 4b df a0 3c 87 1d 14 bd 26 a2 77 bb 45 e5 6a bd
       0.019637724 -0.036160972 -0.0037785857 -0.057347555
000350 b1 c4 d0 bc 5d b4 a9 bd 69 19 97 bd 3e 71 6e 3d
       -0.025484415 -0.08286355 -0.073778935 0.058213465
000360 ca ac a8 3d aa bc 0a 3d b7 ca 13 3e 26 76 56 3d
       0.08236082 0.03387133 0.14432798 0.05235877
000370 05 0f b5 3d f9 66 12 be 4a d2 c4 bc db 9f 40 be
       0.088407554 -0.14297093 -0.024026055 -0.1881098
000380 0c eb 84 3d 35 94 79 3c 4a 44 91 bd ad 2a af bd
       0.06490144 0.015233089 -0.07093103 -0.08553062
000390 2d f2 d7 bd 31 2e ec 3d f4 55 01 bd 5e 56 d7 3b
       -0.10544238 0.11532248 -0.031576112 0.006571575
0003a0 2e 31 85 3b 8e c6 f4 3c 00 20 be bd fa 8c 30 be
       0.0040647006 0.029879835 -0.09283447 -0.17241278
0003b0 db f9 a3 3a a7 6b 3c 3d c4 cb b3 bb 7e c5 41 be
       0.0012510376 0.046001103 -0.0054869372 -0.18922994
0003c0 74 56 5f 3d 4d 59 88 bd 22 20 03 3c eb 55 f0 3c
       0.054525807 -0.06657658 0.0080032665 0.029337844
0003d0 2d 39 12 be 37 e3 89 bc 63 fb 18 bd 06 4b 72 bd
       -0.14279623 -0.016831977 -0.037349116 -0.05915358
0003e0 d7 8d 89 bd c4 dc 11 3d 90 e5 d4 3d 0e 55 ac 3d
       -0.06716507 0.03561093 0.10395348 0.084146604
0003f0 87 41 87 bd 32 20 38 bd f7 d3 09 3d 8f ac 52 bd
       -0.06604295 -0.04495258 0.03364941 -0.051434096

sequential/lstm/Read_2/ReadVariableOp f4 [32]
000000 42 38 c6 3b 56 56 02 3d ee e2 96 3d 4e 13 06 3d
       0.006049187 0.031820618 0.07367502 0.032733254
000010 7a 92 af 3c 98 58 48 3d a1 b6 8c 3d 44 e1 90 3c
       0.02143215 0.048912615 0.06870771 0.01768554
000020 3b e9 8b 3f 73 56 89 3f b7 a4 89 3f 06 a9 8b 3f
       1.0930551 1.0729507 1.0753392 1.0910957
000030 07 ff 91 3f d8 b6 87 3f af 64 88 3f 11 73 84 3f
       1.1405953 1.0602674 1.0655726 1.0347615
000040 5f f7 98 bd 0c 67 c0 3d 7e f1 a6 bd a2 9c b8 bd
       -0.07469057 0.09394655 -0.0815153 -0.0901425
000050 85 e8 25 3d 64 49 8c bd 05 3b 61 bd ba 31 8c bc
       0.04050495 -0.06849936 -0.054987926 -0.017113555
000060 95 ac 35 3e 46 d8 21 3e da a2 b6 3d 67 1d 67 3e
       0.17741616 0.15805158 0.0891778 0.2256981
000070 3f a1 18 3e e9 4c 4a 3e 75 1e 04 3e 38 fe 33 3d
       0.1490526 0.19755901 0.12902243 0.043943614

sequential/batch_normalization/FusedBatchNormV3 f4 [32]
000000 c1 f2 eb 40 b3 2c 80 40 b7 87 95 41 72 7f 2c 41
       7.373383 4.0054564 18.691267 10.781115
000010 b8 c7 01 40 44 d5 50 41 68 5f e8 40 8e 3e 92 40
       2.0278149 13.052067 7.2616463 4.570136
000020 83 3d d5 41 44 34 e7 40 55 f4 14 41 c6 a9 21 41
       26.655035 7.22513 9.309651 10.103949
000030 d0 27 b3 40 4e 56 ac 40 d2 ed 06 41 40 37 2b 40
       5.59861 5.3855352 8.433062 2.6752472
000040 be 07 39 41 a3 c1 07 40 ed 19 c2 41 76 19 7c 40
       11.56439 2.1211936 24.26266 3.939054
000050 40 52 97 40 4c 86 76 41 ac 0e 64 40 c4 46 05 40
       4.7287903 15.407787 3.5633955 2.0824442
000060 de 85 13 41 40 c0 2b 40 18 30 fe 3f d7 0a bc 40
       9.220182 2.683609 1.9858427 5.876323
000070 ca 1f cd 40 5f 86 43 40 9a 8f 52 40 4c 34 24 41
       6.4101305 3.0550764 3.2900147 10.262768

sequential/batch_normalization/FusedBatchNormV31 f4 [32]
000000 27 43 a8 bd d1 2a a1 be 58 be c4 be d5 d8 09 bf
       -0.08215933 -0.3147798 -0.3842647 -0.53846484
000010 29 b2 b6 bd 1c 9b 12 bf 89 53 4a bf 3d 81 f4 be
       -0.089207 -0.5726793 -0.79033715 -0.4775485
000020 12 a1 01 bf d3 76 85 be d0 15 92 be e2 47 30 bf
       -0.506364 -0.26067218 -0.28532267 -0.68859684
000030 ca 33 33 be 88 c9 4d be 7d 5f 9c be 38 ba 1d be
       -0.17500225 -0.2009641 -0.30541602 -0.15403068
000040 c4 ed ab bc e8 bc 9b be 40 92 06 bb b8 56 c7 be
       -0.020987399 -0.30417562 -0.002053395 -0.3893335
000050 d5 b8 0a be c9 df f6 be 44 20 82 be 3b 3c 04 bf
       -0.1354707 -0.4821761 -0.25415242 -0.51654404
000060 b3 ab 4b bd 83 32 4a be fc 7b 9d be e1 cc 20 bf
       -0.049724292 -0.19745831 -0.30758655 -0.6281262
000070 0f ba 14 bf 26 5b 92 be 61 8c fd be 7e dd ac bf
       -0.580964 -0.28585166 -0.49521163 -1.3505094

sequential/batch_normalization_1/FusedBatchNormV3 f4 [64]
000000 84 c2 a1 3d 22 d3 20 3f bc 5f 0e 3f 28 9a 3b 3f
       0.07898429 0.62822163 0.5561483 0.732821
000010 7e 24 8f 3f ec 3b ba 3e d9 9f 1c 3f 79 58 97 3f
       1.1183012 0.36373842 0.6118141 1.1823875
000020 78 5b 25 3f 07 fe 21 3e 78 16 66 3f d9 c8 e6 3e
       0.64592695 0.1581956 0.89878035 0.4507511
000030 50 5e cc 3e c3 9a 87 3f 11 8c 8b 3f f4 c6 07 3e
       0.39915705 1.0594105 1.090212 0.13259488
000040 b2 b9 1d 3e 47 95 7e 3f 5f e4 b5 3f 73 ba ba 3d
       0.15402868 0.9944653 1.4210318 0.091175936
000050 30 d8 1b 3e 98 93 70 3f 67 cb a4 3f 03 d6 93 3f
       0.15219188 0.9397521 1.2874573 1.1549686
000060 ca 38 35 3f 81 ff 27 3f 43 a3 37 3f d3 e2 93 3f
       0.7078978 0.65624243 0.7173349 1.1553596
000070 2d 9f b0 3f 6d 6e 18 3f 2f c6 4c 3e 43 3b ae 3e
       1.3798577 0.59543496 0.19997476 0.34029588
000080 62 bd df 3e 74 26 c5 3e 8c e8 70 3f e0 6c 2d 3f
       0.43699175 0.385059 0.9410484 0.67744255
000090 aa 8a 27 3e 78 dc 53 3f 63 dd b1 3d 17 8a f1 3e
       0.1636149 0.82758284 0.08684804 0.47175667
0000a0 c3 20 72 3f 03 e0 02 40 6c 13 83 3e 65 e6 da 3e
       0.9458124 2.0449226 0.25600755 0.42753902
0000b0 3a 3b 5d 3f 89 c2 3a 3f 10 b2 34 3f 7e 39 07 3f
       0.864185 0.7295309 0.705842 0.528221
0000c0 34 15 95 3e 95 80 38 3f 5f 1b 4d 3e 5c 47 6e 3f
       0.2911774 0.720712 0.20029972 0.93077636
0000d0 92 09 35 3f 19 bb 21 3e a8 bf f9 3e 76 d9 b9 3e
       0.7071773 0.15794028 0.48779035 0.36298722
0000e0 b4 2f 45 3f 75 06 6c 3e 49 0c a0 3f 75 eb 50 3e
       0.77025914 0.23049338 1.2503749 0.2040232
0000f0 e9 53 c5 3d f8 38 42 3f 18 34 ca 3d eb 3e 47 3f
       0.09635145 0.7586818 0.09873217 0.7783038

sequential/batch_normalization_1/FusedBatchNormV31 f4 [64]
000000 80 95 5e bc 6f 2d 37 be 77 26 e2 bd 18 fa ae be
       -0.013585448 -0.17888425 -0.11042493 -0.3417518
000010 6d 5f ef be 68 32 99 3c 6d 45 cc bd 75 01 4c bf
       -0.46752492 0.018700793 -0.099741794 -0.79689723
000020 de 68 ec bd e0 be b9 3c 43 8d c4 be c0 1a 5b be
       -0.11543439 0.022674024 -0.38389024 -0.21396923
000030 a9 fa 82 be ca b7 80 be e8 c5 b7 be 55 18 89 bd
       -0.25581864 -0.2514022 -0.35893178 -0.06694094
000040 0d cb fd bd 4b 55 f2 be de 13 40 bf 70 7b 02 3d
       -0.123922445 -0.47330698 -0.75030315 0.031856
000050 90 4a 64 bc bb d7 2d bf 96 9f 73 bf 9e c9 0b bf
       -0.013933793 -0.67907304 -0.95165384 -0.5460452
000060 01 bd 0c bf 32 67 d7 bd 61 d7 61 be b8 a7 d5 be
       -0.549759 -0.1051773 -0.22054817 -0.41729522
000070 77 cc 4f bf dc ac db bd d4 81 03 bd c0 97 f1 bd
       -0.81171364 -0.1072633 -0.032106236 -0.11796522
000080 f8 f5 ab bd ae f7 19 be 9b 85 1b bf f9 24 c5 be
       -0.08396524 -0.15035889 -0.6075074 -0.3850477
000090 f9 80 b1 bd 8b fa 0f bf 88 be 9b 3c 78 d7 ad be
       -0.08667178 -0.56241673 0.01901175 -0.33953452
0000a0 4f de 9e be 64 0b ec be 76 75 05 be 90 79 f7 bd
       -0.31028983 -0.4610244 -0.13033089 -0.12083733
0000b0 5b 96 bf be 1f b6 01 bf e4 57 a2 be 2b 84 67 be
       -0.374194 -0.5066852 -0.3170768 -0.22609012
0000c0 f2 70 3d be 6f 19 62 bf 20 a8 9a bc 9e 91 c6 be
       -0.18500116 -0.8832006 -0.018878996 -0.38782972
0000d0 d3 92 28 bf 90 56 37 3c bc 1a 1b be 48 a8 57 be
       -0.65849036 0.011190072 -0.15146917 -0.21060288
0000e0 d8 2e 2c be a2 a3 94 3d 5c 8e de be 88 a0 a3 bc
       -0.16814744 0.07257773 -0.43467987 -0.019974008
0000f0 28 e5 fb bc a6 0f 1c bf 58 5c ec 3c d9 bc 69 bf
       -0.030748919 -0.6096138 0.028852627 -0.91303784

sequential/batch_normalization_2/FusedBatchNormV3 f4 [128]
000000 5c 97 5e 3f c6 78 35 3e 2e 6e 0d 3f 56 47 2b 3f
       0.86949706 0.17721853 0.55246246 0.66905725
000010 dd d3 46 40 5a 8a 08 3f d8 79 f9 3e 14 37 39 3e
       3.106681 0.5333611 0.48725772 0.18087417
000020 f7 94 85 3e 3f 6f 2d 3f 2f 30 c9 3e 14 6f 63 3f
       0.26090214 0.67747873 0.39294574 0.88841367
000030 ce 1c b4 3f c0 ae 32 3f 5c 95 97 3e 8e 4f c7 3e
       1.407129 0.697979 0.2960614 0.38927883
000040 03 16 92 3f 4f b4 cb 3e 34 12 b0 3f 27 de c8 3e
       1.1412967 0.39786002 1.3755555 0.3923199
000050 f1 ee 8c 3f c9 a9 e7 3e ec 86 6c 3e 85 84 39 3e
       1.1010419 0.45246723 0.23098344 0.18116958
000060 fa f8 31 3f f4 71 78 3e 09 fe 36 3f ee 7c 7f 3f
       0.69520533 0.2426222 0.71481377 0.998
000070 89 e1 c3 3e 54 62 0c 3f a6 0e 49 3f 34 35 12 3f
       0.38258007 0.54837537 0.78537977 0.5711243
000080 77 14 1e 40 f3 04 ea 3f 97 59 d9 3e cf 1a 25 3e
       2.469999 1.828276 0.42451164 0.16123508
000090 99 be 37 3e f7 a0 87 3f fa 0d 87 3e 02 43 cd 3f
       0.17943801 1.0595998 0.2637785 1.6036074
0000a0 93 36 a2 3e 65 32 8e 40 92 44 a2 3f 20 72 09 3e
       0.31682262 4.4436517 1.2677176 0.13422441
0000b0 a6 78 2f 3f 46 e1 11 3e 5a d3 dd 40 69 5c 5f 3f
       0.6854347 0.14246091 6.9320498 0.8725038
0000c0 e9 98 4b 3f 14 c2 e2 3f ec 3a 23 3f 7b 3e 86 3f
       0.795302 1.7715478 0.6376178 1.0487818
0000d0 3f 86 06 3e fd 27 2b 40 a2 ee 9f 3e fc 03 60 3f
       0.13137148 2.6743157 0.3123675 0.8750608
0000e0 c7 56 be 3e db c9 b6 3e af 5f 74 3e 8b 76 f8 3e
       0.3717558 0.35700879 0.23864625 0.4852794
0000f0 d3 9a 14 3f 6d 19 e5 3e 73 54 00 3e d6 75 33 3e
       0.58048743 0.4474596 0.12532215 0.1752542
000100 96 1a 3f 3f 2f 59 32 3f ab de dd 3e fa 3e ca 3e
       0.7464994 0.69667333 0.43333945 0.39501172
000110 ba 90 5a 3f f2 f3 46 3f 17 2b a2 3e 01 88 90 3e
       0.85377085 0.7771598 0.316735 0.28228763
000120 cf 84 b4 3e 1f 1b b2 3e 39 8a 23 40 b3 48 8c 3e
       0.35257575 0.34786317 2.5553114 0.27399215
000130 8a 78 2e 3f 92 02 75 3e ea c1 28 3f 6e 33 19 3e
       0.6815268 0.23926762 0.6592089 0.14961025
000140 51 24 28 3f f0 a4 48 3f f0 0c a2 3f d3 d2 84 3e
       0.65680414 0.78376675 1.2660198 0.25942096
000150 a6 77 d0 3e 0e 56 52 3f 79 c4 04 3f 9c 5c 52 3f
       0.40716285 0.8216256 0.51862293 0.8217256
000160 6c ee 4d 3e e6 d4 03 3f 73 e7 f6 3d de 45 83 3f
       0.20110482 0.5149673 0.12055864 1.0255697
000170 c4 89 9d 3f 9d 7c 6d 3e 64 ad a1 3e d1 91 1d 3e
       1.2307668 0.23192067 0.315776 0.15387656
000180 1f 94 00 3e df ed 58 3e c4 d8 ec 3f 2d f7 3d 3e
       0.12556504 0.2118449 1.8503652 0.18551321
000190 05 00 b9 3e 2f a8 30 3f 4f 0e de 3f d1 6e c7 3f
       0.36132827 0.6900663 1.7348117 1.5580693
0001a0 03 69 0c 3f f1 b1 0f 3f e3 68 2a 3f 1d f9 2b 40
       0.54847735 0.5613089 0.66566294 2.6870797
0001b0 08 f6 f0 3e 81 4e c7 3f 71 f0 2b 3e 00 53 82 3f
       0.47062707 1.5570832 0.1679094 1.018158
0001c0 4d be e7 3e 6f fc 3a 3e 18 01 4b 3e ec df 3c 40
       0.45262375 0.18260358 0.19824636 2.951167
0001d0 d3 8f 21 3f b1 c1 39 3f be 10 5a 3f cb 26 14 3f
       0.63110083 0.72561175 0.85181797 0.57871693
0001e0 c7 7e 95 3e af 1e 9e 3e 63 3d 34 3f 52 9e 85 3f
       0.29198286 0.30882785 0.7040617 1.043894
0001f0 63 49 cc 3e b4 9c c0 3f cb 9a 45 3f 1a 9f 9c 3e
       0.3989974 1.5047822 0.7718932 0.30590135

sequential/batch_normalization_2/FusedBatchNormV31 f4 [128]
000000 70 5c a2 be 4f 61 0d bf c9 26 f2 be 68 e5 7e be
       -0.3171115 -0.55226606 -0.47295216 -0.24892199
000010 cc 7d f5 bd cc f3 37 bf b1 5d 29 be 15 d4 ad be
       -0.119868845 -0.7185638 -0.16539647 -0.33950868
000020 e9 5c c8 be d5 d9 9c be b1 05 64 be 43 1d 22 bf
       -0.39133385 -0.30634943 -0.22267796 -0.633259
000030 a4 cb 03 bf e2 0d 88 be 9b 45 f8 be b0 60 d1 be
       -0.51482606 -0.26573092 -0.48490605 -0.4089408
000040 67 e6 05 be dd b9 8d be 18 22 f2 be 7f 22 a8 be
       -0.13076173 -0.27680865 -0.47291636 -0.32838818
000050 55 a3 25 be 84 e6 71 be 53 0a a1 be da d3 17 bf
       -0.16175587 -0.23623091 -0.3145319 -0.59307635
000060 60 09 e4 be 01 23 6d be a6 c9 12 bf 74 23 ac be
       -0.44538403 -0.23157884 -0.5733894 -0.336208
000070 2d b7 f1 bd 81 16 c0 be 90 04 30 be 57 bc 02 bf
       -0.11802516 -0.3751717 -0.1718924 -0.51068634
000080 c6 a6 e8 bd a2 0b 22 be df 51 ae be c9 91 ba be
       -0.113599345 -0.1582475 -0.34046838 -0.3643935
000090 b8 6d 86 be c3 03 42 be 4a 40 29 be 36 97 bd be
       -0.26255584 -0.18946747 -0.1652843 -0.37029427
0000a0 3f b8 ff be da 06 21 be 3a 7d 31 be 0f 11 06 bf
       -0.49945256 -0.1572527 -0.17332926 -0.5236978
0000b0 63 da 02 bf e4 8b 21 bf e4 4c 40 3d 60 a8 43 be
       -0.5111448 -0.6310408 0.04694833 -0.19107199
0000c0 ca 22 51 be 35 4c 2c be 34 21 50 be 93 6f 93 bd
       -0.20423427 -0.16825946 -0.20325166 -0.071990155
0000d0 20 86 02 bf 29 3b 86 be 48 26 aa be 55 0c ad be
       -0.5098591 -0.2621701 -0.3323233 -0.3379847
0000e0 52 88 a6 be f3 f6 0d bf ce 8d 02 bf 38 19 12 be
       -0.3252588 -0.5545494 -0.50997627 -0.14267433
0000f0 69 b8 23 bf 92 ca 8a be 1b 26 1f bf ba da 27 bf
       -0.6395326 -0.27107674 -0.6216752 -0.65568125
000100 3b ae 80 be 14 70 8a bd c1 29 3c be 0d 84 17 bf
       -0.25132927 -0.067596585 -0.18375303 -0.5918587
000110 ec 86 71 be ca 50 b1 be f7 53 0e bf ae af c4 be
       -0.23586625 -0.3463195 -0.5559687 -0.38415283
000120 e9 ad 08 bf b3 da 76 be 48 14 17 be 99 b2 d0 be
       -0.53390366 -0.24106865 -0.1475383 -0.4076126
000130 73 2d 5d be 2f 28 02 be 59 f6 bf be e0 a6 05 bf
       -0.21599369 -0.12710641 -0.37492636 -0.52207756
000140 8a d0 b1 be ad c2 de be 6c 15 dd bc 14 39 02 bf
       -0.34729415 -0.435079 -0.026987754 -0.50868344
000150 eb cf 1a bf af 67 ac be 77 86 1f be bd 81 1d bf
       -0.6047351 -0.33672854 -0.15578638 -0.6152609
000160 53 f4 e4 be 98 f8 dc be 4e 4f b8 be 5e c6 50 bd
       -0.44717655 -0.43158412 -0.35998005 -0.050970428
000170 62 f2 9c be ab 9c ff be 7f 40 3e be 25 90 c0 be
       -0.30653673 -0.49924216 -0.18579291 -0.37609974
000180 01 77 0a bf 6c 69 98 be 2e 45 71 be 86 40 1f bf
       -0.54087836 -0.2976793 -0.23561546 -0.6220783
000190 76 7a d0 be 96 7b 57 be cd c3 99 bd 32 e1 68 be
       -0.4071843 -0.21043238 -0.07508049 -0.22742155
0001a0 63 09 68 be 20 ad d0 be 74 67 3f be c2 f5 af be
       -0.22659831 -0.40757084 -0.18691808 -0.34367186
0001b0 ba da c6 be c0 93 87 be 17 c5 09 bf 43 b1 10 be
       -0.3883875 -0.26479912 -0.5381636 -0.1413012
0001c0 e2 3c 0d bf 2c f4 56 be 2a d4 30 bf 47 dc 0a be
       -0.55171025 -0.20991582 -0.69073737 -0.13560592
0001d0 78 71 52 be 06 23 88 be 60 ad 18 be 2f 66 88 be
       -0.20551097 -0.2658922 -0.14909887 -0.2664046
0001e0 0b 1e f8 be e3 2f 06 be 3e fc 64 bd 6e d4 b0 be
       -0.4846042 -0.13104205 -0.05590462 -0.3453707
0001f0 f8 85 cd be 1a b3 8f be d4 3a e2 be 8d 60 88 be
       -0.40141273 -0.2806633 -0.44185507 -0.26636162

sequential/dense/MatMul f4 [1, 8]
000000 85 eb 83 3f 32 07 bc bf c3 53 a3 3f d5 5a c1 3f
       1.030625 -1.4689696 1.2759937 1.5105845
000010 64 97 d7 bf 1d e7 59 3f a2 7c b4 3f 4c d7 c4 3f
       -1.6843076 0.85118276 1.4100535 1.5378203

sequential/lstm/Read_2/ReadVariableOp1 f4 [32]
000000 42 38 c6 3b 56 56 02 3d ee e2 96 3d 4e 13 06 3d
       0.006049187 0.031820618 0.07367502 0.032733254
000010 7a 92 af 3c 98 58 48 3d a1 b6 8c 3d 44 e1 90 3c
       0.02143215 0.048912615 0.06870771 0.01768554
000020 3b e9 8b 3f 73 56 89 3f b7 a4 89 3f 06 a9 8b 3f
       1.0930551 1.0729507 1.0753392 1.0910957
000030 07 ff 91 3f d8 b6 87 3f af 64 88 3f 11 73 84 3f
       1.1405953 1.0602674 1.0655726 1.0347615
000040 5f f7 98 bd 0c 67 c0 3d 7e f1 a6 bd a2 9c b8 bd
       -0.07469057 0.09394655 -0.0815153 -0.0901425
000050 85 e8 25 3d 64 49 8c bd 05 3b 61 bd ba 31 8c bc
       0.04050495 -0.06849936 -0.054987926 -0.017113555
000060 95 ac 35 3e 46 d8 21 3e da a2 b6 3d 67 1d 67 3e
       0.17741616 0.15805158 0.0891778 0.2256981
000070 3f a1 18 3e e9 4c 4a 3e 75 1e 04 3e 38 fe 33 3d
       0.1490526 0.19755901 0.12902243 0.043943614

while/MatMul_11 f4 [32, 8]
000000 a3 57 18 3d e8 b1 94 be e8 fb a5 bd b4 a1 47 3e
       0.037192952 -0.29041982 -0.08104688 0.19495279
000010 32 e8 f4 3d 82 99 f5 3c 7c 2b 42 3e fb 59 04 3d
       0.1195835 0.029980425 0.189619 0.032312375
000020 82 e5 8d be 98 cb 01 3e bd 15 28 be 9e 54 0f bf
       -0.27714163 0.12675321 -0.16414542 -0.5598849
000030 d7 45 06 3f 93 f3 82 3c 2f 76 c0 be 4c c8 15 bf
       0.5245032 0.015985286 -0.37590167 -0.58508754
000040 f6 b9 85 bd 80 91 3f bd 07 f5 06 be f6 9c 3e be
       -0.0652961 -0.04676962 -0.13179408 -0.18614563
000050 74 38 ed 3c fa af 11 bd a0 c4 b0 bc a9 14 ee bd
       0.028957583 -0.035568215 -0.021578133 -0.11625034
000060 17 39 b2 3d 5c fd 3a be 39 12 97 3d ea 51 e1 3e
       0.08702295 -0.18260711 0.073765226 0.44007808
000070 2d d4 19 bd 2f d3 6d 3e 0e 2d 83 3e 30 b7 c5 be
       -0.037555862 0.23225091 0.25620311 -0.38616323
000080 6b 25 a1 3e 65 c9 3e be e2 57 a8 ba fb 8f a5 3e
       0.3147386 -0.18631513 -0.0012843574 0.3233641
000090 8a fc 4a be 55 aa a1 3e 87 bd ed bd c5 19 96 3b
       -0.19822899 0.31575266 -0.11608415 0.0045807087
0000a0 14 01 8a 3e a5 25 d5 3d a9 f1 91 3e 88 ae 0e 3e
       0.26953948 0.10407571 0.28504685 0.13933766
0000b0 38 71 08 be 46 28 ec 3e 64 2d c1 3e 9f f7 7e 3d
       -0.1332444 0.46124476 0.37729943 0.06224787
0000c0 28 82 14 3e e6 7e 34 3e 30 1e 96 bd 29 53 7f 3e
       0.14502776 0.17626533 -0.073299766 0.24934067
0000d0 37 55 73 bc 77 15 2a be 74 46 5f 3e e5 5c 46 bd
       -0.01485186 -0.1660975 0.2180422 -0.048428435
0000e0 95 ee 87 be e1 11 d1 be 7d 4d 12 3e 69 e2 45 3e
       -0.2654921 -0.40833953 0.14287372 0.1932465
0000f0 d5 d6 63 bd dc ab 22 3f 71 a7 a8 3c 9b 70 db be
       -0.0556248 0.63543487 0.020587655 -0.4285935
000100 03 c2 64 3e 16 4b 8c 3c b4 29 fd be 6d e7 7c 3e
       0.22339635 0.017125648 -0.4944588 0.24697657
000110 32 91 3e 3e 96 0c 81 bd 89 23 b6 3b a5 45 11 bd
       0.18610075 -0.06301229 0.0055584353 -0.03546681
000120 a6 1e 20 3e 6f 92 bc 3e 49 7e f8 bd 68 15 b0 3c
       0.15636691 0.3683047 -0.12133462 0.021494582
000130 9e 09 e3 3c 68 fe 5c be b2 c5 2a be 6e b5 5d 3e
       0.027714547 -0.21581423 -0.16676977 0.21651241
000140 e6 95 c0 be 7c 86 05 3f 98 00 2b bc a5 b5 55 be
       -0.37614363 0.5215833 -0.010437153 -0.20870073
000150 4d d4 73 3e 43 94 59 be e9 3c c0 be 2e ee c3 be
       0.23811455 -0.21247964 -0.3754647 -0.38267654
000160 86 85 37 3e 36 fe 0b bc f1 48 6d 3d 3e ce d3 be
       0.17922029 -0.008544495 0.05793089 -0.41368288
000170 e3 3e ad 3e bc f7 d5 bd 9b 91 4a 3e ec 62 82 be
       0.3383704 -0.10447642 0.19782107 -0.25466096
000180 ff f4 e4 bd fa 47 c3 3d a6 58 11 bd d9 0c b5 be
       -0.11179542 0.09535213 -0.035484932 -0.35361364
000190 0b 81 93 3e 7d d4 85 3d 9b d4 b6 be 87 43 a4 3e
       0.2880939 0.065346695 -0.3570908 0.3208277
0001a0 ed d6 2e be 73 82 86 3e 0e 86 1c be 4e 77 52 be
       -0.17074175 0.262714 -0.15285513 -0.20553324
0001b0 22 b7 46 3e d0 22 19 3e cf e3 6a 3e 15 b5 4f 3e
       0.19405797 0.14954686 0.22938465 0.20283921
0001c0 55 e2 32 be 44 da e2 3d 75 37 c5 3c 60 05 99 be
       -0.17469151 0.11076787 0.024074296 -0.29886913
0001d0 00 b8 c6 3d 5d 8a a0 be 38 4a eb bd f9 7c ae 3d
       0.09703064 -0.31355563 -0.114887655 0.085199304
0001e0 dd 75 d8 3e 69 4e ca 39 3f 76 d8 be 10 04 04 be
       0.42277423 0.00038586863 -0.42277715 -0.12892175
0001f0 97 14 a3 be 13 a1 44 3e cf 9a 77 3e 5d c2 82 3d
       -0.31851646 0.1920207 0.24180149 0.06384728
000200 1e 30 d8 3e 08 c2 be bd e5 14 df 3e d2 dc 8e 3e
       0.4222421 -0.09314352 0.4357063 0.27902848
000210 86 16 a0 be 91 f7 07 3e 62 e7 c5 3e 74 21 da 3e
       -0.31267184 0.13278033 0.38653094 0.42603648
000220 87 52 bb be c2 97 60 3e f3 3e 2f be ff cb 51 bd
       -0.365864 0.21932891 -0.17113857 -0.051219936
000230 7f 39 a8 3d 73 04 22 be df d0 2c be b7 43 35 be
       0.082140915 -0.1582201 -0.16876553 -0.17701612
000240 3e 2c 2f 3e 37 c0 33 bf ca 17 a3 3e 8b 2e d6 3e
       0.17106721 -0.7021517 0.31854087 0.41832384
000250 1f d2 18 bf 25 22 80 3e 0a 49 f7 3d ba 62 92 3e
       -0.5969562 0.2502605 0.12074478 0.28590947
000260 60 f3 e3 3d a5 9c 7a be cc 45 86 3e f3 2a bd 3d
       0.111304045 -0.24473818 0.26225126 0.092367075
000270 8f d9 5d be ac 63 70 bd 4f 2b 72 bd 32 c5 b5 3e
       -0.21665023 -0.058688805 -0.059123334 0.3550201
000280 a8 5c 88 bd ec c7 fe 3d d1 2e e3 bc 9f 13 88 bd
       -0.06658298 0.12440476 -0.027732285 -0.066443674
000290 8f 09 7b 3e 9b 3f 0b bd 6b c0 96 be 64 22 96 bd
       0.24515365 -0.033996206 -0.29443678 -0.07330778
0002a0 4d 41 e7 3e 08 a6 c9 be 6e 4a 11 3e 06 61 3d 3e
       0.45167008 -0.39384484 0.14188549 0.18494043
0002b0 8e 40 63 bf bd 6b 92 3e 38 f7 21 3e 96 0c ec 3e
       -0.8877038 0.28597823 0.15816963 0.46103352
0002c0 4e db 3f 3f ae b2 96 be 19 8d 7e bd 76 79 f0 3e
       0.7494401 -0.29433197 -0.06214628 0.46967667
0002d0 12 7a 64 be 53 4f 8f 3e 11 ab 68 3d a3 0b f6 3e
       -0.22312191 0.27990207 0.056803767 0.48055753
0002e0 3f 2a f2 3d 59 48 87 3e 84 14 0b be 24 13 ee 3e
       0.11824464 0.26422384 -0.13582045 0.46498978
0002f0 d3 de 7f be 01 a6 4c 3e a7 c6 6f bd b3 fa 90 3d
       -0.24987344 0.199852 -0.05853906 0.07079067
000300 d6 ea 10 be 1c de c5 3e e5 f9 94 be 78 9b 70 bd
       -0.14152083 0.38646019 -0.29096904 -0.058742017
000310 e3 66 bf bd 88 df be 3d 39 dc 8e be b8 a7 dc bd
       -0.09345796 0.09319979 -0.27902392 -0.10774177
000320 15 1e fe bd 75 b0 3f bd d3 2c 36 be 7c 1a 1c 3e
       -0.124080814 -0.046799142 -0.17790537 0.15244478
000330 db 5a a7 3e ae fe 14 be 99 ec 06 3d a7 44 a6 be
       0.32686505 -0.14550278 0.03294048 -0.32474253
000340 a4 61 61 be 24 36 e1 3e 16 de eb 3c 1c 74 ec be
       -0.22009903 0.4398662 0.028792422 -0.46182334
000350 d2 ec 6a 3f 99 5b 7d be 04 0f 20 bf 11 13 1d bf
       0.9176761 -0.24741973 -0.6252291 -0.6135722
000360 47 e3 96 be bc 7e 9c 3d 61 c2 54 be 84 7b 44 bd
       -0.29470274 0.0764136 -0.20777275 -0.047969356
000370 41 c8 d1 3e fe 81 4d be 55 d9 21 be 40 dd 95 3e
       0.40973094 -0.2006912 -0.15805562 0.29270363
000380 18 ab 42 be eb c5 54 bd 52 f2 cb be b1 45 fb bd
       -0.1901058 -0.05194656 -0.39833313 -0.12269152
000390 2a e3 71 3e 28 1f 18 3c 99 d5 f6 3c 93 e0 16 3e
       0.23621812 0.009284772 0.030131148 0.14734106
0003a0 62 b4 89 3c ef 8b b3 bd bf 12 21 be e0 ee c7 be
       0.016809646 -0.087669246 -0.15729807 -0.39049435
0003b0 3a 9d e4 3d b0 3a 98 3d 6d ee bd bd 58 a3 c7 3e
       0.11162801 0.07433069 -0.09273992 0.3899181
0003c0 4f 2b 7c 3c 72 ee 7a 3e aa 8d 83 be d1 9f 0a bd
       0.015391185 0.24505022 -0.2569402 -0.03384382
0003d0 17 1b 84 3d b7 78 77 3d c6 cd 2a 3e 69 be fa 3e
       0.064504795 0.060417857 0.16680059 0.48973396
0003e0 04 19 ca 3c 7d 3b 70 be b5 ba 0e 3c 83 7c 70 3e
       0.024670132 -0.23460193 0.008711507 0.23484997
0003f0 b1 f2 01 be 39 a5 bd 3e e6 5a 07 3f c2 c9 01 bd
       -0.12690236 0.37040117 0.52873075 -0.031686552
