models/model.tflite (tflite, 262260 bytes, 23 tensors)

sequential/conv2d/BiasAdd/ReadVariableOp f4 [32]
000000 67 d3 1c 3f 26 16 91 3e 3f fb 22 3e 57 92 37 be
       0.61260074 0.2833721 0.15916155 -0.17926918
000010 d9 df cb 3f 72 40 cd 3e 2f 2f 75 bf 1a 0b 2c 3f
       1.5927688 0.4008823 -0.9577512 0.6720444
000020 ae 7b 91 3f 14 7f 6f bf 22 90 17 3f 58 b8 a7 3e
       1.1365869 -0.9355328 0.59204304 0.3275783
000030 25 4a 0a be ec c3 85 3f 74 27 12 3f 01 fd 7c 3e
       -0.13504846 1.0450416 0.5709145 0.24705888
000040 95 af 11 3f 7f b7 fa 3d a2 69 ab 3e 2e d7 51 3f
       0.5690854 0.1224203 0.3347903 0.81968963
000050 28 10 78 3f aa 9f 96 bd 8b 38 17 3f 05 2c 8a 3f
       0.9689965 -0.07354672 0.5907065 1.0794684
000060 58 6a 22 3f 94 72 d5 3e 8a a3 ae bc 01 32 5a 3f
       0.6344352 0.4168898 -0.021318216 0.8523255
000070 b7 1e 0b 3f 6f 67 aa 3f 69 f9 a1 3e c2 6b e1 bc
       0.5434374 1.3312815 0.31635597 -0.027517203

sequential/conv2d_1/BiasAdd/ReadVariableOp f4 [55]
000000 1a 70 f1 3e 16 fb a6 bd 7d e1 f4 be 90 5c 63 bd
       0.4715584 -0.081533596 -0.47828284 -0.055508196
000010 1c 2b 18 be 44 6f 51 3e 90 e5 b9 be 34 93 cc be
       -0.14860195 0.204526 -0.36307955 -0.39956057
000020 06 c3 2f 3e 50 00 fb 3e ce fd 01 bf 3c 0a 9b be
       0.1716424 0.49023676 -0.507779 -0.30281246
000030 9e f0 7b be 0e fb 7c be 8c cb 82 3c 1d f0 0d be
       -0.24603507 -0.24705145 0.0159662 -0.13861127
000040 40 33 3a bf 54 8d d9 bd b7 ab 76 bd 40 e9 a2 bd
       -0.7273445 -0.10622659 -0.060222354 -0.07954645
000050 b6 1b 14 3f df 02 c7 be 5f 78 b9 3c 0c 43 aa be
       0.57854784 -0.38869378 0.022640405 -0.33254278
000060 78 17 01 bd 66 2c b3 bd 4a 25 d6 bd 54 35 78 3e
       -0.031516522 -0.08748703 -0.10456331 0.24239093
000070 a8 fc 8f 3d d7 93 07 3f 58 32 2a 3d 74 e3 30 bf
       0.07030612 0.5295996 0.041551918 -0.69097066
000080 1f 91 67 be c3 24 e7 bd 62 b9 0d be 44 35 53 be
       -0.22613953 -0.112863086 -0.13840249 -0.20625788
000090 d0 f3 52 3e da 31 26 bf f6 30 3b be 27 e1 b7 bd
       0.2060082 -0.6491982 -0.18280396 -0.08978491
0000a0 d2 a9 2e bf c0 42 32 be 93 1b a2 be 33 4f 71 3d
       -0.68227875 -0.17408276 -0.31661662 0.05891342
0000b0 c5 a5 7f be 47 05 1e be ad ad a2 3c ec 7e f3 bd
       -0.2496558 -0.154317 0.019858206 -0.11889443
0000c0 8c e7 e4 bd 3b db 74 bc 3b c4 93 bd 9c 1a d1 be
       -0.111769766 -0.014944847 -0.07215162 -0.40840614
0000d0 c9 2f 0d bf 37 4e 29 3e 23 21 1e be
       -0.5515104 0.16533743 -0.15442328

sequential/conv2d_2/BiasAdd/ReadVariableOp f4 [64]
000000 b4 f1 47 3d 3a d0 1c 3c 40 02 35 bb 73 d8 6f bd
       0.04881449 0.009571129 -0.002761975 -0.05855603
000010 5b f4 c0 be 44 e7 b6 bd 2d d6 6a be c7 c7 ef bd
       -0.37686428 -0.08930829 -0.22933264 -0.117080264
000020 76 6a af be 6c df b6 be 27 1c b9 3d 6d 0e 94 be
       -0.3426091 -0.35717332 0.09038573 -0.28917256
000030 fc bb 60 be 61 9e 2c be 0d e6 0e be 58 ea 9f bc
       -0.2194671 -0.16857292 -0.13954945 -0.019520923
000040 75 72 a2 be 74 ae 41 be 0f b9 d7 bd 5a b7 84 3c
       -0.3172795 -0.18914205 -0.10533344 0.01620071
000050 ac a8 0c 3e 74 7d 13 3e a6 e5 a5 be b2 f5 d0 bd
       0.13736218 0.14403325 -0.3240177 -0.10203113
000060 36 b4 27 be ec 23 c3 3e 52 93 1b be d7 6d 14 3e
       -0.16377339 0.38113344 -0.15192917 0.14495026
000070 61 e8 c6 be 62 d6 0a be 63 68 46 be 9a 12 a8 be
       -0.38849166 -0.13558343 -0.19375758 -0.32826692
000080 70 50 3f 3d fb 3b 07 3e 3a 6b 2d be 55 b7 19 3d
       0.04670757 0.13206474 -0.16935435 0.037528355
000090 eb e0 ff 3d 41 3a 0b 3e 34 dc 32 be d9 af b0 3d
       0.124940716 0.13596441 -0.17466813 0.0862729
0000a0 02 74 bf be e9 31 d5 be dc ad c4 3b 72 58 27 3e
       -0.37393194 -0.4163964 0.006002171 0.16342333
0000b0 99 51 33 be 9b 6a 50 bd d1 69 61 3c d9 78 26 3e
       -0.17511596 -0.050882917 0.013758139 0.16257037
0000c0 8d 51 aa 3c 1d c9 ab 3e f9 c3 3b be 2f 46 93 bd
       0.02079084 0.33551875 -0.18336476 -0.07191121
0000d0 33 b9 be bd 24 fb fc bd 4a 5c 34 be 95 d5 28 be
       -0.09312668 -0.12352589 -0.1761333 -0.16487725
0000e0 fb 1f 9d 3e 79 90 cb be dd d3 15 3d 4b 3c b0 be
       0.30688462 -0.3975866 0.036579 -0.34421
0000f0 bb 37 dd 3d c9 41 d9 bc bc 00 2f 3e 78 03 42 3d
       0.10801645 -0.026520627 0.17090124 0.04736659

sequential/conv2d/Conv2D f4 [32, 5, 5, 1]
000000 be 7e 3d 3e 9f 28 38 be d6 f4 44 be ed 90 63 bd
       0.1850538 -0.17984246 -0.19234022 -0.055558134
000010 57 7c e3 bc 05 5d 3f 3e 7b e0 09 be a6 5d e2 bd
       -0.02776925 0.18687828 -0.13464539 -0.11053018
000020 19 7e 2d be be 88 46 be fe c4 c5 3e 86 7f 58 3e
       -0.16942634 -0.193881 0.38626856 0.21142396
000030 f2 54 76 3d 6c a2 78 bd 65 e7 fc bd 74 20 6a 3f
       0.060139604 -0.060701773 -0.123488225 0.9145577
000040 bb 82 27 3f 8d 30 b3 3e 0a 77 a4 3e bf ee 2d 3e
       0.65433854 0.3499798 0.3212207 0.16985606
000050 0f 18 16 be 7b ee 58 3e 70 aa bc 3d b0 65 1c be
       -0.14657615 0.21184723 0.09212196 -0.15273166
000060 ea db 61 be 31 34 60 be 2d ec 07 3b 91 fa 92 3e
       -0.22056547 -0.2189491 0.0020740137 0.28706792
000070 24 f8 bc 3d 5c 52 56 be 1b 8e 08 be 8b 50 31 3e
       0.092270166 -0.20929855 -0.13335459 0.17315881
000080 fa 96 7b 3e e7 8f e8 bd de cd b2 bd fa 2b 9b bd
       0.24569312 -0.11355572 -0.08730672 -0.07576747
000090 29 dd 86 3e 56 11 02 3c 9e 05 80 be ab c6 42 3e
       0.26340607 0.0079387035 -0.25004286 0.19021098
0000a0 70 40 aa 3e c7 a5 45 3e 8d c1 13 be c8 45 04 be
       0.33252287 0.1930152 -0.14429303 -0.12917244
0000b0 4d 42 96 3e 02 5e 8b 3e 48 0c 1c be 1e 20 a1 be
       0.29347458 0.2722016 -0.1523906 -0.31469816
0000c0 e1 b1 2e be cf f1 31 3e e2 ea 45 3e e6 3c ab 3e
       -0.17060043 0.17377399 0.19327882 0.334449
0000d0 49 ff 8e 3e 97 7c b2 3e 88 11 07 3f 73 b9 4d be
       0.27929142 0.3486068 0.52761126 -0.20090275
0000e0 97 e2 bd 3d 12 69 4c bd 43 7a de bb f4 81 53 3e
       0.09271734 -0.04990489 -0.006789477 0.20655042
0000f0 b0 83 c9 3d e3 d6 a7 3c 65 fe f4 3d 0f 12 07 3d
       0.098395705 0.020488208 0.119625844 0.032976206
000100 74 b3 38 3e 2d ad 69 be 3e 34 6b be de 2f 51 bd
       0.18037206 -0.22819968 -0.22969148 -0.05107104
000110 7a fd 80 be f8 c2 13 3d 8b 59 92 be b5 16 ea be
       -0.25193387 0.03607461 -0.2858394 -0.4572045
000120 76 49 a1 be d4 8b 9f be 37 2b c1 bc ab 2b 6d ba
       -0.3150136 -0.31161368 -0.023580177 -0.00090473396
000130 44 3e 18 be 7e 87 87 be 69 57 1d 3c ca ed 52 3d
       -0.14867502 -0.2647056 0.00960336 0.051496305
000140 f3 66 7c 3e e3 a8 a9 3e 43 ce ca 3e e0 2b 92 3d
       0.24648647 0.33136663 0.3961049 0.07137275
000150 6f f3 80 3d 25 41 43 3d b8 bf 80 be 4d be 5b 3e
       0.06296431 0.04766955 -0.2514627 0.21459313
000160 0f 52 23 3e 0a c9 df bb bd 5b 84 3e e3 c6 c8 3e
       0.15949272 -0.0068293856 0.2585124 0.3921424
000170 22 f8 07 3f 4b cf eb 3e c8 31 8d 3d 1a d2 f7 3d
       0.53112996 0.4605659 0.06894261 0.121006206
000180 c5 96 da 3e 79 54 e7 3e 5f ef 96 3d 29 bd 05 3e
       0.42693153 0.45181635 0.07369875 0.1306044
000190 56 74 38 3d 99 f1 25 be d5 42 1e be 9b bb 26 be
       0.04503282 -0.16205443 -0.15455182 -0.16282503
0001a0 a5 a8 a8 3d 0d 69 bc 3d 9d 66 79 be 2c 89 14 be
       0.082352914 0.09199724 -0.2435555 -0.14505452
0001b0 63 7c 9f be ed e8 5a be f6 f0 8a 3e 3f 31 a2 3c
       -0.31149587 -0.21377917 0.27136964 0.019798873
0001c0 f1 29 a1 be c6 96 1a be 61 f2 86 3d 75 82 77 3e
       -0.3147731 -0.15096578 0.06589199 0.24170859
0001d0 f7 c9 dd 3d 87 bc 69 be 85 e2 f6 bd a4 f1 b4 bd
       0.10829537 -0.22825824 -0.12054924 -0.08835152
0001e0 7c 04 0f 3f 4b b5 d8 3e c5 01 6b 3d 19 6f 30 3c
       0.5586622 0.42325816 0.057374734 0.010768675
0001f0 92 13 c2 bd 09 a5 e4 be 9e 99 8c be 28 55 b2 bd
       -0.09476389 -0.44657162 -0.2746095 -0.087076485
000200 a3 1d d7 be 49 7c 63 be 5e 14 87 be 2b 98 b0 be
       -0.420148 -0.2221538 -0.26382726 -0.34491095
000210 0f fc 16 be 35 8b 0b bd 8c ba 82 3d d4 57 00 be
       -0.1474459 -0.034068305 0.06383237 -0.12533504
000220 89 c5 9a bd 1b 00 23 bd 5d 88 93 3d 43 8a 84 3e
       -0.07557208 -0.039795022 0.072037436 0.25886735
000230 85 53 84 3c af c4 ee bd a2 1c 99 3e 81 93 51 3e
       0.016153106 -0.11658608 0.29904658 0.20466425
000240 de bd ca 3e ab 78 cd bd 85 19 db bd 6f 9f 70 3e
       0.39597982 -0.10032781 -0.10698227 0.23498319
000250 f3 94 a3 3e 26 19 cc 3e cf 5d 76 bc ed e3 0e be
       0.31949577 0.39862937 -0.015037014 -0.13954134
000260 b9 e4 93 bd 69 16 ca bd 63 6a c6 3d db 5d c3 be
       -0.0722136 -0.09867556 0.096882604 -0.38157544
000270 00 b7 d7 be 89 f3 c9 bd ac e8 31 3d 97 4f e7 3d
       -0.42131805 -0.09860904 0.043434784 0.112944774
000280 c4 3a 57 be 25 00 09 bf 18 82 a7 bd 83 59 91 be
       -0.21018511 -0.53515846 -0.0817911 -0.28388605
000290 47 84 66 3e 89 78 fd be bd 21 be be c5 55 9f 3e
       0.22511397 -0.49506024 -0.37135115 0.31120124
0002a0 7e 50 80 be 76 f4 95 3d 55 97 23 bd 0b 17 e1 be
       -0.2506141 0.07322018 -0.039939243 -0.43962893
0002b0 84 26 4f be 6c e4 85 be e6 ef 00 3d 15 cf 51 3d
       -0.20229536 -0.26150835 0.031478785 0.05122288
0002c0 2a ba 08 3f f0 ac 9f bd 30 e2 79 be e2 78 11 3e
       0.53409064 -0.07796657 -0.2440269 0.1420627
0002d0 e8 5c 39 3e 6f 9b a2 3e 32 5a 7d be b3 f6 e9 be
       0.18101847 0.3175921 -0.24741438 -0.4569603
0002e0 c8 e6 41 be 4a 0b 21 3e 4c 1b fc 3d 60 37 67 be
       -0.18935692 0.15726963 0.12309894 -0.22579718
0002f0 74 cd 0b be 35 e6 58 3e af 69 a2 bc f1 08 91 be
       -0.13652593 0.21181567 -0.019825784 -0.28327134
000300 27 63 d9 bd 1f 49 44 3e 0b 2e ac 3e 44 34 23 be
       -0.10614615 0.19168518 0.33628878 -0.15937907
000310 2d ce 66 be 32 b2 37 be bd b6 b3 3e d9 92 6a 3e
       -0.22539587 -0.1793907 0.35100356 0.2290758
000320 f7 ed 8e be 9c 92 08 be 7d 88 76 be 78 97 80 be
       -0.27915928 -0.13337177 -0.24075504 -0.2511556
000330 44 1f 8f be 65 61 65 3d d4 20 61 3e e9 51 56 bd
       -0.2795354 0.056001086 0.21985179 -0.05232421
000340 10 62 a0 bd 77 1d 7d be fd 07 b5 3d 80 ae ab 3e
       -0.07831204 -0.24718271 0.08839414 0.3353157
000350 1e b0 00 3e 40 60 5b 3d 37 30 35 be e1 18 34 bd
       0.12567183 0.053558588 -0.17694174 -0.04396904
000360 9c 20 d9 3e 3a e5 99 3c 69 6f 96 bd e2 12 cc be
       0.4240769 0.018786062 -0.073454686 -0.39858156
000370 7e 3e cf 3e 8e ec dd 3e ee 78 2d 3e 4c 82 8e 38
       0.40477365 0.4334454 0.16940662 6.795357e-05
000380 c1 17 f2 bd ae f3 0d be 02 43 a5 be 94 7b cb 3d
       -0.11820937 -0.13862488 -0.32277685 0.0993568
000390 03 50 43 be 35 0d 9d 3e c0 25 19 be dd f1 f3 be
       -0.19073491 0.3067414 -0.14955807 -0.47645465
0003a0 fe 05 f7 3d 4a 35 cc bd 3f 41 0e 3e ff 1c a5 be
       0.1206169 -0.099711016 0.13892077 -0.32248685
0003b0 a7 ef ea be 23 3c a7 bc 32 5b bf be ba 77 e5 3e
       -0.45885965 -0.020414418 -0.37374264 0.44817907
0003c0 8c 08 da 3c f3 9f c7 3d 32 7a af 3e 85 b8 bb bd
       0.026615404 0.09747305 0.34272915 -0.09166054
0003d0 c7 27 82 3e 57 d4 08 3e 71 69 94 bd da 21 a5 3d
       0.25420973 0.13362251 -0.07246674 0.08063097
0003e0 2a 85 5e be cf 7a 5e 3e 4b 7d b9 be b8 80 65 be
       -0.21730486 0.21726535 -0.36228403 -0.22412384
0003f0 ff c6 9f 3c bc 84 03 bb 25 4b bd 3e 89 e9 0f bf
       0.019504068 -0.002006813 0.36971393 -0.5621572

sequential/conv2d_1/Conv2D f4 [55, 3, 3, 32]
000000 b6 ac 8d be be 4e f4 3d b3 cf 30 3e 63 94 17 be
       -0.2767083 0.119290814 0.17266731 -0.14802699
000010 99 af 96 3c 7f 20 d2 be f5 8c 20 bd 29 ae 58 3d
       0.018394278 -0.41040418 -0.039196927 0.052900467
000020 d9 a3 3f 3e f8 d3 8d bd 3f 1f 19 3d c8 cc f6 bd
       0.18714847 -0.069251955 0.037383314 -0.12050778
000030 ca 8a 5c be 5b 92 84 3e 97 3e 04 bd 91 6d 93 3c
       -0.21537319 0.2589291 -0.032286253 0.017996581
000040 48 f6 a9 be 2b 2d d3 3d 38 54 cf 3e 8a b7 25 be
       -0.3319571 0.103113495 0.4049394 -0.16183296
000050 11 40 99 be 51 d3 89 be 38 ee bc 3e 75 4f 59 be
       -0.2993169 -0.26919034 0.36900496 -0.21221717
000060 0e 68 20 bf 98 a6 07 be ef 35 67 bc 8f 0f c7 bd
       -0.62658775 -0.13247144 -0.01411198 -0.097197644
000070 8f f8 85 bc 71 5c d5 3c 32 55 8b 3e 54 74 9d 3e
       -0.016353874 0.026045056 0.27213436 0.30752814
000080 0a 0b fc be 51 28 6e be b8 c6 d9 3d ee 12 ee bd
       -0.49227172 -0.23257567 0.10633606 -0.11624704
000090 af 0c 07 bf fe 61 5d bd a8 bd ed bd 58 ca 12 3f
       -0.5275373 -0.05404853 -0.1160844 0.5734
0000a0 98 28 f2 be 50 6a 60 be 29 d9 d6 bd 83 90 f2 3d
       -0.47296596 -0.21915555 -0.10490639 0.1184397
0000b0 ec d9 86 be 8a 53 00 bf d7 cf d7 be ed d0 8b 3e
       -0.26338136 -0.5012747 -0.42150757 0.27307835
0000c0 1e 73 1a bf d2 a6 1a bd 05 99 cd be e5 cb 8d 3e
       -0.60331905 -0.03775675 -0.40155807 0.27694622
0000d0 af 6a f3 3d d8 e8 68 be 80 06 8d be 31 8d 67 bf
       0.11885583 -0.22745073 -0.27544022 -0.90449816
0000e0 7a 55 fd bd 5d d0 20 be 93 10 79 3e cc 2b 86 bf
       -0.12369819 -0.15704484 0.24322729 -1.0482116
0000f0 a0 8a 30 be 9c bd de be 44 96 85 3e 96 d4 07 bd
       -0.17240381 -0.43504035 0.26091206 -0.033161722
000100 d6 2d 28 bf d1 52 74 bd f6 ca 5b bd 7a 67 c7 be
       -0.6569494 -0.059649292 -0.053660356 -0.38946134
000110 5a a7 c4 3e 64 68 fc 3d 84 bb 22 bd 2d 0f 3b 3e
       0.3840893 0.123245984 -0.03972961 0.18267508
000120 65 f0 c0 3e a1 73 14 3e ec c1 0a be 4b cb 01 bf
       0.37683406 0.14497234 -0.13550538 -0.50700825
000130 57 64 30 be 5b 31 68 3e 42 06 45 bf fc 41 88 be
       -0.17225777 0.22675078 -0.76962674 -0.26612842
000140 99 9b 4a 3c fe fd 8b be ad 37 49 be 47 a6 d8 be
       0.012366199 -0.27342218 -0.19650145 -0.4231436
000150 c3 f2 2b be 1f 2a 9c be d8 f0 9c be d5 8b d1 bc
       -0.16791825 -0.30500886 -0.306525 -0.025579372
000160 46 82 a0 3e 81 48 26 bf 91 a7 c7 3d 45 3c e5 bc
       0.3134939 -0.6495438 0.09748758 -0.02798284
000170 3f c2 fb 3d 5e 54 e1 3e be a2 40 bd 81 95 3c 3d
       0.12292909 0.4400968 -0.047030203 0.046041016
000180 24 81 ff bd aa ef 9a 3c 70 1a ad 3d f4 d0 1b 3e
       -0.124758035 0.018913109 0.08452308 0.15216428
000190 e7 a8 84 bc 0b 2d 02 be 23 d4 32 bd 95 59 3f 3e
       -0.01619382 -0.12712495 -0.04365934 0.18686517
0001a0 20 15 87 3e e2 9a ed bd 28 38 8f be ac 99 4d be
       0.26383305 -0.11601807 -0.2797253 -0.20078152
0001b0 77 64 77 3c bd d3 fd 3d 07 b1 09 bf bd fc 8b 3d
       0.015099636 0.123939015 -0.5378575 0.068353154
0001c0 3b 17 94 3d d3 76 0f be 25 7e f5 bd 68 1c 6c be
       0.07230993 -0.14010172 -0.11986951 -0.23057711
0001d0 a9 68 03 be b0 15 7b be 91 eb 9c be 9f fa f1 bd
       -0.12832893 -0.24519992 -0.30648473 -0.1181538
0001e0 9c 1c ad bd aa 4e bf bc 13 f7 72 be 95 17 49 be
       -0.084527224 -0.02335294 -0.23727064 -0.19637902
0001f0 53 61 e9 bc 90 df 24 3e 00 fd 2e 3e ce d6 74 3d
       -0.02848879 0.16100907 0.170887 0.059775166
000200 2f 28 c1 be 35 c9 bf bd b9 b8 19 3d 19 6e 65 bd
       -0.3772597 -0.09364549 0.03752968 -0.0560132
000210 a6 cc f8 bd f5 d1 51 3e 0b a8 c0 bd 75 67 27 bd
       -0.121484086 0.20490249 -0.09407052 -0.04087015
000220 50 d0 d5 be ac 8d 04 3e a5 35 eb 3e 22 da 8f 3e
       -0.41760492 0.12944669 0.45939365 0.2809611
000230 7b e9 bc bc 0b a3 29 bf 61 42 93 3e e1 ca fd 3e
       -0.02306055 -0.6626441 0.2876158 0.49568847
000240 e7 53 a1 be 17 ef 96 3e 1a cc 19 3e 40 ea 5a 3e
       -0.31509325 0.29479286 0.15019265 0.21378422
000250 87 49 58 3e 40 d0 2c 3e e9 ba 18 be dc cd 9a bd
       0.21121798 0.16876316 -0.1491505 -0.07558796
000260 dc b4 68 3e a4 a8 22 be db 05 90 3d c2 08 7f be
       0.22725242 -0.15884644 0.07032367 -0.24905685
000270 49 7c 48 bd 9d 3c 89 be e1 35 67 3e c8 01 fd bd
       -0.048946653 -0.26804057 0.22579147 -0.12353855
000280 54 c1 66 bf 61 20 8e 3e b6 60 9a bc c4 b0 c9 bd
       -0.90138745 0.27759078 -0.018844943 -0.098481685
000290 20 2a 42 be 89 70 d2 bd 4a 8c f7 3d 1b 81 0c be
       -0.18961382 -0.10275371 0.12087305 -0.13721125
0002a0 92 b8 8b 3d 33 86 a9 bd 6c d3 ac bc 87 f2 74 bd
       0.06822313 -0.082775496 -0.021096908 -0.059801605
0002b0 66 12 b7 bc aa c3 a9 be 76 a1 fe bd 3c 62 bf 3c
       -0.02234764 -0.33157092 -0.1243314 0.023362271
0002c0 cc 11 8b be 38 a2 72 be ec 49 6d bb 4f 3d 23 be
       -0.27162015 -0.23694694 -0.003620739 -0.15941356
0002d0 df 02 5a be 10 21 95 be 6b 46 23 3e 9e 01 a0 be
       -0.21290158 -0.29126787 0.15944831 -0.31251234
0002e0 66 f8 34 be 47 a0 db bc 37 29 b3 3c 7e 1f af be
       -0.17672881 -0.026809825 0.021870239 -0.34203714
0002f0 74 74 7f be fc 80 94 3d c2 33 85 be da d6 2a 3c
       -0.24946767 0.07251164 -0.2601605 0.010427201
000300 c0 8d ce 3e 0a 79 09 3e e5 6e a1 be 61 a2 a1 3e
       0.40342522 0.13425079 -0.31529918 0.31569198
000310 75 75 2c bd 7d 80 a2 3e f0 ed a3 bd 9e 49 13 bd
       -0.042104203 0.31738654 -0.08004367 -0.03595888
000320 cf a8 83 3c 8a f7 15 3e 6d e9 4e 3e 4c d4 89 3e
       0.016071705 0.1464521 0.20206232 0.26919782
000330 3b e0 58 be ec 2d 99 bd f1 1b c2 3d 20 b4 15 3f
       -0.21179287 -0.07479462 0.09477986 0.58477974
000340 77 0d d1 3e 3f 9c 60 bc 76 1d b9 bd ca c7 e0 3d
       0.40830585 -0.013709127 -0.09038822 0.10975607
000350 7c 6d 08 be 26 0e f4 3d 5a 86 17 bf 59 b7 9f bc
       -0.13323015 0.11916761 -0.5918938 -0.019496607
000360 de e4 1f 3e 7a 0c 8d 3e e8 9e 4d be a6 10 08 3e
       0.1561465 0.2754858 -0.20080149 0.13287601
000370 50 2b a5 3e bb 8d 37 be 3a 67 c1 bc a3 01 29 be
       0.32259607 -0.1792516 -0.023608793 -0.1650453
000380 38 2e 9d 3e 13 81 c8 be 79 ad 55 be 14 52 4e bd
       0.30699325 -0.39160976 -0.20866956 -0.050371245
000390 3c ff 4d bd 8a 42 73 3e 20 cb 47 be 34 10 f1 be
       -0.05029224 0.23755851 -0.1951108 -0.47082675
0003a0 ba 01 b5 bd 93 21 03 3d df df 86 3e 2a 3d 14 bd
       -0.0883822 0.03201444 0.26342675 -0.036191143
0003b0 49 d9 42 be ef a8 50 bf 99 00 8f 3e 67 02 1f be
       -0.190282 -0.8150777 0.27930143 -0.1552826
0003c0 df 50 b3 3d 25 79 e0 bd a8 df 8d 3e 59 be 22 3e
       0.08755659 -0.109606065 0.277097 0.15892924
0003d0 58 5c 81 3d 6c 6c 16 bd 98 20 aa 3e 3a e7 33 3e
       0.06316441 -0.036724493 0.33227992 0.17568675
0003e0 5d 89 65 3e 8f 7a 1b be 3e 70 5c be 41 6c 0d 3e
       0.22415681 -0.15183471 -0.21527192 0.13810827
0003f0 6d f6 6a 3e ff 15 20 bc f1 2b ba bd a1 a9 8a be
       0.22945566 -0.009770869 -0.090904124 -0.27082542

sequential/conv2d_2/Conv2D f4 [64, 3, 3, 55]
000000 c0 af 63 be 27 52 7d 3d 1a 10 20 be 12 6a 46 be
       -0.22235012 0.061845925 -0.15631142 -0.193764
000010 19 f2 86 be 29 d1 cc bd 3b ac fd bc ca 2e b8 3d
       -0.2635658 -0.10000832 -0.030965915 0.08993299
000020 f5 a0 98 3e 91 a6 e8 b9 18 95 b2 3e f4 f7 c3 be
       0.298103 -0.0004437459 0.34879375 -0.3827511
000030 80 e3 a7 bd 57 04 ae bd df 04 be bb 0d 31 77 be
       -0.08197689 -0.084969215 -0.0057989205 -0.24139805
000040 c5 5b 1d bd e5 8a 61 3e 3c 16 b6 3d d8 a2 06 be
       -0.038417596 0.2202564 0.088909596 -0.13148057
000050 29 01 05 3e 4a dd c6 3e d4 e8 aa be 6f f8 67 be
       0.12988724 0.38840705 -0.3338076 -0.22653364
000060 54 d1 41 be db c8 a1 bd d4 6d 7d bd 08 72 ad bd
       -0.18927509 -0.07899638 -0.06187232 -0.08469015
000070 03 db 15 3d 49 25 11 be b1 38 77 be a7 5c a5 3d
       0.03658582 -0.1417438 -0.2414272 0.08074313
000080 38 29 bd bd 1b 7f b8 3e 31 ad ae bd c8 bd f9 be
       -0.092363775 0.36034474 -0.085291274 -0.48777604
000090 35 2e 3b be 1c 46 0b 3f 07 bf e9 bd 17 b7 79 be
       -0.18279345 0.54403853 -0.11413389 -0.2438625
0000a0 4f 64 8f bd 09 54 45 be 73 fd 48 bf cd 76 0d bf
       -0.07001554 -0.19270338 -0.7851173 -0.552594
0000b0 ae da ba be cc 3a 42 bd 1f 65 85 3d 66 d0 d7 bd
       -0.36494964 -0.047419354 0.06513428 -0.10537796
0000c0 9c 16 ea bb 46 61 cc 3e 41 45 39 3d c2 92 40 3d
       -0.0071438085 0.39917964 0.04523206 0.04701496
0000d0 5f 8f 87 be aa 6f f8 bc 9e dc d2 be d4 95 23 bd
       -0.2647657 -0.030326683 -0.41183943 -0.03993781
0000e0 38 95 7a 3e f0 3d 05 be c3 ba 71 bd fa 87 08 bf
       0.24470985 -0.13011909 -0.059016 -0.53332484
0000f0 c8 dd 64 3e 5c e7 55 3e db 27 2f 3e 7f 68 19 3e
       0.22350228 0.20889038 0.17105047 0.14981268
000100 b4 5b bb be 29 65 81 bc 2f 81 94 be ee 51 57 bd
       -0.365934 -0.015795307 -0.2900481 -0.05256837
000110 89 bf c3 be dc 65 8b 3e d0 bc bf 3b 30 03 56 3d
       -0.38232067 0.2722615 0.0058513656 0.052249134
000120 67 69 ce bc 3d 75 b5 3e 82 c0 e0 3c b5 65 19 bc
       -0.025196744 0.35441008 0.027435545 -0.009362628
000130 97 5b f8 3d 03 16 d1 bd 8f 6d aa 3e 4a 1c b3 3e
       0.121268444 -0.102092765 0.33286712 0.3498252
000140 14 48 1e bc 52 0a 80 3e 5d 16 00 bf f5 da 8c 3e
       -0.009660739 0.25007874 -0.50034124 0.275108
000150 9f 41 b4 bd 42 28 9c 3d 63 04 db bd 29 0e 23 b9
       -0.08801579 0.07624866 -0.10694196 -0.00015550166
000160 a0 8e 6c bd 2f 90 40 3e e2 42 fc 3d 7f 38 a8 be
       -0.057753205 0.18805002 0.123174444 -0.32855603
000170 53 84 73 3e b3 56 f9 bc 62 88 8e bd 91 66 22 3e
       0.23780946 -0.03043685 -0.06959607 0.15859438
000180 76 91 5b 3e 0a 7c f7 3c fb 86 96 be 07 44 87 3d
       0.21442208 0.030210514 -0.29399857 0.06604772
000190 71 67 48 be 66 b2 c8 bd 2d d3 30 bf d6 62 9b 3e
       -0.1957071 -0.09799652 -0.6907223 0.30348843
0001a0 dc 4f 7e 3c 72 39 7f be 7f 0f 36 3e f8 62 83 3c
       0.01552197 -0.24924257 0.17779349 0.016038403
0001b0 da fa c1 3e 44 19 f1 bb 42 84 1b 3d ac 0d 8c bc
       0.37886697 -0.007357748 0.037967928 -0.017096363
0001c0 a4 b1 72 3d c0 1c 12 bc 00 39 23 3b 02 a8 0a bd
       0.059251443 -0.008917987 0.00249058 -0.03385163
0001d0 80 0c 65 ba 48 fe 50 3d 6e c6 2b bd 42 75 81 bd
       -0.00087375194 0.05102375 -0.041937284 -0.06321193
0001e0 f8 d4 0e bd 82 c2 93 bd b8 e0 7d bc 02 6f 10 bd
       -0.03487107 -0.07214834 -0.015495472 -0.035262115
0001f0 28 38 2c bc e0 97 63 bb 1a d0 83 3d c4 85 20 3d
       -0.010511436 -0.0034727976 0.064361766 0.03919007
000200 97 21 30 bd b5 72 96 bd 70 cb 00 bd 19 ea 98 bd
       -0.043000784 -0.073460974 -0.031444013 -0.074665256
000210 18 65 d1 3c 92 86 88 bd 14 3a 1d 3d 80 39 f4 3a
       0.0255609 -0.06666292 0.038385466 0.0018632859
000220 50 2d d2 bc c3 be 6f bd 86 01 72 bd 84 53 fd 3c
       -0.025656372 -0.058531534 -0.059083484 0.030923612
000230 c0 0c 65 3d 34 88 b4 bc 10 17 f5 bb 4a 20 a4 bc
       0.055920362 -0.022037603 -0.007479556 -0.020034928
000240 52 7e 90 3d 26 59 94 bd 50 6a 5a 3d f0 e4 8a bc
       0.07055344 -0.07243566 0.053324044 -0.016954869
000250 00 f4 16 3c e0 f8 26 3c 36 e6 b2 bc f2 0f 7c bd
       0.009213448 0.010191172 -0.021838289 -0.061538644
000260 8f 8c 87 bd 64 79 93 bd f0 a6 14 3d 0a 37 45 bd
       -0.06618606 -0.07200888 0.036292017 -0.048148192
000270 ec 19 c7 3c 48 19 33 bd f3 71 6f bd be 62 7e bd
       0.024304353 -0.043725282 -0.05845828 -0.062105887
000280 c0 65 0c bb 20 04 6e 3d 80 c5 cd bb d0 62 53 3c
       -0.0021422952 0.058109403 -0.0062796474 0.012901977
000290 20 39 99 bc 87 a5 e3 3d f9 14 d0 3e d5 ae 81 be
       -0.018703997 0.11115556 0.40641 -0.253287
0002a0 a0 3f bd be 35 b5 0d bf a8 1e a0 bd 5d 51 1a bf
       -0.36962605 -0.55354625 -0.07818347 -0.602804
0002b0 9b fb a3 3e b2 55 f2 be 88 92 15 be 88 e2 72 be
       0.32027897 -0.47331005 -0.14606678 -0.23719227
0002c0 dc 97 a9 be 8c 75 0c bf f3 f0 c8 be 14 2d 8e 3d
       -0.33123672 -0.5486686 -0.3924633 0.06942192
0002d0 ff d1 5e 3e c9 7a 37 3e bd c6 89 3d 29 7e 99 bb
       0.21759795 0.17917933 0.067273594 -0.004684229
0002e0 a4 49 bc bc 22 93 d4 be df fe 9d be 5c 84 54 be
       -0.022984333 -0.41518503 -0.30858514 -0.20753616
0002f0 ec 58 ae 3d 93 bb 92 3e 48 2f 71 3e 70 68 4e bd
       0.08513054 0.28658733 0.23553193 -0.050392568
000300 4e 28 a8 be 5e a9 ff 3e 49 d2 70 be 2c 55 f4 3d
       -0.3284325 0.49933904 -0.23517717 0.11930308
000310 8d b2 a0 be 9c 60 6c be f5 41 81 3d 1e 2f 45 be
       -0.31386223 -0.23083729 0.063114084 -0.19256255
000320 ab ea ef bd c7 78 77 3e 91 c9 15 be 02 20 3b be
       -0.11714681 0.24167167 -0.14627673 -0.18273929
000330 f7 f9 c5 3d f4 19 6a be 72 9d 2a 3f 45 57 39 be
       0.09666818 -0.22861463 0.6664649 -0.18099697
000340 b0 36 1d 3d 55 ed ad 3e 12 81 bc be a3 4b 23 3e
       0.038382232 0.33970132 -0.36817223 0.15946822
000350 38 63 75 be 08 31 12 bf ff 07 6f 3e c8 9f 5c bd
       -0.2396363 -0.57106066 0.23342894 -0.053863317
000360 30 54 e6 3e 8d c5 8a 3d 1e 57 84 be ad dc d2 be
       0.44986105 0.06775961 -0.25847715 -0.41183987
000370 38 f5 8d bd 7d ab 34 be 06 ab 9b be 59 84 7b be
       -0.069315374 -0.17643543 -0.30403918 -0.24562205
000380 c5 14 fc bd 11 4c b9 bd 4e 66 2f 3e e4 54 4b be
       -0.12308649 -0.09047712 0.1712887 -0.19856602
000390 4e cb 08 be 64 45 d4 bd b6 fc 40 be 34 10 bc 3d
       -0.13358805 -0.10364798 -0.18846402 0.09182778
0003a0 b4 c2 88 be 9d 4f 54 3d b7 8e c0 3e aa a3 3a be
       -0.26711047 0.051833738 0.37608883 -0.18226495
0003b0 85 6e 47 be 5a bb 0d 3e c0 3b 13 bd 60 c4 84 be
       -0.19475754 0.13841 -0.035945654 -0.25931072
0003c0 23 35 04 3f 2e 41 f3 bd c6 30 ab bd 99 74 d9 3d
       0.5164358 -0.118776664 -0.08358912 0.10617942
0003d0 a7 0e d1 3e 3f 8e 77 be d1 59 81 3d c7 1e 87 3e
       0.4083149 -0.24175356 0.06315959 0.2639067
0003e0 33 8a 9f be 7b 99 9a be 41 e7 b2 3d ff 5e 63 3d
       -0.31160125 -0.3019522 0.087355144 0.055510517
0003f0 ed 27 39 bd d5 17 5f bd 2b c6 9b 3e dd 59 88 3e
       -0.04520409 -0.054466087 0.30424628 0.2663106

sequential/dense/BiasAdd/ReadVariableOp f4 [32]
000000 d3 0b 05 3e 60 25 44 be 54 02 1d bd 91 89 e9 bc
       0.12992792 -0.19154882 -0.0383323 -0.02850798
000010 13 6d f8 bd 6c e1 1f 3e f7 3e de bd 28 3f 2a 3e
       -0.12130179 0.15613335 -0.10851853 0.16625655
000020 4c 6c 31 3d 66 03 ab 3d 25 8c 02 be 46 4a cb 3d
       0.04331617 0.083502576 -0.12748773 0.09926276
000030 bd 10 29 3e 5f 7d 7d be 62 ff 84 bd f2 30 b5 bd
       0.16510291 -0.24754857 -0.06494023 -0.08847226
000040 01 24 26 3e a3 a9 f2 3d d8 71 d9 bc fd 58 09 3b
       0.16224672 0.11848762 -0.026543543 0.0020957582
000050 62 f8 89 bd 1e e6 8b b9 6b 08 7f 3e 5c d1 6c bd
       -0.067368284 -0.00026683597 0.24905555 -0.05781685
000060 f9 73 ee 3d cf 41 89 3c 0c f9 8e bd 52 cc 93 3d
       0.11643214 0.016755013 -0.06981096 0.072167054
000070 14 0a 85 be e5 83 74 be 0a 79 00 bd c5 e3 4a be
       -0.25984251 -0.23878439 -0.03136543 -0.1981345

sequential/bidirectional/forward_lstm/Read_2/ReadVariableOp f4 [64]
000000 1b eb e0 3d c1 d1 c7 bd b9 27 95 3e 0d 4d c6 be
       0.10982343 -0.09756804 0.29131868 -0.3873066
000010 e5 0d 8c 3d 05 a6 8a 3e c1 08 92 3e 78 04 30 bd
       0.06838588 0.27079788 0.28522304 -0.04297301
000020 1f 4b cd be a9 05 ea 3d 0b aa a3 3e 64 c4 80 be
       -0.40096375 0.11426861 0.3196567 -0.25149834
000030 e7 22 3d 3e 8e dd fc 3d 66 d0 14 bf cd 07 02 bd
       0.18470345 0.12346946 -0.5813049 -0.03174572
000040 3a a7 48 3f 5a ca 94 3f 26 99 51 3f ab 83 8a 3f
       0.7838017 1.1624253 0.8187431 1.0821432
000050 66 e3 b9 3f 91 bb a7 3f cd 9a 54 3f ca 39 2d 3f
       1.4522521 1.3104116 0.8304871 0.67666304
000060 0a 5f 83 3f 32 8d 9a 3f 10 b5 4f 3f 36 c4 af 3f
       1.0263379 1.2074339 0.81135654 1.3731754
000070 31 db 96 3f a2 6b a3 3f 0e f1 9c 3f ad 8b 89 3f
       1.1785642 1.2767222 1.2261064 1.0745751
000080 6d 0d 3c 3d 97 ec 21 3e 21 7f 8d be e8 69 6e be
       0.04591124 0.15812908 -0.27636054 -0.23282588
000090 76 b5 8f be bf 1f 8a be f8 8b e4 be b7 1c f2 bd
       -0.2806813 -0.26977345 -0.44638038 -0.11821883
0000a0 06 c2 6d be eb a7 36 be 80 68 a6 bd 0b ea e7 3d
       -0.23218545 -0.17837493 -0.081254005 0.11323937
0000b0 8e 80 bc be 32 23 75 3e fd 10 45 3e 9b 05 3c 3e
       -0.3681683 0.23939207 0.19244762 0.18361513
0000c0 7e fb ae bd 4a ce 0e be c3 3f 7f 3e 59 f6 dc bc
       -0.08544062 -0.1394588 0.24926667 -0.026972936
0000d0 73 52 1a be db 06 0e 3b 58 2c 0e 3d 1f 04 44 3e
       -0.15070514 0.0021671567 0.03471026 0.19142197
0000e0 2d aa cb 3e f9 43 3e 3e 7c 6d 04 3f 18 42 d0 bc
       0.3977827 0.18580617 0.5172956 -0.025422141
0000f0 39 d2 ca 3d 9f 1e 5c 3e 19 d8 29 3f af c0 d9 3d
       0.09903378 0.21496056 0.66345364 0.106324546

sequential/bidirectional/backward_lstm/Read_2/ReadVariableOp f4 [64]
000000 e4 0c a9 3e 4c 4a 6f 3e 37 31 80 bd fa 64 27 3d
       0.33017647 0.23368186 -0.06259387 0.040867783
000010 7d 2b 38 bd 0d 9a b3 3c ec a1 4c 3e 29 df a5 3e
       -0.04496335 0.021924043 0.19983643 0.3239682
000020 de 70 df be 4a cc ce be 15 f9 80 be 30 5d 9a 3e
       -0.43640798 -0.40390235 -0.25190035 0.3014922
000030 63 2f ef be 72 f4 b8 3d b8 93 f7 3d 94 da 21 3d
       -0.4671584 0.09030999 0.12088722 0.039515093
000040 21 89 6c 3f 43 6f 3c 3f 99 a4 68 3f db 62 79 3f
       0.9239674 0.7360727 0.90876156 0.97416466
000050 90 28 8d 3f b2 ea a1 3f 69 e1 9d 3f ce 3e 6d 3f
       1.1028004 1.2649748 1.2334415 0.9267396
000060 2b e3 4c 3f fe e6 4d 3f e2 48 7d 3f 4d 88 69 3f
       0.8003413 0.8043059 0.98939335 0.91223603
000070 c6 83 6d 3f 1a 08 1f 3f 74 0a 6a 3f bf 8e 7e 3f
       0.92779195 0.62121737 0.914222 0.99436563
000080 63 25 06 3e e4 69 d4 bc cd 80 66 3c 59 e5 84 3e
       0.131002 -0.025929399 0.014068794 0.25956228
000090 b1 00 8d be 3a da 5b 3c d4 98 dd be 51 af 8a bd
       -0.2753959 0.0134187285 -0.4328066 -0.0677172
0000a0 ab 97 06 be 7f ae 08 be d8 e0 b7 be 9a 8b c9 bd
       -0.13143794 -0.13347815 -0.3591373 -0.0984108
0000b0 ee 5e d8 3c cd f2 48 3e b8 0b 43 3e 8f 34 61 3d
       0.026412454 0.19623871 0.19047439 0.054981764
0000c0 00 0e d1 3e a0 12 56 3e 21 6a 91 bd 86 a0 e4 3e
       0.40830994 0.20905542 -0.071003206 0.4465372
0000d0 3c 41 89 3e 5d 9a 36 3e 69 d0 c3 3d 23 a4 31 3e
       0.26807582 0.17832322 0.095612355 0.1734777
0000e0 11 35 0c be 45 c1 22 3e a4 b3 85 3c 2b 80 c2 3e
       -0.13692118 0.15894039 0.01632101 0.3798841
0000f0 f8 6a a8 3c 2e 97 04 3f 9f c7 63 3e 46 e3 78 3e
       0.02055882 0.5179318 0.22244118 0.24305448

sequential/batch_normalization/FusedBatchNormV3 f4 [32]
000000 d1 93 04 3f 9d dc 74 3d c5 85 9c 3d ef c6 bb 3f
       0.5178805 0.059780706 0.07642702 1.4670085
000010 4a 24 f7 3d cf 42 aa 3d 83 3b c0 3c b4 37 ba 3e
       0.120674685 0.08313524 0.023465877 0.36370623
000020 9f 60 3c 3e fe c3 9d 3d 74 ca 4d 3e ff c1 18 3e
       0.18396233 0.07703398 0.20096761 0.14917754
000030 23 37 8a 3e 5c 07 d1 3e 47 d3 12 3f a5 05 83 3f
       0.2699519 0.40825927 0.57353634 1.0236098
000040 22 bb 5a 3f c1 60 35 3e d1 ab 38 3f b5 04 06 3f
       0.8544179 0.1771269 0.7213717 0.5235093
000050 42 74 75 3e 4a 55 17 3e db 3b bc 3f 53 7a f9 3d
       0.2397013 0.14778629 1.4705766 0.121815346
000060 03 98 02 3e 57 95 5e 3f 53 6e 4c 3e fc 38 12 3f
       0.127533 0.86946625 0.1996396 0.571182
000070 33 e2 94 3c 07 08 07 3e 3d 26 2d 3e 0e df c3 3b
       0.018174266 0.13186656 0.16909118 0.005977518

sequential/batch_normalization/FusedBatchNormV31 f4 [32]
000000 30 99 26 bd b0 7e ac 3b a2 3b b2 bd 00 d6 d9 b9
       -0.040673435 0.0052641258 -0.0870278 -0.00041548908
000010 35 de 0f bf ca 13 9f be 36 4d ac be 3f 31 16 bf
       -0.56198436 -0.31069785 -0.33652657 -0.58668894
000020 80 4f 39 be 36 e2 1b be eb 4b 82 bf 2a db 7b be
       -0.18096733 -0.15223011 -1.0179418 -0.24595323
000030 94 65 a5 bd b8 6c c7 be 0b c8 b8 be e9 c3 2e be
       -0.08076015 -0.38950133 -0.3609012 -0.17066921
000040 be 26 73 be 0a 18 89 bd 7a db e3 be 15 3c a0 be
       -0.23745248 -0.06694038 -0.44503385 -0.3129584
000050 9c b0 a9 be b8 1e 96 3d bb d4 f4 be a5 30 0b bf
       -0.33142555 0.07330078 -0.4781855 -0.543711
000060 2a f9 a5 be 58 65 44 bd 0b 49 9a bc 0d c4 25 be
       -0.3241666 -0.04794821 -0.018833658 -0.16188069
000070 40 b1 b9 3c 6c c5 d1 bd 80 c2 25 bf cf e6 89 bd
       0.022667527 -0.10242733 -0.6474991 -0.06733476

sequential/batch_normalization_1/FusedBatchNormV3 f4 [55]
000000 7d 82 6a 3e 2a 2c 1e 3f 8f 2d 6e 3f 95 c4 87 3e
       0.2290134 0.6178614 0.93038267 0.26517168
000010 8d 6d 39 3f f2 db b3 3e 75 25 c7 3e 1b 9e 9e 3e
       0.72432786 0.35128742 0.38895765 0.3098
000020 39 ae e6 3e a5 a3 f5 3e 80 9b 00 3f 8c 8c da 3e
       0.45054796 0.47976413 0.50237274 0.42685354
000030 92 2e 1f 3f 3a 5b 60 3e 4d 12 4a 3f 8a d7 9e 3e
       0.62180436 0.219098 0.78934175 0.31023818
000040 e3 c5 e9 3d 06 af 21 3f 60 6b a8 3e c3 77 77 3e
       0.11414697 0.6315769 0.3289442 0.24166779
000050 ee b8 b5 3e 26 87 92 3e db f9 5a 3e e7 4c d0 3e
       0.35492653 0.28618735 0.21384375 0.40683672
000060 a0 5e 0c 3f 7f d7 01 3e e1 cb be 3e b1 61 95 3e
       0.54831886 0.12679861 0.37264922 0.29176095
000070 44 11 85 3e 6f db 93 3e 5a cb 9c 3e ed b1 09 3e
       0.25989735 0.28878352 0.30623895 0.1344678
000080 52 f7 0a 3f e2 22 ad 3e 9c 1d 04 3f 09 c8 90 3e
       0.5428363 0.33815676 0.5160768 0.28277615
000090 c8 6d 3d 3f 1b ac 3e 3e 7d b3 db 3e 30 3e 1d 3f
       0.7399564 0.1862034 0.42910376 0.61423016
0000a0 4a 62 f6 3d 4c a5 44 3f 4f ce 9a 3e 28 21 2a 3f
       0.12030466 0.76814723 0.30235526 0.6645684
0000b0 90 76 2f 3f e5 57 64 3e 6b 2b 6c 3e 38 f4 30 3f
       0.68540287 0.22299154 0.23063438 0.6912265
0000c0 7c 0b fc 3e a5 8a 06 3f 9c 2d 11 3f 90 db 0c 3f
       0.49227512 0.52555305 0.5671022 0.55022526
0000d0 24 55 a9 3e 3e 60 b3 3e e5 02 8d 3e
       0.3307277 0.35034364 0.2754127

sequential/batch_normalization_1/FusedBatchNormV31 f4 [55]
000000 71 b9 7a bf 37 77 ab be c4 d4 0d bf d4 3d 09 bf
       -0.9793921 -0.3348939 -0.5540278 -0.5360997
000010 9e 81 0c bf b7 0c 3d bf 3a ef 8a be ea 87 af be
       -0.5488528 -0.73847526 -0.2713564 -0.34283382
000020 8f 60 0d bf 55 4f b4 bf 26 42 68 be 7e 0e 14 bf
       -0.5522546 -1.408671 -0.22681484 -0.57834613
000030 bc 0e 19 bf 42 ec e1 be f5 ed 74 bf 03 3a 47 bf
       -0.5978811 -0.44125563 -0.95675594 -0.77822894
000040 77 66 58 be 87 bb 1c bf a6 78 6f bf 1f a7 43 bf
       -0.21132837 -0.61223644 -0.9354347 -0.7642688
000050 5b d9 8f bf 2c 58 d7 be a4 32 21 bf 02 a2 d5 be
       -1.1238207 -0.42059457 -0.62967896 -0.41725165
000060 8a f1 74 be 60 3f 2e bf 19 d3 07 bf e8 18 7a bf
       -0.23920265 -0.6806545 -0.53056484 -0.97694254
000070 22 a6 7f bf 06 8d 2e bf dd ba 57 bf a8 17 67 bd
       -0.99862874 -0.68183935 -0.84269506 -0.056419045
000080 2f 0a 52 bf 3d 94 f3 be e3 b2 a8 be 7e 6a 0b bf
       -0.8204679 -0.47574034 -0.3294898 -0.5445937
000090 8b 43 a2 bf cc ff 00 bf 35 3a 1b bf ec ef bd be
       -1.2676862 -0.50390315 -0.6063569 -0.37097108
0000a0 b0 95 97 be 04 e9 48 bf 81 57 24 bf 2b 62 4b bf
       -0.2960639 -0.78480554 -0.6419602 -0.7944667
0000b0 23 8c fa be 6f e5 1b bf ea a9 f8 be 34 19 40 bf
       -0.4893504 -0.6089696 -0.48567134 -0.75038457
0000c0 84 1e 11 bf 79 1b c5 be 0a 27 19 bf bd 0f c3 be
       -0.5668719 -0.38497522 -0.59825194 -0.38097945
0000d0 24 98 d0 be 46 d1 0a bf 0a 8c e2 be
       -0.40741074 -0.54225576 -0.44247466

sequential/batch_normalization_2/FusedBatchNormV3 f4 [64]
000000 7a de 8e 3e 3d cb 68 3e f0 16 43 3e a7 e6 48 3e
       0.2790411 0.22733779 0.19051719 0.19619237
000010 d9 9e 34 3e 64 87 4e 3e 2c 41 86 3e 87 c5 4a 3e
       0.1763872 0.20168835 0.26221597 0.19801913
000020 a7 39 3f 3e 6a 51 45 3e c9 f5 68 3e f6 06 b7 3d
       0.18674336 0.19269338 0.2275001 0.089368746
000030 20 a0 c5 3e 33 c5 ef 3d 08 64 ae 3e 3b 0d 05 3e
       0.38598728 0.11707535 0.34060693 0.12993328
000040 2a 31 e0 3d 8b 47 34 3e 0b 26 50 3e 2c 81 99 3e
       0.10946877 0.17605416 0.20327012 0.29981363
000050 86 b0 09 3e 23 85 84 3e 36 c1 41 3e 22 77 bd 3e
       0.13446245 0.25882825 0.1892136 0.37004954
000060 8b f6 31 3e 23 2c 8b 3e 8f 41 6e 3e bc 04 31 3e
       0.17379205 0.2718211 0.23267196 0.17286962
000070 c7 d1 24 3e 91 64 8b 3e d3 8b 2d 3e 2c 45 89 3e
       0.16095649 0.27225164 0.1694787 0.26810586
000080 7d 2c 51 3e 05 ea 7d 3e 23 40 4a 3e 2f db 31 3e
       0.20427127 0.24796303 0.19751029 0.17368768
000090 24 f0 94 3e 4e a1 a9 3e 84 00 3e 3e fd 44 55 3e
       0.29089463 0.33130878 0.18554884 0.20827098
0000a0 01 25 ee 3e e9 68 5e 3e d3 10 39 3e 3b 66 a9 3e
       0.46512607 0.21719708 0.18072824 0.33085808
0000b0 9c db 59 3e 94 ac 1b 3e ff 00 9d 3e 74 c9 a8 3e
       0.2127518 0.15202552 0.30664822 0.32966197
0000c0 27 27 8a 3e bd bb 0e 3e c5 85 f3 3d 49 df ae 3d
       0.26982996 0.13938804 0.11890749 0.08538682
0000d0 24 41 12 3e 98 a1 67 3e b0 2c 09 3f b0 2d 1b 3e
       0.14282662 0.22620237 0.5358381 0.15154147
0000e0 13 57 84 3e aa d8 6e 3e ed a9 82 3e e8 ac a8 3e
       0.25847682 0.23324838 0.25520268 0.32944417
0000f0 1d 4b 3a 3e 14 83 3f 3e 8a 2d 0c 3e 8c 1e 2e 3e
       0.18192716 0.18702346 0.13689247 0.1700384

sequential/batch_normalization_2/FusedBatchNormV31 f4 [64]
000000 a0 c1 67 be 9e 48 c5 be 23 c8 3f bf 0d 12 0b bf
       -0.22632456 -0.38531965 -0.7491476 -0.5432442
000010 bd e4 d9 be 7e ca 97 be 46 03 ab be ba 32 93 be
       -0.42557326 -0.29646677 -0.33400935 -0.2874964
000020 30 29 08 bf e0 4b 8e bd 85 be 0b bf 4a 5b 0b bf
       -0.5318785 -0.06948066 -0.54587585 -0.5443617
000030 6c 6a c9 be f4 a3 5d be 46 0a ef be b4 60 1b bf
       -0.39339006 -0.21644574 -0.46687526 -0.6069443
000040 a8 fe 16 be c8 48 14 bf b5 fc bc be 00 dd e8 be
       -0.14745581 -0.57923555 -0.3691155 -0.4548111
000050 e0 68 36 bf bc d3 ca be 5c 5c 87 be 22 e5 f0 be
       -0.71253777 -0.39614666 -0.26437652 -0.47049814
000060 05 c5 ea be e0 1e 40 bf 4a 8f 27 bf db 77 ef be
       -0.4585344 -0.7504711 -0.65453017 -0.4677113
000070 8e 7b e9 be ce 18 0f bf e1 e1 23 bf 80 df 7c be
       -0.45602077 -0.55897224 -0.6401654 -0.24694633
000080 8c 2f 38 bf 2b ee a8 be c8 a5 4b be 82 5f c9 be
       -0.7194755 -0.32994208 -0.1988746 -0.3933068
000090 54 3a 12 bf 77 82 07 bf c5 2e 1e bf 64 16 e2 be
       -0.5712025 -0.5293345 -0.61790115 -0.44157708
0000a0 a0 d2 21 3c 80 1a c9 be b7 7f ce be fa ae b9 be
       0.009876877 -0.3927803 -0.40331814 -0.3626631
0000b0 97 f1 0a bf 3b ce 34 bf 8a 12 2d bf 0d 88 25 bf
       -0.54274887 -0.7062718 -0.67606413 -0.6466072
0000c0 55 71 2f bf 72 e2 0a bf d0 60 d1 be 39 12 1c bf
       -0.68532306 -0.5425178 -0.40894175 -0.60965306
0000d0 83 84 55 bf a2 66 9c be 32 3b 9e bd fc 42 d9 be
       -0.8340532 -0.30547053 -0.07726134 -0.42433918
0000e0 9c 5d a4 be d0 8a 6d be 53 46 c5 be 1a 82 b1 be
       -0.32102668 -0.23197484 -0.38530216 -0.34669572
0000f0 37 9e 46 be 24 80 74 be 20 81 31 bf 42 75 3f bf
       -0.19396292 -0.23877007 -0.69337654 -0.74788296

sequential/dense/MatMul f4 [32, 32]
000000 a9 63 17 be 63 51 05 bf 41 78 2b bd bd 60 94 be
       -0.14784111 -0.5207731 -0.04186273 -0.28980055
000010 a2 83 39 3d fe 6a 0f 3e d0 c7 09 be 91 cf ea be
       0.04529155 0.14005658 -0.13455129 -0.45861486
000020 ec ea 7e be 52 6c d1 be 1f ac 9b bb 94 77 bd 3c
       -0.24894303 -0.40902954 -0.004750743 0.023128308
000030 58 cd 85 3d a2 7d 5c bd b3 cc 0f 3e 34 9a b2 3d
       0.06533307 -0.05383075 0.1404293 0.08720818
000040 1b c6 2c 3e 29 5f 27 be fc f8 74 bd dc 05 32 3e
       0.16872446 -0.16344894 -0.059807763 0.17385048
000050 25 bc 1d bc f0 0d 8f bd ee 24 09 bf 58 d8 05 bf
       -0.009627377 -0.0698508 -0.53571975 -0.5228324
000060 63 db 7b bf b9 b8 86 3f 79 96 96 be f1 2a bf be
       -0.9838163 1.0525123 -0.29411677 -0.3733745
000070 3a 1b fe be ff d6 62 3e db 5a c8 3e 7d d2 af 3e
       -0.49630147 0.22152327 0.39131817 0.34340277
000080 4f 98 da 3e 97 cb 46 3e 9a 02 07 be 58 1d 66 3e
       0.42694327 0.19413601 -0.13184586 0.22472131
000090 16 df 28 3e 04 35 64 3e 86 f6 dc 3e f9 b3 cd 3e
       0.1649135 0.22285849 0.43156832 0.4017637
0000a0 bb f1 bf 3e 13 af c5 3e 6e 61 d5 be 93 44 18 be
       0.37489113 0.38610134 -0.41675895 -0.14869909
0000b0 98 97 7d bc 6b 3e 02 3e ac 1d 67 be ab 25 f6 bd
       -0.015478037 0.12719123 -0.22569913 -0.12018903
0000c0 75 aa 01 bf 31 8d 0e 3f e1 20 e8 3c be 68 f2 be
       -0.5065072 0.5568419 0.02833599 -0.47345537
0000d0 da 7c fa 3c d1 78 e1 3e 81 e4 95 3d de 40 df 3e
       0.030577112 0.44037488 0.07318974 0.43604177
0000e0 77 57 ba 3e 3f d8 c1 be 46 7a b5 3c e9 42 b6 3e
       0.36394855 -0.37860295 0.022153031 0.35597923
0000f0 fe c2 0f 3e 47 b2 ff be 39 4b 8a be 45 b9 10 bf
       0.14039227 -0.49940702 -0.27010515 -0.565327
000100 bf 1e 2c 3e e8 ed 04 3f fc 83 29 be 61 54 9d 3d
       0.16808604 0.51925516 -0.16554254 0.076821096
000110 e4 46 ca 3e 2a 6f ba 3e 5e ed 43 3e fe bd 10 3f
       0.3950721 0.36412936 0.19133517 0.56539905
000120 17 a9 8b 3e 82 86 a7 3e 7d bf c5 be 24 57 27 be
       0.27277443 0.3271981 -0.38622656 -0.16341835
000130 fa 21 fa 3e 35 9a 32 3d dd b3 a8 be ee a0 ef be
       0.48854047 0.043604095 -0.32949725 -0.46802467
000140 86 97 e9 be f4 01 f7 3e d2 4f fb 3d 1e 70 73 be
       -0.45623416 0.48243678 0.12271084 -0.23773238
000150 d6 81 8f bd af bd 10 3f 19 47 9f 3e 84 11 e4 3e
       -0.07007186 0.56539434 0.3110893 0.44544613
000160 f5 53 c0 3e 97 f4 34 bf 72 fa bf 3e cf 46 d7 3d
       0.37564054 -0.70685714 0.37495762 0.105115525
000170 da b4 86 3e 51 13 1b bf fc 5d c0 bd 3d 20 01 bf
       0.26309854 -0.6057635 -0.09392926 -0.50439817
000180 1e 7e f6 be d5 2d 12 3f 45 54 29 3e 46 c3 07 be
       -0.48143095 0.57101184 0.16536053 -0.13258085
000190 5c b9 44 3e 07 fb e4 3e c5 40 09 3f 8b 6c 15 bd
       0.19211334 0.4472277 0.53614455 -0.036480468
0001a0 1f be 85 3e 00 99 09 3f 60 8e d3 bd fd 4d 46 be
       0.26121613 0.53749084 -0.1032989 -0.19365688
0001b0 28 09 bb 3e 14 00 ad bd 92 6f 31 bc 8f 9f 71 be
       0.36530423 -0.084472805 -0.010829823 -0.23596023
0001c0 a2 f1 11 bf e1 67 dc 3e 8b a8 0d bf fb 18 0e be
       -0.5700933 0.43048003 -0.553353 -0.13876717
0001d0 19 a9 34 3c 8f ec f3 3e a6 42 aa 3e 27 d7 00 3f
       0.011026644 0.47641417 0.33253974 0.50328296
0001e0 37 b4 21 3f f7 32 13 bf a2 8c a7 3e 02 e6 94 3e
       0.6316561 -0.5749964 0.32724482 0.29081732
0001f0 b6 e9 d9 3e 41 80 ec be 71 de 98 be cf e0 83 be
       0.4256112 -0.461916 -0.2985721 -0.25757453
000200 c4 6c 03 be 77 49 42 bf 52 73 74 be c4 e5 11 3c
       -0.1283446 -0.7589335 -0.23872116 0.008904878
000210 92 01 05 bf f5 f8 cb be 75 e6 d3 be f4 69 99 be
       -0.5195552 -0.39838377 -0.41386762 -0.29963648
000220 19 22 72 3d c6 17 0f bf 15 c0 35 3f 0a 75 cd 3e
       0.05911455 -0.5589565 0.7099622 0.40128356
000230 83 dc fc be 2c 5c d7 bd 75 07 ed 3e a0 8a eb 3e
       -0.49386987 -0.10515627 0.46294752 0.460042
000240 ae 56 48 3e 48 96 38 3e e4 5c 6b be 27 09 04 3f
       0.19564316 0.18026078 -0.22984654 0.51576465
000250 6b a0 b5 be 58 be 64 bd 29 fb 8d be e5 c3 fa 3d
       -0.35473952 -0.05584559 -0.27730682 0.12244395
000260 70 5f 3b 3e 3c 76 c1 3e bb 28 bb be d8 2f c8 be
       0.18298125 0.37785518 -0.36554512 -0.39099002
000270 bf bc 1c be e0 22 38 3e 22 6e 3a 3e d7 64 a3 3e
       -0.15306376 0.17982054 0.18206075 0.31912872
000280 4a af 12 be 8f 9a b3 be d2 e4 ed be 75 10 47 be
       -0.1432468 -0.35078856 -0.4646364 -0.19439872
000290 5f ed 7d be 02 f3 55 3e 7c c5 59 be 13 76 1b 3e
       -0.24797581 0.20893481 -0.2126674 0.1518176
0002a0 75 58 fe be c3 99 2a be 58 f0 d5 3e 38 8d 38 3e
       -0.49676862 -0.16660218 0.4178493 0.1802262
0002b0 cb f5 9a 3d 87 9a 68 3e 1f 24 bc 3e ad 5f f8 bd
       0.075664125 0.22715198 0.36746308 -0.12127624
0002c0 c3 a6 bc 3e 4a f2 d2 be 81 65 b0 3e 42 91 82 3e
       0.3684598 -0.41200477 0.3445244 0.25501448
0002d0 f2 0d 23 bd ec 4f ea be 51 77 fb be 98 fc 01 bf
       -0.03980822 -0.457641 -0.4911447 -0.5077605
0002e0 bc 0c 94 be 96 ae 5a 3f ee 49 a4 be 99 55 cb be
       -0.28915966 0.85422647 -0.32087654 -0.39713743
0002f0 b5 db 9b be 76 d5 1e 3f d4 14 82 3e c4 cf ee 3e
       -0.3044106 0.62044466 0.25406516 0.46642888
000300 47 a3 a7 3e b0 84 fe 3e dd d6 75 bc b1 d7 b6 bd
       0.32741758 0.49710608 -0.015004841 -0.089278586
000310 a8 fd c5 3e e2 44 73 3d 99 d8 fa 3e 9c 46 43 bc
       0.38670087 0.059391864 0.48993376 -0.01191869
000320 f9 cc a7 3d 5a f2 64 3e 79 0c c0 bd 23 2f 60 3d
       0.08193392 0.22358075 -0.09377379 0.054732453
000330 3a 1d 36 3e d8 2b 18 be f1 09 01 bf eb 61 ba be
       0.17784587 -0.14860475 -0.50405794 -0.3640283
000340 59 eb ec be dc 7f e4 3e 60 40 96 3c b3 3c c7 be
       -0.46273306 0.446288 0.018341243 -0.38913497
000350 e1 c1 3e 3e ed a2 b4 3e e1 17 af 3e 4a 95 c7 3e
       0.18628646 0.35280553 0.34197906 0.38981086
000360 c9 98 24 3f 6b 37 00 bf 6a 83 7d 3e e9 35 da 3e
       0.6429563 -0.5008456 0.24757162 0.42619255
000370 e4 18 ff 3e 8f c1 a7 be bd e4 00 bf a4 3a be be
       0.49823678 -0.3276486 -0.50349027 -0.37154114
000380 02 39 be be ef 2c de be 06 b7 41 be 03 5c 0c be
       -0.37152869 -0.43393657 -0.18917474 -0.13706975
000390 43 69 d2 bd ae c7 b4 be 7e 88 2f bf 3a 0f a8 be
       -0.10273983 -0.35308594 -0.68567646 -0.32824117
0003a0 b1 82 26 3e c3 01 ae be bb 00 64 3d b3 3d d6 bc
       0.16260792 -0.3398572 0.05566476 -0.026152467
0003b0 b6 e9 8a be f1 c3 fb be 54 c6 ed 3e b4 58 a5 3e
       -0.27131432 -0.4917293 0.46440375 0.32294238
0003c0 15 f4 8b 3e 51 e6 26 bf a8 8d a3 3d 06 0d 43 3e
       0.27334657 -0.65195185 0.07986003 0.19047937
0003d0 7f 40 13 3e 6d 34 2c be ac 32 52 bf e7 0d d2 be
       0.14380072 -0.16816874 -0.8210857 -0.41026232
0003e0 d0 22 e1 be 03 68 b8 3e 84 b4 f9 be 8f 95 49 bd
       -0.43971872 0.36016855 -0.48770535 -0.049214896
0003f0 16 b6 08 bf 0f 1f 0a 3f 4a af c4 3e e8 00 48 3e
       -0.5340284 0.5395364 0.38414985 0.19531596

sequential/dense_1/MatMul f4 [1, 32]
000000 b4 fb 43 bf ea 8a e3 3e b9 b8 b7 3e f1 79 ee 3e
       -0.76555943 0.4444192 0.3588312 0.4657741
000010 0f d6 0e bf 00 61 ed be 57 09 b0 3e 9d 35 b8 be
       -0.5579538 -0.46363068 0.34382126 -0.35978404
000020 21 04 34 bf e4 2d 35 bf 62 4e f7 3e 91 0d b5 be
       -0.703188 -0.7077315 0.4830199 -0.35361913
000030 d9 3d d3 be 75 6a 04 3f 35 5d e9 3e ad c8 d7 3e
       -0.41258124 0.5172494 0.45578924 0.4214529
000040 25 5c d0 be 00 e5 21 bf 62 17 c5 3e 36 36 ba 3e
       -0.406953 -0.6324005 0.38494402 0.36369485
000050 e7 33 e7 3e ed 64 d3 3e d7 93 bd be bc 01 ee be
       0.45156786 0.41287938 -0.37026855 -0.46485698
000060 d6 67 28 bf c1 b4 e5 be 87 fe 16 bf 50 79 a7 be
       -0.6578344 -0.44864467 -0.5898213 -0.32709742
000070 b7 59 e8 3e 45 82 c6 3e bb 13 fd 3e f9 97 13 3f
       0.45380947 0.38771263 0.49429116 0.57653767

sequential/bidirectional/backward_lstm/Read_2/ReadVariableOp1 f4 [64]
000000 e4 0c a9 3e 4c 4a 6f 3e 37 31 80 bd fa 64 27 3d
       0.33017647 0.23368186 -0.06259387 0.040867783
000010 7d 2b 38 bd 0d 9a b3 3c ec a1 4c 3e 29 df a5 3e
       -0.04496335 0.021924043 0.19983643 0.3239682
000020 de 70 df be 4a cc ce be 15 f9 80 be 30 5d 9a 3e
       -0.43640798 -0.40390235 -0.25190035 0.3014922
000030 63 2f ef be 72 f4 b8 3d b8 93 f7 3d 94 da 21 3d
       -0.4671584 0.09030999 0.12088722 0.039515093
000040 21 89 6c 3f 43 6f 3c 3f 99 a4 68 3f db 62 79 3f
       0.9239674 0.7360727 0.90876156 0.97416466
000050 90 28 8d 3f b2 ea a1 3f 69 e1 9d 3f ce 3e 6d 3f
       1.1028004 1.2649748 1.2334415 0.9267396
000060 2b e3 4c 3f fe e6 4d 3f e2 48 7d 3f 4d 88 69 3f
       0.8003413 0.8043059 0.98939335 0.91223603
000070 c6 83 6d 3f 1a 08 1f 3f 74 0a 6a 3f bf 8e 7e 3f
       0.92779195 0.62121737 0.914222 0.99436563
000080 63 25 06 3e e4 69 d4 bc cd 80 66 3c 59 e5 84 3e
       0.131002 -0.025929399 0.014068794 0.25956228
000090 b1 00 8d be 3a da 5b 3c d4 98 dd be 51 af 8a bd
       -0.2753959 0.0134187285 -0.4328066 -0.0677172
0000a0 ab 97 06 be 7f ae 08 be d8 e0 b7 be 9a 8b c9 bd
       -0.13143794 -0.13347815 -0.3591373 -0.0984108
0000b0 ee 5e d8 3c cd f2 48 3e b8 0b 43 3e 8f 34 61 3d
       0.026412454 0.19623871 0.19047439 0.054981764
0000c0 00 0e d1 3e a0 12 56 3e 21 6a 91 bd 86 a0 e4 3e
       0.40830994 0.20905542 -0.071003206 0.4465372
0000d0 3c 41 89 3e 5d 9a 36 3e 69 d0 c3 3d 23 a4 31 3e
       0.26807582 0.17832322 0.095612355 0.1734777
0000e0 11 35 0c be 45 c1 22 3e a4 b3 85 3c 2b 80 c2 3e
       -0.13692118 0.15894039 0.01632101 0.3798841
0000f0 f8 6a a8 3c 2e 97 04 3f 9f c7 63 3e 46 e3 78 3e
       0.02055882 0.5179318 0.22244118 0.24305448
