models/model.tflite (tflite, 274044 bytes, 23 tensors)

sequential/conv2d/BiasAdd/ReadVariableOp f4 [32]
0	0x3cd9b47d	0.026575321
1	0xbec8fc60	-0.39255047
2	0x3ea4a8ea	0.3216012
3	0x3ef88ba2	0.4854403
4	0x3f5ec2ed	0.87016183
5	0x3f18dd90	0.5971308
6	0x3eb59159	0.35462454
7	0x3e4d609a	0.20056382
8	0xbe9cf2b7	-0.30653927
9	0x3f2dc07d	0.6787184
10	0xbda4c8e5	-0.0804613
11	0x3d20926d	0.039202143
12	0xbe7f8399	-0.24952544
13	0xbf04c45f	-0.5186214
14	0x3f952924	1.165318
15	0x3f86c432	1.0528624
16	0xbce8dd7a	-0.02842592
17	0x3f265509	0.64973503
18	0xbe43ceb8	-0.19121826
19	0x3e945e6d	0.2897829
20	0xbedcac33	-0.43100128
21	0xbded1161	-0.115755804
22	0xbea1bba9	-0.31588486
23	0xbcc9d0bd	-0.024635667
24	0xbf22290b	-0.63343877
25	0xbe5b31a4	-0.21405655
26	0x3fa0e0bf	1.2568587
27	0xbef837d8	-0.48480105
28	0x3d28205c	0.041046485
29	0x3e28d0c5	0.1648589
30	0xbe09c928	-0.13455641
31	0xbe101013	-0.14068632

sequential/conv2d_1/BiasAdd/ReadVariableOp f4 [45]
0	0x3d5ba27c	0.053621754
1	0xbdf858f4	-0.121263415
2	0xbcd5be02	-0.02609158
3	0xbdf67cfd	-0.120355584
4	0x3de47bcd	0.111564256
5	0x3e2fd719	0.17171897
6	0x3e98ad5d	0.29819766
7	0x3dda45ed	0.106578685
8	0xbf694292	-0.91117203
9	0x3f19f148	0.6013379
10	0x3e1a1b6c	0.15049523
11	0x3ea7c71c	0.32769096
12	0xbccb8363	-0.024842924
13	0x3f13e57c	0.5777204
14	0xbe04616f	-0.12927793
15	0x3e794fe3	0.2434688
16	0xbedb7020	-0.42858982
17	0x3edf1133	0.4356781
18	0xba12df84	-0.00056027644
19	0xbe361a0f	-0.17783378
20	0xbed4f2a9	-0.41591385
21	0xbed00f17	-0.40636513
22	0x3e80ff8f	0.25194976
23	0xbe92e4b3	-0.2869011
24	0xbec2afe8	-0.3802483
25	0x3dfd0452	0.1235434
26	0xbe5f84c0	-0.21827984
27	0x3d941e1f	0.07232308
28	0xbdf8b231	-0.12143362
29	0x3eadf5c7	0.33976576
30	0x3dd79694	0.105267674
31	0x3e23d6bb	0.15999882
32	0x3d834e14	0.064113766
33	0xbceba869	-0.028766828
34	0xbd8acb44	-0.06777051
35	0x3e98c3a0	0.2983675
36	0xbefd62a8	-0.4948933
37	0x3e9e93b8	0.30972075
38	0x3cb8b2b6	0.022546154
39	0xbc87322a	-0.016503412
40	0x3e9d63b3	0.30740127
41	0xbf0d7ae5	-0.5526565
42	0x3d14eb54	0.03635724
43	0x3ec525d5	0.38505426
44	0x3c94c5bf	0.018160699

sequential/conv2d_2/BiasAdd/ReadVariableOp f4 [60]
0	0xbf481d03	-0.7816927
1	0xbe4a8282	-0.19776347
2	0x3e07efac	0.13275021
3	0xbe877133	-0.26453552
4	0x3dffc6ad	0.12489066
5	0xbe97f707	-0.29680654
6	0xbe22a440	-0.15882969
7	0xbe653fb5	-0.22387584
8	0xbeb042f5	-0.34426084
9	0xbed033da	-0.4066456
10	0xbe6e3d38	-0.2326554
11	0xbebfdd66	-0.374736
12	0xbedc0f70	-0.42980528
13	0xbe27ff54	-0.16405994
14	0xbf20ceea	-0.62815726
15	0xbcdc2052	-0.02687088
16	0xbeddde6a	-0.4333375
17	0xbe454c77	-0.1926745
18	0x3e03b7e8	0.12863123
19	0xbf4398af	-0.7640485
20	0x3ea74f64	0.32677758
21	0xbf4e10eb	-0.80494565
22	0xbf3a5d45	-0.7279857
23	0xbf0858a5	-0.5326026
24	0xbd875b2c	-0.066091865
25	0xbec11a13	-0.37715206
26	0xbf5ed05b	-0.87036675
27	0xbe4103ee	-0.18849155
28	0xbef9c172	-0.487804
29	0xbc958c0d	-0.018255258
30	0xbef5bdef	-0.4799647
31	0xbe89e7d3	-0.2693468
32	0xbe98cc9a	-0.298436
33	0xbdab7f3a	-0.08373876
34	0xbd997593	-0.07493129
35	0xbf18fddb	-0.5976235
36	0xbf065c86	-0.5248493
37	0xbed7d59c	-0.4215516
38	0xbf3ce833	-0.7379181
39	0xbed23a54	-0.41060126
40	0xbe562680	-0.20913124
41	0xbf0e25fe	-0.5552672
42	0x3d44ebaf	0.048076328
43	0xbd8003ae	-0.06250702
44	0xbde84dd1	-0.11342967
45	0x3dbdd9c8	0.09270054
46	0xbe16d6e2	-0.14730409
47	0xbf8126d7	-1.0089978
48	0xbf801079	-1.0005027
49	0xbef0f070	-0.4705844
50	0xbf49b240	-0.7878761
51	0xbeb16689	-0.3464854
52	0xbe390951	-0.1806996
53	0xbe53d40c	-0.20686358
54	0xbe7655b8	-0.24056137
55	0xbe22cbf1	-0.1589811
56	0xbebeed60	-0.37290478
57	0xbf0acae8	-0.5421586
58	0xbe435cca	-0.19078365
59	0xbec62831	-0.3870254

sequential/conv2d/Conv2D f4 [32, 3, 3, 1]
0	0x3e01ac90	0.12663484
1	0x3f07b7e7	0.5301499
2	0x3dba5018	0.09097308
3	0x3eb8e8fb	0.3611525
4	0xbd3d638e	-0.04623752
5	0xbe7797f8	-0.24179065
6	0x3e360018	0.17773473
7	0xbde80591	-0.11329187
8	0xbe38a9e6	-0.18033561
9	0xbd2247f1	-0.03961939
10	0x3e823bcf	0.25436255
11	0x3e944691	0.28960088
12	0x3e013298	0.12616956
13	0x3e9b3f97	0.30321953
14	0x3dcf8ecd	0.10134659
15	0xbea82c73	-0.32846412
16	0x3b83952d	0.004015586
17	0xbd6914d2	-0.05690462
18	0xbd8742ab	-0.06604513
19	0xbdba1e2e	-0.090877876
20	0xbed10011	-0.40820363
21	0x3e23ef84	0.16009337
22	0x3ef2e59e	0.4744081
23	0x3eed8373	0.4638935
24	0xbe4ce480	-0.20009041
25	0x3b7b1db7	0.0038317272
26	0xbe21e075	-0.1580828
27	0xbd231b50	-0.03982097
28	0x3ea5919a	0.32337648
29	0x3f18ccc5	0.59687454
30	0xbec95c40	-0.39328194
31	0xbe62106f	-0.22076581
32	0x3e6e8e12	0.23296383
33	0xbe4f0685	-0.20217331
34	0xbe056ca4	-0.13029724
35	0x3e273533	0.16328888
36	0xbe8442cc	-0.25832212
37	0xbe30cf5b	-0.172666
38	0xbdfc117e	-0.12308024
39	0xbea7a43e	-0.32742494
40	0x3d6cfb58	0.057856888
41	0x3ecb2840	0.39679146
42	0x3ee5c5f3	0.44877586
43	0x3e6137ff	0.21994017
44	0xbdd9ecb1	-0.106408484
45	0x3e6cc21e	0.23120925
46	0xbd821dd9	-0.06353349
47	0xbea3574d	-0.31902543
48	0x3eab0c9a	0.33408052
49	0x3f139773	0.5765297
50	0x3de520cb	0.111878954
51	0xbe7eac9a	-0.2487053
52	0xbd09b3ca	-0.033618726
53	0xbe4189b7	-0.1890019
54	0xbe96cc18	-0.29452586
55	0xbd71fc1f	-0.059078332
56	0x3ecd1430	0.40054464
57	0xbddcdbe9	-0.10784132
58	0x3ef2faed	0.47457066
59	0xbe194355	-0.14967091
60	0x3e8f2b03	0.27962503
61	0x3d8273ec	0.063697666
62	0xbed32e0d	-0.4124607
63	0xbdd113dd	-0.10208867
64	0x3e03fc8f	0.12889312
65	0x3e384a32	0.17997053
66	0xbe51715e	-0.20453402
67	0xbe0f1f95	-0.13976891
68	0x3e5d3626	0.21602687
69	0x3f173e92	0.5907985
70	0x3eb0730b	0.3446277
71	0x3e38c832	0.18045118
72	0xbcce65b0	-0.025194973
73	0x3e676f33	0.22601013
74	0x3e31ccc4	0.17363268
75	0xbda18bfc	-0.07888028
76	0x3da264fc	0.079294175
77	0xbd40fec9	-0.047117982
78	0xbe3a085e	-0.18167254
79	0x3e9849a6	0.2974369
80	0x3f03caa2	0.5148107
81	0x3f006615	0.50155765
82	0x3ed03888	0.4066813
83	0xbea8283b	-0.32843193
84	0xbde29575	-0.11063663
85	0xbe404af6	-0.18778595
86	0xbe7e79fd	-0.24851222
87	0xbe65459c	-0.22389835
88	0xbd053b79	-0.03252742
89	0x3e7619eb	0.24033324
90	0x3e5d5c78	0.21617305
91	0x3e7a2b86	0.24430665
92	0x3ea724ab	0.32645163
93	0xbeb77d74	-0.358379
94	0xbeb8cac5	-0.360922
95	0xbcf863b6	-0.030320983
96	0xbe1185fe	-0.1421127
97	0xbcde51d9	-0.027138637
98	0xbe9c6f12	-0.3055349
99	0xbecee45e	-0.40408605
100	0xbcee3560	-0.029078186
101	0xbe76d001	-0.24102785
102	0x3ddbe90f	0.10737812
103	0xbe0499fe	-0.12949368
104	0x3eb4a6b9	0.3528345
105	0xbebda904	-0.3704301
106	0xbef37a49	-0.47554234
107	0xbdc3f97e	-0.09569071
108	0xbb6c61bb	-0.0036068994
109	0xbd107d06	-0.03527548
110	0x3bdc6b4e	0.006726659
111	0xbeb52cb4	-0.35385668
112	0xbe39485c	-0.18094009
113	0xbe0e3a76	-0.13889489
114	0x3d748dd8	0.059705585
115	0x3e80ed32	0.25180966
116	0x3e4a6809	0.19766249
117	0x3e50dedb	0.20397513
118	0x3d314d84	0.043286815
119	0x3e935632	0.287767
120	0x3e8aabd0	0.27084208
121	0x3e515f67	0.2044655
122	0x3ea0d1d9	0.314101
123	0xbc3c7138	-0.011501603
124	0xbdc1fc3e	-0.094719395
125	0xbb666803	-0.003515721
126	0xbdf707d6	-0.120620415
127	0xbe8de1c8	-0.2771132
128	0xbe22def6	-0.15905365
129	0x3e851c70	0.2599826
130	0x3e06a178	0.13147533
131	0xbe944e55	-0.28966013
132	0x3e272aa4	0.1632486
133	0x3eea5e36	0.45775002
134	0x3e24dc43	0.16099648
135	0x3f273595	0.65316135
136	0xbdd391b2	-0.103305236
137	0x3db7500d	0.08950815
138	0x3ddede8d	0.10882292
139	0xbde266e1	-0.11054779
140	0x3c9b75b8	0.018977031
141	0xbe4c955d	-0.19978853
142	0xbe674d0a	-0.22587982
143	0xbe57ac72	-0.21061876
144	0xbc078ae8	-0.008272864
145	0xbe7202e2	-0.23633912
146	0xbe3d7793	-0.18502645
147	0xbc2b9f1f	-0.010474949
148	0xbda93b93	-0.08263316
149	0x3c6a7fed	0.014312726
150	0x3e331ee5	0.17492254
151	0x3f0717b3	0.5277054
152	0x3eeff368	0.46865392
153	0x3ec7a1a4	0.3899051
154	0x3e80c316	0.2514884
155	0x3ec62402	0.38699347
156	0x3dfa1653	0.12211289
157	0x3e114a84	0.14188582
158	0x3e6ac385	0.22926147
159	0x3d849b72	0.06474961
160	0xbe60b8e1	-0.21945526
161	0xbe8487e9	-0.2588494
162	0x3f17bba1	0.59270674
163	0xbc478482	-0.012177588
164	0xbe21a498	-0.15785444
165	0x3f2d75d3	0.6775791
166	0x3e08ea3e	0.13370606
167	0xbc9c9e04	-0.019118316
168	0x3e192cd6	0.1495851
169	0xbdb1cd3b	-0.08681723
170	0x3d587c61	0.052852992
171	0xbea1eeba	-0.31627446
172	0x3ed09a59	0.40742758
173	0xbd864bde	-0.06557439
174	0xbec0c500	-0.376503
175	0x3e7a177b	0.2442302
176	0x3e8e2b56	0.27767438
177	0xbea5f4f3	-0.32413444
178	0x3d177a41	0.036981825
179	0x3e7bfe0e	0.24608633
180	0xbdd07173	-0.10177889
181	0xbdaaad2a	-0.0833381
182	0xbd3421dc	-0.043977603
183	0x3ea8eb7b	0.32992157
184	0x3eb722da	0.35768777
185	0x3e361458	0.17781198
186	0x3bdff10d	0.0068341554
187	0x3dde9752	0.10868706
188	0x3e81e79b	0.25372013
189	0xbe33c130	-0.17554164
190	0xbc425f89	-0.011863598
191	0xbcfea779	-0.031085717
192	0xbcefdd5a	-0.029280353
193	0x3d30a313	0.04312427
194	0x3e28ad6f	0.1647241
195	0xbeb1f231	-0.3475509
196	0xbeeb5e41	-0.45970348
197	0xbec000c8	-0.37500596
198	0x3e6d44f7	0.23170839
199	0x3e24a215	0.16077454
200	0xbe1e2a82	-0.15445903
201	0x3eba2d93	0.36362895
202	0x3f01f49d	0.50763875
203	0xbe570a86	-0.21000108
204	0xbe5dcc87	-0.21660052
205	0x3dd453f4	0.10367575
206	0x3daaa199	0.083316036
207	0xbe2bc8a4	-0.16775757
208	0x3e72d2f3	0.23713283
209	0x3ea6696b	0.32502303
210	0x3ec6ad1f	0.38803956
211	0x3d31b709	0.043387447
212	0x3e0b319b	0.13593142
213	0x3e3b4b2d	0.18290396
214	0xbd9349a0	-0.07191777
215	0x3de1926f	0.11014258
216	0x3db23ab5	0.08702604
217	0xbe422f41	-0.18963338
218	0xbcd46626	-0.025927614
219	0x3e7de924	0.24795967
220	0x3df9e67a	0.12202163
221	0x3e8dd3a8	0.27700543
222	0xbb7515be	-0.0037396993
223	0xbe4982d6	-0.19678816
224	0x3ebb0226	0.36525077
225	0xbef31211	-0.4747472
226	0xbe809859	-0.25116232
227	0x3dd6727f	0.10471057
228	0xbdd75e58	-0.105160415
229	0xbe5c3f70	-0.21508574
230	0x3e271990	0.16318345
231	0xbf100148	-0.56251955
232	0xbe1b4809	-0.15164198
233	0x3e23cb58	0.15995538
234	0x3e88493a	0.26618367
235	0x3e2c0dfe	0.16802213
236	0xbe65114f	-0.22369884
237	0x3eaf9e0c	0.34300268
238	0xbe6316f5	-0.22176726
239	0xbe95e1a4	-0.29273713
240	0x3eb24e8d	0.34825554
241	0xbe12daca	-0.14341274
242	0xbe210956	-0.15726218
243	0x3c9f2cb9	0.019430505
244	0xbddc062c	-0.10743365
245	0x3d13a4d5	0.036045868
246	0x3df978bb	0.12181231
247	0x3df6ca99	0.12050361
248	0x3d2c786b	0.042107027
249	0x3d4cf13d	0.05003475
250	0x3e1905c4	0.14943606
251	0x3e6a1b02	0.22861865
252	0xbde8e4d4	-0.113717705
253	0x3e4d9ebf	0.20080088
254	0xbe47eaa2	-0.19523099
255	0x3ecbfff2	0.39843708

sequential/conv2d_1/Conv2D f4 [45, 3, 3, 32]
0	0x3e4c31aa	0.1994082
1	0x3ddd04b1	0.107919104
2	0x3e2288c9	0.15872492
3	0xbc48185b	-0.012212838
4	0x3dd5a9e9	0.104327984
5	0x3d903fe9	0.0704344
6	0x3e83e573	0.25760993
7	0x3ec42aff	0.38314053
8	0x3de91017	0.11380022
9	0x3e324a3e	0.17411134
10	0xbde5dcf6	-0.112237856
11	0x3e09a31d	0.13441129
12	0xbd275c35	-0.04085942
13	0x3d9f0680	0.07764912
14	0x3d2a420f	0.041566905
15	0x3da1139f	0.078650706
16	0xbda12cd1	-0.07869876
17	0xbe2d4f32	-0.16924742
18	0x3d71afdd	0.059005607
19	0x3e7390ea	0.23785749
20	0xbe26549a	-0.1624321
21	0x3d1724c5	0.0369003
22	0xbe6403ba	-0.22267047
23	0xbd312469	-0.043247614
24	0xbe034d14	-0.12822372
25	0xbab7e3bf	-0.0014029666
26	0x3d7c19e7	0.06154814
27	0xbde593f7	-0.11209863
28	0x3d04a6e2	0.032385714
29	0x3c528419	0.012848877
30	0x3e090edb	0.13384573
31	0x3c80a41e	0.015703257
32	0xbe63af1c	-0.22234768
33	0x3bc770c6	0.0060864417
34	0x3c0c932c	0.00858001
35	0x3d4a2a9f	0.049357053
36	0x3e41f17c	0.18939775
37	0xbd92c2f3	-0.0716609
38	0xbf0c5b81	-0.54827124
39	0x3e8a11f2	0.26966816
40	0x3de72fc5	0.11288408
41	0xbec9b8c5	-0.3939878
42	0xbeaa2335	-0.33229986
43	0xbd7a3018	-0.061081022
44	0x3c93e3f1	0.018053027
45	0x3df7626f	0.120793216
46	0xbe075deb	-0.1321942
47	0xbd66ac30	-0.056316555
48	0x3dffc799	0.12489242
49	0xbe82699a	-0.25471193
50	0x3eb0cbf9	0.3453062
51	0x3eb2fec0	0.34959984
52	0x3dd85cc4	0.10564569
53	0x3ec5178d	0.3849453
54	0x3e66c50e	0.22536108
55	0x3eb6266d	0.35576192
56	0xbe0f6a7c	-0.14005464
57	0x3d092e14	0.03349121
58	0xbedfa0bd	-0.4367732
59	0x3e5b1894	0.21396095
60	0xbcdc6dfc	-0.026907913
61	0xbd87642d	-0.06610904
62	0xbd575acc	-0.052576825
63	0xbe1fa205	-0.1558915
64	0x3e63a2c6	0.22230062
65	0x3e246daa	0.16057459
66	0x3e836b5a	0.2566784
67	0x3dcb4b93	0.09926524
68	0xbe34e180	-0.17664146
69	0x3ec97a15	0.39350954
70	0x3e679cba	0.2261838
71	0x3955e085	0.00020396903
72	0xbdc7276d	-0.09724317
73	0xbe5aa666	-0.21352538
74	0x3e29ab0c	0.16569155
75	0xbe639aef	-0.22227071
76	0x3e8a25b5	0.26981893
77	0x3e9a920a	0.30189544
78	0x3dfbd8da	0.122972205
79	0x3e14e413	0.14540128
80	0x3db410fa	0.087923005
81	0x3e96da54	0.29463446
82	0x3eb39a2b	0.35078558
83	0xbdf72ca6	-0.12069063
84	0x3e80151e	0.2501611
85	0x3ddcf947	0.107897334
86	0x3dd55025	0.10415677
87	0x3e186061	0.14880516
88	0xbdbe945b	-0.0930564
89	0xbddf7dad	-0.10912643
90	0xbe2dc1d3	-0.1696847
91	0x3f14931d	0.5803698
92	0xbe0a4091	-0.13501193
93	0x3d69de29	0.057096634
94	0xbea0d2a6	-0.31410712
95	0x3e2ff60c	0.17183703
96	0xbe3d97af	-0.18514894
97	0xbe4f0989	-0.20218481
98	0xbea5d8d5	-0.32391992
99	0x3e27d6a5	0.16390474
100	0xbd8925cb	-0.066966616
101	0xbf20794a	-0.6268507
102	0xbed7550f	-0.42057082
103	0xbde8a478	-0.11359495
104	0xbeb6c38e	-0.3569607
105	0xbe466e77	-0.19378076
106	0x3e179b85	0.1480542
107	0xbd946639	-0.0724606
108	0x3c642375	0.013924469
109	0x3e486450	0.19569516
110	0xbe54db78	-0.20786846
111	0xbe5f59a3	-0.21811537
112	0xbe404de2	-0.1877971
113	0xbeac5e31	-0.33665612
114	0x3eab4563	0.33451375
115	0xbf05e2fe	-0.5229949
116	0xbe06a514	-0.1314891
117	0x3db666b7	0.0890631
118	0x3da5a25d	0.08087609
119	0xbe29cc3e	-0.16581818
120	0xbd217a0d	-0.039423037
121	0xbd187979	-0.03722522
122	0x3e82add1	0.25523236
123	0xbeb61c74	-0.35568583
124	0xbdc96fed	-0.09835801
125	0xbe0c2f8c	-0.13690013
126	0xbe174cc0	-0.14775372
127	0xbd868161	-0.06567646
128	0xbebb0c01	-0.36532596
129	0xbdac32c2	-0.08408119
130	0xbe4eed35	-0.20207675
131	0x3ebb08a1	0.3653002
132	0x3e66f902	0.22555926
133	0xbe8cd153	-0.27503452
134	0x3e8370fd	0.2567214
135	0x3e4b624a	0.19861713
136	0xbe8e0024	-0.27734482
137	0xbed8c83a	-0.4234026
138	0x3d939fdd	0.07208226
139	0xbdfb28fd	-0.12263677
140	0xbe3387f1	-0.17532326
141	0x3c8c4b0d	0.01712563
142	0xbf236c09	-0.63836724
143	0xbe247ffa	-0.16064444
144	0x3ea9a65e	0.3313474
145	0x3d118b29	0.035533104
146	0x3c594c9e	0.013262896
147	0x3ed60108	0.41797662
148	0x3ddfd288	0.109288275
149	0x3e7aefbd	0.24505515
150	0xbefb662c	-0.49101388
151	0x3ef28caa	0.47372943
152	0xbe817f93	-0.25292644
153	0xbc4f652a	-0.012658397
154	0xbf52ec73	-0.8239204
155	0x3b1fab36	0.0024363524
156	0xbeda3161	-0.42615798
157	0xbee4fd41	-0.44724467
158	0xbd0f3841	-0.034965757
159	0xbeaba7ec	-0.33526552
160	0x3e95669c	0.29179847
161	0x3bf5be5c	0.0074994992
162	0x3ebcbbcc	0.36862028
163	0x3e92a82e	0.28643936
164	0xbd78a1c7	-0.060701158
165	0x3e4dda00	0.20102692
166	0x3dbe3157	0.092867546
167	0xbe116c4c	-0.14201468
168	0x3e8f86b6	0.28032464
169	0x3e9651b1	0.293592
170	0xbda68966	-0.081316754
171	0xbe55451d	-0.20827146
172	0xbe98ab70	-0.29818296
173	0x3edf1204	0.43568432
174	0x3d21d50a	0.03950981
175	0x3e839e41	0.25706676
176	0x3e17e1e7	0.14832269
177	0x3e1668e0	0.14688444
178	0x3eb32513	0.34989223
179	0xbf0301d3	-0.5117466
180	0x3ef5b575	0.47990003
181	0x3e84525f	0.25844094
182	0x3dd0ef99	0.102019496
183	0x3e23949e	0.15974662
184	0x3d3df059	0.04637179
185	0xbe4404e9	-0.19142498
186	0x3ef66bf4	0.48129237
187	0x3ea48a09	0.32136562
188	0x3ee7ee2b	0.45298895
189	0xbc878de0	-0.016547143
190	0xbea11bcf	-0.3146653
191	0x3d4b85d6	0.049688183
192	0x3dd50bf6	0.10402672
193	0xbe90f18b	-0.28309283
194	0x3e453f33	0.1926239
195	0xbe407003	-0.18792729
196	0x3e761d4b	0.24034612
197	0xbe5b64e4	-0.21425205
198	0xbf3d48c1	-0.7393914
199	0x3d65f1bf	0.05613875
200	0xbf1a14cf	-0.60188
201	0xbe778d33	-0.24174957
202	0xbe7033a3	-0.23457198
203	0x3dcb04fd	0.09913061
204	0xbd83d845	-0.064377345
205	0xbde26c72	-0.110558406
206	0x3e9e896f	0.3096423
207	0xbddbce22	-0.10732676
208	0xbec1b9e0	-0.37837124
209	0xbf1f84c2	-0.6231195
210	0xbd03e1d0	-0.032197773
211	0x3ed28a66	0.41121215
212	0xbebb309c	-0.36560524
213	0x3e20c716	0.15700945
214	0xbe8a4c64	-0.27011406
215	0xbd63a34d	-0.055575658
216	0xbcd808ce	-0.026371386
217	0x3d203513	0.039113116
218	0xbbd613d8	-0.0065331273
219	0xbdb278ef	-0.087144725
220	0xbdcf307d	-0.1011667
221	0x3cb1863c	0.021670453
222	0x3e36391b	0.17795222
223	0xbdd9b16d	-0.106295444
224	0x3e7a9e3e	0.24474427
225	0xbe7b6b9e	-0.24552771
226	0x3c959af8	0.018262371
227	0xbf1b79fe	-0.6073302
228	0x3f33ca99	0.70231014
229	0x3bb4e4a5	0.0055204206
230	0x3f0d85e1	0.5528241
231	0xbd367cd2	-0.04455263
232	0xbe25fb23	-0.16209082
233	0xbe9ba9b6	-0.30402917
234	0xbe01c4c9	-0.12672724
235	0x3c93b954	0.018032707
236	0xbaa58ae4	-0.0012629894
237	0x3d4bf044	0.049789682
238	0x3ef0720a	0.46962005
239	0x3d85755e	0.06516527
240	0x3d01826e	0.031618528
241	0xbe1df70b	-0.1542627
242	0xbe9753fa	-0.29556257
243	0x3d47b22b	0.0487539
244	0xbc72f6cf	-0.014829352
245	0x3d8fc7e3	0.07020547
246	0xbde7f360	-0.11325717
247	0x3daccf25	0.08437947
248	0x3cc9e8ea	0.024647195
249	0x3c7eef89	0.015560039
250	0x3ee3eff4	0.44519007
251	0xbe187f37	-0.14892279
252	0x3e547455	0.20747502
253	0xbe9b222d	-0.30299512
254	0xbb325e4d	-0.0027216852
255	0xbde2d565	-0.11075858

sequential/conv2d_2/Conv2D f4 [60, 3, 3, 45]
0	0xbd8f89b7	-0.07008689
1	0xbee2903d	-0.4425067
2	0xbeae356b	-0.3402513
3	0x3e46a892	0.19400242
4	0xbd0e1b75	-0.034694154
5	0xbf02da34	-0.511142
6	0x3d189836	0.037254535
7	0xbecfdaf4	-0.40596735
8	0xbeb7231a	-0.35768968
9	0xbd6e27c3	-0.05814339
10	0xbd895049	-0.06704766
11	0x3e2ec7f6	0.17068467
12	0x3e0cd992	0.13754871
13	0x3d987204	0.07443622
14	0x3d97e622	0.07416941
15	0x3b38bd3f	0.0028188971
16	0xbe6f3c1b	-0.23362772
17	0x3ee32950	0.44367456
18	0x3e7c8564	0.2466026
19	0xbdf847bd	-0.12123058
20	0x3e11a89d	0.14224477
21	0xbeaa264c	-0.33232343
22	0x3d1de6e5	0.038550276
23	0x3e2b21ea	0.16712156
24	0xbe881cbc	-0.26584423
25	0x3e2c8748	0.1684848
26	0xbf1e556e	-0.61849105
27	0xbd9c8a32	-0.07643546
28	0x3d7e44bb	0.062077265
29	0x3de35dbb	0.11101862
30	0xbe5a64fc	-0.21327585
31	0x3eaeecf2	0.3416515
32	0x3e6bbe29	0.23021759
33	0x3e3c2794	0.18374473
34	0x3ded582a	0.115890816
35	0xbdecb205	-0.11557392
36	0xbeb61f66	-0.3557083
37	0xbee99b37	-0.45626232
38	0x3e09223f	0.1339197
39	0x3db6dc92	0.08928789
40	0x3f07d0c9	0.53052956
41	0xbe95341f	-0.29141328
42	0x3e27d25b	0.16388838
43	0xbdb5fe77	-0.08886426
44	0xbd40837d	-0.047000397
45	0x3c90643f	0.017625926
46	0xbf3eec9f	-0.74579805
47	0x3dcdc8d4	0.100480705
48	0xbcae1f1d	-0.02125507
49	0xbe5b13e7	-0.21394311
50	0xbf97600c	-1.1826186
51	0x3db55689	0.08854396
52	0x3db9d9cf	0.09074747
53	0xbdd9d327	-0.10635977
54	0xbd7b162a	-0.061300434
55	0xbecfe1da	-0.40602
56	0xbe3396ea	-0.17538038
57	0x3dd68fed	0.104766704
58	0x3e58edd3	0.21184473
59	0x3e331faf	0.17492555
60	0xbec9e0e9	-0.39429405
61	0xbe155602	-0.1458359
62	0xbe832034	-0.25610507
63	0x3e9bb64d	0.30412522
64	0xbe2215d8	-0.15828645
65	0x3d9b747a	0.075905755
66	0xbe82868e	-0.25493282
67	0x3e6a491d	0.22879453
68	0xbd682688	-0.05667737
69	0x3d376333	0.044772338
70	0x3ea64ed7	0.32482025
71	0xbe44b1ae	-0.19208404
72	0x3e994f21	0.29943183
73	0x3e0cb545	0.13741024
74	0x3d93b00b	0.07211312
75	0x3cdf12b6	0.027230602
76	0x3ede2431	0.43386987
77	0x3e92ee2b	0.28697333
78	0x3cf70213	0.030152356
79	0xbe934c82	-0.28769308
80	0xbe88ddc8	-0.26731706
81	0xbe43b1cc	-0.19110793
82	0xbf441591	-0.7659541
83	0xbf0299a9	-0.51015717
84	0x3ea6fdbf	0.32615468
85	0xbc26d0d0	-0.010181621
86	0xbdf674d2	-0.120340005
87	0x3da7d799	0.08195419
88	0x3e43949a	0.19099656
89	0x3e73881d	0.23782392
90	0xbee0baed	-0.43892613
91	0x3cd99407	0.026559843
92	0xbd5359aa	-0.051599182
93	0xbf11e7f8	-0.5699458
94	0xbe846b39	-0.25863054
95	0x3da268fa	0.07930179
96	0xbe425405	-0.18977363
97	0x3e7cfce6	0.24705848
98	0xbe20db0d	-0.15708561
99	0x3e8d4615	0.2759253
100	0x3d845755	0.0646197
101	0x3cb41fb1	0.021987768
102	0x3df34c95	0.11879841
103	0x3d7babb3	0.061443042
104	0xbdc99ad3	-0.098439835
105	0x3e91e096	0.28491658
106	0xbece7ed8	-0.4033115
107	0x3dc78007	0.09741216
108	0xbe269afa	-0.16270056
109	0xbb6fa492	-0.0036566597
110	0x3e1d1dc5	0.15343387
111	0xbe072770	-0.13198638
112	0xbe52ede7	-0.20598565
113	0x3ee0650f	0.43827102
114	0x3e82c8e4	0.25543892
115	0xbe3f313e	-0.18671128
116	0x3ec7588a	0.38934737
117	0xbe3a89ff	-0.18216704
118	0xbebf08e6	-0.37311476
119	0x3e2d4b4a	0.16923252
120	0xbd945290	-0.0724231
121	0x3e6201a5	0.2207094
122	0x3e2c732e	0.16840813
123	0x3eb94e60	0.36192608
124	0xbf0dcd8d	-0.5539177
125	0xbd8c52a0	-0.06851697
126	0xbdfa2197	-0.12213438
127	0xbbf74f56	-0.0075472994
128	0x3e0c66aa	0.13711038
129	0xbe65cc8c	-0.2244131
130	0xbe6cc6e1	-0.23122741
131	0xbdc96832	-0.09834327
132	0x3e87c228	0.26515317
133	0xbf31bec8	-0.69431734
134	0x3e5ab30c	0.21357363
135	0x3e7c8913	0.24661665
136	0x3d96c0a2	0.073609605
137	0xbe13df4c	-0.1444065
138	0x3de1049d	0.10987208
139	0xbeda737b	-0.4266623
140	0xbf0131f6	-0.5046686
141	0x3e4db519	0.20088615
142	0xbe314920	-0.17313051
143	0xbe118fce	-0.14215013
144	0x3e0a164d	0.1348507
145	0xbe801d13	-0.25022182
146	0xbe88c74e	-0.26714557
147	0x3e30d326	0.17268047
148	0xbe9af1a1	-0.30262473
149	0x3df7e4f1	0.12104214
150	0x3d8f8ce5	0.070092954
151	0xbe1d7bce	-0.15379259
152	0x3a171c27	0.0005764388
153	0xbe634a8b	-0.22196405
154	0x3d43b00c	0.047775313
155	0x3c4c98d0	0.012487605
156	0xbef04c45	-0.4693319
157	0x3f187f5d	0.5956934
158	0xbe9ccf92	-0.30627114
159	0x3d9b6a3c	0.07588622
160	0xbe3b7384	-0.18305784
161	0x3d94096b	0.07228359
162	0xbe96387d	-0.29339972
163	0x3e0573be	0.13032433
164	0xbcbceb62	-0.023061458
165	0xbe84d875	-0.25946394
166	0x3f37468a	0.7159201
167	0xbdf284e4	-0.11841753
168	0xbca710d1	-0.02039376
169	0x3c70573d	0.014669237
170	0x3ecbb1d6	0.39784116
171	0xbddfb25a	-0.1092269
172	0x3db25dc8	0.087092936
173	0xbe857e2c	-0.26072824
174	0xbdb06598	-0.086131275
175	0xbc5e67ec	-0.013574582
176	0xbe25fed1	-0.16210486
177	0x3edb5915	0.42841402
178	0xbe7207df	-0.23635815
179	0x3ef4089e	0.47662824
180	0x3f284a0a	0.65737975
181	0x3e052f0e	0.13006231
182	0xbdbddfc3	-0.09271195
183	0xbd3b043e	-0.045658343
184	0xbee34295	-0.44386736
185	0xbf259ec0	-0.6469536
186	0x3ee156f4	0.44011652
187	0xbf14e8b2	-0.58167565
188	0xbd958d2f	-0.07302319
189	0x3f2ee1a4	0.6831305
190	0xbea97bd7	-0.33102295
191	0x3d4ac8f6	0.049508058
192	0x3efed10b	0.49768862
193	0xbded589c	-0.115891665
194	0x3cc9971a	0.024608184
195	0xbeb03029	-0.34411743
196	0x3d8e5a12	0.06950773
197	0xbecf23ad	-0.40456906
198	0x3e30717b	0.1723079
199	0x3f1f401e	0.6220721
200	0xbe86f439	-0.26358202
201	0xbeb1ed2b	-0.34751257
202	0xbdae7389	-0.0851813
203	0xbf2fd2c4	-0.6868098
204	0xbc0b35a8	-0.008496679
205	0x3eb4acc5	0.35288063
206	0xbb9391bb	-0.0045034564
207	0x3dbf0472	0.0932702
208	0xbcd74e4b	-0.02628245
209	0xbddf005e	-0.10888742
210	0x3dd2f938	0.10301441
211	0x3e0d3fab	0.13793819
212	0x3d7e102f	0.062027153
213	0xbee08dfc	-0.43858325
214	0x3d0e6f5d	0.034774173
215	0xbed37a42	-0.41304213
216	0xbe5ee640	-0.21767521
217	0xbd4ab866	-0.049492262
218	0xbe3defe7	-0.18548547
219	0x3f08efe4	0.53491044
220	0xbde52a5c	-0.1118972
221	0xbe54f41c	-0.20796245
222	0x3d9d028b	0.07666501
223	0x3e1e1147	0.15436278
224	0x3e3304d9	0.17482318
225	0xbded0800	-0.115737915
226	0xbee4ba8e	-0.4467358
227	0xbee520c1	-0.44751552
228	0xbe6446a7	-0.22292577
229	0xbe84bd80	-0.25925827
230	0xbf093443	-0.5359537
231	0xbde456ab	-0.11149343
232	0xbd22b594	-0.039723948
233	0x3e4752e2	0.19465211
234	0x3e13cbf2	0.14433268
235	0x3e0265df	0.12734173
236	0xbdb2160b	-0.086956106
237	0x3ec48a5a	0.38386804
238	0xbdadba65	-0.084828176
239	0x3db1972f	0.08671414
240	0xbcaefcdc	-0.021360807
241	0xbec75dc9	-0.3893874
242	0xbe93ea14	-0.28889525
243	0xbdeef6d6	-0.11668174
244	0xbc86653c	-0.016405694
245	0xbe0ba480	-0.1363697
246	0xbea5b185	-0.32362
247	0x3dfdea06	0.12398152
248	0xbeaabb4f	-0.3334603
249	0xbe076fbc	-0.13226217
250	0x3d74d535	0.059773643
251	0xbd70ddf9	-0.05880544
252	0x3d6f941f	0.05849087
253	0xbecd1e62	-0.40062243
254	0xbe9e5def	-0.3093104
255	0x3e88faf2	0.26753956

sequential/dense/BiasAdd/ReadVariableOp f4 [64]
0	0x3d3c92bc	0.046038374
1	0xbe8daebd	-0.27672377
2	0x3dd20c20	0.10256219
3	0xbe3b4358	-0.18287408
4	0x3d46fb52	0.04857952
5	0xbe346d05	-0.17619713
6	0xbe002694	-0.12514716
7	0xbe58d613	-0.21175413
8	0xbdaabdef	-0.08337008
9	0xbe1f3e88	-0.15551198
10	0xbe1ea021	-0.15490772
11	0x3d4f86e8	0.050665766
12	0xbdee8579	-0.11646552
13	0x3b11723c	0.0022193333
14	0x3e438fdc	0.19097847
15	0xbe3eb14f	-0.18622325
16	0xbd4526d6	-0.04813274
17	0x3d670ec0	0.05641055
18	0x3e639ac7	0.22227012
19	0xbdf3426a	-0.11877902
20	0xbdab0290	-0.08350098
21	0x3e213d16	0.15745959
22	0xbe50055b	-0.20314543
23	0xbe6801e0	-0.22656965
24	0xbd09c847	-0.033638265
25	0xbe3d61cb	-0.18494336
26	0xbe1cf10a	-0.15326324
27	0xbebd5dbe	-0.36985582
28	0xbe2ab2bd	-0.16669746
29	0xbe64e59e	-0.22353217
30	0xbe3f2098	-0.18664777
31	0xbe24d9d4	-0.1609872
32	0xbe731320	-0.23737764
33	0x3d09a947	0.0336087
34	0x3e0f175c	0.13973755
35	0x3dfe00d7	0.12402504
36	0xbe161410	-0.1465609
37	0x3dc13863	0.09434583
38	0x3df061cf	0.117374055
39	0xbe4d715e	-0.20062777
40	0xbe7a5467	-0.2444626
41	0x3df06ee7	0.11739903
42	0xbdf191ef	-0.11795413
43	0x3dfd1e81	0.12359334
44	0xbe0358df	-0.1282687
45	0x3db699c4	0.08916047
46	0xbdca95ac	-0.09891829
47	0xbd074756	-0.033027016
48	0x3da8e2a8	0.08246356
49	0xbceb5b37	-0.028730018
50	0xbe8a8a30	-0.27058554
51	0xbc93aad7	-0.018025799
52	0xbe1b8bd3	-0.15190057
53	0xbd801fc4	-0.06256059
54	0xbdd52b8e	-0.10408698
55	0x3c7840e2	0.015152188
56	0xbe050b56	-0.12992606
57	0xbe38a0e4	-0.18030125
58	0xbc1c60b8	-0.009544544
59	0xbe495bb3	-0.19663887
60	0x3d8f35c1	0.069926746
61	0xbe2460bb	-0.16052525
62	0xbc429eff	-0.011878728
63	0xbeacc269	-0.33742073

sequential/bidirectional/forward_lstm/Read_2/ReadVariableOp f4 [80]
0	0x3de5d278	0.11221784
1	0xbc310ebd	-0.010806737
2	0x3ddf0095	0.10888783
3	0x3e838526	0.25687522
4	0x3dde4921	0.10853792
5	0x3cacfb85	0.021116028
6	0x3e4cc5a4	0.19997269
7	0x3edda93d	0.4329318
8	0xbd050b70	-0.03248161
9	0x3e4e4f07	0.20147334
10	0xbdcdf628	-0.10056716
11	0xbdcb1e88	-0.09917933
12	0x3f1bd195	0.6086667
13	0xbe6fe413	-0.23426847
14	0xbe6aaff2	-0.2291868
15	0xbe16ae8f	-0.14715026
16	0x3eb4da74	0.35322917
17	0xbdb45780	-0.08805752
18	0xbe9a2e96	-0.30113667
19	0xbc4fb651	-0.012677745
20	0x3f6a99af	0.9164075
21	0x3f845c91	1.0340749
22	0x3f46aa1f	0.77603334
23	0x3f566550	0.8374834
24	0x3f95f00e	1.1713884
25	0x3f3e4d16	0.74336374
26	0x3f658ed2	0.8967105
27	0x3f92f458	1.1480818
28	0x3f5c9612	0.8616649
29	0x3f8ccc11	1.0999776
30	0x3f9aa819	1.2082549
31	0x3f5138ad	0.81727105
32	0x3f99b715	1.2008997
33	0x3f5449b4	0.8292496
34	0x3f67b3f8	0.90508986
35	0x3f6560d3	0.8960087
36	0x3f68e742	0.9097787
37	0x3f8b7eac	1.0898032
38	0x3f8691f4	1.0513291
39	0x3f90eca6	1.1322219
40	0x3e5f8651	0.21828581
41	0x3dcbff4b	0.09960803
42	0x3d22bc8b	0.03973059
43	0xbea0118b	-0.31263384
44	0x3ee93cd2	0.45554215
45	0xbdab4925	-0.083635606
46	0xbb131d0a	-0.0022447729
47	0x3f41e24f	0.75735945
48	0x3cf854fb	0.03031396
49	0xbebc6bd6	-0.36801022
50	0xbedd0383	-0.43166742
51	0xbe504d4e	-0.2034199
52	0xbf094a19	-0.5362869
53	0xbe1a7106	-0.15082178
54	0x3ee8789d	0.4540452
55	0x3db03d44	0.086054355
56	0x3e03e45b	0.1288008
57	0x3d43141c	0.0476266
58	0x3e5a0986	0.21292695
59	0xbeaa6c4a	-0.33285743
60	0x3ebe89b4	0.37214434
61	0xbc9ae823	-0.01890952
62	0xbd62ce72	-0.055372663
63	0x3d88c5c6	0.06678347
64	0x3e72609b	0.23669665
65	0x3e968b4a	0.29403144
66	0xbece8551	-0.40336087
67	0x3e0e08e0	0.13870573
68	0x3de20499	0.11036033
69	0xbb8e3911	-0.004340299
70	0xba8420e2	-0.0010080601
71	0xbc2e5a95	-0.010641714
72	0x3e53668f	0.20644592
73	0xbde897be	-0.113570675
74	0x3d83480e	0.06410228
75	0xbe86a510	-0.26297808
76	0xbdadcee5	-0.084867276
77	0x3de45e16	0.11150758
78	0xbe711762	-0.23544076
79	0x3ebb9d50	0.36643457

sequential/bidirectional/backward_lstm/Read_2/ReadVariableOp f4 [80]
0	0x3e0fb5eb	0.1403424
1	0x3f0c021f	0.54690737
2	0xbe89dccd	-0.2692627
3	0x3f0dfa8d	0.55460435
4	0x3e88b0bc	0.26697338
5	0x3d9efda9	0.077632256
6	0xbce6ef25	-0.028190205
7	0xbc4b1309	-0.012394675
8	0x3d31b98d	0.043389846
9	0x3dc66c80	0.096886635
10	0x3c43e3e4	0.011956189
11	0xbe8c4741	-0.27398112
12	0x3b0e2a1c	0.002169258
13	0x3d0499d2	0.032373257
14	0xbf0a4b51	-0.54021174
15	0x3d00d266	0.03145065
16	0xbe802030	-0.25024557
17	0xbd8492fb	-0.06473347
18	0x3e5987f2	0.21243265
19	0xbe8d6f81	-0.27624133
20	0x3f5ea8c4	0.86976266
21	0x3f74d870	0.9564276
22	0x3f47b503	0.78010577
23	0x3f92cbbe	1.1468427
24	0x3f862a11	1.0481588
25	0x3f514190	0.81740665
26	0x3f6c95b3	0.9241592
27	0x3f6c563d	0.9231909
28	0x3f4be03c	0.7963903
29	0x3f917adc	1.1365619
30	0x3f518b17	0.8185286
31	0x3f5a0310	0.85160923
32	0x3f8ad0cc	1.084497
33	0x3fafe29b	1.374103
34	0x3f3d690b	0.7398841
35	0x3f8774b0	1.0582485
36	0x3f7651c4	0.96218514
37	0x3f494313	0.7861797
38	0x3f8a0d06	1.0785224
39	0x3f5d301d	0.8640154
40	0xbe846597	-0.25858757
41	0x3c7ba550	0.015359238
42	0xbeac4936	-0.33649606
43	0xbf107b7b	-0.56438416
44	0x3f4e06c8	0.804791
45	0xbdf81e1c	-0.12115118
46	0xbe41df49	-0.18932833
47	0x3e9aff5b	0.30272946
48	0xbe499ab5	-0.19687922
49	0x3dac9ae2	0.08427979
50	0xbdda3159	-0.106539436
51	0x3d78a866	0.060707472
52	0xbe649969	-0.22324146
53	0xbe4e5373	-0.20149021
54	0xbcb2d787	-0.021831287
55	0x3f0a60b2	0.54053795
56	0x3dba5f2f	0.09100186
57	0xbd35c5b6	-0.044378005
58	0xbec6a57a	-0.38798124
59	0xbbf89817	-0.00758649
60	0x3e2d6788	0.16934025
61	0x3e4f899d	0.20267339
62	0x3eb0913e	0.3448581
63	0x3d1c434b	0.038150113
64	0x3dc66570	0.096873164
65	0xbe8ceafc	-0.2752303
66	0x3ce492ea	0.027902085
67	0xbcad228c	-0.021134637
68	0xbd0c3d01	-0.034237865
69	0xbd53d999	-0.05172119
70	0xbeeeae27	-0.46617243
71	0xbd53db05	-0.051722545
72	0x3e1c085a	0.15237561
73	0x3dd4ba0f	0.1038705
74	0xbecc566d	-0.39909688
75	0x3dffeb44	0.12496045
76	0x3c190874	0.009340394
77	0xbe69cd58	-0.22832239
78	0x3e99b68c	0.30022085
79	0xbea801f8	-0.32814002

sequential/batch_normalization/FusedBatchNormV3 f4 [32]
0	0x3fee20a1	1.8603708
1	0xbe324eff	-0.17412947
2	0x3f4067be	0.751583
3	0x3fc542ce	1.5411012
4	0x3f8ec505	1.1153876
5	0x3ffd8455	1.980601
6	0x40b0f1b2	5.529504
7	0x3fc868cd	1.5656983
8	0x40c83924	6.256975
9	0x3fa39183	1.2778782
10	0x3db96ebc	0.09054324
11	0x3d7c85e9	0.061651144
12	0x3c84d2b1	0.016213747
13	0x40974c23	4.728044
14	0x3fb538a5	1.4157912
15	0x3f1c9107	0.61158794
16	0x3eeb0d01	0.4590836
17	0x4029efb1	2.6552546
18	0x4102b9a7	8.170325
19	0x4017a6ca	2.369555
20	0x4102c353	8.172687
21	0x3b84002f	0.004028342
22	0x40a3d78b	5.1200614
23	0x3fa93586	1.3219459
24	0xbf807b8d	-1.0037705
25	0x3d845049	0.06460626
26	0x400d0053	2.2031448
27	0x413c7acd	11.779981
28	0xbcf13812	-0.029445682
29	0x400ef5e7	2.2337587
30	0x3e9f3e3b	0.31102166
31	0x3f87a225	1.0596358

sequential/batch_normalization/FusedBatchNormV31 f4 [32]
0	0xbd2707ce	-0.040778928
1	0x3c13c506	0.009019142
2	0xbe979f98	-0.29613948
3	0xbefa91c8	-0.48939347
4	0xbf40434f	-0.75102705
5	0xbed9d6d0	-0.425467
6	0xbf997a16	-1.1990383
7	0x3d57db3c	0.052699313
8	0xbdf0066e	-0.11719976
9	0xbf5e59c7	-0.8685574
10	0xbe6b7284	-0.22992903
11	0xbee362ad	-0.4441122
12	0x3baa33e0	0.0051941723
13	0xbc432026	-0.01190952
14	0xbf1aca0c	-0.6046455
15	0xbf8e9ed4	-1.114222
16	0xbd58e16e	-0.05294936
17	0xbe25d610	-0.1619494
18	0x3c0043a8	0.0078286305
19	0xbf671426	-0.9026512
20	0xbdb8a2b8	-0.09015411
21	0x3d0dc0c8	0.03460768
22	0xbc95a606	-0.018267643
23	0xbb443bb0	-0.0029942803
24	0x3cb2dd14	0.021833934
25	0xbed8bec2	-0.42333037
26	0xbfb14431	-1.3848935
27	0xbd1a811c	-0.037720785
28	0xbcd5cab5	-0.026097635
29	0xbcd8272a	-0.026385862
30	0xbf4c3bb2	-0.7977859
31	0x3a432960	0.0007444825

sequential/batch_normalization_1/FusedBatchNormV3 f4 [45]
0	0x3e7ed4b3	0.24885826
1	0x3ecae16a	0.39625102
2	0x3e55f7de	0.20895335
3	0x3e9efd37	0.31052563
4	0x3e9e6f4e	0.30944294
5	0x3ea6a11d	0.32544795
6	0x3e5748e6	0.21023902
7	0x3e8cf835	0.27533117
8	0x3e16ebab	0.14738338
9	0x3e500852	0.20315674
10	0x3e73c04d	0.23803826
11	0x3e9cc6a0	0.3062029
12	0x3e2ebaf7	0.17063509
13	0x3e16aee2	0.1471515
14	0x3e9367a2	0.28790003
15	0x3e8f8890	0.28033876
16	0x3e1f0942	0.15530875
17	0x3e9a102e	0.3009047
18	0x3eb1a350	0.3469491
19	0x3e92768a	0.28606063
20	0x3eb46679	0.3523443
21	0x3ea5abef	0.32357737
22	0x3ea4827c	0.32130802
23	0x3ec54bb2	0.38534313
24	0x3e8ad5ed	0.27116337
25	0x3e8b2267	0.27174684
26	0x3ed4af42	0.4153996
27	0x3e99c5a3	0.30033597
28	0x3eb9bb92	0.36275917
29	0x3e936df8	0.28794837
30	0x3ed8be87	0.4233286
31	0x3ec5987e	0.38592905
32	0x3eb86faa	0.36022693
33	0x3eb975c0	0.3622265
34	0x3e8332f1	0.25624803
35	0x3e82b4b1	0.25528482
36	0x3e9c17e9	0.30486992
37	0x3ec6fd1c	0.38864982
38	0x3e982e4a	0.29722816
39	0x3ecf5c34	0.40500033
40	0x3ea6c9dd	0.32575884
41	0x3e251589	0.16121496
42	0x3e5c4924	0.21512276
43	0x3e623fdd	0.22094674
44	0x3ec7eb18	0.3904655

sequential/batch_normalization_1/FusedBatchNormV31 f4 [45]
0	0xbf983d2e	-1.189367
1	0xbf78441a	-0.96978915
2	0xbf82e99d	-1.0227543
3	0xbfee71e4	-1.8628507
4	0xbfb2ddd4	-1.3973947
5	0xbf9061fb	-1.1279901
6	0xbf4ed100	-0.8078766
7	0xbf8b8bf4	-1.0902085
8	0xbef01253	-0.4688898
9	0xbf5d1270	-0.8635626
10	0xbf647760	-0.8924465
11	0xbf5dfd54	-0.86714673
12	0xbf647523	-0.89241236
13	0xbf5285c2	-0.8223535
14	0xbf9bfd77	-1.2186726
15	0xbf6a64e6	-0.9156021
16	0xbfad3591	-1.3531972
17	0xbf8d0550	-1.1017246
18	0xbf8a001a	-1.0781281
19	0xbf674f7f	-0.90355676
20	0xbf5c0160	-0.859396
21	0xbf334b0e	-0.700364
22	0xbf94cf54	-1.1625772
23	0xbfd4ddcb	-1.6630186
24	0xbf67573b	-0.9036748
25	0xbf4f2f0e	-0.80931175
26	0xbf8fb588	-1.1227274
27	0xbf6cc4ab	-0.9248759
28	0xbf9d6cec	-1.2298865
29	0xbf73dd42	-0.9525949
30	0xbf87eeb3	-1.061972
31	0xbf9503fb	-1.164184
32	0xbfd02d9c	-1.6263919
33	0xbf8389aa	-1.0276387
34	0xbf941f22	-1.1572001
35	0xbef8aef9	-0.48570994
36	0xbf323dd7	-0.6962561
37	0xbf22da6c	-0.63614535
38	0xbf866ff0	-1.0502911
39	0xbf89c8fa	-1.0764458
40	0xbf8f6a9d	-1.1204411
41	0xbf0f3988	-0.5594716
42	0xbee5e110	-0.44898272
43	0xbfadbe32	-1.3573668
44	0xbefee6c1	-0.49785426

sequential/batch_normalization_2/FusedBatchNormV3 f4 [60]
0	0x3e1faec6	0.15594015
1	0x3e464748	0.19363129
2	0x3eb2d1cd	0.3492569
3	0x3e8b7f79	0.2724569
4	0x3e498290	0.19678712
5	0x3e9cd0cc	0.3062805
6	0x3e4639bd	0.19357963
7	0x3e56b437	0.20967184
8	0x3e74d2c6	0.23908529
9	0x3e81494d	0.25251237
10	0x3e5747fa	0.2102355
11	0x3e7df09b	0.24798815
12	0x3e4719a3	0.19443373
13	0x3e17e68a	0.14834037
14	0x3e9b78af	0.30365512
15	0x3e7a6bea	0.24455228
16	0x3e148026	0.1450201
17	0x3e4624b5	0.1934994
18	0x3e6dd9c7	0.23227607
19	0x3ea7b020	0.3275156
20	0x3e1282de	0.14307734
21	0x3e665448	0.22493088
22	0x3e912a87	0.28352758
23	0x3e4e80bc	0.20166296
24	0x3e869acd	0.2628998
25	0x3e9ca7bc	0.3059672
26	0x3e77f6bf	0.2421522
27	0x3e4462e4	0.19178349
28	0x3ed5e419	0.41775587
29	0x3e098f11	0.13433482
30	0x3e201529	0.15633072
31	0x3e4c1f63	0.19933848
32	0x3e44e7d1	0.19229056
33	0x3e6319f1	0.22177865
34	0x3e4b2426	0.19838008
35	0x3eb82730	0.35967398
36	0x3ecbda92	0.39815193
37	0x3e4ce738	0.20010078
38	0x3e5f4804	0.21804816
39	0x3e6786a8	0.22609961
40	0x3e27e1ee	0.16394779
41	0x3e58cab4	0.21171075
42	0x3e3a9f13	0.18224744
43	0x3de7a3e6	0.11310558
44	0x3e2ddd62	0.16978982
45	0x3e674113	0.22583418
46	0x3e52cc13	0.2058566
47	0x3e4a784e	0.19772455
48	0x3e6ebd12	0.23314312
49	0x3e8163a9	0.25271347
50	0x3e23fd76	0.16014656
51	0x3e769d6a	0.24083486
52	0x3e8177b5	0.25286642
53	0x3e4eed3d	0.20207687
54	0x3e6ace24	0.22930199
55	0x3e6add3f	0.22935961
56	0x3e3656ee	0.17806599
57	0x3e87240d	0.26394692
58	0x3e7eb547	0.2487384
59	0x3e3212cd	0.17389984

sequential/batch_normalization_2/FusedBatchNormV31 f4 [60]
0	0xbe6f2032	-0.23352125
1	0xbeb9c446	-0.36282557
2	0xbe88d00e	-0.26721233
3	0xbebc9106	-0.36829394
4	0xbf21de4d	-0.6322983
5	0xbf0bf44b	-0.54669636
6	0xbeba4450	-0.36380243
7	0xbefa9df8	-0.48948646
8	0xbec5ed90	-0.38657808
9	0xbdac4d58	-0.0841319
10	0xbf461415	-0.7737439
11	0xbefb74fe	-0.49112695
12	0xbe77a8af	-0.24185441
13	0xbecd9af4	-0.40157282
14	0xbe4e929e	-0.20173118
15	0xbea6da12	-0.3258825
16	0xbecd0c4c	-0.40048444
17	0xbf039518	-0.51399374
18	0xbeac999c	-0.33710945
19	0xbef6f73d	-0.48235503
20	0xbed09de2	-0.40745455
21	0xbeeec4c7	-0.46634504
22	0xbebf297b	-0.37336335
23	0xbef5cf36	-0.48009652
24	0xbed02514	-0.40653288
25	0xbd47dd38	-0.048794955
26	0xbee07ed7	-0.4384677
27	0xbf10d538	-0.56575346
28	0xbe896f36	-0.2684266
29	0xbf623216	-0.88357675
30	0xbec9a1e7	-0.39381334
31	0xbf0be136	-0.5464052
32	0xbed999a7	-0.4250004
33	0xbf25020b	-0.6445624
34	0xbf558ef5	-0.8342126
35	0xbe832c99	-0.25619963
36	0xbdbd72f8	-0.09250444
37	0xbf084f44	-0.5324595
38	0xbe51e5f8	-0.20497882
39	0xbe6bfe3b	-0.230462
40	0xbeaef92a	-0.34174472
41	0xbf0741ca	-0.5283476
42	0xbf28eeb3	-0.65989226
43	0xbf2e7d2b	-0.6815974
44	0xbeeffbab	-0.46871695
45	0xbe5946ac	-0.21218365
46	0xbe6a3299	-0.22870864
47	0xbec4db21	-0.38448432
48	0xbe835c28	-0.25656247
49	0xbf142d21	-0.5788136
50	0xbf149d50	-0.5805254
51	0xbf2cbdf0	-0.6747732
52	0x3d6cba28	0.05779472
53	0xbeae70f1	-0.34070542
54	0xbf4f9caa	-0.81098425
55	0xbe90a5be	-0.2825145
56	0xbf12241a	-0.57086337
57	0xbe712322	-0.23548558
58	0xbf14b9bb	-0.580959
59	0xbec7503f	-0.3892841

sequential/dense/MatMul f4 [64, 40]
0	0x3eafee93	0.34361705
1	0x3d83e15b	0.064394675
2	0x3d301db3	0.042997073
3	0xbea31978	-0.3185537
4	0xbea7db22	-0.32784373
5	0xbe34f447	-0.1767131
6	0xbeb9f614	-0.36320555
7	0x3eb1c616	0.3472144
8	0x3dfacd46	0.12246184
9	0x3e923fd2	0.28564316
10	0xbee03e48	-0.43797517
11	0xbebe5965	-0.37177578
12	0xbf0365a0	-0.5132694
13	0xbe9e6e0b	-0.3094333
14	0x3e4c5096	0.19952616
15	0xbe0c1707	-0.13680659
16	0x3eb986e4	0.36235726
17	0x3e0c5a07	0.13706218
18	0x3e942047	0.28930876
19	0xbde60d96	-0.1123306
20	0xbe91a41d	-0.2844552
21	0xbeca8de8	-0.3956139
22	0xbee66a1d	-0.45002833
23	0xbefaec31	-0.49008325
24	0x3e8b5da2	0.27219874
25	0x3e3fab36	0.18717656
26	0x3e17fb82	0.14842036
27	0x3eb69872	0.35663182
28	0xbe84ec71	-0.2596164
29	0xbed6c917	-0.41950294
30	0xbd8fb6f1	-0.07017315
31	0x3ee76b7d	0.45199195
32	0xbeb2829c	-0.34865272
33	0xbe50ba52	-0.20383576
34	0x3eca9eb0	0.39574194
35	0x3e7ed90f	0.24887489
36	0x3e925c25	0.28585926
37	0xbce914d1	-0.028452309
38	0xbf33274c	-0.6998184
39	0xbf455c5a	-0.7709404
40	0xbef918ed	-0.4865183
41	0x3db49be9	0.088188
42	0xbee0c1b1	-0.43897775
43	0x3e6b0688	0.2295171
44	0x3d230a62	0.039804824
45	0xbe5b86f4	-0.214382
46	0x3ce236a4	0.027613945
47	0xbec5b296	-0.38612813
48	0xbf17ee8c	-0.5934837
49	0x3e910304	0.28322613
50	0x3ed70b50	0.42000818
51	0x3d866bac	0.065635055
52	0x3eda42b4	0.42629015
53	0x3ebe96d9	0.37224463
54	0xbdeeae15	-0.11654297
55	0xbe45750d	-0.19282933
56	0xbe99cf93	-0.3004118
57	0xbdef79a2	-0.116931215
58	0x3d9f6a7b	0.077839814
59	0x3e07ca97	0.13260876
60	0x3f0d7f82	0.55272686
61	0x3e27a896	0.16372904
62	0x3ddd4716	0.10804574
63	0x3ecde7b5	0.4021584
64	0xbd9b3528	-0.07578498
65	0xbf11e77b	-0.56993836
66	0x3ed86438	0.4226396
67	0xbec8a0d1	-0.39185193
68	0x3f03c410	0.5147104
69	0x3ec22ba2	0.37923914
70	0xbdd35537	-0.10318988
71	0xbee833ff	-0.4535217
72	0xbe536e48	-0.20647538
73	0x3e5321e4	0.20618397
74	0xbda01814	-0.078170925
75	0xbef94fd1	-0.48693708
76	0xbee8afac	-0.45446527
77	0x3e2b8dec	0.16753358
78	0x3e2d10e0	0.16900969
79	0xbd50543d	-0.050861586
80	0xbe02b294	-0.12763435
81	0x3f1ccf9d	0.6125429
82	0x3e8eafa2	0.27868372
83	0xbec8a858	-0.39190936
84	0x3f12ba36	0.57315385
85	0x3eb8df3c	0.36107814
86	0x3e1e5204	0.15460974
87	0x3e9f8b77	0.3116109
88	0x3e8ce4ae	0.2751822
89	0xbe7db166	-0.24774703
90	0x3ca10ba5	0.019658873
91	0xbf002850	-0.5006151
92	0xbeb79285	-0.35853973
93	0xbf3c70d0	-0.7360964
94	0x3e075e2f	0.13219522
95	0x3e428676	0.18996605
96	0x3e8ff6e1	0.2811804
97	0x3ede55c3	0.43424806
98	0xbcffced4	-0.031226553
99	0xbe565882	-0.209322
100	0xbed6b2eb	-0.4193338
101	0xbe14ee90	-0.1454413
102	0xbe9761ca	-0.29566795
103	0xbef9c02d	-0.4877943
104	0x3e88a1ea	0.2668603
105	0x3e33760f	0.17525505
106	0xbe8085a7	-0.2510197
107	0x3f178026	0.59179914
108	0xbdf219d4	-0.118213326
109	0xbe6b7789	-0.22994818
110	0xbe6b181b	-0.22958414
111	0x3f242d66	0.6413177
112	0xbedfc35a	-0.4370373
113	0xbe3aaac7	-0.18229209
114	0xbd8d2932	-0.06892623
115	0x3f17d3c8	0.5930753
116	0x3df45019	0.1192934
117	0x3e8d6063	0.276126
118	0xbe35f632	-0.17769697
119	0xbecdc5c1	-0.40189937
120	0xbf2720d9	-0.65284497
121	0x3f1aed2a	0.60518134
122	0x3edaa29f	0.42702195
123	0xbe152465	-0.14564665
124	0x3cf41734	0.02979622
125	0x3ee333db	0.443755
126	0xbd424e30	-0.047437847
127	0x3e9012c0	0.28139305
128	0x3ced771e	0.028987464
129	0xbdf0b02c	-0.11752352
130	0xbe0a89fb	-0.13529198
131	0xbdca0602	-0.09864427
132	0xbe913294	-0.283589
133	0xbe70a855	-0.23501714
134	0x3e59d5c0	0.21272945
135	0x3df7fed6	0.12109153
136	0x3ed74ff8	0.420532
137	0x3f1bd6d5	0.6087468
138	0xbccd1253	-0.025033152
139	0x3ebd0158	0.36915088
140	0xbecd2e0f	-0.40074202
141	0xbf25ad4c	-0.64717555
142	0xbefd0bc5	-0.49423042
143	0x3e86a179	0.2629507
144	0x3e9da6a5	0.30791202
145	0x3e1863ec	0.14881867
146	0xbf108634	-0.5645478
147	0x3e1a024c	0.15039939
148	0xbf1110c7	-0.56666225
149	0xbf13a36e	-0.5767125
150	0xbca4c353	-0.02011267
151	0x3c910269	0.017701345
152	0xbce05c2d	-0.027387703
153	0xbeeb332b	-0.45937476
154	0x3eccba6d	0.39985982
155	0x3e3a799c	0.18210453
156	0x3ef43c4f	0.47702262
157	0xbde88917	-0.11354273
158	0xbeb99296	-0.3624465
159	0xbd8fba16	-0.07017915
160	0x3edc7f3e	0.43065828
161	0xbdfcec10	-0.12349713
162	0x3ece50fb	0.40296158
163	0xbe74ac5f	-0.2389388
164	0xbe2ea941	-0.17056753
165	0x3f19e832	0.60119927
166	0xbe54c6b3	-0.20778923
167	0x3f7f2b78	0.99675703
168	0xbeadf379	-0.33974817
169	0xbe13ee2d	-0.14446326
170	0x3d372ae7	0.04471865
171	0xbea1f4c1	-0.31632045
172	0xbf37740f	-0.71661466
173	0xbec3d315	-0.3824698
174	0x3dc12889	0.094315596
175	0x3de74b2a	0.11293633
176	0x3ea82502	0.32840735
177	0x3d2f260a	0.042760886
178	0x3f1f2b56	0.621755
179	0xbe8ed34e	-0.27895588
180	0xbebc3fe0	-0.36767483
181	0x3dd6f12e	0.1049522
182	0xbea4700f	-0.32116744
183	0xbeafaf55	-0.34313455
184	0x3f0e2593	0.55526084
185	0x3e226a30	0.1586082
186	0x3d6414d1	0.055683915
187	0xbd4db360	-0.050219893
188	0xbeaeba4a	-0.34126502
189	0x3dcbc17a	0.09949012
190	0xbdda3ada	-0.10655756
191	0xbd7b271e	-0.061316602
192	0xbded0de7	-0.11574917
193	0xbebab547	-0.3646643
194	0x3e92ef06	0.28697985
195	0x3e0d820d	0.13819142
196	0x3dd2b424	0.10288265
197	0xbefa31f1	-0.48866227
198	0xbedb8ba1	-0.42879966
199	0xbea2ed6f	-0.31821772
200	0xbd0f4691	-0.034979407
201	0xbed7aa34	-0.42122042
202	0xbeb52b7d	-0.3538474
203	0x3df6444b	0.120247446
204	0xbf00acdd	-0.5026377
205	0xbe87571a	-0.2643364
206	0x3e1432c3	0.14472489
207	0xbe4437ce	-0.19161913
208	0xbe9c1fb4	-0.30492938
209	0x3e4f107c	0.20221132
210	0xbdca63ee	-0.09882341
211	0xbe752ba3	-0.23942427
212	0x3e9436e4	0.28948128
213	0x3bc346a9	0.005959351
214	0xbe5b8fa5	-0.21441515
215	0xbe0514b1	-0.12996174
216	0x3da77feb	0.08178695
217	0x3c1204ca	0.008912275
218	0xbf151cf6	-0.58247316
219	0x3f06863e	0.5254859
220	0x3e6d2550	0.23158765
221	0x3e8086b0	0.25102758
222	0x3ee51c4d	0.44748154
223	0x3f190f8d	0.59789354
224	0xbed090af	-0.40735385
225	0xbecc5713	-0.39910182
226	0x3f1db0cb	0.6159789
227	0xbeffd411	-0.4996648
228	0x3e5d1e38	0.21593559
229	0x3ea9a7d8	0.33135867
230	0x3e0963c9	0.13416971
231	0xbdfc3f7a	-0.12316795
232	0x3ed3a268	0.41334844
233	0xbdafa654	-0.085766464
234	0xbebf770e	-0.3739552
235	0xbeaa5272	-0.33266026
236	0xbe74feb8	-0.23925292
237	0x3e6fd49f	0.23420952
238	0x3e9896b9	0.29802492
239	0x3f3945ac	0.72371936
240	0xbeace05f	-0.33764932
241	0xbf0e53fc	-0.555969
242	0x3e477445	0.19477947
243	0x3e9a4f2d	0.3013853
244	0xbd781496	-0.060566507
245	0xbeaf00d1	-0.3418031
246	0x3f21d377	0.63213295
247	0xbe30d01d	-0.17266889
248	0xbec82ce1	-0.3909674
249	0x3d94e966	0.0727108
250	0x3d6dd92c	0.05806844
251	0x3e267c0f	0.16258262
252	0x3f1cb787	0.6121754
253	0x3ee31453	0.44351444
254	0xbdca0d2f	-0.09865796
255	0xbdd6707c	-0.104706734

sequential/dense_1/MatMul f4 [1, 64]
0	0xbdedcb95	-0.11611096
1	0x3e7fda76	0.2498568
2	0xbe920585	-0.28519836
3	0xbeca8ced	-0.39560643
4	0xbe3cd082	-0.18438914
5	0x3eb726f2	0.357719
6	0x3e8752d9	0.26430395
7	0x3e6ae186	0.22937593
8	0xbe841aed	-0.25801793
9	0xbe992ac0	-0.29915428
10	0x3e5d8c6d	0.216356
11	0xbe3836fc	-0.17989725
12	0x3e9d78a0	0.30756092
13	0xbd6d00d9	-0.057862137
14	0xbe244f1a	-0.160458
15	0x3ec8216f	0.39088008
16	0xbe647b3a	-0.22312632
17	0xbe967477	-0.2938573
18	0xbe84afab	-0.25915274
19	0x3df71ac1	0.1206565
20	0xbe08f747	-0.13375579
21	0xbe88441d	-0.26614466
22	0xbde094ef	-0.10965907
23	0x3e84819d	0.25880137
24	0xbe393c6c	-0.18089455
25	0x3e39a5ec	0.181297
26	0x3e489165	0.19586714
27	0x3eac5b55	0.3366343
28	0xbe47f5ee	-0.19527408
29	0x3e2ad9b5	0.16684611
30	0xbeb0e652	-0.3455072
31	0x3df48e9d	0.11941264
32	0x3ebfe203	0.3747712
33	0xbe465dba	-0.19371691
34	0xbdc76174	-0.097353846
35	0xbe6bf08c	-0.2304098
36	0xbe7cc484	-0.2468434
37	0xbdcbda70	-0.09953773
38	0xbdc79fb9	-0.097472616
39	0x3e7721c1	0.2413397
40	0x3e5a529e	0.21320578
41	0xbeab9e0c	-0.33519018
42	0x3e99c252	0.30031067
43	0xbe29a848	-0.165681
44	0x3e3bb5a0	0.18331003
45	0xbe5f1af5	-0.21787627
46	0x3e2ad484	0.16682631
47	0xbeaad6ec	-0.33367097
48	0xbe477eb9	-0.19481935
49	0xbebc3e80	-0.36766434
50	0x3e7b6211	0.24549128
51	0xbe003849	-0.12521471
52	0x3e58d692	0.21175602
53	0xbd1494aa	-0.03627459
54	0x3e887ee0	0.26659298
55	0xbdbbf005	-0.091766395
56	0x3e9a7f93	0.30175456
57	0x3e7fec7f	0.2499256
58	0xbe55b138	-0.20868385
59	0xbeb75ca1	-0.35812858
60	0x3e172014	0.1475833
61	0x3e990aae	0.2989096
62	0x3e448007	0.19189464
63	0x3e843ece	0.25829166

sequential/bidirectional/backward_lstm/Read_2/ReadVariableOp1 f4 [80]
0	0x3e0fb5eb	0.1403424
1	0x3f0c021f	0.54690737
2	0xbe89dccd	-0.2692627
3	0x3f0dfa8d	0.55460435
4	0x3e88b0bc	0.26697338
5	0x3d9efda9	0.077632256
6	0xbce6ef25	-0.028190205
7	0xbc4b1309	-0.012394675
8	0x3d31b98d	0.043389846
9	0x3dc66c80	0.096886635
10	0x3c43e3e4	0.011956189
11	0xbe8c4741	-0.27398112
12	0x3b0e2a1c	0.002169258
13	0x3d0499d2	0.032373257
14	0xbf0a4b51	-0.54021174
15	0x3d00d266	0.03145065
16	0xbe802030	-0.25024557
17	0xbd8492fb	-0.06473347
18	0x3e5987f2	0.21243265
19	0xbe8d6f81	-0.27624133
20	0x3f5ea8c4	0.86976266
21	0x3f74d870	0.9564276
22	0x3f47b503	0.78010577
23	0x3f92cbbe	1.1468427
24	0x3f862a11	1.0481588
25	0x3f514190	0.81740665
26	0x3f6c95b3	0.9241592
27	0x3f6c563d	0.9231909
28	0x3f4be03c	0.7963903
29	0x3f917adc	1.1365619
30	0x3f518b17	0.8185286
31	0x3f5a0310	0.85160923
32	0x3f8ad0cc	1.084497
33	0x3fafe29b	1.374103
34	0x3f3d690b	0.7398841
35	0x3f8774b0	1.0582485
36	0x3f7651c4	0.96218514
37	0x3f494313	0.7861797
38	0x3f8a0d06	1.0785224
39	0x3f5d301d	0.8640154
40	0xbe846597	-0.25858757
41	0x3c7ba550	0.015359238
42	0xbeac4936	-0.33649606
43	0xbf107b7b	-0.56438416
44	0x3f4e06c8	0.804791
45	0xbdf81e1c	-0.12115118
46	0xbe41df49	-0.18932833
47	0x3e9aff5b	0.30272946
48	0xbe499ab5	-0.19687922
49	0x3dac9ae2	0.08427979
50	0xbdda3159	-0.106539436
51	0x3d78a866	0.060707472
52	0xbe649969	-0.22324146
53	0xbe4e5373	-0.20149021
54	0xbcb2d787	-0.021831287
55	0x3f0a60b2	0.54053795
56	0x3dba5f2f	0.09100186
57	0xbd35c5b6	-0.044378005
58	0xbec6a57a	-0.38798124
59	0xbbf89817	-0.00758649
60	0x3e2d6788	0.16934025
61	0x3e4f899d	0.20267339
62	0x3eb0913e	0.3448581
63	0x3d1c434b	0.038150113
64	0x3dc66570	0.096873164
65	0xbe8ceafc	-0.2752303
66	0x3ce492ea	0.027902085
67	0xbcad228c	-0.021134637
68	0xbd0c3d01	-0.034237865
69	0xbd53d999	-0.05172119
70	0xbeeeae27	-0.46617243
71	0xbd53db05	-0.051722545
72	0x3e1c085a	0.15237561
73	0x3dd4ba0f	0.1038705
74	0xbecc566d	-0.39909688
75	0x3dffeb44	0.12496045
76	0x3c190874	0.009340394
77	0xbe69cd58	-0.22832239
78	0x3e99b68c	0.30022085
79	0xbea801f8	-0.32814002
