models/model.tflite (tflite, 586292 bytes, 17 tensors)

sequential/conv2d/BiasAdd/ReadVariableOp f4 [32]
000000 c0 57 6b 3d 9f fe 4f 3e 50 c1 27 3d 20 a2 2c 3e
       0.05745673 0.20311974 0.04095584 0.16858721
000010 3a 06 e3 3d 0e 12 e8 3d 49 71 3b 3d 06 c5 30 3d
       0.11085172 0.11331569 0.045762334 0.043156646
000020 17 f1 84 3e 82 55 64 3d 03 ab 13 3c 2e eb 8a 3e
       0.25965187 0.05574561 0.00901294 0.27132553
000030 a1 1e 6e 3e 2c b9 59 3d 16 6d e8 3c 68 6a 0a 3e
       0.23253872 0.05315511 0.028372329 0.13517153
000040 74 fe 87 3c 1f f6 fe 3c 20 4a 5e 3e f6 52 4a 3d
       0.016600825 0.031123219 0.21707964 0.049395524
000050 56 03 a9 3d 13 ef 4c 3e 4c bb 29 3d 30 69 8f 3d
       0.082525894 0.20013075 0.041438386 0.07002485
000060 cc 8a 8f 3e ce a2 f7 3d cc 09 97 3d 2a 1a f9 3d
       0.2803558 0.120915994 0.073749155 0.121631935
000070 41 68 26 3d d9 ef 35 3e 55 d6 7d 3d 0c 6b 97 3d
       0.040626768 0.17767276 0.06197198 0.073934644

sequential/conv2d_1/BiasAdd/ReadVariableOp f4 [64]
000000 12 a2 62 be e4 78 d5 be e8 91 86 be b8 8c ad bd
       -0.22132137 -0.41693795 -0.26283193 -0.084741056
000010 cb b8 9d 3d 56 b4 14 3c f0 9e 2c 3e 9c cd 6f bd
       0.07701262 0.009076199 0.16857505 -0.058545694
000020 41 b0 e9 bc f2 00 81 bd eb f5 d3 3d 5d 01 5b be
       -0.028526427 -0.062990084 0.103496395 -0.21387239
000030 81 63 1e 3e 0d 06 20 be a5 39 02 bd 01 b7 a3 bd
       0.15467645 -0.15627308 -0.031793255 -0.079938896
000040 55 95 3a 3d 2a 34 26 3e bd b2 7e 3e fe 14 f4 bd
       0.04555257 0.16230837 0.2487287 -0.119180664
000050 67 f1 33 bd d5 5e 8d 3e ec 94 13 bc e2 1f f7 3c
       -0.04393139 0.27611414 -0.009007674 0.03016657
000060 f7 da b1 3d 9c bf fe bc 26 35 5d 3e d2 b8 35 3e
       0.08684342 -0.031097226 0.21602306 0.17746285
000070 77 37 1c bd 53 cb 90 3e d3 b4 43 3d ca af 69 be
       -0.038138833 0.28280124 0.04777987 -0.22820964
000080 4e 83 81 3d 78 28 84 3d e9 45 22 be 73 68 b0 bd
       0.063238725 0.06453031 -0.15846981 -0.08613672
000090 32 90 cc bd af 86 6c bd 69 ea f9 3c 4b 08 72 bd
       -0.099884406 -0.05774563 0.030507283 -0.05908994
0000a0 70 7c 85 3d 8c 6d 0d be f6 8f ae 3d d9 a7 96 bd
       0.06517875 -0.1381132 0.08523552 -0.07356233
0000b0 55 b2 01 bd 5e 2e af 3d 13 63 91 3d b6 1d 29 be
       -0.03166421 0.08553766 0.07098975 -0.1651524
0000c0 0d 05 30 bd a2 4f 1e 3e 95 2a 19 be f7 68 7f 3d
       -0.042973567 0.15460065 -0.1495765 0.06235596
0000d0 44 33 e3 3d 45 1c e1 3c 5e ed 75 bd a3 e6 b0 bd
       0.110937625 0.0274793 -0.060040824 -0.086377405
0000e0 89 2e cd bd ef 88 1d be 7d 6b 97 bd 1c fd 06 be
       -0.100186415 -0.15384267 -0.07393549 -0.13182491
0000f0 78 80 43 bd fd b4 e2 3d 9e 92 59 be ed dd e8 3d
       -0.04772994 0.11069677 -0.21247336 0.11370454

sequential/conv2d_2/BiasAdd/ReadVariableOp f4 [128]
000000 c5 d7 e5 bc aa af 81 3d 76 0e 8f bd 46 c4 85 3d
       -0.028056988 0.063323334 -0.0698518 0.06531577
000010 37 29 00 be 3f 40 87 bd 6d 74 7f 3d 30 b3 89 bd
       -0.12515722 -0.06604051 0.06236689 -0.067236304
000020 13 26 ba 3d 7d 92 bc 3b 19 58 9a bc cc 44 1a 3c
       0.09089293 0.0057547675 -0.018840836 0.0094158165
000030 e7 38 f4 3d f4 ff f0 bd a2 a6 de bd f8 6c 97 be
       0.11924916 -0.11767569 -0.108716264 -0.29575324
000040 6f 4c 2e 3d ee f9 0b 3e a6 d3 65 bd 74 2d 11 be
       0.04255336 0.1366956 -0.056110047 -0.14177495
000050 38 23 fb bd 76 e2 ad 3b d1 54 0f bd 7a bf e8 bd
       -0.12262577 0.0053065373 -0.034992997 -0.11364646
000060 01 5a a4 3d df b7 27 bc 28 58 b3 bd 1b 58 f8 bc
       0.080249794 -0.010236709 -0.08757049 -0.03031545
000070 e0 d5 3a be c8 79 28 3d 82 4c 2e be 66 6f 63 be
       -0.1824565 0.041131765 -0.17021373 -0.22210464
000080 a0 d2 a0 bd 5c e1 de bd eb 13 17 be 41 3c c5 3d
       -0.078526735 -0.10882828 -0.14753692 0.09630633
000090 38 c9 94 bd 49 d7 21 bb 11 ad af bd 66 ce 32 bd
       -0.07264942 -0.002469497 -0.08577932 -0.04365387
0000a0 ff 70 50 be cb dc c4 bc 15 c6 bb 3d 99 93 70 3d
       -0.20355605 -0.024031064 0.091686405 0.05873451
0000b0 a8 38 64 be 32 4b 1a be 7b a5 f8 3d d0 b5 6a be
       -0.22287238 -0.15067747 0.12140938 -0.22920918
0000c0 10 ae 8c bd 52 04 b0 bd a2 c8 c0 bb 0e e5 f8 3c
       -0.06869137 -0.08594574 -0.0058832923 0.03038266
0000d0 ec 49 01 bd 7d 66 09 be 8a 90 11 bc c2 17 50 3d
       -0.031564638 -0.13418002 -0.008884558 0.050803907
0000e0 0e bd ce 3d 7f 05 02 be e9 e6 6b be 7b c0 b9 3c
       0.10094653 -0.12697409 -0.23037304 0.02267479
0000f0 42 c5 a8 bd a0 35 92 3d 2b cc 14 3c 95 60 fb bd
       -0.08240749 0.071391344 0.009081881 -0.12274281
000100 1a f6 38 bd 93 0b 75 bc 92 ff b8 bc e6 fc 09 be
       -0.045156576 -0.014956373 -0.022582803 -0.1347538
000110 9e 76 d6 bd 09 e4 5f 3d eb 41 20 be 28 28 01 3d
       -0.10471843 0.05466083 -0.15650146 0.031532437
000120 8a 81 17 bd 9b 97 94 bd 98 53 5e bc 06 fe 09 bd
       -0.036988772 -0.07255479 -0.013569735 -0.03368952
000130 d6 af 87 bc ef 48 32 bd df fc 5b be 0e be 09 be
       -0.016563337 -0.043526586 -0.21483181 -0.13451406
000140 c9 f2 d4 bd 58 72 a1 bd ff 44 8d 3c e6 04 5f 3d
       -0.1039787 -0.078831375 0.017244814 0.05444803
000150 31 fa 3d be f8 9a 21 be e8 b9 60 bd dc 1e 97 3c
       -0.18552472 -0.15781772 -0.054864794 0.018447332
000160 4b 6c 4f bd ad 44 91 3c e6 c1 41 be f3 e6 d9 3d
       -0.050640386 0.017732942 -0.18921623 0.10639753
000170 0e 80 94 3c 9c af 51 bd 9d d8 af 3c d5 10 04 be
       0.018127467 -0.051192865 0.021465594 -0.12897046
000180 f2 82 a6 bd 69 b7 43 be 50 4e 44 3c d6 72 0f be
       -0.081304446 -0.19112934 0.011981562 -0.1400865
000190 de 04 ba 3d 34 b1 fb bd 74 7a 90 bd 27 8c 77 be
       0.090829596 -0.12289658 -0.07054606 -0.24174558
0001a0 fd db be bd 86 60 2d be 72 91 1b be 85 c4 94 bd
       -0.09319303 -0.16931352 -0.15192202 -0.072640456
0001b0 3b ae 12 be 19 5b fd 3b 25 d1 5d 3d 09 c6 df bd
       -0.14324276 0.007731807 0.054154534 -0.10926444
0001c0 19 50 a5 bd 42 a4 61 bd 20 61 f2 bc 2c 79 ba bd
       -0.08071918 -0.05508829 -0.029587328 -0.09105143
0001d0 86 4b aa bd b7 ba cb bd 71 b9 d6 bd 58 29 a1 3c
       -0.08315186 -0.099477224 -0.10484589 0.019673035
0001e0 7a 27 c2 bd 38 30 d4 3c fb 7b 60 be bd 57 dc bd
       -0.09480186 0.025901899 -0.21922295 -0.10758922
0001f0 3c 97 3f be ea fe c1 bd 87 e9 71 bd e1 58 8b bd
       -0.18710035 -0.09472449 -0.0590606 -0.06804062

sequential/conv2d/Conv2D f4 [32, 5, 5, 1]
000000 db cc d7 3d 2f 72 9f 3d 38 38 24 be e7 a1 4b 3d
       0.1053712 0.07785451 -0.16037071 0.04971495
000010 ca 4a d0 3d e1 7c 7b bd eb 48 58 be 86 71 f2 be
       0.10170515 -0.06139839 -0.21121566 -0.47352237
000020 91 b2 53 3c da 70 4f bd 58 fa 1c be 6e 3a b4 be
       0.0129209915 -0.050644733 -0.15329874 -0.35200828
000030 e9 c4 f6 be f3 45 36 be 80 19 4c 3d ee 58 82 be
       -0.48197106 -0.17800121 0.049829006 -0.25458473
000040 9a 53 d4 be 32 dd 48 be 57 a4 b3 bd 4d b2 8c 3c
       -0.41470033 -0.1961563 -0.0877158 0.017174864
000050 89 81 95 be 45 be d2 bd 72 1e 03 3e 2a 7a 5e bd
       -0.2920039 -0.10290197 0.12804583 -0.054315723
000060 1a da 93 bd 42 b6 54 3c aa ca ef 3d 0b 35 b2 bd
       -0.07219334 0.012982907 0.11708577 -0.087015234
000070 08 2d 04 bd f0 bd e6 3d 76 a5 28 be 24 45 45 3e
       -0.032269508 0.112666965 -0.16469368 0.19264656
000080 12 63 91 3d c9 ba dc 3d 20 bc ef 3c 21 4b 37 be
       0.07098974 0.10777814 0.02926451 -0.17899753
000090 bd 42 92 3d 6c 82 9a 3c bd e3 7e ba fe e3 77 3d
       0.071416356 0.018861018 -0.00097232667 0.060520165
0000a0 85 10 81 be 46 06 9e 3c 1b d4 dd 3d 5c 94 6a 3d
       -0.25207916 0.0192901 0.108314715 0.057270393
0000b0 65 73 1e 3c c4 e4 3e be 7e a1 cf 3c c6 67 a9 3d
       0.009671067 -0.18641955 0.02534556 0.08271746
0000c0 85 99 41 3d 02 f2 46 be 3f 9d 1d be bd 53 59 be
       0.04726555 -0.19428256 -0.15392016 -0.2122335
0000d0 d6 09 23 3d 2d f4 c8 3c d9 f2 16 bd 21 d4 29 be
       0.039804302 0.024530495 -0.03685269 -0.16584827
0000e0 57 b7 9e 3d c6 9a c6 3d cc c7 17 3d 94 da 91 3c
       0.07749813 0.096974894 0.037055776 0.017804421
0000f0 7a 1f 4f bd 4f 2b 85 3d 90 c7 fd 3d 9b e1 96 bc
       -0.050567128 0.06502401 0.12391579 -0.018418124
000100 09 ea 96 3c dd 6b 28 3e d4 cb 80 bc ec 98 89 3d
       0.018422144 0.16447397 -0.015722193 0.06718621
000110 a8 06 a1 bd bc d4 09 bd c5 f1 30 3d 31 4c 6e 3d
       -0.07862598 -0.033650145 0.04319932 0.05817813
000120 08 5d b0 be 67 15 23 3e 19 26 92 3c e0 67 e7 3d
       -0.34445977 0.15926133 0.017840432 0.112991095
000130 9c a9 00 3e 5d b1 e0 3d 32 49 b7 3c b9 dd 55 3d
       0.12564701 0.10971329 0.02237377 0.052213404
000140 4a e7 d6 3d e6 50 f4 3d 7e 50 2f 3e d4 e4 fd 3d
       0.10493334 0.11929493 0.17120549 0.12397161
000150 b3 6a 74 bd e0 ab a0 3b 96 0d f5 bc ae 6f f3 3c
       -0.05967207 0.0049033016 -0.029913705 0.029716339
000160 1a 22 81 3d 54 51 59 3c 1b 67 4a be 73 71 05 be
       0.063053325 0.013264019 -0.19765894 -0.13031559
000170 13 5c 9a bc dc 11 88 3d f7 b9 03 3d 90 f3 5d be
       -0.018842733 0.066440314 0.03215977 -0.21674943
000180 fa 0c 82 be d6 74 0f be 01 09 50 bd 48 c9 63 3d
       -0.25400525 -0.14009413 -0.050789837 0.05561188
000190 4f 6c 8d 3d a2 cb fc 3d 29 b8 07 be b1 77 26 3e
       0.06905424 0.123435274 -0.13253845 0.16256596
0001a0 58 d6 4b 3c 29 d9 5a be 74 cd bf be 46 3e 0b bf
       0.01244124 -0.21371903 -0.37461436 -0.54391897
0001b0 35 55 49 be 12 19 ed bd 20 6f 09 3d 46 fb 8b bd
       -0.1966141 -0.115770474 0.033553243 -0.06835036
0001c0 70 86 53 be a0 19 d1 bd 6b 4e e0 3d 8a 24 47 3d
       -0.20656753 -0.10209966 0.10952457 0.04861883
0001d0 09 17 8a 3d bc c3 6f bd 51 5c 7b 3d 02 a5 90 3d
       0.06742675 -0.058536276 0.061367337 0.07062723
0001e0 df 31 02 bb 1e 6e bd bc 00 dc 25 3d 6f 29 d8 3d
       -0.0019866151 -0.023123797 0.04049301 0.10554778
0001f0 77 8b d6 bc c7 eb 23 bd 8e 94 ad 3d fc cd 96 be
       -0.026189549 -0.040019777 0.084756 -0.2945403
000200 d4 3e ad 3d 89 b5 01 3e b6 fb 34 3e cb 47 0e be
       0.08459249 0.12666906 0.17674145 -0.13894574
000210 49 eb 85 bd b8 29 05 3e 78 57 1d be 86 0c 7c 3d
       -0.06539018 0.13004196 -0.15365398 0.06153538
000220 ed b9 7d bc 3e 0d 84 3c 83 64 8a 3d da 96 41 be
       -0.015486223 0.016119596 0.06757452 -0.18905202
000230 37 4b bc 3c c0 29 a0 3d e9 d8 a7 3d d2 37 77 bd
       0.022985084 0.07820463 0.08195669 -0.06035597
000240 46 63 8d be b0 85 36 bd 15 4c 79 3c 34 07 08 3e
       -0.27614802 -0.044561088 0.015215893 0.13283998
000250 b9 f6 37 be e9 b1 d2 bd cb 97 5f 3d 4f 10 06 be
       -0.17965211 -0.1028784 0.05458812 -0.13092159
000260 23 be e3 bd 2e f6 45 3d c6 86 59 be cb 7f f9 bb
       -0.1112025 0.04833048 -0.21242818 -0.007614111
000270 e6 db cc bc 5c da 17 3d 80 ff cd 3c 88 4a 7f 3d
       -0.0250072 0.037073478 0.025146246 0.062326938
000280 f5 91 8c be 4d a4 30 be 48 d7 9a 3d 52 92 57 3d
       -0.27455106 -0.17250176 0.07560593 0.052629776
000290 0d a7 9b 3c 19 f0 b6 3d 9b 2e 33 be 7a 79 56 be
       0.019000554 0.08932514 -0.17498247 -0.20944777
0002a0 58 7f 7b be 72 a0 da be a2 d6 80 3d 28 66 10 bd
       -0.24560297 -0.42700535 0.06290938 -0.035253674
0002b0 db 5f 2f bd 20 6f d3 3d 60 f7 08 3e 03 13 e3 3d
       -0.042816024 0.1032393 0.13375616 0.110876106
0002c0 33 15 09 bd 0c 76 9c 3d 7c 17 9f 3d 0c 83 5b 3e
       -0.033467483 0.07639703 0.07768151 0.21436709
0002d0 54 4e 06 bd 11 cd cf bb 6c df 15 bd 23 35 11 3d
       -0.032789543 -0.0063415845 -0.036590025 0.035451066
0002e0 3a 9d 11 3e 66 0f 2a 3c c5 03 7d bd 76 90 10 be
       0.14220133 0.010379648 -0.061771173 -0.14117607
0002f0 1e f3 e3 3c 6c d3 ce 3d 4a a8 0b be 8a 76 48 be
       0.027825888 0.10098919 -0.13638416 -0.19576469
000300 3a 7a 77 be 18 c9 02 be 33 ca 84 bd fe dc d3 bd
       -0.2416772 -0.12772024 -0.06483879 -0.10344885
000310 93 94 22 3e 67 7f 2c 3e 16 06 2f be 65 43 5d bd
       0.15876989 0.16845475 -0.17092165 -0.05401935
000320 40 e1 d7 bd e6 53 3d be 76 d7 34 3d 4d 55 3a 3d
       -0.1054101 -0.18489036 0.044150792 0.045491505
000330 24 c5 da 3d 12 a1 b4 bc 3e e0 20 be f1 d3 1b 3c
       0.10682133 -0.02204946 -0.15710542 0.00951098
000340 ef 46 06 be f6 45 1b be 36 f2 34 bd c7 1b 55 be
       -0.13112997 -0.15163407 -0.044176303 -0.20811377
000350 4a fa 81 bd d0 e9 1e be e8 2d 1e 3e cd 9b e7 bc
       -0.06346567 -0.1551888 0.154472 -0.028272534
000360 0f c8 29 be a1 b1 be 3c 6a ae 27 bc 66 c0 38 3e
       -0.16580223 0.02327806 -0.010234455 0.18042144
000370 ed aa 75 bc b7 de 0d bd b2 94 35 bd d2 8d d9 3d
       -0.014994365 -0.034636226 -0.04433126 0.10622753
000380 3b 75 bd 3c d0 f6 50 bd 01 cf a4 be d2 95 e0 bd
       0.023127189 -0.05101663 -0.3218918 -0.10966076
000390 8f 15 02 3e c5 59 8a bd 0d b6 62 be db 77 76 be
       0.12703536 -0.067554034 -0.2213976 -0.24069159
0003a0 83 35 83 3c f7 81 36 3d 47 77 1a bb 19 16 d4 bd
       0.016016727 0.044557538 -0.002356963 -0.10355777
0003b0 7a f6 4b bc bb 58 8b 3d 08 c8 10 be ce 0a 8d bd
       -0.012448901 0.06804033 -0.14138806 -0.068868265
0003c0 ff 92 33 3c e0 71 cc 3d 7a 4c 1b bd 5f 34 12 be
       0.01096034 0.099826574 -0.03791473 -0.1427779
0003d0 3c 7d 3e be 2b 56 25 3e db 1d 8a 3d cc 1a cd 3c
       -0.1860246 0.16146152 0.06743976 0.025037192
0003e0 18 6b 0f be 9f b7 15 be a3 61 84 3d c6 b1 72 be
       -0.14005697 -0.14620827 0.06463935 -0.23700628
0003f0 33 f1 d9 3c c4 c5 7a 3e 54 78 19 bd 37 b4 b0 3d
       0.02660427 0.24489504 -0.03746827 0.08628123

sequential/conv2d_1/Conv2D f4 [64, 5, 5, 32]
000000 83 19 b6 3d 40 60 27 be d3 a2 10 3d c6 ec e4 bd
       0.08891585 -0.1634531 0.03531153 -0.111779734
000010 eb 16 ba 3d 3c c1 d0 bd fe 5d 51 be bf bf aa bd
       0.090864025 -0.101931065 -0.20446011 -0.08337354
000020 bd 5e d7 3d cb 3b dd 3c cb 8f 8c bd 0d 64 17 be
       0.10516117 0.02700605 -0.06863364 -0.1478426
000030 2b 63 74 bd 41 69 6b bd a4 07 4c be a4 ad ab bd
       -0.059664886 -0.057473425 -0.1992479 -0.08382729
000040 23 a4 62 ba eb f9 26 bc e7 b8 e7 bd 37 1f 33 3d
       -0.0008645674 -0.010191421 -0.11314564 0.04373094
000050 72 7f 5c be 66 b1 32 be 34 dd 12 bd 43 7b dc bd
       -0.21532992 -0.17450485 -0.035855487 -0.10765698
000060 ab f9 b0 bd ca 35 5d 3d 5c 2c ce bc 3f 72 44 be
       -0.086413704 0.054006375 -0.025167637 -0.19184206
000070 b2 26 af bd 27 b1 0f 3e 2b 2c 7f 3d 1d 75 e3 bd
       -0.085523024 0.14032422 0.06229798 -0.11106322
000080 dd a3 9d bd 36 18 1a be e9 cc bc 3d e3 f3 88 bd
       -0.0769727 -0.15048298 0.09218771 -0.06687143
000090 5a 45 90 3c 3a 72 10 bc b7 e0 57 bd a7 0a 04 be
       0.017611194 -0.008816296 -0.05270454 -0.12894689
0000a0 63 17 d1 3b f8 97 2c 3d 91 c0 cc bd 18 1c 18 bd
       0.0063809617 0.042137116 -0.099976666 -0.037136167
0000b0 40 72 c6 3d ce 17 28 be b9 93 94 be d1 b5 ba bd
       0.0968976 -0.16415331 -0.29018953 -0.0911671
0000c0 6a b7 82 bc ac b6 8b bc 37 bb ab bc 27 bc c7 3d
       -0.0159566 -0.017054878 -0.020963294 0.09752684
0000d0 32 f6 d8 3b 03 b8 5c be 80 85 9c 3b 1b d6 0c 3e
       0.0066211456 -0.2155457 0.0047766566 0.1375355
0000e0 18 63 97 3b 2b 46 97 3d d0 56 af 3b f4 31 4a be
       0.004619967 0.0738643 0.005350925 -0.19745618
0000f0 8e 38 a5 bc 59 1d 94 bd e0 f0 61 be 42 3c c8 3a
       -0.020168569 -0.0723216 -0.22064543 0.0015276747
000100 99 75 26 3e c9 f8 bb bd 01 43 ab bd e0 46 23 be
       0.16255797 -0.091783114 -0.08362389 -0.15945005
000110 43 21 6d 3d fd da 3f bd f4 e7 f6 3c 5f 77 ee 3d
       0.05789305 -0.046839703 0.0301399 0.11643862
000120 3e 1e 9b 3c 75 bf 72 3d 73 74 e2 bd cb 8b a2 3c
       0.018935319 0.05926462 -0.11057367 0.01984205
000130 3e 80 f4 3d be f1 4d be 82 2f 27 bd 7e 82 45 be
       0.11938523 -0.20111749 -0.04081679 -0.1928806
000140 47 58 a0 3c 60 df 2e be f1 5f 50 bd 1b fb 04 be
       0.019573344 -0.17077398 -0.050872747 -0.12986414
000150 90 e6 aa 3c 7d 40 82 be a6 4a cc bc 4a 19 a1 bd
       0.020861894 -0.25439826 -0.024937939 -0.07866152
000160 ad f0 7b bd 9d 22 e1 3c fe df f5 bd a1 ea af bd
       -0.061508823 0.027482325 -0.12005614 -0.08589674
000170 fa 37 87 bd df c3 f7 3c 25 f5 3b be 65 b6 da bd
       -0.066024736 0.030244766 -0.18355234 -0.1067932
000180 45 87 84 3d a1 71 47 be dc fe f8 bc 77 72 c8 bd
       0.06471113 -0.1947694 -0.030394964 -0.097874574
000190 3c 7f 02 be 80 cd a0 bc c4 ba 85 be 4d ea 13 3c
       -0.12743849 -0.01962924 -0.26119053 0.00902803
0001a0 9e 4c 37 3e 9c d3 ae 3d e0 95 c5 bd d4 da 2e bb
       0.17900321 0.08536455 -0.09647727 -0.0026680725
0001b0 70 aa dd bd 41 04 8e be a6 b2 8b be a4 48 89 bd
       -0.10823524 -0.2773762 -0.27284735 -0.06703308
0001c0 b0 db 83 3d 99 8a 30 bc f8 15 55 bc 6e c8 28 3e
       0.064383864 -0.010775232 -0.013005726 0.16482708
0001d0 4e f2 99 bc 32 f8 70 be 55 95 da 3d 9b f3 fd bd
       -0.018792298 -0.23532179 0.10673014 -0.1239998
0001e0 6b 33 1c bd 84 93 5c 3d 25 84 8a bd a5 ee 38 bc
       -0.038134973 0.05385162 -0.06763486 -0.011287366
0001f0 e8 2d a8 bd 29 19 93 3c 4d 5d b0 bd 3e cd 23 be
       -0.08211881 0.017956333 -0.08611546 -0.15996262
000200 b2 42 30 3e 0a 93 1e be 4d 3e 39 bd 3d 96 ab bd
       0.17212942 -0.15485778 -0.04522543 -0.08378265
000210 32 21 46 3d fe 59 2f 3e 39 f4 a8 bc fb 9b 76 3d
       0.0483715 0.17124173 -0.020624267 0.06020735
000220 11 08 c4 3d 7d 21 5d 3e 79 fa 4d bd 39 1a 41 3e
       0.09571851 0.21594806 -0.050287697 0.1885766
000230 b5 d3 cc 3d bb 4b 08 be 47 67 82 be e1 78 4b be
       0.100013174 -0.13310139 -0.2546942 -0.1987033
000240 cd 19 a2 bd 9b 2d 68 bd 6a 89 88 bd 59 6a 8c 3e
       -0.07915077 -0.056684118 -0.06666835 0.27424887
000250 f8 a9 5e bc d1 23 cf bd c5 34 8b bd 35 80 87 3e
       -0.013590328 -0.10114253 -0.06797174 0.26465002
000260 0f 22 35 3d a2 65 9c 3c 4e 85 6a be bc e4 37 bd
       0.044221934 0.019091431 -0.22902414 -0.044895872
000270 59 14 ab bd 8c 6f 40 3e bd 2c 88 be d2 37 1b bd
       -0.083534904 0.18792552 -0.26596633 -0.03789503
000280 d7 e7 84 3d c0 d1 07 bd b6 85 c9 bd 25 81 6a be
       0.064895324 -0.033159018 -0.098399565 -0.22900827
000290 9e df ff bd d4 18 ac bd ea bb 9a be 8d 45 cf bd
       -0.124938235 -0.08403173 -0.30221492 -0.10120688
0002a0 e6 24 e0 ba 3c 95 93 3d e5 39 9e bd c0 9d 74 be
       -0.001710084 0.072061986 -0.07725886 -0.23888302
0002b0 7b 4f 48 3d f1 ba 38 bd 7a 1e b8 be a1 cb 9f bd
       0.048903923 -0.045100156 -0.35960752 -0.07802511
0002c0 b0 14 d1 3c 92 c2 7e 3d e9 5c 76 be 72 bb 11 3d
       0.02552256 0.062197275 -0.2405888 0.035579152
0002d0 e1 dc 60 be 8e 4c a5 be 06 27 28 3e bd 24 c3 3c
       -0.21959259 -0.3228497 0.16421136 0.02382123
0002e0 97 b5 2e bd 5e f7 99 39 29 62 d8 3c ec 65 5a be
       -0.042653646 0.00029366737 0.026413994 -0.21327943
0002f0 da 43 9d 3d 88 4c d6 3c 45 c2 72 3c 31 54 dc bc
       0.07678957 0.02615954 0.014816825 -0.026895614
000300 2a a0 fe bd 72 26 56 be c7 64 e4 3d 29 f1 53 be
       -0.124328926 -0.20913103 0.11152034 -0.20697464
000310 91 5b 02 3c 4d a1 56 3d 54 27 df bd d7 f7 73 be
       0.007956401 0.052399922 -0.10896173 -0.23825012
000320 2b 3f 19 be 57 12 ed 3d 4e 84 ce bc 37 9d 35 bd
       -0.14965503 0.11575764 -0.025209572 -0.044339385
000330 4d 23 e8 3d 53 5f 81 be b0 be 6e be 20 40 3b be
       0.11334858 -0.2526804 -0.23314929 -0.1828618
000340 ad c4 e0 3d 0d ac d5 bd a3 14 1d be dc 8e d3 3d
       0.10975013 -0.10433207 -0.15339904 0.10329983
000350 d3 4e 4a be cc 9b 9f bd 51 f4 88 bd 68 64 7e be
       -0.19756632 -0.07793388 -0.06687225 -0.2484299
000360 0c 92 2a 3d fc 5d 81 bc d4 7a 5b bc 97 e8 7f be
       0.041643187 -0.015791886 -0.013395984 -0.2499107
000370 13 8e 98 3c b8 ec 05 be 84 1f 38 be b1 ab 5e 3d
       0.018622434 -0.13078582 -0.17980772 0.054362956
000380 82 f6 f3 3d 5c bf 43 be ca 84 ff bd 45 d0 44 be
       0.11912252 -0.19115967 -0.124764994 -0.19220074
000390 85 c2 0d 3e a4 e8 14 be 8e e7 0e be 08 90 bb bd
       0.13843735 -0.1454187 -0.13955519 -0.09158331
0003a0 83 19 53 bb 4b 56 a8 bd 72 6c c1 bd ac 15 8d 3c
       -0.003221125 -0.08219584 -0.094445124 0.017222248
0003b0 a0 6a ba 3d 10 f6 13 be 49 b3 90 be 5c 26 17 be
       0.09102368 -0.14449334 -0.28261784 -0.14760727
0003c0 cb bd f6 bd 2b 77 f2 bc d2 8d 29 be eb 9b 93 3a
       -0.12047919 -0.02959784 -0.16558006 0.0011261677
0003d0 ef 54 66 3d 6d 42 99 be c3 36 33 3d d8 13 8c bd
       0.056233343 -0.2993349 0.043753397 -0.068397224
0003e0 87 5a 5f bd af 81 ca 3d ae 41 1b be c5 f9 08 be
       -0.054529693 0.098880164 -0.15161774 -0.1337653
0003f0 84 4d 12 bb 8b f2 02 3c c1 57 b8 bd a2 21 0a bb
       -0.0022324035 0.007992397 -0.09001113 -0.0021077176

sequential/conv2d_2/Conv2D f4 [128, 3, 3, 64]
000000 c1 cf 56 3e f6 1b 6d 3d 9c b1 d8 3d 84 03 b9 bd
       0.2097769 0.057887994 0.10580751 -0.09033874
000010 f9 18 cf 3c 4f a8 82 3d 1f da 0d 3e f7 2c c0 bc
       0.025280463 0.063797586 0.13852738 -0.02345894
000020 4e 6f fe bd 94 f5 1c be 73 19 e3 3c 94 eb fe bb
       -0.124235734 -0.15328056 0.027722096 -0.007779548
000030 09 a4 3b bc 83 d7 03 be 50 9a 2e 3e 68 fb 2e 3e
       -0.011452683 -0.1287518 0.17051053 0.17088091
000040 4c 5a 5b be 9b fa d6 3c 5f 5a af bd 11 1f 08 3e
       -0.21421164 0.026242545 -0.08562159 0.13293101
000050 dc ae d8 3d 53 a4 93 3d a1 bd 23 3e d1 2c fb 3d
       0.10580227 0.07209077 0.15990306 0.122644074
000060 58 0e c4 3d 53 0c 41 bd d9 de e7 3a 2e 96 43 3d
       0.09573048 -0.047130894 0.0017690315 0.047750644
000070 f7 07 20 be c3 c0 83 bd 34 d0 7d 3d 68 69 87 3b
       -0.15628038 -0.06433251 0.061966136 0.0041324385
000080 20 89 95 3c 5f db 5d 3d 0f 72 88 3d 24 08 9f 3d
       0.018253863 0.054164287 0.0666238 0.077652246
000090 e2 61 40 be 46 60 42 3d fd c0 9e bd 3e 14 39 3d
       -0.1878734 0.047455095 -0.07751653 0.04518532
0000a0 9f b1 03 3e c8 8e 0e 3b 18 2d 89 bc 26 dd 2b 3d
       0.12860726 0.0021752585 -0.016745135 0.04195895
0000b0 d2 12 4f 3e 9c 2e be 3c f0 a1 19 bd d8 26 0a be
       0.20222023 0.023215584 -0.03750795 -0.1349138
0000c0 d0 7b 7c 3e 34 41 11 3d 2f 4d 26 bc b3 ce 4b be
       0.24656606 0.035462573 -0.010150238 -0.19903068
0000d0 54 ee 1a be ee b8 ca bd 6c 37 0e 3e dc 1d e3 bd
       -0.15129977 -0.09898554 0.1388833 -0.110896796
0000e0 a0 bd 6c 39 c8 40 6b 3d 99 30 ae bd 96 37 1f bb
       0.00022577355 0.057434827 -0.08505363 -0.0024294606
0000f0 97 de 63 3d 53 13 92 bc a4 8d 87 bd d6 03 72 bd
       0.0556322 -0.01783148 -0.06618813 -0.05908569
000100 76 21 59 bc 2f 27 9b ba 5f 0e 15 3d b7 c5 85 3d
       -0.013252607 -0.0011837239 0.03639066 0.06531852
000110 fb 6f 66 bd 9a 9c c8 bd c5 00 02 3d 35 4d 17 3e
       -0.056259137 -0.097954944 0.031739015 0.14775546
000120 25 e9 8f bd ae 37 6c 3b cc 3b 1e 3e 53 ea d3 3d
       -0.07026891 0.003604393 0.15452498 0.10347428
000130 56 0f f0 3d 31 7f 4d bb 36 a4 8b bd 68 46 a7 bc
       0.11721675 -0.003135633 -0.0681843 -0.020419315
000140 fa 2a 54 be 7f f2 4f bd 20 aa 43 be 65 b5 bd be
       -0.2071952 -0.05076837 -0.19107866 -0.37052456
000150 e5 31 a2 3c 04 64 18 3d 4f d6 8c bc 03 1f 59 bd
       0.019799182 0.037204757 -0.017192034 -0.05300809
000160 8a ca a3 be 00 11 de bd aa 8c a5 bc 86 d0 df bd
       -0.31990463 -0.10843086 -0.020208675 -0.109284446
000170 77 3d 9c ba d1 49 d2 3c 81 bb 91 3c 84 1d 72 3e
       -0.0011920173 0.025669964 0.017789604 0.23644072
000180 d6 fd cc bd b5 ee 05 bd 52 98 23 3e 42 6d be 3b
       -0.10009353 -0.032698352 0.15976074 0.0058113644
000190 03 ba 32 bd d7 79 30 3c 94 1d e8 bc 92 8e b0 bc
       -0.043634426 0.010771236 -0.028334416 -0.021552358
0001a0 a7 0c 81 bd 7a e7 0c bd 21 e3 2a 3c ae 1c 11 bd
       -0.06301241 -0.03440044 0.010430128 -0.03542774
0001b0 e1 18 36 be 2a 83 2b be 4f 85 0f 3e 79 d0 9b 3c
       -0.17782928 -0.16749254 0.14015697 0.019020306
0001c0 7c ea 44 3d 93 85 d4 bc 65 5c cd 3c 5f 2a 58 bd
       0.048075184 -0.0259426 0.025068471 -0.052774783
0001d0 68 d8 b0 bd db 75 17 3e f5 cf dc bd 21 3c 50 bc
       -0.08635026 0.14791052 -0.10781852 -0.012709648
0001e0 db 92 1b 3d 42 70 d6 bd 1b b6 92 bd 30 6e f5 bc
       0.03798185 -0.1047063 -0.0716364 -0.029959768
0001f0 1b 9d e6 bd 96 1e d1 3d 08 70 a3 bd c2 82 96 3d
       -0.11260434 0.10210912 -0.07980353 0.07349159
000200 19 14 b8 bd 67 f7 ad bb c2 ac 8c bd 11 85 8a 3d
       -0.08988208 -0.0053090337 -0.068688884 0.06763662
000210 91 62 c6 bb 16 25 d2 bc c8 c4 35 3e 78 48 57 3e
       -0.0060542305 -0.02565245 0.17750847 0.21023738
000220 ac 6f 46 3d 40 72 e8 3d 96 b0 06 3e 48 0e 68 be
       0.048446342 0.113499165 0.131533 -0.22661698
000230 44 94 15 3e a6 f6 9c bc e0 9d 93 3d 92 a6 6a 3d
       0.1460734 -0.01916058 0.07207847 0.05728776
000240 41 e4 06 3e ff 2c 8e 3d cb 66 9c 3b 8d 71 cf bc
       0.1317301 0.06942176 0.004772996 -0.0253227
000250 6c 03 5b 3c 4c 76 b5 bd ba 25 86 3d 53 3c 92 bd
       0.013367515 -0.08860454 0.065501645 -0.07140412
000260 7a 8b af 3d cb 93 a7 bd 98 f0 22 be be 64 3a be
       0.08571525 -0.08182486 -0.15912092 -0.18202493
000270 06 05 cc bd c1 fe a1 3c aa 1d 8b be 16 d4 40 3d
       -0.09961896 0.019774796 -0.2717107 0.04707726
000280 77 61 90 bc de a0 17 3d 46 ce 31 3b 11 ef 1a 3d
       -0.0176246 0.03701865 0.0027131005 0.037825648
000290 d5 f7 86 bd 43 69 89 bd 22 d5 5f 3d b9 a5 b9 3d
       -0.06590239 -0.0670953 0.05464662 0.09064812
0002a0 ad 02 21 bd f9 b0 ab 3d ee ce 7e be 9b bd 36 bd
       -0.039309192 0.08383364 -0.24883625 -0.044614416
0002b0 ee e5 5d be 00 64 d5 3d 78 69 90 bc 25 94 9c bd
       -0.21669742 0.10419464 -0.017628416 -0.07645444
0002c0 c5 61 ae bd df 01 66 be 00 9c 4e bd f1 68 fd 3c
       -0.08514742 -0.22461651 -0.050441742 0.030933829
0002d0 1f bf b9 bd 0f f9 a4 3d 15 10 95 3c d7 58 f9 bd
       -0.090696566 0.08055317 0.018196145 -0.12175148
0002e0 cf 57 f0 3d e9 c9 ec bd de f3 03 be 81 e3 cc be
       0.11735498 -0.11561949 -0.12885997 -0.40017322
0002f0 4e 40 f2 bd ac 4b 11 3e 89 96 a0 3c 7e c8 79 be
       -0.118286714 0.14189023 0.01960303 -0.24392888
000300 3b 31 cb 3d 19 55 38 3c e6 8e 2f 3d 1e 12 6d bd
       0.09921499 0.011250758 0.042860888 -0.057878606
000310 0f 5b 1e be 44 d0 25 3e 6c eb 52 bd 60 5b 09 3d
       -0.15464424 0.16192728 -0.051494047 0.033534408
000320 02 73 42 3c 03 a8 17 be 01 f7 59 bd 08 04 0f 3d
       0.01186824 -0.14810185 -0.053214077 0.034915954
000330 20 b1 0c 3e 7e 1e e7 bd 52 f2 e2 bd ee 1f 1e 3e
       0.13739443 -0.11285113 -0.11081375 0.15441868
000340 6e ba 84 bd 55 4e 06 3d 72 3a 97 3c b9 4f 64 3e
       -0.06480871 0.032789547 0.018460486 0.22296037
000350 05 19 d4 bc 7b bc 61 3c 8d 06 06 3d 3d 44 91 bc
       -0.025890836 0.013777847 0.03272109 -0.017732734
000360 49 26 0a 3e 19 e3 61 bd a8 f7 ed 3c 4c 20 44 3d
       0.13491167 -0.055148218 0.029048756 0.047882363
000370 e8 86 84 bb 6a 5a 2c be f1 14 46 bd fc 07 4b 3d
       -0.0040444024 -0.16831365 -0.048359815 0.04956816
000380 49 0e a5 3d 87 4b 48 3d b7 06 ce bd 3c 88 79 bc
       0.08059365 0.048900153 -0.100598745 -0.015230235
000390 68 c8 71 be 7f 59 07 be ae 04 0f 3e 9a d9 1c bd
       -0.23611605 -0.13217734 0.13966629 -0.03829346
0003a0 f9 70 09 bd 5c c4 6f 3d 42 81 b5 bd 14 68 5b bc
       -0.033555005 0.058536872 -0.088625446 -0.013391513
0003b0 73 57 94 bd d2 84 a7 3d 99 23 11 bb 67 83 2c 3d
       -0.07243242 0.0817963 -0.0022146462 0.042117503
0003c0 7c 10 05 3e 75 cd b7 bd c7 ae d2 3d 7c 4e 2d 3d
       0.1299457 -0.08974735 0.102872424 0.042311177
0003d0 4d d5 8a bd dc 5b d6 3c 61 3c c6 bc 1e 28 a7 3d
       -0.06778965 0.026166849 -0.024198713 0.081619486
0003e0 ed 7e 02 3d 3f e5 18 bc 70 0e 04 be d8 81 fa bc
       0.031859327 -0.009332 -0.12896132 -0.030579492
0003f0 48 3e 17 3c 5d 6f c4 bd 23 d7 10 3e ba a9 bc bd
       0.009231158 -0.09591553 0.14144568 -0.0921206

sequential/lstm/Read_2/ReadVariableOp f4 [32]
000000 49 cf 20 3e 64 de 14 3d be f1 82 3d 48 29 71 3d
       0.15704073 0.0363449 0.06393765 0.05887726
000010 da 77 d7 3d c0 53 43 3d c4 4d 8c bd 4b 31 a4 3d
       0.10520907 0.047687292 -0.0685077 0.080172144
000020 c7 bb 74 3f ef 2c 88 3f 4e 83 8e 3f 1f be 8e 3f
       0.95599025 1.0638713 1.1133821 1.115177
000030 21 56 96 3f 7f 3b 99 3f 78 36 84 3f 92 62 98 3f
       1.1745034 1.1971282 1.0329123 1.1905081
000040 59 68 88 bd b2 41 77 3e 25 1d c2 3d 7c 37 c4 bd
       -0.06660528 0.24146155 0.09478215 -0.09580895
000050 1b 75 8b bd 27 e8 c9 bd 30 ea 41 bd 89 fb b3 3d
       -0.068094455 -0.09858733 -0.04734248 0.08788211
000060 95 c0 cc 3c 65 45 19 3e ca 03 4d 3e 8b 2c 87 3e
       0.024994174 0.14967878 0.20020977 0.2640117
000070 9d 5b 35 3e 8d 34 ab 3e a2 c3 3d 3e 58 66 07 3e
       0.17710729 0.3343853 0.18531659 0.13222635

sequential/batch_normalization/FusedBatchNormV3 f4 [32]
000000 e2 06 ae 41 ec 47 81 3f 5c 19 f9 3f d1 39 69 3f
       21.75336 1.0100074 1.9460864 0.91103846
000010 fb 36 d7 40 06 ce 03 40 52 b1 25 41 c0 e3 31 40
       6.7254615 2.0594497 10.355791 2.7795258
000020 1a 88 b7 40 08 91 90 40 42 f1 49 3f 32 1f 0e 40
       5.735364 4.517704 0.78883755 2.220654
000030 09 e6 a7 3f cd 48 41 41 bd e1 23 41 f4 3a 95 3f
       1.3117076 12.080274 10.242612 1.1658616
000040 ed ea 83 40 02 d0 72 40 20 80 ac 40 9b ea 43 40
       4.1224275 3.7939458 5.3906403 3.0611942
000050 ca e6 6e 40 bc fb 86 3f 0e 49 bf 40 32 03 59 40
       3.7328362 1.0545573 5.977668 3.39082
000060 66 ac ed 3f 43 5d f6 3f 95 3c 62 3f 3a 6e 48 40
       1.8568237 1.9247211 0.8837369 3.1317277
000070 f0 c7 6f 3f 2d 90 bf 40 bf 39 40 3f a4 c3 85 3f
       0.93664455 5.9863496 0.75088114 1.045033

sequential/batch_normalization/FusedBatchNormV31 f4 [32]
000000 6f ac cb be 6f 0f 92 be 25 0a 41 be 1a 32 87 be
       -0.39779994 -0.285274 -0.18851526 -0.26405412
000010 70 8e dd be 67 06 9f be 18 59 06 be 70 0b 51 be
       -0.43272734 -0.31059572 -0.13119924 -0.2041452
000020 eb 82 6d bf 55 29 e7 bd 88 04 03 be 4c a4 14 bf
       -0.9277789 -0.1128718 -0.12794697 -0.580632
000030 fa 4f 9a be c5 9f 19 be 3d 6a 9b bd f3 d5 4c be
       -0.30139142 -0.15002353 -0.07588623 -0.2000349
000040 10 fe e9 bc 4f 8e c8 bd 3a d9 54 bf 41 c2 ff bd
       -0.02856353 -0.09792768 -0.8314396 -0.12488223
000050 0b 5e 46 be c6 d1 a3 be 18 87 ec bd 81 b5 70 be
       -0.19371812 -0.31995982 -0.115492046 -0.23506738
000060 c1 e5 0c bf 35 e7 82 be 54 7e 09 be 2c b7 99 be
       -0.55038077 -0.25567022 -0.13427097 -0.30022562
000070 ca 59 be bd f7 fd 38 bf a4 38 cd bd 80 4c 24 be
       -0.0929447 -0.7226252 -0.10020569 -0.16044807

sequential/batch_normalization_1/FusedBatchNormV3 f4 [64]
000000 0a 6e f3 3e eb a7 b9 3e 89 6a a7 3e c7 de ad 3e
       0.4754489 0.36260924 0.32698467 0.33959028
000010 13 1e 4a 3f 7e aa 2f 3f 63 08 4e 3e ed 24 65 3f
       0.7895214 0.68619525 0.20120387 0.8950947
000020 41 91 55 3e f7 4c 4e 3e 67 b1 e9 3e 69 db bc 3e
       0.20856191 0.20146547 0.4564316 0.36886147
000030 ce fd 31 3f 99 54 30 3d b8 a5 48 3f ba cb 4a 3f
       0.695279 0.04304943 0.78377867 0.7921711
000040 dd 43 27 3f 42 d2 43 3e 86 96 0e 3f d3 5f d9 3e
       0.65337926 0.19123176 0.5569843 0.4245592
000050 ea 23 03 3f b3 04 7f 3e 50 96 cc 3e c6 f0 16 3f
       0.51226676 0.24904136 0.3995843 0.5896114
000060 e2 31 50 3f 63 f2 54 3f f0 96 6d 3e 91 8f a1 3e
       0.81326115 0.8318235 0.2320211 0.31554845
000070 a0 12 3b 3f 72 c9 2f 3e a8 6c 7d 3f 2c b4 9b 3e
       0.73075294 0.17166689 0.9899392 0.30410898
000080 3d c5 80 3f cf 8c 03 3f a8 74 e8 3e 58 8c 08 3f
       1.0060192 0.5138673 0.45401502 0.5333915
000090 bb cb 76 3f 73 b0 1a 3e e9 c3 f7 3e f6 62 43 3f
       0.9640462 0.15106373 0.48391655 0.7632288
0000a0 19 cc fa 3e a1 d1 b4 3f 4e c1 3e 3f 06 c5 02 3f
       0.4898384 1.4126474 0.7451371 0.51081884
0000b0 ad b6 69 3f 90 d4 a3 3e 06 12 54 3f cb e3 12 3e
       0.91294366 0.3199811 0.8284 0.14344709
0000c0 62 d0 92 3f 71 ae 85 3e 2f 97 05 3e f3 1f b2 3e
       1.1469843 0.2610965 0.13045953 0.3479
0000d0 8d 9f d9 3e 0a 59 1a 3f 10 cb 58 3f 77 50 83 3f
       0.4250454 0.6029211 0.8468485 1.0258931
0000e0 68 4d 73 3f 0f 3f 04 3f 55 88 dc 3e 89 a3 68 3f
       0.9503999 0.5165872 0.43072763 0.90874535
0000f0 b5 dc 78 3f e2 29 0b 3f 6b 57 d2 3e 05 02 30 3f
       0.9721177 0.54360783 0.4108232 0.6875308

sequential/batch_normalization_1/FusedBatchNormV31 f4 [64]
000000 5a 38 c9 bd 6c 18 81 3d 08 e5 f8 bc 92 73 da bd
       -0.09825201 0.06303486 -0.030382648 -0.106665745
000010 d0 36 c6 be d6 01 0f be 6e 47 82 be d9 ea bb be
       -0.38713694 -0.13965544 -0.25445122 -0.36702612
000020 84 b3 17 be a8 3d fb bc d2 a4 c9 be 30 58 e3 3d
       -0.14814574 -0.030669048 -0.3938356 0.11100805
000030 54 65 cb be 1c 42 a5 3d de 15 15 bf e6 ac bc be
       -0.39725745 0.0806925 -0.5823649 -0.3685066
000040 86 7f 0a bf 2e a3 66 be 52 78 f6 be ec 22 9e bd
       -0.54100835 -0.22523186 -0.48138672 -0.077215046
000050 69 d0 75 be 62 30 29 be f3 1d 6f be b6 31 ce be
       -0.24005283 -0.16522363 -0.23351268 -0.402723
000060 4f b4 cc be 5e ff 19 bf d9 d2 4d be 74 db c0 bd
       -0.39981315 -0.60155284 -0.20099963 -0.09416857
000070 bd 79 60 be 0b 3a 68 be 72 37 21 bf 64 13 4c 3d
       -0.2192144 -0.22678392 -0.6297523 0.04982318
000080 4c 8a c4 be 10 a0 90 be 54 f2 07 bd d4 82 c1 bd
       -0.38386762 -0.28247118 -0.033190086 -0.094487816
000090 02 97 4b be 1d a2 2d be 3e f6 1c be 67 f9 b4 be
       -0.19881824 -0.16956373 -0.15328309 -0.3534653
0000a0 80 f6 79 be 23 45 8b be 12 9f 66 be b0 a2 4d bd
       -0.24410439 -0.27201185 -0.22521618 -0.05020398
0000b0 c7 ad 1c bf 7d 11 be be d3 6e 1b bf c8 13 82 3d
       -0.61202663 -0.37122717 -0.6071598 0.06351429
0000c0 d1 37 d8 be 56 15 ce be 10 2c ee bc f7 59 c2 be
       -0.42230085 -0.40250653 -0.029073745 -0.37959263
0000d0 35 50 d4 be 47 57 5d be 60 83 65 bc 56 96 9e be
       -0.41467443 -0.21615325 -0.014008373 -0.30974072
0000e0 3e c2 9d be df c7 02 be 7f f4 93 be f9 cc 41 be
       -0.30812258 -0.12771557 -0.28897473 -0.18925847
0000f0 49 8a 08 bf 00 a6 8d be a0 e1 f9 3b c8 9d c7 be
       -0.53336006 -0.2766571 0.0076257735 -0.38987565

sequential/batch_normalization_2/FusedBatchNormV3 f4 [128]
000000 2e d1 41 3e 0e b7 a0 3e 02 e6 0a 3e 2f 3f a6 3e
       0.18927452 0.3138966 0.13564304 0.3247008
000010 bc 23 59 3f 1f 40 96 3e 42 d4 88 3e 72 5a f1 3e
       0.8482015 0.29345796 0.2672444 0.47139317
000020 61 a7 fd 3d 78 7d 30 3e 69 f5 1e 3f 44 81 75 3e
       0.123854406 0.17235363 0.62093216 0.23975092
000030 0d c2 4d 3f c6 98 b7 3f 9e d9 7a 3e 24 de 66 3f
       0.80374223 1.4343498 0.24497077 0.9018271
000040 f3 a3 f5 3d ad 01 7d 3e de ce e3 3d a1 03 21 3f
       0.119941615 0.2470767 0.11123441 0.6289616
000050 2f ca 01 3f 04 b2 68 3e 2e 3c 03 3e 76 83 0a 3f
       0.5069913 0.22724158 0.12815925 0.54106843
000060 92 5d 0c 3e 64 ca ad 3f 53 26 c7 3e 7a ca 93 3f
       0.13707569 1.357739 0.38896427 1.1546166
000070 8b 26 ae 3f b9 56 e9 3d 03 d0 75 3f 4e 96 95 3f
       1.3605512 0.11393494 0.96020526 1.1686494
000080 41 c8 55 3f 6a 2e f3 3e bb c7 b3 3e d2 20 09 3e
       0.8350869 0.4749635 0.3511332 0.13391426
000090 f8 2a b3 3e e2 03 22 3f 1b 81 88 3e 62 32 a1 3e
       0.3499372 0.63287175 0.26661 0.31483752
0000a0 df 92 32 3f b1 60 a8 3e da b3 63 3e 64 79 0b 3e
       0.6975536 0.3288627 0.22236577 0.13620526
0000b0 c1 78 8d 3f fc a6 b2 3e 7a 93 47 3f ec 9b 1b 3e
       1.1052476 0.34893024 0.77959406 0.15196198
0000c0 c8 b5 23 3e 06 6d 2b 3e aa 29 4b 3f 87 af 24 3e
       0.15987313 0.16740808 0.7936045 0.16082583
0000d0 e7 f8 c6 3e e2 c6 81 3f b3 36 30 3e 41 6c d5 3d
       0.38861772 1.0138819 0.17208366 0.104210384
0000e0 f4 50 37 3f 5a 17 81 3f bd 51 9b 3e 44 12 78 3f
       0.716079 1.0085251 0.303358 0.9690287
0000f0 4c d4 fd 3e 0f 67 32 3f ca 66 90 3e 5e cc 9c 3f
       0.49576032 0.69688505 0.28203422 1.2249868
000100 27 4d e0 3e e5 d9 a3 3e a4 ea c7 3d 18 8a e3 3e
       0.43808863 0.32002178 0.09761551 0.44441295
000110 f2 d6 51 3e de 70 b2 3e 35 24 d4 3f 0e 83 0a 3f
       0.20492151 0.34851736 1.657355 0.54106224
000120 b8 cc 6a 40 70 9d 4d 3e 26 fe 21 3f a2 5b 91 3e
       3.668745 0.20079589 0.63278425 0.28390223
000130 94 c5 37 3f 8c 43 51 3f af 04 ed 3e 13 d2 15 3f
       0.71785855 0.81743693 0.46292636 0.5852367
000140 e0 5e d5 3e cc ae 91 3e 05 99 0f 3e 7e 15 81 3e
       0.41673946 0.28453672 0.14023216 0.2521171
000150 c2 0f 61 3e 94 c5 b4 3f 38 5e 87 3e 80 e8 e0 3e
       0.21978667 1.4122796 0.2643907 0.43927383
000160 cb e0 48 3e 2e 9c 92 3e 23 78 84 3e a2 80 b4 3e
       0.19617002 0.2863478 0.25872907 0.3525439
000170 f8 be 1c 3f 31 85 89 3f b3 be ff 3d 58 ef 8f 3e
       0.61228895 1.0743772 0.12487545 0.28112292
000180 75 be 18 3f 02 27 a1 3f 4a 03 b4 3e b5 58 24 3e
       0.59665614 1.2590029 0.3515876 0.16049464
000190 5f b1 08 3f 19 7c 9e 3e 46 00 17 3f c2 50 a3 3f
       0.53395647 0.30954054 0.5898479 1.275902
0001a0 8b 73 af 3e e7 80 5d 3f 87 cf ae 3e fd 01 05 3e
       0.3426784 0.86524814 0.34142706 0.1298904
0001b0 b1 cc 9b 3f 82 ec 1c 3f c6 be bf 3e 1e 1b 82 3f
       1.2171842 0.6129838 0.37450236 1.0164526
0001c0 a1 bc 72 3e 2d e9 74 3e a8 1d 68 3f 1a 2d 27 3f
       0.23704769 0.23917075 0.9067025 0.65303195
0001d0 85 8b 37 3e eb 8f 25 3f 07 85 73 3e d4 3b b8 3f
       0.17924316 0.64672726 0.23781215 1.4393258
0001e0 90 a3 8b 3f fd 93 9f 3e 3c d6 98 3f a7 7f eb 3f
       1.090929 0.31167594 1.1940379 1.8398331
0001f0 51 19 56 3f b4 db 31 3f 3a 8c 80 3f 87 1e 30 3e
       0.8363238 0.69475865 1.0042794 0.17199145

sequential/batch_normalization_2/FusedBatchNormV31 f4 [128]
000000 3d 8f 02 bf fb 0a fd be ae 18 04 bf 10 0e cf be
       -0.50999814 -0.4942244 -0.5160016 -0.40440416
000010 93 66 00 be 40 51 de be 38 59 df be 83 c0 a1 be
       -0.12539129 -0.43421364 -0.43622756 -0.31592187
000020 1c 32 0c bf b2 fa 79 be 95 08 80 be 18 d7 c0 be
       -0.5476396 -0.24412039 -0.25006548 -0.37664104
000030 81 12 5f be 48 2b a7 be 24 78 b7 be 8a ad 0e be
       -0.21784402 -0.32650208 -0.35833848 -0.13933387
000040 23 13 0c bf 8a 7d 7d be 01 47 d4 be ca 4f 41 be
       -0.547167 -0.2475492 -0.41460422 -0.18878093
000050 d6 52 af be d1 d8 3f bf d2 94 f3 be 7d 6e 9a be
       -0.34242886 -0.7494021 -0.47574478 -0.3016242
000060 05 33 da be 5b 28 40 be 96 ca be be c8 2e 11 be
       -0.4261705 -0.18765394 -0.37263936 -0.14178002
000070 8b 2c 98 be 8a 32 e3 be d4 9d 1c be b0 0e 73 be
       -0.29721484 -0.44374496 -0.15294582 -0.23736072
000080 7f 10 87 be 06 34 9b be 06 99 c5 be 8f a7 d3 be
       -0.26379773 -0.30313128 -0.3859331 -0.41338775
000090 35 57 9b be 4f 76 aa be 3f 97 e4 be 3d e7 74 be
       -0.3033997 -0.33293387 -0.44646642 -0.23916335
0000a0 77 0d 38 be 22 60 90 be 13 96 e8 be 00 87 85 be
       -0.17973886 -0.28198344 -0.45426998 -0.2607956
0000b0 e0 3e 22 be 9a 77 e2 be c4 93 55 be 8f 3b 50 be
       -0.15844297 -0.44231874 -0.2085715 -0.2033522
0000c0 6d 58 0f bf 9c c2 a1 be 25 00 24 be 00 16 e6 be
       -0.559943 -0.31593788 -0.1601568 -0.4493866
0000d0 1a 77 a2 be 8e 75 6a be f7 64 8c be 25 75 10 bf
       -0.31731492 -0.22896406 -0.2742078 -0.5642875
0000e0 c7 01 be be 0c 4b 38 be 11 9f 84 bd 62 73 41 be
       -0.3711073 -0.17997378 -0.06475652 -0.18891671
0000f0 0c 05 18 be 54 d7 64 be 94 0e 8d be 67 a8 98 be
       -0.14845675 -0.22347766 -0.27550185 -0.2981598
000100 65 47 28 be a0 08 01 bf a8 a5 06 bf 78 2e 8b be
       -0.16433485 -0.50403786 -0.5259652 -0.2718389
000110 98 99 ae be 0b e2 d6 be 87 bc 85 be 0b 53 a7 be
       -0.34101558 -0.41969332 -0.26120397 -0.32680544
000120 60 73 cc bd 14 e8 c8 be e0 63 93 be f2 5c c2 be
       -0.099829435 -0.39239562 -0.28787136 -0.37961537
000130 68 e2 62 be 82 8a 90 be e6 15 a9 be ca bf 9b be
       -0.2215668 -0.28230673 -0.3302452 -0.3041976
000140 33 01 be be 24 36 8d be 2d ee 2b bf ee 82 de be
       -0.3711029 -0.2758037 -0.671603 -0.43459266
000150 7b 8b b5 be 35 fa 04 be fe db 03 bf 8b 6a be be
       -0.35457978 -0.12986071 -0.51507556 -0.3719066
000160 9e 12 f4 be 18 80 11 bf a5 81 26 be 20 95 bc be
       -0.47670454 -0.5683608 -0.16260393 -0.36832523
000170 97 24 3f be f9 6a 82 be 0b 58 9a be 1d f7 8e be
       -0.18666302 -0.2547224 -0.30145296 -0.27922907
000180 0e ef 4a be 0e cc 29 be 2b 8b bf be 2e 69 bd be
       -0.19817755 -0.16581747 -0.37410864 -0.36994308
000190 fb d1 f1 be ca 04 84 be 5a 4c 6b be e4 51 1a be
       -0.47230515 -0.25784904 -0.22978345 -0.15070301
0001a0 cd f5 f9 bd 78 2b 60 be 03 f2 a0 bd a3 c1 c5 be
       -0.12205086 -0.21891582 -0.0785866 -0.38624296
0001b0 70 2a 21 be 94 2e b1 be 2e 15 e3 be 4d 15 21 be
       -0.15738845 -0.3460585 -0.44352096 -0.15730782
0001c0 dc 3c e5 be 03 51 d1 be 89 c6 89 be 47 fe 58 be
       -0.44772995 -0.4088212 -0.26909283 -0.21190749
0001d0 aa 6d 05 bf 52 56 ab be 54 f6 57 be cc c7 f4 bd
       -0.5212046 -0.33464295 -0.2109006 -0.11952171
0001e0 b0 4d ae bd 47 6e e6 be e2 cf b2 be c9 91 35 be
       -0.085109115 -0.4500601 -0.34924227 -0.17731394
0001f0 0b 00 45 be ed 25 b2 be 5c 4f f4 bd 0b 62 b9 be
       -0.19238298 -0.3479456 -0.11929199 -0.36207613

sequential/dense/MatMul f4 [1, 8]
000000 8d d7 b5 3f 9c ba ae bf 24 74 e8 bf ba 3a d2 3f
       1.4206406 -1.3650699 -1.8160443 1.6424172
000010 73 61 d2 3f c4 f3 b9 3f ea d0 aa 3f 2d f2 dd bf
       1.6435989 1.4527516 1.3345006 -1.7339531

sequential/lstm/Read_2/ReadVariableOp1 f4 [32]
000000 49 cf 20 3e 64 de 14 3d be f1 82 3d 48 29 71 3d
       0.15704073 0.0363449 0.06393765 0.05887726
000010 da 77 d7 3d c0 53 43 3d c4 4d 8c bd 4b 31 a4 3d
       0.10520907 0.047687292 -0.0685077 0.080172144
000020 c7 bb 74 3f ef 2c 88 3f 4e 83 8e 3f 1f be 8e 3f
       0.95599025 1.0638713 1.1133821 1.115177
000030 21 56 96 3f 7f 3b 99 3f 78 36 84 3f 92 62 98 3f
       1.1745034 1.1971282 1.0329123 1.1905081
000040 59 68 88 bd b2 41 77 3e 25 1d c2 3d 7c 37 c4 bd
       -0.06660528 0.24146155 0.09478215 -0.09580895
000050 1b 75 8b bd 27 e8 c9 bd 30 ea 41 bd 89 fb b3 3d
       -0.068094455 -0.09858733 -0.04734248 0.08788211
000060 95 c0 cc 3c 65 45 19 3e ca 03 4d 3e 8b 2c 87 3e
       0.024994174 0.14967878 0.20020977 0.2640117
000070 9d 5b 35 3e 8d 34 ab 3e a2 c3 3d 3e 58 66 07 3e
       0.17710729 0.3343853 0.18531659 0.13222635

while/MatMul_11 f4 [32, 8]
000000 f7 34 92 be 9f 4d a4 3e 64 f4 9a 3e 0a ad 34 3b
       -0.28556034 0.3209047 0.3026458 0.002756896
000010 d7 e8 f2 bc 2d 37 61 bc 2c cd 94 3e 9f 8b bd bc
       -0.029652042 -0.013746065 0.29062784 -0.023137866
000020 a3 77 2f bd ab 1a 88 3e 56 a2 47 3f c7 a7 c5 be
       -0.042838704 0.26582846 0.7798208 -0.38604566
000030 c9 23 8e be 3a 3b 3f bf 30 1d 2f bf 32 f9 1e 3f
       -0.27761677 -0.7469975 -0.6840391 0.6209899
000040 47 17 50 bf 2a c1 b7 3e 51 73 31 3e 79 e9 99 bc
       -0.8128552 0.3588956 0.17329146 -0.018788086
000050 1a 52 b5 be 89 b2 02 bf ee f9 cd 3d 69 6e d9 bd
       -0.354142 -0.51053673 0.10057436 -0.10616762
000060 1c de fc bd 17 9f 1f 3e 6c 0f 16 3d 95 d2 e3 bd
       -0.123470515 0.15588032 0.0366358 -0.1112415
000070 e9 09 0d 3e 03 73 a1 be c4 18 66 3e 9b 85 a6 be
       0.13773312 -0.3153306 0.22470385 -0.32523808
000080 f9 dd d7 be c0 92 d9 bd 54 5c 43 3e 2a ad 33 bd
       -0.4216154 -0.106236935 0.19078189 -0.043866314
000090 3a 9a d6 3d 8e 95 2a 3e 36 86 d0 3e b5 ac 1e be
       0.10478635 0.16658613 0.40727395 -0.1549557
0000a0 00 0e fe be 14 78 d4 3e 7a 54 03 3f 4c 4b d1 be
       -0.49620056 0.41497862 0.51300776 -0.4087776
0000b0 7a 25 5a be 1c 72 8e be 11 b7 37 bd e7 2b 77 3e
       -0.21303359 -0.27821434 -0.04485232 0.24137841
0000c0 23 29 26 bf e8 ab ee 3e 81 4f c9 3e fd e5 eb bd
       -0.6490652 0.4661553 0.3931847 -0.11518476
0000d0 49 72 84 be 68 f1 2b bf a0 9b 94 bd 31 0b f9 3e
       -0.25868443 -0.6716523 -0.072562456 0.4864135
0000e0 af 16 09 bf f1 fb fa 3e 2c c4 03 3f 44 da 8a be
       -0.5355024 0.4902034 0.5147121 -0.27119648
0000f0 d9 7e 19 be e1 f1 31 bf fa 52 67 be 71 8b 8d bb
       -0.14989795 -0.695097 -0.22590247 -0.004319601
000100 f6 15 34 3e ed f7 b9 bc 80 a4 47 be 3b db b2 3e
       0.17586502 -0.022701228 -0.19496346 0.34932885
000110 bf 13 a0 3e ff c4 9d bc 79 c3 4c be ca f2 27 3e
       0.31265065 -0.019258974 -0.19996442 0.1640121
000120 a1 f5 d1 bd c8 c4 9d be 9b 2b dd 3e d8 1f cd be
       -0.10251928 -0.30814195 0.4319733 -0.40063357
000130 66 76 fc be af 29 9b be 47 ce 99 3d 6c ec f9 3e
       -0.4930908 -0.3030524 0.075100474 0.48813188
000140 27 cf 91 3e 35 3a 53 3e 1b 3e 06 be 19 60 a2 3e
       0.28478357 0.20627673 -0.13109629 0.31713942
000150 c1 82 7d 3d 68 27 b5 bc 69 3b fc 3e 2f 00 c6 3e
       0.061892275 -0.022113517 0.49264076 0.38672015
000160 5c 78 3d be 88 78 8f 3e 0a 49 0f bd 67 a4 ae be
       -0.18502945 0.28021646 -0.034981765 -0.34109804
000170 45 7c c0 3d ab 32 b5 3e 53 43 86 be 37 ff 94 3e
       0.093987025 0.3539022 -0.2622324 0.29100963
000180 06 c7 36 3e 96 a2 1d 3e bb 47 74 3e 3f 19 84 3e
       0.17849359 0.15394053 0.23855488 0.2580051
000190 20 af 9b be 95 90 f1 3b 7f 8f 28 bd f4 10 22 3e
       -0.30407047 0.007371972 -0.041152474 0.1582678
0001a0 dc da 01 3f 6d f4 ac 3e 34 ee d5 bc cf 73 56 be
       0.5072458 0.33780232 -0.02611456 -0.20942615
0001b0 98 c0 c5 bd ba 90 a0 3e b2 35 18 3e 6f 3e c8 bc
       -0.09655875 0.31360418 0.14864233 -0.024443833
0001c0 78 5d 18 3d 0b a9 cd 3c e1 2b 8f bd bd c3 0a 3e
       0.037198514 0.02510502 -0.06990791 0.1355123
0001d0 dd b0 97 3e 70 ac 2b 3d f3 eb 85 3c 81 2e af 3e
       0.29627123 0.041912496 0.01634786 0.34215167
0001e0 12 cb a4 ba d2 b2 4e 3e 8f c1 3f be 57 81 b5 3e
       -0.0012572727 0.20185402 -0.1872618 0.3545024
0001f0 8b 80 24 3e ae 31 d2 3d f8 9d 7f be 96 d3 92 3e
       0.1606466 0.10263382 -0.24962604 0.28677052
000200 13 73 59 be 4f f7 86 bc 71 a7 4a be 0b 23 06 3e
       -0.21235304 -0.016475348 -0.19790436 0.13099305
000210 92 64 3b 3e 79 01 06 3f fd fe ad 3e f6 bc 0e bf
       0.18300083 0.52346 0.33983603 -0.5575708
000220 59 2f 51 be 60 b8 37 3d ee 6f 97 bd f3 35 df bd
       -0.20428218 0.044853568 -0.07394396 -0.10898962
000230 0a 08 84 bd f3 81 82 be 73 32 85 be b2 8b 8c bd
       -0.06446846 -0.25489768 -0.26015052 -0.06862582
000240 e2 9c dc bb 50 56 9c 3d b2 17 54 be 70 2b 11 3d
       -0.006732569 0.0763365 -0.20712164 0.035441816
000250 2c 28 88 3d 83 76 a5 be dd c4 06 bf c2 8b 18 3e
       0.06648287 -0.3231698 -0.5264414 0.14897063
000260 08 42 08 bf 0d 0a 27 3e 62 9c ff 3d c1 71 3a 3e
       -0.53225756 0.16312428 0.124809995 0.18207456
000270 93 8e 26 3e 3b d3 15 3f a6 3d e2 3e 69 06 3f be
       0.16265325 0.5852544 0.4418766 -0.18654789
000280 30 8a e2 bd d7 b7 9e be a5 af 47 3d fd 94 92 3e
       -0.110615134 -0.30999634 0.048751492 0.28629294
000290 dc ef 34 3d cc 2b 5f 3e bf 7f 82 3e 2f ea c3 be
       0.04417406 0.21794051 0.25488088 -0.38264605
0002a0 e4 41 29 be ee 6d 3d be ab 26 ff 3c 21 a1 bf bd
       -0.16529042 -0.18498966 0.031146368 -0.09356905
0002b0 42 c8 11 3f ae 13 81 be ad 98 08 3f d5 2a fb be
       0.56946194 -0.25210327 0.53357965 -0.49056116
0002c0 aa ca c4 bd 7d 91 97 be 65 49 ce 3d 6e 33 d0 3d
       -0.096089676 -0.29603186 0.10072593 0.101660594
0002d0 fa d3 91 bb d9 f9 e5 3d 2f 2a f5 3d 7e b0 e0 bd
       -0.0044503184 0.11229295 0.119709365 -0.10971163
0002e0 81 32 3f be 08 7d a9 be f4 11 bf 3d 26 54 7b bc
       -0.1867161 -0.33103204 0.09329596 -0.015339887
0002f0 da 3b 5a bc 06 59 cb be 9a 09 b5 be 72 28 38 3e
       -0.013319934 -0.39716357 -0.35358888 0.17984179
000300 32 56 02 be 7b 12 cc 3e b8 e8 39 be b2 d0 18 be
       -0.12728193 0.3985785 -0.18155181 -0.14923361
000310 5d e1 5b 3e c3 9a f4 3d 24 85 8b 3e 73 95 2b bc
       0.21472688 0.11943581 0.27250016 -0.010472643
000320 89 81 ca be 43 a8 83 3d be 89 26 3d 95 36 98 be
       -0.39551952 0.06428578 0.040658705 -0.29729143
000330 cc d9 c7 be 66 59 fe be 8c 6e 20 be e1 3a 8d 3e
       -0.39033353 -0.4967758 -0.1566717 0.27583984
000340 ed 54 8f be 7f e5 2b 3e d9 70 a6 be 46 b7 02 3c
       -0.2799448 0.16786765 -0.3250797 0.007978266
000350 d0 34 a4 bc 59 42 9a 3d 61 02 42 be 23 c0 a2 3e
       -0.020044714 0.07532186 -0.1894622 0.31787214
000360 25 88 6e 3c b4 b4 b7 3d 1c 02 40 bd 3d ed 94 be
       0.014558827 0.08970013 -0.04687701 -0.29087248
000370 71 33 51 be e1 e2 06 3e 7e 3c 2a 3e 39 3c 91 3d
       -0.2042978 0.13172485 0.16624638 0.07091565
000380 70 b7 7f 3e 63 40 61 3e c2 55 42 3e 1d f9 00 be
       0.2497232 0.21997218 0.18978027 -0.12595029
000390 66 fd 5d be d2 4b ad 3e 2e f7 2a 3e 6a 8f 0b be
       -0.21678695 0.3384691 0.16695854 -0.13628927
0003a0 c9 c1 7c 3e e9 c1 09 3f d5 12 8b be 05 95 c5 3e
       0.24683298 0.5381151 -0.27162805 0.38590255
0003b0 98 dd 14 be a3 6c 33 3d c8 46 9d 3e ed 3d 1a be
       -0.14537656 0.043804776 0.30718064 -0.15062685
0003c0 a8 bc 41 be 34 32 e2 bb e9 68 6f 3d 6d 52 86 3d
       -0.18919623 -0.0069029573 0.05844966 0.0655869
0003d0 87 3a 6f bd dc 9e 89 3d 2a 25 1a be 1c cb 90 bc
       -0.058405425 0.06719753 -0.1505324 -0.017674975
0003e0 54 0d 29 3e 3e 05 6f 3e 08 86 06 3e 64 b1 ab 3e
       0.1650899 0.23341843 0.13137066 0.33533776
0003f0 d3 dd f0 bb 26 ae f8 3d 48 4c 2e bd b1 03 81 3d
       -0.0073506623 0.12142591 -0.042553216 0.06299532
