models/model.tflite (tflite, 281580 bytes, 25 tensors)

sequential_1/time_distributed/sequential/conv2d/BiasAdd/ReadVariableOp f4 [32]
0.16073278 0.14119437 0.052205715 0.099807024 0.071244985 0.0709973 0.0628268 0.0030315225
-0.015024965 -0.00022575432 -0.025992326 0.06521218 0.22361563 0.0661963 0.12430074 0.08641716
0.061234053 0.0082667675 0.05786716 0.034951378 0.13557783 0.03229502 0.2115584 0.079180144
0.04654059 0.13920182 0.048724487 0.1466064 0.062899984 0.058826916 0.06850757 0.0065776645
00000000: 2297 243e 4295 103e a9d5 553d a067 cc3d
00000010: e4e8 913d 0867 913d 56ab 803d 82ac 463b
00000020: 452b 76bc 77b8 6cb9 dced d4bc f78d 853d
00000030: 7ffb 643e ed91 873d 6391 fe3d 7bfb b03d
00000040: 8fd0 7a3d 5671 073c 1d06 6d3d 2d29 0f3d
00000050: ead4 0a3e c847 043d c4a2 583e 3329 a23d
00000060: 58a1 3e3d ec8a 0e3e 5493 473d fd1f 163e
00000070: b5d1 803d 7ef4 703d b24d 8c3d 7389 d73b

sequential_1/time_distributed/sequential/conv2d_1/BiasAdd/ReadVariableOp f4 [64]
-0.18194489 -0.12557152 -0.05074556 -0.17970005 -0.041509237 -0.48013946 -0.014966272 -0.033857614
-0.008306148 0.10527337 -0.14479521 -0.0060977167 -0.034617666 -0.095538884 -0.2767852 -0.13211995
-0.19700336 -0.31345183 -0.0033832286 -0.22003998 -0.0058992114 -0.1689505 0.01882434 0.20007566
-0.036456734 -0.16027619 0.01029798 -0.17311591 -0.04099693 -0.10872707 -0.20078221 -0.03464466
-0.06343214 -0.0872512 -0.40112656 0.1206811 -0.020925438 0.17752497 -0.102831155 0.095519945
-0.0068621244 -0.023633592 0.031622175 -0.14863454 -0.08411602 0.014522334 -0.17870621 -0.021120539
-0.069118135 0.11518396 0.12898734 -0.2326978 -0.11707716 -0.00035524374 -0.042657163 -0.09092452
-0.09412222 -0.05361527 -0.055349182 0.0524477 0.07136074 0.1883597 -0.13494287 0.15211341
00000000: c34f 3abe d295 00be 94da 4fbd 4a03 38be
00000010: 9705 2abd d7d4 f5be 1835 75bc 48ae 0abd
00000020: 8316 08bc 9199 d73d 3245 14be 5bcf c7bb
00000030: 41cb 0dbd e4a9 c3bd cab6 8dbe 744a 07be
00000040: 40bb 49be c27c a0be 28b9 5dbb 2952 61be
00000050: 2c4e c1bb 5c01 2dbe 8135 9a3c a2e0 4c3e
00000060: a853 15bd 711f 24be dcb8 283c 4c45 31be
00000070: 66ec 27bd 4cac debd da99 4dbe 8fe7 0dbd
00000080: b6e8 81bd c2b0 b2bd 7660 cdbe a727 f73d
00000090: d36b abbc 1bc9 353e 2499 d2bd f69f c33d
000000a0: acdb e0bb 3c9b c1bc 4186 013d a733 18be
000000b0: 0545 acbd 15ef 6d3c c3fe 36be fb04 adbc
000000c0: cf8d 8dbd 91e5 eb3d 4215 043e 5548 6ebe
000000d0: 26c6 efbd 0240 bab9 47b9 2ebd a236 babd
000000e0: 27c3 c0bd af9b 5bbd d3b5 62bd 66d3 563d
000000f0: 9425 923d 5de1 403e 772e 0abe 9ec3 1b3e

sequential_1/time_distributed/sequential/conv2d_2/BiasAdd/ReadVariableOp f4 [64]
0.10792806 -0.011748848 -0.035572212 -0.1636425 -0.14054891 -0.045078967 -0.068227604 0.17110802
0.1047983 0.023439273 -0.1635216 0.025650093 -0.12006952 -0.03655962 0.06710901 -0.0011003988
-0.09299943 0.0014399845 -0.13842495 -0.12214801 -0.0059974086 0.127949 0.03201578 -0.04228528
0.03643696 -0.2076232 -0.028730908 -0.021638578 -0.034947477 0.044969596 0.040590655 -0.011733983
-0.10744855 0.00853984 0.015250883 -0.029436572 -0.1193766 -0.08193798 0.0132989865 0.08004813
-0.052487735 -0.13230433 0.112586364 -0.045611583 -0.25209028 -0.03720726 0.059625886 0.07509357
-0.1247176 -0.0156202065 0.19463627 -0.030782439 0.057127673 -0.12323886 -0.15623456 -0.12508766
-0.042292017 -0.1395736 -0.0460668 -0.003991485 -0.07878255 -0.029642545 0.02382468 0.063915506
00000000: 6309 dd3d 3d7e 40bc 2bb4 11bd e691 27be
00000010: 0eec 0fbe b9a4 38bd eaba 8bbd f136 2f3e
00000020: 7ea0 d63d b803 c03c 3572 27be 2520 d23c
00000030: 02e7 f5bd 8abf 15bd 7370 893d 423b 90ba
00000040: 7c76 bebd ddbd bc3a 45bf 0dbe bc28 fabd
00000050: e985 c4bb 1005 033e fb22 033d 5433 2dbd
00000060: ec3e 153d 2d9b 54be 155d ebbc 6343 b1bc
00000070: 1625 0fbd 0a32 383d 6342 263d e43f 40bc
00000080: fc0d dcbd afea 0b3c d7de 793c f724 f1bc
00000090: b87b f4bd 1acf a7bd fee3 593c 46f0 a33d
000000a0: 61fd 56bd c97a 07be ae93 e63d 36d3 3abd
000000b0: fa11 81be a466 18bd 463a 743d a8ca 993d
000000c0: f16b ffbd e5eb 7fbc bb4e 473e 742b fcbc
000000d0: b5fe 693d a864 fcbd f4fb 1fbe fb16 00be
000000e0: 653a 2dbd 62ec 0ebe 8ab0 3cbd 01cb 82bb
000000f0: bf58 a1bd ecd4 f2bc fa2b c33c 22e6 823d

sequential_1/time_distributed/sequential/conv2d/Conv2D f4 [32, 5, 5, 1]
-0.07966008 -0.07576901 -0.2808482 -0.096820824 0.06144684 -0.12320227 -0.028575292 -0.19014704
0.032774784 0.069527686 -0.011358729 0.07024814 0.031901613 -0.018202426 0.00066288677 -0.027171923
0.24247892 0.046830468 0.19687077 0.08524806 -0.10153223 0.0679359 0.007682238 0.22341952
0.08223891 -0.109927684 0.07631507 0.03993749 0.12865397 0.08263214 -0.20164229 -0.07412113
0.094867684 -0.0076286565 0.14675066 -0.05751172 -0.0024825295 0.021406403 0.093960345 0.09247801
-0.08565146 -0.13071574 -0.008168556 0.146576 0.23824896 -0.08780023 -0.26806322 -0.19456762
-0.066025905 -0.06423533 -0.19767119 -0.28606904 -0.13309097 -0.010817733 -0.120387 0.1942603
0.18388356 0.073352024 0.09315174 0.13697878 0.081121475 0.06135795 0.0116088 -0.06083739
0.05865162 0.114754416 0.12136636 0.0802614 -0.085202254 -0.02507704 -0.08705558 -0.18042453
-0.05032829 -0.027568968 -0.12484022 0.0210565 -0.09124514 -0.13530855 0.24417159 -0.056127988
0.082236595 -0.21056026 -0.041554663 0.15739873 -0.08121262 -0.03438447 -0.045054417 0.007891974
-0.03993632 -0.08588178 -0.0986716 0.1129274 0.1548709 -0.04579648 -0.18462135 -0.06713238
0.17190519 0.14893162 -0.2246828 -0.023479516 -0.070085414 0.033813424 -0.13893762 -0.18485607
-0.3877265 0.13221566 0.013574855 -0.331833 -0.2607835 -0.6205561 0.13720065 0.052024458
-0.039177883 -0.09741039 -0.63415414 0.03006898 -0.004231274 -0.20479718 -0.09056 -0.39434355
-0.072823025 0.017322479 -0.061660595 -0.022072133 -0.36097628 -0.02215426 0.16528888 -0.098537676
-0.11730468 0.106774785 -0.07307269 0.13995576 0.11928131 0.03391953 0.20288669 -0.10162148
0.13842702 -0.06413563 0.06200631 0.04779197 -0.063492835 -0.07228698 0.06743494 0.29884687
-0.005342005 -0.119850054 0.046695035 0.015305405 0.17725736 -0.08972726 0.225632 0.1337113
-0.06045132 0.049062766 0.17389919 -0.011643767 -0.115070075 -0.08401882 -0.014309517 0.054051444
-0.17603445 -0.19369072 0.11418463 -0.043918785 -0.16727294 -0.21426603 -0.16851702 0.0695426
-0.013149778 -0.13116133 0.054137636 0.052402977 -0.057269644 -0.17765287 -0.101687774 0.20573008
0.2703328 -0.028667035 -0.0995868 0.06373319 0.13618943 0.08348724 -0.028729483 0.009336648
-0.05248081 0.020586273 0.062402662 -0.049654026 -0.14435886 0.06715202 0.13886447 0.04127339
-0.058749933 -0.10784035 -0.033363096 -0.0038577153 0.074060336 -0.15026836 -0.25757566 -0.0007598346
0.0503779 0.14722823 0.16826954 -0.02246023 0.006659775 0.02030902 0.24543104 0.21258238
0.03077524 -0.06976154 -0.057719138 0.1057743 0.033906277 -0.015532359 -0.06446088 -0.009978911
0.1913842 0.15570828 0.09436428 -0.09693641 -0.014683674 0.2802768 -0.030175427 0.10237554
-0.0244599 0.04412943 -0.13819012 0.18010181 -0.023597777 -0.022988105 0.090135865 0.12729444
0.2472751 0.058926165 -0.0052086986 -0.030667119 0.052694947 0.10799474 -0.0141214635 0.09539708
-0.16055462 0.02007878 0.2624276 0.030592026 0.034133464 0.013917405 0.1357856 0.08578377
-0.020295648 0.16540472 0.016466146 0.15092386 0.08853713 -0.08430039 -0.09887155 -0.007883952
00000000: d324 a3bd c82c 9bbd 56cb 8fbe ff49 c6bd
00000010: afaf 7b3d 7951 fcbd bb16 eabc e8b5 42be
00000020: da3e 063d 8864 8e3d f619 3abc 42de 8f3d
00000030: 44ab 023d 411d 95bc 94c5 2d3a a797 debc
00000040: 654c 783e 4ed1 3f3d 7e98 493e 8996 ae3d
00000050: 21f0 cfbd fa21 8b3d 48bb fb3b 16c8 643e
00000060: e06c a83d c421 e1bd 134b 9c3d 7e95 233d
00000070: debd 033e 0a3b a93d 517b 4ebe d2cc 97bd
00000080: fd49 c23d cff9 f9bb ce45 163e 6991 6bbd
00000090: efb1 22bb 7b5c af3c 486e c03d 1c65 bd3d
000000a0: 086a afbd 59da 05be 68d5 05bc 0518 163e
000000b0: 89f7 733e 9bd0 b3bd 953f 89be bc3c 47be
000000c0: 9738 87bd d08d 83bd 516a 4abe a477 92be
000000d0: 0049 08be dc3c 31bc 768d f6bd 2cec 463e
000000e0: f94b 3c3e 9639 963d 57c6 be3d 2a44 0c3e
000000f0: 0423 a63d 7952 7b3d d632 3e3c a130 79bd
00000100: ae3c 703d 5d04 eb3d ed8e f83d 1760 a43d
00000110: 857e aebd 5d6e cdbc 324a b2bd 35c1 38be
00000120: 0925 4ebd 51d8 e1bc 3bac ffbd ae7e ac3c
00000130: bbde babd 538e 0abe 1e08 7a3e 76e6 65bd
00000140: a96b a83d 1c9d 57be 3935 2abd 222d 213e
00000150: cd52 a6bd bbd6 0cbd fb8a 38bd 574d 013c
00000160: 4494 23bd c9e2 afbd 5614 cabd 7b46 e73d
00000170: 7a96 1e3e 1795 3bbd 610d 3dbe b47c 89bd
00000180: ea07 303e 8881 183e 3f13 66be 1d58 c0bc
00000190: f188 8fbd f27f 0a3d aa45 0ebe e94a 3dbe
000001a0: 1684 c6be 8b63 073e 1269 5e3c 04e6 a9be
000001b0: 6a85 85be c4dc 1ebf 547e 0c3e 9917 553d
000001c0: fd78 20bd 197f c7bd ed57 22bf 3953 f63c
000001d0: 80a6 8abb 5ab6 51be 8577 b9bd 66e7 c9be
000001e0: 3d24 95bd dfe7 8d3c d28f 7cbd 9ed0 b4bc
000001f0: e2d1 b8be da7c b5bc 7d41 293e 1fce c9bd
00000200: 703d f0bd bdac da3d 22a7 95bd 9050 0f3e
00000210: c249 f43d 35ef 0a3d 87c1 4f3e ec1e d0bd
00000220: d0bf 0d3e 8b59 83bd 54fa 7d3d 83c1 433d
00000230: 8808 82bd 320b 94bd 541b 8a3d 7502 993e
00000240: fc0b afbb f273 f5bd 4b43 3f3d 85c3 7a3c
00000250: f482 353e edc2 b7bd 130c 673e 9deb 083e
00000260: ce9b 77bd 0af6 483d a112 323e 80c5 3ebc
00000270: dca9 ebbd 0f12 acbd 7772 6abc 0c65 5d3d
00000280: 6042 34be dc56 46be a2d9 e93d 2fe4 33bd
00000290: 9949 2bbe 8e68 5bbe ba8f 2cbe 5a6c 8e3d
000002a0: 2b72 57bc 284f 06be 6dbf 5d3d 81a4 563d
000002b0: 9393 6abd a2ea 35be ae41 d0bd e8aa 523e
000002c0: 1069 8a3e 21d7 eabc 2af4 cbbd 8c86 823d
000002d0: 3e75 0b3e 5cfb aa3d 185a ebbc bdf8 183c
000002e0: 1ef6 56bd 8ba4 a83c ef99 7f3d 0562 4bbd
000002f0: cfd2 13be 0087 893d 7d32 0e3e 490e 293d
00000300: c5a3 70bd 67db dcbd bea7 08bd b9d1 7cbb
00000310: f2ac 973d f3df 19be f5e0 83be a32f 47ba
00000320: 0f59 4e3d ffc2 163e da4e 2c3e 84fe b7bc
00000330: 3e3a da3b 1a5f a63c 4652 7b3e 32af 593e
00000340: 5b1c fc3c 23df 8ebd e76a 6cbd 32a0 d83d
00000350: 4fe1 0a3d 6f7b 7ebc 1104 84bd 967e 23bc
00000360: 38fa 433e fe71 1f3e 0f42 c13d 9986 c6bd
00000370: cb93 70bc 7180 8f3e 7532 f7bc 44aa d13d
00000380: 2160 c8bc 10c1 343d b681 0dbe 9c6c 383e
00000390: 2050 c1bc 8d51 bcbc 2799 b83d 7959 023e
000003a0: af35 7d3e 905c 713d bbad aabb 9c39 fbbc
000003b0: a8d6 573d 592c dd3d b65d 67bc 8b5f c33d
000003c0: 6e68 24be 417c a43c e95c 863e 219c fa3c
000003d0: 88cf 0b3d d405 643c 610b 0b3e 67af af3d
000003e0: 0f43 a6bc db5f 293e 03e4 863c c98b 1a3e
000003f0: f452 b53d afa5 acbd 2b7d cabd b12b 01bc

sequential_1/time_distributed/sequential/conv2d_1/Conv2D f4 [64, 3, 3, 32]
-0.08083265 0.0014559365 -0.013108174 0.118061595 0.05868702 -0.00776525 -0.10335027 -0.047213674
-0.022902839 -0.054199107 0.049887367 -0.073919125 -0.034604907 0.0184815 0.008853794 -0.23924898
-0.23000102 0.046594962 0.1230238 -0.07054011 -0.118670836 -0.021564873 -0.054550346 -0.09326448
0.18073449 0.108309075 -0.059787348 0.073481746 0.048914175 -0.097453184 0.06403195 0.022793086
0.0433415 0.03627956 -0.22987656 0.14696121 -0.13773252 -0.01936111 0.022717416 -0.0106313415
-0.123731025 -0.08878447 -0.04998646 -0.07976618 -0.07834619 -0.122365974 0.08280507 -0.10925464
-0.1374513 -0.14518099 0.01161753 -0.12905726 0.18911533 -0.014212476 0.14007208 0.02363624
-0.04859507 0.18560348 -0.012389274 0.069118306 -0.07506236 0.13492444 0.07531195 -0.06153715
0.08313931 0.016021682 0.03050845 0.17858328 -0.02270273 0.1718904 0.07269939 0.057096735
-0.02708043 0.04647156 -0.02429257 0.0011177091 0.16480981 0.30163416 0.053306915 0.005071429
-0.08879589 -0.07953727 0.19037765 -0.03142271 0.10503893 -0.002939667 0.07959557 -0.100494005
-0.19659929 -0.09631492 0.051939882 -0.13311726 0.15886474 0.07533987 -0.18664567 0.19284496
-0.05329021 0.0070120185 -0.009867916 -0.03358869 0.046449862 -0.02172383 0.042313736 -0.010007631
0.032800887 0.018104022 -0.029758932 -0.07920696 -0.033010338 -0.0057550953 0.032689564 -0.045267217
0.0026842428 -0.13353162 0.046661012 -0.004399241 0.04353672 0.008488747 0.015540595 0.21622612
0.0038918927 -0.18795718 0.016617727 -0.08923009 -0.044716954 -0.15820873 -0.09152608 0.12685217
-0.07025176 0.19335032 -0.17431977 0.15350407 -0.3018758 -0.035569035 -0.046616215 -0.008197647
-0.2188131 -0.025512174 -0.15495133 -0.3023632 0.12347649 -0.18557854 0.11547451 -0.041860532
-0.24462818 -0.234833 0.08103644 -0.10288591 0.09748863 -0.117437035 0.09362119 -0.072249316
-0.2319361 0.02774345 -0.14718565 -0.20991886 -0.019026438 -0.28063798 -0.05975215 -0.10818415
0.13756332 -0.15266582 -0.28212488 0.11578683 0.0025332067 0.13079333 -0.04338233 0.15077318
-0.052558772 -0.046582043 -0.11066408 -0.23955882 0.11335506 -8.69694e-05 0.09570468 -0.106413245
-0.0031616918 -0.20549867 0.20276043 -0.10148502 0.04910195 -0.035760604 -0.14250238 0.21115077
-0.21045499 -0.14532802 -0.0035668116 -0.3059751 -0.0154742645 -0.13385306 0.02977916 0.071770355
-0.29225084 0.18626969 -0.07312759 -0.042413775 0.20640785 -0.19894788 0.016731035 0.036040764
-0.15464075 -0.17649132 -0.17716023 0.08972041 -0.01930837 -0.024493584 0.014737157 0.26162693
0.085816115 -0.02864055 -0.12834729 -0.058420215 0.10925727 -0.10062431 -0.09938222 0.21736404
-0.033109937 -0.121801116 -0.19477953 -0.086840905 0.08775486 -0.24590556 0.004427186 0.010648348
-0.114223845 -0.043050203 -0.08563316 0.0060044974 -0.3577646 -0.005309383 0.02688886 -0.115282185
-0.18803574 0.012406314 -0.11115415 0.08302768 0.030535122 -0.13707961 -0.12762158 0.09991787
-0.12020373 -0.09271898 0.055873204 -0.055584088 0.020684367 0.11159944 -0.14189982 0.0028972614
-0.2553269 0.0066359485 -0.074763626 -0.07439093 -0.22124809 -0.15543409 0.044653703 -0.24286142
00000000: 978b a5bd 1fd5 be3a abc3 56bc 47ca f13d
00000010: cd61 703d a373 febb 4ea9 d3bd 2063 41bd
00000020: bc9e bbbc e2ff 5dbd b256 4c3d e962 97bd
00000030: e0bd 0dbd 8466 973c 810f 113c affd 74be
00000040: 6385 6bbe 5cda 3e3d e7f3 fb3d 5577 90bd
00000050: b209 f3bd d1a8 b0bc 2f70 5fbd 7301 bfbd
00000060: 7612 393e 26d1 dd3d 94e3 74bd 997d 963d
00000070: 3b5a 483d 8995 c7bd 2f23 833d 91b8 ba3c
00000080: db86 313d e099 143d c364 6bbe 007d 163e
00000090: c109 0dbe 319b 9ebc e019 ba3c 142f 2ebc
000000a0: b166 fdbd a2d4 b5bd 9abe 4cbd 735c a3bd
000000b0: f873 a0bd 039b fabd b495 a93d e6c0 dfbd
000000c0: 09c0 0cbe 53aa 14be 7457 3e3c 9627 04be
000000d0: 73a7 413e 72db 68bc 0e6f 0f3e caa0 c13c
000000e0: a00b 47bd d70e 3e3e 62fc 4abc e68d 8d3d
000000f0: 4bba 99bd a229 0a3e 273d 9a3d 610e 7cbd
00000100: f144 aa3d e73f 833c dbec f93c 89de 363e
00000110: 13fb b9bc 0904 303e 6be3 943d 44de 693d
00000120: c7d7 ddbc f658 3e3d 3601 c7bc 1880 923a
00000130: e7c3 283e cb6f 9a3e 5a58 5a3d 3b2e a63b
00000140: 9fda b5bd 70e4 a2bd 5cf2 423e 19b5 00bd
00000150: a71e d73d 6ea7 40bb 0103 a33d cdcf cdbd
00000160: 5351 49be c240 c5bd eabe 543d e44f 08be
00000170: 70ad 223e ca4b 9a3d 0b20 3fbe 2679 453e
00000180: d646 5abd 13c5 e53b 0aad 21bc 4b94 09bd
00000190: 3642 3e3d 2cf6 b1bc 2b51 2d3d 0cf7 23bc
000001a0: 395a 063d e34e 943c 01c9 f3bc 4237 a2bd
000001b0: d935 07bd 3d95 bcbb 7ee5 053d 1e6a 39bd
000001c0: 1fea 2f3b 83bc 08be 9e1f 3f3d 8227 90bb
000001d0: 8f53 323d 6314 0b3c fb9d 7e3c 616a 5d3e
000001e0: 200f 7f3b d977 40be e621 883c 44be b6bd
000001f0: 2029 37bd 7801 22be 0772 bbbd 89e5 013e
00000200: 28e0 8fbd a0fd 453e e280 32be 2c30 1d3e
00000210: 778f 9abe d6b0 11bd a5f0 3ebd 6c4f 06bc
00000220: 8b10 60be e8fe d0bc 90ab 1ebe 59cf 9abe
00000230: 3ee1 fc3d 4d08 3ebe e67d ec3d f375 2bbd
00000240: cf7f 7abe 1078 70be 6ff6 a53d d9b5 d2bd
00000250: 1ea8 c73d d482 f0bd 77bc bf3d 73f7 93bd
00000260: a880 6dbe 3b46 e33c d6b7 16be f8f4 56be
00000270: 55dd 9bbc c8af 8fbe acbe 74bd a78f ddbd
00000280: 66dd 0c3e 6e54 1cbe ac72 90be a521 ed3d
00000290: 2804 263b b0ee 053e acb1 31bd 4964 1a3e
000002a0: de47 57bd d0cc 3ebd d9a3 e2bd e84e 75be
000002b0: b326 e83d 5763 b6b8 d100 c43d 30ef d9bd
000002c0: 6334 4fbb 3e6e 52be 6ea0 4f3e 61d7 cfbd
000002d0: 201f 493d b679 12bd 25ec 11be e837 583e
000002e0: 8381 57be ded0 14be 2bc1 69bb c5a8 9cbe
000002f0: c587 7dbc c710 09be 6df3 f33c 56fc 923d
00000300: e7a1 95be 7bbd 3e3e ebc3 95bd 11ba 2dbd
00000310: 945c 533e feb8 4bbe 860f 893c 7b9f 133d
00000320: 255a 1ebe 24ba 34be 7e69 35be 56bf b73d
00000330: 962c 9ebc c5a6 c8bc 1e74 713c f7f3 853e
00000340: 5cc0 af3d 969f eabc 796d 03be 094a 6fbd
00000350: 47c2 df3d 1e14 cebd e888 cbbd ae94 5e3e
00000360: 499e 07bd dd72 f9bd 4974 47be a5d9 b1bd
00000370: d2b8 b33d abce 7bbe ee11 913b 6976 2e3c
00000380: 31ee e9bd 6955 30bd 7060 afbd 60c1 c43b
00000390: ec2c b7be 55fa adbb 0746 dc3c 1119 ecbd
000003a0: 718c 40be da43 4b3c c9a4 e3bd 6b0a aa3d
000003b0: cb24 fa3c 995e 0cbe 3baf 02be bda1 cc3d
000003c0: 602d f6bd 73e3 bdbd 4ddb 643d 24ac 63bd
000003d0: 4372 a93c 3f8e e43d 304e 11be fbdf 3d3b
000003e0: 35ba 82be 5f72 d93b ac1d 99bd 465a 98bd
000003f0: dc8e 62be 1d2a 1fbe cde6 363d aab0 78be

sequential_1/time_distributed/sequential/conv2d_2/Conv2D f4 [64, 3, 3, 64]
-0.18012482 -0.17650579 -0.18193755 0.15579373 -0.11725075 -0.18858102 0.11378511 -0.117136165
0.09795842 -0.065487675 -0.19393332 0.003745423 -0.037930813 0.06265721 0.026380125 0.1696719
0.1446694 -0.20958425 0.009046443 -0.03589481 -0.05027406 -0.029877506 0.043708928 0.061646055
0.009428266 0.020347405 -0.03511075 0.10183604 0.026210342 -0.15977828 0.033911653 -0.053127617
0.030748274 0.10164436 0.034587402 -0.11080056 0.008840632 -0.16533308 -0.11667513 0.068624206
-0.14629334 -0.16235384 -0.12409457 0.09024139 -0.36868486 -0.04074847 -0.11527803 -0.008587531
-0.34692895 0.020082727 -0.16116482 -0.003688458 -0.081122465 -0.16986692 0.010197135 -0.2346534
-0.29200274 -0.05183941 -0.07894894 0.0238304 -0.21204711 -0.039188985 -0.006428618 -0.106276065
-0.11862803 -0.20659672 -0.03418841 -0.108582236 -0.014461064 -0.021376578 -0.070528045 0.07038744
-0.016576322 -0.2255138 -0.18452457 0.08254416 -0.18365169 -0.15619911 -0.1791382 -0.19090354
-0.120586514 -0.15555887 -0.13320963 -0.12563188 -0.005118766 -0.06528919 0.063518435 0.03877365
-0.1995874 -0.15891446 0.046593495 -0.14614694 -0.20834604 0.015417712 -0.18692239 0.021516439
-0.030004552 -0.1013387 0.01164449 -0.054677784 -0.23297949 -0.19483961 -0.21396314 0.09580748
-0.1020356 0.019927995 -0.08387146 -0.017484931 0.041736394 -0.14654638 -0.03526438 0.0063012987
-0.15646139 -0.18022767 0.033583775 -0.18238175 0.009256433 0.014927759 -0.030675229 -0.03964337
-0.033469655 -0.038969066 -0.22917345 -0.08572418 -0.15051314 -0.2140811 -0.14068364 -0.16305548
-0.02298607 0.023249984 0.05873221 -0.06709071 0.049451783 -0.001499109 0.03729663 -0.01106957
-0.02569623 0.06397182 0.056572303 0.0027578548 0.04057744 0.014669679 0.031243548 -0.06108247
-0.043269068 -0.033397358 0.06777689 -0.066999726 0.0056646317 0.0583902 -0.04397386 0.06974448
0.056202605 0.06379208 -0.039132725 0.01959595 -0.035208672 0.00848338 0.025515616 -0.0496047
-0.030761272 0.07008608 0.010806225 0.03833098 -0.01206186 -0.022185095 0.048197426 -0.057256356
-0.019673396 0.003216356 -0.008291014 0.013478152 0.0005466789 0.009794384 -0.039996177 0.045584567
-0.068209045 -0.041216105 -0.04335971 0.01643569 -0.047492065 0.060471162 0.0470713 0.046041295
0.053456873 -0.044561528 -0.045056656 -0.0157926 -0.019092936 0.012621343 -0.023805264 0.052507877
-0.07613319 -0.10843664 -0.0027959268 -0.039526243 -0.0052770404 -0.21216324 0.001030331 -0.10602545
0.011286699 -0.023240706 -0.114595406 -0.038726456 0.098202825 0.2599499 0.09562838 0.08247787
-0.019884678 0.20491104 -0.19568495 0.08826453 0.085231595 -0.019939039 0.011253368 -0.03792148
0.09640747 0.02605357 0.15932123 0.092468105 0.08775335 -0.34163815 0.12596193 0.030559424
-0.19940422 -0.05307495 -0.03383041 -0.08034247 0.19411016 -0.023986192 0.065410815 0.008210199
-0.05605914 0.062132347 -0.028955983 -0.17309442 -0.05324897 -0.13562194 -0.18546289 0.013726507
-0.11334161 -0.09698093 -0.017995263 -0.119128235 -0.046278253 -0.1573199 -0.121290565 -0.0538028
-0.19033082 0.10573895 -0.20938163 -0.054272763 0.04466596 -0.003003172 -0.16358836 -0.06724928
00000000: a472 38be efbd 34be d64d 3abe 6488 1f3e
00000010: 2921 f0bd 621b 41be 2b08 e93d 16e5 efbd
00000020: 6d9e c83d 671e 86bd 7596 46be c575 753b
00000030: 575d 1bbd 6c52 803d 221b d83c 78be 2d3e
00000040: 3724 143e 419d 56be 8837 143c 7006 13bd
00000050: 2cec 4dbd acc1 f4bc 2208 333d 9380 7c3d
00000060: 0479 1a3c 9aaf a63c 4ad0 0fbd 6a8f d03d
00000070: 12b7 d63c eb9c 23be f2e6 0a3d 589c 59bd
00000080: cee3 fb3c eb2a d03d 85ab 0d3d 67eb e2bd
00000090: 4cd8 103c 134d 29be 5ff3 eebd d98a 8c3d
000000a0: eccd 15be 1640 26be 4b25 febd 7ad0 b83d
000000b0: 43c4 bcbe dee7 26bd e316 ecbd b7b2 0cbc
000000c0: aca0 b1be 8884 a43c 6408 25be 0eba 71bb
000000d0: 8923 a6bd 98f1 2dbe e211 273c fb48 70be
000000e0: 6281 95be 9055 54bd fbaf a1bd f937 c33c
000000f0: e122 59be a184 20bd 28a7 d2bb 44a7 d9bd
00000100: 41f3 f2bd 178e 53be 2509 0cbd 5d60 debd
00000110: 19ee 6cbc ef1d afbc 0271 90bd 4a27 903d
00000120: 11cb 87bc 17ed 66be 02f4 3cbe ea0c a93d
00000130: 300f 3cbe a9f2 1fbe 0170 37be 387c 43be
00000140: 10f6 f6bd d34a 1fbe 1b68 08be a5a5 00be
00000150: 52bb a7bb 57b6 85bd f415 823d 1ed1 1e3d
00000160: a460 4cbe 79ba 22be d2d8 3e3d 8ba7 15be
00000170: aa58 55be 929a 7c3c 9568 3fbe 3e43 b03c
00000180: 1bcc f5bc aa8a cfbd 88c8 3e3c d0f5 5fbd
00000190: 2d92 6ebe 0984 47be 2719 5bbe b636 c43d
000001a0: 0af8 d0bd 0940 a33c cdc4 abbd 8f3c 8fbc
000001b0: c8f3 2a3d 4110 16be 6271 10bd 207b ce3b
000001c0: 6a37 20be 9a8d 38be 248f 093d 48c2 3abe
000001d0: 4ba8 173c 8f93 743c 9e4a fbbc 1661 22bd
000001e0: 7a17 09bd 079e 1fbd 72ac 6abe 2990 afbd
000001f0: 1e20 1abe 1338 5bbe 5f0f 10be 04f8 26be
00000200: 484d bcbc c076 be3c 3091 703d db66 89bd
00000210: f48d 4a3d c07d c4ba 5ac4 183d 245d 35bc
00000220: e680 d2bc a803 833d 5cb8 673d 20bd 343b
00000230: 8834 263d 1859 703c 78f2 ff3c 9d31 7abd
00000240: e83a 31bd abcb 08bd 9cce 8a3d 2737 89bd
00000250: 609e b93b 902a 6f3d ef1d 34bd 32d6 8e3d
00000260: b434 663d 6ca5 823d a349 20bd b087 a03c
00000270: f836 10bd e0fd 0a3c 2006 d13c 4c2e 4bbd
00000280: 10ff fbbc 4a89 8f3d 980c 313c f200 1d3d
00000290: 1c9f 45bc 84bd b5bc aa6a 453d a485 6abd
000002a0: 1a2a a1bc 80c9 523b 08d7 07bc 78d3 5c3c
000002b0: 004f 0f3a a078 203c 08d3 23bd e2b6 3a3d
000002c0: 2fb1 8bbd 38d2 28bd f499 31bd 24a4 863c
000002d0: 0a87 42bd 9cb0 773d d6cd 403d cc95 3c3d
000002e0: 98f5 5a3d 2686 36bd 548d 38bd 7c5f 81bc
000002f0: ca68 9cbc c0c9 4e3c 4203 c3bc 8012 573d
00000300: b8eb 9bbd 0714 debd de3b 37bb 45e6 21bd
00000310: 06eb acbb 5241 59be 2c0c 873a df23 d9bd
00000320: d9eb 383c 4b63 bebc ffb0 eabd a29f 1ebd
00000330: 901e c93d 2718 853e d0d8 c33d 28ea a83d
00000340: 31e5 a2bc 33d4 513e a361 48be 09c4 b43d
00000350: e78d ae3d 3257 a3bc 0c60 383c 8e53 1bbd
00000360: 4871 c53d 4c6e d53c 1b25 233e eb5f bd3d
00000370: 07b8 b33d 32eb aebe 2afc 003e c257 fa3c
00000380: 9f30 4cbe 1e65 59bd c291 0abd 988a a4bd
00000390: d0c4 463e b17e c4bc 1bf6 853d 1284 063c
000003a0: 459e 65bd 7d7e 7e3d 1935 edbc aa3f 31be
000003b0: 981b 5abd 7ae0 0abe fce9 3dbe 25e5 603c
000003c0: a51f e8bd f09d c6bd cd6a 93bc 81f9 f3bd
000003d0: 448e 3dbd 7818 21be 3067 f8bd 5360 5cbd
000003e0: 15e6 42be aa8d d83d 2368 56be 1e4d 5ebd
000003f0: a7f3 363d ded0 44bb b583 27be feb9 89bd

sequential_1/time_distributed/sequential/dense/BiasAdd/ReadVariableOp f4 [32]
-0.074404046 -0.046515305 -0.06857743 -0.12967889 -0.079777054 0.1090179 -0.10859124 -0.1131552
-0.14502993 -0.16307579 -0.076813176 0.013041358 -0.08734688 -0.0844734 -0.0991338 -0.11853809
-0.100189164 0.012348377 -0.15779538 -0.06916471 0.036000535 -0.15687887 -0.14694603 -0.044842865
-0.22455956 -0.010876379 -0.12146459 -0.0049856002 -0.060277387 0.0006634784 -0.11165139 -0.11244404
00000000: 2661 98bd d586 3ebd 5372 8cbd 8bca 04be
00000010: 2762 a3bd c744 df3d 1665 debd eabd e7bd
00000020: ba82 14be 57fd 26be 3a50 9dbd 6cab 553c
00000030: ece2 b2bd 6400 adbd a906 cbbd 19c4 f2bd
00000040: fa2f cdbd d950 4a3c 1d95 21be 3aa6 8dbd
00000050: 4c75 133d dba4 20be 0579 16be 27ad 37bd
00000060: f1f2 65be d732 32bc 6dc2 f8bd 3f5e a3bb
00000070: 6ce5 76bd 48ed 2d3a 7ca9 e4bd 1049 e6bd

sequential_1/lstm/Read_2/ReadVariableOp f4 [64]
-0.009721406 0.007231517 -0.025292652 0.012372821 -0.0967885 -0.02896803 0.15704969 0.0018595925
0.13299745 0.073235705 0.02835456 0.05213982 -0.22562791 0.23262388 0.038795847 -0.061000247
1.03649 1.1331152 0.9477698 1.0447176 1.0213065 1.1717478 1.0221362 1.1275809
1.4284163 1.0224969 1.0560756 0.98767114 1.0778828 1.0414919 0.9432138 1.0314884
0.05941592 0.0030445596 -0.036807977 0.007819824 -0.06172405 0.04868203 -0.029234042 0.10719727
0.09274871 -0.023599064 0.0053432067 -0.049214136 -0.0013397064 -0.0667665 0.057506595 -0.009662709
0.039973237 0.12846062 0.13084418 0.08362569 -0.015485278 0.03257233 0.16227736 0.034472898
0.0806947 0.19010255 0.121314384 0.031623635 0.046070013 0.098762095 0.035657596 0.1320453
00000000: 8846 1fbc 5df6 ec3b 8932 cfbc 5fb7 4a3c
00000010: 0d39 c6bd 5d4e edbc a2d1 203e 92bd f33a
00000020: 7c30 083e 9afc 953d d247 e83c 9090 553d
00000030: 010b 67be f434 6e3e 65e8 1e3d 65db 79bd
00000040: b4ab 843f eb09 913f 0ba1 723f 4eb9 853f
00000050: 2cba 823f d5fb 953f 5cd5 823f 9254 903f
00000060: 58d6 b63f 2ee1 823f 7c2d 873f 04d8 7c3f
00000070: 10f8 893f 9b4f 853f 7676 713f d007 843f
00000080: 1c5e 733d 3c87 473b f6c3 16bd b81e 003c
00000090: 5cd2 7cbd cf66 473d 3b7c efbc 3e8a db3d
000000a0: 09f3 bd3d d352 c1bc 1116 af3b c394 49bd
000000b0: 1699 afba e0bc 88bd 098c 6b3d 5750 1ebc
000000c0: faba 233d 2e8b 033e 04fc 053e f243 ab3d
000000d0: f7b5 7dbc 906a 053d 092c 263e 7433 0d3d
000000e0: 4343 a53d 3eaa 423e ad73 f83d c987 013d
000000f0: e9b3 3c3d c843 ca3d b30d 123d e236 073e

sequential_1/lstm_1/Read_2/ReadVariableOp f4 [64]
0.0012955365 -0.10186668 -0.043196067 -0.1078283 -0.09010776 0.001305904 -0.12572475 0.022646539
-0.06445787 -0.043913882 -0.13805652 0.061060283 0.0871516 0.070675656 -0.04616565 0.03428025
1.2235762 1.0659906 1.0839131 0.94340426 1.0862074 0.7991786 1.0827253 0.9922381
0.9925972 1.1888553 1.0300499 0.9623292 1.065222 1.0598044 1.0094182 1.2302464
0.008988495 -0.007260845 -0.012414314 0.0125857135 -0.05457575 -0.08331236 0.07047634 -0.00060669385
0.039587226 -0.036193132 0.024750179 0.051164724 0.03385306 -0.10990268 0.00016470092 -0.08853369
0.0647969 0.12170411 -0.039826237 0.038464308 0.052071445 0.10208731 -0.06334476 0.15067147
0.15428363 0.04602004 0.023419024 0.24576801 0.054120775 0.14101814 -0.024825204 0.08278193
00000000: fece a93a 7a9f d0bd 5cee 30bd 15d5 dcbd
00000010: 6b8a b8bd de2a ab3a fdbd 00be 3c85 b93c
00000020: 7d02 84bd 0bdf 33bd b05e 0dbe 591a 7a3d
00000030: 8a7c b23d 66be 903d 3118 3dbd 7369 0c3d
00000040: 259e 9c3f 6172 883f aabd 8a3f f182 713f
00000050: d808 8b3f f896 4c3f be96 8a3f 5103 7e3f
00000060: da1a 7e3f 692c 983f add8 833f 355b 763f
00000070: 3259 883f aca7 873f 9e34 813f b778 9d3f
00000080: 7b44 133c 62ec edbb 6865 4bbc 4f34 4e3c
00000090: d28a 5fbd ac9f aabd e655 903d 890a 1fba
000000a0: 3726 223d 403f 14bd e3c0 ca3c 1a92 513d
000000b0: 82a9 0a3d a814 e1bd 91b3 2c39 2751 b5bd
000000c0: 3db4 843d 0140 f93d d620 23bd c08c 1d3d
000000d0: de48 553d 2713 d13d e6ba 81bd 9f49 1a3e
000000e0: 87fc 1d3e 827f 3c3d 41d9 bf3c 9caa 7b3e
000000f0: bfad 5d3d 0f67 103e 3a5e cbbc 9389 a93d

sequential_1/dense_1/BiasAdd/ReadVariableOp f4 [32]
-0.032021202 0.069431596 -0.13380627 0.105509594 0.08483457 0.07163479 -0.023681074 0.026338043
0.064498216 0.057497166 0.081894204 -0.0102423495 0.069577865 0.09263267 0.037657164 0.12967
0.106765874 -0.08780132 0.030493148 0.022490751 0.10268875 0.010903523 0.058547348 0.11548204
0.12036746 0.17614272 0.053762082 -0.017274661 -0.074266866 0.05828123 0.0051616854 0.10629467
00000000: aa28 03bd 2732 8e3d 8304 09be 6a15 d83d
00000010: bfbd ad3d 43b5 923d d0fe c1bc e1c2 d73c
00000020: a417 843d 2682 6b3d 26b8 a73d 87cf 27bc
00000030: d77e 8e3d 33b6 bd3d 663e 1a3d 36c8 043e
00000040: 11a8 da3d 2ed1 b3bd c4cc f93c 863e b83c
00000050: 7b4e d23d b1a4 323c 58cf 6f3d d981 ec3d
00000060: 3783 f63d c25e 343e a135 5c3d 9783 8dbc
00000070: 3a19 98bd 4db8 6e3d 5b23 a93b 05b1 d93d

sequential_1/time_distributed/sequential/batch_normalization/FusedBatchNormV3 f4 [32]
2.1614234 3.7687862 6.3667493 5.6614113 11.702653 0.9836593 12.462201 1.0714906
0.48765162 0.5599221 0.5198089 36.00618 2.8629575 5.446453 1.3837147 4.6291265
8.652437 17.637745 3.1077332 0.7037247 3.2786129 5.9215655 2.152305 14.251881
3.874482 10.831985 1.3736955 5.595165 3.3631964 6.451393 4.736859 12.5445795
00000000: c354 0a40 cb33 7140 69bc cb40 482a b540
00000010: 113e 3b41 19d1 7b3f 2d65 4741 9b26 893f
00000020: 79ad f93e 0e57 0f3f 3212 053f 5406 1042
00000030: b23a 3740 5849 ae40 901d b13f ce21 9440
00000040: 6270 0a41 1a1a 8d41 1ae5 4640 4d27 343f
00000050: cbd4 5140 777d bd40 5dbf 0940 b407 6441
00000060: 83f7 7740 d04f 2d41 41d5 af3f 970b b340
00000070: 9c3e 5740 d071 ce40 5994 9740 99b6 4841

sequential_1/time_distributed/sequential/batch_normalization/FusedBatchNormV31 f4 [32]
-0.41905233 -0.41726416 -0.3132655 -0.5114181 -0.44990575 -0.20668474 -0.44754347 -0.16539979
-0.09018731 -0.13129498 -0.16582724 -0.6147733 -0.61557066 -0.43396223 -0.21531089 -0.4209621
-0.21011338 -0.016787395 -0.27353984 -0.16131218 -0.5709384 -0.17182893 -0.3232277 -0.43096906
-0.23919234 -0.7781118 -0.13012594 -0.7159381 -0.20376968 -0.2516873 -0.06111875 -0.1354366
00000000: 078e d6be a6a3 d5be 5664 a0be 4cec 02bf
00000010: 0c5a e6be 2aa5 53be 6b24 e5be 905e 29be
00000020: 20b4 b8bd 3172 06be 9ece 29be c861 1dbf
00000030: 0a96 1dbf 4c30 debe 757a 5cbe 5888 d7be
00000040: f627 57be b885 89bc 6a0d 8cbe 052f 25be
00000050: 0529 12bf ecf3 2fbe 1a7e a5be faa7 dcbe
00000060: d6ee 74be 5632 47bf bc3f 05be b847 37bf
00000070: 00a9 50be 28dd 80be a857 7abd e4af 0abe

sequential_1/time_distributed/sequential/batch_normalization_1/FusedBatchNormV3 f4 [64]
0.6522792 0.4308123 0.5866246 0.6060914 1.4835413 0.5734083 1.1361687 0.4043074
0.74635893 0.5052329 0.9983288 0.6068744 0.8938847 1.805653 0.3173486 0.6875599
0.4929748 0.53325635 0.8792804 0.29367724 2.2200682 1.1612339 0.5296 1.1751182
0.5668011 1.2465386 1.6528821 0.91071224 0.4367041 0.5363905 0.8568966 2.115597
0.736547 2.4608579 2.6173363 1.7312307 0.41623026 0.6919673 0.17356114 1.3906453
0.41023234 0.9529529 0.53006864 0.44941315 0.6976469 1.1595156 0.49077767 1.9651268
0.14980344 0.88370866 0.5285558 0.46932554 0.7149993 1.093045 0.75654256 0.9205996
0.58101207 0.476392 0.61051136 1.5211442 0.93744713 0.3162696 0.28253192 0.26287806
00000000: c5fb 263f 6e93 dc3e 082d 163f ce28 1b3f
00000010: aee4 bd3f e3ca 123f fa6d 913f 6101 cf3e
00000020: 6111 3f3f f156 013f 7a92 7f3f 1f5c 1b3f
00000030: a1d5 643f a31f e73f 847b a23e ed03 303f
00000040: 3167 fc3e 7d83 083f 8518 613f dd5c 963e
00000050: 9915 0e40 50a3 943f de93 073f 466a 963f
00000060: e019 113f 948e 9f3f a491 d33f 7024 693f
00000070: ae97 df3e e350 093f 935d 5b3f f165 0740
00000080: 588e 3c3f b27e 1d40 7082 2740 f898 dd3f
00000090: 221c d53e c524 313f 03ba 313e aa00 b23f
000000a0: f909 d23e b9f4 733f 94b2 073f 7b19 e63e
000000b0: fd98 323f 026b 943f 3647 fb3e 4689 fb3f
000000c0: 1366 193e bb3a 623f 6f4f 073f 704b f03e
000000d0: 320a 373f e6e8 8b3f c6ac 413f 6aac 6b3f
000000e0: 35bd 143f a7e9 f33e 794a 1c3f dab4 c23f
000000f0: 89fc 6f3f 17ee a13e 06a8 903e f497 863e

sequential_1/time_distributed/sequential/batch_normalization_1/FusedBatchNormV31 f4 [64]
-0.38023922 -0.14264148 -0.38796616 -0.32358533 -0.4816363 -0.28213105 -0.45119455 -0.40819162
-0.465818 -0.6235287 -0.31197104 -0.5860771 -0.42418444 -0.1919269 -0.31997594 -0.25250414
-0.32236207 -0.4448813 -0.36324733 -0.3123564 -0.43840173 -0.38423103 -0.49366426 -0.6154533
-0.45177647 -0.34840235 -0.53417754 -0.24203196 -0.16192847 -0.28917414 -0.36926162 -0.61886305
-0.41992393 -0.26044255 -0.4769617 -0.77606565 -0.51243937 -0.25008982 -0.4542969 -0.44558325
-0.25494295 -0.4632878 -0.3547793 -0.40860555 -0.50493133 -0.3962777 -0.431013 -0.36469474
-0.3239178 -0.57333916 -0.38123173 -0.3337328 -0.28535 -0.47101146 -0.39075667 -0.39653298
-0.34587407 -0.5729825 -0.2391009 -0.39859873 -0.37239394 -0.4107486 -0.33835346 -0.49796993
00000000: b7ae c2be 9c10 12be 80a3 c6be faac a5be
00000010: 0899 f6be 7b73 90be f902 e7be 7efe d0be
00000020: b27f eebe 949f 1fbf abba 9fbe 2609 16bf
00000030: b42e d9be 7c88 44be e3d3 a3be 3948 81be
00000040: a40c a5be 7bc7 e3be 8efb b9be 2eed 9fbe
00000050: 3176 e0be eeb9 c4be 90c1 fcbe 598e 1dbf
00000060: 3f4f e7be cb61 b2be dcbf 08bf 3ad7 77be
00000070: 94d0 25be a20e 94be dc0f bdbe cf6d 1ebf
00000080: 4500 d7be ba58 85be 5334 f4be 3dac 46bf
00000090: 3a2f 03bf c60b 80be 9a99 e8be 7d23 e4be
000000a0: e287 82be 0f34 edbe a2a5 b5be bf34 d1be
000000b0: 2e43 01bf e9e4 cabe bcad dcbe 45b9 babe
000000c0: 8ed8 a5be 5bc6 12bf ce30 c3be 07df aabe
000000d0: 6519 92be 6a28 f1be 4211 c8be 5f06 cbbe
000000e0: 6816 b1be fbae 12bf ded6 74be 2215 ccbe
000000f0: 6baa bebe a44d d2be aa3c adbe eaf5 febe

sequential_1/time_distributed/sequential/batch_normalization_2/FusedBatchNormV3 f4 [64]
0.58503807 0.2394973 0.40197816 0.65136755 2.350481 0.4493306 0.41339436 0.9077883
0.22964834 0.7033839 0.8687826 0.2968548 0.9712044 2.1764836 0.5663264 1.468843
0.65675455 0.25190458 1.0245347 0.5248274 0.6133818 0.37048972 0.16428483 0.26054403
0.788975 0.30817166 0.2848837 0.620523 0.9071337 1.283658 0.8139307 0.34572053
0.3313235 0.4937701 0.43406692 0.82660526 1.2857811 0.43288228 0.8962033 0.33707136
0.4059786 0.6847549 0.18878654 1.0200833 27.64986 0.30080372 0.538437 0.3222932
0.5353698 0.3679933 0.3473365 0.23254675 0.3854611 0.4303697 0.26528472 0.46405452
0.40007585 0.15378682 1.2588863 0.88332903 1.8366965 0.91294456 0.46259862 0.57083744
00000000: 0ec5 153f c83e 753e 15d0 cd3e 06c0 263f
00000010: 486e 1640 a90e e63e 6da8 d33e d064 683f
00000020: ef28 6b3e f810 343f 8968 5e3f 5afd 973e
00000030: daa0 783f 824b 0b40 c4fa 103f 0c03 bc3f
00000040: 1121 283f a3f9 803e f423 833f 175b 063f
00000050: 9706 1d3f d4b0 bd3e 483a 283e 0766 853e
00000060: 44fa 493f adc8 9d3e 47dc 913e 98da 1e3f
00000070: ea39 683f e84e a43f c35d 503f 4802 b13e
00000080: 3ca3 a93e 6fcf fc3e 053e de3e 679c 533f
00000090: 7a94 a43f bfa2 dd3e 946d 653f 9e94 ac3e
000000a0: 6ddc cf3e 194c 2f3f 4251 413e 1792 823f
000000b0: ea32 dd41 f202 9a3e 02d7 093f 9d03 a53e
000000c0: ff0d 093f 9e69 bc3e 17d6 b13e bc20 6e3e
000000d0: 285b c53e 6b59 dc3e 66d3 873e 8e98 ed3e
000000e0: bed6 cc3e 4b7a 1d3e 3023 a13f da21 623f
000000f0: df18 eb3f bcb6 693f bad9 ec3e 6722 123f

sequential_1/time_distributed/sequential/batch_normalization_2/FusedBatchNormV31 f4 [64]
-0.41100025 -0.49418795 -0.4966463 -0.21444103 0.0009662807 -0.47946662 -0.20612136 -0.36252034
-0.786719 -0.345524 -0.2998387 -0.4572923 -0.2520145 -0.22684734 -0.40783215 -0.29546908
-0.13571462 -0.5941947 -0.14572644 -0.1867347 -0.26685864 -0.51280266 -0.84966975 -0.7446512
-0.30401173 -0.32538888 -0.5066134 -0.31964713 -0.3111853 -0.30525053 -0.32657146 -0.40310752
-0.5121266 -0.6307517 -0.36069146 -0.26960486 -0.27239472 -0.7220936 -0.45996824 -0.52855134
-0.5630265 -0.20354459 -0.81554043 -0.18252285 0.118750386 -0.3933398 -0.6136196 -0.8907458
-0.36022994 -0.293991 -0.42147 -0.6634919 -0.6987704 -0.22423348 -0.334951 -0.16860251
-0.4299922 -0.6745028 -0.3953982 -0.4978891 -0.09171685 -0.2996915 -0.5468971 -0.3162456
00000000: a06e d2be 3406 fdbe 6d48 febe 6e96 5bbe
00000010: 004e 7d3a a67c f5be 7a11 53be 449c b9be
00000020: 6b66 49bf 86e8 b0be 7584 99be 3722 eabe
00000030: 0b08 81be ab4a 68be 60cf d0be b947 97be
00000040: c6f8 0abe 251d 18bf 5039 15be 6237 3fbe
00000050: b2a1 88be 0947 03bf f583 59bf 76a1 3ebf
00000060: 6da7 9bbe 5f99 a6be 6ab1 01bf caa8 a3be
00000070: ae53 9fbe cc49 9cbe 6034 a7be 1c64 cebe
00000080: bb1a 03bf f278 21bf 8dac b8be a609 8abe
00000090: 5277 8bbe 20db 38bf f580 ebbe 244f 07bf
000000a0: 8122 10bf fe6d 50be 42c7 50bf 45e7 3abe
000000b0: 6733 f33d d663 c9be 2d16 1dbf eb07 64bf
000000c0: 0f70 b8be fd85 96be eaca d7be 9bda 29bf
000000d0: 9ee2 32bf 769d 65be b37e abbe 23a6 2cbe
000000e0: f027 dcbe 37ac 2cbf a271 cabe 52eb febe
000000f0: 0bd6 bbbd 2a71 99be 7301 0cbf f1ea a1be

sequential_1/time_distributed/sequential/dense/MatMul f4 [32, 64]
0.06037953 0.04801627 0.15014794 -0.22343878 0.18391092 -0.010606421 -0.12250243 0.36209047
-0.19229966 0.061009742 -0.14296578 0.1078875 0.17984833 0.09008388 0.13692169 -0.0869958
0.2605644 0.06935825 0.19027856 -0.03128661 0.37590262 -0.30101943 -0.2517629 0.18206666
-0.14765713 0.21969248 0.2086577 0.1260448 -0.027351327 0.12983905 0.08190183 0.081823096
0.266135 -0.08504796 -0.24492955 -0.11373778 0.02407503 0.12177044 0.04827375 0.0663246
-0.1880471 0.21101025 0.20004651 -0.10051239 0.18837667 -0.30042562 0.07679113 0.047681123
-0.16155283 0.2623266 0.22618854 -0.14955644 -0.25426918 0.061877795 0.06778217 -0.24808633
0.054940682 0.10787689 -0.12762642 0.09424226 -0.20178966 -0.1669301 -0.22195725 0.041609894
0.2963112 0.07519417 0.029858947 0.092145994 -0.1490896 0.19445959 -0.11412167 -0.073446386
-0.090781145 -0.111555696 -0.10760034 -0.105984725 -0.14640036 -0.28174737 -0.07408801 -0.1424962
-0.35896614 -0.064978175 0.048721712 0.11351492 -0.09368473 -0.056781508 0.015810292 0.012547363
0.19062576 -0.18148245 -0.16247791 -0.3196937 0.3035339 -0.20548421 0.22167733 0.34702155
-0.01748958 0.21565899 0.09552801 -0.17507187 -0.3125949 -0.109831914 0.09519221 0.07725978
-0.29418328 -0.02375093 -0.22402376 0.29712734 -0.1537819 0.0025180492 -0.20025657 0.18551114
-0.0505068 0.09936225 0.08774511 0.043261368 -0.034692265 0.119414724 -0.24049808 -0.17596024
0.14691804 -0.22550611 -0.33874446 0.17060672 -0.03719778 -0.16763595 -0.41672197 0.005121386
-0.24333811 -0.1671443 0.22694108 0.30389664 -0.06252589 -0.23315726 -0.08911729 0.07767722
0.030704921 0.37229893 0.23205726 0.1308397 0.013647927 0.053424302 -0.14022867 -0.16851501
-0.15917808 -0.11927126 -0.2085081 -0.110247746 0.07260804 -0.041401908 -0.2273592 0.12212513
-0.20718491 0.17606537 -0.0025591382 0.3130172 -0.090608016 -0.075985305 -0.09477514 -0.029805873
-0.24114037 -0.14449574 -0.3714937 -0.19118337 -0.03400287 0.08057803 -0.06240076 -0.10619583
-0.09426362 -0.22459674 -0.22326887 0.21758975 -0.39381182 -0.036930885 -0.051231466 0.1898113
0.01379517 -0.0652812 0.30844128 0.11693177 -0.08434206 -0.021747798 0.1469293 0.14195773
-0.13099204 0.008502489 0.27679607 -0.013038555 0.019333644 -0.17646664 0.055676494 0.11347768
0.13393655 -0.015377122 0.12858097 -0.40717158 0.049745794 -0.040813643 0.019529901 -0.35120228
-0.21477468 -0.20271549 0.109704986 -0.07395778 0.052660845 0.4042036 0.15778685 -0.19687602
-0.051581066 -0.0061933687 -0.087330975 -0.36916658 0.037220106 0.16870366 0.06983567 -0.25898856
-0.24567275 -0.053771958 -0.19159043 -0.30765113 -0.35211265 0.06802224 0.37229764 -0.2644582
0.05480196 0.030378684 -0.22853349 -0.055592164 0.27009633 0.057570882 0.37539738 0.00916694
0.25319323 -0.08066676 -0.16376556 0.020695996 -0.1956411 -0.23623312 0.14352697 -0.105086975
-0.010351236 0.2420137 -0.15378995 -0.13453138 -0.093769655 0.22275268 -0.15455832 0.30891016
-0.10070734 -0.19505073 -0.0905008 -0.30882898 -0.2691461 -0.034588266 0.10475046 0.04827969
00000000: 8750 773d b5ac 443d 62c0 193e 23cd 64be
00000010: 2553 3c3e 8ec6 2dbc 8ee2 fabd ec63 b93e
00000020: 34ea 44be 5ae5 793d 9f65 12be 1ff4 dc3d
00000030: 292a 383e e67d b83d 3335 0c3e db2a b2bd
00000040: b268 853e b30b 8e3d 62d8 423e 6326 00bd
00000050: 4f76 c03e 381f 9abe 11e7 80be af6f 3a3e
00000060: 6e33 17be 11f7 603e 5daa 553e e311 013e
00000070: e40f e0bc 87f4 043e 26bc a73d de92 a73d
00000080: d942 883e a02d aebd d0ce 7abe 5aef e8bd
00000090: ff38 c53c c862 f93d b2ba 453d 31d5 873d
000000a0: 6b8f 40be 1213 583e fed8 4c3e 71d9 cdbd
000000b0: d0e5 403e 63d1 99be ab44 9d3d 484d 433d
000000c0: 1b6e 25be ac4f 863e f89d 673e 5325 19be
000000d0: 922f 82be 9273 7d3d 61d1 8a3d 580a 7ebe
000000e0: 7b09 613d 8fee dc3d 80b0 02be 1602 c13d
000000f0: f3a1 4ebe b9ef 2abe c348 63be 236f 2a3d
00000100: 1ab6 973e 67ff 993d c09a f43c 0ab7 bc3d
00000110: f2aa 18be 6a20 473e 9fb8 e9bd 0f6b 96bd
00000120: 77eb b9bd 5077 e4bd 915d dcbd 850e d9bd
00000130: fae9 15be 3141 90be 74bb 97bd 86ea 11be
00000140: 69ca b7be 4713 85bd 6b90 473d 837a e83d
00000150: c8dd bfbd ba93 68bd 9684 813c 7493 4d3c
00000160: 6633 433e 89d6 39be 9c60 26be e5ae a3be
00000170: cc68 9b3e 746a 52be 62ff 623e cfac b13e
00000180: 4f46 8fbc b6d5 5c3e 30a4 c33d 0a46 33be
00000190: 700c a0be 8eef e0bd 22f4 c23d 603a 9e3d
000001a0: 319f 96be 4f91 c2bc 7c66 65be 1321 983e
000001b0: 0179 1dbe db05 253b 0f10 4dbe a2f6 3d3e
000001c0: 38e0 4ebd 6f7e cb3d b5b3 b33d d532 313d
000001d0: 7a19 0ebd b58f f43d 2145 76be ec2e 34be
000001e0: af71 163e 13eb 66be ea6f adbe 87b3 2e3e
000001f0: b35c 18bd c2a8 2bbe 955c d5be 4dd1 a73b
00000200: a02d 79be e027 2bbe 3e63 683e 5798 9b3e
00000210: 930d 80bd c7c0 6ebe 2083 b6bd 3c15 9f3d
00000220: e388 fb3c f79d be3e 6ba0 6d3e d8fa 053e
00000230: 8e9b 5f3c 71d3 5a3d 1b98 0fbe 338f 2cbe
00000240: 94ff 22be 7e44 f4bd 2683 55be 92c9 e1bd
00000250: 86b3 943d 0c95 29bd dad0 68be bd1c fa3d
00000260: 4828 54be 7b4a 343e 37b7 27bb ca43 a03e
00000270: b290 b9bd 2f9e 9bbd 7819 c2bd 722b f4bc
00000280: 80ed 76be b1f6 13be 6c34 bebe 93c5 43be
00000290: 9846 0bbd 1806 a53d f097 7fbd 337d d9bd
000002a0: 490d c1bd b0fc 65be 98a0 64be d9cf 5e3e
000002b0: b4a1 c9be d744 17bd 16d8 51bd e55d 423e
000002c0: 2305 623c 26b2 85bd 04ec 9d3e ed79 ef3d
000002d0: 88bb acbd 7028 b2bc a274 163e 5e5d 113e
000002e0: c722 06be 064e 0b3c 37b8 8d3e aa9f 55bc
000002f0: 9761 9e3c acb3 34be 090d 643d fc66 e83d
00000300: aa26 093e 53f0 7bbc bbaa 033e cb78 d0be
00000310: 3fc2 4b3d 352c 27bd 2cfd 9f3c c9d0 b3be
00000320: e5ed 5bbe a694 4fbe 02ad e03d 2d77 97bd
00000330: e6b2 573d c6f3 ce3e e092 213e de99 49be
00000340: ab46 53bd bef1 cabb 95da b2bd 6703 bdbe
00000350: 1c74 183d a7c0 2c3e 0106 8f3d 269a 84be
00000360: a391 7bbe fc3f 5cbd 4830 44be 7384 9dbe
00000370: 1c48 b4be 3f4f 8b3d cc9d be3e 1167 87be
00000380: 0578 603d b8dc f83c af04 6abe 9cb4 63bd
00000390: 114a 8a3e 72cf 6b3d 1634 c03e ef30 163c
000003a0: 8ba2 813e 9d34 a5bd 29b2 27be a68a a93c
000003b0: 2456 48be 18e7 71be bcf8 123e d737 d7bd
000003c0: 3b98 29bc 70d2 773e 1d7b 1dbe 98c2 09be
000003d0: 4e0a c0bd 4719 643e 8944 1ebe 7929 9e3e
000003e0: a63f cebd 61bb 47be 7c58 b9bd d51e 9ebe
000003f0: 85cd 89be 6dac 0dbd 6987 d63d edc0 453d

sequential_1/dense_1/MatMul f4 [32, 16]
0.28877 -0.16518626 0.13217105 0.08377648 -0.21645726 0.11389274 0.37041923 0.47295508
0.023541119 -0.13946335 0.20385933 0.33566967 -0.39483118 0.16644773 -0.33863682 -0.12902312
0.08464128 0.19625466 0.07307587 -0.4159633 -0.045998607 -0.49359944 -0.15136912 0.1242842
0.64724576 0.021612791 -0.061636437 0.40716985 0.1160218 -0.50794697 -0.5256189 0.12841928
-0.06865805 -0.09248969 0.13449451 -0.1336582 -0.029253082 -0.07240092 0.12515764 0.13621622
-0.051189344 -0.0203241 0.121742524 0.22549096 -0.16973692 0.41634893 0.113203585 0.41102755
0.39136615 -0.14197136 0.12831932 -0.23564287 -0.41534394 -0.5414833 -0.20001061 0.27391365
0.2910966 -0.023040049 -0.03352047 0.3708904 0.02618399 -0.082760036 -0.08610619 -0.062422443
0.31026825 -0.19282743 -0.14321016 -0.037445065 -0.42768764 0.10914232 0.14697139 0.12628132
0.061196364 -0.25567466 0.50647646 0.013683979 -0.018046435 -0.196873 -0.3962365 -0.026944978
0.026268039 0.41529584 0.018617593 0.38833395 0.05638909 0.24955764 -0.11245589 -0.045156978
-0.09916143 -0.30643153 -0.5539414 -0.27767742 0.11602804 0.57968783 0.040907294 -0.2549115
-0.054373007 -0.16665173 -0.17342903 0.103508145 -0.32311097 0.15523309 -0.4046153 0.5430311
-0.02408794 0.15309983 0.36899292 -0.047234714 -0.15160982 -0.26496676 -0.48382238 -0.13896523
0.1094947 -0.01705932 -0.13365836 -0.41903728 -0.32135606 -0.10979643 0.042480215 0.31531066
0.22126263 0.021002542 -0.21187197 0.22539929 0.22734883 -0.5233901 -0.102656886 0.07929556
0.36880943 -0.27103207 -0.3139564 -0.28460032 -0.282606 -0.107032806 -0.10049562 0.4440814
0.28904718 0.2760604 0.1865484 0.28944278 -0.0170875 -0.27382374 -0.46527207 0.057685837
-0.2625335 0.6193929 -0.19802777 -0.05028557 -0.12556228 0.8403983 -0.4390527 -0.3867214
-0.16928133 -0.20176363 -0.47935396 -0.20938064 0.42611694 0.6330217 -0.13482782 0.09187177
-0.124811575 -0.45326963 -0.31008092 -0.23794885 0.113244124 -0.38340393 0.32173193 0.2800808
-0.1963429 0.18502 -0.16415529 0.4232627 -0.05987699 -0.4032019 -0.34127882 -0.3487661
0.47159606 0.19555286 -0.30084866 -0.02248433 -0.020893998 -0.014283937 0.22497047 0.5360996
0.5609127 0.23094144 0.4443545 0.34189227 -0.36827412 -0.27800307 -0.22429025 0.06871889
-0.06449549 0.1848889 -0.10088399 -0.11614796 -0.45474306 -0.37234187 -0.14238276 0.3619517
0.26180422 0.1388132 0.333621 -0.00083002046 -0.26990774 -0.3875748 0.2209889 -0.03201546
-0.039984707 0.64626896 0.4037828 0.573342 0.48234016 0.17134248 -0.094882146 -0.20287538
-0.13254228 0.24645936 -0.2342495 -0.04472511 0.42684722 0.56685567 -0.19764087 -0.36380574
0.30800882 -0.06012608 0.049969614 0.07390381 -0.24534139 0.0052309367 0.13826679 0.5572647
0.14673331 0.1644529 0.2850959 0.13164501 -0.061162442 -0.15787694 -0.39668885 0.12744197
0.24299967 0.011927948 -0.3327579 -0.39738837 0.02053283 -0.33586228 -0.32500225 -0.10373209
-0.10987113 0.25404757 0.40506443 0.5556339 0.041750133 -0.47105458 -0.47813404 -0.22329476
00000000: a9d9 933e 9626 29be d957 073e 0193 ab3d
00000010: f9a6 5dbe 9940 e93d 97a7 bd3e 2b27 f23e
00000020: 4ed9 c03c 7bcf 0ebe 80c0 503e e5dc ab3e
00000030: 5027 cabe 4671 2a3e ce61 adbe a31e 04be
00000040: 6858 ad3d fbf6 483e cda8 953d 24f9 d4be
00000050: 0969 3cbd 11b9 fcbe 8200 1bbe b788 fe3d
00000060: e6b1 253f 4f0d b13c 7d76 7cbd 9178 d03e
00000070: d69c ed3d d008 02bf f68e 06bf 5880 033e
00000080: 979c 8cbd 3c6b bdbd eeb8 093e b2dd 08be
00000090: 29a4 efbc ef46 94bd 5329 003e 447c 0b3e
000000a0: ebab 51bd ba7e a6bc 2554 f93d 1ae7 663e
000000b0: 84cf 2dbe b02b d53e 48d7 e73d 3472 d23e
000000c0: 2561 c83e f160 11be 2466 033e 5d4c 71be
000000d0: f6a7 d4be a69e 0abf 95cf 4cbe 693e 8c3e
000000e0: 9d0a 953e 7cbe bcbc c34c 09bd 59e5 bd3e
000000f0: cf7f d63c 187e a9bd 7158 b0bd adae 7fbd
00000100: 7bdb 9e3e 8e74 45be afa5 12be ff5f 19bd
00000110: e0f9 dabe 0286 df3d ab7f 163e e44f 013e
00000120: 0aa9 7a3d cae7 82be 71a8 013f c532 603c
00000130: 1ed6 93bc 1399 49be 83df cabe b7bb dcbc
00000140: 1230 d73c a8a1 d43e ec83 983c b5d3 c63e
00000150: 3ff8 663d 0a8c 7f3e 464f e6bd 86f6 38bd
00000160: 2615 cbbd 98e4 9cbe 1bcf 0dbf bc2b 8ebe
00000170: 1ca0 ed3d 6c66 143f 688e 273d c383 82be
00000180: 3bb6 5ebd c0a6 2abe 6197 31be 14fc d33d
00000190: cd6e a5be 6cf5 1e3e bd29 cfbe 1604 0b3f
000001a0: 1254 c5bc 34c6 1c3e a4ec bc3e 3079 41bd
000001b0: 9b3f 1bbe b9a9 87be 91b7 f7be e74c 0ebe
000001c0: c23e e03d fdbf 8bbc bddd 08be 0e8c d6be
000001d0: c888 a4be f3dc e0bd bcff 2d3d 6670 a13e
000001e0: ac92 623e 860d ac3c f7f4 58be 12cf 663e
000001f0: 22ce 683e e5fc 05bf c63d d2bd b665 a23d
00000200: 97d4 bc3e b7c4 8abe e5be a0be 22b7 91be
00000210: bcb1 90be 0434 dbbd a6d0 cdbd a35e e33e
00000220: fefd 933e ca57 8d3e 8b06 3f3e d831 943e
00000230: 16fb 8bbc a032 8cbe 2438 eebe fc47 6c3d
00000240: ca6a 86be 8890 1e3f cbc7 4abe 3ef8 4dbd
00000250: 6693 00be 5824 573f 84cb e0be 5900 c6be
00000260: 1658 2dbe 209b 4ebe e26d f5be e167 56be
00000270: 002c da3e b60d 223f 4e10 0abe 4427 bc3d
00000280: 369d ffbd f512 e8be edc2 9ebe dda8 73be
00000290: 89ec e73d 854d c4be 0cba a43e c066 8f3e
000002a0: 1d0e 49be e275 3d3e 5318 28be e3b5 d83e
000002b0: 9341 75bd 7b70 cebe 19bc aebe 7891 b2be
000002c0: 0a75 f13e 023f 483e d608 9abe 0f31 b8bc
000002d0: e429 abbc 2d07 6abc a95e 663e d33d 093f
000002e0: fa97 0f3f ea7b 6c3e 6f82 e33e 810c af3e
000002f0: 6d8e bcbe 6b56 8ebe 58ac 65be 7dbc 8c3d
00000300: 3616 84bd 8453 3d3e 449c cebd fbde edbd
00000310: 15d4 e8be 98a3 bebe c9cc 11be bc51 b93e
00000320: 340b 863e 0c25 0e3e 5fd0 aa3e bb95 59ba
00000330: 5931 8abe 3470 c6be ea4a 623e a522 03bd
00000340: 01c7 23bd e271 253f 9fbc ce3e 8bc6 123f
00000350: 4af5 f63e 6774 2f3e 9251 c2bd 90be 4fbe
00000360: 2ab9 07be d85f 7c3e 1adf 6fbe ad31 37bd
00000370: b88b da3e 741d 113f 5e62 4abe bf44 babe
00000380: 55b3 9d3e c446 76bd f0ac 4c3d e15a 973d
00000390: c63a 7bbe 4768 ab3b cf95 0d3e e6a8 0e3f
000003a0: 4241 163e 5766 283e 17f8 913e f3cd 063e
000003b0: 7885 7abd 7eaa 21be cd1a cbbe 2680 023e
000003c0: e8d4 783e 716d 433c 3e5f aabe 7d76 cbbe
000003d0: 7734 a83c 24f6 abbe b266 a6be 7d71 d4bd
000003e0: 1d04 e1bd 8612 823e 9b64 cf3e 063e 0e3f
000003f0: 3002 2b3d 112e f1be fccd f4be 62a7 64be

sequential_1/dense_2/MatMul f4 [1, 32]
-0.63094574 -0.4694835 0.08740716 -0.656003 -0.26300788 0.565663 -0.4861075 -0.46644923
-0.4317086 0.36355597 -0.285498 -0.39018735 -0.5466543 0.4965871 -0.25778177 -0.24014875
0.44518116 0.48069707 0.38517934 -0.37002638 -0.3474491 -0.3910033 0.4406673 0.56640875
-0.3467368 -0.4970297 0.48246673 -0.15785906 -0.35472834 -0.5362632 -0.45620883 0.32661062
00000000: a985 21bf 2460 f0be 8602 b33d d0ef 27bf
00000010: f8a8 86be 4acf 103f 15e3 f8be 6fd2 eebe
00000020: e908 ddbe 0224 ba3e cb2c 92be a3c6 c7be
00000030: 89f1 0bbf aa40 fe3e f9fb 83be 8ee9 75be
00000040: c9ee e33e ed1d f63e 3a36 c53e 1974 bdbe
00000050: d9e4 b1be 9631 c8be 259f e13e 2a00 113f
00000060: 7c87 b1be ad7a febe e105 f73e cea5 21be
00000070: f49e b5be 8c48 09bf 3494 e9be 8239 a73e

sequential_1/lstm/Read_2/ReadVariableOp1 f4 [64]
-0.009721406 0.007231517 -0.025292652 0.012372821 -0.0967885 -0.02896803 0.15704969 0.0018595925
0.13299745 0.073235705 0.02835456 0.05213982 -0.22562791 0.23262388 0.038795847 -0.061000247
1.03649 1.1331152 0.9477698 1.0447176 1.0213065 1.1717478 1.0221362 1.1275809
1.4284163 1.0224969 1.0560756 0.98767114 1.0778828 1.0414919 0.9432138 1.0314884
0.05941592 0.0030445596 -0.036807977 0.007819824 -0.06172405 0.04868203 -0.029234042 0.10719727
0.09274871 -0.023599064 0.0053432067 -0.049214136 -0.0013397064 -0.0667665 0.057506595 -0.009662709
0.039973237 0.12846062 0.13084418 0.08362569 -0.015485278 0.03257233 0.16227736 0.034472898
0.0806947 0.19010255 0.121314384 0.031623635 0.046070013 0.098762095 0.035657596 0.1320453
00000000: 8846 1fbc 5df6 ec3b 8932 cfbc 5fb7 4a3c
00000010: 0d39 c6bd 5d4e edbc a2d1 203e 92bd f33a
00000020: 7c30 083e 9afc 953d d247 e83c 9090 553d
00000030: 010b 67be f434 6e3e 65e8 1e3d 65db 79bd
00000040: b4ab 843f eb09 913f 0ba1 723f 4eb9 853f
00000050: 2cba 823f d5fb 953f 5cd5 823f 9254 903f
00000060: 58d6 b63f 2ee1 823f 7c2d 873f 04d8 7c3f
00000070: 10f8 893f 9b4f 853f 7676 713f d007 843f
00000080: 1c5e 733d 3c87 473b f6c3 16bd b81e 003c
00000090: 5cd2 7cbd cf66 473d 3b7c efbc 3e8a db3d
000000a0: 09f3 bd3d d352 c1bc 1116 af3b c394 49bd
000000b0: 1699 afba e0bc 88bd 098c 6b3d 5750 1ebc
000000c0: faba 233d 2e8b 033e 04fc 053e f243 ab3d
000000d0: f7b5 7dbc 906a 053d 092c 263e 7433 0d3d
000000e0: 4343 a53d 3eaa 423e ad73 f83d c987 013d
000000f0: e9b3 3c3d c843 ca3d b30d 123d e236 073e
