models/model.tflite (tflite, 280604 bytes, 19 tensors)

sequential/conv2d/BiasAdd/ReadVariableOp f4 [32]
0	0x3e82d430	0.2555251
1	0x3e2d6664	0.1693359
2	0x3e076c26	0.13224849
3	0x3e1065a0	0.14101267
4	0x3e28f15b	0.1649832
5	0x3d139f4b	0.036040585
6	0x3dc6ed11	0.097131856
7	0x3e40e220	0.1883626
8	0x39de5681	0.0004240759
9	0x3d0d6c79	0.034527276
10	0x3c5d6d96	0.013514897
11	0x3e32778d	0.17428418
12	0x3da68efd	0.081327416
13	0xbcb157fd	-0.021648401
14	0x3d2efbe1	0.04272068
15	0x3dbd3c7f	0.09240054
16	0x3e5b8e40	0.21440983
17	0x3db5f20f	0.0888406
18	0x3d61b372	0.055102773
19	0x3e753773	0.23946933
20	0x3e1e5cbb	0.15465061
21	0x3dbee231	0.09320486
22	0x3df4a5f1	0.11945713
23	0x3e8a5866	0.27020568
24	0x3ec0cd2e	0.3765654
25	0x3dbf4d99	0.093409725
26	0x3e16ba16	0.14719424
27	0x3e1e0b18	0.1543392
28	0x3eb9dc3b	0.36300835
29	0x3c67ec81	0.014155508
30	0x3c669b20	0.014075071
31	0xbd659dfe	-0.056058876

sequential/conv2d_1/BiasAdd/ReadVariableOp f4 [64]
0	0x3d4b95ee	0.04970353
1	0x3ebf785f	0.37396523
2	0xbdc2e47a	-0.09516235
3	0xbddc0ac7	-0.10744243
4	0x3e2de18b	0.16980569
5	0x3e820b25	0.25399128
6	0x3e2b1bdb	0.16709845
7	0x3d3a7af4	0.045527413
8	0x3cb1468c	0.021640085
9	0x3ea58f5f	0.32335946
10	0xbe0916ea	-0.13387647
11	0xbe44076e	-0.19143459
12	0xbd3b0b6b	-0.045665186
13	0xbd645ad1	-0.05575067
14	0x3e8c6ada	0.2742527
15	0x3d98bd74	0.0745801
16	0x3ed95042	0.42444044
17	0xbdbbfa79	-0.09178633
18	0x3e657ce3	0.22410922
19	0x3e2ab851	0.16671874
20	0x3db44477	0.08802121
21	0xbde347d2	-0.11097683
22	0x3e69fd87	0.2285062
23	0x3e2ed92d	0.17075033
24	0xbda90aeb	-0.082540356
25	0x3e5b9aba	0.21445742
26	0x3d2759d3	0.040857147
27	0xbd20bf4b	-0.03924493
28	0xbe256842	-0.16153052
29	0xbd9b7ae1	-0.07591797
30	0xbd9fbb68	-0.07799417
31	0xbde9aa3e	-0.11409424
32	0x3e13aabe	0.14420602
33	0xbb87980d	-0.004137999
34	0xbcea2dda	-0.028586317
35	0xbd4eb5c0	-0.0504663
36	0x3e29a2ba	0.16565982
37	0xbe4cb6cf	-0.19991611
38	0x3e74a0f2	0.23889521
39	0x3c1ce437	0.009575895
40	0xbda37649	-0.079815455
41	0x3dec61a8	0.11542064
42	0xbe40b1bb	-0.18817799
43	0xbe52e5e8	-0.20595515
44	0xbdacfabe	-0.08446263
45	0x3e5390d5	0.20660718
46	0x3d9ce65f	0.07661127
47	0xbd861442	-0.065468326
48	0xbc97b265	-0.018517682
49	0xbdcecc45	-0.10097555
50	0x3e8f693d	0.28009978
51	0xbef76f14	-0.48326933
52	0x3b35268b	0.0027641382
53	0x3e04b6bb	0.12960331
54	0x3dc7971f	0.09745621
55	0x3e891e8a	0.26781112
56	0x3e82a1ae	0.25513977
57	0x3cc81350	0.024423271
58	0xbea971a8	-0.33094525
59	0x3dedc907	0.116106085
60	0xbe197bfe	-0.14988706
61	0x3dbdbc37	0.09264415
62	0x3e9b9106	0.30384082
63	0x3a5d4165	0.00084402255

sequential/conv2d_2/BiasAdd/ReadVariableOp f4 [64]
0	0xbdb4f64c	-0.0883604
1	0x3e356943	0.17715935
2	0xbec3f6e5	-0.38274303
3	0xbd890f0d	-0.06692324
4	0xbe99a057	-0.30005142
5	0x3e2cca07	0.16873942
6	0xbc568f9b	-0.013095762
7	0xbe80183e	-0.25018495
8	0x3e3ccc21	0.18437244
9	0xbce9ec68	-0.02855511
10	0x3da22c15	0.07918564
11	0xbbcba8d6	-0.006215195
12	0xbd695fbd	-0.05697607
13	0xbdb50c81	-0.088402756
14	0xbda2009e	-0.07910274
15	0x3e0259f5	0.12729628
16	0xbd919d04	-0.071100265
17	0xbe045109	-0.12921537
18	0x3ea8dba0	0.3298006
19	0x3e3daa92	0.18522099
20	0xbd3a4e70	-0.04548496
21	0x3e386a1f	0.18009232
22	0x3e360843	0.17776589
23	0xbd425b63	-0.047450434
24	0xbd8f4eae	-0.06997429
25	0xbda9c57a	-0.08289619
26	0x3d36ddc6	0.044645093
27	0x3d93bd45	0.07213835
28	0x3d483d35	0.048886497
29	0xbe085286	-0.1331273
30	0xbd2e60f3	-0.042572927
31	0xbe6e6927	-0.232823
32	0x3a35fae2	0.00069419865
33	0xbd4e0cf2	-0.050305314
34	0x3c0a19ca	0.008429
35	0x3e66c84f	0.22537349
36	0xbdee203a	-0.116272405
37	0xbd284fae	-0.041091613
38	0x3cf026ac	0.029315315
39	0xbdfc364a	-0.12315042
40	0xbdea88c8	-0.1145187
41	0xbe270b3f	-0.16312884
42	0x3e6e060e	0.23244497
43	0xbd4bfd81	-0.049802307
44	0xbdd69cce	-0.10479127
45	0xbe2b03a4	-0.16700608
46	0x3e03cb43	0.12870507
47	0x3dbf0a2b	0.09328111
48	0x3d96c1f2	0.07361211
49	0xbdd27aa2	-0.102772966
50	0x3e1182b4	0.14210016
51	0xbde0e2e8	-0.10980779
52	0xbe3473ee	-0.17622349
53	0x3c55a107	0.01303888
54	0xbddef14d	-0.10885868
55	0x3cbe2f9d	0.023216063
56	0xbdee8827	-0.11647063
57	0xbbc9ad3d	-0.006154685
58	0xbe9b0f44	-0.30285084
59	0xbe07710e	-0.1322672
60	0x3c15cf10	0.009143606
61	0x3cf6d726	0.030131888
62	0xbcaa4ee3	-0.02078957
63	0xbcc18231	-0.02362165

sequential/conv2d/Conv2D f4 [32, 5, 5, 1]
0	0xbe493649	-0.19649614
1	0xbe799cb6	-0.24376187
2	0xbdeec5b5	-0.116588034
3	0x3e5198e9	0.20468487
4	0x3e502d46	0.2032977
5	0xbdeb00ac	-0.114747375
6	0xbe14a253	-0.14515047
7	0x3d23bf50	0.03997737
8	0x3df18216	0.1179239
9	0x3dba5752	0.09098686
10	0x3d3ddf8d	0.046355773
11	0xbe19c8ed	-0.15018053
12	0x39af01e5	0.00033380013
13	0x3e799bde	0.24375865
14	0xbd3adf25	-0.045622963
15	0xbe5c179e	-0.21493384
16	0xbdf0464f	-0.1173216
17	0x3e041e02	0.12902072
18	0x3df722be	0.120671734
19	0x3dfcb10e	0.12338458
20	0xbe522f2d	-0.20525809
21	0x3dee649d	0.11640284
22	0x3e9d8f99	0.3077362
23	0x3cd16b59	0.025563883
24	0x3d60992e	0.054833584
25	0xbd5e0f2b	-0.054213684
26	0x3d7c22bb	0.06155656
27	0x3dca78b8	0.098863065
28	0x3df4c843	0.119522594
29	0x3d85b2b5	0.06528226
30	0xbcf52be8	-0.029928163
31	0xbe9da6c8	-0.30791306
32	0xbed50a6e	-0.4160952
33	0xbe521873	-0.20517139
34	0xbe25e8b9	-0.16202058
35	0xbc9014a8	-0.017587975
36	0xbd12eaae	-0.03586834
37	0xbe1fa421	-0.15589954
38	0xbe25314e	-0.1613209
39	0xbe0c8c77	-0.13725458
40	0xbcc3e9e1	-0.023915233
41	0x3e1d816b	0.153814
42	0x3e74e2cc	0.23914641
43	0x3d254539	0.04034922
44	0x3da1680d	0.07881174
45	0x3d1a3971	0.037652437
46	0x3d975e97	0.073910885
47	0x3dfc2228	0.12311202
48	0x3e7f2996	0.24918208
49	0x3dd09152	0.10183968
50	0xbe032289	-0.12806143
51	0xbeac6a78	-0.3367498
52	0xbe83b441	-0.2572346
53	0xbe95a939	-0.2923067
54	0xbe447cea	-0.19188276
55	0xbc70017f	-0.014648794
56	0xbe2fac54	-0.17155582
57	0xbe2e35c2	-0.17012694
58	0x3bd04503	0.006355883
59	0x3cbba774	0.022906996
60	0x3dcbcbff	0.099510185
61	0x3ddeeb90	0.10884774
62	0x3d4b83a5	0.049686093
63	0x3d625f49	0.055266652
64	0x3e220840	0.1582346
65	0xbdb2f177	-0.08737462
66	0x3d9952fb	0.074865304
67	0x3e405c63	0.18785243
68	0x3e126c01	0.14299013
69	0xbe07e18b	-0.13269632
70	0xbdad71e1	-0.08468986
71	0x3e0a5d10	0.13512063
72	0x3e3adf2c	0.18249196
73	0x3e482bad	0.19547911
74	0x3e110e14	0.14165527
75	0xbe3bbb1f	-0.183331
76	0xbcca2073	-0.024673676
77	0x3d18de25	0.03732123
78	0x3dedd753	0.116133355
79	0x3bcfa8f1	0.006337278
80	0x3cd12899	0.025532054
81	0x3c5bfc6f	0.013426884
82	0x3e628b0b	0.22123353
83	0x3e7a40c9	0.24438776
84	0x3db143d1	0.08655513
85	0xbd9cb1a5	-0.076510705
86	0xbe70e8cc	-0.23526305
87	0x3b039670	0.0020078681
88	0xbd59b4bc	-0.053150877
89	0x3dd5a2e2	0.10431458
90	0xbedd7e1e	-0.43260282
91	0xbf0f303e	-0.55932987
92	0xbea46daa	-0.32114917
93	0xbe1a7595	-0.15083916
94	0x3ab07a92	0.0013464263
95	0x3e0e1289	0.13874258
96	0xbe623758	-0.22091424
97	0xbe2c0219	-0.16797675
98	0xbc7430ef	-0.014904245
99	0x3dd09f3d	0.10186622
100	0xbc8e46c6	-0.017367732
101	0x39376d2c	0.0001749291
102	0x3dc60228	0.0966838
103	0xbc9a02cf	-0.018800167
104	0xbda93cc1	-0.08263541
105	0xbd17a0ff	-0.037018772
106	0x3e0aa47f	0.13539313
107	0x3e73d772	0.23812655
108	0x3dca8efd	0.09890554
109	0x3e0b9283	0.13630109
110	0x3ddd1656	0.10795276
111	0x3d870c44	0.06594136
112	0x3dfe9034	0.12429848
113	0x3e82c89c	0.25543678
114	0x3d98c585	0.07459549
115	0xbd409fb9	-0.047027323
116	0xbeab0655	-0.33403268
117	0xbcde16db	-0.027110508
118	0xb96bcd27	-0.00022487772
119	0x3c88922d	0.016671265
120	0xbe84e264	-0.25953972
121	0xbe9c7b37	-0.30562755
122	0xbec73a2c	-0.3891157
123	0xbe041d4c	-0.12901801
124	0xbd15311b	-0.036423784
125	0x3d960f04	0.07327083
126	0x3db17125	0.08664159
127	0x3ded1a94	0.11577335
128	0x3e1e2850	0.15445065
129	0x3e1c5b26	0.15269145
130	0x3de0e4cb	0.10981139
131	0x3c5bd601	0.013417722
132	0xbe4ca038	-0.19982994
133	0xbd8eff95	-0.06982342
134	0xbe002bf6	-0.1251677
135	0xbe7f3bf3	-0.24925213
136	0xbf057a37	-0.5213961
137	0xbeb994b6	-0.3624627
138	0xbe8fa1e7	-0.2805321
139	0xbe5cc4e4	-0.21559483
140	0xbe625e82	-0.22106364
141	0xbe99c659	-0.3003414
142	0xbe16c0b6	-0.14721951
143	0xbe40ad91	-0.1881621
144	0xbcd731ae	-0.026268806
145	0x3e00b815	0.12570222
146	0x3e660dc8	0.22466195
147	0x3d774669	0.060369883
148	0xbbe3bb00	-0.0069497824
149	0x3c9845a7	0.0185879
150	0x3e015f20	0.12633944
151	0xbdd805ee	-0.10548006
152	0xbd6a2654	-0.05716546
153	0x3dba204f	0.090881936
154	0xbe837a34	-0.2567917
155	0xbeb850da	-0.35999185
156	0xbe3d748f	-0.18501495
157	0xbca40261	-0.020020666
158	0xbe91f578	-0.2850759
159	0xbed6f71c	-0.41985404
160	0xbf012e54	-0.50461316
161	0xbe4848c1	-0.19559003
162	0xbdc2372c	-0.094831795
163	0xbe8b7837	-0.27240154
164	0xbe41aca7	-0.18913518
165	0xbd970857	-0.073746376
166	0x3dc9510d	0.09829912
167	0x3c6529b2	0.013986992
168	0x3e54c965	0.20779951
169	0x3e466d70	0.19377685
170	0xbdcc1cbc	-0.09966418
171	0x3e3ad806	0.18246469
172	0x3d03b6e4	0.03215684
173	0xbcfc861b	-0.030825665
174	0x3db99445	0.09061483
175	0xbeb6359f	-0.35587785
176	0xbe9bc71c	-0.30425346
177	0xbe1bdd81	-0.15221216
178	0x3e1bcbcd	0.15214463
179	0xbd723bbc	-0.059139
180	0x3ca8a7c7	0.020587815
181	0xbd9dcc94	-0.07705036
182	0xbe2dda1a	-0.1697773
183	0x3d46b966	0.048516653
184	0x3d9dcf65	0.07705573
185	0x3e9dcbb2	0.3081947
186	0x3d377d44	0.044797197
187	0xbda9449d	-0.0826504
188	0x3d60af7b	0.05485485
189	0xbc44e698	-0.012017868
190	0x3e055ca1	0.13023616
191	0x3d8194dd	0.063272215
192	0xbda4681e	-0.08027671
193	0xbda22481	-0.07917119
194	0xbe3969b3	-0.18106727
195	0x3d46c802	0.048530586
196	0x3c2b51c0	0.010456502
197	0x3e29e688	0.16591847
198	0xbc8c80e4	-0.017151304
199	0xbe6139a2	-0.21994641
200	0xbcbb52e6	-0.022866677
201	0x3d4d6a37	0.050150122
202	0x3e560b56	0.20902762
203	0xbe55775b	-0.20846312
204	0x3d14ec28	0.03635803
205	0xbdb0f7fa	-0.08641048
206	0x3ede3cc5	0.43405738
207	0x3db4557a	0.08805366
208	0xbe11a9a1	-0.14224865
209	0x3da01669	0.078167744
210	0xbda67046	-0.08126883
211	0x3f0eb6a7	0.55747455
212	0xbe14f273	-0.14545612
213	0xbdaebfa6	-0.08532648
214	0xbc87ed33	-0.016592598
215	0xbe00d492	-0.12581089
216	0x3e8c2f58	0.2737987
217	0xbd3b4343	-0.045718443
218	0xbc186d29	-0.00930337
219	0x3de27fed	0.11059556
220	0x3bee7db2	0.0072781676
221	0x3cef8292	0.029237065
222	0xbc5cd909	-0.01347948
223	0x3cfc2cfc	0.030783169
224	0x3c8a18c4	0.016857512
225	0xbdbeb41b	-0.09311696
226	0x3e2c2fb3	0.16815071
227	0x3e1ebbe1	0.15501358
228	0x3e8990c8	0.26868272
229	0xbda02829	-0.0782016
230	0xbda90457	-0.08252781
231	0x3ce117e6	0.027477216
232	0xbcb3c774	-0.021945693
233	0x3d0183e2	0.031619914
234	0xbcad5e61	-0.021163167
235	0xbe0d4b53	-0.13798265
236	0xbb543a8b	-0.0032383527
237	0xbbe93494	-0.0071168635
238	0x3d3d0cf7	0.046154942
239	0xbda4a334	-0.08038941
240	0xbd92c672	-0.07166757
241	0x3cbece5f	0.023291765
242	0x3ee11020	0.43957615
243	0x3de270e5	0.11056689
244	0xbe1b6c3f	-0.15178011
245	0x3ddfc543	0.109262966
246	0xbcf150cd	-0.029457474
247	0x3e3d2ce3	0.18474154
248	0xbdc591bd	-0.09646938
249	0xbeb8c35d	-0.3608655
250	0x3e4bf930	0.19919276
251	0x3ec5b0fc	0.3861159
252	0x3dea31cc	0.11435279
253	0xbdd89419	-0.105751224
254	0x3d7c5ae3	0.061610114
255	0x3e49c99c	0.19705814

sequential/conv2d_1/Conv2D f4 [64, 3, 3, 32]
0	0x3eb81d74	0.3595997
1	0xbda3a061	-0.07989574
2	0x3e125fd1	0.14294364
3	0x3c90f07a	0.017692793
4	0xbd0ce494	-0.034397677
5	0xbe67dfdb	-0.22643988
6	0x3db1e3ac	0.08686003
7	0x3d8e82af	0.0695852
8	0x3db15e15	0.08660523
9	0x3e259e6a	0.16173711
10	0x3ea9d05e	0.33166784
11	0xbe538d1b	-0.20659296
12	0x3e065a28	0.1312033
13	0x3e25fe64	0.16210324
14	0xbee072f1	-0.43837693
15	0x3ce69158	0.028145477
16	0x3e9010f1	0.28137925
17	0xbd3f1619	-0.046651933
18	0x3e0ba332	0.13636473
19	0xbea3a7c9	-0.31963947
20	0x3dfcc427	0.123421006
21	0x3d68868c	0.05676894
22	0x3dfac972	0.12245454
23	0x3dec6022	0.115417734
24	0x3e873708	0.26409173
25	0xbd4a4db3	-0.049390506
26	0x3e120c56	0.14262518
27	0xbde05112	-0.10952963
28	0x3e221a4f	0.15830348
29	0x3e416e31	0.18889691
30	0xbdc76cd5	-0.09737555
31	0x3b6b155a	0.003587088
32	0xbec37d33	-0.38181457
33	0x3daff537	0.08591693
34	0xbcd3e66c	-0.02586671
35	0xbe4a29ab	-0.19742458
36	0xbe7bdc98	-0.24595869
37	0xbe26946c	-0.16267556
38	0x3d3a3832	0.04546375
39	0x3e47d7b1	0.19515873
40	0x3e447cc5	0.19188221
41	0x3b86df01	0.0041159396
42	0x3e159c31	0.14610364
43	0xbdd1ff9d	-0.102538325
44	0x3e4f22c0	0.202281
45	0x3cb0ee08	0.021597877
46	0xbd89f4d6	-0.06736152
47	0x3d2edcb0	0.042690933
48	0x3d24ac6f	0.040203508
49	0x3e820892	0.25397164
50	0x3ddc8664	0.107678205
51	0xbdb167e7	-0.08662396
52	0x3e1d9533	0.15388946
53	0xbe295406	-0.16535959
54	0x3e5aa772	0.21352938
55	0x3d916d0e	0.07100879
56	0x3e4d1360	0.20026922
57	0x3d2b9dfd	0.041898716
58	0x3d6c66c3	0.05771519
59	0xbd8456f3	-0.06461897
60	0x3e684d67	0.22685777
61	0x3db4c495	0.088265575
62	0xbd7c8ea9	-0.06165949
63	0x3e76c5e8	0.24098933
64	0x3dcd6687	0.10029321
65	0x3adb79dc	0.0016744691
66	0xbe3ec71f	-0.18630646
67	0xbde0e401	-0.10980988
68	0xbcdad753	-0.026714003
69	0xbdabac4d	-0.08382473
70	0x3eb227f7	0.34796116
71	0xbc62e514	-0.013848562
72	0xbee3c41d	-0.4448556
73	0xbef1ddd7	-0.47239563
74	0xbeb6ac8e	-0.35678524
75	0x3cb507cf	0.02209845
76	0xbf0bb406	-0.5457157
77	0xbee8b6d1	-0.45451978
78	0xbd0c4b2e	-0.034251384
79	0xbe9caaca	-0.30599052
80	0xbeb53eaa	-0.3539937
81	0xbe4a831d	-0.19776578
82	0x3d5171b3	0.051133823
83	0x3e0d9c02	0.13829044
84	0xbed6dd57	-0.41965744
85	0xbe34c8f5	-0.17654784
86	0xbf19186e	-0.598029
87	0xbec94f9c	-0.3931855
88	0xbef7c3ac	-0.48391473
89	0x3d5f5e10	0.054533064
90	0xbeb0be85	-0.34520355
91	0xbe1c8703	-0.15285878
92	0x3c16ad54	0.009196598
93	0xbe17da4a	-0.14829364
94	0xbea59169	-0.32337502
95	0xbe069f81	-0.13146783
96	0x3d83a9dc	0.064288825
97	0x3dbca5b3	0.09211292
98	0x3e838b2f	0.25692126
99	0xbd8350f0	-0.06411922
100	0x3c4575da	0.012052024
101	0xbe08f3f4	-0.1337431
102	0xbe149ce4	-0.14512974
103	0xbd1ec3fb	-0.03876112
104	0x3dee517d	0.116366364
105	0xbd3ed704	-0.046591774
106	0xbe098838	-0.1343087
107	0xbd5f88a9	-0.05457369
108	0x3e232ae0	0.15934324
109	0x3d9d2d35	0.07674638
110	0xbe1bae49	-0.15203203
111	0x3e8b45d5	0.27201715
112	0xbde73914	-0.11290184
113	0x3c9087b6	0.017642837
114	0x3d86305d	0.06552193
115	0xbe746bac	-0.23869199
116	0xbd81222d	-0.06305347
117	0x3d54ee04	0.051984802
118	0x3e9163da	0.28396493
119	0xbd85f56d	-0.06540952
120	0xbdaecb7f	-0.085349075
121	0x3dc24dcc	0.09487495
122	0xbe051997	-0.12998043
123	0xba9b946f	-0.0011869798
124	0xbd18efbe	-0.03733801
125	0x3d7e67fe	0.062110893
126	0xbde9381e	-0.11387657
127	0xbd2aa566	-0.041661642
128	0xbd8ada0e	-0.06779872
129	0x3c57fb79	0.013182514
130	0x3d302eb1	0.04301328
131	0x3c143bc2	0.0090474505
132	0xbe821375	-0.2540547
133	0xbf24b4db	-0.64338464
134	0x3e091d8e	0.1339018
135	0x3cb6b2be	0.022302028
136	0xbd84e6a1	-0.064893015
137	0xbd25839f	-0.040408727
138	0xbdbf0abf	-0.093282215
139	0xbe0de337	-0.13856207
140	0x3e27530b	0.16340272
141	0xbcc84093	-0.024444854
142	0xbe789646	-0.24276075
143	0x3e6aa438	0.22914207
144	0x3c8f25dd	0.01747411
145	0x3e3a40f3	0.18188839
146	0x3de92622	0.113842264
147	0xbe13f4ce	-0.14448854
148	0x3dc899b6	0.09794943
149	0xbc2e41f1	-0.010635839
150	0x3d847551	0.06467689
151	0x3d2ca6d4	0.042151287
152	0xbb8637bf	-0.004096001
153	0x3de8455b	0.113413535
154	0xbdb5c675	-0.08875743
155	0xbdb085de	-0.08619283
156	0x3dd72bce	0.10506402
157	0xbb928eb2	-0.004472577
158	0xbe759c60	-0.23985434
159	0xbdff4c66	-0.12465744
160	0xbd876326	-0.06610708
161	0x3b8cf094	0.00430114
162	0xbe87f53d	-0.2655429
163	0x3dede91c	0.11616728
164	0xbc4dd582	-0.012563111
165	0xbeac8450	-0.33694696
166	0x3e03752d	0.12837668
167	0x3e5511e2	0.20807603
168	0xbecbffba	-0.3984354
169	0xbe91b2d2	-0.28456742
170	0xbec0a046	-0.3762228
171	0xbcf221ba	-0.029557098
172	0xbeecd159	-0.4625347
173	0xbf041af4	-0.5160363
174	0xbcfe39af	-0.031033365
175	0xbe8e0fa4	-0.27746308
176	0xbea0dcec	-0.3141855
177	0xbe672872	-0.22574022
178	0xbaf6e6f9	-0.0018837146
179	0x3e08a9bd	0.13346
180	0xbe8e3f6e	-0.27782768
181	0xbe46c3fe	-0.19410703
182	0xbe8602ed	-0.26174107
183	0xbead015b	-0.33790097
184	0xbe5dfdbe	-0.21678826
185	0x3cdb8849	0.026798384
186	0xbe9caa9a	-0.3059891
187	0x3d8476b0	0.0646795
188	0xbe3700ce	-0.178714
189	0xbe44c176	-0.19214424
190	0xbe4a1f26	-0.19738445
191	0xbeb31f91	-0.3498502
192	0x3aba508c	0.0014214679
193	0x3c3a27a8	0.011361994
194	0x3e02c5c1	0.1277075
195	0x3da3b9ef	0.079944484
196	0x3df394b3	0.118935965
197	0xbd892e94	-0.06698337
198	0xbddf275c	-0.10896179
199	0xbcb5b54d	-0.022181178
200	0x3b27037e	0.002548426
201	0xbc5b36d3	-0.01337977
202	0x3cb6b9d7	0.022305412
203	0x3df6c471	0.12049187
204	0xbc806c6a	-0.015676696
205	0x3e0be9c0	0.13663387
206	0xbdc47a10	-0.09593594
207	0x3d64c403	0.055850994
208	0xbda96689	-0.0827151
209	0x3b76d4a4	0.0037663365
210	0xbd39715b	-0.04527412
211	0xbaadc08b	-0.0013256235
212	0xba5e0c75	-0.0008470484
213	0x3e5b0cad	0.21391554
214	0xbba7184b	-0.0050993315
215	0xbda624b5	-0.0811247
216	0xbcd042be	-0.02542245
217	0xbc81b9b0	-0.015835613
218	0xbdd4a1c3	-0.10382416
219	0x3e25f5ec	0.16207093
220	0xbe168748	-0.14700043
221	0xbc9b760a	-0.018977184
222	0x3e5d9a7a	0.2164096
223	0x3b512ff9	0.0031919463
224	0xbd9400d0	-0.072267175
225	0xbdee5448	-0.11637169
226	0x3d0432dc	0.032275066
227	0x3de7df90	0.11321938
228	0x3da0bde3	0.07848718
229	0x3e29b0dd	0.16571374
230	0xbbaac65d	-0.005211635
231	0x3d92636f	0.07147872
232	0xbe149c6a	-0.14512792
233	0xbde4e66a	-0.111767605
234	0xbdfeb130	-0.124361396
235	0xbe009c3c	-0.12559599
236	0xbca41c00	-0.020032883
237	0xbb0b4b90	-0.0021254756
238	0x3e024233	0.12720565
239	0x3d619ed9	0.05508313
240	0x3d7bc09c	0.061462983
241	0x3ca08515	0.019594708
242	0xbcc380fc	-0.023865215
243	0x3e8eba57	0.2787654
244	0xbe5e1dc2	-0.21691039
245	0xbdb80991	-0.089862
246	0x3d60a7ac	0.054847404
247	0xbd8dd68e	-0.06925689
248	0x3da72a09	0.081623144
249	0x3c816da5	0.015799353
250	0xbdb50293	-0.088383816
251	0xbd261136	-0.040543757
252	0xbd48d92d	-0.04903524
253	0xbe623a59	-0.2209257
254	0xbd87930f	-0.06619846
255	0xbcb39372	-0.021920893

sequential/conv2d_2/Conv2D f4 [64, 3, 3, 64]
0	0xbccd0e87	-0.025031341
1	0x3d06bdb6	0.032895766
2	0x3cba435c	0.022737198
3	0xba1ada55	-0.0005907168
4	0xbdebf121	-0.11520601
5	0xbd179578	-0.03700778
6	0xbeb4b8c4	-0.35297215
7	0xbc68fc2d	-0.01422028
8	0xbdb977d0	-0.090560555
9	0xbe88aadb	-0.26692852
10	0x3ce93552	0.028467808
11	0x3db5f2ad	0.08884177
12	0xbe5180de	-0.20459315
13	0xbdb38976	-0.08766453
14	0xbd26489a	-0.040596582
15	0xbcb912f1	-0.02259204
16	0x398dfdbe	0.00027082668
17	0xbcd67caa	-0.026182491
18	0x3deb1aa9	0.114796944
19	0x3de77819	0.11302204
20	0x3de4385c	0.11143562
21	0xbdeec016	-0.11657731
22	0x3d9e6259	0.07733602
23	0xbd8a5285	-0.067540206
24	0x3d7a3acd	0.061091233
25	0x3e201dff	0.15636443
26	0xbdbe7649	-0.09299905
27	0xbe6ced34	-0.23137361
28	0xbe5cd73c	-0.2156648
29	0xbde352f2	-0.11099805
30	0x3c4991a6	0.012302792
31	0x3c9f5c5e	0.019453224
32	0xbe11d098	-0.14239728
33	0xbdf84b4e	-0.12123738
34	0xbcd9ff2e	-0.026610937
35	0xbd9c29cb	-0.07625159
36	0xbe1f21ca	-0.15540233
37	0xbd1a4258	-0.037660927
38	0xbe3527f1	-0.17691018
39	0xbc8b86d7	-0.01703207
40	0xbdd4f092	-0.10397448
41	0x3e1630d4	0.14667064
42	0xbe86d0fd	-0.2633132
43	0x3d7b3fa7	0.06134
44	0x3e5da643	0.21645455
45	0x3d377d77	0.044797387
46	0x3cd408db	0.025883129
47	0x3bbbf4f7	0.005735989
48	0x3d9208f2	0.071306124
49	0xbcca2c03	-0.02467919
50	0xbdf2778b	-0.11839207
51	0xbe282ab8	-0.16422546
52	0xbe4f768b	-0.20260064
53	0xbda9d333	-0.08292236
54	0xbde1e16b	-0.11029323
55	0xbe75bae0	-0.23997068
56	0xbe944e15	-0.28965822
57	0xbd21e4c1	-0.039524797
58	0xbe82f4f7	-0.25577518
59	0xbe8c63b8	-0.2741983
60	0xbead4887	-0.33844396
61	0xbba4a47c	-0.005024491
62	0xbe6f72c3	-0.23383622
63	0xbdf013a8	-0.11722499
64	0x3daccc5e	0.084374174
65	0xbaf601d2	-0.0018768853
66	0xbe0ebca3	-0.13939147
67	0x3d874428	0.06604797
68	0x3e1b6104	0.15173727
69	0xbd287d22	-0.04113496
70	0xbcb2356e	-0.021753993
71	0x3e6495b7	0.22322737
72	0x3dbeeadb	0.09322139
73	0xbd33114d	-0.04371767
74	0x3d8d43a3	0.06897666
75	0x3d86f95f	0.065905325
76	0x3d87a356	0.06622951
77	0x3dd9d8b0	0.10637033
78	0xbda639a4	-0.08116463
79	0xbcf8f30e	-0.030389335
80	0x3e8437b5	0.2582375
81	0xbe0da699	-0.13833083
82	0xbe103e9f	-0.14086388
83	0x3e4e22b5	0.20130427
84	0xbdbb22df	-0.091375105
85	0x3c4f0b0b	0.01263691
86	0x3d66bbbb	0.056331377
87	0x3e3b5f6b	0.18298118
88	0xbe80567c	-0.25065982
89	0x3d7074ab	0.058705013
90	0x3e21bf32	0.15795591
91	0xbe9e6ee7	-0.30943987
92	0xbce433d3	-0.027856743
93	0xbd0ace5d	-0.03388821
94	0xbe21e537	-0.15810095
95	0xbcc40f7e	-0.023933169
96	0x3d9db8d4	0.07701269
97	0x3db755e3	0.089519285
98	0x3d2304ac	0.039799377
99	0xbc857986	-0.016293298
100	0xbd4b7f43	-0.049681913
101	0xbe30be59	-0.17260112
102	0xbeb040b6	-0.3442437
103	0x3d35f553	0.044423413
104	0x3e893829	0.2680066
105	0xbe95421f	-0.2915201
106	0x3da8020b	0.08203515
107	0x3de47f4c	0.111570925
108	0xbdf7569f	-0.120770685
109	0x3dd0f452	0.102028504
110	0x3e096482	0.13417247
111	0xbda63a89	-0.081166334
112	0x3cd578df	0.026058612
113	0x3d4bd9b6	0.049768172
114	0xbe8775e2	-0.26457125
115	0xbe165aec	-0.14683121
116	0xbed7778a	-0.4208339
117	0xbe43fc46	-0.19139203
118	0xbe85c347	-0.26125547
119	0xbc440555	-0.011964162
120	0xbd901f56	-0.07037227
121	0xbd9c1f0c	-0.07623109
122	0x3c80201f	0.015640317
123	0xbd219d40	-0.039456606
124	0x3c92566b	0.017863473
125	0xbdc51d23	-0.09624698
126	0x3cf2bcdf	0.029631076
127	0x3e1a3d25	0.15062387
128	0x3e047900	0.12936783
129	0x3d2bf589	0.041982207
130	0xbefff527	-0.49991724
131	0xbd1791c3	-0.037004244
132	0xbe8897a2	-0.26678187
133	0x3e07052a	0.13185564
134	0x3cc1487e	0.023594137
135	0xbe1f6dde	-0.15569255
136	0xbdc945d5	-0.098277725
137	0x3dc02752	0.093825
138	0xbec732f8	-0.38906074
139	0x3d297502	0.041371353
140	0x3d0f3aba	0.034968115
141	0x3e04ad64	0.12956768
142	0xbd39d16c	-0.045365736
143	0x3d6e9c93	0.05825479
144	0xbe134845	-0.14383037
145	0x3e63f8d7	0.22262894
146	0xbe1658aa	-0.1468226
147	0x3cb0be46	0.021575104
148	0x3c211ef1	0.009834037
149	0x3e9a49e4	0.301345
150	0xbcc1aec2	-0.023642901
151	0x3d943800	0.07237244
152	0xbe25077d	-0.16116138
153	0x3e13ae49	0.14421953
154	0xbe4e6899	-0.20157088
155	0x3cc4e071	0.024032803
156	0x3e8dc03b	0.27685723
157	0xbd74647e	-0.05966615
158	0xbc80af19	-0.015708493
159	0x3ea6e787	0.32598516
160	0xbeb20c06	-0.34774798
161	0xbdd47901	-0.10374642
162	0xbe09e757	-0.13467155
163	0xbe1ba1a6	-0.15198383
164	0xbe95de85	-0.2927133
165	0xbe95af27	-0.29235193
166	0xbdf401db	-0.119144164
167	0xbd86aedd	-0.06576321
168	0x3e38e9e6	0.18057975
169	0xbe0ff52f	-0.14058374
170	0x3c91d7d3	0.017803108
171	0x3c66404e	0.014053417
172	0x3da5ac6e	0.08089529
173	0x3e917a09	0.28413418
174	0xbe244d20	-0.16045046
175	0xbe4d67a1	-0.20059063
176	0xbcaa6d08	-0.020803943
177	0x3e3b808e	0.18310758
178	0xba3f5b18	-0.0007299646
179	0x3dae28a8	0.08503848
180	0xbbd53b47	-0.0065073106
181	0x3dc5b602	0.09653856
182	0xbea45461	-0.32095626
183	0x3d58791a	0.052849866
184	0xbcc2ec38	-0.023794279
185	0xbd1fbd04	-0.03899862
186	0x3d594e45	0.05305316
187	0x3e96ad4f	0.294291
188	0xbd199129	-0.03749195
189	0xbd3c5828	-0.04598251
190	0xbea2d20f	-0.31800887
191	0xbdc24823	-0.09486415
192	0xbb8d106f	-0.0043049376
193	0x3d2071ff	0.039171215
194	0x3de06673	0.10957041
195	0xbe5d64da	-0.21620503
196	0x3e1e68a8	0.1546961
197	0x3db0187a	0.085984185
198	0x3d195442	0.03743387
199	0xbd0058b2	-0.031334586
200	0x3e94d227	0.29066584
201	0xbe6631d3	-0.22479944
202	0xbe155128	-0.1458174
203	0x3cb21d90	0.021742612
204	0x3e98af0f	0.2982106
205	0x3c0c0038	0.008544974
206	0x3d1f72bb	0.038927775
207	0x3dc3ec04	0.09566501
208	0x3d609c27	0.05483642
209	0x3e3f10c1	0.18658735
210	0x3ea0146d	0.31265584
211	0x3dab0be1	0.08351875
212	0xbc8232a5	-0.01589329
213	0xbc84f3e0	-0.01622957
214	0x3d3070aa	0.043076195
215	0x3e8627b7	0.26202175
216	0x3e252625	0.16127832
217	0x3d0acbee	0.03388589
218	0xbe0f3e9e	-0.1398873
219	0xbd959694	-0.07304111
220	0xbc90fad4	-0.01769773
221	0xbede73b3	-0.43447646
222	0x3e6361ff	0.22205351
223	0xbd4f8f3d	-0.050673712
224	0xbdc81164	-0.09768942
225	0x3d4bf1ba	0.049791075
226	0xbd138923	-0.036019456
227	0xbd8ce42d	-0.068794586
228	0xbe6916b5	-0.22762568
229	0x3e2f31d7	0.17108856
230	0x3e8486e5	0.25884166
231	0x3da7b3c1	0.08188582
232	0x3ead3924	0.33832657
233	0xbe012086	-0.12610063
234	0x3d2f466a	0.04279176
235	0xbe5fc878	-0.21853817
236	0xbe105747	-0.14095794
237	0x3dce20e6	0.10064869
238	0x3cd52912	0.02602056
239	0x3c399ca6	0.011328852
240	0x3ebffceb	0.3749765
241	0x3e07ebfb	0.13273613
242	0x3e71a3a0	0.23597574
243	0xbb80bd08	-0.0039287843
244	0x3e19d8b1	0.15024067
245	0x3e3f3092	0.18670872
246	0xbdc585c9	-0.09644658
247	0xbdded340	-0.108801365
248	0xbc81bca5	-0.015837023
249	0xbd9fe3dd	-0.07807133
250	0x3d38643d	0.04501747
251	0x3ea09f7b	0.31371674
252	0xb9df8bb9	-0.00042637976
253	0x3cac6c5e	0.021047767
254	0xbdb011f3	-0.085971735
255	0x3dcde872	0.10054101

sequential/lstm/Read_2/ReadVariableOp f4 [64]
0	0x3e500c07	0.20317088
1	0x3c888104	0.016663082
2	0x3d0b8f11	0.034071986
3	0x3e336712	0.17519787
4	0x3e0dfefd	0.13866802
5	0x3e195ea1	0.14977504
6	0x3e1a1b78	0.15049541
7	0x3d9713ad	0.073768
8	0xbe2bd9e3	-0.16782336
9	0xbb9a0d1f	-0.004701271
10	0xbde79b5b	-0.113089286
11	0xbba33bd0	-0.0049814954
12	0x3e458e63	0.19292597
13	0x3e563bdb	0.2092127
14	0x3c1413a8	0.00903789
15	0xbd9720d6	-0.0737931
16	0x3f8924d0	1.0714359
17	0x3f94217d	1.157272
18	0x3f887938	1.0661993
19	0x3f8c561b	1.0963777
20	0x3f923b53	1.1424354
21	0x3f939cc8	1.1532221
22	0x3f83f3fc	1.0308833
23	0x3f962099	1.1728698
24	0x3f869eb7	1.0517186
25	0x3f9ab255	1.2085673
26	0x3f80b384	1.0054784
27	0x3f8dba12	1.1072409
28	0x3fa1e85e	1.2649038
29	0x3f7e6137	0.9936709
30	0x3f98dc31	1.1942197
31	0x3f890926	1.0705917
32	0x3dac0d92	0.08401026
33	0xbdabd661	-0.08390499
34	0x3dd2b183	0.10287764
35	0xbdbc2e70	-0.09188545
36	0xbd97817d	-0.07397745
37	0xbdc5c63d	-0.096569516
38	0xbe2a8145	-0.16650875
39	0x3df8641a	0.12128468
40	0x3c4adf53	0.012382346
41	0x3d58f8e5	0.05297174
42	0x3e02535e	0.12727115
43	0x3d85c5fb	0.065319024
44	0x3e00d61a	0.12581673
45	0xbdb29a1d	-0.08720801
46	0x3cd2f42c	0.025751196
47	0x3cc763da	0.024339605
48	0x3e0dcf3c	0.13848585
49	0x3ec6a4c8	0.38797593
50	0x3e447aa0	0.19187403
51	0x3e4aa30c	0.1978876
52	0xbd688ae6	-0.05677309
53	0x3e74f625	0.23922022
54	0x3e562ff4	0.2091673
55	0x3e86a151	0.2629495
56	0x3de67652	0.112530366
57	0x3c8ca436	0.017168146
58	0x3e5693e8	0.2095486
59	0x3b1d5410	0.0024006404
60	0x3ea965f8	0.33085608
61	0x3e2ca76f	0.16860746
62	0x3e8d553d	0.27604094
63	0x3d1c3e1d	0.038145173

sequential/dense/BiasAdd/ReadVariableOp f4 [32]
0	0x3d61eb25	0.055155892
1	0x3d9c5f3f	0.07635354
2	0xbdeb966c	-0.115033
3	0xbc95c1cc	-0.018280886
4	0xbdae7726	-0.085188195
5	0x3d6af466	0.057361983
6	0xbc620d9c	-0.01379719
7	0x3e5bd52e	0.2146804
8	0xbb27a8c8	-0.002558278
9	0x3d580b97	0.052745428
10	0xbd8f3871	-0.06993187
11	0x3d49772b	0.049185913
12	0xbd0451ba	-0.032304503
13	0xbc0c0f63	-0.00854859
14	0x3e306001	0.17224123
15	0x3dfa41ef	0.12219607
16	0x3e1adc8f	0.15123199
17	0x3e480547	0.19533263
18	0x3b528f8b	0.0032129015
19	0x3d52de84	0.05148174
20	0x3d715b0b	0.058924716
21	0xbdc72b1d	-0.0972502
22	0xb8e18a44	-0.0001075459
23	0x3d4587d0	0.048225224
24	0x3e285f38	0.16442573
25	0xbcbef610	-0.023310691
26	0x3c809830	0.015697569
27	0x3d9654df	0.073404066
28	0x3dd61391	0.10452951
29	0x3d5cf0a6	0.053940438
30	0xbc151cc0	-0.009101093
31	0x3e4349ee	0.1907117

sequential/batch_normalization/FusedBatchNormV3 f4 [32]
0	0x3f94bdeb	1.1620458
1	0x4032ddcc	2.7947874
2	0x4000b724	2.011178
3	0x40b9af68	5.802662
4	0x401e539d	2.4738533
5	0x410e591e	8.896757
6	0x40dcfa0a	6.9055223
7	0x40520dc5	3.2820904
8	0x3f11d6b2	0.56968224
9	0x3f52bfeb	0.82324094
10	0x3e7a741e	0.24458358
11	0x40167114	2.3506517
12	0x4054ab3e	3.3229518
13	0x408c7663	4.3894515
14	0x40a88c96	5.2671614
15	0x408d43d4	4.41453
16	0x3f3fc401	0.74908453
17	0x3fc16442	1.5108721
18	0x401a01ce	2.4063601
19	0x4017c53c	2.3714132
20	0x3fc22ed0	1.5170536
21	0x3ed1365f	0.40861794
22	0x4051b60c	3.2767363
23	0x3ee92394	0.45534956
24	0x3f33f573	0.702964
25	0x41be34e8	23.775833
26	0x3e75b6b5	0.23995478
27	0x4012afd6	2.2919822
28	0x3f940cc2	1.1566393
29	0x3f7bb946	0.9832958
30	0x408e1c15	4.440928
31	0x3fe41168	1.7817812

sequential/batch_normalization/FusedBatchNormV31 f4 [32]
0	0xbed5e467	-0.4177582
1	0xbf234a8f	-0.6378564
2	0xbed3ca7b	-0.41365418
3	0xbebb5e50	-0.36595392
4	0xbeade728	-0.3396542
5	0xbe45040e	-0.19239828
6	0xbeda448c	-0.42630422
7	0xbf0904ec	-0.53523135
8	0xbe7cd298	-0.2468971
9	0xbe69c217	-0.22827946
10	0xbd775670	-0.060385168
11	0xbf077544	-0.5291331
12	0xbeca1909	-0.39472225
13	0xbe58f07e	-0.2118549
14	0xbd579774	-0.05263467
15	0xbed165ac	-0.40897882
16	0xbe4e7aa2	-0.20163968
17	0xbe273fe4	-0.16332966
18	0xbddbd4b8	-0.10733932
19	0xbee1dc34	-0.44113314
20	0xbe8cfc03	-0.2753602
21	0xbe3f3f7c	-0.18676561
22	0xbef569da	-0.4793232
23	0xbe0fc2da	-0.14039174
24	0xbebc8ba3	-0.36825284
25	0xbf37c24f	-0.71780866
26	0xbe31ad43	-0.1735125
27	0xbea92f8a	-0.33044082
28	0xbf14334c	-0.5789077
29	0xbdf3e0b4	-0.11908093
30	0xbdfac63d	-0.12244842
31	0xbd9d6e8b	-0.076871

sequential/batch_normalization_1/FusedBatchNormV3 f4 [64]
0	0x3e94f1a5	0.2909061
1	0x3e2834b9	0.16426362
2	0x3ef5771a	0.4794243
3	0x3e8a3d70	0.26999998
4	0x3eef83bd	0.46780196
5	0x3ec78742	0.3897038
6	0x3f746ad3	0.954755
7	0x3f270248	0.65237856
8	0x3f52814f	0.8222856
9	0x3e9f6462	0.31131274
10	0x3ef3aa97	0.47591087
11	0x3e93d50f	0.28873488
12	0x3f49ef45	0.7888072
13	0x3ea43762	0.32073504
14	0x3e8810f1	0.26575425
15	0x3f0e7ae1	0.5565625
16	0x3e4c8779	0.19973554
17	0x3f117268	0.56815195
18	0x3e438a9c	0.19095844
19	0x3ee178e5	0.44037548
20	0x3ed8f7b8	0.42376494
21	0x3eb1490b	0.3462604
22	0x3e426816	0.18985018
23	0x3e933442	0.28750807
24	0x3eae0772	0.33990055
25	0x3ec90aca	0.39266044
26	0x3f03f152	0.515401
27	0x3e864117	0.26221535
28	0x3e8480fe	0.25879663
29	0x3edc17de	0.4298696
30	0x3f4d6249	0.80228096
31	0x3ed447ee	0.41461128
32	0x3e56055e	0.20900485
33	0x3f7a0d10	0.9767618
34	0x3f79e1f2	0.9761039
35	0x3f839281	1.0279084
36	0x3ecd249d	0.40066996
37	0x3e47b319	0.19501914
38	0x3f078df3	0.5295097
39	0x3f7c7126	0.9861015
40	0x3f1f3159	0.62184674
41	0x3f198e5c	0.5998285
42	0x3eb07b9e	0.34469312
43	0x3ef1102c	0.4708265
44	0x3e856efa	0.2606123
45	0x3e39ff41	0.18163778
46	0x3f50016c	0.8125217
47	0x3f293ba9	0.6610666
48	0x3f486ee5	0.7829421
49	0x3eab4694	0.33452284
50	0x3f18d0e7	0.5969376
51	0x3f06ae7a	0.5260998
52	0x3edfb30f	0.43691298
53	0x3f1c6526	0.6109184
54	0x3f38f9ae	0.7225598
55	0x3f2df587	0.6795277
56	0x3f1d1135	0.6135438
57	0x3e8350f9	0.25647715
58	0x3de35216	0.11099641
59	0x3e51e46f	0.20497297
60	0x3e73c8c0	0.23807049
61	0x3ebb7dbb	0.36619362
62	0x3f1a332b	0.60234326
63	0x3f069b8d	0.525811

sequential/batch_normalization_1/FusedBatchNormV31 f4 [64]
0	0xbee78a23	-0.45222577
1	0xbeadbb37	-0.33931896
2	0xbf1390c6	-0.5764278
3	0xbeab2318	-0.33425212
4	0xbf0e66ce	-0.5562562
5	0xbf3d8bb2	-0.74041283
6	0xbf6caa7d	-0.92447644
7	0xbf118eb2	-0.5685836
8	0xbf513d83	-0.81734484
9	0xbef30175	-0.4746205
10	0xbf5b0dd2	-0.85567963
11	0xbe90e1de	-0.28297323
12	0xbeb91c67	-0.36154482
13	0xbe8dc847	-0.27691862
14	0xbf0ecbc6	-0.55779684
15	0xbee3737f	-0.44424054
16	0xbead9efd	-0.3391036
17	0xbed19dc9	-0.40940693
18	0xbe949890	-0.29022646
19	0xbf3acdb4	-0.7297013
20	0xbeacf16d	-0.33777943
21	0xbed25b29	-0.41085175
22	0xbeb664f5	-0.356239
23	0xbecec53d	-0.40384856
24	0xbe180634	-0.14846116
25	0xbeacd94e	-0.3375954
26	0xbec8e843	-0.39239702
27	0xbeb228f0	-0.34796858
28	0xbe35e2b6	-0.17762265
29	0xbf2acaa8	-0.6671548
30	0xbf2752bf	-0.65360636
31	0xbeca18aa	-0.39471942
32	0xbef4be24	-0.47801316
33	0xbf561d73	-0.83638686
34	0xbf427e33	-0.75973815
35	0xbf3bc2ac	-0.7334392
36	0xbf38e0a8	-0.722178
37	0xbebdbce5	-0.37058178
38	0xbf0c8e52	-0.54904664
39	0xbf06e7ca	-0.5269743
40	0xbf103ebb	-0.5634572
41	0xbf03b907	-0.51454204
42	0xbe4819ce	-0.19541094
43	0xbeea0126	-0.45704
44	0xbeef15a3	-0.46696195
45	0xbe73f081	-0.23822214
46	0xbefa09ba	-0.48835546
47	0xbee5c254	-0.44874823
48	0xbe362f5c	-0.17791504
49	0xbec27733	-0.37981567
50	0xbf71620a	-0.9429022
51	0xbe46b53d	-0.19405074
52	0xbf2a535f	-0.66533464
53	0xbf91a18c	-1.1377425
54	0xbf93163d	-1.1491162
55	0xbf16cd98	-0.5890746
56	0xbf19cf4a	-0.60081923
57	0xbe45eee6	-0.19329414
58	0xbe6da044	-0.23205668
59	0xbead08ab	-0.33795676
60	0xbe0ef614	-0.13961059
61	0xbe74124c	-0.23835105
62	0xbf808b05	-1.0042425
63	0xbeacc509	-0.33744076

sequential/batch_normalization_2/FusedBatchNormV3 f4 [64]
0	0x3f175072	0.59107125
1	0x3e497536	0.19673619
2	0x3f0f16c5	0.5589412
3	0x3eb10786	0.34576052
4	0x3e29398a	0.16525856
5	0x3e81de36	0.25364846
6	0x3eafec87	0.34360144
7	0x3ebc34a3	0.3675891
8	0x3eb64453	0.35599002
9	0x3e0f9d6a	0.14024892
10	0x3e360c21	0.17778064
11	0x3e2afdda	0.16698399
12	0x3e928474	0.2861668
13	0x3dba29b9	0.09089989
14	0x3ef9af6f	0.48766658
15	0x3e537019	0.2064823
16	0x3e97bb1b	0.29634938
17	0x3dd9a82e	0.10627781
18	0x3ec27458	0.37979388
19	0x3ec9c2c8	0.3940642
20	0x3e952d05	0.2913591
21	0x3e963723	0.2933894
22	0x3f202bf0	0.62567043
23	0x3ee1bddf	0.44090173
24	0x3eb63a5c	0.355914
25	0x3e5121d5	0.20423062
26	0x3f147c50	0.58002186
27	0x3edd91c2	0.43275267
28	0x3e883e80	0.26610184
29	0x3e8b4e74	0.27208292
30	0x3f37096d	0.7149876
31	0x3eb27660	0.34855938
32	0x3e7346b7	0.23757444
33	0x3eda47b0	0.42632818
34	0x3efef4e7	0.4979622
35	0x3f19a7e9	0.60021836
36	0x3e83e01d	0.25756922
37	0x3e921090	0.2852826
38	0x3e87e144	0.26539052
39	0x3ef6367e	0.4808845
40	0x3e3a9798	0.18221891
41	0x3ee5c802	0.44879156
42	0x3ea29e44	0.31761372
43	0x3e4d02c1	0.20020582
44	0x3e45f6c8	0.19332421
45	0x3dd17c17	0.102287464
46	0x3e8f6e33	0.28013763
47	0x3e206927	0.15665112
48	0x3ea7973e	0.32732576
49	0x3ea4ff34	0.32225955
50	0x3e054d17	0.13017689
51	0x3ecf6b99	0.40511778
52	0x3e0a7f16	0.13525042
53	0x3f1d3fd6	0.6142553
54	0x3e9357fd	0.28778067
55	0x3eae9f43	0.34105882
56	0x3e46121e	0.19342849
57	0x3efcc785	0.4937097
58	0x3f272e32	0.65304863
59	0x3ee42377	0.44558308
60	0x3ed7a96a	0.4212144
61	0x3e061e3a	0.13097468
62	0x3ecad744	0.3961736
63	0x3f1524dc	0.5825937

sequential/batch_normalization_2/FusedBatchNormV31 f4 [64]
0	0xbecc63f2	-0.39920002
1	0xbefe509d	-0.49670878
2	0xbe33af9c	-0.17547458
3	0xbedecd2b	-0.43515906
4	0xbea2cb48	-0.31795716
5	0xbe91c42c	-0.2846998
6	0xbf29d2a2	-0.66337025
7	0xbe954c6a	-0.29159862
8	0xbde9ef24	-0.114225656
9	0xbeeffd62	-0.46873003
10	0xbeb19e9f	-0.3469133
11	0xbec547e9	-0.38531426
12	0xbeb80922	-0.35944468
13	0xbee460ce	-0.44605106
14	0xbe10a3d8	-0.14125001
15	0xbf007f7e	-0.5019454
16	0xbe2d2cd0	-0.16911626
17	0xbeadf8a1	-0.3397875
18	0xbf639b87	-0.8890919
19	0xbeba70cd	-0.36414185
20	0xbee94590	-0.45560884
21	0xbef4b63d	-0.47795287
22	0xbefcd276	-0.4937932
23	0xbe1f4d59	-0.1555685
24	0xbf0b724d	-0.54471284
25	0xbde7ae0e	-0.11312495
26	0xbf0a1581	-0.5393906
27	0xbed46df9	-0.41490152
28	0xbe864b19	-0.2622917
29	0xbee0a97c	-0.43879306
30	0xbeb354a2	-0.35025507
31	0xbeb05d02	-0.3444596
32	0xbe73dc6a	-0.2381455
33	0xbe938783	-0.28814325
34	0xbe6044ad	-0.21901198
35	0xbf134ab2	-0.5753585
36	0xbe842c71	-0.25815156
37	0xbe933425	-0.2875072
38	0xbe71cc3b	-0.23613064
39	0xbecb2b9e	-0.39681715
40	0xbec44ac9	-0.38338307
41	0xbe9f141a	-0.31070024
42	0xbed566e3	-0.4168006
43	0xbed70841	-0.41998485
44	0xbed049de	-0.40681356
45	0xbed1e1ae	-0.40992492
46	0xbedaea3c	-0.42756832
47	0xbefd2229	-0.49440125
48	0xbeba39d7	-0.36372253
49	0xbeedd12a	-0.46448642
50	0xbf020026	-0.50781476
51	0xbedc453c	-0.43021572
52	0xbec0fd10	-0.3769307
53	0xbf171a41	-0.59024435
54	0xbe99eee2	-0.30065066
55	0xbea9f054	-0.33191168
56	0xbe8928d0	-0.2678895
57	0xbdf9e3dc	-0.12201664
58	0xbef25a39	-0.4733446
59	0xbf0384d4	-0.51374555
60	0xbeccbd22	-0.39988047
61	0xbe968d08	-0.29404473
62	0xbe9c6741	-0.30547526
63	0xbed3cb65	-0.41366115

sequential/dense/MatMul f4 [32, 16]
0	0xbe610d14	-0.21977645
1	0xbecda50d	-0.40164986
2	0x3e0fe892	0.14053562
3	0x3e9c6125	0.30542865
4	0x3e3bd9ec	0.1834485
5	0xbee50b7f	-0.44735333
6	0xbec1bab6	-0.37837762
7	0x3eae4e9c	0.3404435
8	0xbeab1d5a	-0.3342083
9	0x3e94a70e	0.29033703
10	0x3e8f45d1	0.27982953
11	0x3e334fbe	0.17510888
12	0xbd795833	-0.06087513
13	0x3e8f05e9	0.27934197
14	0x3f22788d	0.63465196
15	0xbee1fa10	-0.44136095
16	0xbee95b83	-0.4557763
17	0xbe8638d1	-0.26215222
18	0xbd405e50	-0.046964943
19	0xbe8fba60	-0.2807188
20	0x3ece7eb6	0.40331048
21	0xbe9a0bb3	-0.3008705
22	0xbf22a9d1	-0.6354037
23	0x3f2d375d	0.676626
24	0xbeca61f8	-0.3952787
25	0x3de7f457	0.11325901
26	0x3eb87ea7	0.36034128
27	0x3e227c58	0.15867746
28	0xbe235b02	-0.15952685
29	0x3d937747	0.07200485
30	0x3e10490d	0.14090367
31	0xbdb14ef6	-0.08657639
32	0xbe05d032	-0.13067701
33	0x3f0b6f4e	0.5446671
34	0xbe23c0a0	-0.1599145
35	0xbc988ea0	-0.018622696
36	0xbcddeaf4	-0.027089573
37	0x3e69e368	0.22840655
38	0x3ec6716b	0.38758406
39	0xbd7ba00f	-0.06143194
40	0x3e8a8540	0.27054787
41	0xbf0ed3f8	-0.5579219
42	0xbefaa871	-0.48956636
43	0xbecd83b3	-0.4013954
44	0xbf0c8194	-0.5488522
45	0xbe9e9f10	-0.3098073
46	0xbe907bfe	-0.282196
47	0x3e16cc49	0.14726366
48	0xbe8643d8	-0.26223636
49	0xbe1c76bb	-0.15279667
50	0xbddf6151	-0.109072335
51	0xbeabce43	-0.33555803
52	0x3ecf3fbd	0.40478316
53	0xbdf3f0eb	-0.11911186
54	0xbe1e8aaf	-0.15482591
55	0x3e9e6321	0.30935004
56	0xbeaed88c	-0.34149587
57	0x3e8cfa06	0.27534503
58	0x3efb7acb	0.4911712
59	0x3d9def6e	0.07711683
60	0x3e965001	0.29357913
61	0xbe6fc82b	-0.23416202
62	0x3e448794	0.19192344
63	0xbf13c332	-0.5771972
64	0xbd1fda9e	-0.03902685
65	0x3f1bb25d	0.60819036
66	0x3e151c41	0.1456156
67	0xbe0f0231	-0.1396568
68	0x3e61e4c0	0.22059917
69	0x3e479b39	0.19492806
70	0x3f22dd2f	0.6361875
71	0xbddd47b1	-0.1080469
72	0x3ea796c6	0.32732219
73	0xbe693fb6	-0.2277821
74	0xbeb7a1bd	-0.35865584
75	0xbeb3a475	-0.35086408
76	0xbe7be71c	-0.2459988
77	0xbe9e43eb	-0.30911192
78	0xbdb2fbe3	-0.0873945
79	0x3eda6fee	0.4266352
80	0xbc635b03	-0.013876679
81	0xbe825798	-0.25457454
82	0xbe1b14cd	-0.15144654
83	0x3f357a95	0.7089017
84	0xbf29c4f5	-0.6631616
85	0x3de0f683	0.109845184
86	0x3d3bcc95	0.0458494
87	0xbeac3c34	-0.3363968
88	0xbe22a891	-0.15884615
89	0x3ef82809	0.48468044
90	0x3db74a4d	0.089497186
91	0x3eb05521	0.34439948
92	0xbca26c5a	-0.019827057
93	0x3dd3bcda	0.10338755
94	0x3be2552c	0.006907126
95	0xbdae2fdb	-0.085052215
96	0x3bfeff38	0.0077818893
97	0xbe5a73a5	-0.21333177
98	0xbe0515c7	-0.12996589
99	0xbe8b9e64	-0.2726928
100	0xbe9ca9e0	-0.30598354
101	0x3e0f0941	0.13968374
102	0xbf047240	-0.5173683
103	0x3f1a5831	0.6029082
104	0xbe42b3ed	-0.19013949
105	0x3ed8d6e1	0.4235144
106	0x3e8641be	0.26222032
107	0x3ed755e4	0.42057717
108	0x3e201621	0.15633442
109	0xbdc2ab36	-0.09505312
110	0x3dd6fa7f	0.10496997
111	0xbca9d544	-0.020731576
112	0x3e4c2d45	0.19939144
113	0xbeedfb32	-0.4648071
114	0x3e89685d	0.26837435
115	0xbdc86751	-0.09785331
116	0xbebc9c1d	-0.36837855
117	0xbe8f876b	-0.28033003
118	0xbf212e58	-0.6296134
119	0x3ecbcad1	0.39803174
120	0xbec2085f	-0.37897012
121	0x3f01c5bb	0.5069234
122	0x3f046245	0.5171245
123	0x3e77d82d	0.24203558
124	0x3eb25c75	0.34836164
125	0x3e61ddd7	0.22057281
126	0x3eb7b392	0.3587919
127	0x3dfde6ad	0.123975135
128	0xbefd2e26	-0.4944927
129	0xbf184223	-0.59475917
130	0x3d76ceaf	0.060255703
131	0xbe098184	-0.13428313
132	0x3f3613ad	0.7112377
133	0xbf0a027b	-0.53910035
134	0xbe8a1ab4	-0.26973498
135	0x3e0c6297	0.13709484
136	0xbe896a32	-0.26838833
137	0x3dfbe8df	0.12300276
138	0x3e091cda	0.13389912
139	0x3ec600f9	0.38672617
140	0x3c8dd94c	0.01731553
141	0x3c5997e0	0.013280839
142	0xbc1425de	-0.009042231
143	0xbf142b32	-0.5787841
144	0xbd89d454	-0.067299515
145	0xbe9340cf	-0.28760383
146	0xbe403c88	-0.18773091
147	0xbd2f192d	-0.04274862
148	0xbdd17c41	-0.10228778
149	0xbe648674	-0.22316915
150	0xbef55021	-0.47912696
151	0x3e87142e	0.26382583
152	0xbd8f2c8f	-0.06990921
153	0x3ed31bf5	0.41232267
154	0x3eba3cc7	0.36374494
155	0xbe38d615	-0.18050416
156	0x3ee008b4	0.4375664
157	0x38c1f780	9.2490576e-05
158	0x3cfe61dc	0.031052522
159	0xbd3ce9bd	-0.046121348
160	0x3d09c3db	0.033634048
161	0x3f357b0a	0.7089087
162	0x3d8fec75	0.070275225
163	0xbea92880	-0.33038712
164	0x3df102fa	0.11768146
165	0x3e226e37	0.15862356
166	0x3eae8ebb	0.3409327
167	0xbe04fcbc	-0.12987036
168	0x3e034c85	0.12822159
169	0xbe656b1b	-0.22404139
170	0xbe4b12d6	-0.19831404
171	0xbe793ad4	-0.24338847
172	0xbec970ac	-0.39343774
173	0xbdabbcf9	-0.08385653
174	0xbe967cc7	-0.29392073
175	0x3ebb8f56	0.36632794
176	0x3eac2151	0.33619168
177	0xbe8c6a55	-0.27424875
178	0xbda2f95c	-0.07957718
179	0xbcfce366	-0.03087015
180	0x3e48c65b	0.19606917
181	0x3f0a3416	0.53985727
182	0xbe9ba294	-0.30397475
183	0x3e9c3559	0.3050945
184	0xbe09d131	-0.13458706
185	0x3ee20f7a	0.44152433
186	0x3e7c4eae	0.24639389
187	0x3e465b8e	0.19370863
188	0xbca54e15	-0.020178834
189	0x3f0d5d1a	0.55220187
190	0x3eeb63eb	0.4597467
191	0x3d9579b7	0.07298606
192	0x3ebec8a5	0.37262455
193	0xbf1ab083	-0.60425586
194	0x3e5f210f	0.21789955
195	0x3ed3e4e2	0.4138556
196	0xbca40d9b	-0.020026019
197	0xbeaa8fb3	-0.3331276
198	0xbf2716f7	-0.65269417
199	0x3e840976	0.25788468
200	0xbdb7aebf	-0.08968877
201	0x3dc4b2b8	0.096044004
202	0xbe68ec86	-0.22746477
203	0x3db967e2	0.09053017
204	0x3eb77765	0.35833278
205	0x3dd83534	0.10557023
206	0x3e9d59ad	0.3073248
207	0x3dd66f35	0.1047043
208	0x3ddafc4b	0.10692652
209	0x3eca6344	0.3952886
210	0xbd59c3f5	-0.053165395
211	0x3d8810c4	0.06643823
212	0xbc61f3da	-0.013791049
213	0x3d4bc91d	0.049752343
214	0x3f083361	0.532034
215	0x3d52f32a	0.05150143
216	0x3e476f6b	0.19476096
217	0xbe5e5bb8	-0.21714675
218	0xbe3323e3	-0.17494158
219	0xbe75738e	-0.23969862
220	0xbecc53db	-0.39907727
221	0xbea891ec	-0.3292383
222	0xbf14e5c3	-0.5816309
223	0x3ea8d6fa	0.32976514
224	0xbdb901b2	-0.090335265
225	0xbeae9c43	-0.34103593
226	0x3ecb446d	0.39700642
227	0xbc69eddf	-0.014277904
228	0x3c503a52	0.012709217
229	0xbeac1105	-0.33606735
230	0xbe7152e1	-0.23566772
231	0x3ed05388	0.4068873
232	0x3e0d3b75	0.13792212
233	0x3e82386b	0.25433668
234	0x3e96feb8	0.2949121
235	0x3ba1a574	0.0049330536
236	0x3ee276be	0.44231218
237	0x3ec49057	0.38391373
238	0x3eadaa12	0.33918816
239	0xbe64751b	-0.22310297
240	0x3cf0f39c	0.029413037
241	0xbeb1d541	-0.34733012
242	0x3d1449e5	0.036203284
243	0xbe56d558	-0.20979822
244	0xbe462a23	-0.19352011
245	0xbec67424	-0.38760483
246	0xbf2b1d70	-0.66841793
247	0x3f049631	0.51791674
248	0xbe11bfd1	-0.14233328
249	0x3dc2f4c9	0.09519345
250	0xbe1a7863	-0.15084986
251	0x3d84f3ec	0.06491837
252	0x3f0b6d3b	0.5446355
253	0x3ce481bf	0.027893899
254	0x3f0bd852	0.54626954
255	0xbe816c17	-0.25277779

sequential/dense_1/MatMul f4 [1, 32]
0	0xbf378470	-0.7168646
1	0xbf1061ac	-0.56399035
2	0x3f3b8f9a	0.73265994
3	0xbef9b861	-0.48773482
4	0x3f2af8d1	0.66785914
5	0xbe6b2e74	-0.22966939
6	0xbefa7a5f	-0.48921487
7	0xbf0397c5	-0.51403457
8	0xbea595bc	-0.323408
9	0xbedf730c	-0.4364246
10	0x3ee7f9cc	0.45307767
11	0xbf23c091	-0.6396571
12	0xbf123751	-0.57115656
13	0x3f0d96fd	0.55308515
14	0xbf071db9	-0.5277973
15	0xbed99dcf	-0.4250321
16	0xbef3bf29	-0.4760678
17	0xbed05bc7	-0.4069502
18	0xbeca5556	-0.3951823
19	0xbead4ca3	-0.33847532
20	0xbf1b9951	-0.6078082
21	0x3f1476f8	0.5799403
22	0x3f2f0e20	0.6838093
23	0x3f01170e	0.50425804
24	0xbf06656e	-0.5249852
25	0x3eefdf45	0.4685003
26	0x3f15de9a	0.5854279
27	0xbef668de	-0.48126882
28	0xbeee4081	-0.46533588
29	0xbf0ba5f7	-0.5455012
30	0x3ef614da	0.48062783
31	0xbedbe2eb	-0.42946562

sequential/lstm/Read_2/ReadVariableOp1 f4 [64]
0	0x3e500c07	0.20317088
1	0x3c888104	0.016663082
2	0x3d0b8f11	0.034071986
3	0x3e336712	0.17519787
4	0x3e0dfefd	0.13866802
5	0x3e195ea1	0.14977504
6	0x3e1a1b78	0.15049541
7	0x3d9713ad	0.073768
8	0xbe2bd9e3	-0.16782336
9	0xbb9a0d1f	-0.004701271
10	0xbde79b5b	-0.113089286
11	0xbba33bd0	-0.0049814954
12	0x3e458e63	0.19292597
13	0x3e563bdb	0.2092127
14	0x3c1413a8	0.00903789
15	0xbd9720d6	-0.0737931
16	0x3f8924d0	1.0714359
17	0x3f94217d	1.157272
18	0x3f887938	1.0661993
19	0x3f8c561b	1.0963777
20	0x3f923b53	1.1424354
21	0x3f939cc8	1.1532221
22	0x3f83f3fc	1.0308833
23	0x3f962099	1.1728698
24	0x3f869eb7	1.0517186
25	0x3f9ab255	1.2085673
26	0x3f80b384	1.0054784
27	0x3f8dba12	1.1072409
28	0x3fa1e85e	1.2649038
29	0x3f7e6137	0.9936709
30	0x3f98dc31	1.1942197
31	0x3f890926	1.0705917
32	0x3dac0d92	0.08401026
33	0xbdabd661	-0.08390499
34	0x3dd2b183	0.10287764
35	0xbdbc2e70	-0.09188545
36	0xbd97817d	-0.07397745
37	0xbdc5c63d	-0.096569516
38	0xbe2a8145	-0.16650875
39	0x3df8641a	0.12128468
40	0x3c4adf53	0.012382346
41	0x3d58f8e5	0.05297174
42	0x3e02535e	0.12727115
43	0x3d85c5fb	0.065319024
44	0x3e00d61a	0.12581673
45	0xbdb29a1d	-0.08720801
46	0x3cd2f42c	0.025751196
47	0x3cc763da	0.024339605
48	0x3e0dcf3c	0.13848585
49	0x3ec6a4c8	0.38797593
50	0x3e447aa0	0.19187403
51	0x3e4aa30c	0.1978876
52	0xbd688ae6	-0.05677309
53	0x3e74f625	0.23922022
54	0x3e562ff4	0.2091673
55	0x3e86a151	0.2629495
56	0x3de67652	0.112530366
57	0x3c8ca436	0.017168146
58	0x3e5693e8	0.2095486
59	0x3b1d5410	0.0024006404
60	0x3ea965f8	0.33085608
61	0x3e2ca76f	0.16860746
62	0x3e8d553d	0.27604094
63	0x3d1c3e1d	0.038145173
