models/model.tflite (tflite, 280604 bytes, 19 tensors)

sequential/conv2d/BiasAdd/ReadVariableOp f4 [32]
000000 00 ed ce bd c5 1e 36 bc 77 db b9 3e dc cb 5a 3e
       -0.10103798 -0.011115734 0.3630025 0.21366829
000010 9b 98 88 bc 06 55 b1 3e 12 b8 b8 3d ad 46 1c 3e
       -0.01667433 0.3463518 0.090194836 0.15261336
000020 7d 0b 76 3d 79 9f 38 3f 5e b0 69 3d 77 cd 81 3e
       0.06006955 0.72118336 0.057052962 0.2535207
000030 79 4f a1 3d 77 4d 29 3e 76 34 22 3f 87 05 9a 3e
       0.07876486 0.16533457 0.633613 0.30082342
000040 f3 91 fb 3d f6 95 42 3e 77 ba d1 3e 6e 6a d0 3d
       0.12283697 0.19002518 0.40962574 0.1017655
000050 2f 8c 4e 3e 59 ee f5 3d 71 ca 86 3e 02 09 6c 3e
       0.20170663 0.12008352 0.26326326 0.23050311
000060 13 96 c2 3e 14 e1 01 bd 0b fb de 3c 32 26 0e 3e
       0.38005123 -0.03170879 0.027219316 0.13881758
000070 ec 70 e5 3d f0 9e 6e 3e 4e 14 d9 3e 0b 2e 9f 3e
       0.11203179 0.23302817 0.42398304 0.31089815

sequential/conv2d_1/BiasAdd/ReadVariableOp f4 [64]
000000 6b 85 9d be ac 60 a6 bd a0 d5 38 3e 3a 39 ad bd
       -0.30765852 -0.081239074 0.18050241 -0.08458181
000010 ff 79 e4 3d 0f c3 e6 3e 75 0c cd 3e ea 02 fa 3c
       0.111560814 0.45070693 0.40048566 0.030518968
000020 69 d2 82 3e 2a 3b 3d bc d1 43 01 3f f1 5f 26 3f
       0.25551155 -0.01154975 0.50494105 0.64990145
000030 30 0e 8b 3e 57 86 92 3e 07 28 c2 3d 91 a4 4f be
       0.27159262 0.28618118 0.09480291 -0.20277621
000040 92 9d 49 3e e6 40 16 3f bd 1c cb 3e 50 0a de bb
       0.19689015 0.5869278 0.39670363 -0.0067761317
000050 4b bc 84 3e a4 a4 33 3d af 62 6c 3e e5 b6 b4 3d
       0.25924906 0.043858185 0.2308452 0.08823947
000060 bd 04 d4 3d 75 a3 60 3e 24 91 47 3e 3e 0a 10 3f
       0.10352466 0.21937354 0.1948896 0.5626563
000070 1a d4 1a 3e aa 0f cf 3d 9f 08 ca 3e 36 45 51 be
       0.15119973 0.101104096 0.39459702 -0.20436558
000080 e3 c9 c9 bd 6c 2e 8b be 6d c4 1d 3e b5 34 06 3d
       -0.0985296 -0.27183855 0.15406962 0.03276511
000090 60 8b 05 3f 3e a7 0a 3f f4 74 08 bf aa ab 65 be
       0.52165794 0.5416144 -0.53303456 -0.22428766
0000a0 0a 0d e6 3e 9c dd 0f bd 59 de f5 be 74 c7 91 3d
       0.44931823 -0.035123453 -0.480212 0.07118121
0000b0 25 58 19 3d 30 45 2b 3f 6d 5c f3 3d 7d cd 9d be
       0.037437577 0.66902447 0.11882863 -0.30820838
0000c0 f8 e4 6a 3e e4 9c 50 3e 5d d9 b0 be f4 4d 1c be
       0.22938907 0.20372349 -0.34540835 -0.15264112
0000d0 ca d6 be 3e b3 a1 86 3e 7c 0d 82 3e 33 06 2a 3d
       0.37273246 0.26295242 0.25400913 0.04150982
0000e0 8e 3d 35 be f2 4d 0d 3f db 0f d8 be b4 e7 84 3e
       -0.17699262 0.5519706 -0.42199597 0.25958025
0000f0 89 e7 13 bf 86 be f8 3d f6 e3 0f 3f 9a cb 04 be
       -0.5777517 0.121457145 0.56207216 -0.12968293

sequential/conv2d_2/BiasAdd/ReadVariableOp f4 [64]
000000 c1 81 23 3e 91 da 4b 3c 20 f5 f7 bd 8e 76 2f 3e
       0.15967466 0.012442247 -0.12107301 0.17135069
000010 9d 4b 03 bf d2 3c a3 3b f2 1e e0 3c c0 d5 fd bb
       -0.5128725 0.0049816156 0.027358506 -0.0077464283
000020 96 8b 0c be 84 29 f3 3d 34 90 ba be d0 30 6f bd
       -0.13725123 0.11873153 -0.36438143 -0.05839616
000030 88 be 8e bd 92 9c d5 3d 8e 5f de 3d bb a3 f9 3d
       -0.06969935 0.10430254 0.10858069 0.12189432
000040 1f 14 98 be 18 43 d6 3c be 97 3c be 81 0e 0b 3f
       -0.2970285 0.02615504 -0.1841726 0.54319006
000050 14 25 ee 3e 5e 60 64 3e f5 d3 50 be b1 d1 07 be
       0.46512663 0.22302386 -0.20393355 -0.13263585
000060 72 81 a4 be cd aa 24 be bf 28 13 3f 7f 89 c2 bd
       -0.3213001 -0.1608078 0.5748405 -0.094988815
000070 87 5f 6a bd 9a 7f 72 be a2 5e 14 3d 22 9c 3f 3e
       -0.05722001 -0.23681489 0.03622306 0.18711904
000080 40 f0 a0 3e f4 52 16 bf 1c 31 b1 be 62 b0 2a 3d
       0.31433296 -0.58720326 -0.3460778 0.041672118
000090 84 70 55 be c1 9c 0c 3f 43 ea f5 bd c7 b5 01 be
       -0.20843703 0.5492669 -0.120075725 -0.12666999
0000a0 9e aa 8f 3e d1 dd 46 3b d5 16 95 be 12 60 4e bc
       0.28059858 0.0030344615 -0.29118982 -0.012596147
0000b0 b4 94 cc bd a9 df be be 6c 39 a2 3e 60 2f 46 3d
       -0.099893 -0.37280014 0.31684434 0.048385024
0000c0 1b e5 dd be 5f 42 4f bd 1a e8 45 bf b5 62 0c be
       -0.43338856 -0.050600406 -0.77307284 -0.13709529
0000d0 62 38 83 3d 97 eb fd 3d 08 91 b5 3d 5c 61 44 3e
       0.064072385 0.12398451 0.08865553 0.19177765
0000e0 65 7d 05 3f 5d d4 88 bd 90 89 2a be 05 fd b5 bd
       0.5214446 -0.0668113 -0.16654038 -0.0888615
0000f0 43 09 8e be 70 36 8e be 40 49 03 be 00 11 fb 3c
       -0.2774144 -0.27775908 -0.12820911 0.030647755

sequential/conv2d/Conv2D f4 [32, 5, 5, 1]
000000 77 51 8c be c0 ac 3c 38 f8 9f 3f bd d3 e4 b4 3e
       -0.27405903 4.498358e-05 -0.046783417 0.3533083
000010 99 a0 9c 3d 99 fd ba be bd 51 b2 bd 4b 8d 77 3d
       0.07647819 -0.36521605 -0.087069966 0.06043748
000020 71 22 3a 3e af 0c 55 be 2a 41 8d bc b1 bb a4 be
       0.18177201 -0.2080562 -0.017242987 -0.32174447
000030 d4 24 9f 3e 20 a1 d3 3e 44 b5 ab be 41 d2 24 3d
       0.31082785 0.41333866 -0.33536732 0.040239576
000040 d9 78 1b be 6c 06 68 3e 72 9d 52 3e ff ec f7 be
       -0.15182818 0.226587 0.20567873 -0.48423
000050 37 6c 8d 3d 17 06 a5 bd 27 1c c8 3e 2a 3c 50 3e
       0.06905406 -0.08057802 0.3908398 0.20335451
000060 a9 62 03 bf bd 88 8e bc 81 e2 60 3e 84 46 08 3e
       -0.5132242 -0.017399186 0.21961404 0.1330815
000070 a4 d5 43 3e bf 24 9b 3e fe e1 06 bf 89 a5 95 be
       0.19124466 0.30301473 -0.52688587 -0.29227856
000080 69 c6 d3 be 79 1d 71 be 37 f0 a1 be 7a 77 af be
       -0.41362312 -0.23546399 -0.31628582 -0.3427084
000090 7d 25 31 bf 2f 94 50 be 91 12 95 be f2 65 18 be
       -0.6919783 -0.20369028 -0.29115728 -0.14882639
0000a0 79 47 ea 3a 22 0a 40 be 6a 99 f0 3d 0f 79 ad 3e
       0.0017874084 -0.18753865 0.117480114 0.33881423
0000b0 31 76 47 3e 48 e6 8c be aa 77 e3 be b5 63 89 be
       0.1947868 -0.2751944 -0.44427234 -0.26833883
0000c0 84 c9 06 be ad 41 9a bd f3 1c fc 3e b3 9a ce 3e
       -0.1316281 -0.07532058 0.49240837 0.403524
0000d0 b0 f1 e4 be 13 24 1a 3e eb 03 83 bc 8c 06 77 3e
       -0.44715643 0.15052824 -0.01599308 0.24123591
0000e0 99 64 00 be 0b 9b ae be 17 b6 31 bd 13 51 e7 3d
       -0.12538375 -0.34102663 -0.043386545 0.112947606
0000f0 4e 03 34 be 34 07 c6 be 06 b7 70 be 34 22 da bd
       -0.17579386 -0.3867737 -0.23507318 -0.10651055
000100 96 e2 8a be f6 75 12 3e 2a 24 4e 3d c5 85 09 be
       -0.27125996 0.14302811 0.050327457 -0.13429935
000110 ba 31 f3 bd a2 f3 70 be e1 57 8a 3d 8a 0f 92 bc
       -0.11874719 -0.23530439 0.06755043 -0.017829675
000120 71 05 23 3d 2e c9 09 be 3a 6d ca 3c 89 45 28 be
       0.03980011 -0.1345565 0.024710286 -0.16432776
000130 1a c9 c8 be a1 b9 77 be 54 f5 86 3e bc 0d 01 3d
       -0.39215928 -0.24191906 0.26359046 0.03150724
000140 6b 61 fb be 8f c7 63 bd b8 41 55 3e ee 1c 93 3e
       -0.49097762 -0.055610236 0.20825851 0.2873301
000150 69 d3 50 3b dd b1 d4 bc 08 bf 57 be 3b d3 8c bd
       0.0031864292 -0.025963718 -0.21068966 -0.068762265
000160 81 29 16 3e c8 ad 38 3e 79 b2 85 3e 3b 44 24 bd
       0.1466427 0.18035042 0.26112726 -0.040104132
000170 35 11 17 3d ef 02 6b be b2 9b 4a be e1 e1 c9 3e
       0.036881644 -0.22950338 -0.19785956 0.39430144
000180 5d a3 a4 3e 1b 6c 8a 3d 40 45 ef be 79 18 f3 be
       0.32155886 0.06758901 -0.4673252 -0.4747961
000190 16 1e 62 be 5e e5 52 bb 40 03 99 3e 29 fd 34 be
       -0.2208179 -0.003218017 0.29885292 -0.17674698
0001a0 cf 57 16 be 47 e9 7e 3d a5 ac 67 bd ab e8 19 3e
       -0.14681934 0.06223419 -0.05656113 0.15030162
0001b0 67 c2 07 bf 0d d8 a9 bd 12 70 6c 3e 80 95 18 be
       -0.5303101 -0.082931615 0.23089626 -0.1490078
0001c0 07 db 67 be 27 a6 06 bf da 43 a7 be f4 06 05 3c
       -0.22642146 -0.5259728 -0.32668954 0.008119334
0001d0 44 5b 75 be ce 90 a0 be 4c f9 94 be 66 43 ed bd
       -0.23960596 -0.31360477 -0.29096448 -0.11585121
0001e0 08 2c 83 be e4 6d 5c be 7b 75 11 bc ce 3f e0 3e
       -0.2561953 -0.21526295 -0.008878107 0.4379868
0001f0 22 8d ca 3e c3 5e 9c bd 4e e6 c3 3c 4a aa ba 3d
       0.395608 -0.07635262 0.023913529 0.09114511
000200 c7 94 a3 3e cb 57 10 3e d6 2e 49 bd 42 66 c2 bd
       0.31949446 0.1409599 -0.04911693 -0.094921604
000210 5a bc 06 be 88 5a 3c 3e 3c 7a 35 3e 2c 0f 85 bc
       -0.13157788 0.1839391 0.1772241 -0.016242586
000220 21 db bc be c4 d6 06 be 7b b5 d2 3e 12 5e 97 3e
       -0.36885932 -0.13167864 0.41154084 0.29563957
000230 2d 89 84 bc d9 60 8f be 1a 13 23 be d2 de a8 bc
       -0.016178692 -0.28003576 -0.15925255 -0.020614062
000240 5e 2b f3 3d 47 2a 4b 3d 62 6b c6 be 4c e8 2f bf
       0.11873506 0.049600866 -0.38753802 -0.6871383
000250 d8 ac 01 bf ba 2b bd 3d 51 da 32 bd 01 69 1d 3c
       -0.50654364 0.09236856 -0.043665234 0.009607554
000260 30 e5 27 3e 7a 0f bd 3e 78 d4 c8 3e f7 60 3a be
       0.16396022 0.3692587 0.392246 -0.18201052
000270 a2 dc 5b be a3 6f 31 be 27 3a 98 be 4a ca e4 be
       -0.21470883 -0.17327742 -0.29731867 -0.44685584
000280 d5 cc 43 3d 15 c2 64 bd c8 8b bd be 02 93 d4 be
       0.047802765 -0.055849154 -0.37020707 -0.41518408
000290 db 53 97 be 3f 45 45 3e 01 84 85 3d 68 0b 11 bd
       -0.29556164 0.19264697 0.06519318 -0.03541127
0002a0 f2 1c 9b 3e 14 8a b5 3e 78 68 0e be 8f e9 32 be
       0.3029552 0.35456908 -0.13907039 -0.17471908
0002b0 05 7b f3 3d d7 ef 0c 3e 3d 5f 92 bc e8 68 61 bf
       0.118886985 0.13763367 -0.017867679 -0.880507
0002c0 e0 14 63 bf 1b 5d 68 bf 07 ce 95 bf 4c bb 33 bf
       -0.8870373 -0.9076707 -1.17035 -0.7020767
0002d0 5d 51 82 bf 7f 3f 81 bf f2 1b 9d bf 5d a0 7b bf
       -1.018108 -1.0097502 -1.2274153 -0.9829157
0002e0 07 2c 1d bf 0d f6 08 3d 30 97 5a 3d f1 47 c8 be
       -0.61395305 0.033437777 0.05336684 -0.39117387
0002f0 78 13 8f be 58 1f be bc 25 fc 62 3e ad 5c 88 3e
       -0.2794454 -0.023208305 0.22166498 0.26633206
000300 53 12 17 bd 45 df dd bd 6c 7d 93 3c 48 0e 06 bc
       -0.03688271 -0.10833601 0.018004142 -0.008182116
000310 ab ac d1 bc 16 47 64 3d 5e 0f 0d 3e da e7 24 3d
       -0.02559503 0.055731855 0.13775393 0.040260173
000320 e5 07 dd 3d d2 19 80 3e 47 b4 0a 3f d7 5b 6e 3e
       0.107925214 0.250197 0.5418133 0.23277222
000330 78 f0 05 bd fa 19 ba 3d 8e b6 0f 3e 21 b8 e9 3c
       -0.032700032 0.09086986 0.14034483 0.028530182
000340 d6 c9 b5 bd 02 72 a8 bd 60 ff 1a bc d0 a9 bd bd
       -0.08876388 -0.0822487 -0.0094603 -0.09260905
000350 72 29 23 be 09 cc b2 3d 00 3e a0 be f3 c5 b9 bd
       -0.15933779 0.08730323 -0.31297302 -0.09070959
000360 fa 9b 97 be 01 24 01 bf 81 e6 2d bd 5c af 58 be
       -0.29611188 -0.5044556 -0.042456154 -0.21160644
000370 8e 04 bd be f7 de 4c bf 4d 61 b1 be 70 7d 3d be
       -0.36917537 -0.8002772 -0.34644547 -0.18504882
000380 a7 71 64 be e4 8f 9f be 20 ae 73 3d e7 48 b1 3d
       -0.2230898 -0.31164467 0.05949223 0.08656483
000390 02 93 b8 3e 8b a8 bd bc 33 a6 87 be e5 b1 7d 3e
       0.36049658 -0.023151657 -0.26493987 0.24774893
0003a0 b9 49 8e bc 5d 1c 6a 3e 21 a9 c4 3d c9 b4 42 be
       -0.017369138 0.22862382 0.09602571 -0.19014277
0003b0 bd ce 42 3e 93 20 53 3e 41 88 4d 3e 2d 76 62 3e
       0.19024177 0.20617895 0.20071508 0.22115393
0003c0 7a 2c d9 be 2d 48 d2 bc d5 7c 16 3f 86 13 88 bc
       -0.42416745 -0.025669182 0.5878423 -0.016610872
0003d0 f9 c9 bb 3e f6 02 c4 be c6 51 1a bc 3d 4d c2 3e
       0.3667753 -0.3828351 -0.00941891 0.37949553
0003e0 b7 a7 0e be 84 34 47 3e 3f 38 e5 3e 4e 14 96 be
       -0.13931166 0.19453627 0.44769475 -0.29312366
0003f0 a2 fb f6 3d e9 39 e7 3d 9f a2 9c be 2a 6f 4b 3e
       0.12059714 0.11290342 -0.3059282 0.19866624

sequential/conv2d_1/Conv2D f4 [64, 3, 3, 32]
000000 7a f4 ae 3d 24 ef d4 be e5 60 77 3e 7a e5 14 be
       0.08542724 -0.415887 0.24158056 -0.14540663
000010 60 77 6c bc 19 01 4c be 5e d3 2f be a6 2d aa be
       -0.014432758 -0.19922294 -0.17170474 -0.33237952
000020 89 5b 49 bd 3c 1c 29 be dd 65 01 3d 20 c3 7f 3e
       -0.04915956 -0.16514677 0.031591285 0.24976778
000030 70 72 8e be 99 83 db 3d a3 e7 ae 3e 5e 0a 4a 3e
       -0.27821684 0.1071846 0.341611 0.19730517
000040 c1 2f 35 3e 3c da 3a be 83 51 7b 3e 68 30 72 3d
       0.17693998 -0.18247312 0.24542813 0.059128195
000050 c2 ee f3 bd 4e f3 00 3e 7a fb 35 3e ea d1 64 bd
       -0.11910774 0.12592813 0.17771712 -0.055864252
000060 8c d8 86 3e 13 c5 9c 3d cd 13 c8 be 57 6b d1 3e
       0.26337087 0.076547764 -0.39077607 0.40902206
000070 bd 96 97 3d 87 51 81 bd 94 9f ab 3d fb a9 b4 3d
       0.07401798 -0.06314378 0.083800465 0.08821484
000080 3e 0d 1c 3e fe fd 2b be 3d 62 f8 be 58 c7 7e 3d
       0.15239426 -0.16796109 -0.4851245 0.062201828
000090 29 14 e6 3e 6d 1b 34 3e 36 3a f0 3d c4 10 a7 bd
       0.44937256 0.17588587 0.11729853 -0.08157495
0000a0 3f da c5 3b d7 40 b8 be 43 27 f3 be f1 66 60 be
       0.00603798 -0.3598697 -0.47490892 -0.21914269
0000b0 c9 c8 66 be 8a 34 38 bf c1 33 3d be 61 34 fa be
       -0.22537531 -0.7195517 -0.18476774 -0.48868087
0000c0 35 ca b8 b9 fc cc 1e be 16 6e a7 be 5b eb c9 3e
       -0.0003524587 -0.15507883 -0.32701176 0.39437374
0000d0 d7 3e dd be 56 4c 1f be 29 5e f0 be 6a 75 ba bd
       -0.43212005 -0.15556464 -0.46946838 -0.09104426
0000e0 7c 95 cf be 64 5b 00 bf 69 e2 00 bf cc a8 ca 3e
       -0.40543735 -0.5013945 -0.50345474 0.39581907
0000f0 a2 00 23 bf 77 80 43 be 6c ad 54 be 4e e9 e7 3d
       -0.6367284 -0.19091974 -0.2076928 0.11323796
000100 8e 0e b6 be 9e 46 9b 3e aa ad b4 3e 09 a9 1e 3e
       -0.3555798 0.30327314 0.35288745 0.1549417
000110 3a 66 08 be de c5 33 bf 60 5c 9b 3e 80 91 19 3f
       -0.13320246 -0.70223796 0.30343914 0.5998764
000120 6d df 70 3e 3d 1d 07 bf 7e 01 62 be b9 97 a5 bd
       0.2352273 -0.5277899 -0.22070882 -0.080855794
000130 18 37 9c 3c 1c c7 43 3e 04 04 17 3f 70 87 49 3e
       0.01906924 0.19118923 0.589905 0.19680572
000140 10 47 e2 bd c9 a1 16 bf bc cb b9 be 81 da 02 bd
       -0.1104871 -0.58840615 -0.3628825 -0.031946663
000150 12 05 4b be 89 6c 13 3f 47 4e da 3e e1 ae 03 3d
       -0.19826153 0.57587487 0.42637846 0.0321492
000160 e2 46 a4 3e cf e7 89 be ad d9 81 be ea e5 99 3e
       0.3208533 -0.26934668 -0.25361386 0.30058223
000170 59 15 fa bb 05 e7 23 bf 48 7f 90 bd c8 a3 24 3d
       -0.0076319394 -0.6402438 -0.07055527 0.040195256
000180 a2 9e 08 be 06 4e d7 bd e3 40 e3 3d 78 36 08 be
       -0.13341764 -0.10512929 0.110963605 -0.13302028
000190 c6 b5 6e be 8e f8 16 3e c0 b7 00 b8 b3 10 02 bd
       -0.23311529 0.14743254 -3.068871e-05 -0.031754207
0001a0 4c 2f d7 be 89 60 bd 3d b6 0c 26 bc ab 70 4d 3e
       -0.42028272 0.09246928 -0.010134866 0.2006251
0001b0 d7 c9 74 be f1 e3 e7 be 66 0f 36 3c 65 d8 3e 3d
       -0.23905121 -0.45291093 0.01111207 0.04659309
0001c0 50 d7 25 3e 8f 9d 70 bd e4 0f 49 3e 08 c9 f4 3d
       0.16195416 -0.05874401 0.19634968 0.11952406
0001d0 1e 31 f5 bd dd 1f f6 3d 58 ad 80 3d 5f ac c6 bc
       -0.11972259 0.12017796 0.06283063 -0.024252115
0001e0 47 5d cf bc 45 b1 f7 3d a2 9e 14 bf 8f 5b 53 3e
       -0.025313033 0.12094358 -0.58054554 0.20640396
0001f0 30 99 91 be c1 6c 52 3d 4b b0 47 3d 9f 84 1c 3e
       -0.28437185 0.051373247 0.04875211 0.15284966
000200 d3 56 b0 be f9 fb 77 be 66 54 26 bf 64 9b 02 3f
       -0.34441242 -0.24217214 -0.6497253 0.5101836
000210 30 e2 dd bd f3 bc 09 be fe ed 6c bd 1f 83 a3 3c
       -0.108341575 -0.13450985 -0.057844155 0.019959984
000220 14 30 87 3d 37 79 75 bc 08 03 99 bd 13 59 a4 3d
       0.06600967 -0.014982513 -0.07471281 0.08024802
000230 45 fa 1a be 20 98 94 bc 7a 3c 25 3c 98 29 b0 bd
       -0.15134533 -0.018138945 0.0100852195 -0.086016834
000240 a2 33 73 3e 2d 8c 3d 3e 8e ab 16 3e 4c c3 56 3e
       0.23750165 0.18510504 0.1471388 0.20972937
000250 59 9f 91 3e 56 0d 67 bc 4f 50 4d 3d 13 7c 45 bd
       0.28441885 -0.014102301 0.050125416 -0.04821403
000260 03 03 44 3e 27 30 97 3e 45 1c ce be 2a da 07 3f
       0.19141774 0.29528925 -0.40255943 0.53067267
000270 ef 70 bd be 10 3d 67 be fc 81 95 3e 09 50 11 be
       -0.37000224 -0.22581887 0.29200733 -0.14190687
000280 d0 f9 98 3e 66 08 a9 bd 46 f2 d6 3b c0 a8 c1 3e
       0.29878092 -0.08253555 0.006559643 0.3782406
000290 53 d3 04 3f 7e e8 b8 be 91 ee 0c be d1 76 11 be
       0.51884955 -0.36114877 -0.13762881 -0.14205481
0002a0 f7 7e cc be fa a7 e7 bd 2b 5b d7 3c 0f 84 7d 3e
       -0.39940616 -0.11311336 0.02628859 0.24757408
0002b0 30 12 d2 3e 94 ff 6c 3e 54 63 1f bd 3e 1d 8c 3d
       0.410295 0.2314437 -0.038913086 0.06841515
0002c0 1c cf db 3e 02 e2 ae bd 77 a1 86 be 3c 68 f4 bd
       0.4293145 -0.08539201 -0.26295063 -0.11933944
0002d0 64 19 2f 3e a3 aa a0 3e 1c f5 a0 3e 40 bb bd be
       0.1709953 0.31380185 0.31437004 -0.37056923
0002e0 25 86 f5 3d 69 f6 0f be 4d 74 6f be 63 44 31 3e
       0.11988477 -0.14058842 -0.23384209 0.17311244
0002f0 4f 74 0e 3d 6f bb e8 3b 79 78 c2 3e f4 54 68 3e
       0.03477889 0.007102422 0.37982538 0.22688657
000300 36 c2 37 3d 9a 52 97 be 1d fb 94 3d 20 40 f6 be
       0.04486295 -0.29555207 0.072744586 -0.48095798
000310 30 4e ee be 79 2d 6c 3e aa c7 7d be 52 bd 1d 3e
       -0.46544027 0.23064221 -0.24783197 0.15404251
000320 bc 02 9d be 9d 4b 27 3e b9 47 52 be b8 ba 46 3e
       -0.3066615 0.16337438 -0.20535173 0.19407165
000330 ba be 54 bd 4d b1 3c be 29 43 54 3c 52 b5 02 bd
       -0.051939704 -0.1842701 0.012955465 -0.0319112
000340 8e 10 7b be 3a a1 3f be 09 de 23 3d c1 91 61 3d
       -0.24518034 -0.18713847 0.04000667 0.055070642
000350 b6 91 97 be 1b 19 7e 3e e0 74 25 be 70 1b 1e be
       -0.29603356 0.24814264 -0.16157866 -0.15440154
000360 78 d3 4f 3e 4d 0d 70 3d 65 88 18 bf d6 ca 53 bd
       0.20295513 0.058606435 -0.5958312 -0.05170711
000370 8e e8 91 be 70 3f 3c 3d ee 75 14 bb b3 6b 4c bc
       -0.28497738 0.045958936 -0.00226533 -0.012476849
000380 cd 41 41 be e7 4b e0 be 7b 59 68 be c3 4c ee be
       -0.18872757 -0.4380791 -0.22690384 -0.4654294
000390 73 ed b6 bd 83 b9 12 3f 51 e5 aa be c6 84 3a be
       -0.089320086 0.5731432 -0.3337808 -0.18214712
0003a0 28 ac 1d 3d c9 eb 15 3e ea 38 65 bd b6 01 f8 3d
       0.03849426 0.14640726 -0.05596248 0.12109701
0003b0 7d 53 2f be b9 b8 5c 3e 48 c4 df bd f2 f1 d9 3d
       -0.17121692 0.21554841 -0.109261096 0.106418505
0003c0 c4 ae cd 3b d9 b8 3d be f5 0f 02 3f 4b 0b 03 be
       0.006276937 -0.18527545 0.508056 -0.12797277
0003d0 1f 3e 48 bd 7e 98 9f be 4f 5c f8 3d 4d fe 06 3f
       -0.04888737 -0.3117103 0.121269815 0.5273178
0003e0 76 7c a8 be dd dd 1e 3e d2 8c f9 be de 77 2f 3e
       -0.32907456 0.15514322 -0.4874025 0.1713557
0003f0 03 b2 61 be 2f 9e 51 be 15 18 7f bd 84 f1 a6 be
       -0.22040562 -0.20470499 -0.062278826 -0.32606137

sequential/conv2d_2/Conv2D f4 [64, 3, 3, 64]
000000 74 06 f0 be 5c 8e ef be e3 e7 1b be 08 73 32 be
       -0.46879923 -0.467883 -0.15225177 -0.17426693
000010 81 a6 00 bf bf f5 1f bf 66 62 66 be 2c 2c 10 bf
       -0.50254065 -0.62484354 -0.22498474 -0.563174
000020 57 2a 32 be e5 45 c0 be e0 11 98 be e4 85 ad be
       -0.17398964 -0.37553325 -0.29701138 -0.33891213
000030 99 2f 30 bf bf 49 bb be 48 64 a2 bd 02 06 ae be
       -0.6882263 -0.365797 -0.079292834 -0.3398896
000040 b0 c7 fd be 6c 3f 96 3d e0 59 f9 be 27 7f 45 3d
       -0.49566412 0.073363155 -0.48701382 0.048216965
000050 26 5a 00 bf cd 9e f7 bd 23 d6 d2 be 91 3e c5 be
       -0.50137556 -0.12090836 -0.41178998 -0.38524297
000060 46 d7 00 3f e5 cd 64 3e 1a 65 ae be e9 6d 74 3e
       0.5032848 0.22344168 -0.3406151 0.23870052
000070 6c 96 88 be 0f 49 c1 be 28 04 67 3d e4 99 1e 3f
       -0.26677263 -0.37751052 0.056400448 0.6195357
000080 dd 6f e9 be 25 87 d8 be 80 f6 de 3e c6 f0 a0 be
       -0.45593157 -0.42290607 0.4354744 -0.31433696
000090 7d 6d e1 be fc 1a ff be f8 09 af be 8b f1 bd be
       -0.44028845 -0.49825275 -0.34187293 -0.37098345
0000a0 ce 98 44 3e 8d 51 d2 bd 36 3c b2 bd ef 04 e4 3d
       0.19198915 -0.10269461 -0.087028906 0.111337535
0000b0 9a 91 a1 3e aa c9 85 be 52 33 8e be 91 43 ce be
       0.31556398 -0.2613042 -0.2777353 -0.40285924
0000c0 83 13 01 3f 6c e2 80 3e d9 37 b7 3d 10 78 b1 3e
       0.504204 0.25172746 0.08946199 0.34661913
0000d0 6a 6d 38 be b7 83 2c bf ef b7 9d be fe f2 28 bf
       -0.18010488 -0.6738848 -0.30804393 -0.65995777
0000e0 13 53 8d be 4a 1c f9 be f1 a7 9d be 34 32 56 3e
       -0.27602443 -0.48654395 -0.30792192 0.20917588
0000f0 5f 0e c1 be d6 f1 92 3e 1e c5 42 3e 98 5d 01 3e
       -0.37706277 0.2870013 0.19020507 0.1263336
000100 45 85 40 bd 47 2a 73 3e b6 55 37 3f f4 b3 06 3e
       -0.047002096 0.23746596 0.7161516 0.13154584
000110 a4 da 7c 3e 8e e8 0b 3f ae ea e0 3b e3 01 2d be
       0.2469278 0.54651725 0.0068639135 -0.16895251
000120 61 34 ac be 22 ad ad 3d f2 90 94 bd f9 f3 c2 bc
       -0.33633712 0.08480288 -0.072542086 -0.023797976
000130 1f ed 7b 3e 67 23 9d 3e fa ea 4d bd f7 b9 85 3e
       0.24602173 0.30691072 -0.05027292 0.26118442
000140 b8 fa 8d bd 1a 8e 6d bd 30 1e f1 3d 21 73 37 be
       -0.069325864 -0.057996847 0.11773336 -0.17915012
000150 2b bc b7 3d 32 f6 24 3e 66 fc d6 3d 3c da c3 3d
       0.08971437 0.16109541 0.1049736 0.09563109
000160 f3 2b 99 3e 1d 9b 05 3f 2b 66 b2 3e 58 26 ad 3e
       0.29916343 0.5218981 0.34843573 0.33818316
000170 7e 68 35 3e 87 fd 19 bd b6 43 02 3f ff dd 99 bd
       0.17715642 -0.0375953 0.5088457 -0.075130455
000180 32 e0 18 be 22 08 8f bd a0 53 98 3e e4 2c 8b bd
       -0.14929274 -0.06983973 0.297513 -0.067956716
000190 92 7c 29 3f d5 62 ec bd 2e 38 9a 3d 9e 79 f6 be
       0.66205704 -0.11542288 0.07530247 -0.48139662
0001a0 8e ba 1d 3e 1a ab 91 bc cc ea 1b 3e cd a9 8a be
       0.15403196 -0.017781783 0.15226287 -0.27082673
0001b0 8f b6 e2 3e c3 a4 f0 3d 15 ba dc bc 59 56 6a be
       0.44279906 0.11750176 -0.0269442 -0.22884502
0001c0 b9 33 bf 3e 28 ad 88 3e 82 34 fb bd 18 25 11 3e
       0.3734415 0.26694608 -0.122658744 0.14174306
0001d0 85 19 ee 3e fa 76 4e bd 68 0a ac 3d 35 14 47 be
       0.46503845 -0.050406434 0.08400422 -0.19441302
0001e0 2a f7 3d 3e 33 25 8f 3e ff 44 68 3d 9d 61 82 3c
       0.18551317 0.27958068 0.056706425 0.015915686
0001f0 27 cd b6 3d 06 51 11 3f ac c7 12 3f 5b 20 f8 3e
       0.089258485 0.56764257 0.57335925 0.48462185
000200 88 7e 01 bd 2f c4 ac be a6 1a ac 3e a3 72 0e be
       -0.03161481 -0.33743426 0.3361408 -0.13910918
000210 e4 fa 96 3d b5 a2 01 3d 92 8c d4 3c 50 48 88 3d
       0.07372072 0.03164931 0.025945935 0.066544175
000220 f3 7e 9d be ee a2 08 3e 64 f4 de be 7e 29 8c be
       -0.30760917 0.13343403 -0.4354583 -0.27375406
000230 1d 8b cf be e6 af f8 3d ea 50 ea 3d 46 1a 59 3e
       -0.40535823 0.12142925 0.114412144 0.21201429
000240 b5 e2 c0 3d 7e 3a f6 bd 2f 5b 16 3f d4 38 0b bb
       0.09418241 -0.12022875 0.58732885 -0.002124359
000250 50 88 df 3d 76 b9 75 3e e0 64 ad 3d a2 c6 96 be
       0.109146714 0.23996529 0.08466506 -0.2944842
000260 49 b2 a5 bd fb ad 26 3e 7f eb de bd 43 d9 55 be
       -0.08090646 0.16277306 -0.10884761 -0.2088366
000270 b6 6a e8 bd e6 c5 91 3d ed 10 be 3e 50 df 88 3e
       -0.113484785 0.07117824 0.37122288 0.26732874
000280 31 bc d2 3d d8 a4 1b 3d 8c 40 d2 bd 79 91 f4 3e
       0.10289801 0.037999004 -0.102662176 0.47767237
000290 30 a4 7f be e8 e7 f2 3e 77 2f 61 bb 4d 4f af bd
       -0.24964976 0.47442555 -0.0034360567 -0.08560047
0002a0 72 f5 cd be 97 71 9c be 77 43 74 bc 0f 50 b5 be
       -0.40226322 -0.30555412 -0.014908663 -0.35412642
0002b0 21 c6 21 be 67 43 4f 3e cd b9 42 3e 5c ec d0 be
       -0.15798236 0.20240556 0.1901619 -0.40805328
0002c0 37 dd 04 bc 0c c9 91 bd 0f 5d 10 bd 94 e5 28 3e
       -0.008109382 -0.07118425 -0.035244998 0.16493827
0002d0 2c fe d4 3e 12 d9 06 3d 49 f7 8c 3e c7 d3 f9 bd
       0.41600168 0.032921858 0.27532414 -0.121985964
0002e0 ea a9 ec bd 38 a4 16 be a0 a6 94 bd ab d4 3b 3e
       -0.11555846 -0.14711082 -0.07258344 0.18342845
0002f0 51 53 03 3e 77 af ea bd b6 88 c0 3b 8e 5c 18 3e
       0.12824751 -0.114592485 0.005875672 0.14879057
000300 e2 0f 7f bc 08 e5 fc bd c6 3d e1 3c 50 32 9c 3d
       -0.015567752 -0.12348372 0.027495276 0.07626784
000310 19 9d 02 be 23 00 23 bf 39 c7 c0 be 0f b1 e9 be
       -0.1275524 -0.63672084 -0.37651995 -0.45642897
000320 00 14 c4 be 90 70 10 bf 3d 1a b3 be 1c fd e9 3c
       -0.3829651 -0.56421757 -0.34980956 0.028563075
000330 ea 3f c7 be 24 17 3d be 71 ae 29 bd 11 45 ab be
       -0.3891595 -0.18465859 -0.041426126 -0.3345113
000340 20 6d d4 be 4c f8 39 be da 3b 2d bf 96 a1 57 3d
       -0.41489506 -0.18161124 -0.6766945 0.052644335
000350 22 7e f3 be a8 67 d2 3d 30 69 c0 be d0 a5 a1 be
       -0.4755717 0.10273677 -0.37580252 -0.31571817
000360 90 5b 06 3e 8f 49 a2 3e f9 b9 a6 be 91 67 b3 3c
       0.13120866 0.31696746 -0.3256376 0.02189997
000370 a8 14 0d 3e 1e 95 cb be 63 a4 ec bc ef 86 8f 3e
       0.13777411 -0.39762205 -0.02888698 0.28032634
000380 b4 53 ca be 63 7b d0 be 95 ed cb 3e 33 f6 b3 be
       -0.39516985 -0.40719137 0.39829698 -0.35148773
000390 e9 7a 78 be 09 b9 c2 be d8 01 04 bf ea b4 a3 be
       -0.24265637 -0.38031796 -0.51565313 -0.31973964
0003a0 d4 91 a6 be e4 eb 5d be 5e f6 18 be 1a 4f 62 be
       -0.32533133 -0.21672016 -0.14937732 -0.22100487
0003b0 d4 ca 86 3d 28 be 30 be 48 f2 f0 be ba 55 98 3e
       0.06581655 -0.17260039 -0.47059846 0.29752904
0003c0 2e e8 43 3e d0 48 2b bd a1 d8 34 be 7e 3c 24 3f
       0.19131538 -0.041817486 -0.17660762 0.64154804
0003d0 f7 14 f7 bc 4f 81 be be 0f 90 da bd dd cd a1 be
       -0.030161364 -0.3720803 -0.10672008 -0.31602374
0003e0 8e 1d d4 bd 86 1c 37 3e 7f 85 5e be b7 fb b8 bd
       -0.103571996 0.17881975 -0.21730612 -0.09032386
0003f0 e1 81 dc be 1b 4a 0d 3f d8 d6 04 bc 14 68 a4 3c
       -0.4306784 0.551912 -0.008107863 0.02006916

sequential/lstm/Read_2/ReadVariableOp f4 [64]
000000 ac 3d af 3e e1 ee 54 3d 24 fa f9 3d af 69 3b 3d
       0.3422674 0.051985625 0.12205914 0.045755085
000010 5a 3c 5a 3e 48 2e 49 bd 8d c6 75 3d 4b 64 3e bd
       0.21312085 -0.049116403 0.060003806 -0.046482366
000020 ac f1 0f 3e 92 0c a1 3e b7 ce ad 3e 8e 35 b8 bd
       0.14057034 0.31454903 0.33946773 -0.0899459
000030 9d ef ec 3d 59 42 38 3e ac c6 87 3e a3 cc 6a 3e
       0.1156914 0.1799406 0.26518762 0.22929625
000040 59 ad 7a 3f e1 77 86 3f c2 79 8a 3f dc f2 a4 3f
       0.9792076 1.0505334 1.0818408 1.2886615
000050 6d eb 62 3f 82 f4 a2 3f fd 38 9c 3f af 19 90 3f
       0.8864048 1.2730868 1.2204891 1.1257838
000060 fe 97 87 3f 49 7a 78 3f 00 8b a2 3f 4c 50 3a 3f
       1.0593259 0.9706159 1.269867 0.72778773
000070 a2 23 89 3f eb 0d 7d 3f bf 1f 85 3f 59 e7 54 3f
       1.0713999 0.9884936 1.0400313 0.8316551
000080 29 a9 0f bc c6 1f 06 be 9c af 4a 3d 7c 7d 37 3e
       -0.008768358 -0.13098058 0.04948388 0.17918962
000090 6f 05 b3 3d c3 30 d4 3d 8b 3b 9f be a4 c3 8a bd
       0.08741271 0.10360863 -0.31100115 -0.06775597
0000a0 e3 f9 ab bd 2a 81 2f bf 67 d6 85 be 79 e3 91 3d
       -0.083972715 -0.68556464 -0.26140139 0.07123465
0000b0 6e c4 65 be 04 e5 37 be ff 65 80 3e 98 bf 36 3d
       -0.22438213 -0.17958456 0.25077817 0.04461631
0000c0 67 cd 0a 3e e5 c2 8f 3e 60 12 4f bd 2f 29 15 3e
       0.13554917 0.2807838 -0.050554633 0.14566492
0000d0 27 2e 27 be 7b 46 8c bc df 45 b4 3e 3d c9 c7 bd
       -0.163262 -0.017123451 0.35209557 -0.0975518
0000e0 9b 0a c6 3e 73 87 76 3e 56 ef 7a 3d 3e 40 e6 bc
       0.38679966 0.24075107 0.061263405 -0.028106805
0000f0 ef df 84 3e a3 4b 86 3e 15 0a 81 3e b5 26 29 3e
       0.25952098 0.2622958 0.25203004 0.16518672

sequential/dense/BiasAdd/ReadVariableOp f4 [32]
000000 5c 45 22 3e 10 8a 95 bd b7 95 a8 3e e0 06 10 bd
       0.15846771 -0.07301724 0.32926723 -0.035162807
000010 a7 e9 2b 3e 67 8b 18 be a5 dc a5 bc fb 10 51 be
       0.1678835 -0.14896928 -0.020246813 -0.20416634
000020 53 ce 5b be ef 83 4a 3d 7e 83 91 3e 95 75 65 3b
       -0.21465425 0.049442228 0.28420633 0.0035012711
000030 7b 5b c6 3d a2 82 44 be 01 7f 22 bd 86 67 00 3d
       0.09685417 -0.19190457 -0.0396719 0.031348728
000040 18 bf 5e 3e 90 16 9a bd 92 aa 38 3e 5e 42 e4 bc
       0.21752584 -0.07523835 0.18033817 -0.027863678
000050 b8 87 09 3e c1 1c 5f be 3f 20 a6 3b b3 b0 5c bd
       0.13430679 -0.21788312 0.005069762 -0.05387945
000060 23 63 b6 3e 1c c9 77 bd ed e0 04 3e 8c 61 36 3e
       0.3562251 -0.060494527 0.12976427 0.17810649
000070 30 bd 96 38 b1 b2 48 be 90 6b 9e 3e 77 d2 a0 bd
       7.187796e-05 -0.19599415 0.3094144 -0.07852643

sequential/batch_normalization/FusedBatchNormV3 f4 [32]
000000 cb 06 64 3f 7a be d0 40 5e 1c 54 3f c5 32 07 40
       0.89072865 6.5232515 0.82855785 2.1124737
000010 15 d0 ae 40 e9 60 e1 3f 57 a9 5f 40 46 b2 e7 40
       5.4629006 1.76077 3.4947107 7.240512
000020 1c 25 ff 3f 56 d7 b5 3e 66 29 63 3e 71 16 19 3f
       1.99332 0.3551585 0.22183761 0.5979987
000030 65 2c 52 40 f1 6c b5 3e d1 7a 11 3f 8e bb d0 3e
       3.2839596 0.35434678 0.5682803 0.40768093
000040 9c fc db 3f 3b 17 d7 3f e6 31 c5 3e 0c e6 8b 41
       1.7186465 1.6803964 0.38514632 17.487328
000050 7c 5e 7c 3e 81 6b e9 3f 23 36 91 3f 7d f4 c8 3f
       0.24645418 1.8235933 1.1344646 1.5699612
000060 53 32 93 3f 14 49 87 3e dc 80 29 40 17 33 8f 40
       1.1499733 0.26422942 2.64849 4.4749866
000070 79 41 a2 3f af b5 c7 3e a1 9f bb 3f 46 77 cd 3f
       1.2676231 0.390058 1.465809 1.6052024

sequential/batch_normalization/FusedBatchNormV31 f4 [32]
000000 ea 5e 89 be 70 7e 63 3b 6f bc f2 be 79 e7 d2 be
       -0.26830226 0.0034712814 -0.47409388 -0.41192225
000010 0e 68 08 be ba e7 17 bf f8 46 85 be 38 22 82 be
       -0.13320944 -0.5933796 -0.26030707 -0.25416732
000020 08 b1 a0 be f8 4f 03 bf d0 c8 bb bc 7e a0 15 be
       -0.31385064 -0.512939 -0.022922903 -0.14612004
000030 0e 80 ce be 6d 3e 55 be 49 b5 b9 be 2e 5f 71 be
       -0.40332073 -0.20824595 -0.36271122 -0.23571464
000040 90 d0 75 bc f7 37 a2 be 40 a3 51 be af cf f7 be
       -0.015003338 -0.31683323 -0.20472431 -0.48400638
000050 34 c0 a1 bd 80 42 a6 be 24 78 90 be be ab b5 be
       -0.07897988 -0.3247261 -0.2821666 -0.3548259
000060 ba ff e6 be 12 51 3f be d4 68 53 bd 1c 3b 95 be
       -0.4511698 -0.1868327 -0.051613644 -0.2914666
000070 64 3c cc be c1 d6 ff bd 41 ff 28 bf 4a 9d 00 bf
       -0.39889824 -0.12492133 -0.66014487 -0.50240004

sequential/batch_normalization_1/FusedBatchNormV3 f4 [64]
000000 86 2a d0 3e e7 89 15 3e 7b 99 14 3f 79 24 5a 3f
       0.40657443 0.14603387 0.5804669 0.852119
000010 6f 13 4b 3e b3 b6 03 3e 18 ca 77 3e 5a d8 8d 3e
       0.19831632 0.12862663 0.24198186 0.27704126
000020 89 b2 bd 3e 02 b5 02 3f 2b f6 90 3e d3 1e 79 3e
       0.37050274 0.51057446 0.2831281 0.24328165
000030 94 50 3b 3e 58 8f 6d 3e 38 ce 61 3e a0 2d c9 3e
       0.18292457 0.23199213 0.22051322 0.39292622
000040 87 24 8c 3e e5 3b 8b 3e 3f b6 cc 3e 70 2e b1 3e
       0.27371618 0.27194133 0.39982793 0.34605742
000050 ea ab 43 3e 45 d3 83 3e bc dd 2e 3e 72 c1 8e 3e
       0.19108549 0.25747123 0.17076772 0.27881962
000060 bf 50 12 3f 6c 05 51 3e 9d be f3 3d 5f fc 86 3e
       0.5715446 0.20412225 0.11901591 0.2636442
000070 2d a8 8f 3e e9 d9 1c 3e 23 c3 62 3e 24 6c b2 3e
       0.28057995 0.15317501 0.22144751 0.3484813
000080 98 63 48 3e f4 20 10 3e ed 49 d9 3e 1a 31 de 3d
       0.19569242 0.1407507 0.42439213 0.10849209
000090 c7 fb f0 3d 22 0c c9 3d cf 6f 36 3e 77 4e 05 3f
       0.11766773 0.09816767 0.17816089 0.5207285
0000a0 ec c7 c1 3e fe 9e fd 3e d7 ca e5 3c ae a5 13 3f
       0.3784784 0.49535364 0.028050823 0.5767468
0000b0 6a 19 ab 3e 6c 94 4b 3e cf 50 61 3e d3 fa 61 3e
       0.33417827 0.19880837 0.22003482 0.22068338
0000c0 bd a9 1b 3e 4d 8b 57 3e 36 d3 8c 3e 4f 6c 10 3e
       0.15201469 0.21049233 0.2750489 0.14103816
0000d0 ed 99 ea 3d 05 43 50 3e 56 de a1 3e 5e 4b b5 3e
       0.1145514 0.20338066 0.3161494 0.35409063
0000e0 d6 a1 6c 3e 32 91 67 3e 85 eb 2b 3e db 5f 28 3e
       0.2310861 0.22613981 0.16789062 0.16442816
0000f0 74 a3 d6 3e 2c 7f db 3e c9 a2 63 3e 3a ed 84 3e
       0.4192158 0.42870462 0.22230066 0.2596224

sequential/batch_normalization_1/FusedBatchNormV31 f4 [64]
000000 a9 61 d2 be 02 6a 3d be 9d e2 b5 bf 20 b3 bd bf
       -0.41090134 -0.1849747 -1.4209782 -1.482029
000010 cc fd 7f be 9c fe fa be 57 fb 21 bf e1 34 fb be
       -0.2499916 -0.49022377 -0.6327414 -0.4906378
000020 6c 24 2c bf d2 bd b1 bf b2 fd 74 bf a0 9d 84 bf
       -0.67243075 -1.3886054 -0.9569961 -1.0360603
000030 9f 74 39 bf 26 16 85 bf a0 3d ca bd 4a 2a 27 bf
       -0.72443575 -1.0397384 -0.09875035 -0.65298903
000040 e8 f8 d7 be 48 d8 4a bf b4 e1 49 bf 06 13 03 bf
       -0.42182088 -0.7923627 -0.7886002 -0.512009
000050 b5 b2 0d bf a1 2c 14 bf ac e1 c5 be 44 d8 34 bf
       -0.5535081 -0.578806 -0.38648736 -0.70642495
000060 f4 50 f6 bf c7 19 0d bf 84 02 cc be 8f da 97 bf
       -1.9243455 -0.5511746 -0.3984567 -1.1863574
000070 86 6c 6d bf 86 25 1e be 71 69 fb be ee 6f 5e bf
       -0.9274372 -0.15444002 -0.49103883 -0.8688954
000080 d0 d3 e8 bd 9a e9 5b be 1d ba c8 bf 07 27 45 be
       -0.11368525 -0.2147583 -1.5681797 -0.19253169
000090 5d 63 d9 be 77 77 a4 be c6 20 16 be df 06 40 bf
       -0.4245862 -0.32122394 -0.1466094 -0.75010484
0000a0 58 03 aa bf 26 02 f1 be ba 32 1e bd ff c9 8f bf
       -1.328227 -0.47071952 -0.038622595 -1.1233519
0000b0 40 de 97 bf 07 87 10 bf d2 ff e9 be e0 97 24 be
       -1.18647 -0.56456035 -0.45702988 -0.1607356
0000c0 c2 64 13 bf 68 d0 31 bf d1 91 3d bf 5a e8 00 bf
       -0.5757562 -0.6945863 -0.74050623 -0.5035454
0000d0 1c b8 c1 be 5e 89 c7 be 17 db 30 bf 26 6d 33 bf
       -0.37835777 -0.3897199 -0.69084305 -0.7008842
0000e0 35 08 25 be 62 90 e7 be 00 ed a5 bb 8a 7b b9 be
       -0.16116412 -0.45227343 -0.005063653 -0.36227065
0000f0 8d f7 97 be 35 be 99 bf 50 ad 86 bf a1 bc e2 be
       -0.29681054 -1.2011172 -1.0521641 -0.44284537

sequential/batch_normalization_2/FusedBatchNormV3 f4 [64]
000000 a2 17 9e 3d 77 6c 04 3e ad 5f 89 3e f2 d1 86 3d
       0.07719351 0.12932001 0.26830807 0.06583013
000010 5e f0 f3 3d b3 2c 0a 3e 78 3c 7f 3e 41 b7 77 3d
       0.11911081 0.13493614 0.24925411 0.0604775
000020 72 4b e3 3d df 1a 70 3d 7a 28 19 3e 23 fb 6b 3e
       0.110983744 0.058619376 0.14956847 0.2304502
000030 6b 00 ad 3d 0a a2 8a 3e f8 88 57 3e 44 0f 9a 3d
       0.08447345 0.2707675 0.21048343 0.07522443
000040 f1 87 1d 3e 13 31 2d 3e 7f b6 c1 3e 62 14 0f 3e
       0.15383889 0.16913252 0.37834546 0.13972619
000050 cd c9 1b 3e cf 1b 23 3e d5 e3 cb 3d e4 ae 1e 3e
       0.152137 0.15928577 0.09955565 0.15496403
000060 ff d6 a5 3e 5f 48 98 3d a6 87 87 3e c6 d6 d0 3e
       0.32390592 0.07435679 0.2647068 0.4078886
000070 36 8d 07 3e e5 70 3d 3e 06 e7 90 3e f8 82 21 3e
       0.13237461 0.18500097 0.28301257 0.15772617
000080 3d df 15 3e ad 5d 95 3e cd 58 77 3e 66 bc ab 3e
       0.1463594 0.2917303 0.24154969 0.33542174
000090 70 5c 3c 3e 1b 58 8c 3e c6 c4 15 3e cd e2 60 3e
       0.18394637 0.2741097 0.14625844 0.21961518
0000a0 a2 54 9e 3e 81 1a 4f 3e 05 24 78 3e 68 af 88 3e
       0.30923945 0.20224954 0.2423249 0.26696324
0000b0 12 7a 87 3d 20 74 29 3e c2 71 1c 3e 94 54 1f 3e
       0.0661508 0.16548204 0.1527777 0.15559608
0000c0 64 a7 91 3d f5 3f 1f 3e a1 b8 f0 3e e1 59 4b 3e
       0.07112005 0.15551741 0.4701586 0.19858505
0000d0 d7 9b 55 3e 73 82 c2 3d fd 46 1f 3e e9 df 44 3e
       0.2086023 0.094975375 0.15554424 0.1922604
0000e0 7d 4d a2 3e aa 6a 86 3d 35 6d 1d 3d 10 1a 03 3e
       0.31699744 0.06563313 0.038434226 0.12802911
0000f0 a8 8e 83 3d 07 68 5c 3e 24 d5 4e 3e 03 11 84 3e
       0.06423694 0.21524058 0.20198494 0.2579423

sequential/batch_normalization_2/FusedBatchNormV31 f4 [64]
000000 8e 34 2a bf b1 78 3f be 15 24 f4 bd 2a 8c f6 bd
       -0.6648644 -0.18698384 -0.119209446 -0.12038453
000010 a2 91 04 be ce 30 96 bd 40 63 84 be a1 b7 68 be
       -0.1294618 -0.073335275 -0.25856972 -0.22726299
000020 ee 3f 1a be 0c eb 30 be c8 35 16 be 38 35 0a bd
       -0.1506345 -0.17277163 -0.14668953 -0.03374216
000030 b7 95 20 be 30 98 d6 be c8 e7 2d bd 60 4e a2 be
       -0.15682112 -0.41912985 -0.042457372 -0.3170042
000040 d4 c5 2a be 0e 44 0f be c6 44 67 be 7b 43 ca be
       -0.16677028 -0.13990805 -0.22584829 -0.3950461
000050 0e d7 f9 be be 76 8d be 8e ec 99 be ea 51 3b be
       -0.48796886 -0.27629656 -0.3006329 -0.18292966
000060 b4 77 91 be 0c fd 08 be 7e cf d0 be fe f7 92 be
       -0.2841164 -0.1337778 -0.40783304 -0.28704828
000070 ad 32 8a be 6c b3 ea bd 46 c5 4c be 68 9b d8 bd
       -0.26991788 -0.11460003 -0.19997129 -0.105765164
000080 39 75 63 be f0 ba 63 be 6d 71 9b be 47 37 8c be
       -0.22212686 -0.2223928 -0.30359975 -0.27385923
000090 00 11 80 be a6 c2 8b be b0 dd 10 be 54 c9 dc be
       -0.2501297 -0.27296942 -0.14147067 -0.4312235
0000a0 e8 59 73 be 20 14 67 bd 22 12 d3 be 5a b6 8a be
       -0.23764765 -0.056415677 -0.41224772 -0.27092248
0000b0 46 6f b4 bd 86 8d a9 bd 32 8e 88 be c6 88 de be
       -0.08810286 -0.082789466 -0.26670986 -0.43463725
0000c0 d0 b7 1f bd 81 fc ac be 8b 77 80 be 36 8f 05 be
       -0.038993657 -0.33786395 -0.25091204 -0.13042912
0000d0 32 fa b9 be d0 df a1 be 74 0d 20 be e1 56 ae be
       -0.36323696 -0.31616068 -0.15630132 -0.34050658
0000e0 46 69 28 bf 6e b8 0b be 41 b1 1d be 88 aa c2 be
       -0.65785635 -0.13644573 -0.15399648 -0.3802073
0000f0 2e 84 fe bd 17 89 ae bd 20 71 8a be 8e 90 90 be
       -0.12427555 -0.085222416 -0.27039433 -0.28235286

sequential/dense/MatMul f4 [32, 16]
000000 46 0a c2 be 6e 87 4a be d3 a8 5d 3e 08 6d 96 be
       -0.37898463 -0.19778225 0.21646433 -0.2938006
000010 85 47 dc 3c b7 fe 4e 3f dd 8c c2 be d0 c1 10 bf
       0.026889572 0.80857414 -0.37998095 -0.56545734
000020 9c bb 16 3f 5d 48 a7 3c 1f 42 de be 93 3a d2 3c
       0.5888002 0.020420248 -0.4340982 0.025662696
000030 c4 69 0a bf f2 6e 89 be c2 32 1c 3e 91 b1 d4 be
       -0.54067636 -0.26842457 0.15253738 -0.41541722
000040 f8 e0 d9 3e b6 9a 0f 3f dc 4d f3 be 64 01 0c bf
       0.4255445 0.56095445 -0.4752034 -0.5468962
000050 02 ba f9 be e8 e3 19 bf 48 79 38 be 47 c3 19 bd
       -0.48774725 -0.6011338 -0.18015015 -0.037539747
000060 1a 3b 12 bf a3 07 a4 3c ed 6e 0d bd 6a e2 75 3e
       -0.5712143 0.020023173 -0.034529615 0.24012151
000070 2f 6b 6e 3e fa fc 0a bf 36 d9 42 be 73 c0 ae 3e
       0.23283075 -0.5429226 -0.19028172 0.34131202
000080 44 ff f2 be 97 d0 87 3e 2a 2c 8e 3e 96 2d d4 3c
       -0.47460377 0.2652633 0.2776807 0.025900643
000090 9e da 52 3d ca d4 1e 3f 2c 19 12 be 1b d8 92 3c
       0.05147802 0.6204344 -0.14267415 0.017925313
0000a0 2e 53 3d bd 84 9b cd 3e 11 d4 9a be 0f 08 e7 be
       -0.046221904 0.40157712 -0.3023992 -0.45123336
0000b0 41 8d 3d be d7 72 3b 3f 9a c7 1b 3f 40 10 28 3e
       -0.18510915 0.73222107 0.6085144 0.16412449
0000c0 a7 c3 59 be b4 f1 be be b7 35 98 3e a6 86 d6 3e
       -0.21266042 -0.3729378 0.2972848 0.41899604
0000d0 0c 12 87 3e cc ac db 3e 5a 5f cf bb 1d 41 59 be
       0.26380956 0.4290527 -0.0063285055 -0.21216245
0000e0 35 34 3d 3e db 0f 55 bd 99 77 a2 be 6b b6 a0 be
       0.18476947 -0.052017074 -0.3173187 -0.31389174
0000f0 17 10 92 be 6e f2 d0 3e 86 e4 0b 3f 1c ee 29 bf
       -0.285279 0.4080996 0.54645574 -0.6637895
000100 f3 a0 1c be c6 62 f7 be 17 02 00 3f cd 3d a7 3e
       -0.15295772 -0.48317546 0.5000319 0.32664338
000110 03 a7 36 bd fe 4f 37 3f b1 a8 09 bf f9 c9 cf be
       -0.04459287 0.71606433 -0.5377303 -0.4058378
000120 bc 00 f1 bc 6b 89 92 3d b2 0d 12 bf b7 fc 86 be
       -0.029419295 0.07155117 -0.5705215 -0.2636468
000130 52 7e 0a 3e 96 69 b1 bb 8a 6d 20 3f 25 f4 d4 be
       0.1352475 -0.005414198 0.62667143 -0.41592517
000140 0d 5d c9 3d 6b 38 98 3e cd ac 9f 3c 93 8d 48 be
       0.09832201 0.29730543 0.019491578 -0.19585256
000150 68 5e 0f bd 5f e9 1c be e2 c4 9d 3d d4 c4 75 3e
       -0.035002142 -0.15323399 0.07703568 0.24000865
000160 aa 96 eb be 13 21 c4 3b db 22 22 3f ff 32 d8 3e
       -0.46013385 0.005985388 0.63334435 0.42226407
000170 32 16 6d 3e 92 10 dc be f1 30 63 3e 59 46 a0 3e
       0.23152998 -0.42981392 0.22186638 0.3130367
000180 9d e7 28 3b c8 9e 0e 3f e4 ff 38 be 9e da 0d 3d
       0.0025772818 0.5571103 -0.18066365 0.034632318
000190 64 18 b5 3c 4c 99 7b be 16 a4 29 3e 42 06 15 3f
       0.022106357 -0.24570197 0.165665 0.58212674
0001a0 aa 88 eb be ba 3b b7 3d 96 28 39 3d 27 c8 1f 3f
       -0.46002704 0.08946939 0.04520472 0.62414783
0001b0 60 ef 91 3e 4f a7 00 bf b6 d3 0b bf d0 cc 96 3d
       0.2850294 -0.5025529 -0.5461992 0.07363284
0001c0 c1 5d 3d 3f aa 49 0b 3f f4 6a bb 3d fa 25 06 bf
       0.7397118 0.5440928 0.09151259 -0.524017
0001d0 c4 ad f3 be 12 74 89 be 62 39 0a 3e 2f 38 1c 3f
       -0.4759351 -0.26846367 0.13498452 0.6102323
0001e0 29 f5 7f bd 1e e3 42 3e a6 70 ab 3e 18 3d ad 3e
       -0.062489662 0.19031951 0.3348438 0.33835673
0001f0 ca 0d 12 3f a9 a2 cb be 86 8b a3 be 5c bc 8e be
       0.5705229 -0.39772537 -0.31942385 -0.27878082
000200 18 67 0e 3f 27 f3 2e 3f 92 47 a4 be a8 fc ce be
       0.5562606 0.6833977 -0.32085854 -0.40427136
000210 c1 ce 2b bf f6 95 e9 bd 2c 18 37 3e 25 e6 0a 3e
       -0.67112356 -0.11405556 0.17880315 0.13564356
000220 c8 7d a1 be 36 09 08 bb 87 9a 6a 3e b4 02 83 3e
       -0.31541276 -0.0020757443 0.2291051 0.25588
000230 83 92 82 be de 33 94 be f2 fe cc be 72 60 ef 3d
       -0.25502405 -0.28945822 -0.40038258 0.11688317
000240 62 f0 02 3f 74 85 4e 3f 88 49 8a be 1f dd e2 be
       0.51148045 0.80672383 -0.27009225 -0.44309327
000250 aa fb 8c be 36 02 f8 be 0e 3b d2 3d 85 06 c2 3e
       -0.27535754 -0.48439187 0.1026517 0.378956
000260 a1 5d 29 bf 92 a0 92 bc 44 bc 12 3f 55 c6 66 3e
       -0.6615849 -0.017898832 0.5731852 0.22536595
000270 45 9f e4 3e 15 e7 ca be 5c a9 13 bf 20 4e a0 bd
       0.44652763 -0.39629427 -0.57680297 -0.07827401
000280 8b d6 bf bd fb f6 45 be 91 46 8f 3e 13 a2 84 3e
       -0.09367093 -0.19332497 0.27983525 0.25904903
000290 d1 23 c2 bd 84 4e 9a 3e a7 04 49 be c8 4e 44 be
       -0.09479488 0.30138028 -0.19630681 -0.19170678
0002a0 5a 0c 13 3f f5 dd 91 be 2d c3 24 bf 18 21 a8 bd
       0.5744072 -0.28489652 -0.64360315 -0.08209437
0002b0 4a f2 be bd 83 c1 bc 3e ad f0 07 3f 22 be ab 3e
       -0.09323557 0.36866388 0.5310162 0.33543497
0002c0 55 2a f0 3c 20 4a c8 bd a1 7e ef 3e 00 44 9e 3e
       0.02931706 -0.09779763 0.46776298 0.30911255
0002d0 a3 43 36 3d f5 f7 3f 3f bf d9 84 3d a2 20 28 3e
       0.044498097 0.7498773 0.06486844 0.16418698
0002e0 39 7c c5 3e a1 b0 b1 3d 4d 3a 53 be ba d3 98 be
       0.38571337 0.086762674 -0.20627709 -0.29849035
0002f0 57 4c 43 be 95 29 a6 3e 2e 5c 10 3f 59 42 a1 bd
       -0.1907209 0.324536 0.56390655 -0.07873983
000300 8d 0c 49 bd 87 53 b9 3d a4 dd db 3e 0e fe c1 3d
       -0.049084235 0.09049135 0.42942536 0.09472285
000310 d8 eb 57 3e 22 4b ca 3e a6 46 1b bf 6d d8 a6 be
       0.21086061 0.39510447 -0.60654676 -0.32586995
000320 e3 f6 09 3f 55 39 bb 3d fa 38 44 be 56 d3 e0 bd
       0.53892344 0.091417946 -0.1916236 -0.10977809
000330 44 b2 98 be ed 86 01 bc 4c a0 b2 bc ce 85 88 3e
       -0.29823506 -0.007905704 -0.021804951 0.26664585
000340 56 57 c9 3e 3a 38 96 3e 79 a0 26 be f7 24 cf be
       0.39324445 0.29339772 -0.16272153 -0.4045789
000350 50 ef cd be d8 f9 74 be 3a 5f 93 bd 1a 84 44 3e
       -0.40221643 -0.23923433 -0.071958974 0.19191018
000360 af 8c 25 be c5 05 1e bd 3f bc ba 3e b7 90 e8 bd
       -0.16166948 -0.03857972 0.36471745 -0.11355727
000370 52 1a 1d 3f 9b d8 a8 be b0 a2 bd be 96 42 01 3e
       0.61368287 -0.32977757 -0.37038183 0.12623057
000380 67 83 36 bf 24 f9 9b bd 0a 20 cc 3c 0c ab e9 bd
       -0.71294254 -0.07615879 0.024917621 -0.11409578
000390 e3 ad c0 3e 20 a9 4c 3e 91 84 3d be ac e6 9f be
       0.37632665 0.19986391 -0.18507601 -0.31230676
0003a0 fc d2 96 3e 92 19 9d 3e d3 f5 bd bd 1b 9b 15 bf
       0.29457843 0.3068357 -0.09275403 -0.584398
0003b0 b6 c1 b1 be 20 7b f0 bd 22 18 0f 3f 47 7a 2c 3e
       -0.34718102 -0.11742234 0.558962 0.1684352
0003c0 57 b1 8d be 16 d3 db be 39 78 7b 3e 3a ec df 3d
       -0.27674362 -0.42934483 0.2455758 0.109337285
0003d0 9c e4 b6 3e 7f 28 46 3f 25 8e 13 3e 52 a0 30 be
       0.3572129 0.7740554 0.14409693 -0.17248657
0003e0 04 57 81 3e 7b 37 99 3e a8 65 bb be d8 1a be bd
       0.252617 0.2992514 -0.36600995 -0.09282464
0003f0 69 9c cf be 94 cd 32 3e 8f c8 cb 3e 20 bf ad bc
       -0.4054902 0.17461234 0.39801452 -0.0212093

sequential/dense_1/MatMul f4 [1, 32]
000000 bc cd b4 be be 89 c1 3e cf be 1c bf 84 02 f0 be
       -0.35313213 0.378004 -0.6122865 -0.4687692
000010 82 fc e3 be a1 3c e7 3e 99 96 ed 3e 1c b3 ee 3e
       -0.44528586 0.45163444 0.4640396 0.46621025
000020 36 d6 a8 3e 6b cc 21 3f b0 c7 a9 be ad 2f 04 be
       0.3297593 0.6320254 -0.33160162 -0.12908812
000030 07 f4 4d be 61 f2 6f 3e e6 44 5a be 89 0a 00 bf
       -0.2011262 0.23432304 -0.21315345 -0.50016075
000040 34 a2 e6 be 76 03 83 3f b4 3e ac be 7d 4b 9a 3e
       -0.45045626 1.0235431 -0.3364159 0.30135718
000050 b4 0b 83 bf 3e 71 56 bf 4f 0b a9 3e c7 8c de 3e
       -1.0237947 -0.83766544 0.3301644 0.4346678
000060 9b 86 84 bf b3 c9 ce be 8b 08 4d be 8a 18 e2 be
       -1.0353578 -0.4038826 -0.2002279 -0.44159347
000070 ee f9 5b 3e e0 c9 82 be be 69 d5 be 0c 43 95 3e
       0.2148206 -0.25544643 -0.41682237 0.29152715

sequential/lstm/Read_2/ReadVariableOp1 f4 [64]
000000 ac 3d af 3e e1 ee 54 3d 24 fa f9 3d af 69 3b 3d
       0.3422674 0.051985625 0.12205914 0.045755085
000010 5a 3c 5a 3e 48 2e 49 bd 8d c6 75 3d 4b 64 3e bd
       0.21312085 -0.049116403 0.060003806 -0.046482366
000020 ac f1 0f 3e 92 0c a1 3e b7 ce ad 3e 8e 35 b8 bd
       0.14057034 0.31454903 0.33946773 -0.0899459
000030 9d ef ec 3d 59 42 38 3e ac c6 87 3e a3 cc 6a 3e
       0.1156914 0.1799406 0.26518762 0.22929625
000040 59 ad 7a 3f e1 77 86 3f c2 79 8a 3f dc f2 a4 3f
       0.9792076 1.0505334 1.0818408 1.2886615
000050 6d eb 62 3f 82 f4 a2 3f fd 38 9c 3f af 19 90 3f
       0.8864048 1.2730868 1.2204891 1.1257838
000060 fe 97 87 3f 49 7a 78 3f 00 8b a2 3f 4c 50 3a 3f
       1.0593259 0.9706159 1.269867 0.72778773
000070 a2 23 89 3f eb 0d 7d 3f bf 1f 85 3f 59 e7 54 3f
       1.0713999 0.9884936 1.0400313 0.8316551
000080 29 a9 0f bc c6 1f 06 be 9c af 4a 3d 7c 7d 37 3e
       -0.008768358 -0.13098058 0.04948388 0.17918962
000090 6f 05 b3 3d c3 30 d4 3d 8b 3b 9f be a4 c3 8a bd
       0.08741271 0.10360863 -0.31100115 -0.06775597
0000a0 e3 f9 ab bd 2a 81 2f bf 67 d6 85 be 79 e3 91 3d
       -0.083972715 -0.68556464 -0.26140139 0.07123465
0000b0 6e c4 65 be 04 e5 37 be ff 65 80 3e 98 bf 36 3d
       -0.22438213 -0.17958456 0.25077817 0.04461631
0000c0 67 cd 0a 3e e5 c2 8f 3e 60 12 4f bd 2f 29 15 3e
       0.13554917 0.2807838 -0.050554633 0.14566492
0000d0 27 2e 27 be 7b 46 8c bc df 45 b4 3e 3d c9 c7 bd
       -0.163262 -0.017123451 0.35209557 -0.0975518
0000e0 9b 0a c6 3e 73 87 76 3e 56 ef 7a 3d 3e 40 e6 bc
       0.38679966 0.24075107 0.061263405 -0.028106805
0000f0 ef df 84 3e a3 4b 86 3e 15 0a 81 3e b5 26 29 3e
       0.25952098 0.2622958 0.25203004 0.16518672
