models/model.tflite (tflite, 357456 bytes, 13 tensors)

sequential/conv2d/BiasAdd/ReadVariableOp f4 [32]
0	0x3da09c44	0.07842305
1	0x3da2e493	0.07953753
2	0x3d8e273c	0.06941077
3	0x3e55f847	0.20895492
4	0x3dd0bf4d	0.10192738
5	0x3e09fe41	0.13475896
6	0x3dc50566	0.0962017
7	0x3e5b9d58	0.2144674
8	0x3dcd11ba	0.10013147
9	0x3de8afd5	0.11361662
10	0x3dafdadf	0.08586668
11	0x3cedc5bb	0.02902495
12	0x3e05166a	0.12996832
13	0x3d867682	0.06565572
14	0x3d1a8346	0.03772285
15	0x3dbddff3	0.092712305
16	0x3d21b18a	0.039475955
17	0x3bfa6440	0.0076413453
18	0x3d9efce1	0.077630766
19	0x3ce176b4	0.027522422
20	0x3d4d0fed	0.050064016
21	0x3ce3929c	0.02777987
22	0x3d84ef38	0.0649094
23	0x3e019df9	0.12657918
24	0x3dc91218	0.09817904
25	0x3e01148b	0.12605493
26	0x3d8473bf	0.06467389
27	0x3d58e93b	0.0529568
28	0x3e10540f	0.14094566
29	0x3d1e5583	0.03865577
30	0x3dd16585	0.102244414
31	0x3df43747	0.11924606

sequential/conv2d_1/BiasAdd/ReadVariableOp f4 [64]
0	0xbe3ba765	-0.18325575
1	0xbdc5a7e4	-0.09651163
2	0xbde56683	-0.11201193
3	0xbc985a14	-0.01859764
4	0xbcbcac2f	-0.023031322
5	0x3ca188f7	0.01971863
6	0xbe5316b6	-0.20614132
7	0x3ddc1a6c	0.10747227
8	0x3e8112e6	0.2520973
9	0xbe44796a	-0.19186941
10	0xbeae59fc	-0.34053028
11	0xbe314048	-0.17309678
12	0xbeb0cfce	-0.34533542
13	0xbc010ff3	-0.007877338
14	0xbcd0fc66	-0.025510978
15	0xbce319fb	-0.02772235
16	0x3e3bec85	0.18351944
17	0x3e3c80c5	0.18408497
18	0xbdc87a23	-0.09788921
19	0x3e6dc3cf	0.23219226
20	0xbe680c3e	-0.2266092
21	0x3d76610d	0.06015115
22	0x3def024f	0.11670362
23	0xbdee898d	-0.116473295
24	0xbf0030f8	-0.5007472
25	0x3d3a7f40	0.04553151
26	0xbda9049d	-0.08252833
27	0x3c738f4b	0.014865707
28	0xbc757c8f	-0.01498331
29	0x3d0c1afa	0.034205414
30	0xbd69e747	-0.05710533
31	0xbd0a6ed0	-0.033797085
32	0xbd9f9463	-0.077919744
33	0xbdc618a7	-0.09672671
34	0x3e07710f	0.13226722
35	0xbe49c6d9	-0.1970476
36	0x3e0139b6	0.12619671
37	0x3d7f15eb	0.062276762
38	0xbea9f54c	-0.3319496
39	0xbe15d78f	-0.1463301
40	0xbdae6b6e	-0.08516584
41	0xbdaa186b	-0.083054386
42	0xbe8f108e	-0.27942318
43	0xbe210c69	-0.1572739
44	0xbd2fe9c0	-0.04294753
45	0xbdfce833	-0.12348976
46	0xbe0c4c86	-0.13701066
47	0xbe71012e	-0.23535606
48	0x3ba85a7b	0.0051377392
49	0xbe5f6be4	-0.21818501
50	0x3de3c1cc	0.11120948
51	0xbe60813b	-0.21924298
52	0xbe447b3c	-0.19187635
53	0xbebab9f5	-0.3647
54	0xbdc7e2a3	-0.097600244
55	0x3d805a59	0.062672324
56	0x3e041e84	0.12902266
57	0xbe014623	-0.12624411
58	0xbd05e133	-0.03268547
59	0xbda25085	-0.07925514
60	0x3da0d672	0.07853402
61	0x3bf97f64	0.007614063
62	0xbe3e4e3f	-0.18584536
63	0xbcc2618f	-0.02372816

sequential/conv2d/Conv2D f4 [32, 5, 5, 1]
0	0xbd1c8954	-0.038216904
1	0x3dc475ba	0.09592767
2	0xbe266387	-0.16248904
3	0xbe82d1e5	-0.25550762
4	0xbeb46e0d	-0.35240212
5	0x3dd5d986	0.1044188
6	0x3dc42d36	0.09578936
7	0xbeb924d6	-0.36160916
8	0xbe5a5408	-0.21321118
9	0xbe8f096b	-0.27936873
10	0x3d5239e4	0.05132474
11	0x3d12b921	0.035821084
12	0xbe623e7b	-0.22094147
13	0xbd25fdf7	-0.040525403
14	0x3d203764	0.039115325
15	0xbdcd67b2	-0.10029544
16	0x3d2cd059	0.042190883
17	0xbe3d243f	-0.18470858
18	0x3cd9eb1e	0.02660137
19	0x3e81a86d	0.2532381
20	0xbdb56c0f	-0.08858501
21	0xbc5eeb4d	-0.013605905
22	0x3de06a08	0.10957724
23	0x3a2695c0	0.0006354712
24	0x3e9d9871	0.30780366
25	0xbe504bda	-0.20341435
26	0xbe2b0b58	-0.16703546
27	0xbec5451e	-0.38529295
28	0xbe5862b1	-0.21131398
29	0x3d08608a	0.03329519
30	0x3dab663c	0.08369109
31	0x3dcb2a77	0.09920209
32	0x3e0e05e5	0.13869436
33	0xbbb330c1	-0.0054684584
34	0x3e2ae2f7	0.16688143
35	0xbdb20bda	-0.08693667
36	0xbdcb5709	-0.0992871
37	0x3bc2a81b	0.00594045
38	0xbdfceae3	-0.123494886
39	0x3de69417	0.11258715
40	0x3dce7136	0.10080187
41	0xbe5b42ff	-0.21412276
42	0xbeaf5e89	-0.34251812
43	0xbdb11c7c	-0.08648011
44	0xbdffa9d0	-0.12483561
45	0x3d036863	0.032081973
46	0x3e044a59	0.12918986
47	0xbe448ac8	-0.19193566
48	0xbde70a3a	-0.112812474
49	0x3e3c18e5	0.18368872
50	0x3c50af4f	0.012737109
51	0xbdf3de06	-0.11907582
52	0x3c912320	0.017716944
53	0x3e20c070	0.15698409
54	0xbd5fc7d6	-0.054633938
55	0xbdf86a08	-0.12129599
56	0xbe8b82e7	-0.27248308
57	0xbc7e96d1	-0.015538887
58	0x3d0efabe	0.034907095
59	0xbe3b59d5	-0.18295987
60	0xbd82d12c	-0.063875526
61	0x3dd52298	0.10406989
62	0x3ce00ef2	0.027350876
63	0x3cd3fbe6	0.02587695
64	0xbd08b548	-0.03337601
65	0x3e34e9e3	0.17667346
66	0x3e406a5d	0.18790574
67	0x3dad722b	0.084690414
68	0xbcad8f04	-0.02118636
69	0xbd7ad689	-0.061239753
70	0x3e6a9e53	0.22911958
71	0x3e4ee3a2	0.20204023
72	0x3dd8c3cc	0.1058422
73	0xbe24b8a7	-0.16086064
74	0xbe59c430	-0.21266246
75	0xbe317644	-0.17330271
76	0xbdbda0c4	-0.09259179
77	0xbe68d29a	-0.22736588
78	0x3e0edd16	0.13951525
79	0xbc0d39da	-0.00861975
80	0x3d96933b	0.07352301
81	0xbd0f0a81	-0.034922127
82	0xbeb609f3	-0.35554466
83	0x3df08049	0.117432185
84	0xbd80a090	-0.06280625
85	0x3dc995e1	0.0984304
86	0x3e162893	0.14663915
87	0xbe26017d	-0.16211505
88	0x3e64fd65	0.22362287
89	0x3b2e7d7c	0.0026625087
90	0x3dad19ec	0.0845221
91	0x3cb010b3	0.021492338
92	0xbcc143b3	-0.023591852
93	0x3e807f72	0.25097233
94	0xb9958b9c	-0.00028523512
95	0xbc8237d1	-0.015895756
96	0xbdb17729	-0.08665306
97	0xbc175119	-0.009235644
98	0x3de0ad4e	0.10970555
99	0xbe0844e7	-0.13307534
100	0x3d8983b0	0.067145705
101	0x3e21902d	0.15777655
102	0x3d756ccf	0.05991822
103	0x3e76951b	0.24080317
104	0xbd6ee573	-0.05832429
105	0xbd82886c	-0.06373677
106	0xbbf14ea1	-0.0073641096
107	0xbc4e9682	-0.012609126
108	0x3e09f340	0.13471699
109	0x3bf49aa3	0.007464723
110	0xbdcf59cb	-0.101245485
111	0xbe39e006	-0.18151864
112	0x3d9ec3d1	0.07752193
113	0x3e49b7d6	0.19699034
114	0xbe3789c0	-0.17923641
115	0xbd62c60c	-0.055364653
116	0xbc8b8334	-0.017030336
117	0x3e760edf	0.2402911
118	0x3c3cdf1a	0.011527801
119	0xbd888746	-0.06666426
120	0x3a5da1d9	0.0008454598
121	0x3dd777a8	0.105208695
122	0x3d958182	0.07300092
123	0xbe3362d6	-0.17518172
124	0xbe59a0bc	-0.21252722
125	0xbd7fc390	-0.062442362
126	0x3e0f72ca	0.14008632
127	0x3c2625bf	0.010140835
128	0x3d5e4089	0.054260764
129	0x3de4d0ab	0.11172613
130	0x3d84de62	0.06487729
131	0x3c6b2dae	0.014354153
132	0x3da32987	0.07966905
133	0xbd0e1730	-0.034690082
134	0x3d57603f	0.05258202
135	0xbde25f3b	-0.1105332
136	0x3dc0438d	0.09387884
137	0x3e326c0e	0.17424032
138	0x3dbc649a	0.09198876
139	0x3d7c3311	0.06157214
140	0xbe3dd379	-0.18537702
141	0xbe003f66	-0.12524185
142	0xbc94cff0	-0.018165559
143	0xba5fb2f4	-0.0008533441
144	0x3e022449	0.12709154
145	0xbeb8b679	-0.36076716
146	0xbe6d776d	-0.23190089
147	0xbb77c976	-0.003780929
148	0xbbc02ce0	-0.0058647245
149	0x3ecfedc9	0.40611103
150	0x3da660c0	0.08123922
151	0xbc83e7d6	-0.016101759
152	0xbe23ae10	-0.15984368
153	0x3cb6c984	0.022312887
154	0xbdba2384	-0.09088805
155	0xbe44c8fa	-0.19217291
156	0xbd4d97f3	-0.05019374
157	0xbd6727f6	-0.056434594
158	0xbbf5a666	-0.007496643
159	0xbcffa05d	-0.031204397
160	0xbea8d887	-0.32977697
161	0xbdad44ab	-0.08460363
162	0xbd731104	-0.0593424
163	0x3bfd8b0e	0.007737524
164	0xbe1eb9fc	-0.15500635
165	0x3d890e23	0.066921495
166	0x3dd7ced5	0.10537497
167	0xbdf04ba0	-0.11733174
168	0x3c9c9dc6	0.019118201
169	0x3d85fbc4	0.06542161
170	0x3e82557a	0.25455838
171	0x3c2d6af0	0.010584578
172	0xbd364627	-0.044500496
173	0x3bac5559	0.0052591977
174	0x3e101ddc	0.1407389
175	0xbe2a7ae2	-0.16648439
176	0xbb72c1ac	-0.0037041707
177	0x3dd40f3f	0.103544705
178	0x3dc60d0b	0.096704565
179	0x3e409a89	0.1880895
180	0xbe8c9467	-0.27456972
181	0xbd027baa	-0.031856216
182	0xbd1afc8d	-0.037838507
183	0xbdff991b	-0.124803744
184	0x3aea6282	0.0017882141
185	0xbe8bd26b	-0.27308974
186	0x3d883e39	0.06652493
187	0x3d7a90ea	0.061173357
188	0x3e2d6543	0.1693316
189	0x3e83f272	0.2577091
190	0xbdc17e44	-0.094479114
191	0x3df69336	0.12039797
192	0xbd7e57f8	-0.062095612
193	0xbe56d9b4	-0.20981485
194	0x3e0f862e	0.14016029
195	0xbdca40fd	-0.09875677
196	0x3dd6d3d1	0.104896195
197	0xbe38768e	-0.18013975
198	0xbe87df51	-0.26537564
199	0xbd0ac7f1	-0.033882085
200	0x3d9c8384	0.07642272
201	0x3d9aa6fa	0.075513795
202	0x3d5dbfc4	0.05413796
203	0xbe160808	-0.14651501
204	0xbf0a1dc1	-0.5395165
205	0xbd639e90	-0.05557114
206	0x3e1a6e6e	0.15081188
207	0xbe2a1b7c	-0.16612047
208	0xbe9603d9	-0.2929981
209	0xbed17956	-0.40912884
210	0x3d37603f	0.04476952
211	0xbe19de44	-0.15026194
212	0xbe35bd05	-0.17747886
213	0x3e113aa0	0.1418252
214	0xbeb21a00	-0.3478546
215	0x3cf94231	0.03042707
216	0xbe6f0068	-0.23339999
217	0xbe1daa4b	-0.15396993
218	0x3d619225	0.055071015
219	0xbdfbbc81	-0.12291814
220	0xbe6c09f2	-0.23050669
221	0xbd3a5c62	-0.04549826
222	0xbe0f8293	-0.14014654
223	0x3e343197	0.17597042
224	0xbe45412a	-0.1926314
225	0x3d4ba66b	0.049719255
226	0x3d9ff833	0.07811012
227	0x3e233612	0.15938595
228	0xbbf529ba	-0.007481781
229	0x3dbb2057	0.09137028
230	0xbe0a29cc	-0.13492507
231	0xbe1de0e3	-0.15417819
232	0x3d90fd8c	0.0707961
233	0xbde0105a	-0.10940619
234	0x3de05b6c	0.10954937
235	0x3d48978a	0.048972644
236	0xbe4c5f8b	-0.19958322
237	0x3d8aa7ed	0.067703106
238	0x3e2e8775	0.1704386
239	0x3e500b77	0.20316873
240	0x3e244a10	0.16043878
241	0xbe7ea81d	-0.24868818
242	0xbd60f230	-0.054918468
243	0x3ddf06eb	0.108899914
244	0x3d8563ee	0.06513201
245	0x3d08690d	0.03330331
246	0x3cb47107	0.022026552
247	0xbd9b6e0f	-0.075893514
248	0x3e2faf4e	0.17156717
249	0xbe328502	-0.17433551
250	0xbd410474	-0.047123387
251	0x3d75af1b	0.059981447
252	0x3e5e1bca	0.21690288
253	0x3e62d85a	0.22152844
254	0x3e00fe71	0.12597062
255	0x3b7a4933	0.0038190603

sequential/conv2d_1/Conv2D f4 [64, 5, 5, 32]
0	0xbdea6ed9	-0.11446924
1	0xbc588948	-0.013216324
2	0x3d5968d8	0.053078502
3	0x3d29389b	0.04131375
4	0x3df4faac	0.11961874
5	0xbd801fe7	-0.06256085
6	0x3e1f2ce2	0.15544465
7	0xbd186fa6	-0.03721585
8	0x3ce2e4ad	0.027696932
9	0x3dfe14c7	0.12406307
10	0x3cd1b4b8	0.025598869
11	0x3da85b83	0.082205795
12	0x3e1308ce	0.14358827
13	0x3d64b347	0.055835035
14	0x3d9c6aac	0.076375335
15	0x3b224c23	0.002476462
16	0x3d27f13f	0.041001555
17	0x3d1b5ea7	0.037932064
18	0xbdd3b297	-0.10336798
19	0x3e6bb9f2	0.23020151
20	0x3ceb975d	0.0287587
21	0xbe1fbda4	-0.15599686
22	0xbd153446	-0.036426805
23	0x3eb1fcc2	0.3476315
24	0x3d1d9896	0.038475595
25	0x3c50a7ae	0.01273529
26	0x3e33d1a3	0.17560439
27	0xbd52c97b	-0.051461678
28	0x3df3e1e2	0.11908318
29	0x3d1612e3	0.036639106
30	0x3e18c870	0.14920211
31	0x3df0bac3	0.11754372
32	0x3dfe7d9b	0.12426301
33	0xbcd2cd95	-0.025732795
34	0x3dc6befa	0.09704395
35	0xbd1abbb8	-0.03777668
36	0x3c9b8f8b	0.018989345
37	0x3dc661b1	0.09686602
38	0x3ec59187	0.3858759
39	0xbdc59923	-0.09648349
40	0x3dcd2d90	0.10018456
41	0x3c90b395	0.017663756
42	0x3d1c7d4b	0.038205426
43	0x3da9f497	0.08298605
44	0x3c7476d5	0.01492091
45	0xbbc5a266	-0.0060313223
46	0x3dea4f34	0.11440888
47	0xbc6e9fdf	-0.014564483
48	0x3da51ad4	0.08061758
49	0xbdf27eb1	-0.11840571
50	0xbd5bdc5a	-0.05367694
51	0x3e0533f4	0.130081
52	0xbe447d00	-0.19188309
53	0x3e0f45b4	0.13991433
54	0xbd379a4a	-0.044824876
55	0x3e5aedf8	0.2137984
56	0xbccb7681	-0.02483678
57	0x3e37ebfb	0.17961113
58	0x3dc43dc2	0.09582092
59	0x3ca31f9a	0.01991253
60	0x3d3da9a4	0.04630436
61	0x3db36745	0.087599315
62	0x3e0420cb	0.12903135
63	0x3e7d277d	0.24722095
64	0x3dcd306f	0.100190036
65	0xbdbf2d95	-0.09334866
66	0x3dff1514	0.12455192
67	0xbd4b25a5	-0.049596447
68	0xbd3bd57b	-0.045857888
69	0xbd53f9d1	-0.051751915
70	0x3e940e28	0.2891705
71	0xbe57d81e	-0.21078536
72	0x3d37dc4a	0.04488782
73	0xbd4dfcd2	-0.050289936
74	0xbdf42e08	-0.11922842
75	0xbc9e36c3	-0.019313222
76	0xbdcbf346	-0.0995851
77	0x3d122d05	0.035687465
78	0xbe2bb6ea	-0.16768995
79	0xbd57ee3e	-0.05271744
80	0x3d9d6172	0.07684602
81	0xbe5ee520	-0.21767092
82	0xbe437f14	-0.19091445
83	0x3e5f8373	0.21827488
84	0xbeb27499	-0.34854582
85	0x3d876df6	0.0661277
86	0xbd850dd0	-0.06496775
87	0x3e469383	0.19392209
88	0x3cc2d999	0.0237854
89	0x3e053cb5	0.13011439
90	0x3cc19ff9	0.023635851
91	0x3db76c9f	0.08956265
92	0x3e765bc5	0.24058445
93	0x3d363a07	0.044488933
94	0xbd11be01	-0.035581592
95	0x3e1dd9fc	0.15415186
96	0x3db21af5	0.08696548
97	0x3d96343d	0.073341824
98	0x3e09d425	0.13459833
99	0xbe0598ee	-0.1304662
100	0xbd0d44b0	-0.034489334
101	0xbe23ef52	-0.16009262
102	0x3e6fcce4	0.23418003
103	0xbc24641f	-0.010033636
104	0xbd99131b	-0.07474347
105	0xbde3af49	-0.11117417
106	0xbdba9c03	-0.09111788
107	0xbd62612f	-0.055268463
108	0xbe593894	-0.21212989
109	0x3db04af3	0.086080454
110	0x3d9f9a18	0.07793063
111	0xbe0b55db	-0.1360697
112	0x3cdf1824	0.02723319
113	0x3cf6497b	0.030064335
114	0xbe16b03c	-0.14715666
115	0x3e9eb344	0.30996144
116	0xbe4beb73	-0.19914035
117	0xbd725a97	-0.059168424
118	0xbdc39ef5	-0.09551803
119	0x3eb3ac60	0.3509245
120	0xbc3ffd0d	-0.011718047
121	0x3d8d4893	0.06898608
122	0xbe216d09	-0.1576425
123	0x3d2e4fbc	0.04255651
124	0x3d7b0f08	0.06129363
125	0xbb8a7479	-0.0042253104
126	0xbd57f2c8	-0.05272177
127	0x3dd496cd	0.103803255
128	0x3e46f347	0.1942874
129	0x3da4f92b	0.080553375
130	0xbe262406	-0.1622468
131	0xbe2486e5	-0.16067083
132	0xbe33de6d	-0.17565317
133	0xbb7c8cbd	-0.0038536035
134	0x3df21f04	0.11822322
135	0xbd877ffb	-0.06616207
136	0x3d6f2f24	0.058394566
137	0xbdb0e44b	-0.086372934
138	0xbc0d2c2a	-0.008616487
139	0xbe01166b	-0.12606208
140	0x3da3675c	0.079786986
141	0xbcf42387	-0.029802097
142	0xbe17c479	-0.14821042
143	0xbd919ead	-0.07110343
144	0x3d85928b	0.065220915
145	0xbe37745e	-0.17915484
146	0xbea2bdab	-0.3178533
147	0x3e587e47	0.21141921
148	0xbde50e90	-0.11184418
149	0xbde05b8a	-0.1095496
150	0xbd5b1846	-0.053489946
151	0x3e100ddb	0.14067785
152	0xbe1380cf	-0.14404605
153	0x3d12b386	0.03581574
154	0x3e1bc930	0.15213466
155	0x3cf2a6d0	0.029620558
156	0xbc5050f2	-0.012714611
157	0x3dec02fd	0.115240075
158	0x3d44d026	0.04805007
159	0x3e025931	0.12729336
160	0xbda48526	-0.080332085
161	0xbe8ca32a	-0.27468234
162	0xbc9d0ca7	-0.019171072
163	0xbbc4152d	-0.0059839697
164	0x3bcd0e8c	0.0062578376
165	0x3d9ccb55	0.0765597
166	0x3db0996b	0.08623012
167	0xbd2cbfc2	-0.042175062
168	0xbdf99f4c	-0.121885866
169	0xbc822b70	-0.015889853
170	0x3b5e1fdc	0.0033893501
171	0xbdfb297d	-0.12263773
172	0x3c5a0bac	0.013308447
173	0xbb5291c8	-0.003213035
174	0xbe7acc8a	-0.24492088
175	0x3c2a4e6f	0.010394677
176	0xbc4a29f3	-0.012339103
177	0xbe0dd94f	-0.13852428
178	0xbd05d29d	-0.03267156
179	0xb9e31a8c	-0.00043316593
180	0xbde1ddfe	-0.1102867
181	0xbda1eae1	-0.07906128
182	0xbcbda8a6	-0.023151707
183	0xbc3dda19	-0.011587643
184	0x3e0a80c7	0.13525687
185	0x3d6494ec	0.055806085
186	0x3e7fd8f1	0.249851
187	0x3bf4c725	0.007470029
188	0x3d6ea616	0.05826386
189	0xbe454e38	-0.1926812
190	0xbcfaeee4	-0.03063149
191	0x3b862d87	0.0040947828
192	0x3cb15baf	0.021650163
193	0xbdd338d0	-0.103135705
194	0x3cfcf9d4	0.030880846
195	0x3c99a5fe	0.018755909
196	0xbe52b8ae	-0.20578262
197	0x3d91e2ee	0.071233615
198	0x3de40db6	0.11135428
199	0xbe4d5123	-0.20050482
200	0xbe087171	-0.13324524
201	0x3dd9725f	0.10617518
202	0x3d6f9b7d	0.058497895
203	0xbd975252	-0.07388748
204	0x3e21cd11	0.15800883
205	0xbd85e0a6	-0.06536989
206	0xbe5d5a0b	-0.2161638
207	0x3e1325d4	0.14369899
208	0xbb3ab4b6	-0.002848906
209	0x3df5f164	0.12008932
210	0x3d4ee945	0.050515432
211	0x3bc5c91a	0.006035936
212	0x3d1ea94f	0.038735684
213	0xbda2761c	-0.07932684
214	0xbd1c4240	-0.03814912
215	0xbd0594ed	-0.03261273
216	0x3e8b7135	0.27234808
217	0x3df48497	0.11939352
218	0x3eb6a262	0.35670763
219	0xbd98a8b7	-0.07454055
220	0xbe58dc99	-0.21177901
221	0xbcd8650e	-0.026415374
222	0x3e650c72	0.22368029
223	0xbdb6c304	-0.08923915
224	0x3d6c190a	0.057641067
225	0xbc29f067	-0.010372258
226	0x3ea11bc4	0.31466496
227	0x3e0367f7	0.12832628
228	0xbda67ac0	-0.081288815
229	0xbd65fc94	-0.05614908
230	0x3df86ff8	0.12130731
231	0xbdc2ebe8	-0.09517652
232	0x3db6dfc2	0.08929397
233	0x3d9041d6	0.07043807
234	0xbb498e2b	-0.0030754905
235	0xbdde52dc	-0.10855648
236	0x3de11bbd	0.10991619
237	0x3d60305a	0.05473361
238	0xbe229a95	-0.15879281
239	0x3e05ad96	0.13054499
240	0xbd961a7a	-0.07329269
241	0x39b6aff0	0.0003484483
242	0x3ce2c488	0.027681604
243	0xbc524f11	-0.012836234
244	0xbcf7f2d4	-0.030267157
245	0xbd160477	-0.03662535
246	0xbcd247a3	-0.025668925
247	0xbdcf321b	-0.10116979
248	0x3eb7602e	0.35815567
249	0xbd05372c	-0.03252332
250	0x3db0a63b	0.08625456
251	0x3d9b3f0f	0.07580387
252	0x3d0c5202	0.034257896
253	0xbb89cd82	-0.0042054066
254	0xbe01249c	-0.12611622
255	0x3d6f7c46	0.058468126

sequential/lstm/Read_2/ReadVariableOp f4 [64]
0	0xbdcfee81	-0.10152913
1	0xbcd3bd7d	-0.025847191
2	0x3dd24d39	0.10268635
3	0x3e0fcabd	0.14042182
4	0x3c9c43d5	0.019075314
5	0xbb14ebbd	-0.0022723519
6	0x3d579737	0.052634444
7	0x3d51051f	0.051030274
8	0xbe08ea62	-0.1337066
9	0x3db11c7e	0.086480126
10	0xbdeebf2b	-0.11657556
11	0xbe0d3ca6	-0.13792667
12	0xbcd91374	-0.026498534
13	0x3ca04b8c	0.019567274
14	0x3e135bfb	0.14390557
15	0x3db8d901	0.09025765
16	0x3f931c9c	1.1493106
17	0x3f918392	1.1368277
18	0x3f88e73d	1.0695568
19	0x3f984f3a	1.1899178
20	0x3f804a74	1.0022721
21	0x3f91e0ff	1.1396788
22	0x3f94371f	1.1579322
23	0x3f9a75e2	1.2067225
24	0x3f9c104e	1.2192476
25	0x3f89f546	1.0777977
26	0x3f8583be	1.043083
27	0x3f9fd5b7	1.2487096
28	0x3f975875	1.182387
29	0x3fa560f8	1.2920218
30	0x3f81773c	1.0114512
31	0x3f8a2b32	1.0794432
32	0xbdb6d195	-0.08926693
33	0x3dc7337d	0.097266175
34	0xbcefb6b9	-0.029261934
35	0x3d7fc283	0.06244136
36	0xbd81871e	-0.063246
37	0xbe81c25f	-0.25343606
38	0xbd5df824	-0.054191723
39	0xbdbf84ae	-0.093514785
40	0xbe046595	-0.12929375
41	0x3d315a36	0.043298922
42	0xbe11a9bd	-0.14224906
43	0xbe88b700	-0.26702118
44	0xbd3133fc	-0.043262467
45	0x3e3c63d5	0.18397458
46	0xbdd68f08	-0.104765
47	0xbdad6ee1	-0.08468414
48	0x3e8a0c7d	0.26962653
49	0x3e7ce7a3	0.24697737
50	0x3e928fcc	0.28625333
51	0x3d967169	0.0734585
52	0x3e2873c3	0.1645041
53	0x3e77117c	0.24127764
54	0x3e947b6c	0.29000413
55	0x3dc98c2d	0.098411895
56	0x3e1ec52d	0.15504904
57	0x3ea81e07	0.3283541
58	0x3e140c6e	0.14457867
59	0x3d74967b	0.05971382
60	0x3e68cd2f	0.22734521
61	0x3e16ddd8	0.14733064
62	0x3e976e94	0.29576552
63	0x3e590cc3	0.21196274

sequential/batch_normalization/FusedBatchNormV3 f4 [32]
0	0x40886374	4.2621403
1	0x4158a0ac	13.539227
2	0x3fbbb717	1.466525
3	0x3fd411ad	1.6567894
4	0x3f72c6d2	0.94834626
5	0x3f94493e	1.1584852
6	0x40a004f4	5.0006046
7	0x40abbde4	5.36693
8	0x413cfb9d	11.811429
9	0x3f5d867a	0.8653332
10	0x3f8a2197	1.0791501
11	0x3f3d4313	0.7393047
12	0x40c462db	6.1370673
13	0x3f0b50f6	0.5442041
14	0x41034fe7	8.207007
15	0x3efdc26d	0.49562398
16	0x409ef9ff	4.968017
17	0x4118f658	9.5601425
18	0x40a69da1	5.206742
19	0x40dd67a6	6.9189024
20	0x41e19259	28.196459
21	0x4113dea6	9.241858
22	0x3effe658	0.49980426
23	0x40ce1177	6.439632
24	0x41115d7e	9.085325
25	0x4086479f	4.196243
26	0x407d98aa	3.9624429
27	0x3f8f7ffd	1.1210934
28	0x40bd062b	5.907003
29	0x4109c182	8.609743
30	0x4123641e	10.211943
31	0x40686180	3.630951

sequential/batch_normalization/FusedBatchNormV31 f4 [32]
0	0xbe4ae533	-0.19813995
1	0xbf1fd78c	-0.62438273
2	0xbe20122c	-0.15631932
3	0xbeb8623e	-0.36012453
4	0xbe16dee1	-0.14733459
5	0xbe36d848	-0.17855942
6	0xbeb0e568	-0.34550023
7	0xbf6cf3bf	-0.9255943
8	0xbf2ce627	-0.67538685
9	0xbdf90b96	-0.12160413
10	0xbd9ddd54	-0.077082306
11	0xbe15515a	-0.14581814
12	0xbf2ddcac	-0.67914844
13	0xbd0d6f4a	-0.03452996
14	0xbea8da34	-0.32978976
15	0xbdbb5342	-0.091467395
16	0xbe2536f3	-0.16134243
17	0xbc02bf00	-0.007980108
18	0xbec3b484	-0.3822366
19	0x3b9c9ac0	0.00477919
20	0xbec7f032	-0.39050442
21	0xbdca880d	-0.09889231
22	0xbe1847e0	-0.14871168
23	0xbef5b722	-0.47991282
24	0xbf26d254	-0.65164685
25	0xbef8deac	-0.48607385
26	0xbe680bfa	-0.22660819
27	0xbdb3f78c	-0.0878745
28	0xbf322bb3	-0.6959793
29	0xbdf315cc	-0.11869392
30	0xbf1368e8	-0.5758195
31	0xbeb088dc	-0.34479415

sequential/batch_normalization_1/FusedBatchNormV3 f4 [64]
0	0x3dba2074	0.09088221
1	0x3d660a75	0.056162316
2	0x3f300411	0.68756205
3	0x3d50d9b5	0.05098887
4	0x3ed6ab55	0.4192759
5	0x3df00622	0.1171992
6	0x3f5165aa	0.8179575
7	0x3f034886	0.51282537
8	0x3ef2d33d	0.47426787
9	0x3e3a2388	0.18177617
10	0x3e2277f5	0.15866072
11	0x3f606562	0.876547
12	0x3d29ddd5	0.04147132
13	0x3ee9b533	0.45646057
14	0x3e99f6a9	0.30071
15	0x3e90cbf8	0.28280616
16	0x3ed6b683	0.4193612
17	0x3f6efddf	0.93356127
18	0x3e95fa5c	0.29292572
19	0x3e6425ee	0.22280094
20	0x3e479a8b	0.19492547
21	0x3f8effbf	1.1171798
22	0x3f286ba5	0.6578925
23	0x3f82e321	1.0225564
24	0x3d97e77a	0.074171975
25	0x3fc563d4	1.542109
26	0x3eaf7d49	0.34275272
27	0x3f72c588	0.9483266
28	0x3ee78010	0.4521489
29	0x3f579e78	0.8422618
30	0x3eaab810	0.33343554
31	0x3df50372	0.11963548
32	0x3eaab93d	0.3334445
33	0x3e2e77d7	0.17037903
34	0x3e453bd9	0.19261111
35	0x3fe3e67c	1.7804713
36	0x3e8465eb	0.25859007
37	0x3e879e8b	0.26488146
38	0x3f1f111c	0.6213548
39	0x3ee53b26	0.4477169
40	0x3ef72d26	0.48276633
41	0x3d1f2d80	0.03886175
42	0x3f2b5f9e	0.66942775
43	0x3e96aba4	0.29427826
44	0x3cbc2631	0.02296743
45	0x3f3d3e1b	0.7392289
46	0x3e4fcae0	0.20292234
47	0x3dcffb9d	0.10155413
48	0x3f153d13	0.58296317
49	0x3e157dc6	0.1459876
50	0x3e240fc3	0.16021638
51	0x3e12c05c	0.14331192
52	0x3eca0eba	0.3946436
53	0x3ef76239	0.48317125
54	0x3f854d68	1.0414248
55	0x3f2337db	0.63757104
56	0x3fba679a	1.4562867
57	0x3dc46705	0.09589962
58	0x3f0c14f1	0.54719454
59	0x3ed6d38d	0.41958275
60	0x3e8c6e58	0.27427936
61	0x3f3c5b8a	0.7357718
62	0x3df96e52	0.12179245
63	0x3f0b4d6a	0.54415

sequential/batch_normalization_1/FusedBatchNormV31 f4 [64]
0	0xbe38ab41	-0.18034078
1	0xbe6f17fb	-0.23348992
2	0xbe885916	-0.26630467
3	0xbe151afb	-0.14561073
4	0xbe45ab13	-0.19303541
5	0xbe091631	-0.13387372
6	0xbe2b68b4	-0.1673916
7	0xbe996a3e	-0.2996387
8	0xbf03ede4	-0.5153487
9	0xbe0e8d03	-0.13920979
10	0xbe44e9d2	-0.1922982
11	0xbebae628	-0.3650372
12	0xbe7c69d2	-0.24649742
13	0xbe2bcd06	-0.16777429
14	0xbe5c217f	-0.21497153
15	0xbe9dfeed	-0.30858555
16	0xbe8e9cb0	-0.27853918
17	0xbe8b192e	-0.27167648
18	0xbe64b4b8	-0.22334564
19	0xbeeeec4f	-0.46664664
20	0xbd856f99	-0.06515426
21	0xbe0af5d1	-0.13570334
22	0xbf0f4645	-0.559666
23	0xbe6cd968	-0.23129809
24	0xbe122a65	-0.14273985
25	0xbdccae04	-0.09994128
26	0xbeed25d6	-0.4631793
27	0xbcbfbfd0	-0.023406893
28	0xbeb18b69	-0.34676674
29	0xbeeb1dde	-0.45921224
30	0xbe40c61f	-0.18825577
31	0xbea98c0e	-0.33114666
32	0xbe37a544	-0.17934138
33	0xbe89a3d6	-0.2688281
34	0xbea4fc1c	-0.32223594
35	0xbe4ce35a	-0.20008603
36	0xbed4ab7d	-0.41537085
37	0xbd8b7dbc	-0.06811091
38	0xbdbdd6d1	-0.092694886
39	0xbe3f3cb5	-0.18675502
40	0xbe449f0e	-0.192013
41	0xbe25c6c8	-0.1618911
42	0xbe82c44b	-0.25540385
43	0xbeaa8e0e	-0.33311504
44	0xbe22b1fe	-0.15888211
45	0xbc15cd30	-0.009143159
46	0xbdb2b1a8	-0.087252915
47	0xbdba206a	-0.09088214
48	0xbe7f13de	-0.24909922
49	0xbc4b6290	-0.012413636
50	0xbe9133c8	-0.28359818
51	0xbe4558cf	-0.19272159
52	0xbe70ff5f	-0.23534916
53	0xbe216faf	-0.1576526
54	0xbe237640	-0.15963078
55	0xbe8e2c26	-0.27768058
56	0xbf205e3b	-0.62643784
57	0xbe693bde	-0.22776744
58	0xbeaf4d80	-0.34238815
59	0xbe3dad2f	-0.18523096
60	0xbe21b8ae	-0.15793106
61	0xbf07cf86	-0.5305103
62	0xbda65c35	-0.08123056
63	0xbebd5760	-0.36980724

sequential/dense/MatMul f4 [1, 16]
0	0x3f9cfd79	1.2264854
1	0xbfa8c830	-1.3186092
2	0x3f896b15	1.0735804
3	0xbf20e717	-0.62852615
4	0x3f70c97b	0.94057435
5	0x3f816198	1.0107908
6	0x3fc36e1a	1.5267975
7	0x3fa1fd52	1.2655432
8	0x3f8d4dd2	1.1039374
9	0xbf9ef2bb	-1.2417825
10	0x3fa5d05f	1.2954215
11	0x3f8a3fe6	1.080075
12	0x3fb7cb1c	1.4358859
13	0xbf6b24c3	-0.9185297
14	0x3f651025	0.8947776
15	0x3f82ba1a	1.0213044

sequential/lstm/Read_2/ReadVariableOp1 f4 [64]
0	0xbdcfee81	-0.10152913
1	0xbcd3bd7d	-0.025847191
2	0x3dd24d39	0.10268635
3	0x3e0fcabd	0.14042182
4	0x3c9c43d5	0.019075314
5	0xbb14ebbd	-0.0022723519
6	0x3d579737	0.052634444
7	0x3d51051f	0.051030274
8	0xbe08ea62	-0.1337066
9	0x3db11c7e	0.086480126
10	0xbdeebf2b	-0.11657556
11	0xbe0d3ca6	-0.13792667
12	0xbcd91374	-0.026498534
13	0x3ca04b8c	0.019567274
14	0x3e135bfb	0.14390557
15	0x3db8d901	0.09025765
16	0x3f931c9c	1.1493106
17	0x3f918392	1.1368277
18	0x3f88e73d	1.0695568
19	0x3f984f3a	1.1899178
20	0x3f804a74	1.0022721
21	0x3f91e0ff	1.1396788
22	0x3f94371f	1.1579322
23	0x3f9a75e2	1.2067225
24	0x3f9c104e	1.2192476
25	0x3f89f546	1.0777977
26	0x3f8583be	1.043083
27	0x3f9fd5b7	1.2487096
28	0x3f975875	1.182387
29	0x3fa560f8	1.2920218
30	0x3f81773c	1.0114512
31	0x3f8a2b32	1.0794432
32	0xbdb6d195	-0.08926693
33	0x3dc7337d	0.097266175
34	0xbcefb6b9	-0.029261934
35	0x3d7fc283	0.06244136
36	0xbd81871e	-0.063246
37	0xbe81c25f	-0.25343606
38	0xbd5df824	-0.054191723
39	0xbdbf84ae	-0.093514785
40	0xbe046595	-0.12929375
41	0x3d315a36	0.043298922
42	0xbe11a9bd	-0.14224906
43	0xbe88b700	-0.26702118
44	0xbd3133fc	-0.043262467
45	0x3e3c63d5	0.18397458
46	0xbdd68f08	-0.104765
47	0xbdad6ee1	-0.08468414
48	0x3e8a0c7d	0.26962653
49	0x3e7ce7a3	0.24697737
50	0x3e928fcc	0.28625333
51	0x3d967169	0.0734585
52	0x3e2873c3	0.1645041
53	0x3e77117c	0.24127764
54	0x3e947b6c	0.29000413
55	0x3dc98c2d	0.098411895
56	0x3e1ec52d	0.15504904
57	0x3ea81e07	0.3283541
58	0x3e140c6e	0.14457867
59	0x3d74967b	0.05971382
60	0x3e68cd2f	0.22734521
61	0x3e16ddd8	0.14733064
62	0x3e976e94	0.29576552
63	0x3e590cc3	0.21196274

while/MatMul_11 f4 [64, 16]
0	0x3f1f3fb6	0.6220659
1	0xbe13b414	-0.14424163
2	0x3e99f947	0.30072996
3	0xbddeeebd	-0.108853795
4	0x3c9d6806	0.019214641
5	0x3e3ddfe9	0.18542446
6	0x3ec88a5a	0.39168054
7	0x3ebcf915	0.36908785
8	0x3eb88b63	0.36043844
9	0xbeb0dd9b	-0.34544072
10	0x3e55438b	0.20826547
11	0x3d85ac5e	0.06527017
12	0x3e607346	0.21918973
13	0xbea41da0	-0.32053852
14	0x3e3cab01	0.18424608
15	0x3e914737	0.28374645
16	0x3d197712	0.03746707
17	0x3eb2d72b	0.34929785
18	0xbed456f2	-0.41472584
19	0x3dd4f526	0.10398321
20	0x3d65044a	0.055912293
21	0xbe462a7f	-0.19352148
22	0x3e82e70b	0.25566897
23	0x3ed81e6f	0.4221072
24	0xbd8f6dde	-0.070033774
25	0x3e8a1611	0.2696996
26	0x3ee12914	0.43976653
27	0x3e064f18	0.1311611
28	0xbe980e70	-0.29698515
29	0x3e7c43a1	0.24635173
30	0xbe462f0f	-0.19353889
31	0xbe8039f0	-0.25044203
32	0xbdc73d84	-0.0972853
33	0xbe8308dc	-0.25592697
34	0x3f0ab43a	0.54181254
35	0xbf030919	-0.51185757
36	0xbd875991	-0.0660888
37	0xbf182e14	-0.5944531
38	0x3e46a0e1	0.19397308
39	0xbce7b9b0	-0.028286785
40	0xbe9cb2f2	-0.30605274
41	0x3e6ee04e	0.23327753
42	0x3e022629	0.1270987
43	0xbe325c74	-0.1741808
44	0xbe301809	-0.17196669
45	0x3d88bd78	0.06676763
46	0x3e320507	0.1738473
47	0x3ed2b7ec	0.41155946
48	0x3eff2e3f	0.4983997
49	0xbe9ff58d	-0.31242028
50	0xbeac6857	-0.33673355
51	0x3e3984fc	0.18117136
52	0x3dd2b90a	0.102892
53	0xbdae1355	-0.08499781
54	0x3e3ed1e5	0.18634756
55	0xbda77960	-0.08177447
56	0x3e2c1518	0.16804922
57	0xbd910096	-0.0708019
58	0x3e14574e	0.14486429
59	0x3d2d439c	0.042300805
60	0x3db009d8	0.085956275
61	0xbf05939e	-0.5217837
62	0xbe72bf44	-0.23705775
63	0xbe875146	-0.26429194
64	0xbd38cc34	-0.04511662
65	0xbc2bc17e	-0.010483144
66	0x3e58d25c	0.21173996
67	0xbf2a308d	-0.6648033
68	0xbe422d8f	-0.18962692
69	0xbe307ca6	-0.1723505
70	0x3d255c9c	0.040371522
71	0xbe476b57	-0.1947454
72	0xbd61a2fc	-0.055087075
73	0x3d008a42	0.031381853
74	0xbefbddad	-0.49192563
75	0x3e750e7e	0.2393131
76	0xbdbed270	-0.093174815
77	0x3e1803b3	0.14845161
78	0x3e8d83f0	0.27639723
79	0x3ee3d4c7	0.44498274
80	0x3cb02291	0.021500858
81	0x3e1604d9	0.14650287
82	0xbe8dfb3f	-0.27730748
83	0xbeceade2	-0.40367037
84	0xbca3a14b	-0.019974371
85	0x3e095088	0.13409626
86	0x3e365ab2	0.17808035
87	0x3e88fd80	0.26755905
88	0xbe805b6f	-0.25069758
89	0x3e669791	0.22518755
90	0x3da5b667	0.08091431
91	0xbe41e429	-0.18934692
92	0xbec16d2d	-0.37778607
93	0x3ef586d8	0.4795444
94	0xbda2d8e7	-0.07951527
95	0xbf1101ae	-0.5664319
96	0x3e8e0d1b	0.27744374
97	0x3f0aba50	0.5419054
98	0xbd8cf007	-0.06881719
99	0x3f081c65	0.53168327
100	0x3e1300aa	0.14355722
101	0x3e2bfd66	0.16795883
102	0x3dfe369f	0.12412762
103	0x3e93ce57	0.28868362
104	0x3ef31748	0.474787
105	0x3e87a771	0.26494935
106	0x3e5570f0	0.20843863
107	0x3e3cf7a6	0.18453845
108	0x3c01f210	0.007931247
109	0xbdcc04d4	-0.099618584
110	0xbe67d84e	-0.22641107
111	0xbebc82c8	-0.36818528
112	0xbdfc69bb	-0.12324854
113	0x3d9f4167	0.077761464
114	0xbe814316	-0.25246495
115	0xbcb945b9	-0.022616254
116	0xbdc3cfad	-0.095610954
117	0xbe3da756	-0.18520865
118	0xbdb4f36f	-0.08835494
119	0xbd833376	-0.064063
120	0xbe88c07a	-0.26709348
121	0x3e41e354	0.18934375
122	0x3e814165	0.25245205
123	0xbe54f32a	-0.20795885
124	0xbe3e0249	-0.18555559
125	0x3c42c01a	0.011886621
126	0xbe699666	-0.22811279
127	0xbe483348	-0.19550812
128	0x3c9ae53e	0.01890814
129	0x3e41b4f7	0.18916689
130	0x3e4bc4da	0.19899312
131	0x3e8e457f	0.27787396
132	0x3db606b0	0.08887994
133	0xbd8460fc	-0.06463811
134	0xbef94a53	-0.48689517
135	0x3e32bbad	0.17454405
136	0xbe2bc086	-0.1677266
137	0x3ec3902e	0.38195938
138	0x3f0351e3	0.51296824
139	0x3db7943f	0.089638226
140	0xbf235c7d	-0.63813
141	0xbdd25c43	-0.10271504
142	0x3d1d6900	0.038430214
143	0xbe2339de	-0.15940043
144	0x3db55039	0.08853192
145	0x3df49756	0.119429275
146	0xbea6a90e	-0.32550853
147	0x3e45fdf4	0.19335157
148	0x3c5e6da5	0.013575946
149	0xbda7ec2c	-0.08199343
150	0xbd3d4ef6	-0.04621788
151	0x3db8b149	0.090181895
152	0x3e97baa2	0.29634577
153	0x3e9517ec	0.29119813
154	0xbe26a66c	-0.16274422
155	0x3e8a2a68	0.26985478
156	0x3dcaceba	0.09902711
157	0xbc0aff74	-0.008483756
158	0xbef8ebab	-0.486173
159	0xbea63c45	-0.32467857
160	0xbefc40ab	-0.49268088
161	0x3e83fee9	0.2578042
162	0x3d2b11e1	0.041765098
163	0xbe118b88	-0.14213383
164	0xbf0397b7	-0.51403373
165	0xbd8fe368	-0.07025796
166	0x3e3e6754	0.18594104
167	0xbc409ed9	-0.011756622
168	0xbeb64300	-0.35597992
169	0x3ce63c7b	0.028105011
170	0xbe118d72	-0.14214113
171	0xbdbc555b	-0.09195968
172	0xbf189e9a	-0.59617007
173	0x3e809016	0.2510993
174	0x3e520fa1	0.20513774
175	0x3ece699e	0.40314955
176	0xbe37c41d	-0.17945905
177	0x3dfa0024	0.12207058
178	0xbe901e38	-0.28148055
179	0xbdbafe6a	-0.09130557
180	0x3e2475f2	0.16060618
181	0xbea6c67c	-0.32573307
182	0xbdbe52e8	-0.09293157
183	0x3e5ee440	0.21766758
184	0xbe50078a	-0.20315376
185	0x3ed642c3	0.4184781
186	0x3db04882	0.0860758
187	0xbe627b69	-0.2211739
188	0xbf22fbca	-0.6366545
189	0x3eed6064	0.46362603
190	0x3da0c7e9	0.0785063
191	0xbd4b8b0c	-0.049693152
192	0xbd8188f9	-0.063249536
193	0x3ee07085	0.43835846
194	0xbdbcbcfa	-0.09215732
195	0x3eda5bef	0.42648265
196	0x3b2ec8d7	0.0026670003
197	0xbd87d8af	-0.06633126
198	0xbe987903	-0.29779825
199	0x3dec1534	0.11527482
200	0x3da95601	0.08268357
201	0x3e30a517	0.17250477
202	0x3cac14ef	0.021006076
203	0xbdd37440	-0.10324907
204	0xbec6ceb6	-0.38829583
205	0x3e825857	0.25458023
206	0xbe54cf07	-0.207821
207	0xbe9afa8f	-0.30269286
208	0x3c697197	0.014248273
209	0x3e12f210	0.14350152
210	0x3e46dd4c	0.19420356
211	0x3b0aa992	0.00211582
212	0x3dedd823	0.116134904
213	0x3d9462f5	0.07245437
214	0x3e8b2f1e	0.27184385
215	0x3ced5c1f	0.02897459
216	0xbecf96a6	-0.40544623
217	0xbe99ea13	-0.30061397
218	0xbdd1b0d6	-0.10238807
219	0x3e58b995	0.21164544
220	0x3debe243	0.115177654
221	0xbdf294b7	-0.11844771
222	0x3c3c181d	0.011480358
223	0x3e8aaf3f	0.27086827
224	0x3e8cb2c6	0.27480143
225	0xbe80ac42	-0.25131422
226	0xbea1e79c	-0.31622016
227	0xbf03ff04	-0.51561
228	0x3e5ded3b	0.21672527
229	0x3e73267b	0.23745148
230	0x3ecf7500	0.4051895
231	0x3e1059df	0.14096783
232	0x3f137fb0	0.5761671
233	0x3d0747e0	0.03302753
234	0xbdcf933e	-0.10135506
235	0xbde8cd77	-0.11367314
236	0x3f2b65a0	0.6695194
237	0xbe036f9f	-0.12835549
238	0xbe11db29	-0.14243759
239	0xbe3862d5	-0.18006451
240	0xbebb5ac1	-0.36592677
241	0xbccb423a	-0.024811853
242	0xbd4739fa	-0.048639275
243	0xbe42c4de	-0.19020411
244	0xbebd0fcf	-0.36926123
245	0x3b9f6387	0.0048641595
246	0x3e2d0ecc	0.16900176
247	0xbe8b4fea	-0.27209407
248	0xbdd13084	-0.10214332
249	0xbd2407ce	-0.040046506
250	0xbe28aced	-0.16472216
251	0xbe609a50	-0.21933866
252	0x3ba15b36	0.0049242033
253	0x3d973321	0.07382799
254	0x3cfa9e95	0.030593196
255	0xbcd585da	-0.026064802

while/MatMul f4 [64, 512]
0	0xbd81bab3	-0.06334438
1	0x3d64e8f3	0.05588622
2	0xbe7d2ac3	-0.24723344
3	0x3d4fc241	0.050722364
4	0x3de8e6fb	0.11372181
5	0xbb1417a5	-0.00225971
6	0x3d934503	0.07190897
7	0x3d87d6f4	0.06632796
8	0xbdde60fb	-0.10858341
9	0x3cb288f6	0.021793824
10	0xbd218f86	-0.039443515
11	0xbc73b837	-0.014875463
12	0x3df514bb	0.11966845
13	0xbdbcdfab	-0.09222349
14	0x3c3ee741	0.011651815
15	0xbd9f7e1f	-0.077877276
16	0x3dab2942	0.08357479
17	0x3d0cab54	0.03434308
18	0xbe103fe8	-0.14086878
19	0xbd7fe50a	-0.062474288
20	0x3da51b70	0.08061874
21	0xbc0cac4f	-0.008586003
22	0x3d8a290f	0.067461126
23	0xbe13bda4	-0.14427811
24	0x3d4b0b8a	0.04957155
25	0x3d730c62	0.05933798
26	0x3d431480	0.047626972
27	0xbe21d34e	-0.15803263
28	0xbe2c5cdd	-0.168323
29	0x3e1ffe90	0.15624452
30	0x3d494184	0.049134746
31	0x3db8aa94	0.0901691
32	0xbe7bcf95	-0.24590905
33	0xbdcfe05c	-0.10150215
34	0x3d980cef	0.07424342
35	0x3dc3a2d3	0.09552541
36	0x3da778e7	0.08177357
37	0xbe38087a	-0.17971984
38	0x3d6a3156	0.057175957
39	0xbb97d0a6	-0.004633027
40	0xbe470b9a	-0.1943802
41	0x3da181e8	0.07886106
42	0xbbd1042e	-0.006378672
43	0x3ba270eb	0.0049573085
44	0xbc410bf4	-0.011782635
45	0x3e192ea4	0.14959198
46	0xbd048c70	-0.032360494
47	0xbc8e429e	-0.01736575
48	0xbe7fb294	-0.24970466
49	0xbcebc4ab	-0.028780302
50	0xbd930611	-0.071788915
51	0x3c319457	0.01083859
52	0xbce89cf1	-0.028395148
53	0x3d77d257	0.06050333
54	0xbe87a128	-0.2649014
55	0x3e67aa26	0.226235
56	0x3ce14bff	0.027502058
57	0x3d29f795	0.04149588
58	0xbc263c1e	-0.010146169
59	0xbe19faa4	-0.15037018
60	0x3e37faeb	0.17966811
61	0x3da34d1c	0.07973692
62	0x3d877bf6	0.066154405
63	0xbe710579	-0.23537244
64	0x3ce4f6ab	0.027949652
65	0x3e71111b	0.23541681
66	0xbd87f5ef	-0.06638705
67	0x3e64af10	0.22332406
68	0xbdb27c31	-0.08715094
69	0xbe50287b	-0.20327942
70	0xbd75d0a4	-0.06001343
71	0x3dcf0b08	0.10109526
72	0xbe8cc9fb	-0.2749785
73	0x3debd9b4	0.11516133
74	0x3e087c18	0.13328588
75	0xbd94dbe0	-0.072685
76	0x3e113a51	0.14182402
77	0xbcd965fe	-0.026537891
78	0x3e1c5daf	0.15270112
79	0x3e183847	0.14865218
80	0x3d93bffb	0.07214352
81	0xbe525597	-0.20540462
82	0xbd6ad044	-0.057327524
83	0xbe104abd	-0.1409101
84	0x3e7fe3e1	0.24989273
85	0xbda6dfca	-0.08148153
86	0xbef032d2	-0.46913773
87	0xbe187f5c	-0.14892334
88	0x3e1c9b8b	0.1529371
89	0xbd9dd21c	-0.07706091
90	0x3e35177e	0.17684743
91	0xbd892006	-0.06695561
92	0x3ccee903	0.025257593
93	0x3c76f52f	0.015073105
94	0xbdef35fa	-0.11680217
95	0x3dfd5bc4	0.123710185
96	0xbe6572b6	-0.2240704
97	0x3dabc0a9	0.083863564
98	0xbd0969e5	-0.033548255
99	0x3c5d99c4	0.01352543
100	0x3e0ecd9b	0.1394562
101	0xbd03b5e0	-0.03215587
102	0x3c6f976a	0.014623502
103	0x3e660fed	0.22467013
104	0x3e0a2902	0.13492206
105	0xbdbea9a5	-0.09309701
106	0x3e0deb60	0.1385932
107	0x3ddb7b56	0.10716884
108	0x3dea0589	0.11426837
109	0xbe3983ad	-0.18116637
110	0x3e167099	0.1469139
111	0x3e23bc55	0.15989812
112	0x3d47e910	0.04880625
113	0xbce2bbf4	-0.027677514
114	0x3db4ef1a	0.088346675
115	0x3e6cd661	0.23128654
116	0xbe3cd9e4	-0.18442494
117	0xbe51eb85	-0.205
118	0xbe64eb3f	-0.22355364
119	0x3db93c7f	0.09044742
120	0xbe17f6c2	-0.14840224
121	0x3de406ef	0.11134135
122	0x3b4e4642	0.0031474982
123	0xbd8f4f6c	-0.069975704
124	0x3d16e3de	0.036838405
125	0xbe6009f9	-0.21878804
126	0x3ddb499c	0.10707399
127	0xbe0a0727	-0.13479291
128	0xbda8b103	-0.08236887
129	0x3e6fb6b2	0.23409536
130	0xbdff50f4	-0.124666125
131	0x3d8c96db	0.06864711
132	0xbe1fdafb	-0.15610878
133	0x3db1f068	0.08688432
134	0x3be23f5d	0.006904526
135	0xbd6fa06d	-0.058502603
136	0x3e17eec6	0.14837179
137	0x3cee7f43	0.029113417
138	0x3d9433ea	0.07236464
139	0xbe924719	-0.28569868
140	0x3d97289a	0.07380791
141	0x3e031e92	0.1280463
142	0x3e63642d	0.22206183
143	0xbe24cdf5	-0.16094191
144	0xbeb69f28	-0.35668302
145	0xbe41279e	-0.18862769
146	0xbdf0dfae	-0.117614135
147	0xbdc35e04	-0.095394164
148	0xbdab8426	-0.08374815
149	0x3a0194d4	0.00049431366
150	0x3d590ce9	0.052990828
151	0x3e070b89	0.13187994
152	0x3da0a258	0.078434646
153	0xbdcb3561	-0.099222906
154	0x3cc6a45a	0.02424829
155	0xbcecbb5c	-0.028897934
156	0x3dc60df1	0.09670628
157	0x3d3548ee	0.044259004
158	0xbe98e618	-0.29863048
159	0x3c795808	0.015218742
160	0x3e08af73	0.13348179
161	0x3d4bc67e	0.049749844
162	0x3d5b9574	0.053609326
163	0xbe34de46	-0.17662916
164	0x3e05fc52	0.13084534
165	0x3e60183e	0.21884248
166	0x3b8bd35f	0.0042671408
167	0x3bd97773	0.006636554
168	0xbcd5da27	-0.026105
169	0x3e0acf57	0.13555656
170	0x3e45d470	0.1931932
171	0x3e274ac6	0.16337118
172	0x3d6cc57e	0.05780553
173	0xbe4f9f04	-0.20275503
174	0xbb2ae684	-0.002607734
175	0x3cb86ad4	0.022511877
176	0xbe1dd0e1	-0.15411712
177	0xbd337d12	-0.04382045
178	0xbe2fadc7	-0.17156135
179	0x3dfd6243	0.123722576
180	0x3d2a34af	0.04155415
181	0xbd53dbed	-0.05172341
182	0xbe293a57	-0.16526161
183	0x3d4ed6ab	0.050497692
184	0x3c7aa23b	0.015297468
185	0x3d185d9e	0.037198655
186	0xbdb9cd40	-0.090723515
187	0x3c182a27	0.009287394
188	0xbdbc499f	-0.091937296
189	0x3da675c2	0.08127929
190	0xbdc6d891	-0.097092755
191	0xbd4b3444	-0.04961039
192	0xbe10ee32	-0.14153364
193	0xbc67f199	-0.014156722
194	0xbe95ecdc	-0.29282272
195	0x3e06d286	0.13166246
196	0xbd964db7	-0.07339042
197	0xbe2eb058	-0.17059457
198	0xbe8a96d7	-0.27068207
199	0xbd2d0b66	-0.0422472
200	0x3e173735	0.14767154
201	0x3e1eadd8	0.15496004
202	0xbc7b5089	-0.015339025
203	0xbe6a41f3	-0.2287672
204	0x3dff37b7	0.12461799
205	0xbb906a90	-0.0044072345
206	0x3e53e83d	0.2069406
207	0xbe1b537b	-0.15168564
208	0xbe98c16f	-0.29835078
209	0x3d97d1bf	0.07413053
210	0xbdb38433	-0.087654494
211	0xbd18b95c	-0.037286147
212	0x3da8c017	0.08239763
213	0xbdfc478a	-0.123183325
214	0x3abc2ea8	0.0014357166
215	0xbcaf7c8c	-0.021421693
216	0xbc4391c6	-0.011936611
217	0x3c24a714	0.0100496
218	0x3d3a4335	0.04547425
219	0x3d198c33	0.03748722
220	0x3e12bec9	0.14330591
221	0xbb36f868	-0.0027919058
222	0x3cb9e4b0	0.022692055
223	0x3e37d897	0.17953716
224	0xbd4a21a2	-0.04934848
225	0x3e2517f5	0.1612242
226	0xbda48a65	-0.08034209
227	0xbe383e5a	-0.17992535
228	0xbe015a7f	-0.12632178
229	0x3e6503d5	0.22364743
230	0xbd4a35ff	-0.0493679
231	0x3e07ddbe	0.13268182
232	0xbcd58b46	-0.026067387
233	0xbd26d8a8	-0.040733963
234	0x3daa15fc	0.083049744
235	0x3d927b23	0.07152393
236	0x3dbff6e1	0.0937326
237	0xbcafc4f6	-0.021456223
238	0xbd550548	-0.05200699
239	0x3d6d1acc	0.057886884
240	0xbd3711a3	-0.044694554
241	0x3d214f97	0.039382543
242	0xbe4177be	-0.18893334
243	0x3e20f128	0.15716994
244	0xbe26db3d	-0.1629457
245	0xbe778749	-0.24172701
246	0xbd751a43	-0.0598395
247	0x3e14e957	0.14542137
248	0xbc69df10	-0.014274374
249	0x3e1fe7a6	0.1561571
250	0xbe941e24	-0.28929245
251	0x3d9408ab	0.07228216
252	0x3cecadd2	0.028891478
253	0x3e304f72	0.17217806
254	0xbdf19a8b	-0.11797055
255	0xbe8c24ec	-0.2737192
