models/model.tflite (tflite, 586292 bytes, 17 tensors)

sequential/conv2d/BiasAdd/ReadVariableOp f4 [32]
00000000: 4309 aa3c e9e4 2b3c 588c 273d 95eb f83d
00000010: 9df4 453d be9a 463d 95e8 763e 0083 e43d
00000020: eb22 f33b 7a1a 82bb dd20 933b a8be 9d3c
00000030: e772 fa3c fc23 e13c 8fad 323d 6f04 413e
00000040: 796a 6b3d 2738 083c 0d07 aa3c 75aa bc3d
00000050: 3fed 833b 36e3 d33c d995 af3d 1587 483d
00000060: 75ef 98bb 8002 f53d 2053 5a3d 1934 093d
00000070: 2588 d8bb 4863 a63d e470 bc3d f574 013d
0.02075637 0.010491588 0.040905327 0.12154309 0.048328985 0.048487417 0.2411216 0.11157799
0.007419934 -0.0039704414 0.0044900016 0.019255951 0.030572368 0.027482979 0.04362255 0.18849348
0.057474587 0.008314169 0.020755315 0.092121996 0.0040260847 0.025865179 0.08573503 0.04895695
-0.0046672174 0.119633675 0.05330193 0.03349695 -0.0066080266 0.08124405 0.0920122 0.03160568

sequential/conv2d_1/BiasAdd/ReadVariableOp f4 [64]
00000000: 2000 3c3d 917d 70bd 5f5e 2abd d009 49be
00000010: 7ba5 2bbe f2fc b1bc f2fa 003d 7f1e bfbd
00000020: bb33 bb3d cd5c b4bd f727 643d 13b4 59be
00000030: 6a37 803d 100c 23be 513b 623d 3567 963c
00000040: 1332 b03d ef97 0f3d 944f 5abd 63d5 a1be
00000050: 2887 b3bc 6060 1dbc c895 12bc bf37 8bbd
00000060: 77cb aa3c 162b 1c3c 317d dabd 4b40 5f3d
00000070: 13ac 18be 43aa 7dbe 7997 58be 26c1 413d
00000080: 7a37 cabb 2506 20be 5531 2f3e 2db1 88bd
00000090: 0947 5ebb f7d5 a5bd b4e1 ad3d 8496 f2bd
000000a0: ea9b 81bd afa8 1abd 636b 513d adc8 853d
000000b0: 9426 ec3d 683e af3d 9e41 a6bd 2ea0 cabd
000000c0: b2c9 11be 0614 66bd b734 df3d a15c 65bc
000000d0: c904 74be f17d 1fbe 189d 273e 09fb 9ebc
000000e0: 0b36 c8bd 793b 4f3c 849d c83d 42a1 873c
000000f0: 1985 b23c c16f 723c 3639 c93d 82c6 363c
0.045898557 -0.0587135 -0.041593906 -0.1963265 -0.16762345 -0.021727059 0.03148932 -0.093319885
0.09140726 -0.08806763 0.055702176 -0.21260099 0.062605694 -0.1592257 0.05523235 0.01835976
0.08603301 0.035057005 -0.053298548 -0.31608114 -0.021915033 -0.009605497 -0.008946843 -0.06797742
0.020848973 0.009531757 -0.106684096 0.054504674 -0.14909391 -0.24771981 -0.21151532 0.04730334
-0.006171164 -0.15627344 0.17108662 -0.066744186 -0.0033916852 -0.08097451 0.08490315 -0.11845115
-0.06328566 -0.037758525 0.051127803 0.065324165 0.11530796 0.08556825 -0.08117984 -0.09893833
-0.14237097 -0.05617144 0.108987264 -0.013999135 -0.2382995 -0.15575387 0.1636852 -0.019406812
-0.09775933 0.012648457 0.09795669 0.016556386 0.021791982 0.014797152 0.09825365 0.011155726

sequential/conv2d_2/BiasAdd/ReadVariableOp f4 [128]
00000000: 702e 90bd 4b97 dab9 921c e33c 6c9a eabd
00000010: 4ba7 0e3d 5daf 9c3c 7e51 11be b1de c9bd
00000020: 513a f2bd 596b 35be 5687 78bd 28af 94bd
00000030: cc84 ffbd c7f4 e2bd d12a 4f3c 4144 b2bd
00000040: 1a45 3abe 5ac1 2dbe 007a c2bd 66db 68bd
00000050: 7095 cabc ffe6 85bd 9046 55bc d23e 2f3d
00000060: 1c29 86bd b484 65bd 49e7 b13c 626e c83d
00000070: 3339 0fbe 5fff 763d d162 e4bd 3888 2f3c
00000080: 85d5 a2bd 5ed2 ccbd 371b 403d 5c2e 7fbd
00000090: ffc4 8eba a985 9d3c 0978 cc3b e3e4 45be
000000a0: 1f8c 72bd 9912 aabd 3459 7cbc 53d7 92bc
000000b0: 28ea d83d 1b44 543d b57a 033d fbd5 a9bd
000000c0: bc0a 8e3d d017 ecbd 6ca6 003d dd4a 6dbd
000000d0: d25f 5cbb 2657 ccbd e54c 053d d436 86be
000000e0: 89b4 13be 223e 9cbd 0cfe 34be 492e b33d
000000f0: 9ea2 8dbd 6a6d 6ebd 85b9 3b3d 611c 96bd
00000100: fc6d 49bd bcf1 01bd 8215 fb3c ca08 25bd
00000110: faea 27bb ddea 3bbd ad48 0dbe 7aea b5bd
00000120: 6244 09bd ac18 2f3d 691b 453c 06d0 9c3d
00000130: 1fc1 cc3a 2219 febd c1f8 83bd 69b9 383c
00000140: 1177 fabd f3bd c5bd e403 e93c 91d5 973d
00000150: 6a86 c03c dd27 8fbd c9a9 643d 133e 93bd
00000160: 814b f0bd 33f0 04bd 3637 81bd 8088 30be
00000170: 686d 2abe 3203 573d 25b1 a4bc 14a6 2bbd
00000180: ce48 80bd 6172 7ebd 91c9 2abe 9979 bdbd
00000190: a701 b8bd 6450 80bd 7753 0ebe d57d 903d
000001a0: e698 4c3d 9380 78bd 1751 91bd cbf0 2e3c
000001b0: 9d31 53be db87 6e3c 238b f0bd aee2 473d
000001c0: ae01 06bd 79a0 b6bd add3 b9bd 2318 adbd
000001d0: ea44 80bd de88 07be a2ed e1bc e999 88bd
000001e0: 8e6a babd fb55 4cbd 0077 7dbc 67ed aabc
000001f0: 08dd 4a3d 85ca 89bc 8f11 b9ba ddbf c5bd
-0.07040107 -0.00041692922 0.027723584 -0.11455235 0.03482751 0.019126588 -0.14191243 -0.09856928
-0.11827529 -0.17716731 -0.06067594 -0.07259971 -0.12476501 -0.11081844 0.012644486 -0.08704425
-0.18190423 -0.16968289 -0.09495926 -0.05684986 -0.02472946 -0.065382 -0.013017312 0.04278452
-0.0655081 -0.05603476 0.02171673 0.09786679 -0.13986664 0.060302135 -0.1115166 0.010713629
-0.07950882 -0.10001062 0.046900954 -0.06230007 -0.001089245 0.019228773 0.0062398952 -0.19325595
-0.05921566 -0.083043285 -0.015402127 -0.01792494 0.10591537 0.051822763 0.032099444 -0.08292767
0.06935641 -0.115279794 0.031408712 -0.057932723 -0.003362645 -0.0997756 0.032544035 -0.26213706
-0.14424337 -0.076290384 -0.17675036 0.087490626 -0.069157824 -0.058209814 0.045831222 -0.073296316
-0.049177155 -0.031724676 0.030649904 -0.040291585 -0.0025622235 -0.04587828 -0.13797255 -0.088826135
-0.03351248 0.04274814 0.012030461 0.07656865 0.0015621519 -0.124071375 -0.064439304 0.011274674
-0.12229741 -0.096553706 0.028444238 0.074137814 0.023501594 -0.06990025 0.055825982 -0.07189574
-0.11733151 -0.032455634 -0.06309359 -0.1723957 -0.16643298 0.05249328 -0.020104 -0.04190643
-0.062638864 -0.0621208 -0.16678454 -0.092517085 -0.0898469 -0.06265333 -0.13899027 0.070552506
0.049950503 -0.060669493 -0.07095545 0.010677527 -0.20624395 0.014558758 -0.11745288 0.048800163
-0.032716446 -0.089173265 -0.09073577 -0.08451869 -0.06263144 -0.13235804 -0.027579132 -0.06669981
-0.09102355 -0.049886685 -0.015470266 -0.020865155 0.049527198 -0.016820202 -0.0014119613 -0.09655736

sequential/conv2d/Conv2D f4 [32, 5, 5, 1]
00000000: d5ef 533d c4df 903d 3044 dc3d 6173 4b3e
00000010: 6feb 6e3d 49bb 57be 394f 53bd 2485 5fbd
00000020: aabe 80be c158 3a3d 7759 6ebd 017b 38be
00000030: be10 2abe b086 95bd dd0d de3d 03a9 9b3d
00000040: a19a 01be 3e9c a9bd 85f5 a5bd 0b01 41bd
00000050: bcfa 993c 147f 7c3d 7212 013c 4f62 d83c
00000060: ece7 56bd 4965 b43c 4c64 f93d 93db e33d
00000070: a4cb 45bc d550 2ebe 86c5 603d 4489 e6bc
00000080: bc74 a0bc 6f0a 01be ee21 c1bd b62c 10be
00000090: fef1 e2bd 5275 33be a61b aebe 716f b9be
000000a0: fcdb 983b 17ae 1f3d e955 033e 3982 30bd
000000b0: 6b49 80be d116 4e3c 60d8 2fbd f9b9 273d
000000c0: d362 a43d 4a81 053e a03c 863d dd78 c3bc
000000d0: 03f7 33be fb72 69bd a839 b93d 7d1c 7cbd
000000e0: 91f8 06be d770 27be ee46 85be 092e 003c
000000f0: d832 d3bc 312f 08be a14c a2bd fb0f 64be
00000100: e8c4 7b3d 2825 a03c c7fd 72bd 0570 e33b
00000110: 8cf3 bebc f484 143e 2c25 f9bd 797c ea3c
00000120: 3e53 4b3c 2ed2 e43d 6b4e dd3d 63b4 363c
00000130: 25de f93d f4db aa3d 5532 adbd 062d 0bbe
00000140: 5d65 1b3d db86 773c 2222 033e 713b 04be
00000150: e2d0 f9bd 153a a13d d580 923d 4e32 063e
00000160: d1a0 2c3e ab08 66bd 9bc5 b83d 6abe 903d
00000170: 10c2 ff3d 9262 fa3d cf9c 9a3d c374 9e3b
00000180: 70d5 beb8 4cc9 62bd fd30 eebd 0fc7 ccbd
00000190: 4d75 793d 0b6d bfbc 4131 b3bd 169d 78be
000001a0: e583 94be 3ee2 8a3d 0caf 84be 7a11 16be
000001b0: 99ec f6be 082e f9be 2a4c dabd 9e75 2ebe
000001c0: 14bf c7be a66a aabe 9064 a8be c5cd ccbd
000001d0: a07a 7abe 085b 31be b748 abbe de8e c9bd
000001e0: 8a03 0abd c4e0 e7bc 4179 95bd feb3 92be
000001f0: 89ab dc3d db92 9dbb d761 543d 808e ef3d
00000200: e36c 4a3d f648 2f3e 0958 01be 9f80 63bd
00000210: a575 2cbd 8448 9fb7 86d3 103e e10d 50be
00000220: b95d bcbd 7b6d 0bbe d11a b4bd 1670 f0bd
00000230: 781a 45be 25ca ccbd 006e 35be 9850 2dbe
00000240: bdd7 d7bd ff01 d03c 8313 4b3d 4762 623d
00000250: 4486 c0bd e3fa e4bc ce70 493e 0b70 26bb
00000260: 300e 933c 5733 5abd cb19 3ebe 5f97 493d
00000270: ff67 373d eb1d 353d 6f29 a43d 9e2d 20be
00000280: ab14 96bd 80f2 b1bd fa33 09bc 6d07 2bbd
00000290: 0710 ad3c b6ee 28be 2a9b d63b 5255 0abe
000002a0: 2260 1c3d 45fc 09be 2ca6 6f3c 6812 f0bc
000002b0: 96f5 803d ec70 7a3d 218a 71bd 57cf edba
000002c0: 91c8 98bd 4e8b bdbd d816 1b3d 4781 27bc
000002d0: b28e 16bd 662a 913c 219b 1d3d 03c2 d13d
000002e0: 35ab c13d d0f7 6abe 2cd1 f1bd a915 41be
000002f0: 853d 85be 70de 5bbe 8430 b2bd ba09 af3d
00000300: b17d 353d 286e 97bc 4ac3 d23d 60a5 543c
00000310: 4bd2 e9bb 165b 743d 6869 433d 32e3 973d
00000320: 2926 003d 7d11 8bbd 5045 123c b2b6 e93d
00000330: d4f7 813d 96ea 1e3d bd86 933d 2727 f53c
00000340: 9f59 a9bd 778b 36bd 3544 bd3d e11d 273c
00000350: d73c 80bd 1d42 68be e4ba 413d e5b8 6bbe
00000360: e4e4 08be f071 41be 8686 1bbe 36a8 88bd
00000370: e745 11be 7314 2dbe 331d 62be aac1 79bd
00000380: 2b6c 733e 989a 22bd 6473 84be 5929 b0be
00000390: 5cfb 0bbe dc94 a73d 3def 853d 1dc5 47be
000003a0: dd3a 9fbe 30fb 5ebe fac8 993d c332 a43c
000003b0: d25b 973c f4df 443e 3a44 163e 760d cc3d
000003c0: 2a6a 4dbc 3948 723c 9f54 80bc 1c42 833c
000003d0: 746b 92bd 05df 3abd d457 423d b667 f0ba
000003e0: 1242 21be 93bb 3ebe f2e0 863c db63 32be
000003f0: 7b3c 72bd d7f8 3abd 94f5 ff3b d428 b13d
0.051742394 0.0707393 0.10755193 0.19868232 0.058329996 -0.21067537 -0.051589224 -0.054570332
-0.25145465 0.0454948 -0.05819079 -0.18015672 -0.16607949 -0.0730108 0.10842488 0.07600596
-0.12656642 -0.08281754 -0.0810347 -0.047120135 0.018796317 0.06164463 0.007877933 0.026414065
-0.05246727 0.022020953 0.12177333 0.11125865 -0.0120724775 -0.17023022 0.054875873 -0.028141625
-0.019586913 -0.12601636 -0.094303 -0.14079556 -0.110813126 -0.17525223 -0.3400547 -0.36217836
0.004664896 0.038984384 0.12825741 -0.04309294 -0.25056013 0.012578682 -0.04293096 0.04094884
0.08026662 0.13037601 0.06554532 -0.023861343 -0.17574696 -0.05699442 0.090442 -0.061550606
-0.13180758 -0.16351639 -0.26030678 0.007823476 -0.02578108 -0.13299252 -0.07924772 -0.22271721
0.06146708 0.019548967 -0.059324052 0.006940844 -0.023309492 0.14503843 -0.12165293 0.028623806
0.012409983 0.11172901 0.10805973 0.011151406 0.12200574 0.08342734 -0.08456866 -0.13591394
0.037938464 0.015107836 0.1280599 -0.129133 -0.12198044 0.078724064 0.07153479 0.13105127
0.16858222 -0.05616061 0.09022065 0.070675686 0.12488186 0.12225832 0.0754944 0.0048356964
-9.099662e-05 -0.055367753 -0.116304375 -0.09998905 0.060902882 -0.023367425 -0.08749629 -0.24278674
-0.29006878 0.067814335 -0.259148 -0.14655104 -0.48227385 -0.48667932 -0.106590584 -0.17037055
-0.3901297 -0.3328449 -0.32889223 -0.10000185 -0.2446084 -0.17319882 -0.33453915 -0.09841703
-0.03369478 -0.028305419 -0.07298518 -0.28652948 0.10774905 -0.0048087663 0.05185112 0.116971016
0.04942025 0.17117676 -0.12631239 -0.055542585 -0.042104382 -1.8988045e-05 0.1414319 -0.20317794
-0.09197564 -0.13615982 -0.08794177 -0.11740129 -0.19248378 -0.099994935 -0.17717743 -0.16925275
-0.10539196 0.025391577 0.049579155 0.055269506 -0.09400609 -0.027951663 0.19671938 -0.0025396373
0.017951101 -0.053271618 -0.18564527 0.049216624 0.044776913 0.044217985 0.08015715 -0.15642402
-0.07328161 -0.08688831 -0.008374209 -0.04175513 0.021125806 -0.16497311 0.0065492587 -0.1350911
0.038177617 -0.1347514 0.014627021 -0.029305652 0.06296842 0.061142847 -0.05896962 -0.0018143457
-0.0746013 -0.09255086 0.037863582 -0.010223693 -0.03675718 0.017720412 0.03847802 0.10242083
0.09456483 -0.22946095 -0.118074745 -0.18855919 -0.26023498 -0.21471572 -0.0870066 0.08546777
0.04430932 -0.018485144 0.10291155 0.012978882 -0.0071356646 0.05965718 0.047707945 0.07416381
0.031286392 -0.06790445 0.008927658 0.114117995 0.063460976 0.038797937 0.07203434 0.029925896
-0.08269047 -0.044566598 0.09241525 0.010199995 -0.06261604 -0.2268147 0.047297373 -0.2301975
-0.13368565 -0.1889112 -0.15188035 -0.06672709 -0.14186822 -0.16902332 -0.22081451 -0.060975708
0.23771732 -0.039698213 -0.25869286 -0.34406546 -0.13670105 0.081826895 0.06539772 -0.19508786
-0.31099597 -0.21775508 0.07509036 0.020043736 0.0184764 0.19226056 0.14674464 0.09963505
-0.0125375185 0.014787727 -0.01566535 0.016022734 -0.07149401 -0.045622844 0.04744704 -0.0018341455
-0.1574786 -0.18626241 0.016464684 -0.17420904 -0.05913971 -0.04564747 0.0078112576 0.086503655

sequential/conv2d_1/Conv2D f4 [64, 5, 5, 32]
00000000: e5b6 abbd 9f88 21bb 7d44 a4bd 4a73 f9bc
00000010: 062d 323c cb59 47bd 97ef 93bd bc7a babb
00000020: 6517 e2bd 9665 fd3a c7e7 033c cc89 bebc
00000030: c799 0a3d 0d3c 283d 2de1 973b 1d80 e7bd
00000040: ae78 40be 0162 203d c3ac 0a3c 9cb9 ab3d
00000050: a0c6 9abd 7b35 a6bd 0d7f 4dbd 8c03 05bd
00000060: a928 e4bd d840 d13b 49c1 8a3c c794 603c
00000070: 7387 cfbd d6c5 35bd 1ff7 66bd caf0 b4bd
00000080: 053b f13c 423d d2bd 8559 0e3d 4c3c 39bc
00000090: 76c9 cebd 41ec aebc 5cd9 25be c978 35bd
000000a0: 584e 0bbe 37ab 9dbd 2f5f 81bb e82a a83c
000000b0: da1d 44bc b9bc 5abe 9d51 7dbd 73b6 373d
000000c0: 9a3a d8bd cda8 d1bc 9633 8a3d 1598 8b3d
000000d0: d2a3 f03d 0e45 793d e571 473d 2dd5 0bbe
000000e0: 6c64 9ebd d4c6 4f3d 2b59 dfbc 7c94 e6bd
000000f0: 3b73 a8bd aaf8 89bd 824d 093d 21d3 63bc
00000100: 9ab8 50bd 7c6e 61bd cebc 0cbe 6ceb 213d
00000110: d9a8 01be eb26 03bd 832a 91bd 1d12 07be
00000120: 19f2 83bd 3943 3f3d 13a7 033e 475c 1e3e
00000130: 04df c0bd 49d2 173e f83d 0abe 19da 4f3d
00000140: cfb4 41be f5a5 ca3d 01b6 863d 7b03 1cbe
00000150: 35d4 903c ecf9 91be 9ebb 523d f276 3bbd
00000160: be00 393d 38ca 4b3d 2dcf d23d d8fa 23be
00000170: 09fd 19be b1c4 09be bd5c e03d 391b 033d
00000180: d9e7 75bd 3658 9c3d e0da e6bd f74b a9bb
00000190: 9bca 85bd 8f11 3dbd 31bd 2cbe 6722 29be
000001a0: 81b6 5bbd 8df0 57bd d71d fabd a6de e63d
000001b0: 19ab 7e3d bea1 10be fb98 3abc 9edb fdbd
000001c0: bf29 1cbd 9581 ff3d 1fcc 243e 5323 fabd
000001d0: 2cda 49bd b1e7 563d 62a5 8d3c b840 33bd
000001e0: cbec b0bd 889d e53c 0406 3b3d 05d8 e8bd
000001f0: e1f9 07bd b586 983b c972 993a 43d6 d0bd
00000200: 0baa 073e 4510 5cbd f30a 54be db9d ce3c
00000210: f648 d5bd 0ae9 3e3b c5b7 0bbe b31a 13be
00000220: fe64 38bd 0b51 d0bd 90f3 a9bd eb93 d03d
00000230: a792 adbc 24eb 00bd 04af a53d e616 1cba
00000240: 9731 683d 615b c23c 9307 bd3c 2d63 b2bd
00000250: ccd9 ccbc fa9f a63b 7bdf a93c 48bc 1e3d
00000260: 7a5c 6f3d 8005 8cbd 4066 f13c b52d 39be
00000270: 805d c2bb 2b26 94bd 7e19 1a3e 0cf0 533c
00000280: 56cc 1ebd 9d6e 2cbe dbf2 4cbd 8cac 633d
00000290: 4c76 d6ba 78ec 7e3d 852c 90bd 3370 7d3d
000002a0: ffef 8b3d 62c5 01be f041 dabd 0513 88bd
000002b0: a2b3 d4bb 682f e7bd c13e 99bc 28dd e0bb
000002c0: 8681 0b3e d1fa 4abd 328d 7dbc fd9b 12bc
000002d0: 96ba 473d aa31 c23d d9c4 28bc 0221 b33d
000002e0: 6054 81bd 0ccc de3c 56b9 bdbd c29f f3bd
000002f0: a176 23bc abaa 19bd ea59 10be 60e0 60bd
00000300: f0cd f23b 6f85 12be 789e f8bd c319 13be
00000310: 97ba 143d 4ee1 ae3d ecc8 96bd 2630 a73c
00000320: f15e bf3d 3506 fdbd cae0 52bd 2b42 00be
00000330: 4800 77bd d6ad fbbd 36b7 443d 692b 873d
00000340: 0e10 be3d b449 8abd d297 543c 64c9 3cbe
00000350: de9c e9bd 32ac 65bd 5172 68bc edba c03d
00000360: 3cec a9bc b463 a63c 5656 0fbe dfb7 12be
00000370: 3532 96bd 30eb a43d dad4 523c b88c 24bc
00000380: 91c9 103e b6c1 80bd b83e 92bd 0367 d13d
00000390: fb0b c8bd eeae 873e c694 8b3d d0b4 9a3d
000003a0: c01b ca3d ff6a 64be 03bc 9b3d 2763 883c
000003b0: fd15 c2bc 9e88 e3bd 7fda 73bd e0a7 3b3e
000003c0: fd46 473e 4272 b9bd 02d1 a5bc b77a 18be
000003d0: 96a6 15be ec6e e0bd b53f cc3d f3ab ae3c
000003e0: b933 0a3d 4ed9 2ebd 4529 2b3d d945 c7bd
000003f0: 8829 853d 1fff abbe 8afc f03b 01f9 dd3d
-0.08384494 -0.0024648083 -0.080208756 -0.030450482 0.010874992 -0.048669618 -0.072234325 -0.0056909006
-0.110396184 0.0019332643 0.0080508655 -0.023259066 0.03383806 0.041072894 0.0046349973 -0.113037325
-0.18796036 0.039155964 0.008464041 0.083850116 -0.07557416 -0.08115669 -0.050169993 -0.032474086
-0.11140568 0.006385904 0.016937869 0.013707346 -0.10133257 -0.044378124 -0.056388017 -0.08834989
0.029447088 -0.1026559 0.03475334 -0.01130588 -0.100970194 -0.021352889 -0.16196197 -0.044304643
-0.13604105 -0.07698672 -0.0039481143 0.020528272 -0.011970008 -0.21361054 -0.06184541 0.04485173
-0.10558052 -0.025593186 0.067481205 0.06816117 0.11749996 0.06085687 0.048692603 -0.13655539
-0.07733998 0.050726727 -0.027264198 -0.1125879 -0.082251035 -0.06736882 0.033521183 -0.0139053175
-0.0509573 -0.055037007 -0.13743898 0.039531156 -0.12662067 -0.032019537 -0.070881866 -0.13190503
-0.06442661 0.046694968 0.12856703 0.15464889 -0.09417537 0.14826311 -0.13500202 0.050745104
-0.18916629 0.09894935 0.06577683 -0.15235703 0.017679313 -0.28510988 0.051448457 -0.045767732
0.045166723 0.049753398 0.10293422 -0.16013658 -0.15037932 -0.13453938 0.109551884 0.032008383
-0.06003556 0.076340124 -0.11272216 -0.0051665264 -0.065327846 -0.046159323 -0.16869046 -0.1651703
-0.053640846 -0.05271964 -0.12212723 0.112729356 0.06217489 -0.141242 -0.011389012 -0.12395404
-0.03812575 0.12475888 0.16093491 -0.12213769 -0.04928033 0.052467052 0.017290775 -0.043762892
-0.08638915 0.028029218 0.045660034 -0.113693275 -0.033197287 0.00465473 0.0011707182 -0.10197117
0.1324846 -0.053726453 -0.20707302 0.025221756 -0.10414307 0.0029130601 -0.13644321 -0.14365654
-0.04501819 -0.10171708 -0.08298409 0.10184463 -0.021188093 -0.031474248 0.08090022 -0.000595434
0.056687918 0.023725213 0.0230749 -0.087103225 -0.025006197 0.0050849887 0.020736447 0.038753778
0.058437802 -0.068369865 0.029467702 -0.18083842 -0.005931556 -0.072338425 0.15048787 0.01293565
-0.03876909 -0.1683907 -0.050036293 0.055584475 -0.001636216 0.062237233 -0.070397414 0.06187458
0.06832885 -0.12672952 -0.10657108 -0.06644253 -0.0064911405 -0.11288339 -0.018706681 -0.0068623014
0.13623628 -0.049555603 -0.015475558 -0.008948323 0.048761927 0.09482129 -0.010300838 0.0874653
-0.063149214 0.027196907 -0.09263866 -0.11895706 -0.009977014 -0.037516277 -0.140968 -0.05490148
0.0074098036 -0.14308713 -0.121396005 -0.14365296 0.03631076 0.08539067 -0.073625416 0.020408701
0.093442805 -0.123546995 -0.051483907 -0.12525241 -0.060303003 -0.12289016 0.048026286 0.06600077
0.09280406 -0.06752339 0.01297565 -0.184362 -0.11406873 -0.05607242 -0.014187411 0.09410653
-0.020742528 0.020311214 -0.13997778 -0.14327954 -0.07333795 0.08052671 0.012868131 -0.010043316
0.14139391 -0.062869474 -0.07140869 0.10224726 -0.0976791 0.26500648 0.06815486 0.075540185
0.09868574 -0.22306441 0.0760422 0.016648842 -0.023692125 -0.11110042 -0.059534546 0.18325758
0.19460674 -0.09054996 -0.020241264 -0.14890562 -0.14614329 -0.10958657 0.09973089 0.021322226
0.033740733 -0.042687707 0.041787405 -0.09730119 0.06502062 -0.3359308 0.0073543238 0.10838509

sequential/conv2d_2/Conv2D f4 [128, 3, 3, 64]
00000000: b7f9 0f3e bb75 1fbd 97dd 433d 2d29 24bd
00000010: 7a3e 413d 6981 63bd 20b2 cdbd 60af 0fbd
00000020: 813d 833d 3c7f efbc 066d e23d 53b0 bf3d
00000030: e754 773d 268d 1dbc 44bb d1bc 7d5d 7cbd
00000040: 6737 853d 088f 02bd 5014 47be 7fa0 843c
00000050: 4459 033c 144a 41be 5878 1bbe a1cf 0fbe
00000060: 3a9c 45bb e809 873c 57d5 62bd 8746 77bd
00000070: 427a 63bc b1f0 803c a391 683d 1765 eabc
00000080: 3d2f 273e ac00 273d 3b13 453e a41e 32bd
00000090: 28b1 a0ba 38c2 3fbe 8a83 27be 57a9 f6bc
000000a0: 13e8 1abd 5360 18bd 4802 8e3c 3af0 043e
000000b0: 70ab d43c 552e 5cbd eccb 953c 2c71 9f3d
000000c0: bb91 d7bd 3d1b adbc 701c 19be 4cbb fd3c
000000d0: 3f10 78bd 9557 92bd 4316 4fbc 7417 4c3d
000000e0: b4b2 523d 9472 05bc 09ca 0d3d e811 b3bb
000000f0: 1970 a93d 9b40 84bd 1c34 873c c744 c0bd
00000100: 2171 9f3c 8475 d1bc cc0f aa3d 3d5a c9bb
00000110: ff88 2abd c512 8cbd 4603 17bd 15c8 c83c
00000120: 5e9e 3a37 bdfc 853c a61d 583c 69e4 57be
00000130: 0567 2dbd d75e 4fbc ad7c 583c 0269 923d
00000140: 7c09 863d 743a 283e 33f0 53be 8070 5ebc
00000150: 26cf b33d 5332 cfbc b2d2 bf3d 858f 203d
00000160: 0ab5 05be 4b95 0fbe 4c72 433d 8da6 82bd
00000170: cd6e 8bbd e516 a1bd 4fe5 323c 49a7 e6bc
00000180: 4c00 bd3e 94aa 8fbd 7da3 1abe 688b 31be
00000190: 05a8 5abd 82f1 923d eeda 45bd 6014 a1bd
000001a0: c4d6 69be 37d6 e23d 1f26 623d af54 013e
000001b0: 202e a0bc 7061 163e af41 bd3d c614 3e3b
000001c0: 4b17 803d b616 0b3c 8087 45bd 5fb9 363d
000001d0: 2473 d43d ad07 10bd 3506 75bc dfcd b03d
000001e0: 7efd c7bc 2912 d9bd e588 253d 56c8 953d
000001f0: 98e3 e1bc 3797 223d 6229 653c 1356 b83d
00000200: 71fd 5a3e 1cba a63c a312 32bd 7367 e83d
00000210: 2c21 a4bd 2717 58be 8466 b1bc c099 4a3d
00000220: f061 0e3d 27df babc 3c0c fb3d 0178 c9bd
00000230: 187c 493d d1a6 033e 0356 ae3d 8aa4 023d
00000240: 300d 153c 73a9 48bd 61ee b43c a6b7 75bd
00000250: 4b1b c53c 097b 81bd a0bb 93bc 056f 10bc
00000260: 5de2 2cbd 5c96 13bd e380 ea3d 16f2 ce3b
00000270: 46bd e93d c825 babc 5816 00bd 3be2 a93d
00000280: 2f53 0b3e 199c 3cbd da29 f7bd 6741 a93c
00000290: c11d 9a3d 3730 22bd 96d7 cdbd 710e cf3c
000002a0: f05c d0bd a1f5 ca3d 09a2 543d de13 403e
000002b0: 925e 13bd 24de 41be 2a3f 263c 957f fd3d
000002c0: f259 133e e34b 24bd dfe6 7f3d 4ab9 723d
000002d0: c4c5 c6bc 875c 203b b21f 013d 3976 93bd
000002e0: a5dd bdbd 4131 843c cb40 143e 945f 4dbc
000002f0: bdb0 45bd 2c5c 5bbd a071 5a3d 723e d6bc
00000300: c8db 81bd 86dc 41bd e014 cb3b 7b91 193c
00000310: 4e5e fd3c c19b 383d 4ee0 48be a958 6dbd
00000320: c188 ab3d 7981 073b 1e27 94bb a215 b9bc
00000330: 59ab e63b 131b a63b 9fb5 7fbd af12 063d
00000340: 34c9 103d 76b8 64bb 3802 cebd c569 1ebd
00000350: 3090 af3d 64ac 2fbd de33 533b 132b b83d
00000360: deac 8c3d 535b 973d 19d6 5dbd f9f3 b3bc
00000370: 7af3 9a3d 64ce a6bd 3cb5 7ebd cb19 5bbd
00000380: 047e 4dbd 3ac5 9c3d 655e 8c3d e1bf 173d
00000390: 6066 2c3d 0477 96bd 1ed9 02be 482d 43bd
000003a0: 44a2 f2bd f8ce b4bd c595 5cbc de5e a4bc
000003b0: 8986 143e f801 5fbd a02a 7bbd d105 443d
000003c0: 41c6 fbbd fbd8 713a b4dd a7bd 8ff1 3abb
000003d0: 8387 84bb 4f96 e23c 6104 143d 70e2 ed3d
000003e0: 343f 153d ab7c 3dbe 6716 c5bc 7cb2 aa3d
000003f0: 45c0 a63d 7393 68bd 4416 92bd 67ce bdbc
0.14060102 -0.038930636 0.047818746 -0.04007833 0.047178723 -0.055543337 -0.1004374 -0.03507936
0.06408215 -0.029235475 0.11055951 0.09359803 0.060383704 -0.009616172 -0.02560199 -0.061612595
0.06504708 -0.031874686 -0.19441342 0.016189812 0.008016888 -0.18875915 -0.15182626 -0.14044048
-0.0030152933 0.016484216 -0.055379238 -0.060369994 -0.013884129 0.01573977 0.056779515 -0.028612657
0.16326614 0.040772125 0.19245617 -0.043486252 -0.0012259828 -0.18726432 -0.16358772 -0.030110044
-0.03781898 -0.037201237 0.017335072 0.12982264 0.025960654 -0.053755123 0.018285714 0.07785258
-0.10525843 -0.021131152 -0.14952254 0.0309731 -0.06056237 -0.07145611 -0.012639585 0.049827054
0.051439956 -0.008144993 0.034616504 -0.005464781 0.08273334 -0.06457635 0.01650434 -0.09388118
0.019463124 -0.025568731 0.08303794 -0.0061447904 -0.041634556 -0.068395175 -0.036868356 0.024509469
1.1123337e-05 0.016355867 0.0131906625 -0.21083225 -0.042334575 -0.012656889 0.013213319 0.07148935
0.06544778 0.16428548 -0.20697097 -0.013576627 0.08779745 -0.025292551 0.09366359 0.03919937
-0.13057342 -0.14021794 0.047716424 -0.06379423 -0.06808243 -0.07865695 0.010918929 -0.02815594
0.3691429 -0.07014957 -0.15101428 -0.17338336 -0.053382892 0.0717497 -0.04830449 -0.07865214
-0.22835833 0.110760145 0.055212136 0.1262996 -0.019553244 0.14685607 0.09241044 0.002900408
0.06254443 0.008489301 -0.048224926 0.044610377 0.10373524 -0.03516357 -0.014955093 0.08633017
-0.024412867 -0.10599167 0.040413756 0.07313602 -0.027574345 0.03969499 0.013986917 0.09000792
0.21385743 0.020352416 -0.043474805 0.113478564 -0.080141395 -0.21102582 -0.021655329 0.049463034
0.03476137 -0.022811485 0.12258193 -0.09837342 0.04919061 0.12856604 0.08512499 0.031895198
0.009097382 -0.048989724 0.022086324 -0.059989594 0.024060866 -0.06322295 -0.018033803 -0.008815532
-0.042208064 -0.036032066 0.114503644 0.00631548 0.11413054 -0.022723094 -0.03127131 0.08295103
0.13605951 -0.046047304 -0.120685294 0.02066107 0.07525206 -0.039596763 -0.100508854 0.02527544
-0.101739764 0.09910131 0.05191234 0.18757579 -0.03597886 -0.18932396 0.010146895 0.1237785
0.1438978 -0.040111434 0.062476035 0.059258737 -0.024264224 0.0024469213 0.031524368 -0.072002836
-0.09270791 0.016136767 0.14477842 -0.012534995 -0.048264254 -0.0535547 0.053331017 -0.026152823
-0.06340748 -0.04732945 0.006197557 0.009373064 0.030928757 0.045070414 -0.19616815 -0.05794588
0.08375693 0.0020676537 -0.0045212647 -0.022593323 0.007039469 0.0050691455 -0.062429067 0.03273266
0.035348132 -0.0034899986 -0.10059017 -0.03867509 0.085724235 -0.042889014 0.003222696 0.08992591
0.06868909 0.073904656 -0.054159258 -0.021966921 0.07565971 -0.08144835 -0.062184557 -0.053491395
-0.050169006 0.076548055 0.06853942 0.037048224 0.04208982 -0.07346919 -0.12778136 -0.047650605
-0.11847356 -0.08828539 -0.013463442 -0.020064767 0.14504446 -0.054445237 -0.061319947 0.04785711
-0.12293673 0.0009225753 -0.081965834 -0.0028525328 -0.0040444746 0.027659563 0.03613699 0.11615455
0.03643723 -0.18504588 -0.024058534 0.083348244 0.08142141 -0.056781244 -0.07133153 -0.02316971

sequential/lstm/Read_2/ReadVariableOp f4 [32]
00000000: 32b4 263e b47a 6e3b 3032 763b ea6b 01bb
00000010: 9017 a43d bf30 873d d50c 3b3d c26c 063d
00000020: 058b 773f b342 973f a5b0 903f 35e0 8a3f
00000030: 7ead 903f 19e9 833f ffae 993f be65 863f
00000040: 2b03 e43a 821c 4dbd 285a b13d 11b9 7dbd
00000050: 0a47 c83d adf8 fcbd a7b3 88bd cf4e 99bd
00000060: 5a12 cb3d 2658 013e dec2 343e a02c e83d
00000070: f180 d63d 16fe 9c3d 4a1e 093e 8036 2f3e
0.16279677 0.0036389055 0.0037566535 -0.001974816 0.08012307 0.066010945 0.045666534 0.032818563
0.966965 1.181723 1.1303908 1.0849673 1.1302946 1.0305511 1.200653 1.0499799
0.0017395964 -0.050076015 0.08659774 -0.06194407 0.097791746 -0.12352119 -0.06674891 -0.07485735
0.0991561 0.12631282 0.17652461 0.113366365 0.10473812 0.076656505 0.1339046 0.17110634

sequential/batch_normalization/FusedBatchNormV3 f4 [32]
00000000: d1de 1941 b1f1 fe40 23f6 1141 028d 893f
00000010: ac42 dd41 cafb 2641 9cb6 ce40 1a69 1f41
00000020: 5407 6041 3648 5b41 67a4 1040 dd6d 1e40
00000030: 5739 6f40 fc0e ad40 61ba a040 2610 1240
00000040: 1b02 5041 f584 6b40 00eb c240 3bea 2e41
00000050: 962e b240 aebe 2c41 abf6 843f 4b71 df40
00000060: 16e1 7041 fc2e 1c40 df5d 6f40 8601 e840
00000070: 24b6 1941 e64a f940 0ae0 2140 1d62 0941
9.616899 7.9670033 9.122592 1.0746157 27.657555 10.436472 6.459791 9.96316
14.001789 13.70513 2.2600343 2.4754555 3.7378747 5.408079 5.0227513 2.2822356
13.000514 3.67999 6.0911865 10.932185 5.5681868 10.796553 1.0387777 6.9825797
15.054953 2.4403677 3.7401044 7.250186 9.606968 7.790393 2.5292993 8.586453

sequential/batch_normalization/FusedBatchNormV31 f4 [32]
00000000: 35fb 25be 9c26 4bbe 9133 4fbe f06c 97be
00000010: cbcc e6be eab7 94be 6648 b7bf 0f95 5cbf
00000020: e072 a7bd ca85 94bd 36ab b7bd d126 d1bd
00000030: b8b7 0dbe 552e 2bbe ebb0 84be d00f eebe
00000040: ca62 09bf 8be0 43be 502c 8ebe 9f38 02bf
00000050: 4f13 a9bd cc99 45be fd4a fdbd 56c0 72be
00000060: 5412 a9bd 37d0 acbe 1024 30be 6aa9 86be
00000070: 5e7c 85bc d47f e3be cedc 8fbe 5c9c 3dbe
-0.16209109 -0.19838947 -0.20234515 -0.295753 -0.4507812 -0.29046565 -1.4318969 -0.86164945
-0.081762075 -0.07252081 -0.08968203 -0.10212482 -0.13839614 -0.16716893 -0.25916228 -0.4649644
-0.53666365 -0.19128625 -0.27768183 -0.50867647 -0.08255636 -0.1929695 -0.123678185 -0.23706183
-0.08255449 -0.33752605 -0.17201257 -0.26301128 -0.016294654 -0.44433463 -0.28098148 -0.18516678

sequential/batch_normalization_1/FusedBatchNormV3 f4 [64]
00000000: de31 9c3e 9a74 2c3e c073 433f 4890 383e
00000010: c19f 543f bcd6 d33e 0f73 893f 79e7 833e
00000020: e289 663e 2571 543d c2fe fb3e 0116 123f
00000030: b7e5 843f 0b96 4e3e 2a52 323e 7791 193f
00000040: 4a87 833e de52 0e3f 464b b13f a21a 1c3e
00000050: 8b57 383f 7406 d53e 4201 ab3e e5ce 9c3f
00000060: 4269 463f 9f66 793f 5641 a23e 2044 3b3e
00000070: 8b14 9b3e af5d 713d 8e0b 743f a1ac 3a3f
00000080: 4922 d53e e2e2 1b3f 8bcd 153f 5643 2d3f
00000090: 2376 633f 0f4c 433f f293 6a3f 4cfe b93e
000000a0: 924e 573f 8ff2 993f 0361 093e fc16 353e
000000b0: 05bf 5c3f 5f10 9e3e d20d 7c3e d0e3 203e
000000c0: e24c a43f 6dab 983e 3681 293e 9841 683f
000000d0: 4819 103e 5c9c 6b3f 314b 393e 157c e03e
000000e0: a140 123f e49c 583e afd6 883e 745f fd3e
000000f0: 5aa6 763e 6015 9c3e 5340 9d3e d44b 5e3f
0.30506796 0.16841355 0.76348495 0.18023789 0.83056265 0.41374767 1.0738238 0.25762537
0.22513536 0.051865716 0.49217802 0.57064825 1.0382603 0.20174424 0.17414156 0.59987587
0.25689155 0.55595195 1.3851097 0.15244535 0.7200858 0.41606486 0.33399397 1.2250639
0.7750436 0.9742221 0.31690472 0.18287706 0.3028911 0.058927234 0.9533013 0.7291966
0.4162772 0.6089307 0.5851676 0.6768087 0.8885214 0.7628793 0.91631997 0.36326826
0.84104264 1.2027148 0.13415913 0.17684549 0.8622897 0.30871865 0.24614647 0.15711904
1.2835963 0.29818287 0.16553196 0.9072509 0.14072144 0.9203546 0.1809509 0.43844667
0.57129866 0.21153599 0.2672629 0.49486887 0.24086896 0.30485058 0.30713138 0.86834455

sequential/batch_normalization_1/FusedBatchNormV31 f4 [64]
00000000: 8a41 6bbe f0c5 bf3c 4891 17bf b092 283c
00000010: acd4 64be 2b8a a7be 377c 1fbf 0a3e 05be
00000020: 5964 4cbe b8b5 bfbd 2297 edbe f5a3 f1bd
00000030: 3408 78bf d00a 79bc 3136 1dbe 6fd4 25bf
00000040: 383e 9cbe 899d 21bf 041b b8be c8a2 e4bc
00000050: a6d1 13bf a67c 24be 5d90 9dbe 61a5 23bf
00000060: a457 bfbe 199d 55bf 36ec 56be f3a4 8dbe
00000070: 40ac 05bd c071 1c3d e696 0bbe b63a 51bf
00000080: 915b e4be 90eb 5a3d c473 f6be 3920 d7be
00000090: 2480 4abf 0b18 d9be dac1 22bf b8f5 babc
000000a0: ea5d 4abe 8dc9 e1be 200e 35be 0ae6 36be
000000b0: 055f 48bf 7080 afbe 80cf c6bb 0495 7b3d
000000c0: 7617 23bf fe34 91be f9d8 02be cff1 30bf
000000d0: bc19 1c3d cfa0 43be d676 83be 989d d6bd
000000e0: 3e2f 53be 6ae6 2ebe 6e9e 96be 38a7 cabe
000000f0: fabb 6bbe d701 77be 20c5 b4be 6006 28bf
-0.2297422 0.023409814 -0.59206057 0.010288879 -0.22346753 -0.327226 -0.6229891 -0.13011947
-0.19960155 -0.09360832 -0.46404368 -0.117988504 -0.96887517 -0.015200332 -0.15352704 -0.6477727
-0.3051622 -0.63131005 -0.3595811 -0.027909651 -0.57741773 -0.16063175 -0.30774203 -0.63924223
-0.37371552 -0.83442837 -0.20988545 -0.2766491 -0.032634974 0.038194418 -0.13631782 -0.8173021
-0.4460111 0.053447306 -0.48135197 -0.4201677 -0.7910178 -0.42401156 -0.63577044 -0.022822246
-0.19762388 -0.44099084 -0.1768117 -0.1786119 -0.7826999 -0.34277678 -0.0060672164 0.06142141
-0.63707674 -0.28360742 -0.12778081 -0.6911897 0.03811048 -0.19104312 -0.25676602 -0.10479277
-0.2062349 -0.17080083 -0.29417747 -0.39580703 -0.23020926 -0.24121796 -0.35306644 -0.6563473

sequential/batch_normalization_2/FusedBatchNormV3 f4 [128]
00000000: 1cae e83e c577 e53e 174a 113f 8d32 043f
00000010: 1faa 533f 3dbb 373f b52a 0e40 9396 5f3e
00000020: 8503 033f 15a4 703e 587d 743e 3742 403e
00000030: 56a5 9c3e 8657 3b3f a269 2b3f d777 653f
00000040: 75d6 e03f a82e 8e3d fb85 b13e 51f4 263e
00000050: 4b52 903e a421 433f c8e6 ee3e 272b 363f
00000060: 4c7a d13d d001 d73e 5a54 de3d 8c97 983e
00000070: de05 5c3f 3e1a 4e3e 692a 1d3f 12cd b43d
00000080: 31df 903e 29ce 2b40 8ae5 023e f786 6b3e
00000090: ade8 983e a63d ce3e fa60 1b3f 43de 4b3f
000000a0: 68f6 6f3f e9df 473f 1cbc 893e 0f44 1440
000000b0: d594 e53d 4e9b 8d3f 6304 ac3e 289b c93e
000000c0: 051c 4c3f 3f2a 263f 4a6b 153f fafd 2241
000000d0: 12f7 bd3e bc55 6741 dde6 ec3e fd3e 7f40
000000e0: 9fc0 f23e 40be 0b3f fb93 633f e1db 6e3e
000000f0: bcf3 d53d 6aad 833f 5b95 423e c4bb 853e
00000100: e3c1 bf3d 3b10 543f 308f 0b40 189c e23f
00000110: 5ec7 ce3f c5d0 103e 0195 883f daa3 e73e
00000120: 69e2 833e 1b4a 073e dc22 e03d 6b2c ca3f
00000130: ebde 723f 8a4e ad3f 7db8 243e ff2a 3a3e
00000140: 0169 663f 720c 933e ff38 773e 5189 553f
00000150: e9ac 0d3f 2067 3e3e 8a54 8c3f a9e5 7a3f
00000160: 6950 db3e 100f bf3e ab47 de3e d1bc a33e
00000170: 7295 4240 2c6d 3c3e 69e0 9e3d 674a 393e
00000180: 3083 c73d 650a e93f d9b4 de3f 3f7a 773e
00000190: ad2b f03e a251 653e fadd a33f a755 0a3f
000001a0: a393 9f3e 8d18 053e a67a bb3f 3f68 703f
000001b0: c4a1 9c3f d45b 713f 1860 b03f 1ffb e13e
000001c0: 4a78 283f 73ac 153f 4285 b93d 00d8 fd3d
000001d0: 2694 d33e 8d2b ac3d b76b 953f fc42 ef3d
000001e0: bb3b 553f 6b5b 373f 2558 873f a9dd ca3d
000001f0: 53d4 673f 30c5 1c3f b015 5c3e 8a10 863e
0.45445335 0.4481794 0.5675368 0.51639634 0.8268146 0.7177008 2.2213566 0.21834783
0.51177245 0.23500092 0.2387594 0.18775259 0.3059489 0.73180425 0.6695806 0.89635986
1.7565447 0.06942493 0.3467253 0.16304137 0.28187785 0.76223207 0.46660447 0.71159595
0.102284044 0.4199357 0.108559325 0.2980312 0.8594645 0.20127198 0.6139284 0.088281766
0.28295282 2.684458 0.12782875 0.23000704 0.29865018 0.4028141 0.6069485 0.7963602
0.9373536 0.78076035 0.2690133 2.316654 0.11210028 1.106302 0.33597097 0.39376187
0.79730254 0.6490821 0.58366835 10.187006 0.37102562 14.458431 0.46269885 3.9882195
0.47412583 0.54587173 0.88897675 0.23326065 0.10446879 1.0287297 0.19002287 0.26119816
0.09363153 0.82837266 2.1806145 1.7703886 1.6154592 0.1414214 1.0670472 0.45242196
0.25758675 0.13211863 0.10944149 1.5794805 0.94871396 1.3539593 0.16086002 0.18180464
0.90003973 0.28720433 0.24142836 0.83412653 0.55341965 0.18594027 1.0963299 0.98006684
0.42834786 0.3731618 0.43414053 0.31979993 3.0403714 0.18401021 0.077576466 0.18094788
0.09741819 1.8206297 1.739894 0.24167727 0.46908322 0.22394422 1.2802117 0.54036945
0.31167325 0.12997647 1.4646804 0.93909067 1.2236867 0.94280744 1.3779325 0.44136903
0.65808547 0.5846626 0.0905862 0.12394714 0.41323966 0.08406744 1.1673497 0.11682698
0.83294266 0.7162387 1.0573775 0.099055596 0.90558356 0.61238384 0.21492648 0.26184493

sequential/batch_normalization_2/FusedBatchNormV31 f4 [128]
00000000: 38e1 b0be cb75 4bbe c97f f0be 4aef 89be
00000010: 87c6 b9be 6e61 dbbe c84d a3be 8834 a8be
00000020: dd69 c1be 1b64 67be 1aae 52be e81a e7be
00000030: fe26 c8be e22e 98be e0a0 94be 9cc2 32be
00000040: 13ea 65be 3e49 bbbe b266 97be 5c45 bcbe
00000050: 4636 82be b6d2 efbd 7fd3 54be 1108 b0be
00000060: d0ae a7be 314d 26be 5348 b5be e039 0fbf
00000070: 8106 5bbd 5e08 a5be 5158 4dbe 5ada adbe
00000080: 924b bfbd 503c 0dbe 65a6 bbbe 89a5 26be
00000090: 1fc3 2bbf ea3e 10be 8311 32be baad 9fbe
000000a0: baca 6dbe e2c3 efbd 683c a0be ac70 70be
000000b0: 77c5 b0be 6c8f 7fbe 6c94 a8be b6af 98be
000000c0: 2bdf e4be 9f6f e4bd ef1f bdbe a2ec 33be
000000d0: 02be 9dbe da72 e1bc cf7b 40be 988a c9bd
000000e0: 4037 80bd e0ee 76be 1502 b7be 3524 07bf
000000f0: d373 c7be 643a a0be 7d48 9dbe 2de5 e2be
00000100: 6454 eebe 2ef3 36be ef1e fcbd c501 42be
00000110: def1 7ebe 45b7 31bf 92a8 58be 5c25 33be
00000120: e7fd 93be b10d cbbe 14b2 c8be f48b e6be
00000130: 6abf d2be 39e2 77bd d970 aabe 1147 b3be
00000140: 5df7 2ebe 1e09 b4be 9cf9 3dbe 9bc1 d2be
00000150: cd6c 8bbe 14c8 e4be 74b3 f1bd f4d4 90be
00000160: f897 5cbe 8e59 6abe 7e49 77be e023 2ebe
00000170: c837 d9bd 6e65 c8be 8bbc d4be dc4d 09bf
00000180: de30 ffbd fdd5 36be 1ebd 66bd b084 27be
00000190: 0821 9abe a0cc 44be e4ad afbe 61e1 f0be
000001a0: 108a 71be acc9 c9be 6d14 43be 9072 9bbe
000001b0: 7892 aebe f6af e5be 09c2 80be 92ad 06bf
000001c0: 2e8e a2be 5837 f8bd 4c31 b7be 89a4 8dbe
000001d0: edb3 3fbe 30b4 2abf 7656 40be 9061 b4be
000001e0: eb17 04be 98da 58bd d353 9bbe 6437 f7be
000001f0: 1bbd 26bf b97b b0be ff33 6abe 8ad3 c4be
-0.34546828 -0.19869153 -0.46972492 -0.26940376 -0.36284277 -0.4284777 -0.3189528 -0.32852578
-0.3777608 -0.22596781 -0.20574227 -0.45137715 -0.3909225 -0.2972327 -0.29028988 -0.1745705
-0.22452573 -0.36579317 -0.29570538 -0.36771667 -0.25432032 -0.11710112 -0.20783804 -0.34381154
-0.3275056 -0.16240384 -0.35406741 -0.55947685 -0.053473 -0.32232946 -0.20053221 -0.33955652
-0.09340586 -0.13792539 -0.36650386 -0.16274084 -0.67094606 -0.140865 -0.17389493 -0.3118723
-0.23221865 -0.117072836 -0.31296086 -0.23480481 -0.34525654 -0.24957055 -0.32925737 -0.29821557
-0.44701514 -0.111541025 -0.36938426 -0.17570737 -0.30809027 -0.027520586 -0.18797229 -0.09840888
-0.06260538 -0.24114561 -0.35743776 -0.5278962 -0.38955554 -0.3129455 -0.30719367 -0.44315472
-0.4654876 -0.17866203 -0.123105876 -0.18945988 -0.24896953 -0.6942027 -0.21158054 -0.1749472
-0.2890465 -0.39658883 -0.39198363 -0.4502865 -0.41161662 -0.060518477 -0.3328922 -0.35015157
-0.17086549 -0.35163206 -0.1855225 -0.41163334 -0.27231446 -0.44683897 -0.11801806 -0.2828747
-0.21542346 -0.22885725 -0.24149129 -0.17005873 -0.106063426 -0.39139885 -0.41550097 -0.5363443
-0.124604926 -0.17855068 -0.0563327 -0.1635921 -0.30103326 -0.19218683 -0.34312356 -0.4704695
-0.23587823 -0.39411676 -0.1905076 -0.30360842 -0.34096122 -0.4486081 -0.25148037 -0.526086
-0.317491 -0.12119931 -0.35779798 -0.27664593 -0.1872098 -0.66681194 -0.18782982 -0.35230684
-0.12899749 -0.052942842 -0.3033739 -0.48284447 -0.651323 -0.34469393 -0.22871397 -0.38442641

sequential/dense/MatMul f4 [1, 8]
00000000: 4f0a 32bf 762f b73f 10e8 bebf a9b0 aa3f
00000010: 36a8 b5bf 275c 603f 2499 c53f b841 ec3f
-0.6954698 1.4311359 -1.491457 1.3335162 -1.4191959 0.87640613 1.543736 1.8457556

sequential/lstm/Read_2/ReadVariableOp1 f4 [32]
00000000: 32b4 263e b47a 6e3b 3032 763b ea6b 01bb
00000010: 9017 a43d bf30 873d d50c 3b3d c26c 063d
00000020: 058b 773f b342 973f a5b0 903f 35e0 8a3f
00000030: 7ead 903f 19e9 833f ffae 993f be65 863f
00000040: 2b03 e43a 821c 4dbd 285a b13d 11b9 7dbd
00000050: 0a47 c83d adf8 fcbd a7b3 88bd cf4e 99bd
00000060: 5a12 cb3d 2658 013e dec2 343e a02c e83d
00000070: f180 d63d 16fe 9c3d 4a1e 093e 8036 2f3e
0.16279677 0.0036389055 0.0037566535 -0.001974816 0.08012307 0.066010945 0.045666534 0.032818563
0.966965 1.181723 1.1303908 1.0849673 1.1302946 1.0305511 1.200653 1.0499799
0.0017395964 -0.050076015 0.08659774 -0.06194407 0.097791746 -0.12352119 -0.06674891 -0.07485735
0.0991561 0.12631282 0.17652461 0.113366365 0.10473812 0.076656505 0.1339046 0.17110634

while/MatMul_11 f4 [32, 8]
00000000: a156 163e 24d2 433d ba35 473d 558a 5c3e
00000010: 412f 90be 81da 063e 3a34 dd3e da19 8d3e
00000020: b96d 773e ec6b 7c3e 1bcc f1bd dde4 bb3e
00000030: f9d9 72be 7117 503e cdf0 913e 884b de3e
00000040: daa0 2f3d 4902 14be f0ac c43d 80fa 0cbd
00000050: 5c92 b6bd ba24 13be 865c 56bd bade f1bb
00000060: 1c59 9f3e 9c43 d53d 68d2 afbe 6ff2 8e3e
00000070: 5d6b 36be 84ca 96be 0d4e b8bc 3d0e d73d
00000080: 8edc 70be d22f 9abd 763b 87bd f485 2e3e
00000090: ceeb 343e 7391 983d 097c 1f3e ad61 033c
000000a0: a8ba 3dbe 0664 e7be 2a1f eb3e 1d19 183c
000000b0: 0ef5 a33e 95b6 8dbe 579b dbbd b953 a1be
000000c0: f88f 2cbd 6735 0ebe 6ebf d23c 2296 ebbc
000000d0: cb9b 05bb d5fd 3cbe c180 b13d 4d5b fc3d
000000e0: b1a2 0e3e 87b4 76be 424e 41be f3dd e63e
000000f0: 5c31 9cbe 0d7c 03bd d561 aa3e 27cf 2cbd
00000100: 1855 3bbe 1bcc 8fba 7388 6abe 5829 043e
00000110: 66d0 93be 535b b33d be76 863e 2213 0c3e
00000120: 2403 183e 579b 9fbe 3b54 06be 5e93 4ebe
00000130: 54a4 2e3e b1d6 dfbd ebff 71be 3730 c33e
00000140: 3761 88be de20 babe 51ca 163d 1070 aebe
00000150: e9f9 dcbe aa0e 64bd a59b 34be d4d0 d7bd
00000160: d087 2cbe 93f2 343e 5ad0 303e ed69 0cbe
00000170: 188d 4d3c 6f1e 33bd c2c1 153e 691d c8bd
00000180: d10c c9be 0297 b63d 50ab 443e 0924 9a3e
00000190: 4b80 d93d cb83 58be cfd1 0abf 39be 4abe
000001a0: 7dbd 9abd 578c 393b 2c21 63bd 398b 63be
000001b0: c129 303e f386 73be b04e c1bd 5a4d 1cbe
000001c0: db44 2c3e e704 51be c3c6 4fbd f0d6 59bd
000001d0: 975c a43e 474f b3bc 4875 1c3c e066 8bbc
000001e0: e1f2 a0be 23dc 653e 2547 fcbd 8fea bebe
000001f0: dfe5 ecbd d171 72bd 6eff dc3d d6fc a83b
00000200: fb4a 733e 8d53 e8be fd9d 343f feb8 cebe
00000210: f537 003e 5772 0ebf 1717 dfbe 0927 97be
00000220: b8f5 d03d 48a4 993e b180 1ebe 6ac1 113e
00000230: 4e53 a1bd f733 823d e296 933e 4b36 a33e
00000240: 8af6 36bf 152a a7be 67b5 583e 64e9 59be
00000250: e631 9c3e 7577 13bf 1410 9dbe 26f0 bbbe
00000260: 6f4d 853e 7031 eb3e 9f5f 6e3b e9be ae3d
00000270: 4f3f acbd 3bde b43e 1ee9 963e 440b c93c
00000280: 9ef6 03be 089a 71be 322d 0e3f 7818 c4be
00000290: 5026 403e 4971 82be 6583 2bbf 62b0 0fbe
000002a0: 27a4 db3c e325 023f 7583 0fbf cbed 153f
000002b0: 7990 f9be 248e 5ebe ed53 223f 417a 523f
000002c0: 8026 2a3f 9c27 d83a f828 ecbd 8270 af3e
000002d0: caee 443e 46a2 323e aa9d 473d 6d11 a73e
000002e0: 29ae 9c3e e926 ef3e 0fc1 943a b00e fd3d
000002f0: 3732 393d 075d 9c3d 9fa2 c13e 8454 c73e
00000300: 3796 f23d 0bd4 543e 8ce8 6abe c48e 753c
00000310: a601 203d 9c65 f9bd e7b9 113e b0f5 c5bd
00000320: 5038 0abc 2f82 9bbe 0e29 493e dcda f0bd
00000330: 74f7 dfbc 2d4d 8abd 1cbe 92bd c2f2 f33c
00000340: 4813 e6bd ce75 c53d 307a 2a3d 3d34 91be
00000350: 255e 843d e8ea a7be 64c0 c5be 92b7 373d
00000360: 8464 923c a2e4 013e b015 983b 389f acbd
00000370: b5cd b0be 6ad6 14be ce92 52be 2ac0 b9bc
00000380: e6af c3bc b64e 34be 4b2a ef3e 40af 06be
00000390: 6f08 36bc 07ac 47bd 663d cebd a7b4 86bd
000003a0: be72 023e 7b97 293d dd51 6fbd 01e3 993d
000003b0: 0c13 86bd c36d 20bf 388e cb3d 1db9 debe
000003c0: 0519 c2bd e937 8bbd a6de 38be 4bb8 a7bd
000003d0: 2341 3d3e a5ac 0fbe 03a2 9b3d e603 0bbd
000003e0: 2400 58be a6f6 c5bc 9ce2 4a3e 94f2 853d
000003f0: 0bd7 9e3d c7e6 c6be 2db8 c1bd de4f 1bbe
0.14681484 0.047807828 0.048635222 0.21537144 -0.28161052 0.1316929 0.43203908 0.27558786
0.2416295 0.24650544 -0.11806508 0.36698046 -0.23715962 0.20321442 0.2850403 0.43417
0.04287801 -0.14453997 0.09603298 -0.034418583 -0.089146346 -0.14369479 -0.05233433 -0.0073812874
0.31122673 0.10413286 -0.34340215 0.27919337 -0.17814393 -0.29451382 -0.022498155 0.105007626
-0.23521635 -0.07528652 -0.06603138 0.17043287 0.17668077 0.07449617 0.1557466 0.008018893
-0.18528235 -0.451935 0.45922214 0.009283331 0.320229 -0.27678362 -0.10722988 -0.31509188
-0.042129487 -0.13887559 0.025726046 -0.028758112 -0.002038705 -0.18456204 0.08667136 0.12322102
0.1392925 -0.24092303 -0.18877509 0.4509121 -0.30506408 -0.032100726 0.33277765 -0.042189743
-0.1829418 -0.0010970862 -0.22903614 0.12906396 -0.28869933 0.08757653 0.26262468 0.13679174
0.14844948 -0.31173202 -0.13118069 -0.20173404 0.17054874 -0.10929621 -0.23632781 0.38122723
-0.2663667 -0.363532 0.036814038 -0.34069872 -0.43159416 -0.055678047 -0.17637499 -0.10537878
-0.16848683 0.1767066 0.1726698 -0.13712282 0.012545846 -0.043730196 0.14624694 -0.097712345
-0.3926759 0.08915521 0.19205976 0.30105618 0.10620173 -0.21144025 -0.5422639 -0.19799127
-0.07555673 0.0028312409 -0.055451557 -0.22221078 0.17203428 -0.23781948 -0.094388366 -0.15263882
0.16823141 -0.20412026 -0.050726663 -0.053183496 0.3210189 -0.021888388 0.009549446 -0.017016828
-0.31435302 0.22447257 -0.12318257 -0.3728833 -0.11567282 -0.059190575 0.10790907 0.0051570935
0.23759072 -0.45376244 0.7055357 -0.40375513 0.12521346 -0.5564322 -0.43572304 -0.2952197
0.10203117 0.3000815 -0.1547878 0.14233938 -0.07877217 0.06357568 0.28826052 0.3187736
-0.7146994 -0.32649294 0.2116295 -0.21280438 0.3050682 -0.5760415 -0.3067633 -0.36706656
0.2603564 0.45936155 0.0036372913 0.08532507 -0.08410513 0.35325798 0.2947473 0.024541505
-0.12887046 -0.23593915 0.5553771 -0.38299918 0.18764615 -0.25477055 -0.6699737 -0.14032128
0.026811672 0.5083906 -0.5605996 0.5856597 -0.48743036 -0.2173391 0.6340931 0.82217795
0.66464996 0.0016491297 -0.11531252 0.34265524 0.19231716 0.17444715 0.048734345 0.32630482
0.30601624 0.46709374 0.001134904 0.12356317 0.045213904 0.07634931 0.37819383 0.38931668
0.118450575 0.20784013 -0.22940272 0.014987651 0.039064072 -0.121775836 0.14231072 -0.09666002
-0.0084362775 -0.3037276 0.19644567 -0.11760494 -0.027339675 -0.06753001 -0.07165167 0.029778842
-0.11234146 0.0964161 0.041620433 -0.28360167 0.06463269 -0.32796407 -0.38623345 0.0448528
0.017870195 0.12684873 0.004641257 -0.08428806 -0.34531942 -0.14534917 -0.20563814 -0.022674639
-0.023887586 -0.17608151 0.46711954 -0.1315279 -0.011110409 -0.048748042 -0.100703046 -0.065774255
0.12739083 0.04140423 -0.05842768 0.07514001 -0.06546602 -0.62667483 0.099392354 -0.43500605
-0.09477428 -0.067977734 -0.18053684 -0.08189448 0.18481879 -0.14030702 0.07599261 -0.033939265
-0.21093804 -0.024165463 0.19813007 0.06540409 0.0775586 -0.38847944 -0.09458957 -0.15167186

while/MatMul f4 [32, 512]
00000000: b707 6b3d 2c7f ccbd 83b5 99bd abf7 9f3d
00000010: e9b4 0e3d d6b7 813c 20a1 403e ac0c 093c
00000020: 07ab 0d3d 7d32 163e 052d 803d 18dc 353e
00000030: 433e 113d 3ba1 163e 4345 3dbd 1bb3 073e
00000040: fa23 603d ff1a 2fbd 6ddf 493d bfc8 923c
00000050: 6474 b4bd b54a 1fba a8f3 c83d 8e73 a3bb
00000060: 9973 593d f327 aa3c a8d4 f43d b8e9 e73d
00000070: 2098 753d d70e cb3c 5fea 52bd ff2f 00bb
00000080: b918 163e c5b6 99bb f062 bd3d 1527 ce3c
00000090: 524f 5e3e 30d4 ee3d bb54 91bd 4134 963d
000000a0: 6e9d 783c d162 e23c 1c91 34bd 80a0 123d
000000b0: 3187 e93d fc6c 8d3d de99 95bd 85b3 cdbd
000000c0: d46d 41bd a115 88bd 99f3 263d 060b 0a3e
000000d0: 0ba2 64bd 1c47 03be abbc 87bc 3b87 ac3d
000000e0: c3d9 713d a1b5 8cbd b5b6 433e 62f0 00be
000000f0: 9b98 7c3d 43ea ac3d a0f6 833b 0c83 dd3c
00000100: d2e2 adbd bc67 3ebd 4fe7 4dbd 5ca9 99bc
00000110: 6dc8 e33c 1db1 3b3b f46c a13e 7f22 8bbd
00000120: b15e a1bc 5ed5 56bd edef 773d e2e2 87bd
00000130: 2628 f53d 88a1 123c 640c f6bc 166a fe3c
00000140: cc10 3f3e 6723 11be a9d5 e33d ac03 5eb7
00000150: 6b03 0cbc 5482 6b3d 69e1 01be 6467 4a3d
00000160: fb4e bb3d f546 9fbc dcf0 60bd 9a5f 9a3d
00000170: cb15 4f3b 9259 98bb 8120 253d d15d 10bd
00000180: 655c 4a3c 241e dabd a616 863d dd1f e43d
00000190: 7867 eb3d 5e7e 283e f407 8d3d 7c0e 623c
000001a0: 9ead 763d 2b1c 1fbd f32e 5c3c 8a83 ebbc
000001b0: 8a32 d0bd dbbf ba3d bf1f 263e 2815 e13d
000001c0: 043e 95bd b718 ce3c 6a12 f6bc 200b 873d
000001d0: 7e57 143e a115 e4bd e424 cabd 4872 7e3d
000001e0: 75b3 183b e818 203e 9292 cc3d 3284 bb3c
000001f0: c3c4 a53c 4c6b 393d d8f5 02bd 5bfd c9bc
00000200: 332e 6dbe d3ee d13c 9563 4e3b 5260 69bb
00000210: 618e 1abd 495b e73d de33 8c3d c88f 53be
00000220: 7c6b cfbd 10f3 253d 1e19 55be bb9d 9abd
00000230: fec7 bb3d 2243 d0bd d8ea 023e 91d6 aebd
00000240: 7bd1 26bd 1f1f 7bbe d057 f7bd 95aa 913c
00000250: 038d a83d e020 a9bd 8921 2ebe de1c 9e3d
00000260: 39f2 6fbe c680 ec3d 4577 ffbd ffa1 58bd
00000270: 0c77 8a3d 32c9 933c 815d 123e dc09 733d
00000280: 86fd 3c3d 649f bc3d 0b45 b9bd a835 fe3d
00000290: 7068 c5b9 5fa8 64be 0cf9 83bd 5d18 953d
000002a0: d822 04be 3789 3c3e b5e4 d2bd 688e 2ebb
000002b0: 5b50 ccbd 7797 673c 2547 d13c dfca 2a3c
000002c0: 729b f53b bced 3bbd eac7 9139 6004 653c
000002d0: ade7 6dbd 246e 23be 8966 ef3d a20a 4abe
000002e0: 7920 173c 0866 e7ba 2a0d fb3c 92a8 67bd
000002f0: 6ecb e93c 6304 443e bf1c cabd 2c69 d93b
00000300: 881c f4bd 12f7 c73d fc70 e23d 5033 c03d
00000310: d0f2 0f3e 99bb 65bc 8be8 8c3d 30c8 41bd
00000320: 2c8c 033e 55d1 dfbd 974c 86bc 0aba 2f3e
00000330: 3d48 9a3d 9583 d23c 880e 1dbd 87d2 86bd
00000340: de6e 093d 626e 4ebd 8d6c 103e 11af adbb
00000350: af2b b3bd 197c 0abc 917d ae3c 32ca 58bd
00000360: decf aabc c6b2 3abe c60e 1cbe 71f5 91bb
00000370: 0a3c bbbc a52c cfbd 9b9a 49bd 6be9 4ebd
00000380: 3882 6ebe 84ef 713d c274 afbd e9ff 0bbe
00000390: 1dc7 b23d 4e48 eabd 0796 383e 60bf ed3d
000003a0: 075f 0ebe 079e a43d 377d 083e 9266 8cba
000003b0: 0d26 f8bc e01c 053e 22a3 38bd bc55 263e
000003c0: 9347 fa3d c06a 293e e4bf 9abc c18c 293d
000003d0: c78e c6bd 1dbf c1bd 26f1 d63d 88ff b33d
000003e0: 7c56 223e 892d 2d3e 5b53 233e 8bba 49be
000003f0: 07eb b73d 7e8d 4fb9 efb7 f83d 56d4 b63d
0.057380404 -0.099851936 -0.07505324 0.07810911 0.034840498 0.01583473 0.18811464 0.008364838
0.034586933 0.14667697 0.06258587 0.1775974 0.035459768 0.14709942 -0.04620863 0.13251917
0.05472181 -0.042750355 0.04928534 0.017917989 -0.08811262 -0.0006076501 0.09812099 -0.0049881404
0.05308876 0.020771002 0.119546235 0.11323875 0.05995953 0.02478735 -0.051493045 -0.0019559858
0.14657868 -0.0046909773 0.092473865 0.02516512 0.21709946 0.11661565 -0.07096239 0.073341854
0.015174253 0.02763501 -0.0440837 0.035797596 0.11402739 0.06905553 -0.073047385 -0.10044006
-0.04722388 -0.066447504 0.040759657 0.13480768 -0.0558186 -0.12820095 -0.016569456 0.08424231
0.059045564 -0.068705805 0.19112666 -0.12591699 0.061668973 0.084431194 0.0040272027 0.027040027
-0.08490528 -0.046485648 -0.05026942 -0.018757515 0.027805531 0.0028639503 0.31528437 -0.06793689
-0.019698473 -0.052449577 0.060531545 -0.06635071 0.11970548 0.008949645 -0.030035205 0.031056445
0.18658751 -0.14173661 0.11124737 -1.3233086e-05 -0.008545737 0.057497337 -0.12683643 0.049415007
0.09145924 -0.019443015 -0.0549172 0.07537766 0.0031598683 -0.0046493495 0.0403142 -0.03524572
0.01235113 -0.1065028 0.065472886 0.1113889 0.114943445 0.16454455 0.068862826 0.013797399
0.060224168 -0.038845222 0.013438928 -0.028749246 -0.101658896 0.09118625 0.16223048 0.10990363
-0.07287219 0.02515827 -0.030038077 0.06593919 0.144865 -0.11136938 -0.098703176 0.062120706
0.0023300324 0.15634501 0.099888936 0.022890184 0.020235425 0.045268342 -0.031972736 -0.024656942
-0.23162155 0.025626576 0.003149246 -0.003561039 -0.03773344 0.11296708 0.068458304 -0.20660317
-0.10127923 0.040515006 -0.20810363 -0.07549616 0.09169005 -0.101690546 0.12784898 -0.08537019
-0.04072712 -0.2452359 -0.12077296 0.017781535 0.08230021 -0.082582235 -0.1700498 0.0772035
-0.23432244 0.11547999 -0.12473921 -0.052888867 0.06760988 0.018040273 0.14293481 0.059335575
0.046140216 0.09210089 -0.09046372 0.12412578 -0.0003765258 -0.22329853 -0.06443986 0.072800376
-0.12903917 0.18411718 -0.10297529 -0.0026635174 -0.09976264 0.014135233 0.02554662 0.010424345
0.007495337 -0.045881018 0.00027805503 0.013978094 -0.05808227 -0.15959984 0.11689479 -0.19730619
0.009224051 -0.0017654309 0.030645926 -0.056557246 0.028539386 0.19142298 -0.09868764 0.006634852
-0.119195044 0.09763922 0.11056706 0.09384787 0.1405747 -0.014021778 0.068802916 -0.047310054
0.1284644 -0.10928599 -0.016393943 0.17160812 0.075333096 0.025697509 -0.038343936 -0.06583124
0.033552997 -0.050398238 0.14103909 -0.0053004106 -0.08748566 -0.008452439 0.02130011 -0.052927203
-0.020851072 -0.18232259 -0.1524001 -0.0044543077 -0.022855777 -0.10115937 -0.04921971 -0.050515573
-0.23291862 0.05906631 -0.08567192 -0.1367184 0.08729384 -0.11439572 0.18025981 0.116087675
-0.13903438 0.08037954 0.13329016 -0.0010711721 -0.030291582 0.12999296 -0.04507745 0.16243643
0.12220683 0.16544628 -0.018890329 0.041394 -0.09695201 -0.0946028 0.10495214 0.08788973
0.15853304 0.16911902 0.15949766 -0.19700067 0.08980375 -0.00019793768 0.121444575 0.089272186
