models/model.tflite (tflite, 531944 bytes, 7 tensors)

sequential/conv2d/BiasAdd/ReadVariableOp f4 [32]
000000 56 70 32 3e df 61 a9 3e 20 ee f6 3d 38 86 e4 3d
       0.17425665 0.33082482 0.120571375 0.11158413
000010 12 91 49 3e 5e 2a dc 3d 01 35 b2 be 34 40 f9 bb
       0.19684246 0.107502684 -0.34806064 -0.0076065306
000020 54 69 d4 3e 0c db c2 3e f8 0e 9f 3d 68 1a dd 3d
       0.4148661 0.38057745 0.07766527 0.10796052
000030 c5 8b f3 be 4a 72 80 3e 0c 64 8b 3c f4 08 dd 3d
       -0.47567573 0.25087196 0.01701548 0.10792723
000040 ff 37 df 3e bd 50 f9 3e 37 53 01 3e a9 0b 7f 3e
       0.4359741 0.4869441 0.126294 0.24906792
000050 00 ec 60 3d bb a7 cf be cf e0 cf 3d 7c 4c 55 3e
       0.054912567 -0.40557656 0.10150301 0.20829958
000060 4c e0 0d 3f 89 28 9b 3e 86 43 02 3f 2b 69 8e 3e
       0.55420375 0.30304363 0.5088428 0.27814612
000070 44 fb bd 3e 94 79 63 be 4e 83 13 3d 37 88 be 3d
       0.37105763 -0.22214347 0.036013894 0.09303325

sequential/conv2d/Conv2D f4 [32, 5, 5, 1]
000000 49 b8 8d bc 92 cc 78 3d 87 68 0a 3e dc af 7e 3d
       -0.017299788 0.06074197 0.13516437 0.06217943
000010 0b a6 30 3e 2e b1 43 39 51 de 05 be ee 54 8a bd
       0.1725084 0.00018662654 -0.13073088 -0.0675448
000020 3a 75 47 3d c6 0f 02 3e f7 62 1c be cb 5a 9d be
       0.04869578 0.1270133 -0.15272127 -0.30733332
000030 f5 3d 00 bd aa 6f d7 3c ee 7f 71 3e c3 ab 68 be
       -0.031309087 0.026298363 0.23583958 -0.22721772
000040 32 c3 2b be 41 5e 01 be 1f 60 a2 be e0 e5 2f 3e
       -0.1677368 -0.12633611 -0.3171396 0.17177534
000050 86 b2 f3 3d 18 76 f4 bd cd 2b 2c be 92 e6 73 be
       0.11899285 -0.11936587 -0.16813584 -0.23818424
000060 41 e7 eb 3e 9c 43 89 be a4 4f 68 3e 75 eb b7 bd
       0.4607487 -0.26809394 0.2268663 -0.08980457
000070 fb 6a 88 be 3d 04 ca 3d 42 f2 61 3e cb 61 d9 bd
       -0.2664412 0.0986409 0.2206507 -0.10614356
000080 ae 0c 5b be 44 f6 72 3d 60 76 96 3d f4 a7 e4 bd
       -0.21391556 0.05931689 0.07346797 -0.11164847
000090 13 05 80 3d 5d 45 7f 3d 1b b4 97 3d 7c ac df 3c
       0.06250968 0.06232201 0.07407399 0.027303927
0000a0 cf 1d 7b 3e cc 6c f2 bd 92 c9 56 3d 84 b1 b9 bd
       0.2452309 -0.118371576 0.052438326 -0.090670615
0000b0 eb b5 54 3e a3 97 62 bd 75 44 dd be 45 55 60 be
       0.20772521 -0.055320393 -0.4321629 -0.21907528
0000c0 20 af e4 bd c7 9f 9c be 7f ac ab 3e 83 6e ad be
       -0.11166215 -0.3059065 0.33530042 -0.33873376
0000d0 94 57 96 be 8b af 7e bb d7 81 62 3e 1b b8 c6 be
       -0.29363692 -0.0038861956 0.22119842 -0.38812336
0000e0 63 e0 1c be 6b 3f c9 3c db 21 2a be 73 b7 72 bd
       -0.15319972 0.024566373 -0.16614477 -0.059256982
0000f0 96 0a 37 be 3e 85 03 be cf 2a 60 3e 1c 23 31 3d
       -0.17875132 -0.12843797 0.2189133 0.043246374
000100 c1 98 df bb 74 23 a0 3d 6a d3 6c bd 8e 3b 25 bd
       -0.0068236296 0.07819262 -0.057818808 -0.04034
000110 40 a0 66 3d c7 44 0f be 97 d6 80 be e1 b7 09 3d
       0.05630517 -0.1399108 -0.2516372 0.033622626
000120 04 c4 a3 bd 66 d9 c3 3d d5 79 c7 3c e6 a6 33 bd
       -0.079963714 0.0956295 0.024350086 -0.04386034
000130 db 58 7e be c9 4e 8f be 00 dc 4a 3c 4d 0a a9 3d
       -0.24838583 -0.27989796 0.012381554 0.08253918
000140 22 34 86 3d c8 80 8b 3d 7f 08 a9 3d 58 8c 39 3e
       0.06552912 0.068116724 0.082535736 0.18119943
000150 a1 e4 41 3d d5 fb ad 3d 10 61 7c 3e 4a d6 f4 bd
       0.04733718 0.08495299 0.24646401 -0.11954935
000160 41 f3 ce 3d 58 12 e5 3d 72 1b 4b bd 0f 85 fd be
       0.10104991 0.111851394 -0.04958672 -0.49515578
000170 11 b2 48 bf ff 76 33 be 7c 9b 3c 3e 80 78 5f be
       -0.7839671 -0.17525862 0.18418688 -0.21823311
000180 0e af 24 bf 5b 20 66 bf bc 6b ad bd 62 51 fc bc
       -0.6432961 -0.8989312 -0.08467814 -0.030800525
000190 da a7 7d 3e 8c e8 93 3e bf 08 28 3e 8f 16 52 3e
       0.24771062 0.28888357 0.16409586 0.20516418
0001a0 1c 63 f1 3b ab 89 fb 3c 3a 20 18 3d 2f 2e e8 3d
       0.007366551 0.030705294 0.03714011 0.11336934
0001b0 41 a1 f0 bd 0c 02 ea bc 34 26 77 3d 26 61 9c bc
       -0.11749507 -0.02856543 0.060339168 -0.019089293
0001c0 c5 7c 03 bd 71 78 e2 3d ca e0 38 3a ef 5a e9 bd
       -0.03210141 0.110581286 0.0007052539 -0.11394297
0001d0 4a 11 79 be 22 e8 1b be 8b 58 9d be 32 23 99 be
       -0.24323002 -0.1522527 -0.30731615 -0.29909664
0001e0 0c 09 db 3c eb 25 da be bd 24 cf be 3d 82 e4 bd
       0.026737712 -0.42607054 -0.40457717 -0.111576535
0001f0 dd 3a ec be 72 a5 42 bd dc 0d 21 3e 57 5f 2f 3e
       -0.4613866 -0.047521062 0.15727943 0.17126213
000200 18 d5 3a bd 7e 5a e2 3d 7c 34 a8 bd c9 25 8d bd
       -0.04561338 0.11052416 -0.082131356 -0.068919726
000210 f2 54 ee 3d 26 bf cf 3d 36 70 75 3d 00 a9 b2 be
       0.11637296 0.101438805 0.059921466 -0.34894562
000220 ed 58 9c be 14 32 c3 3c 28 5b 05 3e 0d 67 ac 3d
       -0.30536595 0.02382759 0.13023055 0.08418093
000230 8d f3 f5 be 23 b7 df be 84 50 81 be d4 3b 68 bc
       -0.48037377 -0.4369441 -0.2525674 -0.01417442
000240 dd 2c c5 3d ad f9 8d 3e e4 0b 72 be 3f be e0 be
       0.096276976 0.2772955 -0.23637348 -0.43895146
000250 7c 9b db be 4c ad d1 bc 66 16 36 3e 83 6f 04 3e
       -0.42892063 -0.02559533 0.17781982 0.12933163
000260 58 95 05 bc 96 64 36 be 0c df e1 bd a8 a6 f0 3d
       -0.008153282 -0.17811808 -0.11028871 0.11750537
000270 0b 38 ac 3d a1 7f 8b bd ac 85 25 be d2 e9 10 be
       0.08409127 -0.06811453 -0.16164273 -0.14151695
000280 a9 bf 50 3d 87 cb 86 3e c8 05 10 3e e6 ad 38 bd
       0.05096403 0.26327154 0.14064705 -0.045087717
000290 3d 01 0d 3e c1 11 e6 bd 7a bf f8 3d 6b 4a b3 3d
       0.13770004 -0.11233855 0.12145896 0.087544285
0002a0 37 08 8a bd ed dd 5a 3e 61 3a 10 be 14 ae 86 3d
       -0.06739848 0.2137372 -0.1408477 0.065761715
0002b0 73 ae 5d 3e 9b 84 b9 3d a7 60 4a be 9e f0 11 bd
       0.21648578 0.090584956 -0.19763432 -0.03562986
0002c0 3a fd 6b be c4 74 87 be c4 74 a1 3d 0d 3b 03 3d
       -0.23045817 -0.26456273 0.078835994 0.032038737
0002d0 13 a3 28 3e 81 66 4b bd 96 ae a8 bd 9f 99 19 3d
       0.16468458 -0.049658302 -0.082364246 0.03750002
0002e0 9b 7b 3d 3e 17 78 6a be 41 50 85 be e6 cf bc bd
       0.18504183 -0.22897373 -0.2603779 -0.09219341
0002f0 0c 97 b6 bc bd 9e 11 bd c1 78 8e be e3 fe 17 bf
       -0.022288822 -0.035551775 -0.27826503 -0.593733
000300 fa 90 6d bf ea 15 f6 be ae 57 b9 be 63 06 df 3d
       -0.9279934 -0.48063594 -0.36199707 0.1088989
000310 d0 0d 80 3e 70 03 ef 3d cc c1 35 be aa 80 8a 3d
       0.25010538 0.116705775 -0.17749709 0.06762822
000320 99 e7 2d be 02 87 da 3c 6e 4e 70 3d 9a 4f 51 be
       -0.16982879 0.026675705 0.058668546 -0.20440522
000330 57 39 05 be a9 8e 46 bd 3c 08 7e 3e 0a 76 9a bd
       -0.13010155 -0.048475895 0.24807829 -0.075420454
000340 fb fe d9 3d c9 53 97 bd a6 bd ed 3b 41 e1 10 3e
       0.10644337 -0.073890276 0.007255274 0.14148428
000350 ae 0a a4 bc e2 31 9a be d0 7c 6f be 7a cd 90 3e
       -0.020024624 -0.30116183 -0.23387456 0.28281766
000360 ad 34 3d 3e f0 05 28 3d 5e b0 f1 be 1c ba b5 be
       0.18477125 0.041021287 -0.4720487 -0.35493553
000370 37 ee c4 bc 78 85 d3 bc a9 32 cf 3d 6d f5 7c be
       -0.024039371 -0.025820479 0.101170845 -0.24702998
000380 80 c8 86 3d 96 72 36 3e fc 0c 87 be 36 ea 39 be
       0.06581211 0.17817149 -0.26377094 -0.1815575
000390 fc d9 c6 bb 8b c3 4d 3e e3 36 3b 3e ce 48 ad be
       -0.006068466 0.20094125 0.18282656 -0.33844608
0003a0 23 87 33 be 1c 91 87 3e 6a 17 1f 3c 92 f4 3c bc
       -0.1753202 0.26477897 0.009710172 -0.0115329195
0003b0 24 f5 88 be 3c e3 81 3c 24 82 2c 3e 10 b8 2b be
       -0.26749527 0.015855424 0.1684652 -0.16769433
0003c0 c0 8f eb bc 1c 04 11 be 98 d0 d0 3b d7 fc 08 3d
       -0.028755069 -0.14161724 0.0063725226 0.033444252
0003d0 3c 42 0b be d5 b4 2d bc 43 3b 24 3d ae 1f 44 3e
       -0.13599485 -0.010602196 0.04009558 0.1915271
0003e0 1a d3 45 3d 35 c5 e9 be 86 d3 8e 3d 77 4c 8a bc
       0.048297025 -0.4565827 0.06973939 -0.016882164
0003f0 76 9f 51 bd 58 2a 56 bd 0c 42 42 bf fe d7 22 3e
       -0.051177464 -0.052286476 -0.7588203 0.15902707

sequential/dense/BiasAdd/ReadVariableOp f4 [16]
000000 47 77 81 3e 10 1e 4c be 33 97 ec 3e 17 7c 77 be
       0.25286314 -0.19933343 0.46209106 -0.2416843
000010 9e e1 b8 3e a2 00 21 be eb d4 43 be 42 80 3f be
       0.36109632 -0.15722898 -0.1912419 -0.1870127
000020 a1 96 b9 3d 71 71 96 be c3 ec 71 be b7 24 88 be
       0.09061933 -0.29383424 -0.23625474 -0.2659051
000030 6d d1 18 be 47 7d 92 be 7e b8 2e 3e ca e9 22 be
       -0.1492364 -0.28611204 0.17062566 -0.15909496

sequential/batch_normalization/FusedBatchNormV3 f4 [32]
000000 1f 10 9d 3f 82 b7 7c 40 f2 20 7a 40 74 36 a4 40
       1.2270545 3.9487004 3.9082608 5.131647
000010 a0 72 50 3f ac 7b 84 40 3b 3e a1 3c ec 81 25 41
       0.81424904 4.1400967 0.019682994 10.344219
000020 e6 37 26 3f 4d d7 99 3f 8f c8 08 41 4b b9 6b 40
       0.64929044 1.201883 8.5489645 3.6831844
000030 43 c0 0e 3e 04 00 86 3f e7 53 27 41 78 9a 55 40
       0.1394053 1.0468755 10.457984 3.337553
000040 f9 d5 90 40 3f c6 98 3f fc be 55 41 7e 08 c2 3f
       4.5261197 1.19355 13.359127 1.5158842
000050 8e 99 87 40 20 77 1d 3e c7 54 9f 40 d7 3f 18 40
       4.2374945 0.15377474 4.979099 2.3788965
000060 71 c3 84 40 ee b6 e0 3f a8 d3 63 40 76 7d 48 3f
       4.1488576 1.7555826 3.5597935 0.7831644
000070 6e 7b 61 3f 33 f8 24 3d 41 44 36 41 d9 ef 00 41
       0.88078964 0.040275764 11.391664 8.058557

sequential/batch_normalization/FusedBatchNormV31 f4 [32]
000000 c9 33 64 be 55 8f a5 bf ee b9 cc be 08 ec d4 be
       -0.2228538 -1.2934366 -0.39985603 -0.41586328
000010 97 48 49 be f5 26 b5 be f3 f4 a4 bb 94 1f d6 3c
       -0.19656597 -0.35381284 -0.005034083 0.026138104
000020 b2 d2 90 be 16 ce f7 be 18 80 cc be 68 7b b0 be
       -0.28285748 -0.4839942 -0.39941478 -0.34469151
000030 38 18 f8 bc 34 b6 8b be 56 1f 13 be f3 74 9c be
       -0.030284986 -0.27287447 -0.14367422 -0.30557975
000040 80 49 d1 bf 22 39 1a bf 78 bc 19 bf 06 0e b5 be
       -1.6350555 -0.6024343 -0.60053205 -0.35362262
000050 f3 ef 3f be 00 d5 f9 bb 7e ca 02 bf 09 21 e6 be
       -0.18743877 -0.0076242685 -0.5109023 -0.4494708
000060 70 58 00 c0 77 9c 14 bf 55 77 c9 bf 35 54 63 be
       -2.0053978 -0.58051246 -1.5739542 -0.22200091
000070 d7 4a a8 be 24 d6 30 bc 60 0b bf be 28 60 c0 be
       -0.32869598 -0.010793243 -0.37313366 -0.3757336

sequential/dense/MatMul f4 [16, 8192]
000000 d3 cc a3 bc c3 45 84 3e 57 be 8b bd 72 57 f0 3e
       -0.019995129 0.25834474 -0.06823414 0.46941715
000010 67 f0 b5 3e d0 33 21 3e ce 18 54 3c da c5 98 3e
       0.35534975 0.15742421 0.012945367 0.2983845
000020 2d 13 a4 3d 7b 93 87 bd ce 5f 05 3f 83 30 1d 3f
       0.0801147 -0.066199265 0.5209931 0.6140215
000030 96 93 88 3d 47 d8 63 3e 93 5e af 3d d4 6e af bd
       0.06668775 0.22250472 0.085629605 -0.08566061
000040 45 3f 0b 3e 88 5d b0 bd de 01 88 3f 57 76 fd 3d
       0.13598354 -0.0861159 1.062557 0.12376087
000050 ed 2e 41 be ee ca e9 3d 08 51 e2 3d be e4 f3 3e
       -0.18865557 0.11415659 0.11050612 0.47635454
000060 e0 f8 4f 3e 47 27 18 3d 21 e4 04 3e a8 15 57 3e
       0.20309782 0.037146833 0.1297765 0.21004355
000070 8b d4 ff bd ea 31 67 3d 42 f3 a5 3e 1a 77 62 3e
       -0.12491711 0.056444086 0.32412153 0.22115746
000080 f1 92 cf 3e 00 48 7d bd 6f 0e f3 bd 25 10 76 3e
       0.40541795 -0.061836243 -0.11867987 0.24029596
000090 b3 4b 6e 3e 52 cb ed 3d af 9c d8 bc 7d 71 58 3b
       0.23271064 0.11611046 -0.0264419 0.0033026629
0000a0 b6 32 2a 3d 17 1e f0 bc e3 0c c2 bb de 21 88 3d
       0.041552268 -0.029311223 -0.0059219464 0.06647085
0000b0 92 da 26 3c f3 69 41 be ea 6f 61 3b 72 63 59 bd
       0.010183947 -0.18888073 0.0034398981 -0.053073354
0000c0 be cc b0 bd 40 91 a1 bc b1 7c f2 3e a2 b1 f6 bc
       -0.086328015 -0.01972258 0.47360757 -0.030113999
0000d0 ef f0 f9 bd d8 1c 24 3d 28 2b 96 bd d1 61 81 be
       -0.122041576 0.04006657 -0.0733245 -0.2526994
0000e0 c6 1c 90 bd 79 e7 e1 bd 69 04 dd 3e dd 09 d8 bd
       -0.07036738 -0.11030478 0.43167427 -0.10548756
0000f0 c5 09 5b bd ee 61 70 bd 8c 17 e8 3d c7 c6 6d 3f
       -0.053476114 -0.058687143 0.11332616 0.92881435
000100 5e 08 40 3c 33 d6 af 3d 2f 04 84 bc 56 d3 25 3e
       0.011720745 0.08585777 -0.016115276 0.161939
000110 d3 9d 93 bd 97 6d 60 be ae c9 9a 3c c3 79 0b be
       -0.07207837 -0.21916805 0.018894996 -0.13620667
000120 a9 0f c7 3c ed ef 2f 3e 41 b8 4a 3e 26 10 61 3d
       0.02429946 0.17181368 0.1979685 0.05494704
000130 d8 8b 7a 3d 7d 96 e6 bc 20 7c 7d 3e 2f 39 82 3d
       0.06116852 -0.02814793 0.24754381 0.06358563
000140 67 92 05 3d fd 6a f3 bc 41 86 09 be 46 1c 9a bc
       0.032610323 -0.029714102 -0.1343012 -0.01881231
000150 8b 18 89 3e 2c de 3e bd 0f ef 07 3e a2 8e 7e 3d
       0.26776537 -0.0465986 0.13274787 0.062147744
000160 ef c3 09 be 77 24 d5 bd 87 86 0a 3e ca 31 93 3d
       -0.13453649 -0.10407346 0.1352788 0.07187231
000170 43 e4 40 bd 0d ad 04 3e 5a 5f 70 3e 18 ac b3 3d
       -0.047092687 0.12956639 0.23473874 0.08773059
000180 74 60 4b bd e1 1e 33 3d 1e bd 0f be fc 56 af 3e
       -0.04965253 0.04373062 -0.14036986 0.3424605
000190 05 68 86 3e 06 39 92 3e a5 4f 2b 3e d0 e7 f1 3d
       0.26251236 0.2855913 0.167296 0.11811793
0001a0 16 ec 2a 3e bb 75 89 bd 64 97 28 3f 8d d4 de 3e
       0.16691622 -0.067119084 0.65856004 0.43521538
0001b0 1f 07 94 3d 2f 0d 1e be 8b ba d3 bd e3 1b 1b 3e
       0.07227921 -0.15434717 -0.103383146 0.15147357
0001c0 25 f6 91 be 49 14 af be d0 0d b6 3e d6 41 c5 bd
       -0.28508106 -0.34195164 0.35557413 -0.09631698
0001d0 7f 25 4b 3e 0c 74 8e 3d ec 58 d8 bc 72 e1 7d 3e
       0.19838522 0.06955728 -0.026409589 0.24793032
0001e0 a5 26 32 bd 98 99 ef 3d 28 2c 97 be 22 f3 6c bd
       -0.043493886 0.116992176 -0.29525876 -0.057849057
0001f0 6d 1d 24 bd 5b 72 2f 3e 47 a9 b3 3e 85 17 26 be
       -0.040067125 0.17133467 0.35090086 -0.1621991
000200 1e 9d 40 be 94 2f 0b 3e 64 75 ed bd 22 f0 2b 3e
       -0.18809935 0.13592368 -0.11594656 0.16790822
000210 19 71 37 3e f8 89 78 bc ec 79 ae 3d 88 f8 e1 bc
       0.17914237 -0.015169613 0.085193485 -0.02758433
000220 30 96 e9 3c 74 35 79 3e d2 3e 6e 3e 9b 7d d1 3e
       0.028513998 0.24336797 0.23266152 0.40916142
000230 db 5d 33 3d b6 92 29 be 0a 97 37 3e b2 7e f5 3d
       0.04379068 -0.16559872 0.1792871 0.11987056
000240 e1 df d6 3d d1 df 6a bd f6 b9 d4 3e 4b a0 e5 3d
       0.1049192 -0.057342354 0.41548127 0.11212214
000250 25 19 b7 3b 7a 43 d5 3c 32 4d ae 3e 55 8d 5c 3e
       0.0055877143 0.026033152 0.3404327 0.21538289
000260 45 62 ba 3e e9 0e 2d 3d 73 5c 05 be af c5 c5 3c
       0.364031 0.042250548 -0.13023548 0.024142114
000270 9a f5 28 be 33 63 6c bd b6 5a 23 bd e8 46 ac 3d
       -0.1649994 -0.05771179 -0.03988143 0.08411962
000280 2d fd cc 3e 48 e6 a1 3e 03 51 09 3d f5 74 e4 bd
       0.40036908 0.31621003 0.033524524 -0.1115512
000290 66 c7 8b 3c 82 2c 49 bd c9 07 9c bc f9 d3 5a bd
       0.017062854 -0.04911471 -0.019046681 -0.05342481
0002a0 bf a0 b8 bd 92 48 5a be 3b 50 20 3e 64 11 40 3e
       -0.09015035 -0.21316746 0.15655605 0.18756634
0002b0 ab 72 6f 3d a8 3d 15 3d 49 29 09 3d 0d 4b 05 be
       0.058458965 0.036435753 0.03348664 -0.13016911
0002c0 63 db e4 3d 90 51 92 3d 2d 70 30 3e db 72 c7 3d
       0.11174657 0.07144463 0.17230292 0.09738704
0002d0 34 b2 11 be 81 a0 81 3d d5 5a 3a be 99 f3 0a 3e
       -0.14228135 0.06329442 -0.18198712 0.13569488
0002e0 8e e3 3a 3e c0 3f 17 be 97 64 db 3e 0b b9 f8 3d
       0.18250868 -0.14770412 0.4285018 0.12144669
0002f0 6d c7 74 be b6 63 b2 3d 63 81 94 3d d3 8e 06 3e
       -0.239042 0.087104246 0.07251241 0.1314042
000300 ad a4 42 3e 87 a5 ec bd 28 d6 39 3e a9 97 63 be
       0.19008131 -0.11555009 0.181481 -0.22225823
000310 f0 e8 a6 bb 4d 01 af be 0b 4a 96 3d 76 0f 61 3a
       -0.0050936863 -0.3418068 0.07338341 0.00085853727
000320 79 2b 05 bd 67 dc cb 3c 32 c2 ba bd f1 ea 40 3d
       -0.032512162 0.02488537 -0.09119071 0.047099058
000330 db 67 b9 3d 18 97 51 be ac 97 ac 3e 9e bc a8 bc
       0.09053012 -0.20467794 0.33709466 -0.020597752
000340 64 b6 c3 3e db dc 01 be 92 a1 8e 3c 32 bc 21 be
       0.3822509 -0.12681906 0.017411027 -0.15794447
000350 1e 54 b3 bd 47 fd a7 3b ac 58 13 be 1a a7 e9 bc
       -0.087562785 0.0051266286 -0.14389294 -0.028522063
000360 ad e2 e1 3d 8a 6c 09 be be 74 8f 3e bf 57 b6 ba
       0.11029563 -0.1342031 0.28018755 -0.0013911648
000370 63 da 1c 3e 87 95 d9 3d 22 2a bd bd c9 81 eb 3e
       0.15317683 0.10624223 -0.09236552 0.45997456
000380 6a f4 1f 3e e7 cc 27 be f7 ff 25 3d 66 bf 43 3d
       0.1562058 -0.16386758 0.04052731 0.047789954
000390 e8 2e af bd e8 60 4b be 0d 28 06 3e 3e 52 5b 3e
       -0.085538685 -0.19861186 0.13101216 0.21418092
0003a0 05 ef 68 be 8b 86 f4 3e e6 d6 46 bc 52 4e 84 bd
       -0.22747429 0.47758898 -0.012136197 -0.06460251
0003b0 51 07 ed 3c 6d 8a 45 3e 85 49 2f 3c e6 0c 89 3e
       0.028934153 0.19291086 0.010698681 0.26767653
0003c0 1a 8a 73 3c de 55 3b be a6 2d 08 bc 5d 7a b5 bd
       0.014864469 -0.18294474 -0.008311665 -0.088612296
0003d0 f7 de d7 3d b7 11 f4 bb 7f 11 9e 3d 2c e5 7d be
       0.10540574 -0.007448401 0.07718181 -0.24794453
0003e0 fc 89 77 be 98 8c dd bd 99 a7 04 be 47 3e fc 3a
       -0.2417373 -0.10817832 -0.12954558 0.0019244634
0003f0 55 d2 7b 3d b2 18 7a 3e 53 18 d2 bd 4e 7d cc 3e
       0.061479885 0.24423483 -0.10258546 0.3993935

sequential/dense_1/MatMul f4 [1, 16]
000000 25 29 05 bf e9 1d 1f be 78 a7 f2 be 0c a5 9c 3e
       -0.52015907 -0.15538754 -0.47393394 0.3059467
000010 28 d0 a9 be e9 fa b8 3e 89 69 80 3e 5c 42 84 3c
       -0.33166623 0.3612893 0.25080517 0.016144924
000020 96 89 63 be 53 b2 46 3e 4d 95 15 3c 46 d0 7e 3e
       -0.22220454 0.19403963 0.009129834 0.24884138
000030 81 99 b5 3e f4 4d e2 3d 21 d3 c3 be 05 5a 51 3e
       0.35468677 0.11050025 -0.38247016 0.20444496
