models/model.tflite (tflite, 256596 bytes, 23 tensors)

sequential/conv2d/BiasAdd/ReadVariableOp f4 [32]
000000 7a 98 d3 be 90 68 91 3f b3 f6 7d 3f 9e 55 08 3f
       -0.41327268 1.1360035 0.9920456 0.5325564
000010 20 82 95 3f ef cc 58 3f a6 05 d8 be 72 52 18 3e
       1.1680336 0.84687704 -0.4219181 0.148752
000020 e3 65 c5 be 74 02 a3 3f 11 43 57 3f 32 04 c2 3e
       -0.38554296 1.2735124 0.8408671 0.37893826
000030 f4 83 94 3f f8 78 11 3f cb db 5f 3f d0 69 e6 3e
       1.1602769 0.5682521 0.8744475 0.45002604
000040 20 6c 2c 3f 92 79 31 3f d4 c4 4e bf 87 7e e6 3f
       0.67352486 0.69326127 -0.80769086 1.8007363
000050 38 d7 44 bf 0a 89 a0 3f fa e4 63 3f cf ca 6b bd
       -0.768909 1.2541821 0.89021266 -0.05756646
000060 9b a7 d4 3e 5e 38 5b 3f d8 5d e8 3e 10 ce 27 be
       0.41534123 0.85632885 0.45384097 -0.163872
000070 c8 11 90 be 23 25 84 3f 2a 83 a1 3f 05 93 7c be
       -0.28138566 1.0323833 1.2618153 -0.24665459

sequential/conv2d_1/BiasAdd/ReadVariableOp f4 [55]
000000 5e c5 0c be 7b 4e 2d be cc 59 38 be ab a6 19 be
       -0.13747165 -0.16924469 -0.18003005 -0.15004985
000010 50 c6 24 be e3 86 30 be 20 5e bd be 0f f3 d1 be
       -0.16091275 -0.17238955 -0.36985874 -0.41005751
000020 10 23 fd be 37 9a 8e bb 19 4a e3 3d c3 43 92 be
       -0.49440813 -0.00435188 0.110981174 -0.28567323
000030 60 2f ee be fe 85 a5 be ea 30 e8 bd 36 4a df bd
       -0.4652052 -0.3232879 -0.113374546 -0.109028265
000040 1d 9e 2f bf b1 07 a6 bd fa 62 a6 be f6 7e b5 be
       -0.68600637 -0.08106936 -0.32497388 -0.35448426
000050 6b 6f 0b be 37 d4 22 bf 98 a3 b4 be da ac b8 ba
       -0.13616721 -0.63605064 -0.35281062 -0.00140896
000060 f4 49 7c 3e da 1e 6d be 74 4e f2 bd 00 f3 6f 3d
       0.24637586 -0.231563 -0.1183137 0.058581352
000070 86 94 3e 3e c0 07 a5 be d3 9b 38 3c c1 4a bc 3d
       0.18611345 -0.32232475 0.01126762 0.09193946
000080 1f 9d c6 3e 8e 8f cf be 5d ce 76 be 98 20 c2 3e
       0.3879175 -0.4053921 -0.24102159 0.37915492
000090 7b 97 ae be 13 38 42 3f ea c7 68 be 97 15 70 bd
       -0.34099945 0.7586681 -0.22732511 -0.05861434
0000a0 3d 22 3a 3e 31 12 97 3c e8 f3 1f be 16 47 76 be
       0.18177123 0.018441292 -0.15620387 -0.24050555
0000b0 cf 2f 80 be 72 ec 05 bf f1 b9 42 be f7 d0 d3 be
       -0.25036475 -0.5231391 -0.19016244 -0.41370365
0000c0 86 b0 5b bc a3 2f 8b be 25 e1 1d 3f a0 8b 99 be
       -0.013408786 -0.2718478 0.6167167 -0.29989338
0000d0 ba c5 29 3e 15 03 5d be ba 46 d5 be
       0.16579333 -0.21583207 -0.41655523

sequential/conv2d_2/BiasAdd/ReadVariableOp f4 [60]
000000 62 89 0a bf 8e dc a0 bc f5 e5 99 3c ef 7b 88 3b
       -0.5411588 -0.019636419 0.01878641 0.0041651647
000010 df 3a a6 3e ba ee 9c bd e9 bd 3e bd 23 37 9a 3d
       0.3246679 -0.07662721 -0.04656783 0.07530048
000020 90 a6 92 bd db 5a ba bd 3e a1 2b 3d 95 13 1c be
       -0.071606755 -0.090993606 0.04190182 -0.15241845
000030 63 02 82 3d 45 87 bb bd 22 2d d2 3d 2f 12 74 bd
       0.063481115 -0.0915666 0.10262515 -0.059587654
000040 90 fa 38 ba d2 6e 9e 3e 93 43 1f be 71 9f 7d be
       -0.00070563797 0.30943924 -0.15553121 -0.24767853
000050 11 13 21 3e 4b 38 13 be 75 5a 35 be 84 43 ad bc
       0.1572993 -0.14376943 -0.17710288 -0.021150358
000060 b1 4d cc bc 29 7f 89 3d e5 f9 f7 bc 06 fa 7e 3d
       -0.02493939 0.06713707 -0.030270526 0.06225016
000070 80 1c 5d be 2f 0d b7 3b 2f 16 d3 3d 90 e1 47 3e
       -0.21592903 0.0055862884 0.103069656 0.19519639
000080 96 81 92 be 21 20 64 be e3 d0 65 3e 75 75 99 bd
       -0.2861449 -0.22277881 0.22442965 -0.07493106
000090 bd cb a9 3d 3d c2 85 be b0 3b 99 be 45 72 d4 bd
       0.08290813 -0.26124755 -0.2992835 -0.10373358
0000a0 ca 1a 16 be 1e 0b df 3d d8 d2 b5 be 32 a4 e0 bd
       -0.14658657 0.10890792 -0.35512424 -0.10968818
0000b0 ad d9 0e 3d 9c 2b d6 bd 4d 3e 76 3e b8 7f 6e be
       0.03487556 -0.104575366 0.24047203 -0.23290908
0000c0 39 42 c2 3e ae 21 26 3d ea f0 93 be 60 b3 9f 3e
       0.3794115 0.040559463 -0.2889474 0.3119154
0000d0 36 6c a9 3e 76 a9 04 be e2 46 5b bc 24 ea b0 3d
       0.3309037 -0.12955269 -0.013383599 0.08638409
0000e0 83 a9 67 be e6 65 1c 3e 4a 15 80 be c2 49 d6 bd
       -0.22623257 0.15273246 -0.25016242 -0.10463287

sequential/conv2d/Conv2D f4 [32, 5, 5, 1]
000000 f5 87 5b bd e8 94 1e bc 35 d1 9b bd 24 02 63 be
       -0.053596456 -0.009679057 -0.076082624 -0.22168785
000010 0c b3 86 be 3a 6a c5 3e 96 ec 86 3e d5 be 9e 3d
       -0.26308477 0.38557607 0.26352376 0.07751242
000020 77 92 1e be 01 b6 3f be a7 66 47 3e 9b 2c 2f 3e
       -0.1548556 -0.18721773 0.19472753 0.1710686
000030 44 0f 46 3e 6c 97 d9 bd 35 33 04 be 4f 29 f9 3e
       0.19341761 -0.106245846 -0.12910159 0.48664328
000040 57 51 1d 3f 3b cf 02 3e 46 08 03 be 91 0c 8b be
       0.6145224 0.12774365 -0.12796125 -0.27158025
000050 fd e3 b9 3e 95 57 d6 3e f0 c7 2a bc 9e 9b 2e be
       0.36306754 0.41863695 -0.010423645 -0.17051551
000060 2e 2e 47 be ba 05 30 bc e1 6c d1 bd e5 c1 8f bd
       -0.1945121 -0.010743553 -0.10225845 -0.07019404
000070 59 93 cf 3e 8b 02 80 3c b8 a1 0c 3f f5 a7 c2 3e
       0.40542105 0.015626213 0.54934263 0.38018766
000080 5b ef c5 3e c2 34 ff 3e 0f b3 bc bb 64 4a 77 3e
       0.38659176 0.4984494 -0.00575865 0.24149472
000090 f9 2a 4d be 9c 5e be bd ba 6e 1f be 71 e3 d6 be
       -0.20035924 -0.09295389 -0.15569583 -0.419704
0000a0 5e 5a 85 3b 75 04 a4 be 6d 81 56 be 74 99 6e be
       0.0040696105 -0.3203465 -0.2094781 -0.23300725
0000b0 02 20 81 be 62 06 7f bd 8e d1 3d be ed fa 5e 3c
       -0.25219733 -0.062261946 -0.1853697 0.01360963
0000c0 1b 0f 4b 3e 50 5f 3a 3e 7c 7d c1 3e e9 01 4b 3f
       0.19829981 0.18200421 0.3779105 0.7929979
0000d0 f4 cf 05 3e 84 8d 9c 3d 23 e8 ba bd 2a ee 95 3e
       0.13067609 0.076441795 -0.09126308 0.29283267
0000e0 42 5a 77 3f 81 1b 10 3f ae 5b e7 bd 74 98 8e be
       0.966221 0.5629197 -0.112967834 -0.27850688
0000f0 3f 61 6b 3c f1 f0 95 3d 4d b6 9a 3d dd 63 10 3e
       0.014366447 0.073213466 0.07554302 0.14100595
000100 47 28 65 be f9 74 8b b8 f2 f0 0b be 93 f2 8b 3d
       -0.22378646 -6.649824e-05 -0.13666132 0.06833377
000110 0a b7 9d 3d 7f db 2d bd 64 7c 23 be bb 64 02 be
       0.077009276 -0.042445656 -0.1596542 -0.12733738
000120 fc 71 c4 bd 5f 99 5b 3c cb 3b 98 bc 95 73 97 3e
       -0.09592053 0.013403266 -0.018583199 0.2958037
000130 cb 32 18 3f 99 bd 77 3e 31 c2 c0 3d 3e e7 7f be
       0.59452504 0.2419342 0.09412039 -0.24990556
000140 b5 19 20 3d ad 76 7b 3e 8d 8a c1 3d 6a 82 9c be
       0.039087016 0.2455699 0.094502546 -0.30568248
000150 56 12 a3 be 2c b7 9e be 35 d7 b7 be ca dd f7 bd
       -0.31849927 -0.30999124 -0.35906377 -0.1210285
000160 e6 61 0a be 86 28 58 be 3c 2c 1e be 61 c2 54 be
       -0.13513908 -0.21109208 -0.15446562 -0.20777275
000170 65 a1 b3 bc 98 4f be 3e 2b 1c 63 3e 01 a1 89 be
       -0.021927545 0.371701 0.22178714 -0.2688065
000180 0c 42 44 bd 8f 8c 67 3e 74 be 90 3e d3 a5 b1 3e
       -0.04791455 0.22612213 0.28270304 0.34696826
000190 19 dd cc 3e 1a 14 70 3d 42 ff 27 bd 65 40 58 be
       0.40012434 0.05861292 -0.041014917 -0.21118315
0001a0 47 52 43 be d5 ae 00 3f 0a b9 40 3e 14 88 d6 bd
       -0.19074355 0.5026677 0.18820587 -0.104751736
0001b0 eb d7 d6 be a6 d6 f7 be 31 11 97 3e 17 f7 85 3e
       -0.41961607 -0.4840595 0.29505304 0.26165077
0001c0 56 a6 35 be f9 26 be be 82 56 73 be 12 ea 05 3e
       -0.17739233 -0.3713911 -0.23763469 0.13077572
0001d0 97 ee 04 3e c6 e9 26 3e 94 a8 47 3d 6c 57 91 be
       0.1298164 0.16300115 0.048744753 -0.2838701
0001e0 05 33 62 bd f6 6b 12 3e 2d 12 bc 3e 3a b2 77 3e
       -0.055224437 0.14298996 0.36732617 0.24189082
0001f0 94 20 37 3b d2 ff b9 3d 55 44 6b 3e b6 59 cb 3e
       0.0027943002 0.09081997 0.22975285 0.39716882
000200 74 14 f3 3e 9b 67 d2 be 07 ba 8d bd 9a 98 ab 39
       0.47476542 -0.4109467 -0.069202475 0.0003272936
000210 7c d3 c0 3e 7e dc ed 3e df 5b 1f be e6 4e 29 be
       0.3766135 0.46457285 -0.1556239 -0.16534004
000220 12 3a a5 be 47 c0 e1 3d 9a 21 f9 3d c7 9d 15 3d
       -0.32270867 0.11023002 0.12164612 0.03652742
000230 0d 15 a9 be 5d 21 98 be 20 d0 f3 bd 6b 2a 69 3e
       -0.33023873 -0.29712954 -0.11904931 0.22770087
000240 7e 83 03 3e 18 1b 4c be 83 64 f6 be dc 4a 6c 3c
       0.12843129 -0.1993221 -0.4812356 0.014422145
000250 b0 ba 59 3d 70 ff 91 3e 41 c9 f5 3d 76 c5 1c 3f
       0.053156555 0.28515196 0.12001277 0.612388
000260 54 31 0b be a0 d0 7e 3e fa 2e 96 3e c5 12 68 3d
       -0.13593036 0.24884272 0.29332715 0.056658525
000270 5b d8 a2 bd 8f d0 1b 3f 7f b9 08 be cf 0b 0d 3e
       -0.07951423 0.6086511 -0.13352011 0.13774036
000280 1c a5 0e be ce eb 3f 3d 62 c2 b6 3d cf 5b 87 3d
       -0.13930172 0.04685574 0.08923794 0.06609308
000290 d5 67 2d bc f9 40 3b 3e 91 fa a1 3d 2d 14 91 3e
       -0.0105838375 0.18286504 0.0790912 0.28335705
0002a0 51 43 0b be 98 cf 20 3e d4 ba 83 3e f9 b5 e4 3d
       -0.13599898 0.1570419 0.25728476 0.11167521
0002b0 2f 41 90 3e bb ec 9a 3e b9 20 86 3d 1b 5f f6 3d
       0.2817473 0.30258736 0.0654921 0.12029859
0002c0 bb 80 85 3e 22 f5 ea 3d fb 19 94 3d de b1 49 bd
       0.26074776 0.114725366 0.07231518 -0.049241893
0002d0 a2 5e c9 3e 90 97 c0 3e b3 47 3d bc 72 b1 82 be
       0.39330012 0.37615633 -0.011552739 -0.25526005
0002e0 b1 ee 8c be f9 2b 51 3e 29 c0 7e 3b ae a5 13 be
       -0.27525857 0.2042693 0.003887186 -0.1441867
0002f0 70 28 96 be 10 66 aa be 74 22 ae 3c 5c 78 6e 3a
       -0.29327726 -0.33280993 0.021256663 0.00090969144
000300 34 ba 56 bd 28 87 9a be ee 63 b6 be 51 32 26 be
       -0.05242367 -0.3018124 -0.35623115 -0.16230132
000310 5e f0 66 3d 7d 07 8d bc fb c9 93 be 36 dc 97 be
       0.056381576 -0.017215485 -0.28865036 -0.29660195
000320 86 31 2c be f0 4d d7 3e 0a 58 e1 3e 17 b1 33 3e
       -0.16815767 0.4205165 0.4401248 0.17548023
000330 1f 90 6f 3e 11 58 10 3e a6 b4 b4 bd 33 e7 24 3f
       0.23394822 0.14096095 -0.088235185 0.6441528
000340 d8 59 0d be 86 45 09 3e be bf a3 3d 05 81 86 3e
       -0.13803804 0.13405427 0.07995556 0.2627031
000350 99 49 0e 3e b9 8d 51 3e 48 b6 32 3d 50 ab 20 3d
       0.13895263 0.20464219 0.04363087 0.039225876
000360 1a 5e 54 3e 1f f9 0e 3f 68 fd 7b be b7 04 0e bb
       0.20739022 0.5584888 -0.24608386 -0.002167029
000370 77 1a 6c be 0b 49 12 be 6e 5d 02 3e f4 fa 4d 3c
       -0.2305697 -0.14285676 0.12730953 0.012572039
000380 5e e9 05 be 48 88 3f 3a 9a d2 0a 3e 58 6a 50 3c
       -0.13077304 0.0007306379 0.135569 0.012720667
000390 f4 a2 11 3f 80 4e bd 3e b6 c5 3c 3d eb d8 0b 3e
       0.5688927 0.36973953 0.04608699 0.13656966
0003a0 65 ba 47 be 0d 0a 01 3d f0 69 97 be 0a 36 87 3e
       -0.19504698 0.031503726 -0.2957301 0.26408416
0003b0 3b 54 87 3e 6c c3 99 be 85 85 8c bd d4 87 ad bd
       0.2643145 -0.30031908 -0.06861404 -0.08473173
0003c0 93 c6 07 3f 23 dc 14 3e 00 2d 04 be 4a a3 20 be
       0.53037375 0.145371 -0.12907791 -0.1568729
0003d0 28 f0 8e bd f0 7a 33 3e 24 2a e5 3d ca 17 37 be
       -0.069794 0.17527366 0.11189678 -0.17880169
0003e0 ba dc 0d bf 8a 31 2d be e7 0e e3 3d 79 1b 10 3e
       -0.55414927 -0.16913429 0.11086827 0.1407298
0003f0 8d 2d 82 3d 2a ff a1 be ca 1f 07 bf 6a 44 40 bd
       0.06356344 -0.31639987 -0.5278288 -0.046940245

sequential/conv2d_1/Conv2D f4 [55, 3, 3, 32]
000000 33 42 99 3d 84 a1 92 3e 3b 33 c2 be a3 d4 6a bf
       0.074833296 0.28638852 -0.3792971 -0.9173071
000010 7d 6b 73 bc 8e ca 52 bf aa 31 32 bd d6 d6 03 3e
       -0.01485717 -0.82340324 -0.043504395 0.12874922
000020 f1 82 ee bc e8 09 65 be 99 4b 17 be 12 7e 0b bf
       -0.029115172 -0.2236706 -0.14774932 -0.54489243
000030 44 fc 0c be 6f 10 04 3e d7 cb f1 3e 84 cb 25 be
       -0.13768107 0.12896894 0.4722583 -0.16190916
000040 58 4b 6c be 81 89 f7 bd f4 9e 0c bf b2 3b 09 3f
       -0.23075616 -0.12086774 -0.54930043 0.5360671
000050 ee 6d 2b bf 76 7e e4 3d f5 b9 02 be 44 bd a0 be
       -0.66964614 0.11156933 -0.1276625 -0.31394398
000060 3d 50 2e be a0 4a 85 3e 28 a8 e9 bd 60 ae 00 bf
       -0.17022796 0.26033497 -0.114090264 -0.50266075
000070 74 75 5f 3d de 66 d5 3d f4 f6 c7 3e 48 18 2a be
       0.05455537 0.10420011 0.39055598 -0.16610825
000080 89 16 82 be 88 6c 43 be 97 63 04 be 39 ad 5a bd
       -0.25407818 -0.1908437 -0.12928616 -0.053387854
000090 39 0b af be 4f 67 a7 be 7f 7e f4 3c 93 29 2e 3d
       -0.3418825 -0.32696006 0.029845474 0.042520117
0000a0 e9 5e dd ba 8f ac f8 be bc c0 5d 3c 6e 08 0c bf
       -0.0016889247 -0.48569152 0.013534721 -0.5470036
0000b0 c5 7c 0d 3e 69 4c f0 3d 78 4c a4 3d 80 60 4e be
       0.13817127 0.11733324 0.08022398 -0.20154
0000c0 10 07 10 bf 65 d9 1b 3c 68 5d 4b be 45 e7 0f be
       -0.56260777 0.00951228 -0.1985985 -0.14053066
0000d0 d4 36 c4 bd 28 0d 2e bd 65 60 cd bc cb c9 58 3c
       -0.0958077 -0.042493016 -0.025070379 0.013231705
0000e0 1c 90 05 be ab 88 66 3d dc bb 9c be ee 3a b7 bd
       -0.13043255 0.05628268 -0.30612075 -0.08946787
0000f0 63 75 57 3d 0a 30 69 3d 15 54 81 be dc a8 9a 3d
       0.052602183 0.05693058 -0.25259462 0.075517386
000100 42 4e a7 3e b7 11 96 bd 57 14 ee bd 58 c9 fc be
       0.32676893 -0.073275976 -0.11624973 -0.49372363
000110 82 14 0a be 88 00 68 3d 7a b5 07 3d 95 f4 95 be
       -0.13484386 0.05664113 0.033132054 -0.29288164
000120 8c 65 b9 bd 1e af 4c bf d5 3d 02 3f 48 05 e8 3e
       -0.09052572 -0.7995471 0.508756 0.4531653
000130 42 c7 20 3e e8 50 be bd ba 05 f5 be 5e 2d 0b 3d
       0.15701011 -0.092927754 -0.47855932 0.033978812
000140 16 cf 68 be f4 a5 11 3f d2 46 80 bd e4 bf 08 3e
       -0.22735247 0.5689385 -0.06263508 0.1335445
000150 8e c5 85 be 61 a8 7b 3e 46 da 5e be 09 2c 8a be
       -0.26127285 0.2457595 -0.21762952 -0.2698672
000160 8d 87 e4 bd de a0 bc bd 35 f9 dc 3e a0 2a be be
       -0.11158667 -0.092103705 0.4315888 -0.37141895
000170 9e ba 8b 3d 85 0b 82 3e a9 a7 75 3e d7 76 d9 be
       0.06822704 0.25399414 0.23989739 -0.4247348
000180 f0 34 19 bf b2 b3 a7 be 1a c6 85 be 57 0e c3 be
       -0.598464 -0.32754284 -0.26127702 -0.38096878
000190 30 09 91 3e 0b 70 b1 bd c8 cb 33 bc d9 da 44 3e
       0.28327322 -0.086639486 -0.010973878 0.19224109
0001a0 8b 5c 6a bd 33 08 e4 3e 0b d3 6b be 5c ae c1 be
       -0.057217162 0.44537506 -0.23029725 -0.37828338
0001b0 f2 1d 0b 3e 7a 74 3d 3e d4 de 80 be 26 2f 2e bf
       0.13585642 0.18501464 -0.25170004 -0.6804069
0001c0 9e 49 3f be 60 f4 42 bf 1a 65 ec be b4 7f 04 bf
       -0.18680426 -0.76154137 -0.46170884 -0.5175736
0001d0 37 a7 f3 bc 9a 31 38 bf 09 10 65 be 21 4d 15 bf
       -0.02974282 -0.71950686 -0.22369398 -0.58320814
0001e0 f7 e6 5c 3e fc 75 22 bd 10 85 e4 3a ad 77 2a be
       0.21572481 -0.0396633 0.0017434675 -0.16647215
0001f0 8c 27 f4 bb 3c 8b 53 bf 81 d8 08 bf 4c fe 19 bf
       -0.0074510034 -0.8263433 -0.5345536 -0.6015365
000200 28 d4 c7 bd 4a 9c 10 3e f1 e5 17 be 93 73 4d 3e
       -0.097572625 0.1412212 -0.1483381 0.2006362
000210 05 00 ab be bd 6b 85 3e bf 8f e2 bd 6c 02 a6 3e
       -0.33398452 0.2605876 -0.11062574 0.32423723
000220 3c a3 f5 3d cc c5 d4 3e cf 44 21 be 05 f1 a2 be
       0.11994025 0.41557157 -0.15748905 -0.31824508
000230 e1 98 17 be 5a 7f 93 be 8f 37 8c bd 17 f8 b7 be
       -0.14804412 -0.288081 -0.068465345 -0.35931465
000240 52 e4 37 3e 44 58 03 be 24 e2 35 3d f6 12 b2 be
       0.17958191 -0.1282664 0.044405118 -0.3478009
000250 66 9b 8c bc 17 90 90 be a0 be 20 3e ea 65 d5 bd
       -0.017163943 -0.28234932 0.15697718 -0.10419829
000260 44 bd 20 bc a8 b5 97 bd d7 39 c2 be 98 cc c6 3d
       -0.009810749 -0.07407695 -0.37934753 0.09706992
000270 00 fa 99 bd 68 29 97 be 2c 21 a5 be 6a 58 87 be
       -0.07518387 -0.29523778 -0.3225187 -0.26434642
000280 fd 6d 69 3e 14 69 ea be 4d 42 a7 bd 83 40 c6 3c
       0.22795863 -0.45783293 -0.08166943 0.024200683
000290 f2 53 a0 be 19 3b e9 3d 70 5a 8d be 14 69 ee be
       -0.31314045 0.11388225 -0.2760806 -0.46564543
0002a0 2e 03 78 be b0 7d e6 be fa b9 9f 3e 34 3f 94 3e
       -0.24219963 -0.45017767 0.31196576 0.2895447
0002b0 d8 b3 79 be 82 55 7d 3c 47 84 e6 be 59 f1 7e be
       -0.24385011 0.015462281 -0.45022795 -0.24896754
0002c0 14 53 95 be 81 52 06 3f 31 53 e4 bc 4b df 94 3d
       -0.29164946 0.5246964 -0.0278717 0.07269152
0002d0 26 eb 9d bd 43 ed 5a 3e 58 2e 8f be 87 ba b1 be
       -0.07710867 0.2137957 -0.27965045 -0.34712622
0002e0 fb a9 2c 3a fb 63 ad 3d 11 62 a4 3e 9f d7 fa bd
       0.00065866084 0.084663354 0.3210607 -0.12248158
0002f0 b1 cd 38 be ac 99 a3 3d d7 9e 4b 3e 0d 29 e7 be
       -0.18047215 0.07988295 0.19884811 -0.45148507
000300 63 94 09 3e f7 8b eb 3c 63 76 99 be bb db c5 3c
       0.13435511 0.028753264 -0.29973134 0.024152627
000310 62 aa 3e be 64 2f 54 3e 92 f6 7a bd 58 11 00 3e
       -0.18619683 0.20721203 -0.061270304 0.12506616
000320 1a b2 8a 3e eb cf c2 3d 6e 23 4c bd 36 db e2 bd
       0.27089006 0.095123135 -0.049838476 -0.110769674
000330 f9 8a 55 3d 05 52 d6 3d 4d 42 47 3d 7c 00 9c be
       0.052134488 0.10464863 0.048647214 -0.3046912
000340 14 13 70 bc 28 43 0e bf 29 e2 02 be a5 0b 18 bf
       -0.014652986 -0.5557122 -0.12781586 -0.5939277
000350 5f d6 55 be 88 f8 02 bf 28 74 8d 3d 30 1d 57 be
       -0.20882557 -0.5116048 0.06906921 -0.21007228
000360 42 b7 3b 3e cb 75 11 bb 75 e6 53 3c f2 64 fb 3c
       0.18331626 -0.0022195454 0.012933363 0.030687783
000370 fc 7b ad 3c eb ad 05 bf 2f 43 69 be 47 dd 34 be
       0.021177284 -0.522185 -0.22779535 -0.17662536
000380 bb 0b 09 bd 18 66 ff bd cc f4 4f 3e 58 6f 66 3e
       -0.033458453 -0.12470645 0.20308226 0.22503412
000390 c0 0b 96 3e 37 30 78 be c6 ab e9 bd 57 70 9e 3d
       0.2930584 -0.24237143 -0.11409716 0.07736271
0003a0 50 a7 3a 3e 45 1b 6d bc 68 e3 1a be 53 34 83 be
       0.18227887 -0.014471834 -0.15125811 -0.25625858
0003b0 e6 2f 4b be 2a 64 ae be e5 09 cc be 22 bc 52 3e
       -0.1984249 -0.34060794 -0.398513 0.2057958
0003c0 15 cb b9 3e 5e 29 da bd 56 d4 d5 3c 27 49 41 be
       0.36287752 -0.106524214 0.026102226 -0.18875562
0003d0 e6 d7 95 bd 72 37 91 bd 21 a9 b5 3d de c9 40 3d
       -0.0731657 -0.070906535 0.088701494 0.047067516
0003e0 1d ff 4d be 26 a8 01 bf d7 7f 7b be 9a 23 ad 3d
       -0.20116849 -0.506472 -0.24560486 0.08454056
0003f0 fa cd 63 bd 1c 59 7c bd de 41 12 bf 43 77 83 3d
       -0.055616356 -0.06160842 -0.57131755 0.06419232

sequential/conv2d_2/Conv2D f4 [60, 3, 3, 55]
000000 8f 87 cb be 32 ad 9e be 0a e1 04 be bf b0 95 3e
       -0.3975186 -0.30991513 -0.1297647 0.2923641
000010 87 cb 3e 3e 00 f5 5d 3d 9e c8 79 3e 96 d3 9c 3e
       0.18632327 0.05418873 0.24392936 0.30630177
000020 41 fe ce be 54 3d c6 bd f4 1d 07 be c8 64 80 3e
       -0.40428355 -0.09679666 -0.1319502 0.2507689
000030 26 e4 59 be 03 82 27 3e 13 d7 5e be 55 f0 dd 3c
       -0.21278438 0.1635819 -0.21761732 0.027092138
000040 96 30 fc bd 68 e8 09 bf eb 3e ca 3d 59 1e 81 bc
       -0.123139545 -0.5387025 0.09875282 -0.015761541
000050 2e fb af 3e d6 5d a6 3c 8f d0 0c 3f 61 3f b5 bd
       0.34371322 0.020308416 0.55005735 -0.08849979
000060 34 d4 19 bd e9 0d 98 be de 45 13 3e 0d 7c 08 3d
       -0.03755589 -0.29698113 0.14382121 0.03332143
000070 70 9c 78 3e dc 10 07 bf 11 76 83 be ff cf 8d be
       0.24278426 -0.527601 -0.25676015 -0.2769775
000080 d6 76 c2 bc af d2 b8 3e 4d c2 b4 3d 40 7e a6 bd
       -0.023738306 0.3609824 0.088261224 -0.08129549
000090 41 74 ce 3c e2 cf 1b 3c 84 a6 fb bc 2c 99 fb 3c
       0.025201919 0.009510012 -0.03071905 0.030712686
0000a0 cc b8 bd 3e 90 3f d4 3e 36 7c fb bd d1 ea 80 be
       0.3705505 0.41454744 -0.12279551 -0.2517915
0000b0 f8 f9 cc be f5 1b 7a bd 4b 67 21 3d 6a 91 31 3e
       -0.4003446 -0.06106182 0.03940515 0.17340627
0000c0 44 68 75 be de 1a b5 be d2 07 a8 be 5b 13 9b be
       -0.23965555 -0.3537206 -0.32818466 -0.30288205
0000d0 b6 37 3e bf 89 dd 76 be 13 50 34 be 29 84 6d 3d
       -0.7430376 -0.24107946 -0.17608671 0.057987366
0000e0 ac e2 16 3e 01 9e ed 3d 22 ff 14 3e 56 f5 e1 be
       0.14734906 0.116024025 0.1455045 -0.4413249
0000f0 40 b1 c5 3c bf 55 e5 3d c0 e0 8d 3e dd 19 37 3e
       0.024132371 0.111979954 0.27710533 0.1788096
000100 4b 3a fa 3e aa da 84 be b8 40 f8 3d 0a 0a 92 be
       0.488726 -0.25948077 0.12121719 -0.28523284
000110 be dd b3 3a ea 40 55 3e d9 73 15 3f 0f bf b9 3d
       0.00137227 0.20825544 0.58379894 0.09069645
000120 bd 73 a5 3e 41 e1 e3 bd fe ea 20 bc fa db 39 bf
       0.32314864 -0.11126948 -0.0098216515 -0.7260128
000130 25 2a e1 3c 2c dc 71 be 63 e6 ba 3c 41 63 cc bc
       0.027485916 -0.23619145 0.022814935 -0.024949672
000140 28 01 60 3e 50 49 16 3f 16 ce 95 3d e8 97 8b 3e
       0.21875441 0.58705616 0.073146984 0.27264333
000150 5e e8 cf 3d 6a 9f 94 3e ec 2f a5 be d6 b5 04 3e
       0.101517424 0.29027873 -0.32263124 0.1295999
000160 35 c9 85 be 58 5f 38 be 8a 3b 8b 3d 26 0d a8 3e
       -0.2613007 -0.18005121 0.067984655 0.3282253
000170 33 86 1b 3e 72 75 23 3f d6 5f 93 be 30 6d d1 be
       0.15187912 0.6385108 -0.28784055 -0.40903616
000180 8f 28 81 be e8 3d 9d be 90 ec b4 3e e4 75 51 be
       -0.25226256 -0.30711293 0.35336733 -0.20455128
000190 10 30 c3 3e 05 9a 67 3e 8c a6 e1 3d 7a 67 d7 3d
       0.38122606 0.22617348 0.110180944 0.105177835
0001a0 c2 c1 40 3e 0c 08 0a 3d 7a d8 09 3d 1d ba 8d 3e
       0.18823913 0.03369908 0.033653714 0.27681056
0001b0 18 f7 47 be 00 16 8d 3e dc fc aa 3c a1 e7 89 bd
       -0.19527853 0.27555847 0.020872526 -0.06733633
0001c0 38 5d 58 3c 89 b6 27 bd 1a 6e 22 bd a4 3f 31 3d
       0.013205819 -0.040945563 -0.039655782 0.043273583
0001d0 6e ce 4e 3d 46 53 e5 bc 39 57 88 3d f8 e8 0d 3c
       0.050489835 -0.02799381 0.066572614 0.008661501
0001e0 18 6b e0 3c 2b 7c 94 bd 3c c4 b9 3c 02 99 b6 bc
       0.027394816 -0.07250246 0.02267658 -0.022289757
0001f0 88 a4 20 3d 1e 4b fe bc 84 ef d5 3c 14 f4 2d 3d
       0.03921941 -0.031041678 0.026115187 0.0424691
000200 4f d1 99 bd 94 f2 cf bc 6e 64 63 3d df 04 8d 3d
       -0.075106256 -0.025384225 0.0555157 0.06885695
000210 10 07 c9 3b 00 3a 8d 39 dc 87 e1 3c d6 b9 6e 3d
       0.006134875 0.0002693683 0.027530603 0.058282696
000220 d0 8f 7a bc 85 b2 82 3d 4a 9e 7c 3d f5 b1 84 3d
       -0.015293077 0.06381706 0.061674394 0.06479255
000230 40 82 e4 ba 66 01 37 bd 54 fd d2 bc 2c 1b 6f bc
       -0.0017433837 -0.044679068 -0.025755562 -0.014593881
000240 f8 a9 7f 3c 76 af 97 bd 50 e4 ac 3b 8f 44 02 bd
       0.015604489 -0.074065134 0.0052762404 -0.031803664
000250 90 de 8f bd ac f6 d3 3c 94 d6 6b bd 54 09 a3 bc
       -0.07024872 0.025874458 -0.057577685 -0.019901909
000260 92 cd 97 bd 5d 9d 15 bd 4c 8e bc bc 0f 19 04 bd
       -0.07412256 -0.036527026 -0.023017071 -0.03225046
000270 52 ab 93 bd b0 8f d7 bc 98 41 07 3d 10 79 00 bd
       -0.07210411 -0.026313633 0.03302154 -0.031365454
000280 7e f7 6a 3d 79 33 15 bd d8 ad 40 bc e8 47 89 bc
       0.057364933 -0.03642604 -0.011760198 -0.01675792
000290 f8 1a bb 3c c6 24 7d 3d 51 29 54 3e d1 06 0d 3e
       0.022840008 0.061802648 0.20718886 0.13772132
0002a0 72 f9 0a 3e 39 95 e4 bd 82 9f 2a 3f f4 02 83 3e
       0.13571718 -0.111612745 0.6664964 0.2558819
0002b0 c0 71 a0 3e fa 41 58 be b9 1b 83 3e 43 2e e4 be
       0.31336784 -0.21118918 0.25607088 -0.44566545
0002c0 30 c6 74 3e fa ab 84 be 63 f0 6d 3e 52 d7 fd 3b
       0.23903728 -0.25912458 0.23236232 0.0077466154
0002d0 1f 75 d3 bc 3f e1 2f 3f f8 36 62 3e 0e 7f dd be
       -0.025812684 0.68703073 0.22091281 -0.43260998
0002e0 47 99 24 bc 8a 94 ae 3e 79 df 16 bd 6d 93 7f be
       -0.01004631 0.340977 -0.036834214 -0.24958582
0002f0 09 fa 48 3e ab f6 66 3e 2e 33 a2 be fb 88 cc 3e
       0.19626631 0.22555034 -0.31679672 0.39948258
000300 57 7f 5a bd f1 34 8d be f2 54 ec bc 4c c6 ab bb
       -0.053344097 -0.27579454 -0.028849099 -0.0052421447
000310 05 c6 23 bf 7a a0 25 be c4 46 5b bd ba 93 78 3e
       -0.6397403 -0.16174498 -0.053534284 0.24275103
000320 9d 71 95 3d e5 f0 10 3f ea 03 7b 3e 0c a2 cd bd
       0.07297061 0.56617576 0.24513212 -0.100406736
000330 ad dc ff be 67 f5 d7 3e 7f a0 9e be ae c9 95 3e
       -0.4997305 0.42179415 -0.30981824 0.29255432
000340 eb e8 48 3e b0 e1 bc be 59 7a 95 3d e1 e6 ea 3d
       0.19620101 -0.36890936 0.072987266 0.11469818
000350 a5 60 d3 be 29 bf 0d bc c9 95 4a 3e 87 2d 86 3e
       -0.4128467 -0.008651533 0.19783701 0.2620661
000360 c6 0a 32 3e e5 fb 8b bd d8 78 11 be 24 07 81 be
       0.17386922 -0.068351544 -0.14206254 -0.2520076
000370 16 cd cf 3d 50 d8 c0 bd 69 6c dd 3e 64 68 3e 3e
       0.10146539 -0.09416258 0.43246773 0.1859451
000380 d4 1a a8 be 48 51 aa 3e c7 28 22 3d 02 03 4f 3e
       -0.32832968 0.33265138 0.03958967 0.20215991
000390 f1 c8 5a 3f 81 83 cb be e7 34 6a 3d fc 5d 98 3d
       0.8546286 -0.39748767 0.057179358 0.07439801
0003a0 12 25 99 3d a5 d4 6b 3b aa 59 a2 3d 07 85 05 3e
       0.07477774 0.00359849 0.07927258 0.13039027
0003b0 67 00 ea b9 51 b4 ea 3e 10 a2 ab 3e d5 76 20 be
       -0.00044632258 0.45840696 0.3352208 -0.15670331
0003c0 9c 1e 0a 3b 3d 8d 59 be 78 61 93 3d 4c 36 96 be
       0.0021075374 -0.21245284 0.07196325 -0.293383
0003d0 2f db aa 3d c5 e5 92 3e 58 d6 6c 3e 36 2a 42 3e
       0.08342587 0.28690925 0.2312864 0.18961415
0003e0 4b 06 83 bd 66 f7 19 3f 7a 1d 38 3f f8 16 b3 3d
       -0.06397685 0.60143125 0.7191998 0.08744615
0003f0 8f 13 b2 bd 14 a1 04 3e 52 7c 38 3e e8 f7 8a be
       -0.08695137 0.12952071 0.18016174 -0.27142262

sequential/dense/BiasAdd/ReadVariableOp f4 [64]
000000 78 af 4b 3e 9e 01 59 be 72 da 05 bd 03 c5 52 3e
       0.19891155 -0.21192023 -0.03267903 0.20582967
000010 5a e8 6a bd 22 53 50 3e 0c 83 59 be bf e3 63 3e
       -0.057350494 0.20344213 -0.21241397 0.22254847
000020 6a 80 be 3d d2 c0 8d 3e 32 07 85 bd 55 c4 87 be
       0.09301837 0.27686173 -0.06495513 -0.26516977
000030 c9 55 33 bd 34 b2 5b bd c6 5e 94 be da 8f ce 3c
       -0.043782983 -0.053636745 -0.28978556 0.025215078
000040 74 66 9d 3d 6f ca 2e 3e 1d 5c bd 3d 5f 90 2f 3e
       0.07685557 0.1706941 0.09246085 0.17144917
000050 fe 42 96 be 3a 71 aa bc a6 21 7a 3b ad 45 18 be
       -0.29347986 -0.020805944 0.0038167029 -0.14870329
000060 36 ae b5 be 2d 0c fd bc f4 5a 88 be 50 dc 13 3c
       -0.35484475 -0.030889595 -0.26631892 0.009024695
000070 ca f5 40 3c ce a6 d4 3c 40 50 d8 bc 60 4b c4 3c
       0.011777351 0.025958445 -0.026405454 0.023961723
000080 e4 8e 8b be 9e e5 92 bd 2a 7d 69 be 2e 22 28 bb
       -0.27257454 -0.07172702 -0.22801653 -0.0025655138
000090 39 bf 0e bd 11 e4 9b be 2e d7 eb bd 00 35 9f 3c
       -0.034850333 -0.30447438 -0.11515652 0.019434452
0000a0 30 ed 84 be 43 10 bb 3d b2 35 ba be 5e ff 97 3e
       -0.2596221 0.09133961 -0.3636909 0.29687017
0000b0 c2 c5 4d be b4 8d 2f be b2 a2 ab 3d 13 8d 56 be
       -0.2009497 -0.17143899 0.08380641 -0.20952253
0000c0 6a 83 e3 bd 73 a2 92 3d d8 42 00 3e d8 e6 c2 bc
       -0.111090496 0.07159891 0.12525499 -0.023791716
0000d0 04 4b 06 bd 06 88 0a 3e 30 66 58 be 21 1c 97 3d
       -0.032786384 0.13528451 -0.21132731 0.07378412
0000e0 37 fd e3 3d 24 a3 2c be cb b5 e5 bd f9 ec 3c be
       0.11132281 -0.16859108 -0.11216315 -0.18449773
0000f0 22 7c 56 3d a9 0f 92 3d 46 f6 76 be 2f eb 4d 3e
       0.052364476 0.07131893 -0.24117383 0.20109247

sequential/bidirectional/forward_lstm/Read_2/ReadVariableOp f4 [64]
000000 20 0d f7 3d 0c 20 b3 3d d9 6f a5 3b 4e 45 d9 3d
       0.1206305 0.08746347 0.0050487337 0.10608922
000010 e5 75 2c bf b4 68 cd be a4 ad a1 bd 31 56 a6 3c
       -0.6736739 -0.40118945 -0.078944474 0.020304771
000020 b9 29 7d 3e 08 55 02 3e 04 d1 0b be ee 6c 52 bd
       0.24722947 0.1272775 -0.13653952 -0.051373415
000030 d9 7d 33 be 07 39 b8 be a9 c9 0a 3e 9a f4 6f bd
       -0.17528476 -0.35981008 0.1355349 -0.05858288
000040 ca 5c 98 3f 71 b1 43 3f c6 90 7f 3f 4b 22 80 3f
       1.1903317 0.7644263 0.9983028 1.0010465
000050 41 a4 9c 3f 5d fb 4b 3f bf 06 88 3f 78 15 78 3f
       1.2237626 0.79680425 1.0627059 0.9690776
000060 9a c4 9f 3f 0f ee 49 3f 33 2d a9 3f ba 73 8e 3f
       1.2481873 0.78878874 1.3216919 1.1129067
000070 18 70 b5 3f da d3 b5 3f ed ba 91 3f ea a9 41 3f
       1.4174833 1.4205277 1.138517 0.75649893
000080 6d c0 a0 3e fe 18 e2 3d 35 4c fc be 60 7c bb be
       0.3139681 0.11039923 -0.4927689 -0.36618328
000090 60 68 0e 3f a8 9c 0f bd 19 0d 3c be 87 13 6e 3e
       0.55628014 -0.03506151 -0.18364371 0.23249637
0000a0 0e 9d 9f bc 21 ef e0 3d a1 84 43 be 67 f1 ad be
       -0.01948407 0.1098311 -0.19093563 -0.33973238
0000b0 bd 4c 3a be d9 bc 65 3d fe 15 8e 3e 6b a0 5f 3e
       -0.18193336 0.056088302 0.27751154 0.21838538
0000c0 67 be 6c 3e 19 5c 0d bd a3 50 81 bc c5 b8 21 3f
       0.23119508 -0.03451166 -0.01578552 0.6317256
0000d0 00 ec 82 3e b8 21 64 3e 6e b8 b2 3e 71 77 a7 3e
       0.2557068 0.22278488 0.34906334 0.32708314
0000e0 43 b3 40 bc 41 d7 14 3e 42 bd ca 3e 22 be 3c be
       -0.011761489 0.14535238 0.39597517 -0.18431905
0000f0 5b 9d 21 bc 5f 1f 33 3e d7 5c da 3d d5 6d 0b 3e
       -0.009864177 0.17492436 0.10662239 0.13616116

sequential/bidirectional/backward_lstm/Read_2/ReadVariableOp f4 [64]
000000 71 18 fc bd 54 83 6f 3c f4 5a 98 be d9 c5 f5 be
       -0.12309349 0.014618713 -0.29756892 -0.48002508
000010 a5 49 64 3c f7 cd 21 3e 04 64 df 3e c2 d6 8c 3e
       0.013933574 0.15801226 0.43630993 0.27507597
000020 74 d4 95 3e db 54 9d bd 53 0a 3b 3e f3 c5 22 3e
       0.2926365 -0.076822005 0.18265657 0.15895824
000030 e6 6e 9f bd 4b 09 a5 bd 55 46 a6 bd 55 f3 45 bd
       -0.07784824 -0.08058413 -0.081188835 -0.048327763
000040 8a 81 72 3f 70 48 61 3f 82 88 64 3f cd cb 6c 3f
       0.9472891 0.88001156 0.89270794 0.92498475
000050 6b d0 de 3e 25 ff 40 3f 70 30 74 3f 36 86 15 3f
       0.43518385 0.7538932 0.9538641 0.58407915
000060 3a 1b 8f 3f 64 6e 8b 3f 5c ab 16 3f 96 a8 22 3f
       1.1180184 1.0893064 0.58855224 0.6353849
000070 df d6 4f 3f 61 34 66 3f b9 d3 86 3f 49 6e 5d 3f
       0.8118724 0.89923674 1.0533363 0.86496407
000080 97 15 d1 3d f7 2d a6 3e 4a b5 43 be 3c c1 36 be
       0.10209196 0.32456943 -0.19112125 -0.1784715
000090 df 66 d3 bc 25 52 c9 bd 7a 1e 93 be 51 25 1c 3e
       -0.025805889 -0.09830121 -0.2873419 0.1524861
0000a0 a7 22 eb be 64 2e 43 be ce dc 04 3e 82 60 1f 3e
       -0.45924875 -0.19060665 0.12974855 0.15564159
0000b0 05 06 3c be 51 dc dd 3c 97 dd b7 be 32 50 8b 3e
       -0.18361671 0.027082594 -0.35911247 0.27209622
0000c0 59 5b bc 3e bd 0f e0 bd 6d a4 1a 3e ed 5e ba 3e
       0.36788443 -0.10940502 0.15101786 0.36400548
0000d0 4a ea 80 3e 84 6e 0d bb 2b d0 c6 3e df 87 72 3d
       0.25178748 -0.0021580765 0.38830695 0.059211608
0000e0 48 9f b0 bc 47 0d 79 3d af fc 14 3e f2 97 65 3e
       -0.021560326 0.060803678 0.14549516 0.22421244
0000f0 0d c8 97 3e 59 03 a4 3e 34 48 c3 3e 69 1e bb 3e
       0.29644814 0.32033804 0.38141024 0.3654664

sequential/batch_normalization/FusedBatchNormV3 f4 [32]
000000 96 d9 41 3f 23 ec 05 3f 4e da 8a 3f 18 01 a2 3e
       0.75722635 0.5231344 1.0847871 0.3164146
000010 94 7a 88 3e 4d d3 be 3e 9b a9 8c 3f f3 7f 01 3a
       0.2665602 0.37270585 1.098926 0.00049400254
000020 af b3 4f 3f 0b 13 e6 3e a4 26 a5 3e 9e fc e3 3e
       0.8113355 0.44936404 0.32256043 0.4452867
000030 75 c9 b4 3e 84 d2 4c 3f 2b db 9d 3f 96 b7 68 3d
       0.3530995 0.8000872 1.233251 0.056815706
000040 7b 90 a0 3e 27 97 05 3e d3 f0 3a 3d 37 e4 88 3e
       0.3136023 0.13045941 0.045639824 0.26736614
000050 a3 5c 73 3d ea 91 40 3e 08 92 f0 3e ae 83 93 3f
       0.059414517 0.18805662 0.46986413 1.152456
000060 76 c0 c6 3e af 91 5c 3e b1 42 39 3f af 19 77 3e
       0.3881871 0.21539949 0.7236739 0.24130891
000070 25 3a fd 3e 94 c4 43 3e e8 39 9d 3e 7f 6f 3a 3c
       0.49458423 0.19117957 0.3070824 0.011379122

sequential/batch_normalization/FusedBatchNormV31 f4 [32]
000000 5d e8 a2 3d c0 cf d3 be d0 ad 90 bb 78 73 e5 bd
       0.07954476 -0.41369438 -0.0044152513 -0.112036645
000010 8f 8c 0a be 0c 03 18 be 90 71 89 bc 8e f9 0e 3d
       -0.13530181 -0.14844912 -0.016777784 0.034905963
000020 aa bf 64 bc cc 12 0a bf f8 3c ae be 2e 07 4e be
       -0.013961712 -0.5393493 -0.3403089 -0.20119926
000030 ef 66 5f be fa 3c 07 bf e5 35 18 bf c0 77 02 3c
       -0.2181661 -0.5282742 -0.59457237 0.007963121
000040 c8 c3 07 3c 60 68 41 be 13 f8 d2 be b2 79 38 bf
       0.008286424 -0.18887472 -0.4120489 -0.7206069
000050 ec 04 ce be d0 f3 c5 be d7 7d 94 be 88 fc f2 bb
       -0.4023813 -0.38662577 -0.29002258 -0.007415358
000060 3f 23 e6 be b0 aa e7 3c 09 d6 5e be 4e 76 83 bb
       -0.44948766 0.028279632 -0.21761335 -0.0040119058
000070 58 cf 44 bb 44 07 c7 be 4c 9e 0a be a8 5c 97 3c
       -0.0030030813 -0.3887273 -0.13536948 0.0184768

sequential/batch_normalization_1/FusedBatchNormV3 f4 [55]
000000 e2 f9 53 3f 85 e9 37 3f df f9 f1 3e 94 18 df 3e
       0.82803166 0.718407 0.4726095 0.4357344
000010 81 74 1c 3f fc a1 9f 3e 23 04 ad 3f fb ca 22 3e
       0.6111527 0.31178272 1.3516887 0.15897743
000020 15 d1 3d 3e 45 ce a5 3e 5a ba d3 3e 3e e5 a8 3e
       0.1853679 0.32383934 0.41353112 0.32987398
000030 8a 1d ca 3d 25 e8 4b 3e ff 83 4e 3e 18 76 8e 3e
       0.098689154 0.19912775 0.2016754 0.27824473
000040 e6 d0 fa 3e d3 ac 05 3f 8f 86 33 3f e0 cd 11 3f
       0.48987502 0.52216834 0.70127195 0.56954765
000050 54 20 44 3f d4 d7 7e 3e a6 d5 4a 3e f4 7a 15 3f
       0.7661183 0.2488702 0.19808063 0.58390737
000060 62 2d 45 3e b3 d9 59 3f 38 f6 9f 3e 2e 04 f1 3d
       0.19255593 0.8509781 0.31242537 0.11768375
000070 95 72 a1 3e 6e 5b d9 3e f3 0f 3c 3f e5 57 aa 3e
       0.31532732 0.42452568 0.73461837 0.33270183
000080 06 28 dc 3e c1 12 af 3e 60 c7 a1 3e d7 af b3 3e
       0.42999285 0.34193996 0.31597424 0.35095093
000090 4b 02 85 3e 48 a4 ca 3e f2 55 88 3e 9a 30 97 3e
       0.25978312 0.39578462 0.2662807 0.29529268
0000a0 32 d1 92 3e 32 5c ba 3e d7 ff b8 3e bb f9 69 3f
       0.28675228 0.36398464 0.3613269 0.91396683
0000b0 04 5b 2b 3f 9d 5e a2 3e 2d 3c 12 3f 45 fb 88 3e
       0.66935754 0.3171281 0.5712307 0.26754203
0000c0 04 a4 a9 3e b0 18 63 3e 4a a7 03 3f d7 40 88 3f
       0.33132946 0.22177386 0.5142714 1.0644788
0000d0 73 1a 63 3e 47 69 60 3e d1 00 8d 3e
       0.22178058 0.2191516 0.27539685

sequential/batch_normalization_1/FusedBatchNormV31 f4 [55]
000000 76 8c fb be 02 e6 09 bf c2 a1 3c bf ca 11 26 bf
       -0.491306 -0.5386659 -0.7368432 -0.64870894
000010 b9 25 03 bf 19 7c f8 be 5a 2a f5 be 02 1a c0 be
       -0.51229435 -0.4853218 -0.47883874 -0.37519842
000020 0a a2 0f bf 93 80 93 bf cc a4 23 bf 39 06 dc be
       -0.56106627 -1.1523613 -0.63923335 -0.42973498
000030 96 f9 83 be 98 72 2c bf e6 17 1f bf ca f9 f0 be
       -0.25776356 -0.67362356 -0.6214584 -0.47065574
000040 fc 74 01 bf df ed d6 be ec c0 e9 be 62 ef 1d bf
       -0.5056913 -0.41978356 -0.45655 -0.61693394
000050 43 f4 06 bf f8 fa ab be 20 e7 2d bf c4 bc 05 bf
       -0.52716464 -0.3358991 -0.67930794 -0.5224116
000060 af b1 18 bf 57 e8 c1 be f1 b6 58 bf bf 78 3b bf
       -0.59646124 -0.37872574 -0.84654146 -0.7323112
000070 5f 24 3c bf 2a c4 c4 be d8 0d 24 bf ad 53 55 bf
       -0.73493 -0.3843091 -0.64083624 -0.83330804
000080 39 a3 6e bf 97 bd 18 bf 71 c2 20 bf 49 5b 2a bf
       -0.9321781 -0.5966429 -0.62796694 -0.6654554
000090 3f 78 83 be d7 b1 c4 bf 29 0f 3a bf 16 77 4a bf
       -0.25677678 -1.5366772 -0.7267938 -0.7908796
0000a0 d4 e8 be be 06 45 44 bf f6 ce 21 bf aa dc 20 bf
       -0.3728701 -0.7666782 -0.6320642 -0.62836707
0000b0 6b 1a 12 bf 45 d9 f1 be a9 07 12 bf 8c b3 e6 be
       -0.5707156 -0.47236076 -0.5704294 -0.45058858
0000c0 09 35 27 bf 8c 65 18 bf 71 95 8a bf cc 22 cb be
       -0.653153 -0.5952995 -1.0826856 -0.39674985
0000d0 46 37 4a bf 3e 20 f7 be 6e 98 30 bf
       -0.7899059 -0.48266786 -0.6898259

sequential/batch_normalization_2/FusedBatchNormV3 f4 [60]
000000 db f1 44 3e a9 63 14 3e 42 71 14 3e 5a fe 67 3e
       0.19232886 0.14491142 0.1449633 0.22655621
000010 55 c0 57 3e 9f 10 41 3e 94 f5 dc 3d c7 ff 23 3e
       0.21069463 0.18853997 0.10789028 0.1601554
000020 f8 26 88 3e da 82 40 3e 5a f6 60 3e 7b c7 eb 3d
       0.2659223 0.18799916 0.21968976 0.11512657
000030 66 1c 5b 3e 72 f7 43 3e 59 d2 1b 3e a3 29 82 3e
       0.21397552 0.19137362 0.1521696 0.2542239
000040 f6 70 4b 3e ac 0e 0b 3e c3 d8 81 3e 4f b7 a9 3e
       0.1986731 0.13579816 0.2536069 0.33147666
000050 79 94 0f 3e a5 30 19 3e bb db f7 3d 95 e1 1f 3e
       0.14021482 0.14959963 0.12102457 0.15613396
000060 c3 77 31 3e a5 01 3e 3e d9 7d 5a 3e 0a f8 2f 3e
       0.17330842 0.18555315 0.2133707 0.17184463
000070 76 50 bb 3e 25 4d 1b 3e 6e 10 fa 3d fe a3 e4 3d
       0.36584824 0.15166147 0.12210165 0.111640915
000080 4f 45 22 3e dd f5 22 3e a8 38 21 3e 7f 4b 6a 3e
       0.15846752 0.15914102 0.15744269 0.22880362
000090 a3 36 35 3e f0 93 11 3e b1 b6 7a 3e d0 ad d4 3d
       0.17696624 0.1421659 0.24483754 0.103847146
0000a0 d4 de c1 3e 9e 7f bd 3d 66 4d 09 3e 63 81 34 3e
       0.37865317 0.09252857 0.13408431 0.17627482
0000b0 90 a4 89 3e c3 5c 11 3e e7 ac eb 3d 38 6e 30 3e
       0.26883364 0.14195542 0.11507588 0.17229545
0000c0 96 90 2c 3e 1b 47 4e 3e 9a e2 07 3e 2a 27 0c 3e
       0.1685203 0.20144312 0.13270035 0.13686815
0000d0 11 47 c2 3d 85 2b 43 3e 98 b2 af 3e f3 57 46 3e
       0.09486211 0.1905957 0.34315944 0.19369487
0000e0 bc c7 23 3e 06 81 0a 3e a0 3f 62 3e 4a d9 7f 3e
       0.15994161 0.13525781 0.22094584 0.24985233

sequential/batch_normalization_2/FusedBatchNormV31 f4 [60]
000000 55 f9 87 be 91 82 bf be e1 c0 0b bf 1c fa e0 be
       -0.26557413 -0.37404302 -0.54591185 -0.43940818
000010 f4 4c 8c be 98 51 a0 be 51 e7 e0 be 3d 7e 18 bf
       -0.2740246 -0.3131225 -0.4392648 -0.59567624
000020 d0 19 ec be 5e dc b4 bd 42 3b e8 be 65 91 b1 be
       -0.46113443 -0.08831094 -0.4535771 -0.3468124
000030 2a fb 5a be 78 44 f8 be 92 2f db be 9a ab ca be
       -0.21384874 -0.48489738 -0.4280973 -0.39584047
000040 e1 79 d0 be c9 46 29 bf 9b 22 e8 be d6 a3 51 be
       -0.40717986 -0.66123635 -0.45338902 -0.20472655
000050 19 5c 66 bf f4 3d 7b be c6 5d c8 be ba 5e f1 be
       -0.8998428 -0.24535352 -0.39134043 -0.47142583
000060 e9 a8 8e be 4a 2a 2e bf 33 d1 1c bf 60 e8 04 bf
       -0.27863243 -0.6803328 -0.6125671 -0.51917076
000070 f6 d3 b6 be 3b 0b 4b bf 18 11 ee be 20 bd 15 bf
       -0.35708588 -0.7931401 -0.46497416 -0.58491707
000080 f4 db 9b be 0e f7 ae be 70 9a b3 be 2f 37 f5 be
       -0.30441248 -0.34172863 -0.35078764 -0.47893664
000090 3e d6 58 bf 98 df 81 be 6a 41 a1 be ec 90 dd be
       -0.8470191 -0.253659 -0.3149522 -0.4327463
0000a0 ee 58 59 be 54 0f 02 bf 27 c2 ee be 7f 49 07 bf
       -0.2122533 -0.5080464 -0.466325 -0.5284652
0000b0 83 59 5c be 04 54 96 be 28 f0 5a bf 15 9b f6 be
       -0.21518521 -0.29360974 -0.855227 -0.48165193
0000c0 1f 8d 34 bf 1a 95 77 bf 1e a7 4d be c4 24 12 bf
       -0.70527834 -0.96711886 -0.20083281 -0.5708735
0000d0 0c b2 04 bf a4 6f 49 be e6 e8 ad be a1 3b 36 bf
       -0.5183418 -0.19671494 -0.3396675 -0.71184736
0000e0 63 c3 2a be c2 bc 22 bf 2b e4 1e bf 1a 33 a0 be
       -0.16676097 -0.6356927 -0.62066907 -0.31288987

sequential/dense/MatMul f4 [64, 32]
000000 16 e1 5c 3e f0 68 78 be 1f fa b2 be 8e 9e 51 be
       0.21570238 -0.2425878 -0.34956452 -0.2047064
000010 46 96 27 3e 6a 43 9a 3e 80 35 bb be d8 5f ca 3d
       0.16365919 0.30129558 -0.36564255 0.09881562
000020 05 a2 77 3e 23 5e 0f 3e e2 d5 ef be 71 4e 85 bd
       0.241829 0.14000754 -0.46842867 -0.06509102
000030 a9 36 11 bf f4 ea d2 3e 2c 2a 44 3e 60 6e a1 3e
       -0.5672403 0.4119488 0.19156712 0.31529522
000040 ee 68 3c 3f 56 1f a2 3e 22 37 c7 be 7e 9c 8d be
       0.7359761 0.31664532 -0.3890925 -0.27658457
000050 b1 13 d3 3d ea 12 b5 be 99 f0 e6 be 7d 87 d6 3e
       0.1030649 -0.35365993 -0.45105436 0.41900244
000060 92 dd c1 be 84 10 b4 be c3 94 a7 3e 12 27 12 be
       -0.37864357 -0.3516885 0.32730684 -0.14272717
000070 94 e4 dd be ff 69 1a 3e 9f c0 e8 bd 20 da 02 3e
       -0.43338454 0.15079497 -0.113648646 0.1277852
000080 90 f9 86 be ee e9 32 be bf 26 05 3f cb e3 25 3e
       -0.26362276 -0.1747205 0.52012247 0.16200177
000090 0a bf e8 bd 4c 14 89 be 7c ff 2f 3e 2d 34 ab be
       -0.11364563 -0.26773298 0.17187303 -0.33438244
0000a0 12 db 1b be d0 4b d2 be f2 cf 32 3e 2a 85 79 be
       -0.15220287 -0.41073465 0.17462137 -0.24367204
0000b0 d9 e7 b1 3e 43 95 e0 be c8 9a c8 3c fd 82 73 3d
       0.34747198 -0.43863878 0.024487868 0.059451092
0000c0 36 7a e5 be f4 01 ee be 2e a8 8b 3e 66 83 61 3f
       -0.44819802 -0.46485865 0.27276748 0.88091123
0000d0 6a ea a8 bd 25 5d 2f bc 24 4a 89 39 c4 0e 32 bf
       -0.08247836 -0.01070336 0.00026185915 -0.6955378
0000e0 e2 72 af be cb e2 48 be 74 62 6c be 9e 3a 5a bd
       -0.34267336 -0.19617765 -0.23084432 -0.053278558
0000f0 21 23 73 3e 8f d3 ac be 3d 28 9c 3e 58 22 b0 be
       0.2374387 -0.33755156 0.3049945 -0.34401202
000100 8f 19 6f be 6a fe 50 3e ba 29 80 3d 64 f6 76 be
       -0.23349594 0.20409551 0.06257959 -0.24117428
000110 c6 fc 02 3e 04 2b d9 bd 41 c2 00 bf 33 28 2d be
       0.12791738 -0.10603908 -0.5029641 -0.16909866
000120 d1 ef 00 3f 35 70 e4 3d 25 6e e9 bd 43 94 db bd
       0.5036593 0.11154214 -0.113979615 -0.10721638
000130 0e 38 89 3d 9f 95 88 3c 52 28 cf 3d 7c 0d d1 3d
       0.06700145 0.016672907 0.10115112 0.1020765
000140 c6 69 3d 3f 3b ac a8 3e a0 42 3a be 0d 80 e7 be
       0.7398952 0.329439 -0.18189478 -0.45214882
000150 fd 8d 7b be 97 60 28 be cf 1d 07 bf 57 cd c1 3e
       -0.24565883 -0.16443096 -0.5277986 0.37851974
000160 e2 00 14 3e 25 ee f3 bc dd 75 1b 3e 2c 7e 89 be
       0.14453462 -0.029776642 0.1518168 -0.26854074
000170 b7 e9 82 be cb a0 0e 3f 48 f1 00 bf bc 0c 02 3f
       -0.25568935 0.557141 -0.50368166 0.5080068
000180 ea d6 6d 3e 43 f6 2c 3e d8 41 e7 be f3 68 bc be
       0.23226514 0.16890816 -0.45167422 -0.3679882
000190 10 5a dc 3d d6 31 ab 3e ba 6f f2 bd be 1f 97 be
       0.107593656 0.3343646 -0.118377164 -0.29516405
0001a0 89 fd c7 3d 59 45 9f 3e 37 b6 84 be 3f b6 21 bc
       0.09765155 0.31107596 -0.2592027 -0.009870111
0001b0 44 1b 6f 3e d8 37 6b 3e 4e c0 61 3f 1a 85 59 bc
       0.23350245 0.22970521 0.8818406 -0.013276363
0001c0 af 1e 06 3f 0e 7c cd 3e b5 19 b2 be ca f9 01 bf
       0.5239057 0.4013371 -0.34785238 -0.5077177
0001d0 d2 fb f2 3d 8d 26 b9 be 73 3d 26 be 84 a7 fd 3e
       0.11864437 -0.36162224 -0.16234379 0.49541867
0001e0 c0 cb a9 be 40 a3 92 be d8 f5 7f 3e 8a 89 ca be
       -0.3316326 -0.28640175 0.24996126 -0.3955806
0001f0 95 fb 62 3d 60 83 c9 3e b3 7e ce be cf 62 fd 3d
       0.05541571 0.39358044 -0.4033104 0.12372362
000200 ff 26 03 bf f6 93 08 bc a0 ba 61 3e c5 a9 57 3e
       -0.5123138 -0.008336058 0.22043848 0.21060856
000210 6c 03 2f be 31 ac c0 be 95 0f 9b 3e bc 7f d4 3d
       -0.17091149 -0.37631372 0.30285326 0.10375926
000220 cf 3e 6e be 9c 57 bc be de 87 75 3e d6 99 98 bc
       -0.23266147 -0.3678559 0.2397761 -0.018628042
000230 c8 dc 42 bc 68 ca 8a be 5f 8e f9 be ca d2 ce be
       -0.011893459 -0.2710755 -0.48741433 -0.40395194
000240 d2 c1 00 bf 2d ee e7 be 6f 0e a8 3e 4e 05 26 3f
       -0.50295746 -0.452989 0.32823512 0.64851844
000250 f9 c2 41 3e c4 d0 ff b9 28 94 e6 3e e4 fd 60 be
       0.18922032 -0.00048792933 0.4503491 -0.21971852
000260 1d e5 b2 be 01 fb 05 3e 90 c1 65 be 11 82 dd 3d
       -0.34940425 0.13084032 -0.2243712 0.10815824
000270 fe b6 c5 3e af 2a 18 bf 9e d0 83 3e 6e 7a 00 bf
       0.38616174 -0.5944013 0.257451 -0.5018681
000280 9e 8f 9e 3d 6f 4e 0c 3e 9a 2c 8f be f5 c9 80 be
       0.077422366 0.13701795 -0.27963716 -0.2515408
000290 61 6d e7 3e 79 e4 72 3e cd e1 f2 be 55 6d 9d 3d
       0.45200637 0.23719968 -0.47437897 0.07686869
0002a0 ea 7d 15 3f b5 6d 25 be 2d 40 50 be b0 c2 b3 be
       0.58395255 -0.16155131 -0.20336981 -0.35109472
0002b0 9a c9 26 be 7c ac 8f 3e 23 e1 aa 3e 54 66 f1 3e
       -0.16287842 0.28061283 0.3337489 0.47148383
0002c0 e8 0d 36 3f 54 1e c8 3d 50 22 5c be 2e 89 b6 be
       0.7111497 0.0977141 -0.21497464 -0.35651535
0002d0 12 09 0a 3e ce 47 e3 be 76 8c db be b7 01 1c 3f
       0.13480023 -0.4439072 -0.428806 0.60940117
0002e0 d9 b1 8f be 35 f0 4a bd 9b 6f a2 3c 27 79 9c 3e
       -0.28065374 -0.049545486 0.019828608 0.30561182
0002f0 db 2c ed be 7e be be 3d fd 18 1e be b7 ed cd 3e
       -0.46323285 0.09313677 -0.1543922 0.40220425
000300 f6 ab a4 be 38 4d f6 bd ba 7c aa 3d a1 41 ee 3d
       -0.32162446 -0.12026447 0.08324571 0.116336115
000310 72 b5 29 bd 61 13 d8 be e9 e1 75 3e c2 44 b1 be
       -0.041432805 -0.42202285 0.24011959 -0.3462277
000320 b8 d6 01 be 17 2b ff bb 66 7d cf 3d 56 85 31 3e
       -0.12679565 -0.007787119 0.1013134 0.1733602
000330 e9 ce 11 3e 65 85 91 be 43 1d 37 bf bf 3b 99 be
       0.14239086 -0.28422084 -0.71529025 -0.29928395
000340 27 66 d2 be cb 86 0c bf 3b 2a 7a 3e 20 44 fb 3d
       -0.4109356 -0.5489318 0.24430172 0.12268853
000350 b8 f4 7d b9 f9 e5 7b 3e 77 db 11 3e dd e0 75 bf
       -0.00024219125 0.24599446 0.14243875 -0.9604624
000360 02 55 b4 3d b6 89 d1 3d 07 66 dc be 74 30 e8 3e
       0.088052765 0.102313444 -0.4304659 0.45349467
000370 a5 3b fa 3e 81 9d bb bd 8f 13 d2 3e 5e 66 b1 bd
       0.4887363 -0.09160901 0.41030547 -0.08662103
000380 d7 8e 30 3e e3 16 31 be d3 89 c1 be d2 2b d0 be
       0.17241989 -0.17293887 -0.37800464 -0.40658432
000390 22 5b 51 3e 1c 2b 80 3e 4a fd a8 be 37 e3 c2 3d
       0.2044492 0.2503289 -0.33005744 0.09515994
0003a0 34 04 5f 3e 74 1c 1a 3e 4f a3 52 be f0 fc 3d be
       0.21778947 0.15049917 -0.2057011 -0.18553519
0003b0 ae 18 30 be c5 72 0f 3f 73 51 c0 3e cc 0d c2 3e
       -0.17196915 0.560345 0.3756214 0.3790115
0003c0 a5 ce 28 3f e5 a6 07 3f 92 48 b5 be ab 0a d8 be
       0.65940315 0.52989036 -0.3540693 -0.4219564
0003d0 14 f3 68 bd 43 a2 55 be 7f 8b 90 be 12 b9 dd 3e
       -0.056872442 -0.20862679 -0.28231427 0.4330526
0003e0 3d b9 a5 be c6 e6 36 bb 5f ae ce 3e b9 ab 4d be
       -0.32367888 -0.0027908548 0.4036741 -0.20085038
0003f0 05 14 e1 be 25 30 ec 3e e2 aa d4 be 81 a5 a0 3e
       -0.43960586 0.4613048 -0.41536623 0.3137627

sequential/dense_1/MatMul f4 [1, 64]
000000 b0 93 b8 be 7c d5 f4 3e 78 c2 13 be 49 2f b6 be
       -0.36050177 0.47819126 -0.14429653 -0.3558295
000010 72 b3 89 3e 7f 81 87 be 9a a5 e8 3e ec 91 96 be
       0.26894718 -0.26465985 0.45438844 -0.29408205
000020 ba 45 ac be 96 d7 8a be 41 f3 bf 3e d4 5a 8f 3e
       -0.33646947 -0.27117604 0.37490276 0.27998984
000030 e5 4c c2 3e 9f 6d c3 be 19 f2 bc 3e ee 24 88 be
       0.3794929 -0.38169572 0.36903456 -0.26590675
000040 08 11 93 be c0 f6 8a be 9f d5 62 be 4e 47 60 be
       -0.2872393 -0.2714138 -0.22151802 -0.219022
000050 d8 cf 6b 3e 9a 97 44 be 10 af e8 bd 41 af b0 3e
       0.23028505 -0.19198456 -0.113615155 0.34508708
000060 d2 ff d9 3e 47 d0 be be 8d 0b ac 3e c5 f5 14 be
       0.42577988 -0.37268278 0.33602563 -0.14546879
000070 d6 fc bb be 8f 00 f5 be bc 12 01 bf b0 0c b8 3e
       -0.36716336 -0.4785199 -0.5041921 0.3594718
000080 1f 4c a1 3e 2c 73 ba 3e b9 33 97 3e 1a 71 94 3e
       0.31503388 0.36415994 0.2953165 0.2899254
000090 5a 5a c2 be 0b 73 b2 3e 4b 69 af 3e 28 6d 9c be
       -0.37959558 0.34853396 0.3426002 -0.3055203
0000a0 69 06 a1 3e f1 88 9b be c8 55 12 be 73 68 cb be
       0.31450203 -0.30377916 -0.14290535 -0.39728126
0000b0 fa c5 ac 3e a6 af 20 bf 7a 65 99 be 4f c8 b8 3e
       0.33744794 -0.6276802 -0.29960233 0.36090323
0000c0 26 b5 8c 3e f1 4e c6 be e2 0b ce be c3 0c 96 be
       0.27481955 -0.38732103 -0.4024344 -0.2930661
0000d0 21 ca ca 3e 89 7e b5 be fd 47 cc 3e 2b b9 65 be
       0.39607337 -0.354481 0.39898673 -0.22433917
0000e0 26 ef 94 be ea 96 4f 3e 67 d0 89 3e 7f d8 d1 3e
       -0.29088706 0.20272413 0.2691681 0.40985486
0000f0 e5 2d ba be c9 b0 d5 be 07 19 90 3e ca 78 5e be
       -0.3636314 -0.4173644 0.28144094 -0.21725765

sequential/bidirectional/backward_lstm/Read_2/ReadVariableOp1 f4 [64]
000000 71 18 fc bd 54 83 6f 3c f4 5a 98 be d9 c5 f5 be
       -0.12309349 0.014618713 -0.29756892 -0.48002508
000010 a5 49 64 3c f7 cd 21 3e 04 64 df 3e c2 d6 8c 3e
       0.013933574 0.15801226 0.43630993 0.27507597
000020 74 d4 95 3e db 54 9d bd 53 0a 3b 3e f3 c5 22 3e
       0.2926365 -0.076822005 0.18265657 0.15895824
000030 e6 6e 9f bd 4b 09 a5 bd 55 46 a6 bd 55 f3 45 bd
       -0.07784824 -0.08058413 -0.081188835 -0.048327763
000040 8a 81 72 3f 70 48 61 3f 82 88 64 3f cd cb 6c 3f
       0.9472891 0.88001156 0.89270794 0.92498475
000050 6b d0 de 3e 25 ff 40 3f 70 30 74 3f 36 86 15 3f
       0.43518385 0.7538932 0.9538641 0.58407915
000060 3a 1b 8f 3f 64 6e 8b 3f 5c ab 16 3f 96 a8 22 3f
       1.1180184 1.0893064 0.58855224 0.6353849
000070 df d6 4f 3f 61 34 66 3f b9 d3 86 3f 49 6e 5d 3f
       0.8118724 0.89923674 1.0533363 0.86496407
000080 97 15 d1 3d f7 2d a6 3e 4a b5 43 be 3c c1 36 be
       0.10209196 0.32456943 -0.19112125 -0.1784715
000090 df 66 d3 bc 25 52 c9 bd 7a 1e 93 be 51 25 1c 3e
       -0.025805889 -0.09830121 -0.2873419 0.1524861
0000a0 a7 22 eb be 64 2e 43 be ce dc 04 3e 82 60 1f 3e
       -0.45924875 -0.19060665 0.12974855 0.15564159
0000b0 05 06 3c be 51 dc dd 3c 97 dd b7 be 32 50 8b 3e
       -0.18361671 0.027082594 -0.35911247 0.27209622
0000c0 59 5b bc 3e bd 0f e0 bd 6d a4 1a 3e ed 5e ba 3e
       0.36788443 -0.10940502 0.15101786 0.36400548
0000d0 4a ea 80 3e 84 6e 0d bb 2b d0 c6 3e df 87 72 3d
       0.25178748 -0.0021580765 0.38830695 0.059211608
0000e0 48 9f b0 bc 47 0d 79 3d af fc 14 3e f2 97 65 3e
       -0.021560326 0.060803678 0.14549516 0.22421244
0000f0 0d c8 97 3e 59 03 a4 3e 34 48 c3 3e 69 1e bb 3e
       0.29644814 0.32033804 0.38141024 0.3654664
