models/model.tflite (tflite, 531644 bytes, 18 tensors)

sequential/conv2d/BiasAdd/ReadVariableOp f4 [32]
000000 e3 9c 44 3c 1a 51 83 3e 1b 10 1c 3e 09 3a 9e 3d
       0.012000295 0.25647813 0.15240519 0.07725913
000010 be e9 f2 3e 87 be 2b 3e 38 52 a3 3e be b0 11 3f
       0.47443956 0.16771899 0.31898665 0.5691031
000020 1f 47 25 3e 23 75 16 3f 70 b1 1d 3e 58 d2 9f 3e
       0.16140412 0.58772486 0.15399718 0.31215167
000030 a7 ac ba 3e 0f 60 dd 3e 4b 6c 00 3e 5c f4 7b 3e
       0.36459848 0.4323735 0.1254131 0.24604934
000040 2b 08 22 3e be 3c e8 3e 08 a6 04 3e 4f 3e ae 3e
       0.15823428 0.45358843 0.12953961 0.34031913
000050 db e5 23 3e 53 c5 2b 3e b0 a6 13 3e 44 b3 d8 3d
       0.16005652 0.16774492 0.14419055 0.10581067
000060 56 b1 76 3c 2a 02 62 3d 14 91 d1 3d e9 f4 dc 3e
       0.015056929 0.055177845 0.102327496 0.43155602
000070 44 b7 0e 3f cd fe fa 3d 35 0e ed 3d 0b e5 a9 3c
       0.5574839 0.12255631 0.115749754 0.020739099

sequential/conv2d_1/BiasAdd/ReadVariableOp f4 [64]
000000 0f 60 89 3d 99 a4 30 3e 01 fd 04 3c 90 02 4e bd
       0.06707775 0.17250289 0.008116961 -0.050295413
000010 c6 69 83 3e 61 45 61 3e 9a 6e a3 3d 3f 94 4b 3e
       0.25666636 0.21999122 0.0798008 0.1988077
000020 66 66 1d be b7 4a 79 bd f9 79 53 be e7 18 42 be
       -0.15371093 -0.06086227 -0.20651998 -0.18954812
000030 43 1d 89 be be 55 82 bc f9 be 0d 3e a2 ac b2 3e
       -0.26780137 -0.015910026 0.13842382 0.34897333
000040 b7 3a 73 3e 9a 40 8e bc 6e 6c 31 3d f6 0e 53 3e
       0.23752867 -0.017364789 0.043316297 0.20611176
000050 d0 38 06 3e 34 41 8b bd fb 6e 6f be a3 79 2f 3e
       0.1310761 -0.06799546 -0.2338218 0.17136244
000060 cb c3 88 be 62 8e 3b 3e 2d fc aa be 13 23 9e 3b
       -0.26711878 0.18316033 -0.3339552 0.0048259585
000070 6e d4 4f 3e 48 ba 77 3e dd 7e a3 be 11 22 98 bd
       0.20295879 0.24192154 -0.31932727 -0.07428373
000080 01 b3 f9 be d5 88 ed 3d ab 2d 13 3e 23 12 55 bf
       -0.48769382 0.11598364 0.1437289 -0.832308
000090 6e 49 c4 3e a1 83 69 bd 05 ac 56 3e a0 ac 6e bd
       0.38337272 -0.057010297 0.20964058 -0.058270097
0000a0 ce 8f 97 bd 08 de 2e 3f d2 2b c5 be 65 c7 4a be
       -0.074004754 0.6830754 -0.38509995 -0.19802625
0000b0 8c db 84 3e 00 d5 d9 3e 3e e0 06 bf 08 e8 05 3f
       0.2594875 0.4254532 -0.52685916 0.52307177
0000c0 09 54 7e 3e 81 32 82 3d b2 6c 21 3e c2 b2 01 3f
       0.24836744 0.06357289 0.1576412 0.5066339
0000d0 94 5b ea 3c 37 dd d3 3e f5 6e ad bd 93 9f 42 be
       0.028608121 0.4137971 -0.08468429 -0.19006185
0000e0 5a 60 ef bb fb d9 0c 3e 47 02 23 bd 44 fa 56 bd
       -0.007305187 0.13755028 -0.039797094 -0.052484766
0000f0 ca a2 90 be f9 01 39 3e 27 31 a6 3e a4 63 f6 bd
       -0.28249198 0.18067159 0.32459375 -0.12030724

sequential/conv2d_2/BiasAdd/ReadVariableOp f4 [128]
000000 54 47 9c bd 18 ad 87 bc 49 11 85 3d ff 7d c9 3d
       -0.07630792 -0.01656203 0.064974375 0.09838485
000010 4e 18 96 be 13 14 4c 3e 41 7d ae 3c c3 57 56 3d
       -0.29315418 0.19929533 0.02129996 0.05232979
000020 3e 60 df bc c2 39 16 3e 8e c3 34 bd 1b 5c 0f 3e
       -0.027267572 0.1467047 -0.044131808 0.13999979
000030 7f 79 e2 bd 5a 07 5b 3e 09 55 50 3e e6 02 03 be
       -0.1105833 0.21389523 0.20344938 -0.12794074
000040 f8 5d 29 be 6a 62 10 3e 00 b1 1b be 97 3d 19 3d
       -0.16539752 0.14100042 -0.15204239 0.037412252
000050 30 92 b6 3c b9 c8 9f 3d 98 fd 0b 3e a5 60 61 3f
       0.022286505 0.07801957 0.13670957 0.8803809
000060 5c 69 24 be e7 8e 0a 3e b7 4d bd 3e 3c ab 27 3d
       -0.16055816 0.13531075 0.36973354 0.040934786
000070 55 b7 d9 3d 48 c8 1b 3e 29 e5 42 bd 80 b3 18 bd
       0.10630671 0.1521312 -0.047581825 -0.03728056
000080 ae 54 0e 3f b1 46 96 3d 7c 8c df 3e e0 bb e3 bc
       0.5559796 0.07337702 0.4366187 -0.027799547
000090 76 52 c0 bd 5b 65 6a 3e 41 7e 43 be 02 20 6d be
       -0.09390728 0.22890227 -0.19091131 -0.23156741
0000a0 ef 44 3b 3d b2 aa d6 bd a1 e9 b8 3e 44 f0 01 be
       0.045720037 -0.10481776 0.36115745 -0.1268931
0000b0 8a 3d 44 3e f2 1e 85 bb a4 85 ed 3c 7e 7a 2d be
       0.191641 -0.004062527 0.028994389 -0.16941258
0000c0 0b 52 25 3e 2f 30 9e 3d ed 11 6b be e5 a0 1e 3d
       0.16144578 0.07724034 -0.22956057 0.03872766
0000d0 2f 9c f3 3d 60 ea cf 3d 36 3c 81 3d 59 5f a5 bd
       0.11895024 0.10152125 0.063103124 -0.08074827
0000e0 ca 26 86 3d 14 07 a6 3d 07 14 3d 3d 6a 31 94 3e
       0.06550367 0.08106819 0.046161678 0.2894395
0000f0 35 df f0 3d 94 ab 5f 3e 41 26 9a be 2d d9 89 3e
       0.11761323 0.21842796 -0.3010731 0.26923504
000100 83 f6 b9 3e 8a 2e da 3f 9f 65 57 3e 9f 76 02 3d
       0.36320886 1.7045453 0.21034859 0.031851407
000110 69 68 9c 3e 76 59 70 3e c7 0c da 3d 4e 3b 07 bf
       0.3054841 0.23471627 0.10646968 -0.52824867
000120 41 87 be 3c 24 fe a5 3e 57 73 a2 3e 5d 64 dc 3e
       0.023257853 0.32420456 0.31728622 0.4304532
000130 b4 d4 3f bd 32 a7 6e 3e 72 31 ad 3e 44 62 20 be
       -0.04683371 0.23305967 0.33826786 -0.15662485
000140 49 64 94 3c 2f 88 e2 3e 55 1d 9a 3e 1b 6d 92 3e
       0.018114226 0.44244525 0.30100504 0.28598866
000150 58 a5 eb 3c 97 6f c0 3e dc 62 49 bd 16 8b bd be
       0.028765365 0.37585136 -0.049166545 -0.37020177
000160 b3 a8 45 3e fb 57 ac 3e 2d 54 02 3f a7 e1 bf 3e
       0.19302635 0.33660874 0.5090969 0.37476847
000170 6d b6 95 bc 08 8c 80 3e 9b ec 0f 3f 5f 94 4e bc
       -0.018275464 0.25106835 0.56220406 -0.012608617
000180 ab 48 4d 3e a7 a3 35 3e 91 41 0c 3e a3 c3 ba 3e
       0.20047252 0.1773821 0.13696887 0.36477384
000190 12 ae 4b 3d 20 da f4 3e 55 3c f8 3d a6 3b 05 3f
       0.049726553 0.47822666 0.121208824 0.5204414
0001a0 3f 8f 2a bd 1a 92 7a 3e ed c2 db bd 6f cd 0a 3e
       -0.041640516 0.24469796 -0.107305385 0.13554929
0001b0 b1 13 87 bc e7 52 0a 3e bd b7 97 bd 01 2a d5 bb
       -0.016488882 0.13508187 -0.07408092 -0.0065052514
0001c0 60 ae e5 bd f6 9f 34 3e d9 78 b3 bd 3a 74 dc 3e
       -0.112149 0.17639145 -0.08763284 0.43057424
0001d0 0c d5 26 3e ff 52 64 3e 3f 39 83 be 80 c5 eb 3e
       0.16292208 0.22297285 -0.25629613 0.46049118
0001e0 dd bb 00 3f c6 e3 ec bd c1 f3 d3 3c 07 9d d0 3e
       0.50286657 -0.11566882 0.025873067 0.40744802
0001f0 40 bb 25 3e cc f5 86 be 14 05 8c bd a0 e3 82 bd
       0.16184711 -0.26359403 -0.06836906 -0.06391072

sequential/conv2d/Conv2D f4 [32, 5, 5, 1]
000000 0d 67 99 bf 62 ef 7e bf 69 d5 da be 78 ec b6 bd
       -1.1984574 -0.9958402 -0.42740944 -0.089318216
000010 06 ef 71 3e 02 2e 41 be 38 ce 2e 3d d7 f1 9e 3d
       0.23626336 -0.18865207 0.042677134 0.07760971
000020 ce 7d 53 3e 80 05 90 be 36 f9 91 3e 42 a3 8d 3c
       0.2065346 -0.28129196 0.28510445 0.017289761
000030 be 7e 1a be 77 70 89 3e 7b c2 4f 3b ea eb 9f bd
       -0.15087411 0.26843616 0.0031701613 -0.07808669
000040 73 77 50 3e 84 e2 02 3d 38 cf c3 bd 53 5c 45 3d
       0.20358066 0.031954303 -0.09561008 0.04818375
000050 95 07 24 bd 41 88 be 3d aa 6c 82 3d 62 14 a9 3d
       -0.040046293 0.09303332 0.06368382 0.08255841
000060 99 60 25 be 5e 15 32 3e 28 7d f1 3d 82 ee ab 3d
       -0.1615013 0.17390963 0.1179145 0.08395101
000070 dc cd 08 be b3 be 3b 3c 50 55 67 be 26 59 de be
       -0.13359779 0.01145904 -0.22591138 -0.4342739
000080 f3 30 cf be f5 c5 ce be 99 6b 5f be d3 4e 1b 3e
       -0.40467033 -0.40385404 -0.21818389 0.15166788
000090 75 c9 fe 3c f5 d5 51 be dc 39 97 3e b0 ee 1c be
       0.031101922 -0.20491774 0.2953633 -0.15325427
0000a0 f5 93 81 3e f6 c2 76 3e 01 4b 89 3e 72 c6 63 be
       0.25308195 0.24097809 0.26815036 -0.2224367
0000b0 1b 5e 8c 3e b8 46 0d 3e ac 5b 69 be 8b 30 e3 bd
       0.27415547 0.13796508 -0.22788876 -0.11093243
0000c0 0b 4c 2b 3e b6 15 24 3e 46 9d db bd 97 94 ee bd
       0.16728227 0.16023907 -0.10723357 -0.11649435
0000d0 ee b5 ac bb ce cb 62 3e 52 38 52 3e c0 8f b6 3d
       -0.005270711 0.22148058 0.20529297 0.08914137
0000e0 99 76 3b 3e a3 0a ac bc 07 04 5d be 90 11 1a 3e
       0.1830696 -0.021001166 -0.21583568 0.15045762
0000f0 1c 8e a5 bd d0 3c c7 be d4 39 6c bf c4 e5 34 bf
       -0.08083746 -0.38913584 -0.9227574 -0.70663095
000100 25 cc b9 3d 43 3e b8 bd f7 a1 5e be 99 cf 19 bf
       0.090721406 -0.089962505 -0.21741472 -0.60082394
000110 d4 f1 86 be 89 43 a6 be 22 05 d3 3d 3f 39 dc bd
       -0.26356375 -0.324734 0.103037134 -0.10753106
000120 f3 fb 78 bf 2e 5e 81 bf f9 e6 35 be a2 17 0e bd
       -0.97259444 -1.0106866 -0.1776389 -0.034690507
000130 1c 4e bd 3a 23 c5 17 bf b6 e1 f5 bd cc 2f 5d bb
       0.0014442834 -0.5928518 -0.120059416 -0.0033750413
000140 74 70 35 be f3 33 19 3c ce 9e 38 3f da ef 84 bd
       -0.17718679 0.009350765 0.72117317 -0.064910606
000150 62 4f ad ba 46 cf a9 bc 3c fc f0 bd 5d 74 dd 3d
       -0.001322251 -0.020728718 -0.1176686 0.1081321
000160 45 db 92 3e 80 b8 21 3d 3c 80 6e bd 3a 8c b1 3d
       0.28682914 0.039482594 -0.058227763 0.08669324
000170 90 06 6f 3e 0f 46 b4 3e 87 67 0e 3e 5f 9e c3 3c
       0.23342347 0.352097 0.1390668 0.023879228
000180 6c e1 08 3d 52 dd f6 be 40 5e 65 be 75 58 b1 bc
       0.033418104 -0.4821573 -0.22399235 -0.021648625
000190 81 dd 0f bd 1d 5b bc 3d 45 3a 5c be 9d 74 2f be
       -0.035123352 0.09197066 -0.21506603 -0.17134328
0001a0 05 06 0f 3e a9 b7 df be f7 33 1e 3c 3f 95 f3 bc
       0.1396714 -0.4369481 0.009655944 -0.029734252
0001b0 b9 41 ad 3d 24 9a 80 3d d5 50 cc be ad 19 05 3e
       0.08459801 0.062794 -0.3990542 0.12998076
0001c0 67 96 8b 3e 10 3b 9f 3d 32 bd 65 3c dc 1c b8 be
       0.27263185 0.07774937 0.014022158 -0.35959518
0001d0 ec 73 8f be 1f ee 78 bc f8 d3 06 bd f3 af bd 3e
       -0.2801813 -0.015193491 -0.032916993 0.370483
0001e0 5a 93 e2 be 1b e5 20 bf 38 45 7c 39 f2 e4 96 3d
       -0.44253045 -0.6284959 0.00024058379 0.073678866
0001f0 77 5a 24 3e 46 76 4f be da 6c 10 bd 7e 72 6e be
       0.16050135 -0.20259961 -0.03526006 -0.23285863
000200 76 4a c4 3d d6 92 9d 3e 0f 55 a5 be 6c b6 f8 bd
       0.09584515 0.3077609 -0.32291457 -0.12144169
000210 2b ef 98 be e1 91 4d bd 78 3d 5c be 3e 9f 22 3e
       -0.2986997 -0.05018795 -0.21507823 0.15881059
000220 fe e6 af be 29 2e 95 be e5 82 3a be 46 3a 60 bd
       -0.3435592 -0.2913678 -0.18213995 -0.054743074
000230 6e 23 27 3e 8e 40 3f 3e 96 49 c9 be 23 8c e2 3e
       0.16322109 0.1867697 -0.39313954 0.4424754
000240 32 0c 96 bd e7 f4 7c be b1 c3 44 bc bd f9 46 bc
       -0.07326545 -0.24702798 -0.012009547 -0.012144503
000250 43 2e b8 3e 8d f4 1e 3d c5 9d e2 be fb ac 85 be
       0.35972795 0.03880744 -0.44260994 -0.26108536
000260 47 18 10 3e 45 c1 14 be db f5 82 bd 8d c8 98 bd
       0.14071761 -0.14526851 -0.063945495 -0.07460127
000270 f3 42 4c 3e c4 ad 66 3d 49 1c dd be b3 d5 67 3e
       0.19947414 0.05631806 -0.43185642 0.22640114
000280 1a ed a3 bd ab 17 a8 3e 84 e9 3f 3b 37 9e 87 be
       -0.08004208 0.32830557 0.0029283473 -0.26487896
000290 07 fe 92 3e c3 3b b1 3d 13 94 93 be 76 10 64 3d
       0.28709432 0.08653977 -0.2882391 0.05567976
0002a0 62 da 39 bc 78 f5 0e 3c 6e 77 a2 3d 84 0f b9 be
       -0.01134357 0.0087255165 0.07932936 -0.3614465
0002b0 39 89 09 bf 76 d1 16 3c d5 b2 d0 3d 23 c1 fc be
       -0.5372501 0.009205213 0.101903595 -0.49366102
0002c0 a4 08 98 bc aa 81 7d bd 5c c3 6e 3e 10 f3 42 be
       -0.018558808 -0.061891235 0.23316711 -0.19038033
0002d0 5b 3a fe 3d 90 c6 b9 bc 42 55 20 3d 6c 35 79 3e
       0.12413474 -0.02267769 0.03914381 0.24336785
0002e0 6f 8b 7f bd 26 73 f4 be e9 1e e9 3d 31 9f 5d 3e
       -0.062388834 -0.477441 0.11382849 0.21642758
0002f0 90 f2 0b bd b2 b5 4f 3e 0b 01 bc be c8 ea de 3d
       -0.034166873 0.20284155 -0.36719546 0.10884625
000300 49 e8 72 3e 8c 90 ca be 2e 03 26 3d cf 15 08 bf
       0.23721422 -0.39563406 0.040530376 -0.5315828
000310 75 0d dd 3d b1 99 4b be 2e 6f f1 be 6c ca 0b be
       0.10793582 -0.19882847 -0.47155136 -0.13651437
000320 79 34 3f bd e3 f5 20 3b f0 08 a6 3d a1 b9 4b be
       -0.0466809 0.0024560622 0.081071734 -0.1989503
000330 cb 8e 8a bd 99 43 fc 3e f7 de 52 3e d9 dd 9e 3e
       -0.06765517 0.49270323 0.20592867 0.3102863
000340 0e 3e ad 3e 82 a2 12 be e3 5e 88 3e 55 20 a2 bd
       0.33836406 -0.14319804 0.26634893 -0.07916323
000350 ce 13 9a 3e 6a ec e1 3d ae 89 90 3e 4a 00 5f 3e
       0.30093235 0.110314205 0.2823004 0.21777454
000360 be 74 40 3d 7f 2c c7 3e d5 7d 92 3e cd 11 e5 3e
       0.046986334 0.38901135 0.28611627 0.44740143
000370 70 3a 2a 3e 8b 7d 4c 3e 8f a2 1f 3e 51 8b a3 bd
       0.16623855 0.19969766 0.15589355 -0.07985557
000380 71 c3 74 be 28 0c 0a be 53 56 f6 be d9 47 15 bf
       -0.2390268 -0.134812 -0.48112735 -0.58312756
000390 53 3b 88 bd cf d2 ad 3d 83 16 14 be e8 0d e7 3d
       -0.0665194 0.08487474 -0.14461713 0.11281949
0003a0 c6 e5 c1 bd 29 37 2c 3e c0 98 d4 3d b6 a4 ac bd
       -0.09467654 0.16817917 0.10380697 -0.084298536
0003b0 8e b1 12 3e 03 82 81 3d 25 34 02 3e 4f 78 6b 3e
       0.14325544 0.06323626 0.12715204 0.22995113
0003c0 9a 8c 59 be 53 f2 56 be 6f e6 f0 be aa c6 33 be
       -0.21245041 -0.20990877 -0.47050807 -0.17556253
0003d0 7a e9 30 be e2 62 05 be 72 2a ef bd 7e e6 01 3e
       -0.17276564 -0.13026002 -0.11678018 0.12685582
0003e0 91 95 70 3e 64 81 14 be 29 23 b5 bd c4 23 db be
       0.23494555 -0.14502484 -0.08844597 -0.42800725
0003f0 9e 40 0b bd a6 c7 5b 3e dc bd d7 be b4 99 d4 3c
       -0.03399717 0.21462879 -0.4213704 0.025952198

sequential/conv2d_1/Conv2D f4 [64, 5, 5, 32]
000000 dc be bb be fc 15 d4 3d c2 f6 a8 3c 81 e8 bc be
       -0.36669052 0.10355756 0.020625476 -0.36896136
000010 87 a9 23 3e 0f a3 0c be 65 57 c8 be fb 60 43 be
       0.15982638 -0.13734077 -0.39129177 -0.19079964
000020 4b 94 05 be 14 a8 63 3d 3e 45 6e bc 40 a9 ad 3d
       -0.1304485 0.055580214 -0.014542876 0.084795475
000030 b3 59 a4 be fb 9e 44 bd 6b 17 e7 bd 52 81 69 bd
       -0.32099685 -0.048003178 -0.112837635 -0.057008095
000040 73 93 ea bd c1 f3 06 3e 4d 89 f8 bd c4 60 c3 bd
       -0.11453905 0.13178922 -0.12135563 -0.09539941
000050 7a 53 d7 3e a2 ee b0 3c 1f 21 c5 3d 9c 43 4a bd
       0.42055875 0.021598164 0.09625458 -0.049380884
000060 b9 68 9a 3e 9c c4 3f be 4c c4 3b 3e 45 51 01 3d
       0.30158022 -0.18727344 0.183366 0.031571645
000070 73 98 63 3e 1a dc 1d be c2 b4 c6 be 00 00 38 3e
       0.22226124 -0.15415993 -0.38809782 0.1796875
000080 95 4e fd 3c a0 64 cc 3d 12 32 20 be 9e 09 78 be
       0.03092126 0.0998013 -0.156441 -0.24222419
000090 5b ae 6f 3e b4 f3 9d bd 07 67 b7 be 90 ec 8b be
       0.23406355 -0.07712498 -0.3582079 -0.2732892
0000a0 ca 2f 8a bd 35 d6 db 3d 3c 9c 90 3c c3 dd 5c 3e
       -0.06747396 0.10734216 0.017652623 0.2156897
0000b0 1f 25 df 3c ca 5d 02 bc cb 74 77 bd 3e 6b b7 3c
       0.02723938 -0.007956931 -0.060414117 0.022390004
0000c0 9c 18 05 be 53 b4 19 bc cd 6b 74 bd 04 34 c6 3d
       -0.12997669 -0.009381372 -0.05967312 0.0967789
0000d0 ba dc 32 3e 6f af 56 3e 5b 8b 15 3e 88 1c 8d be
       0.17467013 0.2096536 0.14603941 -0.2756083
0000e0 c2 d7 75 3e 78 37 e3 bb 36 34 89 3d 4e 14 9e bd
       0.24008086 -0.0069341026 0.066994116 -0.077187166
0000f0 9a f0 66 3e fd 23 d2 3d bd b5 18 be b5 2c 7d 3c
       0.2255272 0.102607705 -0.14913078 0.0154525535
000100 4d 5e 4f be 61 69 07 3e 51 a7 78 bd f4 a3 06 be
       -0.20250817 0.13223793 -0.06070644 -0.1314848
000110 bf 9b 08 3e ce d5 91 bd f7 ac 8d 3e e4 7f f8 3b
       0.13340662 -0.07120858 0.27671024 0.007583605
000120 68 67 3e bd 30 72 34 3e cb f8 00 bf 28 4a e1 be
       -0.046485335 0.17621684 -0.5037963 -0.4400189
000130 70 9e 31 bf 72 d2 f4 be 47 64 2f bb 0c 91 3d be
       -0.6938238 -0.47816807 -0.002676265 -0.18512362
000140 58 6b 45 3e 8b 26 83 3b cc fa 50 3e 70 24 70 be
       0.1927923 0.0040023974 0.20408171 -0.234514
000150 69 e7 3c be 56 4a da be d4 9d 5e 3c e7 39 42 be
       -0.18447651 -0.4263484 0.013587434 -0.189674
000160 1c dc e5 bb b5 e2 88 3e f0 ee 3e be 2e c8 98 3e
       -0.0070147645 0.26735464 -0.18645835 0.29840225
000170 3e 90 0a bc 94 82 46 bd 22 28 52 be 0f 93 b8 bc
       -0.008457242 -0.048464373 -0.20523122 -0.02253106
000180 74 81 d5 3e a1 e1 9f 3e 1d c2 6d bc e0 9f 1c 3e
       0.41700327 0.3122683 -0.014511612 0.15295362
000190 1f 4c a0 bb 99 da 92 3e 2c 25 a1 3d 35 5f 78 be
       -0.004891887 0.28682402 0.07868418 -0.24255069
0001a0 3a 12 77 3e 74 42 0a be a6 59 1b bf 4b 58 07 bf
       0.24128047 -0.13501912 -0.6068367 -0.528691
0001b0 e3 ad 0a be 2c ae 76 be b2 cf 88 bd 36 31 bc 3d
       -0.13542895 -0.24089879 -0.0668024 0.09189074
0001c0 36 72 8c 3e 9a 75 2f 3e 25 c8 c1 3e 0a 59 6e 3d
       0.27430886 0.17134705 0.3784801 0.058190383
0001d0 dc 25 1c be f9 da 38 be d6 d2 a2 be af 5d 29 be
       -0.15248817 -0.18052281 -0.3180148 -0.16539644
0001e0 06 ba 58 3d 28 f4 b1 3e 73 aa 20 3e fc 34 66 3e
       0.05291178 0.3475659 0.15690021 0.2248115
0001f0 f4 29 68 3d f8 27 a4 bd d4 5e 12 be 72 85 26 bc
       0.056680635 -0.08015436 -0.14293987 -0.010163652
000200 95 c9 d0 3e 5f 66 69 3e 1b 2f 36 bd 28 b0 86 3e
       0.40778795 0.22792958 -0.044478517 0.26306272
000210 ac 5f d0 3d 53 eb 97 3e cd 2e 0e 3e 8a d6 5d be
       0.10174498 0.29671726 0.1388504 -0.21663871
000220 fe f8 83 3e 4e 3f f8 be 5e 15 21 3d e8 f7 14 be
       0.25775903 -0.48485798 0.039327018 -0.14547694
000230 9f c9 99 3e 92 70 9c be 15 63 52 3e b3 a1 1f 3d
       0.30036637 -0.30554634 0.2054561 0.038972568
000240 23 b8 19 3e 92 29 bb 3d fc f7 c4 3e 2f 61 66 bc
       0.15011649 0.09138788 0.38470447 -0.014061256
000250 3f 15 17 3e 8d 5d 70 3d 7b 0d b6 bd 51 ad 30 3d
       0.14754198 0.058682967 -0.0888929 0.043134037
000260 08 c9 95 3d fc 4b ab 3c c8 6f 90 be 83 7d e1 3d
       0.07313734 0.020910256 -0.28210282 0.110102676
000270 36 f9 46 bd 1f ec 98 3e c3 6d 34 3e 73 1e 93 3c
       -0.04857751 0.29867646 0.17619996 0.017958855
000280 8d b0 4f 3e da 88 08 be 23 03 af be 72 df 1e 3e
       0.20282193 -0.13333455 -0.3418208 0.15514925
000290 03 bd c3 be 87 e4 1e 3f dd cc 2a bd 80 ef 0c be
       -0.38230142 0.62067455 -0.04169928 -0.13763237
0002a0 fe ac 64 3d 30 03 5c be 0f c4 ba be 59 3b 5b be
       0.05582904 -0.21485591 -0.36477706 -0.21409358
0002b0 70 40 01 3e 0a 43 03 bf 5b e2 05 be 32 bf 0d 3e
       0.12622237 -0.5127417 -0.13074629 0.13842466
0002c0 dd 78 8d bd d9 a8 68 be f4 54 16 3e f0 af 19 bf
       -0.069078185 -0.2272066 0.14680845 -0.60034084
0002d0 c6 e4 68 be 29 85 ab bd 00 29 c2 be b6 eb 82 bd
       -0.2274352 -0.08375008 -0.37921906 -0.063926145
0002e0 d5 83 ad be a8 ec 8a be 04 cb e7 3d 7f 20 95 3e
       -0.33889642 -0.2713368 0.11318019 0.29126355
0002f0 df c0 15 bd 44 74 1e 3d 86 59 73 3d 01 31 eb 3d
       -0.03656089 0.0386851 0.059411548 0.11483956
000300 9c b4 12 3e 96 e5 5f be 27 02 af 3e e9 ca f8 be
       0.1432671 -0.21864924 0.3418133 -0.48592308
000310 06 ca 69 be b8 e9 43 bc 22 34 63 3e 3f c2 67 3d
       -0.22830972 -0.011957578 0.22187856 0.056581732
000320 08 56 96 bd a2 8e 28 3e df ae 1c be 1a 62 39 be
       -0.07340628 0.1646066 -0.15301083 -0.18103829
000330 fd b3 83 3d 75 fd c3 3d c7 be 6a be dd c5 26 3b
       0.064308144 0.095698275 -0.22924338 0.0025447526
000340 b6 a4 3a bf 84 4c fb bd d8 22 7f be 9a 9c c2 be
       -0.7290758 -0.122704536 -0.24915636 -0.38010103
000350 39 76 4b bd 1e 4a ed 3b 25 3d cf 3d 69 af 10 be
       -0.049673293 0.0072415015 0.10119084 -0.14129414
000360 77 a9 ac 3c d7 30 ce be 33 ec 2d bf 5a e2 be be
       0.0210769 -0.40271637 -0.67938536 -0.37282068
000370 f3 b9 af 3d 08 c9 49 3e 33 18 2a 3d 17 2c 2e be
       0.08580389 0.19705594 0.041526984 -0.17009006
000380 7f d5 ce be 20 84 8f bd c8 95 fb 3d 01 14 bf 3e
       -0.4039726 -0.07007623 0.12284428 0.3731995
000390 34 13 8b 3e 4b 89 5a be c7 fb 6b 3d ce 8b 72 3c
       0.27163088 -0.21341436 0.05761316 0.01480384
0003a0 37 03 1c bd 66 5f 09 bd 85 6e e0 3c c9 00 fa be
       -0.038089003 -0.033538245 0.02739645 -0.48828724
0003b0 7e ba d1 bd df f4 a3 3d 83 f1 2d 3d f6 6d 6c bc
       -0.10240649 0.0800569 0.04246665 -0.014430514
0003c0 11 36 8b be cf 9b 82 3d 95 58 a5 be 4e 39 01 bf
       -0.27189687 0.063773744 -0.32294145 -0.50478065
0003d0 df 51 62 bd 7f e7 44 be 39 4a 9d be 07 2f 52 bd
       -0.05525386 -0.19228934 -0.3072069 -0.05131438
0003e0 a1 17 89 3e 6f ed 77 3e 2c 8d 28 3e fd af 7a bd
       0.2677584 0.24211667 0.16460103 -0.06120299
0003f0 83 0a b7 3e 29 83 01 bf d8 dd 10 be fb 3b 43 be
       0.35750207 -0.5059076 -0.14147127 -0.1906585

sequential/conv2d_2/Conv2D f4 [128, 3, 3, 64]
000000 02 8f c1 bc 94 5a 83 bc e9 3f 14 3d bd 11 3d bd
       -0.023627762 -0.016034402 0.036193762 -0.046159495
000010 3f 7c 2d 3d 09 70 5f 3d 1b 8e 2b 3d 20 7d e6 bb
       0.04235482 0.054550204 0.04188357 -0.007033959
000020 d6 0e cb bc 06 1e fb 3c 1b 9e f0 bc 22 6c 5a bd
       -0.024787348 0.030653965 -0.029372266 -0.05332578
000030 9b fd 70 3d bd 7f 14 3d 9b 6a 46 3d 0a 16 9c 3c
       0.058835607 0.036254633 0.04844151 0.019053478
000040 8b e1 70 3d 34 4c bc bc 62 95 aa 3c c4 15 86 bc
       0.058808845 -0.022985555 0.020823184 -0.0163678
000050 b8 43 12 bd 50 a9 86 bc 02 c5 cb bc 93 ad 40 3d
       -0.035709113 -0.016438156 -0.024874214 0.047040533
000060 c8 3f 54 bd e8 ff e6 3b 7d dc 13 3d 8d 84 27 3d
       -0.05181864 0.0070495494 0.036098946 0.040897895
000070 c3 8b 70 3d 86 26 bd bc 6c de 11 bc 48 08 8c bc
       0.058727037 -0.023089658 -0.008903127 -0.017093793
000080 d8 b7 ee 3b 37 21 47 bd 10 1f 1f bc d5 be 53 3d
       0.0072850995 -0.04861566 -0.009711996 0.051695663
000090 27 86 4d bd 61 13 3f bd ba e4 90 3c 05 4d 59 bd
       -0.050176766 -0.04664934 0.01768719 -0.053051967
0000a0 d7 c2 51 bd b6 97 08 bd 18 18 ab bb ec f9 03 3c
       -0.051211204 -0.033347808 -0.005221378 0.0080551915
0000b0 25 5f 55 bd 7a 8b f7 3c e8 fb 8d 3b a6 69 f8 bc
       -0.05209269 0.030217875 0.004333008 -0.030323815
0000c0 93 8e 1a 3d c9 a9 5a bd 38 06 fb bb 7d 0a 19 bd
       0.037733626 -0.053384576 -0.0076606534 -0.037363518
0000d0 45 27 03 3d f0 2a e7 bb bd e9 65 3d ac 8c 4e 3c
       0.032019872 -0.007054679 0.056131113 0.012606781
0000e0 94 8c a0 bc e4 12 ee bc 90 30 07 bd 88 d7 84 bc
       -0.019598283 -0.029061742 -0.033005297 -0.016216055
0000f0 b4 d2 13 bc 60 91 15 3b be 2d e4 3c 4c ea 24 bd
       -0.0090224035 0.0022822246 0.027853843 -0.040262505
000100 1c c0 ad bc 68 6b 5a bc a1 0d 60 bd 4a 6a 67 bd
       -0.021209769 -0.013331272 -0.054700498 -0.05649785
000110 e4 18 0f bd 7e 40 dc bc eb 61 4f 3d ff e5 ff bc
       -0.034935847 -0.026886221 0.05063049 -0.0312376
000120 78 d2 4a bd 34 23 68 3c 4b 6a 2a bd df 00 3c 3d
       -0.049517125 0.014168549 -0.041605275 0.04589927
000130 eb 1c 0d 3d b0 56 00 bd 30 e4 c9 bb 58 c5 14 bd
       0.034451406 -0.03133267 -0.0061612353 -0.036321014
000140 63 2c 11 3d 38 05 41 bc 20 45 67 3b 4c e3 62 3c
       0.03544272 -0.011781029 0.0035289004 0.013848137
000150 72 51 25 bd f7 7d 10 3d b9 c2 3f 3d af 4e 06 bd
       -0.040360875 0.03527638 0.04681656 -0.032789882
000160 7a 77 46 bd bc 25 6c bc 7e 0e c1 bc 6a fa 91 bc
       -0.048453785 -0.014413293 -0.02356648 -0.017819602
000170 3b 8a 37 bd 43 ac 68 3d ba 06 24 bd d1 11 5b 3d
       -0.04480956 0.056804907 -0.040045477 0.053483788
000180 48 73 dd bc 90 16 2f 3b d0 bd 44 3b 84 c6 60 bc
       -0.02703251 0.002671633 0.0030020364 -0.013719205
000190 c0 e1 49 3b 48 95 47 bd 67 9f 25 3d 92 8a ab bc
       0.0030804724 -0.04872635 0.04043522 -0.020940099
0001a0 e8 e6 4d bd 84 1c 1e 3c d0 63 29 bb 8c aa 39 bc
       -0.050269037 0.009650353 -0.0025846846 -0.011332165
0001b0 88 4e c7 bc 60 4b 1e bd 9e 16 e4 3c 04 b9 28 bd
       -0.024329439 -0.038646102 0.027842816 -0.04119207
0001c0 a2 fa b0 3c a8 29 98 bc f0 09 2a bb 96 b6 d2 bc
       0.021603886 -0.01857455 -0.0025945865 -0.02572183
0001d0 3a 29 01 bd e6 2f a6 3c f8 d9 e0 bc bc 6e 0a bd
       -0.031533457 0.020286512 -0.027447686 -0.03379701
0001e0 76 b7 c3 3c 8c 49 4a bc b3 c1 04 3d 1a 8f 4a bd
       0.023891192 -0.0123466365 0.03241129 -0.04945288
0001f0 52 ca 6c bd 88 54 29 bc f1 cf 14 3d 51 a8 39 bd
       -0.057810135 -0.010335095 0.03633112 -0.045326535
000200 4f b4 48 bd bf e2 0a 3d 06 d1 19 bd 80 4d bb b9
       -0.04900008 0.03390765 -0.037552856 -0.0003572516
000210 10 85 65 bb 48 4e c3 bc dc 64 8f bc 86 3f de bc
       -0.0035021938 -0.023841038 -0.017504148 -0.0271299
000220 9c c9 45 3c 15 61 12 3d 89 dd 1a 3d 87 14 47 3d
       0.012071993 0.035737116 0.03780893 0.04860356
000230 50 87 53 bd 69 65 4b 3d b0 6f 3f 3b 08 e5 ce 3b
       -0.051642716 0.04965726 0.0029210858 0.0063139237
000240 85 fe 68 bd 9b 75 53 3d 92 b4 89 3c 3e 9e c2 3c
       -0.056883354 0.05162583 0.016809735 0.023757096
000250 59 ef 2a 3d bc 4a 30 bd 37 6b 58 bd e8 ac 2f bd
       0.041732166 -0.043040022 -0.052836623 -0.042889506
000260 7e 04 f0 3c a9 06 5f 3d da 31 1a bd 60 9a e9 3a
       0.029299017 0.05444971 -0.0376452 0.0017822497
000270 9e 98 0c bd d2 0c e0 3c 02 04 12 bd 78 b5 0d bc
       -0.034325235 0.027349863 -0.035648353 -0.008649223
000280 a8 b1 5a bc cc 82 8f bc ec c2 64 bd d2 3f 8e 3c
       -0.013348021 -0.017518423 -0.055849954 0.017364416
000290 f8 bb 93 bb 18 aa ee bc 23 3b 1d 3d de f4 81 3c
       -0.0045084916 -0.029133841 0.038386475 0.015863832
0002a0 bc 43 65 3c e3 b6 19 3d 32 1c 8d 3c 86 9f bc 3c
       0.0139932 0.03752793 0.017225359 0.023025285
0002b0 1a 19 13 bd 4a 93 68 bd fd 0b 11 bd 6e a8 bf bc
       -0.03591261 -0.05678109 -0.035411824 -0.023395743
0002c0 e6 01 17 bd 68 d3 40 bd 13 08 27 3d 40 86 7e bb
       -0.036867045 -0.047076613 0.040779185 -0.0038837343
0002d0 e8 cd 95 bc 76 d9 eb 3c 85 41 0f 3d 8b 77 64 bd
       -0.01828666 0.028790217 0.034974594 -0.055778068
0002e0 5c 45 14 3c 1a a7 ad 3c 0d fc 0a 3d 40 a7 f5 3a
       0.00904974 0.021197844 0.03393178 0.0018741861
0002f0 00 e8 f2 39 d4 94 74 bc 80 17 f3 3a 55 43 4d 3d
       0.0004633069 -0.0149280615 0.0018546432 0.05011304
000300 c4 b1 1b bd b5 f7 66 3d 34 00 6e bc 04 04 63 bd
       -0.038011327 0.056388576 -0.014526416 -0.05542375
000310 66 14 0a bd 17 9a 03 3d 78 23 44 bc ff 3f fc bc
       -0.03371086 0.032129373 -0.011971347 -0.030792234
000320 2e d8 f5 3c 7c d6 5d bd f4 1e 75 bc a2 1f 0c bd
       0.03001031 -0.054159626 -0.014960993 -0.034209855
000330 74 3e 7a bc 03 15 06 3d 40 e7 5f bb ec 7d 08 bc
       -0.015273679 0.032734882 -0.0034164935 -0.008330803
000340 40 35 c8 bc 27 40 09 3d 52 64 d1 bc 9d 66 0a 3d
       -0.024439454 0.033508446 -0.025560532 0.033789266
000350 7c 91 0a 3c e4 3f 5b 3c e6 0d 84 3c fa 93 ba bc
       0.008457538 0.013381932 0.016119909 -0.022775639
000360 48 40 67 bc a4 77 01 3c bd 7d 45 bd 62 86 b7 bc
       -0.014114447 0.00790206 -0.048215616 -0.022402946
000370 1c 1a e2 bc ed 0f 36 bd 07 a6 14 3d bc 3f 02 bc
       -0.02760034 -0.04444878 0.03629115 -0.007949766
000380 15 57 53 3d 39 63 61 bd b0 77 73 bb d2 e5 aa 3c
       0.05159672 -0.055026267 -0.0037150197 0.02086154
000390 eb 57 22 3d 86 64 a4 bc 4d d8 60 3d 54 06 bf bc
       0.039634626 -0.020067465 0.05489378 -0.023318447
0003a0 fc eb 44 3c aa 15 ab 3c 6d 1c 55 3d 18 fd 0f bd
       0.012019154 0.020884354 0.052029062 -0.03515348
0003b0 cf 36 46 3d 00 d1 03 3b 1a 41 bd 3c ce 92 da 3c
       0.048392113 0.0020113587 0.023102332 0.02668133
0003c0 e4 b3 63 3c fc fd 68 3c c0 85 68 bd 84 c5 35 bc
       0.01389787 0.014220711 -0.05676818 -0.011094455
0003d0 78 5b 60 bd 64 37 6d bd f9 d7 40 bd c0 01 13 bc
       -0.05477473 -0.057914153 -0.047080968 -0.008972585
0003e0 4c 5a 5f bc b3 3c 6e 3d 1a 51 eb 3c 9d db 09 3d
       -0.013632368 0.058163356 0.028725196 0.033656705
0003f0 51 bc 38 3d a3 b1 0e 3d 03 a6 23 3d d5 2d 59 bd
       0.045101468 0.034837376 0.039953243 -0.053022224

sequential/dense/BiasAdd/ReadVariableOp f4 [32]
000000 68 a1 ab 3e d8 67 0f bd 3a 7a 88 bd ed d6 61 be
       0.3352158 -0.035011142 -0.06663938 -0.22054644
000010 e8 cc 48 bd 17 d0 8e 3e 74 28 78 3e c8 47 9c be
       -0.04902354 0.27893135 0.24234182 -0.30523515
000020 fc 43 18 be 2c 75 8b 3e 11 2d 21 3c 69 c3 44 3c
       -0.14869684 0.27237833 0.009837405 0.01200948
000030 c6 fe a4 3e 5b fa 39 be 5d c0 54 be b3 35 95 3e
       0.32225627 -0.1816191 -0.20776506 0.29142532
000040 c6 73 78 bd 7a ad f7 3e 83 93 ce 3e ee eb e4 bd
       -0.060657285 0.4837454 0.40346918 -0.111778125
000050 cc 6d c0 3d 92 3e a0 be 4a 0e ec 3d a5 6a 8e 3e
       0.09395942 -0.31297737 0.11526163 0.27815738
000060 6b eb fb 3b 8c 7a 73 3e e2 30 4c 3d d2 72 79 3e
       0.007687976 0.23777217 0.049851306 0.24360207
000070 0a 6d c7 3d 9e 1f 9b 3d d8 95 11 3e 9c 0b d8 3d
       0.097375944 0.0757439 0.14217317 0.10549089

sequential/batch_normalization/FusedBatchNormV3 f4 [32]
000000 28 83 22 40 2f cf 3a 3f 95 54 0e 41 38 59 73 3f
       2.5392551 0.7297239 8.89565 0.9505801
000010 4e 26 50 40 7f 79 46 40 4a c5 4b 40 c7 ff 1f 40
       3.252338 3.1011655 3.1839166 2.4999864
000020 be 27 be 3d d1 0a 5a 40 d2 8f 63 40 95 f9 51 3f
       0.09284924 3.4069102 3.555653 0.82021457
000030 83 82 de 3f 02 21 39 40 3a 69 d6 3f 74 02 ca 3e
       1.7383579 2.8926396 1.6750863 0.39454997
000040 0d 92 8b 3f 4e 06 4a 40 a2 ec 76 40 29 8b 63 40
       1.0903946 3.1566348 3.858193 3.5553687
000050 6e 24 83 40 88 e6 4a 3f 9f da ae 3f 36 a6 9e 3f
       4.098197 0.7925801 1.3660468 1.2394474
000060 ad e3 34 40 b6 93 38 40 32 9c 1d 40 86 4a c5 3f
       2.8263962 2.8840156 2.4626584 1.5413368
000070 ca f0 64 40 b9 4f 93 3e 18 75 1d 3f bf 34 37 40
       3.5771966 0.2877176 0.61506796 2.8625944

sequential/batch_normalization/FusedBatchNormV31 f4 [32]
000000 cf 19 5f be 46 7b ed bd d8 c7 7c bf 90 85 97 bd
       -0.21787189 -0.11595778 -0.9874244 -0.07398522
000010 ce bd a6 bf 44 0d 03 bf 48 e7 84 bf 3c a0 bb bf
       -1.3026674 -0.51192117 -1.0383081 -1.4658275
000020 10 c9 9e bd 26 c4 dd bf 14 52 25 bf 7a 3e d5 be
       -0.077531934 -1.7325485 -0.64578366 -0.41649228
000030 f4 b5 2d bf df 45 7b bf 33 af cc be d4 d9 a5 bd
       -0.67855763 -0.9815349 -0.39977416 -0.08098188
000040 73 b1 a4 be b6 51 a0 bf b4 f9 dd be cb d4 79 bf
       -0.32166633 -1.2524936 -0.4335457 -0.9759032
000050 d0 35 08 bf 5d 4a a4 be 5f fd d4 be e8 dd 81 be
       -0.5320711 -0.32087985 -0.41599557 -0.25364614
000060 1c 55 56 bd 45 d8 0b be b8 4e d1 be 0f 00 3f bf
       -0.05232726 -0.13656719 -0.4088037 -0.74609464
000070 e9 1d f0 bf 38 89 a7 bc ce dd 98 bd 18 9d 19 3d
       -1.8759128 -0.020451173 -0.07464181 0.037503332

sequential/batch_normalization_1/FusedBatchNormV3 f4 [64]
000000 26 b7 df 3d 8a 05 f1 3d ea 58 bc 3d 7f 83 0f 3e
       0.10923605 0.117686346 0.091966465 0.14015006
000010 ab 3d 70 3e 88 b0 7e 3e d8 0f 31 3e 16 69 19 3e
       0.23461024 0.24872029 0.172912 0.14981493
000020 56 8e 8a 3e c1 dd 42 3e d3 a1 08 3e 05 a5 df 3d
       0.2706172 0.19029905 0.13342981 0.10920147
000030 ea b9 fa 3d 24 8b d6 3d d5 f2 22 3e a0 ae 6a 3e
       0.122424915 0.10475758 0.15912946 0.22918177
000040 26 53 14 3e 2b 82 d9 3d 19 e8 09 3e 65 56 95 3e
       0.14484844 0.10620531 0.13467444 0.29167476
000050 f4 7a 19 3e 03 1e d9 3d 49 d8 c8 3d bb 46 b9 3d
       0.14988309 0.106014274 0.09806878 0.09046694
000060 ef 21 de 3d c8 8c 68 3d 62 84 85 3e 06 b1 75 3d
       0.10846316 0.056774884 0.26077563 0.059983276
000070 78 50 9c 3e d9 e1 12 3e 72 4d 2e 3e d7 c6 0d 3e
       0.30530143 0.14343967 0.1702173 0.13845383
000080 c0 a3 26 3e c4 84 20 3e e2 21 9c 3d 84 09 9d 3d
       0.16273403 0.15675646 0.0762365 0.076678306
000090 18 2c 1c 3e e8 5b 50 3d da 75 e3 3d a1 e4 fa 3d
       0.15251195 0.0508689 0.11106463 0.12250639
0000a0 44 88 be 3d 6f a5 dd 3d fd 05 39 3e 01 82 54 3e
       0.09303334 0.108225696 0.1806869 0.20752718
0000b0 64 4f 15 3e 2f 78 44 3e 5f 5c cb 3d c7 15 19 3e
       0.14581066 0.19186471 0.09929728 0.14949714
0000c0 cd 36 27 3e c5 09 06 3e 3a 0e e4 3d 1a e4 73 3e
       0.16329499 0.13089664 0.11135526 0.23817483
0000d0 f6 dd 23 3e 73 7c 5c 3e ce b0 33 3e 74 d9 7d 3d
       0.1600264 0.21531849 0.17547914 0.061974958
0000e0 be 49 62 3d 65 dd 32 3e 5f f4 7c 3e e6 73 c7 3d
       0.055246107 0.17467268 0.24702595 0.09738903
0000f0 ee d6 bf 3e a8 e2 70 3e d5 c2 10 3e f9 cd 58 3e
       0.37468666 0.23523962 0.14136823 0.21172322

sequential/batch_normalization_1/FusedBatchNormV31 f4 [64]
000000 84 6a 4f be 84 f5 8c be 6f cd 3a bf e8 e6 74 bd
       -0.20255476 -0.27531064 -0.72969717 -0.05979052
000010 3f 6e df be 88 26 83 bf 72 44 63 bf 95 49 e9 be
       -0.436388 -1.0246134 -0.88776314 -0.4556395
000020 f6 c8 66 bf 40 3f 82 3c 60 e8 aa be c2 1a 2f bf
       -0.9015039 0.0158993 -0.33380413 -0.68400204
000030 7e 7f 24 be 77 f0 17 bf 21 e6 a0 be 6d 6b 6b bf
       -0.1606426 -0.59351295 -0.31425574 -0.91960794
000040 70 e4 06 bf 87 f1 4c be f2 28 ae be a2 be 41 bf
       -0.5269232 -0.2001401 -0.34015614 -0.7568151
000050 00 49 c0 be b7 e2 20 bf 41 c8 ea be b5 93 16 bf
       -0.37555695 -0.6284594 -0.45855907 -0.58819133
000060 a4 34 ec be 3e ab 9c be ec b1 f1 be 74 d0 89 bd
       -0.46133912 -0.30599397 -0.47206056 -0.067292124
000070 c7 0f 16 bf e4 f7 6e be 46 ce 08 bf 9e 91 49 be
       -0.58617824 -0.2333675 -0.5343975 -0.19684455
000080 94 bd e3 be a4 46 e7 be 8b 2b 3d bf 1e 57 d3 be
       -0.44480574 -0.45171082 -0.73894566 -0.41277403
000090 84 43 07 bf 5c 0f 33 be 4d 82 cc be 48 6a 17 be
       -0.52837396 -0.17486328 -0.39943162 -0.14786637
0000a0 e2 29 c9 be 8e be 2c bf 91 fa f1 be a8 d5 ef be
       -0.39289767 -0.67478263 -0.4726148 -0.46842694
0000b0 28 1b 15 bf 63 2f 1d bf 18 b0 0c be 3f 30 44 bf
       -0.5824456 -0.6140043 -0.1373905 -0.7663612
0000c0 fe 8b 19 bf f7 bd 46 bf b8 f4 e0 be 6a 0e 6a bf
       -0.59979236 -0.77633613 -0.43936706 -0.91428244
0000d0 70 42 2e bf 75 82 7c bf b1 95 48 bf ac 0f ea be
       -0.68070126 -0.9863656 -0.7835341 -0.45715082
0000e0 03 45 01 bf ee 6d 87 bf ca 7a 22 bf 8c 86 ce be
       -0.5049593 -1.0580423 -0.6346861 -0.40337026
0000f0 4a b4 35 bf d6 30 a0 bf c5 e6 2c bf 38 72 7b bd
       -0.70978224 -1.2514904 -0.67539626 -0.061388224

sequential/batch_normalization_2/FusedBatchNormV3 f4 [128]
000000 92 03 f6 3f 32 c4 27 40 49 8c d6 3e f1 44 1b 3f
       1.921984 2.6213498 0.41903904 0.6065207
000010 9d f4 69 40 47 cd 90 3e 51 2a c9 3f 41 be 86 3e
       3.655555 0.28281614 1.5716039 0.26317027
000020 05 d2 07 3f c6 89 20 3f dd c4 16 40 82 86 a7 3f
       0.5305484 0.62710226 2.3557656 1.3087924
000030 73 c3 b1 3e b7 11 03 3f bc 02 12 3e 1b 42 90 3f
       0.34719428 0.51198906 0.14258856 1.1270174
000040 76 73 b1 3f 8b bc 84 3f a1 3c af 3e 21 79 b2 3f
       1.3863361 1.0370039 0.34225944 1.3943216
000050 b8 20 3e 3f af 8b 3e 3f 45 89 fc 3f 5c c4 17 3e
       0.74268675 0.7443189 1.9729391 0.14820999
000060 21 93 b6 3f ef ff c6 3f 8e 2a 64 3e bd 72 9f 3e
       1.426365 1.5546855 0.22281858 0.31142226
000070 76 cb d8 3e 33 b1 85 3f c1 77 ed 3d 64 91 19 3f
       0.42342728 1.0444702 0.11595107 0.59987473
000080 f2 0e 40 3e 08 6f 86 3e 3d 7a 9c 3e 7e 6c 19 40
       0.18755701 0.26256585 0.3056201 2.3972468
000090 35 42 24 3f 61 64 15 3e e9 6a 3e 40 9e 8b 49 3f
       0.64163524 0.14589073 2.9752753 0.78728664
0000a0 e8 bb 9c 3f 63 f9 c1 3e 50 68 81 3e 59 67 c1 3f
       1.2244844 0.3788558 0.25274897 1.5109664
0000b0 b1 3d dc 3e ed 69 9f 3f 2a 1a 17 40 bf 0b 1f 40
       0.43015817 1.2454201 2.360972 2.485092
0000c0 cc 48 45 3e 56 1e 43 3f 89 66 64 40 a9 ca bd 3e
       0.19266051 0.76218164 3.5687582 0.3706868
0000d0 e0 93 b5 3f 04 a3 40 3f 57 b3 6e 3e 99 72 62 3f
       1.4185753 0.7524874 0.233106 0.8845611
0000e0 93 02 27 3f 42 89 2c 40 d4 bb 5e 3e bb f1 22 3f
       0.652383 2.6958776 0.21751338 0.636501
0000f0 d9 6c ef 3e 85 82 43 3f d2 a1 9d 3f 16 f2 7e 3f
       0.46762732 0.7637103 1.2315009 0.99588144
000100 ae cf 5a 3e dd 6e 59 3e f8 fe 03 3f 96 4c bd 3f
       0.21368286 0.21233697 0.51560926 1.4788997
000110 a4 71 a5 3e a8 f0 57 3f 13 b3 1f 3f 89 88 2c 41
       0.32313263 0.8435159 0.6238262 10.783334
000120 19 79 a0 3e 82 fc cf 3e 78 fc bc 3e 92 10 b4 3e
       0.3134239 0.40622336 0.36911368 0.35168892
000130 8f 5d b4 3f ac 30 e2 3e e4 4b df 3f 9a f2 aa 40
       1.4091052 0.4417776 1.7445035 5.3421144
000140 75 be 54 3f 3c d0 32 3f 41 ff 71 3f 9e 96 19 3e
       0.83103114 0.6984899 0.9453011 0.14998862
000150 81 02 46 3f 11 00 8c 3f 14 0c 27 3f f6 e8 48 40
       0.7734757 1.093752 0.65252805 3.1392188
000160 e6 bd a7 3f 15 51 a7 3f 63 f9 d5 3e 6c 23 06 3f
       1.3104827 1.3071619 0.4179183 0.523978
000170 de da 17 40 47 b2 1f 3e ec 6c e2 3e 55 55 0a 3f
       2.3727336 0.15595351 0.44223726 0.54036456
000180 14 f3 57 3f 6e e0 40 3f ca 9b c5 3f c9 1d 6d 3e
       0.8435528 0.7534245 1.5438168 0.23155893
000190 74 d5 ce 3f 86 6c b6 3e 13 d5 90 3e bd 2c b9 3e
       1.6158891 0.35629672 0.28287563 0.36166945
0001a0 10 a8 48 3f 15 61 47 3f 2c bc b5 3f f3 d2 b0 3e
       0.78381443 0.7788251 1.419805 0.3453594
0001b0 b3 2a d5 3f fc d2 55 3f 36 94 cf 3e 7a a0 e1 3f
       1.6653656 0.8352506 0.40542763 1.7627099
0001c0 1f 0e 47 3f 07 a8 a4 3f 40 37 73 40 52 90 5d 3e
       0.7775592 1.2863778 3.8002472 0.21637085
0001d0 2d 1d 47 3f 64 40 93 3e 5a c1 44 40 cb 1d c5 3e
       0.77778894 0.28760064 3.0743012 0.38499293
0001e0 df 6b d1 3e 30 6e f9 3e 6b 0d 1a 3f fc b7 1d 3f
       0.40902612 0.4871688 0.60176724 0.6160886
0001f0 81 94 34 3f 2f d7 75 41 44 5b 1f 40 71 dc 4f 40
       0.705391 15.365035 2.4899454 3.2478297

sequential/batch_normalization_2/FusedBatchNormV31 f4 [128]
000000 9a 87 de be 7d 99 7f be c7 76 c2 be df f4 58 bf
       -0.4346283 -0.24960895 -0.37981245 -0.84748644
000010 ec 9c b2 be 47 55 69 bf ca 53 9d be dd 64 4c bf
       -0.34885347 -0.9114575 -0.30727988 -0.79841405
000020 6d 5f 20 bf 57 2c 34 bf 9e 46 d1 be ad 1e 1a bf
       -0.6264561 -0.7038016 -0.4087419 -0.6020306
000030 69 a0 a0 be 67 d0 44 bf 1a 8b 71 bf 46 08 09 bf
       -0.31372383 -0.76880497 -0.9435288 -0.5352825
000040 d1 99 f3 be c4 17 b2 be 63 1f 30 bf a6 32 79 be
       -0.4757829 -0.34783757 -0.6879789 -0.24335727
000050 91 2f 4d bf 1e e8 a0 be b6 6a 0f bf 6f a3 73 bf
       -0.80150706 -0.3142709 -0.560222 -0.95171255
000060 f1 93 95 be 5d 5b 1f bf 76 aa a1 bf 00 03 5c 3c
       -0.29214433 -0.62248784 -1.2630146 0.01342845
000070 6c 7d 50 bf 24 f3 80 be 36 17 1f bf 02 6e b0 be
       -0.8144138 -0.25185502 -0.6214479 -0.3445893
000080 90 19 3b bf 71 c4 50 bf 5a b1 a9 bf 48 b6 22 be
       -0.7308588 -0.81549746 -1.3257248 -0.15889847
000090 cd cb 0a bf 09 24 22 bf 74 31 b4 bd 3d 62 df be
       -0.54217225 -0.63336235 -0.08798495 -0.43629637
0000a0 b8 47 04 bf ce 85 18 bf 2e 0a 2e bf 32 97 78 be
       -0.51671934 -0.5957917 -0.6798428 -0.24276426
0000b0 5d 81 27 bf 06 c5 b9 be 2f cc a1 be 6c 41 3d be
       -0.6543177 -0.3628313 -0.31601092 -0.18481988
0000c0 d8 92 4b bf 18 ec 05 bf 40 ad 42 bd d6 22 1f be
       -0.7952094 -0.52313375 -0.047528505 -0.15540633
0000d0 35 ee 0d bf 9a 99 94 be 03 39 34 bf 44 a5 2b be
       -0.554416 -0.2902344 -0.7039949 -0.16762263
0000e0 6c e2 3f bf 0c c9 f9 bd 88 de 6a bf 73 c8 0e bf
       -0.7495487 -0.1219655 -0.91745806 -0.5577461
0000f0 d4 78 e2 be 0c 99 4e be 98 7d a9 be b0 68 ab be
       -0.4423281 -0.2017557 -0.33103633 -0.33478308
000100 f6 b6 2f bf 34 0e 9e bf d7 e3 4c bf 74 74 1b bf
       -0.6863855 -1.2348084 -0.80035156 -0.6072457
000110 87 cc dd be ff 4c 08 bf 96 16 09 bf 56 e9 c6 be
       -0.43320104 -0.53242487 -0.5355009 -0.38849896
000120 a4 e3 2a bf 72 6f ee be 1b 4b 19 bf f4 2a 01 bf
       -0.667536 -0.465694 -0.59880227 -0.50456166
000130 7d 71 e7 be 7a 25 c0 be 9f 6b 21 bf 48 ba 9f be
       -0.45203772 -0.37528592 -0.6305484 -0.3119681
000140 36 92 45 bf 61 86 88 bf c2 c0 cd be 68 ac 7a bd
       -0.77176225 -1.0666009 -0.40186125 -0.061199576
000150 4d 64 d5 be 35 d1 4a bf 94 37 01 bf 5d 76 bc be
       -0.41678086 -0.79225475 -0.5047543 -0.36809054
000160 eb 5c 28 be 3f 75 1b bf fd 9b f3 be 1c c1 58 bf
       -0.16441695 -0.6072578 -0.47579947 -0.8466966
000170 55 d3 63 be 4a 39 72 be fa bf b1 be f2 aa be be
       -0.22248586 -0.23654667 -0.3471678 -0.37239796
000180 c3 74 2f bf 22 c0 7d bf b9 a4 11 bf 45 f7 cb be
       -0.6853754 -0.99121296 -0.5689197 -0.3983709
000190 4e 84 10 bf a3 27 69 bf 5e 96 0c bf 3e 61 13 bf
       -0.5645188 -0.91076106 -0.5491694 -0.57570255
0001a0 7b de ef be f2 98 8b be d4 7d e1 be 9a 9c 17 bf
       -0.46849427 -0.27265126 -0.44041312 -0.5922333
0001b0 38 2f 81 be 1f b8 f0 be 17 ad f3 be 69 6c 02 bf
       -0.25231338 -0.47015473 -0.47592995 -0.5094667
0001c0 7d 68 9b be 03 95 ce be 02 75 0d be ff 95 2f bf
       -0.30353156 -0.40348062 -0.13814166 -0.6858825
0001d0 a2 78 31 bf ce c0 32 bf 6a 56 f3 be 74 bd 32 bf
       -0.69324696 -0.69825447 -0.47526866 -0.6982033
0001e0 7c e8 45 bf 48 3b 41 be ec 5f ad bd f4 28 d9 be
       -0.7730787 -0.1887027 -0.08465561 -0.42414057
0001f0 9b af c7 be 83 b0 04 be 60 6b b2 bd f0 ad 43 be
       -0.39001164 -0.12957959 -0.087118864 -0.1910932

sequential/dense/MatMul f4 [32, 8]
000000 dd 16 4a be cb 61 36 bd 27 86 a9 3c fd 79 9f 3e
       -0.19735284 -0.044526856 0.020693852 0.31147757
000010 c6 84 bb be c4 ba f1 be 78 7b 7e be 36 1b c9 3e
       -0.36624736 -0.47212803 -0.24851787 0.39278573
000020 13 9b 42 bd 6d 50 d9 be 3c 07 b0 3e 94 83 00 be
       -0.04751117 -0.42444173 0.3438052 -0.12550193
000030 5d cf ad 3e 05 17 d1 3e 22 6b a5 3e 08 f2 ce be
       0.33947268 0.40837875 0.32308298 -0.4041903
000040 f2 c8 9b 3e c7 d5 18 bf bf 68 a0 3e 2a 4c 06 bf
       0.30426747 -0.597012 0.31329915 -0.5245997
000050 d5 f6 c0 bd cf 23 92 3e 10 21 aa 3d fd 42 8f be
       -0.094220795 0.28542945 0.083070874 -0.27980796
000060 93 05 20 3c a1 a4 38 be 8d fb 9a be b7 5e 4e be
       0.009766954 -0.18031551 -0.30270043 -0.20153318
000070 42 b8 0e bf 20 d2 a0 be 31 34 c0 3d cc ab a7 be
       -0.55749905 -0.31410313 0.09384955 -0.32748258
000080 8a 97 63 3d 95 b2 0d bf 32 6d 4a 3e 5e 92 46 be
       0.05556444 -0.5535062 0.19768217 -0.19391772
000090 5f 7f 12 3e 0b d0 e8 3d 2c f8 b1 3e dc 04 f5 be
       0.143064 0.11367806 0.34759653 -0.4785527
0000a0 4c 73 93 be 0d 1d a9 3e 68 64 88 bd cd ba a8 3c
       -0.28798902 0.33029976 -0.06659776 0.020596886
0000b0 ed d1 db bd c3 4e 3a be 9b af c8 3c 71 ad 00 3f
       -0.107333995 -0.18194108 0.024497798 0.5026465
0000c0 4d 7c 0c bf 9c 6f 04 3e 32 5d 59 be a6 bf a8 3e
       -0.5487717 0.129332 -0.21226957 0.32958716
0000d0 11 2e f8 bd ff b1 08 be e3 42 bc be 64 9e ff 3c
       -0.121181615 -0.1334915 -0.3676978 0.031203456
0000e0 8e 33 85 3d 75 59 bd bc 2e bd f1 bd 71 fa 3c 3c
       0.06503974 -0.023113945 -0.11803661 0.011534319
0000f0 b5 21 07 bf 65 f3 a8 bd 99 01 f7 be aa 8e 02 bd
       -0.5278581 -0.08249549 -0.48243406 -0.031874336
000100 01 b4 e9 bd 0f 6a 2e be ed 1b bf bd e7 7b 65 bc
       -0.11411286 -0.17032646 -0.09331498 -0.014006591
000110 00 82 4a be f6 07 c7 be 7e af ce be 5d 5b 75 3c
       -0.19776154 -0.3887326 -0.40368265 0.014975396
000120 d3 78 18 bf 6d aa c6 be 6f 3c 66 be 62 5a 71 3e
       -0.59559363 -0.388019 -0.22483991 0.23569635
000130 33 79 25 bc 4f 2e 48 be 9e 5d 64 bd 29 e1 a9 3e
       -0.010099697 -0.19548915 -0.055753343 0.33179596
000140 9a 9b 1d 3d bd d9 5e be 18 3a fe 3e a5 c7 97 be
       0.03847847 -0.21762748 0.49653697 -0.29644504
000150 86 dd b9 3e d9 26 9e 3e 37 ac ab 3d eb 10 4d bd
       0.3630182 0.30889013 0.08382457 -0.050064962
000160 89 93 b9 3e e0 32 9d be 55 92 01 3f 93 77 59 be
       0.36245373 -0.30702877 0.5061391 -0.2123702
000170 a0 62 32 3d 98 0c 9c 3e 9d 65 f0 3e e1 9b f9 be
       0.043551087 0.30478358 0.46952525 -0.4875174
000180 55 7f 21 be d0 6e 09 3e 26 b0 2a bc 76 11 87 3e
       -0.1577123 0.13421178 -0.010417974 0.2638051
000190 43 3b aa be 75 34 a9 be 4f b1 ec be b7 a8 01 3e
       -0.33248338 -0.33047834 -0.46229026 0.12662016
0001a0 28 03 03 bf ff a2 2b be f2 d6 84 be 15 96 0b 3d
       -0.5117669 -0.16761397 -0.2594524 0.034078676
0001b0 66 7f fc bd cf ee 63 be 42 ff 01 3e d8 c7 a5 be
       -0.12328987 -0.22259067 0.1269503 -0.3237903
0001c0 fd 31 10 3d ee ca 8e be f6 fe 87 bd 45 c3 83 be
       0.035203923 -0.27889198 -0.06640427 -0.25734916
0001d0 bc f8 78 3e 49 7c 51 3e fb fc 2f 3e 8a 8d 9f be
       0.24313635 0.20457567 0.17186348 -0.31162673
0001e0 ad 17 e3 bd 21 bb 9b ba 3d 18 43 3d 69 96 25 3e
       -0.110885 -0.001188133 0.047630537 0.16170658
0001f0 35 31 da be 31 d9 f5 be 44 67 8f be 9a 92 6d 3e
       -0.42615667 -0.48017266 -0.28008473 0.23200455
000200 00 bd bb 3c 5c 89 0b bf 11 8c 33 3c d2 0e c2 be
       0.02291727 -0.5450647 0.010958687 -0.37901932
000210 95 7a ac 3e 7c 25 62 bd 93 91 62 3b 88 c8 ed be
       0.33687273 -0.05521153 0.0034571632 -0.46442056
000220 69 97 5d be 9a 40 47 3e cf 11 5a be 79 f8 91 3d
       -0.2163979 0.19458237 -0.21295856 0.071274705
000230 e7 26 e7 be b0 cc 95 be 82 9c 04 bf 9f 5f 5c 3e
       -0.45146868 -0.29257727 -0.5180131 0.21520852
000240 c4 f4 10 be 98 cd 46 be 73 90 1a bd c7 5b 45 3e
       -0.1415587 -0.19414365 -0.037735414 0.19273292
000250 52 a5 92 be 3f e0 99 be 45 40 cd be 5b 18 bf 3e
       -0.28641754 -0.300539 -0.40088096 0.3732327
000260 8e 31 24 bd bb e5 2f bd 20 5c 68 3d 74 aa 29 bd
       -0.04008632 -0.042943697 0.056728482 -0.041422322
000270 1b 64 b3 3e bc ad 4b 3e 23 e6 94 3d a3 e5 41 bf
       0.35037312 0.19890493 0.072704576 -0.7574102
000280 ba 33 dc 3d 6b 3a c5 be a6 ee 36 3b 10 4b 18 bf
       0.107520536 -0.38521132 0.0027913242 -0.59489536
000290 a6 71 95 3e 1a 37 c7 3e a4 91 02 3f 2c c4 0c bf
       0.2918827 0.38909227 0.5100348 -0.54986835
0002a0 1c d4 42 3e 3e b4 d7 bc 0f 9a f1 3d 95 09 83 bd
       0.19026226 -0.026331063 0.117969625 -0.06398312
0002b0 4f 8e 0a 3d bd 3a 5d 3e 6e f1 ae bd 96 16 38 be
       0.033827122 0.21604438 -0.08542143 -0.17977366
0002c0 5e 8a 63 be 14 7a bb 3e d7 a1 fb be 0d 8a ca 3d
       -0.22220752 0.36616576 -0.49146912 0.09889612
0002d0 a0 a7 35 bd 1e d0 f0 be 87 59 b8 bc 81 f6 17 3e
       -0.044349313 -0.4703378 -0.022503627 0.14840128
0002e0 c5 ca 3a 3e 5f d1 da 3d 0b f0 ca be fa c0 c5 3d
       0.18241413 0.106844656 -0.39636263 0.09655948
0002f0 f5 2f 21 bf f4 1f 17 be 39 df f5 be 18 99 c7 3d
       -0.629638 -0.14758283 -0.48021868 0.09745997
000300 67 51 6b 3e 30 4a 90 bd dc 5d 25 3d 9d ee ec be
       0.22980271 -0.070454 0.040372714 -0.46275797
000310 6b 3a 8c be b5 43 23 3e 4d e1 b8 3e 8e 02 ed be
       -0.2738832 0.15943797 0.3610939 -0.46291012
000320 e5 12 0e bf 28 37 37 3e ac 34 af be be a0 fa 3e
       -0.5549758 0.17892134 -0.34219873 0.48950762
000330 5f b3 51 3d 28 12 97 be 97 c4 a4 be 89 be 28 3d
       0.051196452 -0.2950604 -0.32181236 0.041197333
000340 78 cb 57 3d 0d a7 c1 3d 2d 74 38 be 8a 65 3d 3e
       0.052684277 0.094556905 -0.18013068 0.18495765
000350 47 25 bb be 9f 9d 33 bf a9 50 c8 bb ea 7b 89 3e
       -0.36551878 -0.70162386 -0.006113131 0.2685235
000360 e3 56 c8 be b7 d2 af 3d 7d 44 92 be de 3c 97 3e
       -0.3912879 0.085851125 -0.28567877 0.29538625
000370 b3 9c aa bd 36 b4 07 be 0d 4f 57 3e fe 78 62 3e
       -0.08330669 -0.13252339 0.21026249 0.22116467
000380 16 6d 53 3d 26 b4 96 3e 50 30 11 bf 28 98 07 3e
       0.051617704 0.29434317 -0.56714344 0.13241637
000390 c8 79 17 bf 19 01 4b be 65 b0 fd 3c ed c5 e4 bc
       -0.591702 -0.19824637 0.0309679 -0.02792641
0003a0 f8 ea c9 3e 3c 74 81 bb 47 f7 d7 3e 14 fd 06 bf
       0.3943708 -0.003950624 0.42180845 -0.52729917
0003b0 43 df 9b 3e ee 02 4f 3e e4 c4 b1 3e c9 6f 89 3d
       0.30443773 0.20215961 0.34720528 0.067107745
0003c0 5e 98 30 be 1a 38 34 be f7 46 0a bf 25 4b e1 3d
       -0.17245623 -0.17599526 -0.54014534 0.11000661
0003d0 80 00 03 3e dd 91 9e 3c ac a7 d7 3d 79 92 e6 3e
       0.1279316 0.019356662 0.10530028 0.45033625
0003e0 36 4f 20 3e 2f 97 4f be 62 0e 61 3d 58 08 10 bf
       0.15655217 -0.20272516 0.054945357 -0.5626273
0003f0 10 55 a8 3e 71 0a b9 3d 0f 69 94 3d 6d 53 ab be
       0.32877398 0.09035195 0.07246601 -0.33462086

sequential/dense_1/MatMul f4 [1, 32]
000000 cc d0 d2 be 5c 51 84 3e 49 ec 86 3e 82 48 40 bd
       -0.41174924 0.25843322 0.26352146 -0.04694415
000010 50 69 50 3e 75 e2 f0 be 8e 37 86 be 24 04 1e 3c
       0.20352674 -0.47047773 -0.2621426 0.009644542
000020 ee 73 7f 3e b6 7f 57 be cc 3a db 3e df f0 bb 3e
       0.24946567 -0.21044812 0.42818296 0.36707208
000030 27 8c be be 70 78 8d 3b 45 2b 69 3d 7b 1b 06 bf
       -0.37216303 0.004317336 0.05692603 -0.5238568
000040 44 f7 e1 3e 12 1f 2d bf 8e c8 c8 be bb dc bd 3d
       0.4413396 -0.67625535 -0.3921551 0.092706166
000050 73 bd e3 3e 75 1d 61 3d d6 b9 a3 be 24 b7 2c be
       0.44480476 0.054959733 -0.3197772 -0.16866738
000060 eb d2 ca 3d af dc 7a be e5 5b 3b be b4 37 8f be
       0.09903511 -0.24498247 -0.18296774 -0.27972186
000070 9a 97 89 be 01 cf 96 3e 1c a4 3f be 4f 28 70 3e
       -0.26873475 0.29454806 -0.18714947 0.23452877

sequential/lstm/while/lstm_cell/BiasAdd/ReadVariableOp f4 [32]
000000 89 a3 24 3e e4 a3 ad bd aa 81 31 3e 27 26 66 3e
       0.16078009 -0.08478525 0.17334619 0.22475491
000010 d4 34 61 3d 25 4f 39 bd 53 cd a1 3d 97 aa 43 3e
       0.05498202 -0.045241494 0.079004906 0.19108044
000020 b6 a4 9b 3f 3e 49 5a 3f 99 5f a2 3f ed cd 85 3f
       1.2159641 0.8526801 1.2685424 1.0453469
000030 da 93 8a 3f 43 95 88 3f 19 a6 92 3f d9 3e 48 3f
       1.0826371 1.0670551 1.1456939 0.782209
000040 86 07 a7 bc 04 d0 bc bd 0f cf 84 3e 91 a5 07 3e
       -0.02038933 -0.09219363 0.25939223 0.13246752
000050 06 34 8b 3d ac da 8a bd 69 3a e9 3d b8 20 3a 3e
       0.06797032 -0.067799896 0.11388094 0.18176544
000060 d2 e8 39 3d 2f e1 af bd 01 70 19 3e 71 44 a6 3e
       0.04538805 -0.08587872 0.14984132 0.32474092
000070 c7 42 7d 3e db 43 5e 3b aa af 59 3d d1 4d 1c 3e
       0.24732505 0.0033914957 0.053146042 0.1526406
