models/model.tflite (tflite, 288496 bytes, 13 tensors)

sequential/conv2d/BiasAdd/ReadVariableOp f4 [32]
0	0x3db7abdd	0.08968327
1	0x3c67a2f1	0.014137969
2	0x3d8b0731	0.06788481
3	0x3d2249e1	0.039621238
4	0x3d3b57c6	0.045738004
5	0x3d8ae242	0.067814365
6	0x3dcf6c3e	0.101280674
7	0x3e25c3a7	0.16187917
8	0x3c872ec4	0.016501792
9	0x3d2cbf88	0.042174846
10	0x3dc67b56	0.09691493
11	0x3d26ba9c	0.04070531
12	0x3db843d5	0.08997313
13	0x3d93083e	0.071793064
14	0x3d0f229c	0.034945115
15	0x3d35d57f	0.04439306
16	0x3d54e8b3	0.05197973
17	0x3d44e304	0.04806806
18	0x3d97c2f2	0.0741023
19	0x3e15b5c8	0.14620125
20	0x3d54a210	0.051912367
21	0x3d755198	0.059892267
22	0x3cf6b195	0.030113975
23	0x3da7d67d	0.08195207
24	0x3c6165ce	0.013757182
25	0x3d489022	0.04896558
26	0x3e05399d	0.13010259
27	0xbcd53e14	-0.026030578
28	0x3d2422e8	0.04007235
29	0x3d6e6dca	0.05821017
30	0x3e031b35	0.12803347
31	0x3e1c2c16	0.15251192

sequential/conv2d_1/BiasAdd/ReadVariableOp f4 [64]
0	0x3c49f64a	0.012326786
1	0xbbfef953	-0.0077811866
2	0x3e006a71	0.12540604
3	0xbc8d71fb	-0.017266264
4	0xbdafcd35	-0.08584062
5	0x3e0e4066	0.13891754
6	0xbdf93f57	-0.12170284
7	0x3c9f6aa1	0.019460024
8	0xbe320992	-0.17386463
9	0x3e4b8ade	0.19877192
10	0xbd8c015e	-0.06836198
11	0x3e20267c	0.1563968
12	0x3db38bcf	0.08766901
13	0x3e064740	0.13113117
14	0xbdd2ef12	-0.10299505
15	0xbe036303	-0.12830739
16	0xb9aaaa0a	-0.00032551616
17	0x3dd55f29	0.10418541
18	0xbd1ea4c5	-0.038731355
19	0x3e6acbdf	0.22929333
20	0xbe15c678	-0.14626491
21	0xbe63a611	-0.22231318
22	0xbe11ca2e	-0.14237282
23	0xbe26e199	-0.16296996
24	0x3db405b5	0.08790151
25	0xbc947865	-0.018123815
26	0xbde9c814	-0.11415115
27	0xbc1ac9f1	-0.009447561
28	0xbe3355f9	-0.17513265
29	0xbcacfb9c	-0.02111607
30	0x3da78f12	0.08181585
31	0x3dd39fff	0.10333251
32	0x3d0c157c	0.034200177
33	0xbd93c8e8	-0.07216054
34	0xbcd4d5a1	-0.025980772
35	0xbcc76dee	-0.02434441
36	0x3e09db8c	0.13462657
37	0x3e28851d	0.16457029
38	0x3cef3b2f	0.029203026
39	0x3dedda0f	0.11613857
40	0xbdd9ba78	-0.10631269
41	0xbe164afd	-0.14677043
42	0x3e1777f9	0.1479186
43	0x3e771d24	0.2413221
44	0xbe4a8662	-0.19777825
45	0xbde7b61b	-0.11314031
46	0xbe32314b	-0.17401616
47	0xbd3e08ca	-0.0463951
48	0xbd4c8989	-0.04993585
49	0xbd88c219	-0.06677646
50	0xbdcb67ce	-0.099319085
51	0x3dc1b7c7	0.09458881
52	0xbd998d94	-0.07497707
53	0x3d48c99a	0.049020387
54	0xbd8c7001	-0.068573005
55	0x3d86962a	0.0657161
56	0xbdeebbf3	-0.11656942
57	0xbd9a7515	-0.07541863
58	0x3e147af1	0.14500023
59	0xbd928479	-0.071541734
60	0x3d21a878	0.039467305
61	0x3da97ec4	0.08276132
62	0xbd72e2f2	-0.059298463
63	0xbe3f7841	-0.18698217

sequential/conv2d/Conv2D f4 [32, 5, 5, 1]
0	0x3d19ace0	0.037518382
1	0xbdb1285e	-0.086502776
2	0xbdde8666	-0.10865478
3	0x3b527ea1	0.0032118934
4	0xbd9e86d3	-0.077405594
5	0xbd1b0464	-0.037845984
6	0x3e040bcb	0.12895124
7	0x3ca07af7	0.019589884
8	0xbe35a0bb	-0.17737095
9	0xbd6b79c2	-0.057489164
10	0xbc2918eb	-0.010320882
11	0x3e2d7feb	0.16943328
12	0x3e030277	0.12793909
13	0x3de0f8bf	0.109849446
14	0x3e646b97	0.22306667
15	0xbd8fb1a5	-0.07016305
16	0xbd5de7fa	-0.05417631
17	0x3d88deb1	0.066831
18	0xbdc5a9a6	-0.096514985
19	0x3e43c5a6	0.19118366
20	0xbe27c2b0	-0.16382861
21	0xbd565142	-0.052323587
22	0xbbc45920	-0.00599207
23	0xbe1f35c4	-0.15547854
24	0x3df5b33b	0.11997076
25	0xbd2af8d6	-0.041741215
26	0xbd6d6530	-0.057957828
27	0xbba97ffb	-0.005172727
28	0x3dcbda67	0.09953766
29	0x3e084f06	0.13311395
30	0xbddb3185	-0.107028045
31	0xbde47892	-0.111558095
32	0xbdc75b26	-0.09734182
33	0xbe30009f	-0.17187737
34	0xbe152951	-0.14566542
35	0x3e81084e	0.25201648
36	0x3cfa9e81	0.030593159
37	0xbe0eb626	-0.13936672
38	0xbdcd05fd	-0.10010908
39	0x3e1d1e25	0.1534353
40	0x3d91761e	0.07102607
41	0x3de3a597	0.11115568
42	0xbe0be9d0	-0.13663411
43	0xbeaf67f6	-0.34259003
44	0xbde9ab1d	-0.114095904
45	0xbdee6a2c	-0.116413444
46	0xbd5b4e00	-0.053541183
47	0xbd885b3d	-0.06658027
48	0xbe000be6	-0.12504539
49	0xbd798a8d	-0.060923148
50	0x3dc373ad	0.09543548
51	0x3e1afd5d	0.15135713
52	0x3d6044d1	0.05475313
53	0xbe0523bf	-0.13001917
54	0xbc45a114	-0.01206233
55	0x3e1a25c7	0.15053473
56	0x3d5575d6	0.05211433
57	0x3dc93eda	0.09826441
58	0x3d875611	0.06608213
59	0xbdaa530a	-0.0831662
60	0x3da41d95	0.08013455
61	0x3c29d1c9	0.010364958
62	0x3e169d89	0.14708532
63	0x3e1dc7a7	0.15408193
64	0xbe323099	-0.17401351
65	0x3dde0f5c	0.10842773
66	0x3e3b554b	0.18294255
67	0x3dc0b53e	0.09409569
68	0xbd90915c	-0.07058975
69	0xbe1a3601	-0.15059663
70	0x3d61d3a1	0.055133466
71	0xbc35e510	-0.011101976
72	0x3e61f612	0.22066525
73	0xbd92bdb5	-0.0716509
74	0xbdb7412c	-0.089479774
75	0xbcc31a64	-0.023816295
76	0x3c8b56cf	0.017009167
77	0x3dc1ce91	0.094632275
78	0xbea945f8	-0.33061194
79	0xbe73ffab	-0.23827998
80	0x3cb82541	0.022478702
81	0xbd37d9ec	-0.04488556
82	0x3b730d29	0.0037086701
83	0xbe9039c7	-0.2816908
84	0xbd0309b9	-0.031991694
85	0x3d5cfc2e	0.053951435
86	0x3e381fd7	0.17980896
87	0x3c32d95f	0.010916083
88	0xbd1b418d	-0.03790431
89	0x3e81c9fb	0.2534941
90	0xbd8b27e3	-0.06794717
91	0xbe3b2076	-0.18274102
92	0xbd97300f	-0.07382213
93	0x3d7bc014	0.061462477
94	0x3e0d4f8f	0.1379988
95	0x3b5da3e2	0.0033819606
96	0x3dcc0bea	0.0996321
97	0xbe129a2c	-0.14316624
98	0x3e33df8e	0.17565748
99	0xbdef78a1	-0.1169293
100	0x3d996f4f	0.074919336
101	0xbe09cd81	-0.134573
102	0xbe768084	-0.24072462
103	0x3d13f631	0.03612346
104	0xbc2023ca	-0.009774158
105	0xbd8eaeee	-0.06966959
106	0x3dffa702	0.12483026
107	0x3e11a2f5	0.1422232
108	0x3d5c93c8	0.053851873
109	0xbe69a2cf	-0.22816013
110	0xbd92ef8f	-0.071745984
111	0x3dcb3e0a	0.099239424
112	0x3e2c81ae	0.16846344
113	0x3cc32d4b	0.023825308
114	0xbeb69c61	-0.35666183
115	0xbd1e7613	-0.038686823
116	0xbe31a792	-0.17349079
117	0xbe117bc9	-0.14207377
118	0xbe1b611e	-0.15173766
119	0xbe9cb071	-0.30603364
120	0x3de0abde	0.10970281
121	0x3cfa4607	0.03055097
122	0xbb0bb3fc	-0.0021316996
123	0xbe22d5f9	-0.15901937
124	0xbdc530bb	-0.09628435
125	0xbde7dbf5	-0.1132125
126	0x3de03341	0.10947276
127	0xbd2259b7	-0.03963634
128	0xbd12d127	-0.035843994
129	0x3d595ca4	0.053066865
130	0x3db51941	0.088427074
131	0x3de3db22	0.11125781
132	0xbecfff9c	-0.40624702
133	0xbe409076	-0.18805107
134	0xbea9748f	-0.3309674
135	0x3dc0966a	0.09403689
136	0xbe134fc5	-0.14385898
137	0xbf0063d7	-0.50152344
138	0xbeb9d53b	-0.36295494
139	0xbe82bedc	-0.2553624
140	0xbd81d264	-0.06338957
141	0xbea18c46	-0.31552333
142	0xbf019290	-0.5061426
143	0xbedacac9	-0.42732838
144	0xbea61e5f	-0.32445046
145	0x3cc9a4d5	0.02461473
146	0xbe83e9e2	-0.25764376
147	0xbe7c85c7	-0.24660407
148	0xbed58cd3	-0.41709003
149	0xbe4aee87	-0.19817553
150	0xbd9a010b	-0.0751973
151	0xbd68392f	-0.05669516
152	0xbe45656d	-0.19276972
153	0xbe2c6aca	-0.16837612
154	0xbe6da58c	-0.23207682
155	0xbd0da388	-0.034579784
156	0x3ac3366d	0.001489354
157	0xbde47bc0	-0.11156416
158	0xbd9e4edb	-0.07729884
159	0xbe7f957c	-0.24959368
160	0x3da202c4	0.07910684
161	0x3e1323b0	0.14369082
162	0xbd41b5b7	-0.047292437
163	0xbe200074	-0.15625173
164	0x3d1e7e1f	0.038694497
165	0x3e4a01e4	0.19727284
166	0x3e1fa63a	0.15590754
167	0x3db00c5b	0.085961066
168	0x3ce85271	0.028359624
169	0x3d35a824	0.044349805
170	0x3d13575b	0.03597198
171	0xbbc3f59f	-0.005980208
172	0x3d42c3d2	0.04755003
173	0x3e19bb31	0.15012814
174	0xbdabbb29	-0.08385307
175	0x3de0162b	0.10941728
176	0xbe34cf79	-0.1765727
177	0xbe3f3886	-0.18673906
178	0xbe82bdb2	-0.2553535
179	0x3e004411	0.12525965
180	0x3d31c704	0.043402687
181	0xbe832ce6	-0.25620192
182	0x3d0de2a7	0.03463998
183	0xbdb2e952	-0.087359086
184	0x3d80f91c	0.06297514
185	0x3d9a7805	0.07542423
186	0xbda59add	-0.080861785
187	0x3ddb96f5	0.10722152
188	0xbddbae0e	-0.10726558
189	0xbc960484	-0.0183127
190	0xbde9fe38	-0.114254415
191	0x3c983dc7	0.018584145
192	0xbd47c9ec	-0.048776552
193	0x3e07cd62	0.13261941
194	0x3df36312	0.118841305
195	0xbe58f9b6	-0.21189007
196	0x3dd87b13	0.105703495
197	0xbdb5f13b	-0.08883902
198	0x3db0ee70	0.08639228
199	0xbda1c81b	-0.07899495
200	0xbd0fa4ff	-0.035069462
201	0x3e80a88d	0.25128594
202	0x3d37a034	0.044830516
203	0x39d978f3	0.0004147958
204	0x3e156ed9	0.14593066
205	0xbd4d291a	-0.050088026
206	0x3e5cde93	0.2156928
207	0x3e250b1e	0.16117522
208	0x3db986bf	0.09058904
209	0x3e445b48	0.19175446
210	0xbc8081c5	-0.015686879
211	0xbcd138ba	-0.025539745
212	0x3e16cc94	0.14726478
213	0x3db56115	0.088564076
214	0xbd16f442	-0.036854036
215	0xbd8b4c90	-0.068017125
216	0xbd6c39de	-0.057672374
217	0xbd737e31	-0.059446517
218	0xbd813487	-0.06308847
219	0xbe454df2	-0.19268015
220	0xbd500f20	-0.050795674
221	0x3e1eba70	0.15500808
222	0x3de6e15e	0.11273454
223	0xbe16e738	-0.1473664
224	0xbe12ad77	-0.14323984
225	0x3e010777	0.12600504
226	0x3e3dd89f	0.18539666
227	0x3dfafa74	0.122548014
228	0xbda91591	-0.082560666
229	0xbe902f3b	-0.28161034
230	0xbe020b10	-0.12699533
231	0xbe223240	-0.15839481
232	0xbdf0b12c	-0.11752543
233	0xbeadd1be	-0.33949083
234	0xbe186656	-0.14882788
235	0xbd085d1c	-0.03329192
236	0x3db819aa	0.0898927
237	0x3e2f880a	0.17141739
238	0xbd5dc50f	-0.054143008
239	0xbe590eb9	-0.21197022
240	0xbde14224	-0.109989434
241	0xbd66b459	-0.056324337
242	0xbd010465	-0.03149833
243	0xbe7164ba	-0.2357358
244	0x3c496409	0.012291917
245	0x3dfcd18f	0.12344658
246	0xbd2265d3	-0.03964789
247	0x3ded5ada	0.11589594
248	0x3ddfae3e	0.10921906
249	0xbd13fd77	-0.036130395
250	0x3da9d7ed	0.08293138
251	0x3d148870	0.03626293
252	0x3d4b2545	0.04959609
253	0x3e261f96	0.16222987
254	0xbe6503fe	-0.22364804
255	0x3e576dc4	0.21037966

sequential/conv2d_1/Conv2D f4 [64, 5, 5, 32]
0	0xbc93f6a2	-0.01806194
1	0xbcb6ccfc	-0.022314541
2	0x3c9d7bac	0.01922401
3	0x3b27155a	0.0025494904
4	0x3df3c69b	0.11903115
5	0x3d6ee299	0.05832157
6	0xbca0ef67	-0.019645406
7	0x3d4a2c9a	0.04935894
8	0x3da85ca3	0.08220794
9	0x3e778880	0.24173164
10	0x3d83b61c	0.06431219
11	0xbdfecc4c	-0.1244131
12	0x3e20e503	0.15712361
13	0xbd8d2390	-0.06891549
14	0x3e127a34	0.1430443
15	0xbd8ee5b9	-0.0697741
16	0xbdfc951a	-0.12333126
17	0x3d117bac	0.035518333
18	0x3db6734e	0.089087114
19	0xbd5ed9fd	-0.05440711
20	0x3dc822a4	0.09772232
21	0x3db463c7	0.088080935
22	0x3e72e2dd	0.23719354
23	0xbd462f12	-0.048384733
24	0x3e02f531	0.12788846
25	0xbc941f55	-0.018081347
26	0x3d153a2f	0.03643244
27	0xbdbf97ae	-0.093551025
28	0x3d2b284e	0.041786484
29	0xbd83b2c6	-0.06430583
30	0x3d89dc27	0.06731444
31	0xbcc681bd	-0.024231786
32	0xbdb77d90	-0.08959496
33	0xbd42c47a	-0.047550656
34	0xbdc64a72	-0.09682168
35	0xbda570be	-0.080781445
36	0x3bcf679f	0.0063294913
37	0xbc1a5a2e	-0.009420915
38	0xbd8db197	-0.06918638
39	0x3d992e2d	0.074795105
40	0xbddd071d	-0.107923724
41	0xbe239157	-0.15973412
42	0xbdff9290	-0.124791265
43	0x3d730986	0.059335254
44	0xbe49fc56	-0.19725165
45	0xbde8db26	-0.11369924
46	0x3dc990bd	0.0984206
47	0xbdbe17de	-0.09281896
48	0xbbb7af1e	-0.0056055924
49	0x3cf85810	0.030315429
50	0xbdb8b58b	-0.090190016
51	0xba45badf	-0.00075427996
52	0xbdfcf32e	-0.1235107
53	0xbd75e68c	-0.06003432
54	0xbe88121f	-0.26576325
55	0xbdbd8bf7	-0.09255212
56	0xbe644b8a	-0.22294441
57	0x3d219e50	0.03945762
58	0x3d650f9f	0.0559231
59	0x3db88a57	0.09010761
60	0xbd7c2de5	-0.061567206
61	0xbcfc851b	-0.030825188
62	0xbc9ff586	-0.019526254
63	0xbc8f5657	-0.017497225
64	0xbcc2eec4	-0.023795493
65	0x3d9ad6a3	0.0756047
66	0xbd30b82b	-0.043144386
67	0x3d875d81	0.06609631
68	0xbda448a0	-0.080216646
69	0x3db59014	0.08865371
70	0xbca761e7	-0.020432426
71	0xbc8878b1	-0.016659113
72	0xbce478d3	-0.027889645
73	0xbd68f680	-0.056875706
74	0xbd39ebd6	-0.045390926
75	0xbe29fc41	-0.16600133
76	0x3e024e49	0.12725176
77	0x3db3b8d1	0.08775485
78	0xbde01229	-0.10940964
79	0xbda3f483	-0.08005621
80	0xbda4abc7	-0.080405764
81	0x3dccd44e	0.100014314
82	0xbe09412b	-0.13403766
83	0xbcdf41d8	-0.027253076
84	0xbd52157b	-0.051290017
85	0x3d5d87a0	0.05408442
86	0x3dd9c854	0.10633913
87	0xbe01244d	-0.12611504
88	0x3cc2e23d	0.02378952
89	0xbc6bcd78	-0.014392249
90	0x3bae60ce	0.0053215986
91	0xbd34b3f5	-0.044116933
92	0x3b1b6fe2	0.002371781
93	0xbd81e0c9	-0.063417025
94	0x3cee9f74	0.029128768
95	0xbd3ed0de	-0.04658591
96	0x3db93b4d	0.09044514
97	0xbdb51ad2	-0.08843006
98	0xbd91a3e8	-0.07111341
99	0x3dfbed59	0.1230113
100	0xbd897751	-0.06712211
101	0xbe669f11	-0.22521617
102	0xbe07dba5	-0.13267381
103	0x3e41acdb	0.18913595
104	0xbdf903a3	-0.12158897
105	0xbe2b7d5f	-0.16747044
106	0xbe0bc23a	-0.1364831
107	0x3d94b5c4	0.072612315
108	0xbc95ff7d	-0.018310303
109	0x3ae0b025	0.0017142339
110	0xbdc0677b	-0.09394737
111	0x3d100550	0.035161316
112	0x3ccda7c8	0.025104418
113	0xbbac07df	-0.0052499617
114	0xbe19ff33	-0.15038757
115	0x3ca20d13	0.019781625
116	0xbd598346	-0.053103708
117	0xbda97951	-0.082750924
118	0xbe4f7ec0	-0.20263195
119	0xbe9b8eef	-0.30382487
120	0x3d1a0827	0.03760543
121	0x3b1a13b1	0.0023510272
122	0x3deece86	0.11660485
123	0xbdd21d30	-0.10259473
124	0x3db87b4d	0.09007893
125	0x3d39ac90	0.045330584
126	0x3e07f781	0.13278009
127	0xbe1f1d4e	-0.15538523
128	0x3d566606	0.05234339
129	0xbbd444ce	-0.0064779287
130	0xbd3cf6e1	-0.04613388
131	0x3d9ef675	0.07761852
132	0x3e1496c5	0.14510639
133	0xbeb24529	-0.3481839
134	0x3c3b7012	0.011440294
135	0x3c9103c4	0.01770199
136	0xbb852576	-0.0040633036
137	0xbdf71d29	-0.12066109
138	0xbd47abb1	-0.048747722
139	0x3d99794c	0.07493839
140	0x3e04468d	0.12917538
141	0x3d9ebc3e	0.07750748
142	0xbe16feef	-0.14745687
143	0x3d8859a4	0.066577226
144	0x3dadbf7c	0.08483788
145	0xbdfea36d	-0.12433515
146	0xbdc3c01c	-0.09558126
147	0xbbf7f319	-0.0075668213
148	0x3dc149bd	0.094378926
149	0xbe069eea	-0.13146558
150	0xbe378f44	-0.17925745
151	0xbdb7ff5d	-0.089842536
152	0xbd2b2c3a	-0.041790225
153	0x3ddb959c	0.10721895
154	0xbdbbdfa0	-0.091735125
155	0xbd478607	-0.048711803
156	0xbe35a2a6	-0.17737827
157	0xbe07218a	-0.13196388
158	0x3dd063d6	0.10175292
159	0x3da286fb	0.07935902
160	0xbd18fe35	-0.037351806
161	0x3d37adcd	0.044843484
162	0xbc9da8b0	-0.019245476
163	0x3d654eb1	0.05598325
164	0x3bc000da	0.0058594765
165	0xbe1439d0	-0.14475179
166	0x3d7c81aa	0.061647095
167	0x3d2d1c18	0.04226312
168	0x3bc29911	0.005938657
169	0x3e570735	0.20998843
170	0xbd3a1c2d	-0.045437027
171	0xbdecaa64	-0.11555937
172	0xbc8a9d69	-0.016920762
173	0xbdbd33e1	-0.09238411
174	0xbc163316	-0.009167453
175	0x3cd3cc06	0.025854122
176	0xbe145166	-0.14484176
177	0xbd74c130	-0.05975455
178	0x3d27d56d	0.040975023
179	0xbd359069	-0.044327173
180	0x3d865015	0.06558243
181	0x3e2b1edb	0.16710989
182	0xbd9bb396	-0.07602613
183	0xbd83b92e	-0.064318046
184	0xbd3790f8	-0.044815987
185	0xbde8c18d	-0.11365042
186	0x3d3efeb8	0.046629637
187	0xbdb40681	-0.08790303
188	0xbdd42781	-0.10359097
189	0xbe6afe53	-0.2294858
190	0xbd9da23d	-0.0769696
191	0x3b0949cd	0.002094853
192	0xbe0ce4b8	-0.13759124
193	0x3d8a6cd8	0.067590415
194	0xbd6e4edf	-0.058180686
195	0xbd03d513	-0.032185625
196	0x3e54c8d9	0.20779742
197	0xbe674241	-0.22583868
198	0xbd33c683	-0.043890487
199	0xbd1d7a67	-0.03844681
200	0xbd36d4a7	-0.044636395
201	0xbdaa15dc	-0.083049506
202	0x3b4c6ae6	0.0031191646
203	0xbdac64ee	-0.08417688
204	0x3d12675f	0.035743114
205	0xbda93017	-0.082611255
206	0xbe030390	-0.12794328
207	0xbd5970c2	-0.05308605
208	0xbda73912	-0.08165182
209	0xbcb9674f	-0.02263227
210	0xbde1b50e	-0.110208616
211	0x3d8847d4	0.06654325
212	0xbe09048a	-0.13380638
213	0xbd1dcfe0	-0.038528323
214	0xbc6cec70	-0.014460668
215	0xbce853a1	-0.02836019
216	0xbca9f37f	-0.02074599
217	0xbc2d5baa	-0.010580936
218	0xbd136afa	-0.035990693
219	0x3d7d7a04	0.06188394
220	0xbcd5c219	-0.02609353
221	0xbdab3fd9	-0.08361787
222	0xbc9a8350	-0.018861443
223	0xbc726b88	-0.014796145
224	0xbe1db4a8	-0.15400946
225	0xbd0b5147	-0.03401306
226	0xbdbabff2	-0.09118642
227	0xbb95d0d8	-0.0045720153
228	0x3d794e5f	0.060865756
229	0x3e4c0b3b	0.19926159
230	0x3c844df3	0.01615045
231	0x3cb0e25f	0.021592317
232	0xbc12927c	-0.008946057
233	0x3dfbe505	0.122995414
234	0xbc2c3ec6	-0.010513013
235	0xbe1748c0	-0.14773846
236	0x3d9c797d	0.076403596
237	0x3d80ee5a	0.06295462
238	0x3dc37309	0.095434256
239	0xbdbbb083	-0.09164526
240	0xbdcc6a95	-0.099812664
241	0xbe12b1a3	-0.14325576
242	0xbc3e4736	-0.011613658
243	0x3d5eb3d6	0.054370724
244	0xbd38d9c7	-0.045129564
245	0xbb6efb25	-0.0036465612
246	0x3dcb0849	0.0991369
247	0xbcdab5cd	-0.026698017
248	0xbc86a2cf	-0.016435055
249	0xbd8662fc	-0.065618485
250	0x3c3012ba	0.010746652
251	0xbd90254f	-0.07038366
252	0x3d5e0d97	0.05421218
253	0x3d8502a6	0.06494646
254	0xbdcd4dac	-0.1002458
255	0xbd850da1	-0.0649674

sequential/lstm/Read_2/ReadVariableOp f4 [32]
0	0x3e4d5748	0.20052826
1	0xbc10031f	-0.008789807
2	0xbd9920ce	-0.0747696
3	0x3dac512f	0.08413922
4	0x3ce59b13	0.028028047
5	0xbdcfbaa8	-0.10143024
6	0x3e15d888	0.14633381
7	0x3c8d6157	0.01725833
8	0x3f82e2c6	1.0225456
9	0x3f867fed	1.050779
10	0x3fa54d03	1.2914127
11	0x3f863fd5	1.048823
12	0x3f915574	1.1354203
13	0x3f909528	1.1295519
14	0x3f8e301a	1.110843
15	0x3f85c08a	1.0449383
16	0xbd8315a7	-0.06400614
17	0xbdd6393c	-0.10460135
18	0xbddf8984	-0.10914901
19	0xbdf3e4fd	-0.119089104
20	0xbdd3703c	-0.103241414
21	0xbdc0d14c	-0.0941492
22	0xbdbd78d5	-0.092515625
23	0x3d989849	0.07450921
24	0x3e3215b3	0.1739109
25	0x3e826df1	0.25474504
26	0x3e9d7a48	0.30757356
27	0x3e91170d	0.283379
28	0x3e9f1ae1	0.31075194
29	0x3e26bf01	0.162838
30	0x3e94e393	0.29079875
31	0x3e64e457	0.2235273

sequential/batch_normalization/FusedBatchNormV3 f4 [32]
0	0x4015898f	2.336521
1	0x411acca6	9.674963
2	0x3f35f113	0.71070975
3	0x40d0aa6c	6.5208035
4	0x41504299	13.016259
5	0x41d060f8	26.047348
6	0x402ffff4	2.7499971
7	0x41107eec	9.030987
8	0x3f7996de	0.9749583
9	0x41161a57	9.381431
10	0x4012df74	2.2948885
11	0x3fe87618	1.8161039
12	0x40b367be	5.606414
13	0x401fd1d5	2.4971821
14	0x4181d597	16.229292
15	0x402e019f	2.718849
16	0x3fe6505d	1.7993275
17	0x41bac3dd	23.345636
18	0x404a441c	3.160407
19	0x411bf250	9.746658
20	0x3fda311c	1.7046237
21	0x40627986	3.5386672
22	0x410f5faf	8.96086
23	0x40ffce77	7.993953
24	0x40431780	3.0483093
25	0x40bb32f3	5.8499694
26	0x40a79db9	5.2380033
27	0x404604da	3.094046
28	0x40a7ae52	5.2400293
29	0x41818fb2	16.195164
30	0x40b8057a	5.7506685
31	0x40591825	3.3920987

sequential/batch_normalization/FusedBatchNormV31 f4 [32]
0	0xbe0b8460	-0.13624716
1	0x3bad5da0	0.005290702
2	0xbde1475a	-0.10999937
3	0xbe30bd06	-0.17259607
4	0xbedc45ae	-0.4302191
5	0xbf467d5f	-0.7753505
6	0xbe9ceb7c	-0.3064841
7	0xbf943529	-1.1578723
8	0xbda3c7f5	-0.07997123
9	0xbea95408	-0.33071923
10	0xbe8de893	-0.27716503
11	0xbd574c20	-0.052562833
12	0xbef05adc	-0.4694432
13	0xbe396980	-0.18106651
14	0xbe5c6250	-0.21521878
15	0xbdd3d0c0	-0.1034255
16	0xbde94a59	-0.11391134
17	0xbeba6db1	-0.36411813
18	0xbe63ceb7	-0.22246824
19	0xbf912a64	-1.1341062
20	0xbdf200d6	-0.11816566
21	0xbe66fc78	-0.22557247
22	0xbde5b292	-0.112157
23	0xbf13a6b0	-0.5767622
24	0xbd249ee2	-0.040190585
25	0xbdef8c1c	-0.116966456
26	0xbeedadde	-0.46421713
27	0x3d0e6a4c	0.03476934
28	0xbe7677d7	-0.24069153
29	0xbf2727f1	-0.6529532
30	0xbf1b1b8c	-0.6058891
31	0xbefe33d4	-0.49648917

sequential/batch_normalization_1/FusedBatchNormV3 f4 [64]
0	0x3f7685c2	0.9629785
1	0x3f2de844	0.67932534
2	0x3ea8f4e8	0.3299935
3	0x3eaed804	0.34149182
4	0x3d6750e0	0.056473613
5	0x3ead12d1	0.33803418
6	0x3eeccca9	0.46249893
7	0x3ed28c7b	0.41122803
8	0x3f530b7b	0.8243939
9	0x3edd25bc	0.43192852
10	0x3ee4b5fa	0.44670087
11	0x3f085969	0.5326143
12	0x3f17dd80	0.5932236
13	0x3e854d93	0.26035747
14	0x3d2f2426	0.042759083
15	0x3f2ecd6d	0.68282205
16	0x3cff8930	0.031193346
17	0x3ebef6c4	0.37297642
18	0x3e6a0dbc	0.22856802
19	0x3daf3d45	0.08556608
20	0x3d9e00e5	0.07715014
21	0x3e7bf4d8	0.24605119
22	0x3f3ea66b	0.74472684
23	0x3feb0b9d	1.8362919
24	0x3fa19315	1.2623011
25	0x3dc2cc6d	0.095116474
26	0x3f906309	1.1280223
27	0x3ec80ebe	0.39073747
28	0x3d943159	0.07235975
29	0x3f141dba	0.5785786
30	0x3f6ef33c	0.93339896
31	0x3f916680	1.1359406
32	0x3f2f8523	0.68562526
33	0x3e7554f8	0.23958194
34	0x3eb1046b	0.34573683
35	0x3cf3dd19	0.029768514
36	0x3e544701	0.20730211
37	0x3f0929f0	0.53579617
38	0x3e9e775e	0.30950445
39	0x3f11e3e3	0.5698835
40	0x3f0c4ac4	0.54801583
41	0x3fa1d8b8	1.2644262
42	0x3f0b6624	0.5445273
43	0x3f21d291	0.63211924
44	0x3f63ff8a	0.89061797
45	0x3ec7c2a9	0.390157
46	0x3e85e81d	0.2615365
47	0x3d2d780e	0.04235082
48	0x3f2a9f11	0.66648966
49	0x3e4f5e77	0.20250879
50	0x3f11f9e9	0.5702196
51	0x3e356b5c	0.17716736
52	0x3ead8036	0.3388688
53	0x3d37e3d0	0.044894993
54	0x3faf0eb5	1.3676363
55	0x3f04c1fc	0.51858497
56	0x3f6de047	0.92920345
57	0x3f4ca54e	0.79939735
58	0x3fa96153	1.3232826
59	0x3d0e91e6	0.03480711
60	0x3e1ba910	0.15201211
61	0x3f991a52	1.1961157
62	0x3f0a741d	0.54083425
63	0x3d70c1b6	0.058778487

sequential/batch_normalization_1/FusedBatchNormV31 f4 [64]
0	0xbe9c77a5	-0.30560032
1	0xbf6283e0	-0.88482475
2	0xbe8cc688	-0.27495217
3	0xbe5565f0	-0.20839667
4	0xbdb0b976	-0.08629124
5	0xbebb0cd6	-0.3653323
6	0xbd97fb5f	-0.07420992
7	0xbe7abb40	-0.24485493
8	0xbe014079	-0.1262225
9	0xbea4d6e9	-0.32195213
10	0xbdc5458c	-0.09632406
11	0xbec9d6aa	-0.39421588
12	0xbec131bc	-0.37733257
13	0xbeaac72a	-0.33355075
14	0xbe199d6d	-0.1500146
15	0xbe642910	-0.22281289
16	0xbdbb0585	-0.09131912
17	0xbe23e738	-0.16006172
18	0xbdfaed56	-0.122522995
19	0xbe424865	-0.18972929
20	0xbdaebb81	-0.08531857
21	0xbd6f142e	-0.058368854
22	0xbd9eca9c	-0.077534884
23	0xbed4091e	-0.41413206
24	0xbee08399	-0.438504
25	0xbce82170	-0.028336257
26	0xbe169ba0	-0.14707804
27	0xbe96a517	-0.2942283
28	0xbe533fb2	-0.20629767
29	0xbe8ec103	-0.2788163
30	0xbf080ac8	-0.5314145
31	0xbeef7b5c	-0.46773803
32	0xbee37bf6	-0.44430512
33	0xbe34fe44	-0.1767512
34	0xbca85260	-0.020547092
35	0xbdc4b4c7	-0.09604793
36	0xbeb1a253	-0.34694156
37	0xbe9bb6b8	-0.3041284
38	0xbea2489b	-0.3169602
39	0xbe835fd7	-0.25659057
40	0xbdbdfe83	-0.0927706
41	0xbe98f3d5	-0.2987353
42	0xbedd555c	-0.43229187
43	0xbee81e5f	-0.4533567
44	0xbd5324c0	-0.05154872
45	0xbdc06ac9	-0.09395368
46	0xbdcb0ed8	-0.099149406
47	0xbe23068d	-0.15920468
48	0xbde6ea61	-0.11275173
49	0xbdd0f5cc	-0.10203132
50	0xbe200c6b	-0.15629737
51	0xbedf08a8	-0.43561292
52	0xbe30669f	-0.17226647
53	0xbe3a6b38	-0.18204963
54	0xbdc58b86	-0.096457526
55	0xbe1abad7	-0.15110336
56	0xbd856f48	-0.06515366
57	0xbe45d29c	-0.19318622
58	0xbe8aec91	-0.2713361
59	0xbde689fe	-0.11256789
60	0xbeb2d834	-0.34930575
61	0xbe9d9d73	-0.30784187
62	0xbe19918d	-0.1499693
63	0xbd80522c	-0.06265673

sequential/dense/MatMul f4 [1, 8]
0	0xbfa15fcf	-1.2607363
1	0x3fc28a9c	1.519855
2	0x3fad8707	1.3556832
3	0x3fcad47d	1.5846096
4	0x3f9fe06b	1.2490362
5	0x3fe5395d	1.7908131
6	0x3fcc35ce	1.595392
7	0xbfaba4cf	-1.340967

sequential/lstm/Read_2/ReadVariableOp1 f4 [32]
0	0x3e4d5748	0.20052826
1	0xbc10031f	-0.008789807
2	0xbd9920ce	-0.0747696
3	0x3dac512f	0.08413922
4	0x3ce59b13	0.028028047
5	0xbdcfbaa8	-0.10143024
6	0x3e15d888	0.14633381
7	0x3c8d6157	0.01725833
8	0x3f82e2c6	1.0225456
9	0x3f867fed	1.050779
10	0x3fa54d03	1.2914127
11	0x3f863fd5	1.048823
12	0x3f915574	1.1354203
13	0x3f909528	1.1295519
14	0x3f8e301a	1.110843
15	0x3f85c08a	1.0449383
16	0xbd8315a7	-0.06400614
17	0xbdd6393c	-0.10460135
18	0xbddf8984	-0.10914901
19	0xbdf3e4fd	-0.119089104
20	0xbdd3703c	-0.103241414
21	0xbdc0d14c	-0.0941492
22	0xbdbd78d5	-0.092515625
23	0x3d989849	0.07450921
24	0x3e3215b3	0.1739109
25	0x3e826df1	0.25474504
26	0x3e9d7a48	0.30757356
27	0x3e91170d	0.283379
28	0x3e9f1ae1	0.31075194
29	0x3e26bf01	0.162838
30	0x3e94e393	0.29079875
31	0x3e64e457	0.2235273

while/MatMul_11 f4 [32, 8]
0	0xbe12cbcb	-0.14335553
1	0xbee7bde0	-0.4526205
2	0xbecc50e3	-0.39905462
3	0x3e7606a7	0.24025975
4	0xbe1e8394	-0.1547988
5	0xbea8c851	-0.3296533
6	0xbe541681	-0.2071171
7	0x3dcf092c	0.10109171
8	0xbd4429bb	-0.04789136
9	0xbdb89ac1	-0.09013892
10	0xbebc19d4	-0.36738455
11	0xbe48d764	-0.19613415
12	0x3d876a80	0.0661211
13	0xbe240119	-0.16016044
14	0xbe888bf2	-0.2666927
15	0xbd793737	-0.060843673
16	0x3e08e991	0.13370349
17	0x3d800d03	0.06252482
18	0xbeb23698	-0.34807277
19	0xbef5c581	-0.48002246
20	0xbee27ea6	-0.4423725
21	0xbe610e31	-0.2197807
22	0xbec6b4be	-0.3880977
23	0x3ec05356	0.3756358
24	0x3e70c1b3	0.2351139
25	0x3e320608	0.17385113
26	0x3f276b75	0.6539834
27	0xbe8376d5	-0.256766
28	0xbec75f50	-0.38939905
29	0x3e29129b	0.16511004
30	0x3c25b839	0.010114723
31	0x3f7b7c7b	0.9823682
32	0x3e011550	0.12605786
33	0x3d08292f	0.0332424
34	0x3d2908bc	0.041268095
35	0x3e46bbc5	0.19407566
36	0xbd583e5b	-0.05279384
37	0xbbb4d24c	-0.0055182334
38	0xbdbc77a9	-0.09202511
39	0x3ecd0f9a	0.40050966
40	0xbe1a8efd	-0.15093608
41	0x3ec493a0	0.3839388
42	0x3e730ec3	0.237361
43	0xbd814a29	-0.06312973
44	0xbeb227d4	-0.3479601
45	0x3ddef8df	0.10887312
46	0xbd277147	-0.040879514
47	0xbd6dd462	-0.058063872
48	0x3d64f224	0.055894986
49	0xbeb0fb8b	-0.34566912
50	0xbeabd529	-0.33561066
51	0xbd0b5ed5	-0.034025986
52	0x3d4ca334	0.04996033
53	0xbe810992	-0.25202614
54	0x3cefd1e9	0.029274898
55	0xbd4e08d7	-0.0503014
56	0x3bcbeec4	0.0062235314
57	0xbe9b58f5	-0.30341306
58	0x3d58918b	0.052873176
59	0xbf0a60ac	-0.5405376
60	0xbf0b43a7	-0.54400104
61	0xbde90e07	-0.11379629
62	0xbf04f499	-0.51935726
63	0x3f112fa7	0.56713337
64	0xbd1688d8	-0.036751598
65	0xbd76f7d9	-0.06029496
66	0xbe10ff64	-0.14159924
67	0x3da381aa	0.07983716
68	0xbea4a0fb	-0.32154068
69	0xbf0397a2	-0.5140325
70	0xbed2ad3a	-0.41147786
71	0xbe12237c	-0.14271349
72	0x3cf9da83	0.030499702
73	0x3e4924bd	0.19642921
74	0xbf0d3c46	-0.55170095
75	0x3e89bb30	0.26900625
76	0xbe528556	-0.20558676
77	0x3e2536d5	0.16134198
78	0x3bd4c364	0.006493019
79	0x3ed46a9e	0.41487592
80	0xbe19d961	-0.1502433
81	0x3e95bc15	0.29245058
82	0xbed02a02	-0.4065705
83	0x3ed28271	0.41115144
84	0x3e0531c2	0.13007262
85	0xbb3307dd	-0.002731792
86	0xbe809520	-0.25113773
87	0xbe4e5b8e	-0.20152113
88	0xbf15bb75	-0.5848916
89	0xbd58afc1	-0.052901987
90	0xbe34d5e2	-0.17659715
91	0xbe2a3896	-0.16623148
92	0xbd3b8e4a	-0.045789994
93	0x3e5b62e2	0.2142444
94	0x3f14923a	0.58035624
95	0x3d929a73	0.07158365
96	0xbee512eb	-0.44740996
97	0x3e1172b2	0.14203909
98	0x3ccf6f9d	0.025321776
99	0xbee4249c	-0.4455918
100	0xbdfa9676	-0.122357294
101	0x3e148105	0.14502342
102	0x3e611ab3	0.21982841
103	0xbe83e6ac	-0.25761926
104	0xbd586ecc	-0.05284004
105	0xbd053b7c	-0.03252743
106	0xbf0bf3af	-0.54668707
107	0xbd3c9d32	-0.04604835
108	0x3e0d68c9	0.13809504
109	0x3dbeb2e3	0.09311464
110	0xbcea56ac	-0.028605781
111	0x3d94212e	0.07232891
112	0xbb530182	-0.0032196944
113	0xbd49f3b3	-0.049304675
114	0xbdd815f6	-0.10551064
115	0x3e5e60be	0.21716592
116	0x3dc8b152	0.09799446
117	0xbe970087	-0.2949259
118	0x3df84ee8	0.12124425
119	0xbe619ce6	-0.22032508
120	0xbebdc17b	-0.37061676
121	0x3db57b99	0.08861465
122	0x3ed19246	0.4093191
123	0x3e994800	0.29937744
124	0x3e2d4253	0.16919832
125	0x3e9ebbf7	0.3100278
126	0x3e96b04c	0.2943138
127	0xbcdf685a	-0.027271438
128	0x3dc193c8	0.09452015
129	0xbf0b9eb8	-0.5453906
130	0xbf06f71e	-0.5272082
131	0xbf60c8da	-0.87806475
132	0xbf7e97e2	-0.99450505
133	0xbe901dd3	-0.28147754
134	0xbf33b446	-0.7019695
135	0x3f078e5b	0.5295159
136	0x3d87f3cc	0.066382974
137	0xbdf2f5a0	-0.118632555
138	0x3f19939e	0.5999087
139	0x3ebe26e2	0.3713904
140	0x3f19ddf7	0.60104316
141	0x3e0b72ac	0.13617963
142	0x3ee4a708	0.44658685
143	0xbec27242	-0.37977797
144	0x3e4fed9c	0.20305485
145	0x3ea15397	0.31509086
146	0xbe1b7878	-0.15182674
147	0xbd888925	-0.06666783
148	0xbd09ae8c	-0.033613726
149	0xbe5ccf14	-0.21563369
150	0x3e067f4f	0.13134502
151	0x3eaae56f	0.3337817
152	0x3e85b62f	0.26115558
153	0x3f194c6e	0.5988225
154	0x3f374559	0.7159019
155	0xbe84ac7b	-0.25912842
156	0xbd98b2c2	-0.0745597
157	0x3e8c5bbc	0.27413738
158	0x3e907a1b	0.2821816
159	0xbe589ab6	-0.21152768
160	0x3e862a1b	0.26204
161	0x3ec8c61c	0.39213645
162	0x3f327bf8	0.6972041
163	0x3ecadb35	0.39620367
164	0xbe1c946a	-0.1529099
165	0x3ee76fe2	0.45202547
166	0x3c698cf3	0.014254796
167	0xbe554ec3	-0.20830826
168	0x3ed4896a	0.4151109
169	0x3ec506f2	0.3848186
170	0x3f3e039e	0.7422427
171	0x3f4ee652	0.8082019
172	0x3f1a05ac	0.60164905
173	0x3dc4f9c8	0.096179545
174	0x3eafb38d	0.34316674
175	0xbf18d903	-0.59706134
176	0x3efdbf17	0.49559852
177	0x3f219b5c	0.63127685
178	0x3f6b5a20	0.91934395
179	0x3eeaa8ca	0.458319
180	0x3f2db860	0.6785946
181	0x3ef652bc	0.48109996
182	0xbe48b480	-0.19600105
183	0xbe7a5792	-0.24447468
184	0xbf0d8283	-0.5527727
185	0xbf02ffdd	-0.51171666
186	0xbf26ee36	-0.6520723
187	0xbe403b5a	-0.18772641
188	0xbe458db0	-0.1929233
189	0xbe7b01c2	-0.2451239
190	0xbd95aa58	-0.07307881
191	0xbe287116	-0.16449389
192	0x3daa880b	0.083267294
193	0xba5325da	-0.00080546516
194	0x3ef853c3	0.48501405
195	0xbd178f94	-0.03700216
196	0xbc8ce39b	-0.017198374
197	0x3e6c99f3	0.23105602
198	0xbdf5369a	-0.11973305
199	0xbd3bf59c	-0.04588853
200	0x3e911483	0.28335962
201	0xbddeae2c	-0.108730644
202	0xbe3cc17d	-0.18433185
203	0x3e5a286b	0.2130448
204	0x3e764efb	0.24053566
205	0xbd5bcfcd	-0.05366497
206	0xbe56071e	-0.20901152
207	0xbc4e344d	-0.012585712
208	0xbe320170	-0.17383361
209	0xbe7a8054	-0.24463016
210	0xbe8c5cef	-0.27414653
211	0x3e69c8c8	0.22830498
212	0x3e1338ca	0.14377132
213	0x3e963468	0.29336858
214	0xbe41fbe4	-0.18943745
215	0x3cdbaee8	0.0268168
216	0xbe85c1a9	-0.26124313
217	0x3e24c3f3	0.16090374
218	0xbe769bb4	-0.24082834
219	0xbef437da	-0.4769886
220	0x3e6b7769	0.2299477
221	0x3e8ea476	0.2785985
222	0x3eac910d	0.33704415
223	0x3d934511	0.07190908
224	0x3e43436d	0.1906869
225	0xbe29255a	-0.16518155
226	0x3cdea168	0.027176574
227	0x3e29d3e6	0.16584739
228	0xbec97e0c	-0.3935398
229	0x3ddb503c	0.10708663
230	0xbd6ede01	-0.05831719
231	0xbebb7f01	-0.36620334
232	0x3daf2c0f	0.085533254
233	0x3d48aa6b	0.04899065
234	0xbd958a87	-0.073018126
235	0xbc2912d3	-0.010319429
236	0x3dc1ca56	0.09462421
237	0xbd3d79de	-0.0462588
238	0x3d5010d7	0.05079731
239	0xbe2ef5bb	-0.17085926
240	0x3dfeb25c	0.12436363
241	0x3cdaca38	0.026707754
242	0x381af5d3	3.6945403e-05
243	0x3df46684	0.11933616
244	0x3e952f0d	0.2913746
245	0xbc4a5636	-0.012349656
246	0xbe1fe904	-0.15616232
247	0xbe0de040	-0.13855076
248	0xbe08b034	-0.13348466
249	0xbde39ab8	-0.11113495
250	0x3d130dac	0.03590171
251	0x3de9f6b4	0.11424008
252	0xbe04cc7b	-0.12968628
253	0x3e18f5c7	0.14937507
254	0x3ee99698	0.45622706
255	0x3e53bf3d	0.2067842

while/MatMul f4 [32, 512]
0	0xbdf806ca	-0.1211067
1	0x3b9ee4b4	0.004849041
2	0x3e006b5e	0.12540957
3	0xbe033b68	-0.1281563
4	0x3d8b02a0	0.0678761
5	0x3d1ec848	0.03876522
6	0x3dac8cd1	0.08425296
7	0xbe15871e	-0.14602324
8	0x3d526c82	0.051373012
9	0x3e3f2bae	0.18669006
10	0x3e98901c	0.29797447
11	0xbe3daab4	-0.1852215
12	0x3af6041c	0.0018769535
13	0xbe5ee88b	-0.21768396
14	0xbd2be336	-0.041964732
15	0x3e163889	0.14670004
16	0xbda0a9bd	-0.07844875
17	0x3d8de1d9	0.06927843
18	0x3b6cdfe2	0.0036144187
19	0xbd1ad9c5	-0.037805337
20	0xbd960c1b	-0.07326528
21	0x3c09699e	0.0083869975
22	0x3de0a667	0.10969239
23	0xbddb0fce	-0.10696374
24	0xbe2f6177	-0.17127024
25	0xbd442a83	-0.047892105
26	0x3d582845	0.05277278
27	0xbe0e38ca	-0.13888851
28	0xbe01338b	-0.12617318
29	0xbd7c88e1	-0.061653975
30	0xbd8e29b5	-0.06941549
31	0xbd332c63	-0.043743502
32	0x3e1641f8	0.14673603
33	0xbdccaaf1	-0.09993542
34	0x3dcf9ef8	0.10137743
35	0xbd3376f0	-0.0438146
36	0xba1ad4c7	-0.000590634
37	0xbb42c2d9	-0.002971819
38	0xbc8aa2c0	-0.016923308
39	0x3eb61d8a	0.35569412
40	0x3d9dbb7b	0.07701775
41	0x3e9aff36	0.30272835
42	0x3d8a0e2b	0.067409836
43	0xbd23712c	-0.03990285
44	0x3e811df9	0.2521818
45	0x3dfe0cd0	0.124047875
46	0xbd28a1d5	-0.04116996
47	0xbd623aab	-0.05523173
48	0x3dc291f2	0.09500493
49	0x3dc6448f	0.09681045
50	0x3dd51517	0.10404413
51	0x3d1432d6	0.036181293
52	0x3ccb3064	0.024803348
53	0xbdddb678	-0.10825819
54	0xbdaf31aa	-0.085543945
55	0x3ddd1e25	0.10796765
56	0xbe349f41	-0.17638876
57	0x3c6836ea	0.014173249
58	0x3e125164	0.1428886
59	0xbdd88f0d	-0.1057416
60	0xbe14e852	-0.14541748
61	0x3e5ca741	0.21548177
62	0x3e8af2b0	0.2713828
63	0xbd13b97b	-0.03606556
64	0xbd985957	-0.07438915
65	0x3d41614c	0.04721193
66	0x3cae8126	0.021301817
67	0xbbbd86b9	-0.0057838825
68	0x3de75067	0.112946324
69	0xbe54379f	-0.20724343
70	0x3dc076ff	0.09397697
71	0x3b7c7d7f	0.003852695
72	0xbd1a56ac	-0.037680313
73	0xbd336cb7	-0.04380485
74	0x3dccb69e	0.09995769
75	0xbe50a1f6	-0.20374283
76	0xbe7e9604	-0.24861914
77	0xbbd77340	-0.006575018
78	0x3d325955	0.043542225
79	0xbe8726aa	-0.26396686
80	0x3d31111b	0.043229204
81	0x3c535bf0	0.012900338
82	0xbdbfeef2	-0.09371747
83	0xbe4f128e	-0.20221922
84	0x3e14c23d	0.14527221
85	0x3e27d475	0.1638964
86	0xbd26d83e	-0.04073357
87	0x3d0a0747	0.033698346
88	0x3dbeef10	0.09322941
89	0x3d30c086	0.043152355
90	0x3b768042	0.0037613069
91	0xbe6772cc	-0.22602385
92	0xbdaa317e	-0.08310221
93	0x3da651ed	0.08121095
94	0xbe27561b	-0.1634144
95	0x3d9abfee	0.07556139
96	0x3e1afda8	0.15135825
97	0xbbbd9265	-0.005785274
98	0x3af7104e	0.0018849464
99	0xbd9c29f2	-0.07625188
100	0x3d8a7195	0.06759945
101	0x3e8838a8	0.26605725
102	0x3d281934	0.04103966
103	0x3d9ced9d	0.07662509
104	0xbdc2bcaa	-0.09508641
105	0x3ac33ca3	0.001489539
106	0x3d4a0532	0.04932136
107	0xbc919d89	-0.017775314
108	0x3d1047e9	0.03522483
109	0xbe3cfa84	-0.18454939
110	0x3d184c1b	0.037181955
111	0xbd312401	-0.043247227
112	0x3bf0764b	0.0073383204
113	0xbd45e73f	-0.048316237
114	0xbcfe54b2	-0.031046245
115	0xbdb5714a	-0.08859499
116	0xbd2ab7be	-0.041679136
117	0xbe0e8aed	-0.13920183
118	0xbdc17cae	-0.09447609
119	0x3dcf33aa	0.10117276
120	0xbd89e946	-0.067339465
121	0xbded02f2	-0.115728274
122	0xbd401496	-0.046894632
123	0x3d10a843	0.035316717
124	0xbd955e1d	-0.07293341
125	0xbc7bafca	-0.015361736
126	0x3e50704c	0.20355338
127	0x3e364da0	0.17803049
128	0x3c89eb5c	0.01683586
129	0x3ad2ef93	0.0016093127
130	0xbdb0a9f3	-0.08626165
131	0xbd935037	-0.07193034
132	0xbcada89a	-0.02119856
133	0xbe0ae8fe	-0.13565442
134	0xbd964890	-0.07338059
135	0x3d954731	0.07288969
136	0xbdca1950	-0.09868109
137	0x3d9eddd7	0.07757156
138	0x3e87f1d2	0.26551682
139	0xbd555923	-0.05208696
140	0x3de5936f	0.11209761
141	0x3e096116	0.13415942
142	0xbcafbe1b	-0.021452954
143	0xbd29bc49	-0.04143933
144	0x3d7664b8	0.060154647
145	0xbd2168fe	-0.03940677
146	0x3e98d772	0.29851872
147	0x3e0f8f5f	0.14019535
148	0xbd9a1fbd	-0.07525585
149	0xbe848248	-0.25880647
150	0xbc809456	-0.015695732
151	0x3e3ebf9a	0.18627778
152	0xbd9461ae	-0.072451934
153	0x3c3ff3b0	0.0117158145
154	0x3de1a729	0.110182114
155	0x3c6861e3	0.014183494
156	0x3c97d49f	0.018534003
157	0xbd82eba7	-0.06392603
158	0xbd3e3696	-0.046438776
159	0xbd34a11f	-0.04409897
160	0xbe104994	-0.14090568
161	0xbd2fc32f	-0.04291075
162	0x3d588fab	0.052871387
163	0xbd498730	-0.04920119
164	0x3e7bc0e0	0.24585295
165	0xbd4466d8	-0.047949642
166	0x3ca371fb	0.019951811
167	0xbe2bef7b	-0.16790573
168	0xbd1189cc	-0.035531804
169	0xbaeb4279	-0.0017948888
170	0xbd6ced98	-0.057843775
171	0xbc598db8	-0.013278417
172	0x3d4e18ff	0.050316807
173	0x3d6cc6b9	0.057806704
174	0xbcf647ba	-0.030063499
175	0x3dd32907	0.1031056
176	0x3e70e9ef	0.23526739
177	0x3d10c5d3	0.03534491
178	0x3e03167e	0.12801549
179	0xbd119ac8	-0.035548
180	0xbc299ee4	-0.010352824
181	0x3dac56a3	0.08414962
182	0x3dd61ad9	0.104543395
183	0xbd91f708	-0.071271956
184	0x3df02686	0.11726098
185	0xbe4fa986	-0.20279512
186	0x3d3ecd8e	0.04658275
187	0xbcc1a1c5	-0.023636708
188	0x3e2c1c3f	0.1680765
189	0x3e4b64f9	0.19862737
190	0xbd0442b7	-0.032290187
191	0x3c2eea68	0.010676004
192	0xbd301ae0	-0.04299438
193	0x3dda6a7a	0.1066484
194	0xbe734b85	-0.23759277
195	0x3e2d0b63	0.16898875
196	0x3e24a6bd	0.1607923
197	0x3df7f20c	0.12106714
198	0xbcaa182d	-0.020763481
199	0x3d9ec3a9	0.07752163
200	0x3deaf385	0.11472229
201	0x3d373ad5	0.04473384
202	0x3d3cbd5e	0.046079032
203	0xbda91d1b	-0.082575046
204	0x3ca2fe93	0.019896781
205	0xbe168d8f	-0.14702438
206	0x3b3089fc	0.0026937714
207	0xbe820b0d	-0.25399056
208	0xbced4bb8	-0.02896677
209	0xbd9d9e35	-0.07696191
210	0x3e405fca	0.1878654
211	0x3db3cedf	0.08779692
212	0xbd37736c	-0.04478781
213	0xbe349fc1	-0.17639066
214	0xbe4e3160	-0.20136023
215	0x3ec76970	0.3894763
216	0x3e2f8a88	0.17142689
217	0x3d312f80	0.04325819
218	0xbdb47adc	-0.08812496
219	0x3ac7792e	0.001521861
220	0x39b12596	0.00033788075
221	0xbdd8d2ea	-0.10587104
222	0x3e806dc9	0.2508376
223	0x3d0278ef	0.031853613
224	0x3dd7ae19	0.10531253
225	0xbd371555	-0.04469808
226	0xbdaf9b10	-0.08574498
227	0xbd08bdac	-0.03338401
228	0x3dff86ad	0.12476859
229	0xbd484169	-0.048890505
230	0x3e304bb3	0.17216377
231	0x3d010a22	0.031503804
232	0x3bfb2ab1	0.0076650013
233	0x3ca01380	0.019540548
234	0xbd2ac1ec	-0.041688845
235	0xbd4d6cb5	-0.0501525
236	0x3e18ae8b	0.14910333
237	0xbe394a7d	-0.18094821
238	0x3cf77df7	0.030211432
239	0x3cf3ecf9	0.029776083
240	0xbc39a18e	-0.011330022
241	0xbcedae60	-0.029013813
242	0x3dc48539	0.09595723
243	0xbe0fc0f3	-0.14038448
244	0x3aa81384	0.0012823199
245	0xbda5f4e8	-0.08103353
246	0xbbe95668	-0.007120896
247	0x3e047988	0.12936985
248	0x3deaf0ca	0.11471708
249	0xbcd07939	-0.025448428
250	0xbcf6da15	-0.030133286
251	0x3ddb8c83	0.1072016
252	0x3e96ca50	0.29451227
253	0x3e0fbf6c	0.14037865
254	0x3bb853f7	0.0056252438
255	0x3e4cb2a9	0.19990028
