models/model.tflite (tflite, 544476 bytes, 21 tensors)

sequential_1/time_distributed/sequential/conv2d/BiasAdd/ReadVariableOp f4 [32]
0	0x3ec864de	0.39139456
1	0x3e4e3246	0.20136365
2	0x3e233cc0	0.15941143
3	0x3e41a8d6	0.18912062
4	0x3e81bd9b	0.2533997
5	0x3e085f7c	0.13317674
6	0x3ebee1af	0.37281558
7	0x3d94a75b	0.07258483
8	0x3defad4a	0.11702974
9	0x3d2296fc	0.03969477
10	0xbd4a65d7	-0.04941353
11	0x3d843d79	0.064570375
12	0x3e938cb7	0.28818294
13	0x3d897fc7	0.06713825
14	0x3e9469ac	0.2898687
15	0x3e028f17	0.12749897
16	0xbec84fc5	-0.3912336
17	0x3d7ddd05	0.06197836
18	0x3d49b274	0.04924245
19	0x3e8736e0	0.26409054
20	0x3edd116f	0.43177363
21	0x3da11607	0.078655295
22	0x3e863357	0.26211044
23	0x3e528fc9	0.20562662
24	0x3e3f1398	0.18659818
25	0x3b884a39	0.0041592387
26	0x3dc46589	0.09589679
27	0x3eca681e	0.3953256
28	0x3dd86a0a	0.105671
29	0x3e29252d	0.16518088
30	0x3e48cb08	0.196087
31	0x3ecf10db	0.40442547

sequential_1/time_distributed/sequential/conv2d_1/BiasAdd/ReadVariableOp f4 [64]
0	0x3d7333d8	0.059375614
1	0xbcbf4974	-0.023350455
2	0x3e11f4e3	0.14253573
3	0xbc080dc5	-0.008304064
4	0xbb404aa4	-0.0029341364
5	0x3cd07059	0.025444197
6	0x3e3ad17f	0.18243979
7	0x3c5e98c7	0.01358623
8	0x3c3975b7	0.011319569
9	0x3e9d9853	0.30780277
10	0x3e81cc73	0.25351295
11	0x3d0f9bda	0.03506074
12	0x3d5d0278	0.053957433
13	0xbde2bcb1	-0.11071146
14	0x3e19749a	0.14985886
15	0x3e8ef38f	0.27920195
16	0xbcceb0c1	-0.025230767
17	0x3d400a77	0.04688498
18	0x3e56bb60	0.20969915
19	0x3e484b1b	0.195599
20	0x3eb3bfdf	0.35107324
21	0x3e07114f	0.13190196
22	0x3d2f565f	0.04280698
23	0x3ea58a21	0.32331946
24	0x3df4bba4	0.11949852
25	0x3e8aab1f	0.2708368
26	0x3bcd5e69	0.006267358
27	0x3eb717d1	0.35760358
28	0x3d31ec6f	0.04343837
29	0x3c6d96ea	0.014501313
30	0x3db5f325	0.08884267
31	0x3e087afc	0.13328165
32	0x3e1b64d3	0.1517518
33	0xbc5183b4	-0.012787748
34	0xbd1234ec	-0.035695
35	0x3d400341	0.046878103
36	0x3e5021ae	0.20325348
37	0x3e82d7d1	0.2555528
38	0xbe3b105a	-0.18267956
39	0xbcdb3902	-0.026760582
40	0x3dc9dc11	0.098564275
41	0xbe4965c6	-0.1966773
42	0xbea21129	-0.31653717
43	0xbdc09e2b	-0.09405168
44	0xbe29b705	-0.16573723
45	0x3df0cc29	0.117576905
46	0x3d8260ae	0.063660964
47	0xbd4d94f4	-0.05019088
48	0x3dfff90b	0.12498673
49	0x3e80fbc6	0.25192088
50	0xbc36ac19	-0.01114943
51	0x3e52eaf0	0.20597434
52	0x3e000fe0	0.12506056
53	0x3e0f8cb8	0.14018524
54	0xbc6342c9	-0.013870903
55	0x3e3be171	0.18347718
56	0x3e4122ed	0.1886098
57	0x3de1ab48	0.110189974
58	0x3e7524e3	0.23939852
59	0x3d2f3132	0.042771526
60	0x3e2f135e	0.17097232
61	0x3d190b4d	0.037364293
62	0x3db70067	0.089356236
63	0x3dac51bd	0.08414028

sequential_1/time_distributed/sequential/conv2d_2/BiasAdd/ReadVariableOp f4 [128]
0	0x3e77f1b0	0.2421329
1	0x3e513c75	0.20433219
2	0x3e0779cd	0.13230057
3	0xbd12cf74	-0.035842374
4	0xbe3abcf2	-0.1823614
5	0x3e22a8b7	0.15884672
6	0xbbf0e41b	-0.007351411
7	0xbed463a8	-0.41482282
8	0x3e1de0d4	0.15417796
9	0x3c9e9eee	0.019362893
10	0x3e126900	0.14297867
11	0xbe8df733	-0.2772766
12	0xbbf629bc	-0.0075122993
13	0x3e92bbae	0.28658813
14	0xbe33165b	-0.17488997
15	0x3c98e05e	0.018661674
16	0x3d02f59b	0.03197251
17	0xbe01efc7	-0.12689124
18	0xbdd489d1	-0.10377849
19	0x3ddaff46	0.10693221
20	0x3d24e5f5	0.040258367
21	0xbed837ca	-0.42230064
22	0x3c84040a	0.016115207
23	0x3ea7dec2	0.32787138
24	0x3e67102f	0.22564767
25	0x3d97a3c4	0.07404283
26	0x3e067022	0.13128713
27	0x3e59691d	0.21231504
28	0xbe886855	-0.266421
29	0x3c5ef2ba	0.013607675
30	0xbc4ccb0c	-0.012499582
31	0x3e73df57	0.23815666
32	0xbbf71b26	-0.007541078
33	0xbd0a8307	-0.033816364
34	0xbe4a09b2	-0.19730261
35	0x3d1d67f5	0.03842922
36	0xbddd93c6	-0.10819201
37	0x3e341521	0.17586185
38	0x3e912c77	0.28354236
39	0xbc883a35	-0.016629318
40	0xbe8224aa	-0.25418597
41	0x3e94b8ed	0.29047337
42	0xbdfa7e2b	-0.12231096
43	0x3e847877	0.25873157
44	0x3d57eef0	0.052718103
45	0x3d7b3da0	0.061338067
46	0x3e12060b	0.14260118
47	0x3d1df80d	0.038566638
48	0xbde77236	-0.11301081
49	0x3e0264b2	0.12733725
50	0x3e3b50b7	0.18292509
51	0xbd9225f5	-0.07136146
52	0xbe5b6d45	-0.21428402
53	0xbe6d2a88	-0.23160756
54	0x3d8d7cb3	0.0690855
55	0xbd4579b8	-0.048211783
56	0x3d25f5b6	0.04051753
57	0x3e0d5ca0	0.13804865
58	0x3d0517a4	0.03249325
59	0xbe137496	-0.14399943
60	0xbddbe5fd	-0.10737226
61	0xbd89b1c7	-0.067233615
62	0xbd0bfe97	-0.034178343
63	0x3c8ff0c7	0.017570866
64	0x3e04d1df	0.12970684
65	0x3e8a1999	0.26972654
66	0xbe35cd78	-0.17754161
67	0xbaa73266	-0.0012756109
68	0xbe973ab8	-0.29536986
69	0x3d824e10	0.063625455
70	0xbe55ed3f	-0.20891283
71	0x3e18019e	0.14844367
72	0xbdacde0b	-0.08440789
73	0x3e1a7436	0.15083393
74	0xbdfd02c7	-0.12354045
75	0x3da7519c	0.08169863
76	0x3de5575f	0.11198305
77	0x3d410abc	0.047129378
78	0xbc98707e	-0.018608328
79	0xbd076abe	-0.03306078
80	0xbd3b6af2	-0.045756288
81	0x3d03b4fe	0.03215503
82	0x3d9eb58d	0.07749472
83	0x3ea4f7a1	0.32220176
84	0xbe103941	-0.1408434
85	0xbe014c0f	-0.1262667
86	0x3cfa156c	0.030527793
87	0xbb7c7f15	-0.0038527895
88	0x3e3ed282	0.1863499
89	0x3d87d634	0.06632653
90	0x3d551331	0.052020255
91	0x3d9711a0	0.073764086
92	0xbdb39edd	-0.08770535
93	0xbd4e9caf	-0.050442394
94	0xbbf448a4	-0.0074549485
95	0x3dbabd77	0.09118169
96	0xbdd3df70	-0.10345352
97	0x3de13dde	0.10998128
98	0x3d861536	0.065470144
99	0x3cff8c84	0.031194933
100	0xbe18329f	-0.1486306
101	0xbe155d78	-0.14586437
102	0xbeca2fd4	-0.39489615
103	0x3d79e8b0	0.061012924
104	0xbe27a9dd	-0.16373391
105	0xbcc839ea	-0.024441678
106	0x3e6744b9	0.2258481
107	0x3d184dcd	0.03718357
108	0x3b63b183	0.0034743256
109	0x3e2924b8	0.16517913
110	0x3cefe754	0.02928511
111	0xbe124a5a	-0.14286175
112	0x3e265cf0	0.1624639
113	0x3cebd6c5	0.028788934
114	0xbce5c164	-0.028046317
115	0x3e3da510	0.18519998
116	0x3e268507	0.16261683
117	0xbcf34b86	-0.029699098
118	0x3cc7c69e	0.0243867
119	0x3e072803	0.13198857
120	0x3dc8a479	0.09796996
121	0x3e21d314	0.15803176
122	0xbe1c493f	-0.15262316
123	0x3dd2e5ec	0.1029776
124	0xbdfc693d	-0.1232476
125	0xbd31f749	-0.04344872
126	0x3d8fc462	0.07019879
127	0x3be6f385	0.0070480728

sequential_1/time_distributed/sequential/conv2d/Conv2D f4 [32, 5, 5, 1]
0	0xbe963dfd	-0.29344168
1	0x3cfaed6d	0.030630792
2	0x3dd2c763	0.10291936
3	0xbe65d63d	-0.22445007
4	0x3b3cae79	0.0028790517
5	0xbe018c61	-0.12651207
6	0x3e8a1e9e	0.26976484
7	0x3d8f698d	0.07002554
8	0xbead1912	-0.3380819
9	0x3d5ab228	0.05339256
10	0x3d0c826a	0.03430406
11	0x3df28471	0.118416674
12	0xbe08ec40	-0.13371372
13	0xbed25859	-0.4108303
14	0x3ddf2c0a	0.10897072
15	0x3cb27c5e	0.021787819
16	0xbc84124b	-0.016122004
17	0xbe5616be	-0.20907113
18	0xbe543e98	-0.20727003
19	0x3af47367	0.0018650115
20	0x3d7c3bd0	0.06158048
21	0xbe32a9f0	-0.17447639
22	0xbea1af5c	-0.315791
23	0xbdc72ba5	-0.097251214
24	0x3e2f65a9	0.17128624
25	0x3e20884f	0.15676998
26	0x3e549ed0	0.20763707
27	0xbe1a4f2e	-0.15069267
28	0xbde4ad59	-0.11165876
29	0xbef6608d	-0.48120537
30	0xbe9f1d4c	-0.3107704
31	0xbe578af5	-0.21049102
32	0xbf0d54cb	-0.5520751
33	0xbf06c38f	-0.5264215
34	0xbee366c8	-0.44414353
35	0x3deccf4c	0.11562976
36	0xbe6ec68b	-0.23317926
37	0xbe1a4efe	-0.15069196
38	0xbdcbe9c0	-0.09956694
39	0xbca74d0d	-0.020422483
40	0x3d232da8	0.039838463
41	0x3da299b9	0.079394765
42	0x3c9c74a1	0.019098582
43	0x3c927707	0.017879022
44	0x3df14be1	0.11782051
45	0xbc6a29f3	-0.014292228
46	0x3e135ead	0.14391585
47	0x3da371ee	0.07980715
48	0x3c865e7a	0.016402472
49	0x3d9ae77f	0.075636856
50	0xbdd04014	-0.10168472
51	0x3d4daae5	0.050211806
52	0xbdf8f657	-0.121563606
53	0x3c5de020	0.013542205
54	0xbe071409	-0.13191237
55	0x3cfb68a4	0.030689545
56	0x3da0c1cf	0.07849466
57	0x3ca52f57	0.020164175
58	0xbee4e634	-0.4470688
59	0xbf1ff78d	-0.6248711
60	0x3e0822be	0.13294503
61	0x3d97e8be	0.07417439
62	0xbc5a565d	-0.013326255
63	0xbe830a34	-0.25593722
64	0xbf6c0fdb	-0.92211694
65	0x3dc64133	0.096804045
66	0x3db7415f	0.089480154
67	0x3d8dca8d	0.06923399
68	0xbecc8e41	-0.3995228
69	0xbf14f164	-0.5818083
70	0x3c325235	0.0108838575
71	0x3d3ec897	0.046578016
72	0xbdca3348	-0.09873062
73	0xbe40f7f1	-0.18844582
74	0xbeb04444	-0.34427083
75	0x3d490455	0.049076397
76	0xbed55344	-0.4166509
77	0xbea35d52	-0.31907135
78	0x3de9aed1	0.11410297
79	0x3e743630	0.23848796
80	0xbe866284	-0.26247036
81	0xbd4d3d10	-0.050107062
82	0xbe914d0c	-0.28379095
83	0xbddec02a	-0.10876496
84	0x3e1811fe	0.14850613
85	0xbe836297	-0.25661156
86	0x3e494cb5	0.19658168
87	0x3d65a032	0.056060977
88	0x3dd0bb74	0.10192004
89	0x3cf38982	0.029728655
90	0xbe14fb4a	-0.14548984
91	0xbe742e86	-0.23845872
92	0x3d1988cd	0.03748398
93	0x3e816553	0.25272617
94	0xbcf730e7	-0.030174686
95	0xbdbb9106	-0.091585204
96	0x3d5c6dd8	0.053815693
97	0x3e003f57	0.12524162
98	0xbd19e92d	-0.03757589
99	0xbd002db5	-0.03129359
100	0x3e0cc16e	0.13745663
101	0x3daf250e	0.085519895
102	0x3e468d36	0.19389805
103	0xbe83f032	-0.25769192
104	0x3e2d228e	0.16907713
105	0xbe4e3368	-0.20136797
106	0xbeab9704	-0.33513653
107	0xbe842162	-0.2580672
108	0x3cc101de	0.02356046
109	0x3e4ffb05	0.203106
110	0xbdf4cded	-0.1195334
111	0x3d54a5f3	0.051916074
112	0xbd4272c9	-0.04747275
113	0xbdc2ea71	-0.095173724
114	0xbc291d27	-0.010321892
115	0x3c9b679a	0.0189703
116	0x3e80b1e5	0.25135723
117	0x3dd4f15d	0.10397599
118	0xbd250684	-0.040289417
119	0xbc7d653e	-0.015466033
120	0xbd09c4ce	-0.033634953
121	0xbe15c660	-0.14626455
122	0x3e04e78f	0.12978958
123	0xbe87ff5b	-0.26562008
124	0x3e738b92	0.2378371
125	0xbe5f3408	-0.21797192
126	0xbd97d6aa	-0.07413991
127	0x3e5cb0f3	0.21551876
128	0x3e09faea	0.13474622
129	0xbd29156f	-0.041280206
130	0xbe14ee9f	-0.14544152
131	0x3dbd5890	0.092454076
132	0x3df75fb6	0.12078802
133	0x3e3addbb	0.18248646
134	0x3e89043a	0.26761037
135	0x3d92f18f	0.0717498
136	0x3ea937f9	0.33050516
137	0x3daff604	0.08591846
138	0x3df6f876	0.12059109
139	0x3e436015	0.19079621
140	0x3ddc8b27	0.10768729
141	0x3e00edad	0.12590666
142	0x3dedc0c6	0.11609034
143	0x3e097856	0.13424811
144	0xbe0bb479	-0.13643064
145	0xbe68083d	-0.22659393
146	0xbe32d15a	-0.17462674
147	0xbd9886be	-0.07447575
148	0xbd2cb1fe	-0.042161934
149	0x3e860f22	0.2618342
150	0xbe312767	-0.17300187
151	0x3cce8172	0.025208209
152	0xbe0148d7	-0.12625442
153	0x3e359602	0.17733005
154	0xbcbcc199	-0.023041533
155	0xbec92767	-0.39287874
156	0x3d4660c1	0.048432115
157	0x3e625ed8	0.22106493
158	0x3e1874a2	0.14888242
159	0x3c90cefc	0.017676823
160	0x3e19c221	0.1501546
161	0xbda3a206	-0.07989888
162	0xbdab443c	-0.08362624
163	0x3e33bc78	0.17552364
164	0x3d90746c	0.07053456
165	0xbcde731b	-0.027154496
166	0xbdc42b25	-0.09578542
167	0xbcf076aa	-0.029353458
168	0x3e6f9ea7	0.23400365
169	0xbda526d8	-0.080640495
170	0xbe1c5ee4	-0.15270573
171	0xbeb9d72b	-0.36296973
172	0xbe7dd07a	-0.24786559
173	0x3d18a762	0.037269004
174	0xbcac683d	-0.021045798
175	0xbe977142	-0.29578596
176	0xbd071c86	-0.032986186
177	0xbc634de2	-0.013873549
178	0xbd7a17a5	-0.061057705
179	0x3cb96014	0.022628821
180	0x3dd9bac9	0.106313296
181	0x3c92b946	0.01791061
182	0xbed56bb1	-0.41683725
183	0x3d31f69d	0.04344808
184	0x3e0e7af9	0.13914098
185	0x3e4fe28b	0.20301263
186	0xbbc1202c	-0.0058937278
187	0x3e756223	0.23963217
188	0x3e15ece3	0.14641146
189	0xbe9af1a8	-0.30262494
190	0xbd2e452c	-0.042546436
191	0x3c9a745e	0.018854316
192	0x3d78c98f	0.060739096
193	0x3e021a84	0.12705427
194	0x3d7114dd	0.058857787
195	0xbe75d523	-0.24007086
196	0xbbde022a	-0.0067751603
197	0xbe5f381f	-0.21798752
198	0xbe341bce	-0.17588732
199	0x3c42aee4	0.0118825175
200	0xbd334b85	-0.043773193
201	0xbe449af6	-0.19199738
202	0xbe3030aa	-0.17206064
203	0xbea91446	-0.3302328
204	0xbeb7aef2	-0.3587566
205	0xbcd972af	-0.026543943
206	0x3e90a53f	0.28251073
207	0x3e7e370b	0.24825685
208	0x3e7aadc1	0.24480344
209	0xbce26687	-0.02763678
210	0xbdd800a0	-0.10546994
211	0x3ce4f4f0	0.027948827
212	0xbbaf5556	-0.005350749
213	0x3e3091a3	0.17243056
214	0x3e0d22be	0.13782784
215	0xbe363b37	-0.17796026
216	0xbd5bd91d	-0.053673852
217	0xbd9360db	-0.07196208
218	0xbe632d2d	-0.22185202
219	0xbe99bbb6	-0.30026025
220	0xbc138bfa	-0.009005541
221	0xbe19cfbe	-0.15020654
222	0x3d87d118	0.06631678
223	0x3e0c08f4	0.1367529
224	0x3d1284b5	0.03577109
225	0x3c2759a4	0.010214243
226	0x3e2637ff	0.16232298
227	0x3df0b2d3	0.11752858
228	0xbe0ac337	-0.13551031
229	0xbf2a27a1	-0.6646672
230	0x3e60223d	0.21888061
231	0xbdc91228	-0.09817916
232	0xbd2eb525	-0.04265322
233	0xbec53691	-0.38518193
234	0xbe4cfe34	-0.20018846
235	0x3c302030	0.010749862
236	0xbea95891	-0.33075383
237	0xbe274424	-0.16334587
238	0xbdf14402	-0.117805496
239	0x3c86dc10	0.016462356
240	0xbcf60ca7	-0.03003533
241	0x3cdd1530	0.026987642
242	0x3d30a4bf	0.043125864
243	0xbd3503bd	-0.04419302
244	0xbe3f35c5	-0.18672855
245	0xbe82790f	-0.25482985
246	0xbded5785	-0.11588959
247	0x3d72301a	0.059127904
248	0xbd0767f4	-0.03305812
249	0xbe4d0cf5	-0.20024474
250	0xbe4dcac2	-0.20096877
251	0xbe6280f1	-0.221195
252	0xbe828b46	-0.25496882
253	0xbe8e36e3	-0.2777625
254	0x3e84acca	0.25913078
255	0xbdb788a2	-0.089616075

sequential_1/time_distributed/sequential/conv2d_1/Conv2D f4 [64, 5, 5, 32]
0	0xbe0c2947	-0.13687621
1	0x3e05b356	0.13056692
2	0xbcd250a9	-0.025673227
3	0x3d54c306	0.0519438
4	0xbada00f6	-0.0016632366
5	0x3bd2f6aa	0.006438096
6	0x3d42ab65	0.047526736
7	0x3e75dec1	0.24010755
8	0x3dc3f3bb	0.09567972
9	0x3e078f01	0.13238145
10	0x3d404eb4	0.046950057
11	0xbdb784e9	-0.089608975
12	0x3c7f2300	0.0155723095
13	0x3d8d581e	0.06901573
14	0xba836b7a	-0.0010026537
15	0x3da4ba14	0.08043304
16	0xbde373cb	-0.1110607
17	0xbd9b2682	-0.07575704
18	0x3d00fca7	0.031490948
19	0xbdeeacac	-0.11654028
20	0xbddcf62e	-0.107891425
21	0x3da8408f	0.082154386
22	0xbcfbcbf4	-0.0307369
23	0xbdeca817	-0.11555498
24	0xbe1ea6e8	-0.15493357
25	0xbd5c9507	-0.05385306
26	0x3c5d3691	0.013501779
27	0xbc847e9f	-0.016173659
28	0x3df80911	0.12111104
29	0x3d3a397c	0.045464978
30	0xbe034348	-0.12818635
31	0x3de73e21	0.11291147
32	0x3b86c5c9	0.0041129333
33	0x3e5a1e0a	0.21300521
34	0x3edf665d	0.43632784
35	0x3ddf2951	0.10896552
36	0xbe2a63b8	-0.16639602
37	0xbe3c3f09	-0.18383421
38	0xbf227d6d	-0.63472635
39	0xbd91e6e0	-0.07124114
40	0xbee0dfaa	-0.43920642
41	0x3e428e86	0.18999681
42	0xbe260b96	-0.16215357
43	0x3dada29d	0.08478282
44	0xbdbb2b1a	-0.0913908
45	0xbdc4748f	-0.09592544
46	0xbe36b645	-0.17842968
47	0xbd9d9cea	-0.076959446
48	0xbe9da927	-0.30793115
49	0x3cb2cace	0.02182522
50	0x3d90a9ae	0.07063614
51	0xbe1e0b53	-0.15434007
52	0xbe60df06	-0.21960077
53	0xbda89ce1	-0.08233047
54	0xbf194e19	-0.5988479
55	0xbf11ca5c	-0.569494
56	0xbdfdeb1b	-0.123983584
57	0xbda815f5	-0.08207313
58	0x3e16ae08	0.14714825
59	0x3e71216d	0.23547907
60	0xbd8d6ab8	-0.069051206
61	0xbda26f06	-0.07931332
62	0xbe719dcb	-0.2359535
63	0xbda257f1	-0.0792693
64	0xbd9a2fbc	-0.07528636
65	0xbe6c61d1	-0.23084189
66	0xb98e0792	-0.0002708999
67	0x3e65c61b	0.22438852
68	0xbcbc53b6	-0.022989135
69	0xbdeed85e	-0.116623625
70	0x3d40ed05	0.04710104
71	0xbeed6664	-0.4636718
72	0xbeaecf1b	-0.34142384
73	0xbebf4955	-0.37360635
74	0xbe70dfb5	-0.23522837
75	0xbe1f2c00	-0.15544128
76	0xbe7c7d16	-0.24657091
77	0xbe89832f	-0.26857898
78	0xbe78d67b	-0.24300568
79	0xbdfc9325	-0.12332753
80	0xbd88edb9	-0.06685967
81	0x3e4b3610	0.19844842
82	0xbe8fae5c	-0.28062713
83	0x3c30a301	0.010781051
84	0xbdccbbcd	-0.09996758
85	0xbe8d77b2	-0.27630383
86	0xbe301fd3	-0.1719964
87	0x3de1a5f4	0.11017981
88	0x3dfa1f4b	0.12213
89	0xbe6615f6	-0.22469315
90	0xbedc8364	-0.43068993
91	0x3e049f5f	0.1295142
92	0x3e1287a3	0.14309554
93	0xbf069216	-0.5256666
94	0x3db71f9d	0.08941577
95	0xbe801ad6	-0.25020474
96	0xbe544e80	-0.2073307
97	0xbdf21553	-0.118204735
98	0x3e864c55	0.26230112
99	0xbe3a6d9f	-0.1820588
100	0xbd10eb43	-0.035380613
101	0x3e663263	0.22480159
102	0x3e46a085	0.19397171
103	0xbe2564cf	-0.16151737
104	0x3e62e33a	0.22156993
105	0x3e641837	0.22274862
106	0xbc97ffee	-0.018554654
107	0xbe357f4c	-0.17724341
108	0x3e5e163d	0.2168817
109	0x3d86c957	0.06581371
110	0xbe3999e8	-0.18125117
111	0xbe711623	-0.235436
112	0xbd490113	-0.04907329
113	0xbe095288	-0.1341039
114	0x3ade822a	0.0016976048
115	0x3eba5987	0.3639643
116	0x3c806e99	0.015677737
117	0xbde18d78	-0.11013311
118	0xbe918335	-0.28420416
119	0x3e1eec4d	0.15519829
120	0x3d4e8171	0.050416414
121	0x3de76b9f	0.11299824
122	0xbec1d89b	-0.3786057
123	0xbe41f628	-0.18941557
124	0x3da007f9	0.07814021
125	0xbeaaf479	-0.33389643
126	0x3dd3ed54	0.10348001
127	0xbd72e080	-0.05929613
128	0x3e447b93	0.19187765
129	0x3dea8b30	0.11452329
130	0x3e23e52a	0.16005388
131	0x3e517a15	0.20456727
132	0xbc3d13f0	-0.011540398
133	0xbe287f66	-0.16454849
134	0xbe1469d7	-0.144935
135	0xbe71c757	-0.23611198
136	0xbecb8e3f	-0.39756963
137	0x3e0ae756	0.1356481
138	0xbe1bd474	-0.15217763
139	0xbdb94b71	-0.090475924
140	0xbe8ce09f	-0.27515122
141	0xbe264e5e	-0.16240832
142	0xbe7530d9	-0.23944415
143	0x3e2c27b7	0.16812025
144	0xbc0476a2	-0.008084925
145	0x3c396032	0.011314439
146	0x3da28515	0.0793554
147	0x3eaae1ac	0.333753
148	0xbe2b017a	-0.16699782
149	0xbdd05461	-0.10172344
150	0xbd9402b2	-0.072270766
151	0xbd7abe7c	-0.061216816
152	0xbda8b923	-0.08238437
153	0xbde8d640	-0.1136899
154	0xbe425220	-0.1897664
155	0x3e71ba4c	0.23606223
156	0xbe81c998	-0.25349116
157	0x3dd72f14	0.10507026
158	0xbeaee6e7	-0.3416054
159	0xbd24e976	-0.04026171
160	0x3d1b0bb5	0.03785296
161	0xbe18b2c5	-0.14911945
162	0xbd9eba0c	-0.077503294
163	0xbea8ec75	-0.32992902
164	0x3d96059d	0.073252894
165	0x3c14c365	0.009079789
166	0xbe08e471	-0.13368393
167	0xbe0a2f3e	-0.13494584
168	0xbdfc36fb	-0.12315174
169	0xbd5957b7	-0.053062167
170	0x3d6c1746	0.057639383
171	0xbee20e36	-0.44151467
172	0xbdc3a204	-0.095523864
173	0x3da2369e	0.07920574
174	0xbd133ba0	-0.035945535
175	0xbe286954	-0.1644643
176	0xbe443563	-0.1916099
177	0xbef29f85	-0.4738733
178	0x3d3530e7	0.04423609
179	0xbe4daaed	-0.20084734
180	0x3dd2fafc	0.10301778
181	0xbd54efd8	-0.051986545
182	0x3c64b963	0.013960215
183	0x3d8f1f0d	0.06988344
184	0x3b9019d5	0.0043976107
185	0x3da54c59	0.08071203
186	0x3e353fc5	0.17700107
187	0xbdfc8c1e	-0.12331413
188	0x3de66b8c	0.11250982
189	0x3d8b6966	0.068072125
190	0xbe12ac5c	-0.14323562
191	0x3c8dcf3f	0.017310737
192	0x3e9177f7	0.28411838
193	0x3d9820af	0.07428109
194	0x3e5a1657	0.21297584
195	0xbeb15702	-0.34636694
196	0x3e63a2b8	0.22230041
197	0xbd81dbad	-0.06340728
198	0xbe118fdd	-0.14215036
199	0xbee28c95	-0.4424788
200	0x3dd6b43e	0.10483597
201	0x3b7da919	0.0038705526
202	0xbdabaede	-0.08382963
203	0x3e2896d7	0.16463791
204	0xbda272b0	-0.07932031
205	0x3d83fba5	0.06444482
206	0xbeb56da5	-0.35435215
207	0x3de44b98	0.11147231
208	0x3bf0c12e	0.0073472476
209	0xbcb32258	-0.021866962
210	0xbcb4d43e	-0.022073861
211	0xbd608af5	-0.05482002
212	0xbda09d6e	-0.07842527
213	0xbea0fff3	-0.31445274
214	0xbde8e58c	-0.113719076
215	0xbe1acd26	-0.1511732
216	0xbea93dab	-0.3305486
217	0x3d462135	0.048371512
218	0x3e4a2a54	0.1974271
219	0x3e652102	0.22375873
220	0xbdff4e15	-0.12466065
221	0xbeaab7fc	-0.33343494
222	0xbe094b04	-0.13407522
223	0x3d702435	0.05862828
224	0xbd933089	-0.07186992
225	0xbda4c52b	-0.08045419
226	0x3e44c976	0.19217476
227	0x3e80c824	0.25152695
228	0xbf097e49	-0.5370832
229	0xbe0a3f9b	-0.13500826
230	0xbde9effb	-0.11422726
231	0xbe08803f	-0.13330172
232	0xbf18558e	-0.59505546
233	0xbd953733	-0.07285919
234	0xbde6f97e	-0.112780556
235	0x3cc7ce66	0.02439041
236	0x3cd72d3e	0.02626669
237	0xbe4838e5	-0.19552954
238	0xbea54061	-0.3227568
239	0x3e793392	0.24336079
240	0xbd3aef3c	-0.045638308
241	0xbcdead05	-0.027182112
242	0xbefb8c6e	-0.49130577
243	0x3e37e6be	0.17959115
244	0xbe0b4844	-0.13601786
245	0xbf00d16d	-0.5031956
246	0x3e80cfcc	0.25158536
247	0xbe7bd16b	-0.24591605
248	0xbe5f2656	-0.21791968
249	0xbe3ca4b5	-0.18422206
250	0x3e0cf5e5	0.13765676
251	0xbcbb8fa6	-0.022895645
252	0xbc6f1d18	-0.014594339
253	0x389a2f2f	7.352081e-05
254	0xbe04b015	-0.12957795
255	0xbeab1e0b	-0.33421358

sequential_1/time_distributed/sequential/conv2d_2/Conv2D f4 [128, 3, 3, 64]
0	0x3d3726a9	0.044714604
1	0xbd155248	-0.036455423
2	0xbc865b16	-0.016400855
3	0x3c0c2314	0.008553285
4	0xbd4c45b7	-0.049871173
5	0xbd517a3e	-0.05114197
6	0xbd5a2cc6	-0.053265356
7	0x3d693bff	0.056941982
8	0xbd22e0c6	-0.039765142
9	0x3d5c1a07	0.05373576
10	0xbd585c96	-0.05282267
11	0x3d63595f	0.055505153
12	0x3bd48798	0.0064858906
13	0x3d3f925d	0.046770442
14	0xbc890702	-0.016726974
15	0x3d2bfd9f	0.04198992
16	0xbd06c2e2	-0.0329007
17	0xbb0c3750	-0.0021395274
18	0x3d68527d	0.056719292
19	0xbd6d9b32	-0.058009334
20	0x3b838508	0.0040136613
21	0x3cbc5bf6	0.02299307
22	0xbccba7b0	-0.024860233
23	0x3d55b99f	0.052178975
24	0x3c1b698c	0.009485614
25	0xbc58c308	-0.013230093
26	0x3d4ba95b	0.049722057
27	0x3d178e73	0.037001085
28	0x3cbd2806	0.023090374
29	0xbc5cb870	-0.013471708
30	0xbd1280d4	-0.03576739
31	0xbce23d1c	-0.02761703
32	0x3d0f7c49	0.035030637
33	0x3cb2f296	0.02184419
34	0x3c1f2644	0.009713713
35	0xbd178056	-0.036987625
36	0xbd25e2eb	-0.04049961
37	0x3ce91262	0.028451148
38	0xbd5a3e64	-0.053282157
39	0x3d605a3f	0.054773565
40	0x3d308b3f	0.043101545
41	0x3d4371c1	0.047715906
42	0x3d24197b	0.040063363
43	0xbd4acbf9	-0.04951093
44	0xbd321334	-0.043475345
45	0xbbf46018	-0.0074577443
46	0x3ccce502	0.025011543
47	0xbb8b3778	-0.0042485557
48	0x3c9b31ca	0.01894464
49	0x3d04465b	0.03229366
50	0x3c2b44ac	0.010453384
51	0x3d2e5e1b	0.042570215
52	0x3beeae28	0.0072839446
53	0xbcf30ccd	-0.02966919
54	0xbc42632c	-0.011864465
55	0x3d66649b	0.05624829
56	0x3b847c78	0.004043158
57	0x3c86dbf6	0.016462307
58	0x3cb11006	0.021614086
59	0x3cb41a46	0.021985184
60	0x3c1b9474	0.009495843
61	0xbd1772dc	-0.036974773
62	0x3a64f940	0.0008734651
63	0xbd0c2cef	-0.03422254
64	0x3d0c81bb	0.034303408
65	0x3d27ac23	0.040935647
66	0x3c9ac1c6	0.018891227
67	0x3d4297bb	0.047507983
68	0x3d4021c5	0.046907205
69	0xbd0d7bd6	-0.034541927
70	0x3d16ac2d	0.036785293
71	0xbd5cdb95	-0.053920347
72	0x3ceb5b82	0.028730158
73	0xbcc0e59a	-0.023546983
74	0xbd4c4586	-0.04987099
75	0x3d4406bf	0.047857996
76	0x3c90a86a	0.017658431
77	0xbd4fc832	-0.05072803
78	0xbcd3f4c8	-0.025873557
79	0xbd685e95	-0.056730825
80	0x3d0c193d	0.034203757
81	0xbc73361c	-0.014844444
82	0xbbd8aa48	-0.006612096
83	0xbd064448	-0.03277996
84	0xbd018c4c	-0.03162794
85	0xbd537a03	-0.05163003
86	0x3d654e53	0.0559829
87	0x3d1e8e77	0.038710084
88	0xbd4ed506	-0.050496124
89	0x3ca4095e	0.020023998
90	0xbd1d601a	-0.038421728
91	0xbcb01b92	-0.021497522
92	0x3c3fef44	0.01171476
93	0xbcec8acc	-0.028874777
94	0x3d1c92e9	0.038226042
95	0xbd505a59	-0.050867412
96	0xbd1eb068	-0.038742453
97	0x3b91c4b8	0.0044484995
98	0x3d38281f	0.044960137
99	0x3d05f629	0.03270546
100	0x3ade66e0	0.0016967915
101	0xbd1fdf32	-0.039031215
102	0x3d0076af	0.031363185
103	0x3caab6d2	0.020839129
104	0xbd41fa04	-0.047357574
105	0xbae98780	-0.0017816871
106	0x3d0fb0e7	0.035080817
107	0xbd5d855c	-0.05408226
108	0xbcb06a16	-0.02153496
109	0xbd2f5649	-0.042806897
110	0x3cc5a442	0.024126176
111	0x3ce16076	0.027511816
112	0xba0cb8c0	-0.0005368106
113	0xbd67fedb	-0.056639533
114	0x3cf924e2	0.030413095
115	0x3d05f2a5	0.032702107
116	0xbb6be490	-0.0035994388
117	0xbc8e2ef0	-0.017356366
118	0x3d44eeb5	0.04807921
119	0xbcfbb642	-0.030726556
120	0xbd2088b9	-0.03919289
121	0x3d51e161	0.05124033
122	0xbcb839b2	-0.022488449
123	0xb9289e00	-0.00016080588
124	0xbd0389b5	-0.03211375
125	0xbcee8e66	-0.029120635
126	0xbd203cc0	-0.039120436
127	0xbd17603c	-0.03695701
128	0x3d54512d	0.051835228
129	0xbc314878	-0.010820501
130	0xbc9f4d80	-0.019446135
131	0xbd342a96	-0.043985926
132	0xbc39ce50	-0.011340693
133	0x3cd3caea	0.025853593
134	0x3c300c54	0.010745127
135	0xbd63bc9a	-0.055599786
136	0xbca21058	-0.019783184
137	0xbcc3566a	-0.023844916
138	0xbd30efce	-0.043197446
139	0x3a06b440	0.00051385537
140	0xbd2ae2f9	-0.041720364
141	0x3d055a69	0.032556925
142	0x3d1fa84d	0.038978864
143	0x3d6be34d	0.057589818
144	0x3c04ceec	0.008105975
145	0x39ce7d80	0.00039384887
146	0x3c47f84c	0.012205195
147	0x3be8bab8	0.0071023367
148	0x3d6718c1	0.05642009
149	0xbcffd2ef	-0.03122851
150	0xbc85e278	-0.01634334
151	0x3cf44676	0.029818755
152	0x3c94e252	0.018174324
153	0xbd5e2746	-0.054236673
154	0x3c1978fc	0.009367224
155	0x3c40023c	0.011719283
156	0xbce16e14	-0.02751831
157	0x3c2366cc	0.009973239
158	0x3d07d649	0.033163343
159	0xbc7ffd30	-0.015624329
160	0x3d5c5a97	0.05379733
161	0x3d137f29	0.03600994
162	0x3ce97766	0.028499316
163	0xbc7b68fc	-0.015344854
164	0x3b6289a0	0.0034566894
165	0xbbb89888	-0.0056334175
166	0x3cc812b2	0.024422977
167	0xbd53f1bc	-0.051744208
168	0x3d681359	0.056659076
169	0x3d24c67d	0.040228356
170	0xbd2dca68	-0.042429358
171	0xbd6994b9	-0.0570266
172	0xbd4331cb	-0.04765491
173	0x3adce900	0.0016854107
174	0x3d260861	0.040535334
175	0x3c8e4956	0.017368954
176	0xbce07d92	-0.027403627
177	0xbc404ad4	-0.01173659
178	0x3ccc29f2	0.024922345
179	0x3cac8c12	0.021062884
180	0x3d621613	0.055196833
181	0x3d5f9ae3	0.05459107
182	0x3d2211b3	0.03956766
183	0x3d423f89	0.047423873
184	0xbcca211a	-0.024673987
185	0x3c07a14c	0.008278202
186	0xbd17ff34	-0.037108615
187	0x3bb5bd08	0.005546216
188	0xbd611145	-0.05494811
189	0x3d1d4a5b	0.03840099
190	0x3cc1530e	0.023599174
191	0x3d3b4cdd	0.0457276
192	0x3d60f911	0.05492503
193	0x39811180	0.00024617836
194	0x3d61b2d5	0.05510219
195	0x3d6c3069	0.057663355
196	0x3d2ea691	0.04263932
197	0x3d534cf7	0.05158707
198	0x3cb7aeb2	0.022422168
199	0x3c03f504	0.008054022
200	0x3c8080d2	0.015686426
201	0xbd472c83	-0.048626434
202	0xbcf27b67	-0.029599858
203	0x3d38f72b	0.045157593
204	0xbd31d4e0	-0.043415904
205	0xbcc07294	-0.023492135
206	0x3d10afeb	0.03532402
207	0x3c8ee7f6	0.017444592
208	0x3d1eb62b	0.038747948
209	0xbc2468b4	-0.010034729
210	0x3cdb0006	0.02673341
211	0x3ccd84ee	0.0250878
212	0xbd65fbca	-0.056148328
213	0x3d479e41	0.048734907
214	0xbcfe8f60	-0.031074226
215	0xbd11b247	-0.03557041
216	0xbbbd6dd8	-0.0057809167
217	0xbc2fd5b4	-0.010732103
218	0xbc759144	-0.014988247
219	0x3c2969cc	0.010340165
220	0x3d558d3d	0.05213665
221	0x3cf663a2	0.030076806
222	0xbc51fae8	-0.012816168
223	0xbb9faac8	-0.0048726536
224	0x3d3b45c5	0.045720834
225	0x3c28ad24	0.010295186
226	0xbd3d6292	-0.046236582
227	0xbcee8a5c	-0.02911871
228	0xbd3363e0	-0.04379642
229	0xbd07bdc6	-0.033139966
230	0xbc357fec	-0.011077862
231	0xbc8bf9b2	-0.017086837
232	0xbae760e0	-0.0017652772
233	0xbc8b9294	-0.017037667
234	0x3c865476	0.016397696
235	0xbbbcafa8	-0.0057582445
236	0x3d2eaf59	0.042647693
237	0xbd598e78	-0.053114384
238	0x3d1fcd39	0.039014075
239	0xbcacc8d4	-0.021091856
240	0x3d087ec1	0.033324007
241	0xbd36e5bd	-0.04465269
242	0xbcf5806b	-0.029968461
243	0xbd1b7c04	-0.037960067
244	0x3c7b3bac	0.015334051
245	0x3c4ba72c	0.012429994
246	0x3d27eb33	0.040995788
247	0x3ccfa91e	0.025349196
248	0xbc0a92e8	-0.008457877
249	0x3d6be35d	0.057589877
250	0xbd42428e	-0.047426753
251	0xbc06d478	-0.008229367
252	0xbd37affc	-0.044845566
253	0x3b6e1bb0	0.003633242
254	0x3c3921d4	0.011299569
255	0x3caa0986	0.020756494

sequential_1/time_distributed/sequential/dense/BiasAdd/ReadVariableOp f4 [32]
0	0xbcec3933	-0.028835868
1	0xbe245281	-0.16047098
2	0x3d79453d	0.060857046
3	0xbd0fe1d0	-0.03512746
4	0xbe9b221f	-0.3029947
5	0xbbc03a61	-0.0058663343
6	0xbc1b231d	-0.009468821
7	0xbe1c455b	-0.15260832
8	0x3d0de416	0.034641348
9	0xbe614dd9	-0.22002353
10	0xbe13324a	-0.14374653
11	0xbd072856	-0.03299745
12	0xbe711385	-0.23542602
13	0xbe02e621	-0.127831
14	0xbc6a63e2	-0.0143060405
15	0xbde86b73	-0.11348619
16	0xbc8bd1d9	-0.017067837
17	0xbdc1ef8e	-0.094695196
18	0xbe25b804	-0.16183478
19	0xbebd8bd3	-0.3702074
20	0x3d0592bc	0.03261064
21	0xbcf3f280	-0.029778719
22	0xbd3dd543	-0.04634596
23	0x3e79fb89	0.2441236
24	0xbe158000	-0.1459961
25	0xbea75216	-0.32679814
26	0xbd28b5ba	-0.041188933
27	0xbd290e6e	-0.041273527
28	0xbd446cdb	-0.047955375
29	0xbeca88ee	-0.39557594
30	0x3b71e3ea	0.003690953
31	0xbd64bd3c	-0.05584453

sequential_1/lstm/Read_2/ReadVariableOp f4 [32]
0	0x3c01e165	0.007927273
1	0xbd950260	-0.072758436
2	0x3e1ea1dc	0.15491432
3	0xbc53fc39	-0.012938553
4	0x3cf312ba	0.029672015
5	0xbddeadea	-0.10873015
6	0xbca86f0a	-0.02056076
7	0x3d5f2e12	0.054487295
8	0x3f886339	1.065528
9	0x3fad2dc2	1.3529589
10	0x3f80c9aa	1.0061543
11	0x3f800080	1.0000153
12	0x3f9de90e	1.2336748
13	0x3f7fba19	0.9989334
14	0x3f6596f8	0.89683485
15	0x3fa647fd	1.2990719
16	0xbe66083d	-0.2246408
17	0xbe11ff4f	-0.14257549
18	0xbdd9d697	-0.10636633
19	0x3cdb9c51	0.026807936
20	0x3e06cd32	0.13164213
21	0xbcc4ab0a	-0.024007339
22	0x3e01a321	0.12659885
23	0xbe83753a	-0.25675374
24	0x3d462d5e	0.04838311
25	0x3e607ce5	0.21922643
26	0xbdbc61ab	-0.09198316
27	0xbda0fa39	-0.07860226
28	0xbe333732	-0.17501524
29	0xbcd3e3d7	-0.025865478
30	0x3dd6947f	0.10477542
31	0x3e670b6f	0.22562955

sequential_1/dense_1/BiasAdd/ReadVariableOp f4 [8]
0	0x3e071cbd	0.13194557
1	0xbd440d25	-0.047864098
2	0x3e432eb8	0.1906079
3	0x3f0ea708	0.5572362
4	0x3e5cb7df	0.21554516
5	0x3e58d2e9	0.21174206
6	0x3e58dfb9	0.21179093
7	0x3e5fdd6b	0.21861808

sequential_1/time_distributed/sequential/batch_normalization/FusedBatchNormV3 f4 [32]
0	0x40a36b65	5.1068597
1	0x40a0f50a	5.029912
2	0x40ceea66	6.466113
3	0x4086c860	4.21196
4	0x40564243	3.3477943
5	0x3eff3610	0.49845934
6	0x4050b306	3.2609267
7	0x40936ebd	4.607268
8	0x403feea8	2.9989414
9	0x40e70b39	7.22012
10	0x401c7f62	2.4452748
11	0x411be8f6	9.744375
12	0x3fbaa9a9	1.4583026
13	0x3f36e660	0.71445274
14	0x3f4e4701	0.80577093
15	0x4107b0b1	8.480638
16	0x3eb1ad1d	0.34702387
17	0x40f481a5	7.6408257
18	0x408f6520	4.4810944
19	0x40597d91	3.398289
20	0x3f4cd65b	0.8001458
21	0x4064f382	3.5773625
22	0x40d4747f	6.6392207
23	0x4059320d	3.3936799
24	0x404e8e4a	3.2274346
25	0x3e9b604b	0.30346903
26	0x40c9311b	6.2872443
27	0x40e8afc2	7.271455
28	0x40d6fed8	6.718609
29	0x40632120	3.5488968
30	0x40368323	2.851754
31	0x402a7193	2.663182

sequential_1/time_distributed/sequential/batch_normalization/FusedBatchNormV31 f4 [32]
0	0xbffeb913	-1.990023
1	0xbf7ca699	-0.9869171
2	0xbf7adf67	-0.97997135
3	0xbf5544ab	-0.83307904
4	0xbf64219d	-0.8911379
5	0xbdcb1946	-0.0991693
6	0xbf9c3e8f	-1.2206591
7	0xbed351f8	-0.41273475
8	0xbeb80ac4	-0.35945714
9	0xbeae95c2	-0.3409863
10	0xbd696413	-0.056980204
11	0xbf11248b	-0.56696385
12	0xbeef852a	-0.46781284
13	0xbe3a7d6f	-0.18211912
14	0xbecf278d	-0.40459862
15	0xbf890f32	-1.0707762
16	0xbd7b5ece	-0.06136971
17	0xbf0736ae	-0.5281781
18	0xbe8701a9	-0.26368454
19	0xbf7c5f8a	-0.9858328
20	0xbee3a4d8	-0.44461703
21	0xbec2d07e	-0.38049692
22	0xbfd10ff2	-1.6332991
23	0xbf3d0b11	-0.7384501
24	0xbf43e264	-0.7651732
25	0xbcb0c1f0	-0.021576852
26	0xbf23e393	-0.64019126
27	0xc020c4d6	-2.512014
28	0xbf2eb55d	-0.6824549
29	0xbf1664ef	-0.5874776
30	0xbf1fbef9	-0.62400776
31	0xbf9387f0	-1.152586

sequential_1/time_distributed/sequential/batch_normalization_1/FusedBatchNormV3 f4 [64]
0	0x3f2a87e8	0.66613626
1	0x3e407264	0.18793637
2	0x3ef2f703	0.4745408
3	0x3e926f39	0.2860048
4	0x3ef16af1	0.47151902
5	0x3e1698cf	0.1470673
6	0x3e857158	0.26063037
7	0x3e31172b	0.17293994
8	0x3e525298	0.2053932
9	0x3e997ef3	0.29979667
10	0x3e35f373	0.1776865
11	0x3e031ead	0.1280467
12	0x3ed56cf2	0.4168468
13	0x3ebee57b	0.37284455
14	0x3dfb1743	0.12260296
15	0x3e47efaf	0.19525026
16	0x3f6c8738	0.9239383
17	0x3e8d9b94	0.2765776
18	0x3e835834	0.2565323
19	0x3f131f75	0.57469875
20	0x3e5020e8	0.20325053
21	0x3f15e40c	0.58551097
22	0x3e034456	0.12819037
23	0x3ed019e1	0.40644744
24	0x3e817d70	0.25291014
25	0x3e83eb37	0.25765392
26	0x3e6adb3a	0.22935191
27	0x3e4b4ff6	0.19854721
28	0x3eaf5155	0.3424174
29	0x3e60078e	0.21877882
30	0x3e732f5a	0.23748532
31	0x3eb5fef4	0.35546076
32	0x3e59cb1a	0.21268883
33	0x3dffcca5	0.12490205
34	0x3f481f8f	0.78173155
35	0x3eb04a97	0.34431908
36	0x3e792d6b	0.24333732
37	0x3f0a60e1	0.54054075
38	0x3e5cef5e	0.21575686
39	0x3e4b45d7	0.1985086
40	0x3e17979b	0.14803927
41	0x3e8961a0	0.26832294
42	0x3e0ca270	0.1373384
43	0x3f6daca9	0.92841583
44	0x3df846ef	0.121229045
45	0x3d94d2cd	0.072667696
46	0x3f1df4ca	0.61701643
47	0x3f44e81a	0.7691666
48	0x3f084257	0.53226227
49	0x3ec94a32	0.3931442
50	0x3f6f6dc1	0.93526846
51	0x3ed20b6c	0.4102434
52	0x3de23784	0.11045745
53	0x3e86c079	0.2631872
54	0x3e6061ef	0.21912359
55	0x3e30ea1f	0.1727681
56	0x3e805655	0.25065866
57	0x3d8ca07b	0.06866547
58	0x3eeca8bb	0.4622248
59	0x3e128b4b	0.14310949
60	0x3ef665b8	0.4812448
61	0x3f035fe2	0.5131818
62	0x3e29e62c	0.1659171
63	0x3e36c5c5	0.1784888

sequential_1/time_distributed/sequential/batch_normalization_1/FusedBatchNormV31 f4 [64]
0	0xbfb63418	-1.4234648
1	0xbf0723f2	-0.52789223
2	0xbf15212a	-0.5825373
3	0xbec83ca1	-0.39108756
4	0xbf0547d9	-0.52062756
5	0xbde0b99f	-0.109729044
6	0xbf0b3e01	-0.54391485
7	0xbed6e5d2	-0.41972214
8	0xbe9a6341	-0.3015385
9	0xbf45f4ad	-0.7732647
10	0xbea12559	-0.31473807
11	0xbf01b7dc	-0.5067117
12	0xbf62c51f	-0.8858203
13	0xbe6c9834	-0.23104936
14	0xbed4a457	-0.4153163
15	0xbed4f617	-0.41594002
16	0xbf9fc557	-1.2482098
17	0xbecce7d0	-0.4002061
18	0xbf402824	-0.7506125
19	0xbf5dc152	-0.8662311
20	0xbea75f8e	-0.3269009
21	0xbf859121	-1.0434915
22	0xbee31c2f	-0.4435744
23	0xbf867f55	-1.0507609
24	0xbedee934	-0.43537295
25	0xbf2ab5bb	-0.6668355
26	0xbebd9cf3	-0.37033805
27	0xbf07db73	-0.5306923
28	0xbf2f6c3c	-0.6852453
29	0xbea61358	-0.32436633
30	0xbf13000f	-0.57421964
31	0xbf321d76	-0.69576204
32	0xbebc5286	-0.3678171
33	0xbec5c5e6	-0.38627547
34	0xbf99fda6	-1.2030532
35	0xbf460f14	-0.7736676
36	0xbf1b8b0b	-0.6075904
37	0xbfaa00b9	-1.328147
38	0xbe892a68	-0.26790166
39	0xbeab6123	-0.33472547
40	0xbef9a808	-0.4876101
41	0xbec98125	-0.39356342
42	0xbea3b5b3	-0.31974563
43	0xbf5c9ead	-0.8617962
44	0xbed641aa	-0.41846973
45	0xbea3fa7b	-0.3202704
46	0xbf91cc05	-1.1390387
47	0xbf5f11e1	-0.87136656
48	0xbf962ef0	-1.1733074
49	0xbf70c972	-0.9405738
50	0xbf6ae078	-0.9174876
51	0xbf82b033	-1.0210022
52	0xbe0d9908	-0.13827908
53	0xbee85ac4	-0.4538175
54	0xbea8970e	-0.32927746
55	0xbee7fa56	-0.4530818
56	0xbf154f94	-0.5832455
57	0xbe103906	-0.14084253
58	0xbf4ec126	-0.8076347
59	0xbf0bd593	-0.54622763
60	0xbf9aceb0	-1.2094326
61	0xbf89f5e6	-1.0778167
62	0xbed4e9e3	-0.4158469
63	0xbee95501	-0.45572665

sequential_1/time_distributed/sequential/batch_normalization_2/FusedBatchNormV3 f4 [128]
0	0x3edd2ebc	0.43199718
1	0x3ec95dce	0.3932938
2	0x3f2b5383	0.66924304
3	0x408ebc20	4.4604645
4	0x3f17df9a	0.59325564
5	0x3f4fa4cc	0.81110835
6	0x3f577d17	0.84175247
7	0x3e5e7296	0.21723399
8	0x3e69dd7b	0.22838394
9	0x3fb416d0	1.4069462
10	0x3f7daf86	0.9909595
11	0x3e86ae98	0.2630508
12	0x4007eb18	2.123724
13	0x3f97e7d7	1.1867627
14	0x4049a85c	3.1509008
15	0x3f1acae4	0.60465837
16	0x3fd01570	1.6256542
17	0x3f667c89	0.90033776
18	0x3f698c9d	0.91230184
19	0x3fae4d4f	1.3617343
20	0x3f322f73	0.6960365
21	0x3f0e6042	0.5561563
22	0x3fc23e85	1.517533
23	0x3e7ff6f7	0.24996553
24	0x3ef747c9	0.48296955
25	0x3e83bb5f	0.2572889
26	0x3f0ffefa	0.5624844
27	0x3ec4074a	0.3828681
28	0x41093931	8.576463
29	0x3f790b21	0.97282606
30	0x3edb2778	0.4280355
31	0x3f1aa421	0.6040669
32	0x3fc9ac60	1.575573
33	0x3fa2fe51	1.2733861
34	0x40e69fd0	7.2070084
35	0x3f176e29	0.59152466
36	0x3f0dd6fe	0.5540618
37	0x3f4c5fae	0.79833496
38	0x3f6b8b44	0.9200938
39	0x3e876679	0.26445368
40	0x3eb2b22a	0.34901553
41	0x3ea570f4	0.3231274
42	0x402eb27c	2.7296438
43	0x3e9a4dfc	0.30137622
44	0x3f345e1b	0.70456094
45	0x3e5c0a3e	0.21488282
46	0x3f310704	0.6915133
47	0x3ea067cc	0.3132919
48	0x3ffbf763	1.9684871
49	0x3f8317ab	1.0241598
50	0x3ed2d595	0.41178575
51	0x3f83ff5d	1.0312306
52	0x3e81c060	0.25342083
53	0x3f697d66	0.9120697
54	0x3ec681d1	0.38770917
55	0x3ec57b09	0.3857043
56	0x3f8c5ed9	1.0966445
57	0x3e9b5aba	0.30342656
58	0x40695d03	3.646302
59	0x3ea4e1d4	0.32203543
60	0x3e7c02aa	0.24610391
61	0x40918ccc	4.548437
62	0x3e3b35ee	0.18282291
63	0x3f99d829	1.2019092
64	0x3f1d2b36	0.6139406
65	0x3f96da72	1.1785414
66	0x3e4bbf4c	0.19897193
67	0x40152bb7	2.3307931
68	0x3e86a8cb	0.26300654
69	0x3eb82e4c	0.35972822
70	0x41dea2e3	27.829535
71	0x3ee95960	0.45576
72	0x3fc8a33d	1.5674816
73	0x3f8538c6	1.0407951
74	0x3f3b7b04	0.7323458
75	0x3e59d1de	0.21271464
76	0x3fb67bc7	1.4256524
77	0x40493ffc	3.1445303
78	0x3f3b9654	0.7327626
79	0x3e4e5069	0.20147862
80	0x3f6a6a05	0.9156802
81	0x3e8d2cbd	0.27573195
82	0x3fb0366f	1.3766612
83	0x3e8a16bc	0.2697047
84	0x41bd8b8f	23.693144
85	0x4027d2d7	2.6222436
86	0x3fb0a676	1.38008
87	0x3f63dc75	0.89008266
88	0x3ee54f7f	0.44787213
89	0x3f17c85c	0.592901
90	0x3f0d0a1b	0.55093545
91	0x3f137ece	0.57615364
92	0x3f3bf15b	0.73415154
93	0x3f858848	1.0432215
94	0x4012ec9a	2.295691
95	0x3fd04986	1.6272438
96	0x3fedc641	1.8576127
97	0x3f4a36fd	0.78990155
98	0x3f45fcf7	0.7733912
99	0x4046856d	3.1018937
100	0x41e5fca4	28.74836
101	0x3ec78856	0.38971204
102	0x3e84cde2	0.25938326
103	0x3f063e14	0.52438474
104	0x407b5d1c	3.927558
105	0x3f6a8520	0.9160938
106	0x3e86e1fa	0.2634428
107	0x3f8d5241	1.1040727
108	0x3e7991a5	0.24371965
109	0x3ee2206e	0.44165367
110	0x409518ad	4.659262
111	0x3f5cd7da	0.86266863
112	0x3e02596b	0.12729423
113	0x3fa64972	1.2991164
114	0x40bc8215	5.890879
115	0x3e11d9a4	0.1424318
116	0x3f479dcd	0.7797516
117	0x4050570b	3.2553127
118	0x3fb61b23	1.4227031
119	0x3fa0b3f2	1.2554915
120	0x3fbb57fb	1.4636225
121	0x3f82af46	1.0209739
122	0x3fb1752e	1.3863885
123	0x3ff73cf2	1.9315474
124	0x40073fb6	2.1132636
125	0x3f09d4f5	0.5384057
126	0x3f594d7c	0.84883857
127	0x3f213be5	0.62982017

sequential_1/time_distributed/sequential/batch_normalization_2/FusedBatchNormV31 f4 [128]
0	0xbf894567	-1.0724305
1	0xbf1784f9	-0.59187275
2	0xbf0ecc76	-0.5578073
3	0xbedc5368	-0.43032384
4	0xbe727288	-0.23676503
5	0xbf1dff9c	-0.61718154
6	0xbf01dbc6	-0.5072597
7	0xbe89c949	-0.2691138
8	0xbf1dfc26	-0.61712873
9	0xbdd53b5c	-0.104117125
10	0xbf2f2f11	-0.6843119
11	0xbeca84af	-0.39554355
12	0xbe9c8dc2	-0.30576903
13	0xbf221393	-0.6331112
14	0xbe108c9e	-0.14116141
15	0xbf171df0	-0.59030056
16	0xbf02d032	-0.5109893
17	0xbf2ee2fa	-0.6831509
18	0xbea5cf51	-0.32384732
19	0xbf36bc6c	-0.7138126
20	0xbefbe9a1	-0.49201682
21	0xbeab3faa	-0.3344701
22	0xbea27924	-0.31733048
23	0xbf4bce2c	-0.7961147
24	0xbf060b52	-0.52361023
25	0xbf048335	-0.51762706
26	0xbf3e0326	-0.74223554
27	0xbeb75661	-0.3580809
28	0xbe2fe5a7	-0.17177449
29	0xbeecd27a	-0.4625433
30	0xbf0e6150	-0.5561724
31	0xbf6071d7	-0.87673706
32	0xbf03d043	-0.5148966
33	0xbea82bd6	-0.32845944
34	0xbe2862a0	-0.16443872
35	0xbec1200f	-0.3771977
36	0xbe8b62c0	-0.27223778
37	0xbf3650de	-0.71217144
38	0xbf28ce72	-0.6594001
39	0xbf27214f	-0.652852
40	0xbecbe3b6	-0.39822167
41	0xbf6943ef	-0.91119283
42	0x3da38306	0.07983975
43	0xbf296af4	-0.6617882
44	0xbf0523da	-0.5200783
45	0xbed11312	-0.40834862
46	0xbf1f24e2	-0.62165654
47	0xbf2f8095	-0.68555576
48	0xbe85c3f6	-0.2612607
49	0xbeec1078	-0.46106315
50	0xbf3602cb	-0.7109801
51	0xbf118a7b	-0.5685193
52	0xbf4dec18	-0.80438375
53	0xbc61a4c0	-0.01377219
54	0xbf0c8cd6	-0.549024
55	0xbe1da580	-0.15395164
56	0xbef97bf0	-0.4872737
57	0xbefad428	-0.48989987
58	0xbe912bf9	-0.2835386
59	0xbedc8790	-0.43072176
60	0xbe42fa11	-0.19040705
61	0xbda032cb	-0.07822188
62	0xbee1c3b2	-0.44094616
63	0xbeee7a24	-0.4657756
64	0xbf12c8cb	-0.57337636
65	0xbf1e2e21	-0.6178914
66	0xbec8d552	-0.3922525
67	0xbee6b0a4	-0.4505664
68	0xbe0822c8	-0.13294518
69	0xbf1e36bc	-0.6180227
70	0x3c417396	0.011807343
71	0xbef96360	-0.4870863
72	0xbf203c57	-0.6259207
73	0xbf21baae	-0.63175476
74	0xbe2d4a00	-0.1692276
75	0xbf141ff0	-0.5786123
76	0xbedcbc80	-0.43112564
77	0xbea25580	-0.31705856
78	0xbf6cb537	-0.9246401
79	0xbf05327e	-0.5203017
80	0xbe93cd4c	-0.28867567
81	0xbf2a752d	-0.66585046
82	0xbf0ca6e8	-0.5494218
83	0xbf2030fc	-0.62574744
84	0x3d881c86	0.066460654
85	0xbee8707c	-0.4539832
86	0xbefe4524	-0.49662125
87	0xbddfa5a4	-0.10920265
88	0xbf3738ce	-0.7157105
89	0xbea99901	-0.33124545
90	0xbf1b2f9f	-0.6061954
91	0xbf264734	-0.649524
92	0xbe8efc84	-0.2792703
93	0xbf01f209	-0.5075994
94	0xbebd428f	-0.36964843
95	0xbf0b2e6f	-0.5436773
96	0xbefa35f0	-0.48869276
97	0xbf0fbf21	-0.56151015
98	0xbe861650	-0.26188898
99	0xbe926493	-0.28592357
100	0x3cfe7097	0.031059546
101	0xbeb30839	-0.3496721
102	0xbec65968	-0.38740087
103	0xbebd1e88	-0.36937356
104	0xbe208da4	-0.15679032
105	0xbe5e4a3a	-0.21708003
106	0xbf2616e7	-0.64878696
107	0xbeb18462	-0.34671313
108	0xbeddc684	-0.43315518
109	0xbf4d372b	-0.80162305
110	0xbe7fccc4	-0.24980456
111	0xbe995017	-0.29943916
112	0xbe76d536	-0.24104771
113	0xbe39aa9a	-0.18131486
114	0xbe645c2a	-0.22300783
115	0xbf10d680	-0.565773
116	0xbf35b1e6	-0.70974576
117	0xbeec074c	-0.46099317
118	0xbea5bd31	-0.32370904
119	0xbf0413bc	-0.5159261
120	0xbee9dcfd	-0.45676413
121	0xbee85bbc	-0.45382488
122	0xbdf9a776	-0.12190144
123	0xbe4c01cf	-0.19922565
124	0x3d3e9a68	0.046533972
125	0xbf5d57e5	-0.8646224
126	0xbea9655a	-0.33085138
127	0xbe34f0c4	-0.1766997

sequential_1/time_distributed/sequential/dense/MatMul f4 [32, 128]
0	0x3e3b0f67	0.18267594
1	0x3dd64bdf	0.1046369
2	0xbeb2ed89	-0.3494685
3	0x3e8cb538	0.2748201
4	0xbe14d960	-0.14536047
5	0x3e5fb66f	0.21846937
6	0x3e6841bc	0.22681326
7	0x3d09e5b6	0.033666335
8	0xbdf683f9	-0.120368905
9	0x3e992ba7	0.29916117
10	0xbe174cdf	-0.14775418
11	0xbe53bf55	-0.20678456
12	0x3dbe7949	0.09300477
13	0xbe99edea	-0.30064327
14	0xbe43121a	-0.19049874
15	0xbe7f6f57	-0.24944817
16	0x3e0afb5c	0.13572448
17	0xbc9772ff	-0.018487452
18	0x3daa55b0	0.08317125
19	0xbeca202d	-0.39477673
20	0xbd53bdab	-0.051694553
21	0x3e062b51	0.13102461
22	0xbd704c43	-0.05866648
23	0xbda119af	-0.07866227
24	0x3ea52658	0.32255816
25	0xbdd660b1	-0.10467661
26	0xbda436b0	-0.08018243
27	0x3e5fbfcf	0.21850513
28	0x3dedc7cc	0.11610374
29	0xbd8fe905	-0.07026867
30	0xbe0a29c3	-0.13492493
31	0x3c88d0a3	0.016701048
32	0x3e247b5e	0.16062686
33	0xbe4919d0	-0.19638753
34	0xbd6199f5	-0.055078465
35	0xbe836e23	-0.25669965
36	0x3dfcc69e	0.12342571
37	0xbe31980c	-0.17343158
38	0x3cbfc88e	0.023411062
39	0x3e2d5293	0.16926031
40	0x3d1c3ac2	0.038141973
41	0x3e1a6b06	0.15079889
42	0x3da8edc4	0.08248475
43	0x3e489438	0.19587791
44	0xbdfc450b	-0.123178564
45	0xbe170c79	-0.14750852
46	0x3e61599c	0.2200684
47	0xbe6bf40e	-0.23042318
48	0xbe5efeea	-0.2177693
49	0xbea3b39d	-0.31972972
50	0xbe7f3af0	-0.24924827
51	0xbe337497	-0.17524944
52	0x3d2cf6da	0.042227603
53	0xbd5b7026	-0.05357375
54	0x3ea9652e	0.33085006
55	0xbc3cbe68	-0.011520006
56	0xbea8dc43	-0.32980546
57	0xbdcd1a02	-0.10014726
58	0xbe255b81	-0.16148187
59	0xbe3afc53	-0.18260317
60	0xbce8de5d	-0.028426344
61	0x3cd7b047	0.026329173
62	0xbe8cd5e9	-0.2750695
63	0x3e7e8dd5	0.24858792
64	0x3d0166e9	0.031592283
65	0x3dd77f84	0.105223686
66	0x3d2879e5	0.041131873
67	0xbc9fd264	-0.019509502
68	0xbe81738e	-0.25283474
69	0xbe6f6d23	-0.23381476
70	0xba215215	-0.0006153894
71	0xbd648a3b	-0.05579589
72	0x3bfa56f2	0.007639759
73	0xbe4ef0b3	-0.20209007
74	0x3e759309	0.2398187
75	0x3d80a2a3	0.062810205
76	0xbde21438	-0.11039013
77	0xbc56d394	-0.013111968
78	0xbe594387	-0.21217166
79	0xbd237dc9	-0.03991488
80	0xbc67b819	-0.014143013
81	0xbe7a80a8	-0.24463141
82	0x3ea0dde3	0.31419286
83	0x3e02f834	0.12789994
84	0xbc231975	-0.0099548
85	0xbccc659d	-0.024950797
86	0x3db98182	0.09057905
87	0xbe61ed82	-0.22063258
88	0xbe7227bd	-0.23647971
89	0x3d39a7b6	0.045325957
90	0xbe1db8e8	-0.15402567
91	0x3d84f806	0.06492619
92	0x3e3b8251	0.1831143
93	0x3e0dcfc2	0.13848785
94	0xbd0573e9	-0.032581244
95	0x3e63140f	0.2217562
96	0x3e4ba51e	0.19887206
97	0x3e7e17c8	0.2481376
98	0xbe3ed696	-0.18636546
99	0xbdee8d15	-0.11648003
100	0x3cba3b5b	0.022733381
101	0xbd9c4e35	-0.07632104
102	0x3e1647c8	0.1467582
103	0x3dedd997	0.116137676
104	0x3bfff39b	0.0078110225
105	0x3d068675	0.032843072
106	0x3e41dfe7	0.18933068
107	0x3d89cd87	0.06728654
108	0x3e31de57	0.17369972
109	0x3e851f06	0.26000232
110	0xbe02574a	-0.1272861
111	0xbdccac20	-0.09993768
112	0xbe10e019	-0.14147986
113	0x3d9211cf	0.07132303
114	0xbc4a6003	-0.012351993
115	0xbd9a5f6b	-0.07537731
116	0xbd7190ff	-0.05897617
117	0x3e95db13	0.29268703
118	0xbd7af3e2	-0.06126774
119	0x3ca4e6f6	0.020129662
120	0xbe910a67	-0.2832825
121	0xbe9165ef	-0.28398082
122	0xbd294f16	-0.041335188
123	0x3dc5dfc0	0.096618176
124	0x3d977327	0.073950104
125	0xbe098a73	-0.1343172
126	0x3df891a5	0.121371545
127	0xbe7d320a	-0.2472612
128	0x3d4969ed	0.049173284
129	0x3da37f32	0.07983245
130	0x3dab510e	0.08365069
131	0x3e70d74c	0.23519629
132	0x3e87f05a	0.2655056
133	0xbae82c69	-0.001771343
134	0xbe296c7f	-0.16545294
135	0xbdea8530	-0.11451185
136	0xbe11044e	-0.14161798
137	0xbe387732	-0.1801422
138	0xbe1a97ec	-0.15097016
139	0x3dccb024	0.09994534
140	0x3dc229e1	0.09480644
141	0xbd8e6562	-0.06952931
142	0x3eca11e2	0.39466769
143	0x3d2731b2	0.040818878
144	0xbe1d1383	-0.15339474
145	0xbd870064	-0.065918714
146	0x3d6e7e80	0.05822611
147	0x3d050139	0.03247187
148	0xbc9756bc	-0.018473975
149	0x3d011777	0.03151652
150	0x3d40a130	0.04702872
151	0xbd9350d3	-0.0719315
152	0x3d95d8bd	0.0731673
153	0xbdb82dcc	-0.0899311
154	0x3d5dec0d	0.054180194
155	0x3e35b625	0.17745264
156	0x3e0384c7	0.1284362
157	0xbe27cc9c	-0.16386646
158	0x3d862078	0.06549162
159	0x3e5ebc94	0.21751624
160	0xbc200dd8	-0.009768926
161	0xbe138226	-0.14405116
162	0x3e6f1299	0.23346938
163	0xbdecfa86	-0.11571221
164	0x3cefc80f	0.0292702
165	0xbe6a1cd9	-0.22862567
166	0x3cd4c5b5	0.02597318
167	0x3e614e73	0.22002582
168	0xbdc7e9d7	-0.09761398
169	0x3e5a86cb	0.21340482
170	0xbe5df98b	-0.21677224
171	0xbcb96961	-0.022633256
172	0x3e3302c4	0.17481524
173	0xbd3ea2b1	-0.046541873
174	0xbdd1437c	-0.1021795
175	0xbe592ece	-0.21209261
176	0x3ed2b9d4	0.411574
177	0x3dd0accc	0.101892084
178	0x3e04f2e9	0.12983288
179	0x3c324f19	0.010883116
180	0x3e7a8dd0	0.2446816
181	0xbe6c18b7	-0.23056303
182	0x3df5ee39	0.12008328
183	0xbdd79b8f	-0.10527717
184	0x3dec563e	0.11539887
185	0x3ca5da94	0.020245828
186	0xbb98cbb6	-0.004662956
187	0x3d71e8e0	0.059059978
188	0x3e5265c1	0.20546629
189	0xbd7e0c7a	-0.062023617
190	0x3d2270d7	0.039658394
191	0xbdd4a83d	-0.103836514
192	0x3e46d27f	0.19416235
193	0xbd851631	-0.06498373
194	0x3d00267a	0.031286694
195	0xbcc54b1c	-0.024083667
196	0x3c9de83f	0.019275783
197	0xbd80468d	-0.062634565
198	0xbd131a9a	-0.03591404
199	0x3e008cb6	0.12553677
200	0xbd5ff2d3	-0.054674935
201	0x3e140d00	0.14458084
202	0x3e0752c8	0.13215172
203	0x3e07a822	0.13247731
204	0xbda5bc5f	-0.080925696
205	0x3e11f9e0	0.14255476
206	0x3e9d0027	0.3066418
207	0xbe3ab87e	-0.1823444
208	0x3e18f04b	0.14935414
209	0x3d1f6912	0.038918562
210	0xbd226460	-0.039646506
211	0x3e6498ae	0.22323868
212	0x3e0075d0	0.12544942
213	0x3e29e6a2	0.16591886
214	0x3eb06c0c	0.34457433
215	0x3d6f4fa1	0.05842555
216	0x3c797912	0.015226619
217	0x3d8f842e	0.07007633
218	0x3d82a6bb	0.063794576
219	0xbe441558	-0.19148767
220	0x3df5a80b	0.11994942
221	0xbe2bad22	-0.16765264
222	0x3edf35c5	0.4359571
223	0xbc8f2b18	-0.017476603
224	0x3d20b30f	0.039233264
225	0x3ea891b3	0.3292366
226	0x3d7ab484	0.06120731
227	0x3dc2e832	0.09516944
228	0x3e9b33c5	0.30312935
229	0xbdc4f8cd	-0.096177675
230	0x3d89f486	0.06736092
231	0xbe6fd2ef	-0.23420309
232	0x3e79a2cc	0.24378508
233	0xbdaa6beb	-0.08321365
234	0x3e80c2df	0.25148675
235	0x3e5d4e16	0.21611819
236	0x3e5962c1	0.21229078
237	0x3e05df9a	0.13073578
238	0x3ef74773	0.482967
239	0x3d706562	0.058690436
240	0xbdd18502	-0.10230447
241	0xbeb01580	-0.34391403
242	0x3e0109ec	0.12601441
243	0x3e096676	0.13417992
244	0x3e4fedb7	0.20305525
245	0x3e8a03f2	0.26956135
246	0x3cdc97be	0.026927825
247	0x3d60997b	0.05483387
248	0xbe374483	-0.17897229
249	0x3e1a1a7f	0.1504917
250	0x3e9c4ada	0.30525857
251	0x3dc5ee5b	0.09664603
252	0xbeb19517	-0.3468406
253	0x3e11f20b	0.14252488
254	0xbe76242c	-0.24037236
255	0xbe2d2c02	-0.16911319

sequential_1/dense_1/MatMul f4 [8, 8]
0	0x3f43d1a1	0.76491743
1	0x3d046965	0.032327075
2	0x3e6cf5e2	0.23140672
3	0xbf36f158	-0.7146201
4	0xbed965dc	-0.42460525
5	0x3be2a9ee	0.00691723
6	0xbf7181fc	-0.94338965
7	0x3f3eb2ee	0.74491775
8	0x3eddb582	0.43302542
9	0xbe36d857	-0.17855965
10	0xbe26a466	-0.1627365
11	0x3ee7ff40	0.45311928
12	0xbd3e254a	-0.04642228
13	0x3e64260d	0.2228014
14	0x3f22392d	0.63368493
15	0xbf270b14	-0.6525128
16	0x3e9a0176	0.3007924
17	0xbf2f43ad	-0.6846264
18	0x3e17c1af	0.14819978
19	0x3f03a292	0.5141994
20	0x3f46e622	0.77694905
21	0x3f534392	0.8252498
22	0x3eff9ddf	0.49925134
23	0xbd786b4e	-0.06064921
24	0x3e217105	0.1576577
25	0xbc42ce5b	-0.011890019
26	0xbf438968	-0.7638154
27	0x3d8f4e16	0.069973156
28	0x3f1c49d6	0.61050165
29	0x3f547866	0.82996213
30	0x3f933d54	1.1503091
31	0xbec146f3	-0.37749442
32	0x3f30b856	0.69031274
33	0xbf61dfdb	-0.882322
34	0x3f55c4e8	0.8350358
35	0xbf040f8d	-0.5158623
36	0xbfa7d912	-1.311312
37	0xbf38ca2b	-0.72183484
38	0xbe14639b	-0.14491121
39	0x3f86635e	1.0499074
40	0x3ed7c6c0	0.42143822
41	0xbf1d916d	-0.6155003
42	0xbf1b1af9	-0.6058803
43	0x3f005f1d	0.5014513
44	0x3eb63a3e	0.3559131
45	0x3eec3f50	0.46142054
46	0x3f63ece2	0.8903333
47	0xbf401e47	-0.750462
48	0x3f3278ae	0.6971539
49	0xbf3337e6	-0.7000717
50	0xbf2a5768	-0.6653962
51	0x3e0ba02d	0.13635321
52	0x3f263fe3	0.64941233
53	0x3f5dc250	0.8662462
54	0x3f935899	1.1511413
55	0xbf7e4ab1	-0.9933272
56	0x3eda53e9	0.42642143
57	0xbf30f1ea	-0.6911913
58	0x3f71c318	0.94438314
59	0xbf81bd59	-1.0135909
60	0xbfa3efd8	-1.280757
61	0xbf699aac	-0.91251636
62	0xbf472ec0	-0.7780571
63	0x3de359d7	0.1110112

sequential_1/dense_2/MatMul f4 [1, 8]
0	0x3f469574	0.775718
1	0xbeb496fe	-0.35271448
2	0xbf851b44	-1.0398946
3	0xbf942d62	-1.157635
4	0x3f9a898a	1.2073224
5	0xbf6467df	-0.89220995
6	0xbf8eaf2a	-1.1147206
7	0x3f9b7c3e	1.2147291

sequential_1/lstm/Read_2/ReadVariableOp1 f4 [32]
0	0x3c01e165	0.007927273
1	0xbd950260	-0.072758436
2	0x3e1ea1dc	0.15491432
3	0xbc53fc39	-0.012938553
4	0x3cf312ba	0.029672015
5	0xbddeadea	-0.10873015
6	0xbca86f0a	-0.02056076
7	0x3d5f2e12	0.054487295
8	0x3f886339	1.065528
9	0x3fad2dc2	1.3529589
10	0x3f80c9aa	1.0061543
11	0x3f800080	1.0000153
12	0x3f9de90e	1.2336748
13	0x3f7fba19	0.9989334
14	0x3f6596f8	0.89683485
15	0x3fa647fd	1.2990719
16	0xbe66083d	-0.2246408
17	0xbe11ff4f	-0.14257549
18	0xbdd9d697	-0.10636633
19	0x3cdb9c51	0.026807936
20	0x3e06cd32	0.13164213
21	0xbcc4ab0a	-0.024007339
22	0x3e01a321	0.12659885
23	0xbe83753a	-0.25675374
24	0x3d462d5e	0.04838311
25	0x3e607ce5	0.21922643
26	0xbdbc61ab	-0.09198316
27	0xbda0fa39	-0.07860226
28	0xbe333732	-0.17501524
29	0xbcd3e3d7	-0.025865478
30	0x3dd6947f	0.10477542
31	0x3e670b6f	0.22562955
