models/model.tflite (tflite, 542900 bytes, 20 tensors)

sequential/conv2d/BiasAdd/ReadVariableOp f4 [32]
00000000: e744 fa3e 9800 433f 541c e63e 0e78 913e
00000010: 58a9 b03d 1728 c0bd 3704 e53e 8117 063e
00000020: e10b fe3e f644 3b3f 7316 8fbe 0992 303f
00000030: 5cfa 9d3d abe9 5b3e 28de 663f dfc0 283e
00000040: 263d b23e 8415 413e 5d26 98bd f9e3 c23d
00000050: 7adc a93e 6d51 c7bd d126 0dbf 8f66 3a3f
00000060: 8983 6a3d 04c7 8b3e c72b 9c3d d932 143f
00000070: edb1 c13d 413c 183e 1a6f b63c e372 d63d
0.48880693 0.7617278 0.44943488 0.28411907 0.0862605 -0.093826465 0.44729778 0.13094904
0.49618438 0.731521 -0.27946815 0.6897283 0.07713768 0.21475856 0.90182734 0.16479824
0.34812278 0.18855864 -0.07429192 0.095161386 0.33176023 -0.097323276 -0.55137354 0.7281274
0.057254348 0.27300274 0.07625537 0.5789009 0.09457765 0.14866735 0.022269774 0.10471132

sequential/conv2d_1/BiasAdd/ReadVariableOp f4 [64]
00000000: f4bb de3d fade 27be 2db1 dabe cfef 8f3e
00000010: 156e bcbd 52c9 93be 2ea9 6c3e fd5d dc3e
00000020: a020 a53e 4094 98be b3bf 033e 48da 24be
00000030: 1f5f 0c3f 76bb 293f d090 223e 43b3 423d
00000040: 42de fabe f541 8c3e e6d6 c1bd 134c aa3d
00000050: 2665 5fbd b17f bfbd b707 e4bd 836a 9e3e
00000060: 6522 17bf 3b0f c93e beae 3e3f 41ad 533e
00000070: 9d58 9fbe 1e8b c23e f501 debe a2a5 d13b
00000080: adb7 973e ab66 e63e 0527 fd3d 1675 7c3e
00000090: 4305 be3e 8f32 b8be e93e ce3e a9b1 593e
000000a0: 7ece 80be 6729 3d3d 5422 ea3e e2e6 e43e
000000b0: 8823 163f 4b86 0e3e 0576 843d 0e92 173e
000000c0: e501 fa3e c9f8 973d 989f e23c 8239 11be
000000d0: f6d0 97bd 9ada 07bf dc49 1c3f fec4 9d3e
000000e0: 444f c4be f438 45bd e880 cc3d 478e c5be
000000f0: b2b9 d1bc 41f6 183d 7a01 193f bca2 14bd
0.10875693 -0.16393653 -0.427133 0.28112647 -0.09200684 -0.28864533 0.23111412 0.43040457
0.32251453 -0.29800606 0.12866096 -0.16098893 0.54832643 0.6630167 0.15875554 0.04753424
-0.48997694 0.2739407 -0.09464817 0.08315291 -0.054539822 -0.09350527 -0.11134284 0.30940637
-0.59036857 0.39269432 0.74485385 0.2067156 -0.31122294 0.37996763 -0.43360868 0.006397919
0.2963232 0.45000204 0.12360958 0.2465404 0.3711339 -0.35976073 0.40282372 0.21259178
-0.2515754 0.046182062 0.45729315 0.447074 0.58647966 0.13918416 0.06467823 0.14801809
0.4882957 0.07420499 0.02766399 -0.14182094 -0.07412903 -0.53067935 0.610502 0.30814356
-0.38341725 -0.048150018 0.099855244 -0.38585111 -0.025601242 0.03734422 0.5976788 -0.036288008

sequential/conv2d_2/BiasAdd/ReadVariableOp f4 [128]
00000000: 78ba fb3c 7bcb 543e 6461 9d3d b937 bd3e
00000010: 1a4f d23c 3b04 ff3d 1478 2e3d 1ea8 983e
00000020: da7c 873e a921 02be 9b94 3a3c 3acf 9bbd
00000030: 69ae 9c3e 1a3f e53d e6b5 c4bd d270 23be
00000040: 4c73 b0bd 629c 96be 8ea5 c0bd 58a3 9bbe
00000050: fbbf babd 7fc3 babd 9403 083f 06b6 0e3e
00000060: af7d 873e 104d 063d edd0 1cbe 6543 8a3e
00000070: 6700 9c3d 697b 6d3e 2f3a cebe b000 87be
00000080: 1038 1ebd 4e8e ba3d 0e04 15be a50f 00bd
00000090: 9b19 a7bd d666 af3f 2a2f 2ebe 4ae2 3340
000000a0: 9610 2840 5522 d0bd 737c 89be 41de 8dbe
000000b0: d290 393d e4da 143e 1645 b9bd d43d e13d
000000c0: d3f6 fb3e a226 bf3d f784 3c3e 69a8 213f
000000d0: 4306 743e 1793 c4be 3111 da3e 8d6f 2b3d
000000e0: 3973 e63d cf8e 6bbe 397e a3be 04f0 b83d
000000f0: 3f5b 03bf 5359 083f 9c84 98be 690e 42be
00000100: f4a0 993e 9c76 b6be a290 86bb a4ac 88be
00000110: e790 053f 4ec7 14bd 6401 d23e d31b 963e
00000120: 847d 853e a932 893d 84b2 513e 2bda ab3e
00000130: 4e49 57bc 4f1e 483e f251 263d f18b 0d3d
00000140: bcbc 233f b590 6cbe 0921 b53e 8a8a 463f
00000150: f0be 03be 6d46 1040 695d de3e e512 053f
00000160: f8fc d93e e58e 3a3e c0d3 59be 4c5d 73be
00000170: a375 e63d 27a3 92be 76af e13a 606e bdba
00000180: 781d 273e 899b 16be bf0a 363f c703 01be
00000190: dc92 59be 3a50 1ebe ed0b ba3e 5b46 9ebc
000001a0: b7b6 4abe 142f 5c3f 1a08 95bd e30a bf3e
000001b0: 5390 f33d 4ca7 4b3e 2f38 95bd 3efe 093f
000001c0: eb96 1fbe 6693 02bd 4abb 1abd ca83 c6bd
000001d0: 7c5f 613e 34c8 a6be e554 9a3e 3ac4 8bbd
000001e0: 1a69 cf3d b5b7 033f 361a 873e 9c58 bf3c
000001f0: 2c50 c6bd 1bd5 9fbd 65fa b53e 2c1a f83e
0.030728564 0.20780747 0.076845914 0.36956576 0.025672484 0.12451979 0.042594984 0.29815763
0.26462442 -0.12708153 0.011387969 -0.07607885 0.30601814 0.11193676 -0.09605007 -0.15961006
-0.08615741 -0.29416186 -0.09406577 -0.3039806 -0.091186486 -0.09119319 0.5313046 0.13936624
0.26463076 0.032788336 -0.15314074 0.27004543 0.07617264 0.23191608 -0.40278766 -0.26367712
-0.038627684 0.09109174 -0.14552328 -0.03126492 -0.08159181 1.3703258 -0.17010179 2.8106866
2.6260123 -0.10162798 -0.2685276 -0.2770863 0.045304127 0.14536625 -0.0904638 0.10998121
0.4921175 0.093335405 0.18410097 0.631476 0.23830514 -0.3839347 0.4259124 0.04185443
0.11252446 -0.23003696 -0.31932238 0.09030154 -0.51311105 0.532613 -0.29788673 -0.1895081
0.3000561 -0.35637367 -0.004106597 -0.26694214 0.5217423 -0.036322884 0.41016686 0.29318103
0.26072323 0.06699116 0.20478255 0.33564886 -0.013140036 0.19542812 0.040605493 0.034557287
0.6395986 -0.23102076 0.35376766 0.77555144 -0.12865806 2.2542984 0.4343064 0.51981956
0.42575812 0.18218572 -0.21272182 -0.23766059 0.11252906 -0.286401 0.0017218429 -0.001445245
0.16319835 -0.1470777 0.7111015 -0.12599097 -0.21247429 -0.15460292 0.36337224 -0.019320657
-0.19796263 0.86009336 -0.07276936 0.37312993 0.11892762 0.19888037 -0.07286107 0.5390357
-0.15584914 -0.03187885 -0.03777627 -0.096931055 0.2200908 -0.32574618 0.30142894 -0.068245366
0.101274684 0.5145219 0.26387185 0.023357682 -0.0968326 -0.078043185 0.35542598 0.48457468

sequential/conv2d/Conv2D f4 [32, 5, 5, 1]
00000000: 5c9a 94bd 3844 883e 9a68 a2be 63a6 74be
00000010: ad3a 863e 037c 9e3d f0e6 8c3d a0e1 12bf
00000020: 4cd6 b4bc 91ae 153e 66f6 893e d73c 54bf
00000030: 2e68 bbbd 3925 6e3d 2c49 9cbd 27f8 ae3d
00000040: 3b79 22bf b7a4 e2bd 9da1 923e 0529 34be
00000050: eceb 4fbe 1b76 34bd 5ad6 0d3e 9a1d db3e
00000060: c929 c0be 33ba 08bc 3169 c6be e55d abbd
00000070: 4cf2 4c3e f35b 303e 5174 333c 8742 ae3e
00000080: 011e 3b3d da2d 1a3d 103e 2fbe 7dd4 cd3b
00000090: ea52 b63e a875 253e b84b d9bd 925e b83d
000000a0: e438 8dbe 5b9d 35bd 9395 5abe f9d4 8ebf
000000b0: 3899 32bf a914 08bc 7180 a0be 2921 f8bd
000000c0: e0f0 383b 5f9d e7be 3d75 9e3d fcc5 8d3d
000000d0: 4253 59bf 9f4a a2be edee b53e f79b 26bf
000000e0: fcd2 80be 0fe5 8bbe c69d 863d 6936 5f3e
000000f0: 52bf 0bbe fd3b e2bc bd93 493e 8003 27be
00000100: 3c46 773d 0b66 f43d 2192 483e a39a a73e
00000110: dcc6 61be 5d85 64be 530f 573e aa11 783d
00000120: d706 c4be c807 14bf b03a 1ebd cd36 c1bd
00000130: 0cd3 d43d 2d09 e4bd 2fb7 b6be 4d4c 54be
00000140: 1c8a 50be 8ffa bf3e 5325 e93d 62bd ad3e
00000150: 5930 663d 68a5 9c3e 0a7f 123f a9cd b53d
00000160: d5b9 013f fea9 60be abad 1dbd 75af 413e
00000170: 74e7 6f3e 8857 4f3c 9fa0 4cbd b9d7 babe
00000180: 2399 b63e 9455 1fbe 81f2 1c3f 689a b53b
00000190: cd38 1abe cd41 283e 3726 1fbe 034e f6bd
000001a0: 8d49 49bf 6e5c bcbe 8efc 59bf b3ac e0bd
000001b0: dea7 c7be f83c 6abe ff5b 3abe e051 a0bf
000001c0: 0827 23bf 568e 18bf 856e b8be a6f0 af3e
000001d0: 2584 59bd 45c2 4fbe c217 823d f62d 20bd
000001e0: a36a 073e 9a2f 853d c466 8a3e e31b 403e
000001f0: 564f bebd c9af 99be 1542 973d b265 733e
00000200: 742b 383f ae29 af3e 5586 cebe c0d6 0dbd
00000210: e774 773e 9d85 423e 071c 41bd bbca 57be
00000220: 6300 f4bd cc36 ed3e e092 6b3e 0902 98be
00000230: dd03 aebc 8b85 28bd bd60 f03e 536b 283c
00000240: ce4e 843c b7db 6d3d 13b1 43bc 9c9a a9bd
00000250: db58 6ebe 7ec1 a93c 86c3 d63d f808 c53e
00000260: 4045 80be d073 883c 637b a63d a6cc e93e
00000270: 7bff 3f3d 6a98 1f3f faaf d2bc 1cc2 05bf
00000280: 5365 efbd f7ad afbe 9ef7 d73e 32d0 273e
00000290: 1a01 e4be fd35 98bc a161 64bd 2321 06be
000002a0: facd f2bb 85f8 d1bc c27f aabe 4981 9a3d
000002b0: 62ac 91bd 33db 263d 2748 d1be b7ae d23d
000002c0: 60f9 773d 5bf5 743e 6016 ef3e 3a7b 90be
000002d0: 9b37 ac3d 1316 8c3e 29bc 163e 1e08 1fbe
000002e0: 2ea8 88bf a3f2 b53d 3686 7e3d d147 f5bd
000002f0: 3eb5 23bf 6e35 18bf 3458 7e3e e28f 063e
00000300: 095a 3cbe 6e34 83bf 9143 25bf 7da1 d83d
00000310: b5de 4dbe 1f8c 8fbf 893f 1cbf 1082 7fbf
00000320: 1cf2 f1be cc3d d3bc 78af f13d 44ec cfbe
00000330: ae41 2bbe 644c 583e 8e74 363d e99a 6bbe
00000340: 5009 4b3d 6177 2d3d df8b 5c3e 07de 223e
00000350: bb15 a0be c969 793d e564 483e fd08 863e
00000360: 5f73 693e b971 92be 849c 103e bc7f 38bd
00000370: b958 cfbe 602f 23bf 9094 b3be 10f9 69be
00000380: cc4f 813d 4de5 27bf ea80 3f3e 203e 3a3e
00000390: 5c03 09bf 6370 dcbd 28b4 203e 37dc 153e
000003a0: 8659 acbd 4ab8 acbe 0184 0c3e 8848 c43d
000003b0: 82cd d8bd 56a8 6dbe 2e90 d2bc aaac d53e
000003c0: bf70 3fbe e4e2 943c 4933 5fbe 375d 013e
000003d0: 1f18 923e 5a8b 4f3e b693 10bf 28cc 2abf
000003e0: f36b d83d 8bae 27be 74f7 7abe 6e01 cabd
000003f0: d71c a33c d5c6 9d3e 139d 8c3d 7ef1 9abd
-0.07256004 0.26614547 -0.3172043 -0.23891596 0.2621664 0.07738497 0.06879985 -0.57375526
-0.022074841 0.14617373 0.269458 -0.82905334 -0.0915073 0.058140967 -0.07631144 0.08543425
-0.63466233 -0.11066573 0.28638926 -0.17593773 -0.20304841 -0.044057947 0.138513 0.42796022
-0.3753188 -0.008345175 -0.3875213 -0.08367518 0.20014304 0.17222576 0.010953025 0.3403513
0.04568291 0.037641384 -0.17113519 0.006281434 0.35610133 0.16158164 -0.10610145 0.09002413
-0.27582467 -0.04433952 -0.2134612 -1.1158744 -0.69765043 -0.008305707 -0.31347993 -0.121157
0.0028219745 -0.45237252 0.07737205 0.06922528 -0.84892666 -0.31697556 0.35533848 -0.65081733
-0.25160968 -0.27323195 0.06573062 0.217981 -0.13647202 -0.027616495 0.19685264 -0.16309929
0.060369715 0.11933526 0.19586994 0.32735166 -0.22048515 -0.22316499 0.2100194 0.06056372
-0.38286468 -0.57824373 -0.038630188 -0.094342805 0.103918165 -0.11134563 -0.35686633 -0.20732231
-0.20365185 0.3749585 0.11384072 0.3393355 0.05619845 0.30594945 0.57225096 0.08877117
0.5067418 -0.21939847 -0.0384957 0.18914588 0.23428136 0.012655146 -0.049957868 -0.36492708
0.3566371 -0.15559989 0.6130753 0.0055420883 -0.1506073 0.16431351 -0.15541922 -0.12026598
-0.78627855 -0.36789268 -0.8515099 -0.1097044 -0.3899526 -0.2287482 -0.18199156 -1.2524986
-0.6373143 -0.5959219 -0.3602182 0.34363288 -0.05310454 -0.20288952 0.06352188 -0.03910633
0.13224272 0.0650322 0.2703153 0.18760638 -0.09292476 -0.30016926 0.07385651 0.23769262
0.71941304 0.34211487 -0.40336862 -0.03462863 0.24165688 0.18996282 -0.04714587 -0.2107343
-0.11914136 0.4633087 0.23005247 -0.29689053 -0.021242077 -0.04114298 0.46948805 0.010279494
0.016150858 0.058070865 -0.011944073 -0.082814425 -0.23276083 0.020722147 0.10486512 0.38483405
-0.25052834 0.016656786 0.08129003 0.45663947 0.046874505 0.6234194 -0.025718678 -0.5224931
-0.11689248 -0.34312412 0.42181104 0.16388014 -0.4453209 -0.018580431 -0.05575717 -0.13098578
-0.007409808 -0.025631199 -0.33300596 0.075441904 -0.071129575 0.04073639 -0.4087536 0.102872305
0.060540557 0.2392172 0.46696758 -0.28219014 0.084090434 0.2736059 0.14720215 -0.1553044
-1.0676324 0.0888417 0.062139712 -0.119765885 -0.6394843 -0.5945653 0.24838334 0.13140824
-0.1839372 -1.0250375 -0.64556223 0.105776764 -0.20104487 -1.1214637 -0.61034447 -0.99807835
-0.47255027 -0.025786303 0.11801046 -0.40609944 -0.16724274 0.2112289 0.04454475 -0.23008312
0.049569428 0.042350177 0.21537732 0.15905009 -0.3126658 0.0608919 0.19569738 0.26178733
0.22797917 -0.28602389 0.14122206 -0.045043692 -0.40497378 -0.63744164 -0.35074282 -0.22848916
0.06314048 -0.6558426 0.1870152 0.18187761 -0.5352075 -0.107636236 0.15693724 0.14634787
-0.08415513 -0.3373435 0.1372223 0.09584147 -0.105860725 -0.23208746 -0.025703516 0.41733295
-0.18695353 0.018174596 -0.21796907 0.12633215 0.28534028 0.20268002 -0.5647539 -0.6671777
0.10567465 -0.16375177 -0.24508458 -0.09863554 0.019911213 0.3081576 0.06865897 -0.07565592

sequential/conv2d_1/Conv2D f4 [64, 5, 5, 32]
00000000: 10f8 c4bc 6b6e a83c 5f54 9a3e 0ca8 833e
00000010: b7d6 6ebc 1731 893e 08f7 4f3e b2d0 393e
00000020: 94df 88be d0a2 84bd 8c02 9f3e fda1 ba3e
00000030: a65f 903c e7d5 42be 2896 a53e fa13 f5bd
00000040: f5e2 91be 61ca ea3d a63d 5a3d 9007 d43e
00000050: 0f35 ffbd 2cf7 f03e 8498 7e3c df08 b93d
00000060: 5a4e 4ebe fb21 b0bd d9f1 943e a7a8 16bd
00000070: b755 b03e a7e6 7a3e 728c 783e e264 fe3c
00000080: ebdb 8fbd 5dfc 8c3e ac23 803e b6ae 22be
00000090: 1a02 f7bd 6140 4abe 9e6f 1fbd 53cd 103f
000000a0: 6538 30be e50f bb3d fde0 42bd 09c5 4a3e
000000b0: e8e7 623c 2ef3 213e e2fa 063f ddca fe3e
000000c0: 6ac2 13bf ba86 64be 9609 f2bd 7aec 03bf
000000d0: 2dac 2a3f 4171 5d3c d749 28bd 6e80 ecbe
000000e0: 14b6 efbe 5d94 13bf 66df c6be 5860 75bf
000000f0: f6c8 d53d 476a 1ebf 22ad a23d 8e57 c03d
00000100: 9ed4 463e 7564 39be 8ef6 7a3e fe98 25be
00000110: 1dc7 393e 48ce debd 2e43 29bf 011c 363f
00000120: db0e 0f3d 694d aabe 82cd 273c ad22 bfbb
00000130: f7a8 4c3e fdf4 5cbd 7ef7 053f 611a c73e
00000140: 6cc5 d3bd 25f6 b53e 85a9 36be a414 cbbe
00000150: 1c51 103f f133 733e 3a5e 66bd 7a11 e9be
00000160: 0220 e4be 1332 c83d 9524 62be 1d39 2cbf
00000170: e4f8 fc3e e07c 2bbf 439a 213e 6b66 3fbd
00000180: e14d d53e 4f2d 373a 02af 9c3d b443 05be
00000190: 735c 683e 1c3d a9be 5092 44bf 6938 6ebd
000001a0: 98a1 333e a1bb a83b dd10 1d3d 07f0 c43e
000001b0: 6e7f 8dbe fe8c dabe ae65 253f 3271 c13e
000001c0: 2cb9 d8bd 47e0 033f 599e 97be 9d14 dfbe
000001d0: 8b59 993e a724 f8ba a294 3fbe cd39 093f
000001e0: 43ba cbbe 50e7 3f3d bda6 583e 19a9 013f
000001f0: e404 91bd 9bb1 a23e d93c 0bbe 37dc fabe
00000200: 8cf4 49be 3b0d 2ebe 4aee 853d 29e9 a73c
00000210: 917a 69bd ec0e bdbe d7ce bebe 9878 80bf
00000220: e801 a1bd 20e6 09bb c334 edbd 24d8 ec3d
00000230: 3e85 3abe 5685 4cbd dc3a cabe 48a4 5abe
00000240: b64c 9a3d 31d0 543f b878 ecbe 1dfb 6ebc
00000250: 51a5 63be fcbf 62be f4a2 2d3c 5e17 c43e
00000260: 317b 5c3d 6b12 2c3f 92a1 1ebf 3f11 c93e
00000270: af70 dd3e 3b46 c13d 953e 19bd 59bb e3bd
00000280: 530b 2b3e 13e0 e13e 118d c3be 238e da3d
00000290: b9e3 5f3e 2f49 73bd 4528 44bc b08b 71be
000002a0: 8850 703d c621 a9be e211 5dbd 0a05 b73e
000002b0: d6c5 153a 8bb4 eebd b2d3 39be 37fd a4bd
000002c0: 317a 08bc 04f9 23be d98b a13e ed51 70be
000002d0: 8977 693e f1fb 893d aee2 e53d d5cb ff3d
000002e0: 918d f13e fbe2 093e eacc 1bbe a22a 25bd
000002f0: ce6b 163d bd0e f1bc 4ade 9abe 3666 79be
00000300: 91a4 fabd 9e19 ed3e d5f4 8c3e 9654 cf3d
00000310: 8ba3 db3e 6e11 783e b45f 13bd 6947 273e
00000320: b89a 043f d849 1f3e d85d 973e fea0 a13d
00000330: 1611 1cbe 5b3b b83c 3d56 623e 3a3f 94bd
00000340: 3071 623e 2262 123e 5935 62bd fcc2 393e
00000350: 6c29 e03c f9fc 8d3e ded5 e23d 79df 0f3c
00000360: 452d 323e d9cf b23e f7e2 d63e 7116 3f3e
00000370: 04dc b1be 4caf 173f fcd6 05be 93b7 25bd
00000380: dbb2 39be e8df 983e a366 95bd 659f 3e3e
00000390: cf30 b43d 9e08 083e 2167 b63e a957 023f
000003a0: 61a6 e43d 7f70 1f3e 07de a53d e8ce 113f
000003b0: 63f8 adbe c7ee bd3e 1c73 763e 3d46 7d3e
000003c0: 4e00 123f 6ff0 af3e 6260 0c3e 9b4c 9b3d
000003d0: 9714 593f 3102 4a3a 5459 cbbd 4c77 5f3f
000003e0: 7911 2e3e 25a3 6e3e 056b 93bd b638 033d
000003f0: 26bb babe 6a84 243d 2d60 45bc 284d 543d
-0.024044067 0.020560464 0.30142495 0.25714147 -0.014577559 0.26795265 0.20309079 0.18146017
-0.26733077 -0.064763665 0.3105663 0.36451712 0.017623734 -0.1902691 0.32341123 -0.11966701
-0.28493467 0.11464382 0.05328145 0.4141202 -0.12461292 0.47063577 0.015539292 0.09034895
-0.20147076 -0.08600231 0.29090765 -0.036781933 0.34440395 0.2450205 0.24272326 0.031053964
-0.07024368 0.27536288 0.25027215 -0.1588696 -0.12060948 -0.19751121 -0.038924806 0.565633
-0.17209013 0.09133891 -0.047577847 0.19801725 0.013849236 0.15815422 0.52726567 0.49764147
-0.5771853 -0.22317019 -0.118182346 -0.5153271 0.6666897 0.013515771 -0.041086044 -0.46191734
-0.46818602 -0.5764826 -0.38842314 -0.95850134 0.10438721 -0.61880916 0.07943179 0.093917
0.19417045 -0.18104728 0.24508116 -0.16171643 0.18142362 -0.10879189 -0.66118133 0.7113648
0.034926277 -0.33262184 0.010241868 -0.005832991 0.1998633 -0.053944577 0.5233077 0.38887313
-0.103403896 0.35539356 -0.17838104 -0.39664185 0.56373763 0.23750283 -0.056242205 -0.45521146
-0.4455567 0.09775176 -0.22084267 -0.6727465 0.49408638 -0.6698742 0.15781502 -0.046728533
0.4166098 0.00069876475 0.076505676 -0.13014108 0.22691517 -0.33054435 -0.76785755 -0.058159266
0.17542112 0.0051493202 0.03834616 0.38464376 -0.27636284 -0.42685694 0.64608276 0.37781674
-0.10582194 0.51514095 -0.29612997 -0.43570414 0.29951128 -0.0018931822 -0.18709043 0.5360382
-0.39790544 0.046851456 0.21157356 0.5064865 -0.07081011 0.31776127 -0.1359743 -0.48996136
-0.19722193 -0.16997235 0.06539591 0.020496922 -0.057001654 -0.36925447 -0.3726718 -1.0036802
-0.07861692 -0.0021041706 -0.11582329 0.11564663 -0.1821489 -0.049931847 -0.3949803 -0.21351731
0.07534163 0.83130175 -0.4618585 -0.014586237 -0.22231032 -0.22143549 0.010597933 0.38299078
0.053828422 0.67215604 -0.61965287 0.3927097 0.43250033 0.094372235 -0.0374132 -0.11119718
0.16703539 0.44116268 -0.38193563 0.10671642 0.21864213 -0.059395965 -0.011972492 -0.23588443
0.05867055 -0.3303358 -0.053972133 0.35746032 0.0005713379 -0.116555296 -0.18147162 -0.080561094
-0.008329914 -0.1601296 0.31552008 -0.23468752 0.22799505 0.06737507 0.11224876 0.1249005
0.4717832 0.13465492 -0.15214887 -0.04032386 0.036723904 -0.029425973 -0.30247718 -0.24355397
-0.1223842 0.46308607 0.27530542 0.10123555 0.4289821 0.24225399 -0.03597994 0.16335835
0.5179858 0.15555513 0.29563785 0.07892035 -0.15240893 0.02248924 0.2210321 -0.07238622
0.2211349 0.14295247 -0.055226658 0.18140787 0.027363501 0.27732065 0.11075948 0.008781307
0.17400081 0.349242 0.41970035 0.18660904 -0.3473817 0.59251857 -0.13070291 -0.040458273
-0.18134634 0.29858327 -0.07294967 0.18615492 0.08798372 0.13284537 0.35625556 0.5091501
0.11164547 0.15570258 0.08098989 0.5695634 -0.33978567 0.37096235 0.24067348 0.24733825
0.57031715 0.34363124 0.13708642 0.07582971 0.8479704 0.0007706015 -0.09929147 0.8729141
0.16998853 0.23304422 -0.07198147 0.032036506 -0.36470908 0.040165342 -0.012046856 0.051831394

sequential/conv2d_2/Conv2D f4 [128, 3, 3, 64]
00000000: 0cca 5cbc bb73 653d ef18 453d d7ea 00bd
00000010: c120 633d 404f aaba d4ab 573c 3a8a 66bd
00000020: 1407 e0bc eafa 1ebd f0f8 68bd 0d07 1dbd
00000030: 4a37 883c f132 483d 83fb 5e3d a86b dd3b
00000040: 4a3d a83c 4c4c 543c 558f 693d 2c18 073c
00000050: 761f 8a3c af99 07bd fae2 32bd 11d2 113d
00000060: a4bf bcbc 2779 223d e016 d5ba b895 eb3b
00000070: 426c 49bd 8184 ffbc f631 24bd 50b8 f8bc
00000080: 00e3 c6ba 77e6 0f3d 8c19 233c 4744 e5bc
00000090: a09f b53a 087d 983b c0ee d83a 77fc 253d
000000a0: 00f1 dd3a 14fd 17bc 74f1 133c 86f2 86bc
000000b0: d0fe 44bd cdc9 55bd 8076 52bb f4c0 233c
000000c0: f620 ec3c e22e 813c 291c 4e3d fe14 f3bc
000000d0: da89 a73c 3d12 fbbc aa20 31bd c4a7 3ebd
000000e0: 40e6 a73a 90b2 523b ac0f 7cbc 386f a9bb
000000f0: 8d25 4b3d 71ef 0f3d 0d10 403d 942b 073c
00000100: c0d7 4dbb 2051 56bc 2465 23bc 6d56 0a3d
00000110: d287 5dbd 7b80 373d 83e7 243d c813 e1bb
00000120: 98fb 55bd 2717 4e3d 03e1 0e3d 4034 0dbb
00000130: cfc8 4cbd 26f4 dbbc 98d8 09bd 9b87 213d
00000140: ef65 0f3d b2f4 2abd c75e 173d c8f1 9d3b
00000150: 7a77 df3c 1a80 18bd 4007 52bb c2e5 bb3c
00000160: a530 4b3d a695 8d3c f1dc 51bd 2e3e bb3c
00000170: 9e29 85bc 6f6c 6a3d c463 313c c73a 113d
00000180: d8ad 933b 20d1 debb e2b3 10bd 2c99 1f3c
00000190: 3cd7 01bd d63e cbbc 383e cfbc 8089 6bbd
000001a0: 2421 183c 5ead ffbc fc37 31bd 49dd 163d
000001b0: 9b82 483d aeac 03bd 3da6 243d dba4 4fbd
000001c0: 3128 063d 00f0 ef39 02ff 00bd c0f0 6ebb
000001d0: d40d 2cbd 3e98 8c3c 9c26 303c 8492 5bbc
000001e0: 3627 b53c f8d9 c5bc 9b66 193d 0cb9 7b3c
000001f0: a6b4 d63c 6c45 5cbd 7395 3c3d 72ab 35bd
00000200: 4587 323d 30d0 70bb d531 343d e06d 553b
00000210: 081d c8bc 2fef 443d e0ad d7bc 6d69 47bd
00000220: 8093 12bc 3640 56bd 00c2 943a 4744 503d
00000230: 985c 53bd b0f1 eebb 4071 483a d47f 05bd
00000240: e8bc fe3b 8452 4e3c 6c10 d5bc 9b15 55bd
00000250: ce50 be3c 0e7d acbc bd8b 6bbd f2dc 37bd
00000260: feb9 db3c 623a e6bc 9c48 83bc d02e cebb
00000270: ca5c 5dbd fe11 f33c 4bdd 653d da92 d5bc
00000280: 95bc 623d 8305 13bd f049 053b 30aa 133b
00000290: 8cdb 86bc 108d 7abc ee03 42bd c61f 5dbd
000002a0: aac1 80bc 7b8a 073d dd5a 113d 134e 323d
000002b0: 1814 a6bb 4ff5 6e3d 7b71 67bd 5ca9 c6bc
000002c0: 8062 bdba 1ab0 ee3c 1c3a 40bd 4c88 d2bc
000002d0: d4cc edbc d1fb 3a3d 544d a1bc cab7 db3c
000002e0: d872 40bc ce82 ad3c ac1a 6a3c ce1a 873c
000002f0: 6c39 213c 8125 3a3d 2083 aaba 091b 273d
00000300: 6396 16bd def2 d23c 9e76 3cbd 6eec 9f3c
00000310: 19d6 3fbd d1db eabc 4ab0 d53c 558c 053d
00000320: c233 cebc b00f 38bb c867 73bc e68f 43bd
00000330: 0c1b 533c d301 513d c799 083d 2954 3bbd
00000340: d2da c33c 21b2 4f3d 8eb1 ad3c 96ec 8abc
00000350: df9c 263d a4f7 003c 0079 1ebd 71e5 2e3d
00000360: d2e0 bf3c b4a5 153c 6277 bf3c e011 593b
00000370: 7bf7 1d3d 5098 91bb fe67 e73c 3edd 38bd
00000380: c0f7 33bd 31bf febc d8d3 aa3b f06d 10bb
00000390: b622 ef3c 9096 f8bb 0a51 c03c 8acc 4ebd
000003a0: 9993 683d a003 44bb 8016 67ba f499 343c
000003b0: 201c 21bb e171 283d 78df df3b 0078 ecbb
000003c0: 4421 723c 0b88 4f3d 48f2 36bc 98ad 11bd
000003d0: 981f 2cbc a4d8 b4bc 7b7a 6d3d 0864 bfbb
000003e0: 4c6e 56bc 703c 9cbc eb1f 323d 446e 30bc
000003f0: d2f7 ef3c 0afe ee3c 816c 2abd 5ccb 263c
-0.013475906 0.056018572 0.04811948 -0.03147396 0.05545116 -0.0012993589 0.013163526 -0.056284167
-0.027347125 -0.03881351 -0.05687803 -0.038336802 0.016627926 0.048876707 0.05443908 0.0067572184
0.020537037 0.012957644 0.057021458 0.008245509 0.016860705 -0.03310555 -0.043673493 0.035600726
-0.0230406 0.03966632 -0.0016257428 0.0071894787 -0.04917551 -0.031191112 -0.04008671 -0.030361325
-0.0015173852 0.035131898 0.009954821 -0.027986659 0.0013856776 0.0046535768 0.0016550645 0.040523972
0.0016932786 -0.009276647 0.009029735 -0.016473066 -0.04809457 -0.052194405 -0.0032114089 0.009994734
0.02882431 0.015769426 0.050319824 -0.029673096 0.020451475 -0.030648345 -0.04324404 -0.046546713
0.0012809709 0.0032149889 -0.015384596 -0.005170729 0.049596358 0.03514046 0.046890307 0.008250136
-0.0031409115 -0.013080865 -0.009972844 0.03377383 -0.054084606 0.044800263 0.04025985 -0.006868813
-0.05224189 0.05031505 0.034882557 -0.0021546036 -0.049996193 -0.026849817 -0.033653826 0.039435964
0.03500932 -0.041737266 0.03695562 0.0048200823 0.02727865 -0.037231542 -0.0032047778 0.022936705
0.049606938 0.017283272 -0.051236097 0.022856798 -0.016255196 0.057232317 0.010827009 0.035456445
0.004506808 -0.006799832 -0.0353278 0.009741109 -0.031699404 -0.024810236 -0.025298223 -0.057504177
0.009285245 -0.031210598 -0.04326628 0.036832128 0.04895268 -0.032147102 0.0401976 -0.050694328
0.032753173 0.00045764446 -0.031493194 -0.0036459416 -0.042005375 0.017162438 0.010751393 -0.013401631
0.022113424 -0.024151787 0.037451368 0.015363943 0.026209187 -0.053777143 0.046040963 -0.044352956
0.043586034 -0.0036745183 0.043992836 0.0032566711 -0.024427906 0.048079666 -0.026328027 -0.048684526
-0.0089463 -0.05230733 0.001134932 0.050846364 -0.051601976 -0.007291995 0.000764627 -0.03259261
0.007773984 0.012592915 -0.026008807 -0.052022558 0.02323189 -0.021055724 -0.05750631 -0.044888444
0.026822086 -0.028104011 -0.016025834 -0.0062922016 -0.05404357 0.029671665 0.056119245 -0.026071
0.055355627 -0.03589393 0.002033826 0.002253186 -0.01646211 -0.015292421 -0.04736703 -0.05398538
-0.015717346 0.03309105 0.035487045 0.04353149 -0.0050683133 0.058339413 -0.056504708 -0.024250679
-0.0014448911 0.029136706 -0.046930417 -0.025699757 -0.029028334 0.045650307 -0.019690193 0.026821036
-0.011746131 0.021180537 0.014288586 0.016492274 0.009840351 0.045445923 -0.0013009049 0.040797267
-0.036764514 0.025750574 -0.04601156 0.019521918 -0.04683504 -0.02866927 0.026085038 0.032604534
-0.025171164 -0.0028085522 -0.014856286 -0.047744654 0.012884866 0.05102713 0.03334978 -0.04573456
0.023908053 0.050706986 0.021202829 -0.016958516 0.040676948 0.007871542 -0.038689613 0.04269928
0.023422632 0.009133745 0.023372356 0.0033122227 0.038566094 -0.004443206 0.02824783 -0.045132868
-0.043937445 -0.031097027 0.005213242 -0.0022038184 0.029191356 -0.007586308 0.023476142 -0.050488032
0.056781385 -0.0029909387 -0.00088153034 0.011023033 -0.0024583414 0.04112423 0.0068320595 -0.0072164536
0.014778439 0.05066685 -0.011166163 -0.035565943 -0.010505579 -0.022075959 0.057978135 -0.005840782
-0.01308782 -0.019071788 0.04348747 -0.010768477 0.029292975 0.02917387 -0.041607384 0.010180321

sequential/dense/BiasAdd/ReadVariableOp f4 [32]
00000000: c237 cebd 8f89 13bd d2a7 89be 59a6 5cbe
00000010: 752d 8e3e a802 963b 04c6 5dbe 0796 81bd
00000020: 483c 9fbd 2a15 fcbd 82f1 e3be 9e17 c9bd
00000030: 4b28 32bd 7a33 823d 8746 acbe 065b 34be
00000040: b7e1 4dbc 1df8 76be f536 47be 57db 0dbe
00000050: b084 23be a504 55bd 5a6f fdbd 8311 b03d
00000060: fab6 fcbd 7dfd 17bf 5271 aebd d93c 4bbd
00000070: 9ad1 553e 8624 06be 6e79 6bbc 065a 21be
-0.10069229 -0.036019858 -0.2688585 -0.21547832 0.27769056 0.0045779534 -0.21657568 -0.063274436
-0.077751696 -0.12308724 -0.44520193 -0.09818958 -0.043495458 0.063574746 -0.33647558 -0.17612848
-0.012566022 -0.24118085 -0.19454558 -0.13853203 -0.15968585 -0.052006382 -0.12374754 0.0859709
-0.123395875 -0.5937117 -0.08517708 -0.049618576 0.20880738 -0.1309987 -0.014372213 -0.15756997

sequential/dense_1/BiasAdd/ReadVariableOp f4 [32]
00000000: a518 a6ba 9a68 883e 18f8 9cbd c453 84bd
00000010: a18c ee3e 8ab9 35be 23e1 dc3d 71b5 7cbd
00000020: 0ecc e1be 4900 df3e df98 cfbd cb6b 7bbd
00000030: cf67 2c3e af4f b53e 199f a5be eef3 76be
00000040: 00ef 72be 3b40 b43e cacc 0c3d d988 df3e
00000050: 5075 0fbd a4d9 67be 6168 ed3e 5cb3 6dbe
00000060: ef04 d9bd d4a2 4c3d 0ba7 d73e 47df 13be
00000070: 1783 0e3d 0745 de3e fdeb 2a3b fdf3 9a3e
-0.001267214 0.26642305 -0.07664508 -0.064612895 0.46591666 -0.17746559 0.10785129 -0.061696474
-0.44100994 0.43554905 -0.1013658 -0.061382096 0.16836475 0.35412356 -0.32347944 -0.2411649
-0.23723984 0.35205254 0.03437499 0.43659094 -0.035023987 -0.22641617 0.46368697 -0.23212951
-0.10596644 0.049959973 0.4211963 -0.14440642 0.034792986 0.4341204 0.0026080601 0.30264273

sequential/batch_normalization/FusedBatchNormV3 f4 [32]
00000000: 5891 2e40 63f2 0340 9bdc 3440 c8f8 f03d
00000010: fbab 4740 6b24 113d 61a0 0d3f 7eef 0c40
00000020: 3890 2540 e7d0 3e40 6c3c 3e3e 7d60 a53f
00000030: 58ad 883f 6b39 df3f 2324 1340 c467 2c41
00000040: 64cf cb3f 31ea 7740 5289 973e 70c6 773f
00000050: 8e38 8140 4c63 693f 167d 273e 56d4 ac3f
00000060: 0e5c b43f d453 4640 97b7 e33e 9ea1 cc3f
00000070: 11b1 f73f 19ba ce3f e5bf da3f a4e4 3540
2.727621 2.061669 2.8259647 0.11766201 3.1198719 0.03543512 0.55322844 2.2021174
2.5869274 2.9815004 0.18577737 1.2920071 1.06779 1.7439398 2.2990806 10.775333
1.5922666 3.873669 0.29596955 0.96787167 4.0381536 0.9116714 0.1635631 1.35023
1.4090593 3.0988665 0.44476005 1.5986822 1.9350911 1.6150542 1.7089812 2.84208

sequential/batch_normalization/FusedBatchNormV31 f4 [32]
00000000: 265f bbbf a880 acbf b9fb 68bf a0b9 abbc
00000010: a027 db3b 8fdc 6fbd aca0 d1be b5af d0be
00000020: ece3 9bbf b3db 03c0 40ad d1bb 1b2c 7fbf
00000030: e638 f9bd b329 8cbe 5cbf febf 46fc 8ebf
00000040: a9fb 0bbf 603b 2abf 35da 3dbe 7308 dfbd
00000050: 7f1f 7bbf 0030 e3bd 7a27 91bd 7e92 5dbf
00000060: d605 8ebd 3106 18bf c056 a9be f221 82bf
00000070: 3c70 e5bd 7c07 cabe 984d 25be 3450 abbe
-1.4638412 -1.3476763 -0.910091 -0.020962536 0.0066880733 -0.05855995 -0.40942895 -0.40759054
-1.2178931 -2.0602844 -0.006398827 -0.99676675 -0.12169056 -0.27375564 -1.9902148 -1.1170738
-0.5468088 -0.6649685 -0.1854027 -0.108902834 -0.98094934 -0.1109314 -0.07087608 -0.86551654
-0.06934707 -0.5938445 -0.33073997 -1.0166609 -0.11203048 -0.39458835 -0.16142881 -0.33459628

sequential/batch_normalization_1/FusedBatchNormV3 f4 [64]
00000000: 9094 b63d dc0b ba3e 38ce 163e 983e 633e
00000010: dd60 563e f5ff c53d 0cc0 be3d 8e1a 1f3e
00000020: c556 333e 4333 2e3e 61ad 333e 80c7 d13d
00000030: e490 4f3e b3a1 223e fe27 393d 10ef 173e
00000040: 03cc 153e 0bed ad3d f63f 193e 9f48 de3e
00000050: da40 8a3e 04e0 393d f570 8a3e 0213 b03e
00000060: 3980 ed3d c82d 123e e70c 183e 8198 993d
00000070: e2be 953d ff29 633d 1c09 503e f34a 063e
00000080: dd63 f23d c1c8 0b3e fcc0 c13d e3ab f63d
00000090: 6f6b 583e 1e89 883e eac8 273e d8a8 6e3e
000000a0: df8b 023e a1cd bf3d c757 333d b268 db3d
000000b0: 96e0 2f3e 0833 583e 79f3 b63e 0bec e93d
000000c0: dae5 003e 7a9b 5e3e baf4 833d 8ad7 a03d
000000d0: 26af 193e a74d fc3d 6ac1 fd3d d98d ee3d
000000e0: 9e80 063e 0728 be3e f820 4f3e 113b e23d
000000f0: a1c1 713d 3682 633e 7325 073d 1131 b03e
0.08915055 0.36337173 0.14727104 0.22191846 0.20935388 0.096679606 0.09313974 0.15537474
0.17513569 0.17011742 0.17546608 0.1024313 0.20270115 0.15881996 0.045204155 0.14837289
0.14628606 0.08492478 0.14965805 0.4341478 0.27002603 0.045379654 0.27039304 0.34389502
0.11596722 0.14275277 0.14848672 0.07499791 0.07311799 0.055459972 0.20315975 0.13114528
0.11835454 0.136508 0.09460637 0.120445035 0.21134733 0.26667112 0.16385236 0.23306596
0.12748669 0.093653925 0.043784883 0.107133284 0.17175516 0.21113217 0.3573263 0.11421975
0.12587681 0.21738997 0.06443162 0.07853611 0.1500822 0.123194985 0.123904064 0.11648149
0.13135001 0.37139913 0.2022742 0.11046422 0.05902255 0.2221764 0.0329947 0.34412435

sequential/batch_normalization_1/FusedBatchNormV31 f4 [64]
00000000: da41 21bf b46c 94bd 4359 0abf 0123 24bf
00000010: 100e 86bf e75b 1bbf 8788 0bbf 9a18 03bf
00000020: 5751 79bf 7eeb 27bf d299 7dbe 2962 11bf
00000030: b654 b4bf 6117 5bbf 6a94 34bf cb6b 69be
00000040: 6b0a 97be b28c b0be 0365 43bf 37f6 90bf
00000050: 7261 a1bf aed9 e0be 9146 95bf 65be c5bf
00000060: 2185 08bf a048 50bf 24b0 15bf c6dd 14bf
00000070: 97ac 10bf e336 f7be 2841 41bf 002b b6be
00000080: 1413 4fbf 8d24 0dbf 2022 15bf 8880 2ebf
00000090: 80d2 0cbf 3dc1 57bf ce94 6dbf 9cb3 55bf
000000a0: 9e5d 37bf c051 3fbf 62b0 8bbe 0483 d7be
000000b0: 73c2 3dbf 741d a5be b7fd 95bf 965e 08bf
000000c0: d16b 91bf 20e0 76bf 10e9 9bbd 1881 e4be
000000d0: aadd 02be 75b2 e2be 3e5c 07bf 00df 31bd
000000e0: 3b30 f0be 4967 a3bf a1d3 bcbe 2dae c9bd
000000f0: c238 a2be b82d 8dbf 32b0 d3be 9e81 69bf
-0.62991107 -0.07247296 -0.5404245 -0.6411591 -1.0473042 -0.60687107 -0.545052 -0.51209414
-0.9738974 -0.6559371 -0.24765709 -0.56790406 -1.4088352 -0.8558255 -0.7053896 -0.22795026
-0.29500136 -0.34482342 -0.76326007 -1.1325139 -1.2607863 -0.43916076 -1.166216 -1.5448729
-0.5332814 -0.81360817 -0.58471894 -0.581509 -0.5651335 -0.48284063 -0.75490046 -0.3557968
-0.80888486 -0.551339 -0.58255196 -0.68164873 -0.550087 -0.84279233 -0.9280518 -0.8347719
-0.71627223 -0.74734116 -0.27283007 -0.42092144 -0.7412483 -0.32249033 -1.1718053 -0.53269327
-1.1361028 -0.9643574 -0.076128125 -0.4462974 -0.1277987 -0.44276777 -0.52875125 -0.04342556
-0.46911797 -1.2765895 -0.3688021 -0.098476745 -0.31683928 -1.1029577 -0.41345364 -0.91213405

sequential/batch_normalization_2/FusedBatchNormV3 f4 [128]
00000000: 0644 a83e 7d35 353f 9b5f 0d3e fdb3 cd3e
00000010: 570f 8a3f 6ac8 af3e 30f3 053f cc6a b13f
00000020: a33b de3e 685b 493e 04a1 df3d c1b8 593f
00000030: 27bd 893e 2f5d f53e dd8f e33f fdd3 b33f
00000040: b2d7 8f3e 502c 483e 12f4 563f 72ff ab3f
00000050: e90d e53f 23f7 483e 9370 663e 331c a63e
00000060: 2726 dc3e 0ed6 9d3f f8ef 9e41 81d8 9d3e
00000070: 0c15 973f 36f4 b23e 0d5c c941 cb9c 823f
00000080: af03 a73f 49d7 eb3e 04d1 203e 6ada f23e
00000090: 0d24 be3f 590c a63d a84c 8740 5825 f03d
000000a0: d3b8 243e c024 2c3f f027 e33e 6d0b 963e
000000b0: 502b 0d40 73a5 f73e 1aca 453f e6e3 9d3f
000000c0: e18a 293f aafd 3b3f 4abd bf3e 33e8 d53d
000000d0: c308 a23f c248 c641 9a73 293e 77b6 423f
000000e0: 492b 443f 3e78 a840 50ee 1b42 849f ca3f
000000f0: 3f3f 1642 02fe 153e 7202 313e bc89 e33e
00000100: cf1a 8d3f b23b 623e 1200 da3f b202 1f3e
00000110: 7c63 a73e 3c35 c440 276c 2b3f 45ac 0d3e
00000120: 6c34 e83e 4ed4 d03e c047 983e ccaa 383f
00000130: d269 ad3f 607c 203f 0867 563f 52d9 2840
00000140: 650e 0e3e aac0 2a3e ac05 a23e 10ef 4a3e
00000150: e309 993f 08c7 0a3e a2d7 063e 5bcb 523e
00000160: 0a72 a53e 6591 b73e bb36 7741 78fb ed40
00000170: 3a2b f43e dbc5 703e 6ab4 943f c132 363e
00000180: f81e 1540 1cfe 0040 f3d0 5c3e 7dc0 8a40
00000190: 48eb 3b3f 384f 193f 8990 303f a3fc 8a3f
000001a0: 9963 8240 b8f9 143e 6651 e13f 15a5 133f
000001b0: 0568 b63e c028 283f 36cd 113f ad5f d33e
000001c0: 3f2f 8c40 cd19 853e 6adb fb3f f029 3a3f
000001d0: d456 bc3f 7102 c03f 5747 ca3e 7762 0340
000001e0: 87d2 373f 48ad b03e ffda 3c3f 9c87 003f
000001f0: f7d0 0140 028a 8e3e a73d 883e 16f7 af3e
0.32864398 0.7078474 0.13806002 0.40176383 1.0785931 0.3433259 0.523242 1.3860717
0.43404874 0.19663775 0.10919383 0.8504754 0.26902124 0.47922656 1.7778279 1.4049069
0.2809425 0.19548154 0.8396617 1.3437331 1.789487 0.19625525 0.22503881 0.3244339
0.42997858 1.2330949 19.867172 0.30829242 1.1803298 0.34951943 25.169947 1.02041
1.3047999 0.46062687 0.15704733 0.47432262 1.4854752 0.08107824 4.2281075 0.11725873
0.1608613 0.67243576 0.44366407 0.29305592 2.2057686 0.48368415 0.7726151 1.2335174
0.6622754 0.73433936 0.37449104 0.10444679 1.2658924 24.785526 0.16548005 0.7605967
0.7662855 5.264678 38.982727 1.582993 37.561764 0.14647678 0.17286089 0.4444102
1.1023806 0.22093084 1.7031271 0.15528372 0.32693088 6.1314983 0.669619 0.13835247
0.45352495 0.40786976 0.2974224 0.72135615 1.3547919 0.6268978 0.83750963 2.6382642
0.13872679 0.16675058 0.31644952 0.19817758 1.1956142 0.13552487 0.13168195 0.20585386
0.32313567 0.35853115 15.450862 7.436947 0.4768923 0.23512976 1.1617558 0.17792799
2.3300152 2.0155096 0.21564083 4.335997 0.73405886 0.59886503 0.68970543 1.0858349
4.074658 0.14548385 1.7602966 0.5767377 0.35626236 0.6568718 0.5695375 0.41283932
4.3807673 0.25996247 1.9676335 0.7272024 1.4713998 1.5000745 0.39507553 2.0528848
0.71805614 0.34507203 0.7377166 0.50206923 2.0283792 0.27839667 0.26609537 0.343682

sequential/batch_normalization_2/FusedBatchNormV31 f4 [128]
00000000: a41b dabe c89b 15be c12f 07bf de46 69bf
00000010: 2600 25bf efcc ffbe 9c2b 1abf 7570 cabe
00000020: 18ad c8be 60c6 05bf fcb3 36be 090c 2fbf
00000030: 8205 e0be a344 49bf b66d a6be 4ac0 9dbe
00000040: 46a2 5fbe bab8 c2be 2615 e4be 8c04 0abd
00000050: a560 d4be bcb4 33bf 7956 d2be dcc8 56bf
00000060: 1c80 1bbf 3799 81be f754 d73d d4b3 40bf
00000070: d8a7 cabe c45d 25bf bfbd ce3d dc7a fabd
00000080: 16ea ffbe 87a1 42bf 3af8 79be 607d d4be
00000090: 2a63 38be 12b1 e1be 5262 913d f4f3 73bf
000000a0: a75c b8bf 062f 46bf 74a8 86bd 65b8 02bf
000000b0: dcdc 99be 9490 05bf dc56 1fbe ed93 0dbf
000000c0: 72fa b7be d400 babe e7d3 22bf 281e 68be
000000d0: fe93 27bf 14f0 54bc e2ed 2dbf 9380 f1be
000000e0: 7294 02bf 813d 0bbe 56e4 723e f3b1 d1be
000000f0: 1591 f739 5a80 49be 243b 9dbe c038 94be
00000100: 98ad eebe 5801 09be 76ec b7be 2fa9 9ebe
00000110: 3c41 0bbf d05a 7bbc 5256 81be e8f9 6abe
00000120: a4f9 1abf 89fb 25bf 5382 e6be 4651 a1be
00000130: 20a7 ecbe eedb 2fbf 80f4 4abe a37e 56be
00000140: 70c7 f4be 404b f2bc 6802 0ebd d2b1 47bf
00000150: 7967 e4be b602 74bf 624a 8cbe fe1d 2dbf
00000160: 6e2e e1be 7004 4fbf 104e 283e c4e4 20bd
00000170: b9ef 61be cefa c1be 8e1d 4dbe 30ec 0abf
00000180: a24f 5cbe 541c d6bd d677 5bbf 0819 e63c
00000190: 7ac8 a4be dce2 cfbe db0c 36bf c5f4 05bf
000001a0: e48f 77bd 25b5 7cbf c0d3 00bc 087f 53bf
000001b0: d3ad b7be 4461 30bf a16c 29bf ccbc aabf
000001c0: 88bf 1abd 1670 8cbe d672 24be 357f 2bbf
000001d0: d2cb fdbe 9904 9fbe 704f 67be 3e64 f9bd
000001e0: fc30 93bd 5103 45bf c6ba 10bf 64bc 72bf
000001f0: 22b8 64be 4bb7 20bf 5b4d 92bf 42ab 1ebf
-0.42599213 -0.14610207 -0.5280724 -0.9112376 -0.6445335 -0.4996104 -0.6022279 -0.39538923
-0.3919456 -0.5225582 -0.17842096 -0.6837774 -0.43754202 -0.78620356 -0.32505578 -0.30810767
-0.21839246 -0.3803156 -0.44547385 -0.033695742 -0.41479984 -0.70197654 -0.41081598 -0.8390024
-0.60742354 -0.25312206 0.10514253 -0.75274396 -0.3958118 -0.645962 0.10094785 -0.12230465
-0.4998328 -0.7602772 -0.24411097 -0.41501904 -0.18006578 -0.44080406 0.07098831 -0.9529412
-1.4403275 -0.774155 -0.06575099 -0.51062614 -0.30051315 -0.52173734 -0.15560478 -0.5530384
-0.35933262 -0.36328757 -0.6360459 -0.22667754 -0.65460193 -0.012996692 -0.67941105 -0.47168407
-0.5100776 -0.1359768 0.23719916 -0.40956077 0.00047219606 -0.19677868 -0.30709183 -0.28949547
-0.46616817 -0.13379419 -0.35922593 -0.30988452 -0.54396415 -0.015341476 -0.2526117 -0.22946894
-0.6053717 -0.6483694 -0.45021304 -0.3150732 -0.46221256 -0.6869496 -0.19819832 -0.20946746
-0.4780841 -0.029576898 -0.034670264 -0.7800571 -0.44610193 -0.95316637 -0.274005 -0.6762389
-0.43980736 -0.80866146 0.16436028 -0.039280668 -0.22064103 -0.3788666 -0.20030805 -0.54266644
-0.21514753 -0.10454622 -0.8572973 0.028088108 -0.321842 -0.40602767 -0.71113366 -0.52326614
-0.06043996 -0.98713905 -0.007862985 -0.8261571 -0.35874805 -0.68898416 -0.6618138 -1.3338866
-0.037780315 -0.27429265 -0.16059431 -0.6699098 -0.49569565 -0.31058195 -0.22588897 -0.12177323
-0.071870774 -0.76958185 -0.56534994 -0.9481871 -0.22335866 -0.6277968 -1.1429857 -0.6198007

sequential/dense/MatMul f4 [32, 128]
00000000: 77b4 853e 90c0 d33a 4e9c 66bd 84d7 333e
00000010: cfb7 9b3e 5f6c 833e fb53 19bd 1f26 d6bd
00000020: d9ba 723e 9553 7cbe c542 e5be fcab 173d
00000030: f3d5 413e b860 303f e83b e83e 3943 793c
00000040: 9564 d9bb 3a9c 8fbe 495b 2ebe 1084 18be
00000050: 1938 283e 810a c0bd 66ca ba3e b5d2 4d3d
00000060: 1de2 9ebe 38c7 6ebe 1741 e3bd 2a6c d43d
00000070: 28de 963e c897 73bd 52f0 b4bc 5aa1 a93e
00000080: de71 8c3e adb1 bab9 d762 0cbf 0478 db3e
00000090: 3415 803e e5f7 45be 86d3 9c3d 5bed b7be
000000a0: 32fa 3d3e 9fa4 333f dd67 90bc 320f ddbe
000000b0: 5551 4cbe 681a 54be c162 a1be 3222 aebe
000000c0: 5b0b e4be 707b febd 5ee8 773d 6de2 ecbd
000000d0: d326 e13e 1791 e43d 0dac 14bf 75c9 863e
000000e0: f341 323f 9359 41be 22b7 12bd 5c0a 863e
000000f0: 6ab8 903c 06cb e4bd 5d2f aabe da17 cf3d
00000100: b344 f13e fcca acbe 7acc 543f 6f74 82be
00000110: 8250 643e e634 bdbe 2b66 72be 1671 e9be
00000120: c8e9 9bbd 05a1 fcbd 1894 4d3e 1fd5 b03e
00000130: 9be1 bb3e 8bc1 023f d090 01bd f1ed de3c
00000140: b13f 7ebe 15c5 0a3d 29db eebd fc98 7f3d
00000150: 7e3d a8bd 49d1 4cbc 1682 f9bc c042 f5bd
00000160: 9386 9dbe 2bb6 efbe 51ff 84be ed6e 9ebd
00000170: 3c82 ac3d 8610 31be ca23 d9bd 405a 5abe
00000180: 708e a0bd cdd2 773e b2d5 aabd 9880 1ebe
00000190: 3a12 89bd 0e30 adbe d62c 2fbc cc02 053e
000001a0: c5cf 31bf abe6 cebd 07fc 9bbe 0893 373e
000001b0: 9db2 01be 556a 153e 6378 3a3e 755d 033f
000001c0: f0b3 183e 7bf2 efbd 3935 15be 5601 6d3e
000001d0: eaf3 79bc 6325 183f 3e6f 1cbc 2565 71bd
000001e0: 6c99 bbbe 2ed3 923e 1578 b03e d905 cfbd
000001f0: 5ec7 60be bbcd 703e 9d78 fabd d856 1a3d
00000200: 3215 0fbf ca52 03bd ea97 3a3e c559 4abe
00000210: 1f2a 973b e5f7 06bf 3e49 39bb aec1 54be
00000220: 4b56 6cbe d3e6 08be 0ae7 153c 89e9 64bc
00000230: 27cc 2b3e 4d55 c7ba 7c09 103f 23ec e83d
00000240: 3eab 38bd 7386 7bbe aa50 dcbe a8c7 36be
00000250: d466 f4bc e8e0 db3e f3d6 cebe 4371 d3ba
00000260: bc8e cabe b387 87be b330 68be 07c2 d93e
00000270: 220e 3d3d bcdd 4e3d beca c7be 4b89 203f
00000280: f4bf ee3e dfaa 4c3e 40d9 f13d 273e 3dbe
00000290: b471 87bd 42aa 6d3e bc2e d9bd 8c19 a83e
000002a0: 94b2 003f 32c1 133f 2057 71be 163e c5be
000002b0: e601 b5be 988e a13b 2001 08bf eee1 203f
000002c0: 5601 393d a8e7 18bd 8af1 cc3d 6f45 3fba
000002d0: 8cdd 71be 6f8e 1dbc a944 bb3c 4e14 22be
000002e0: 3674 babe 07ad 89bf 8460 08bf 171c e9bd
000002f0: a515 81bd ea0b 263d 8de5 ca3d c9df 94be
00000300: 077a b43d 445a 8abe 3042 943d 0bfd 96be
00000310: c1c9 59be 0c71 a03e 1265 193e 04c3 9a3e
00000320: 9ecf 053e 890f 8d3d d10b 02be e354 203e
00000330: 593e 5fbe 518e cc3e 5505 ffbd ac43 debd
00000340: 6b82 073e 8165 f23d 093b 75be 2807 e83d
00000350: bbbb 293d 5c34 9c3e 3cc8 793e 1a11 913e
00000360: 0dcd a0be 9900 4e3f f3ee cfbe 0023 febd
00000370: 4de2 c43d 808c 13be 6fb3 463d d59e c7be
00000380: 5e67 cdbe 7dc8 8abe b27f b73e 313a 563d
00000390: 9abd 17be 9bc7 3abc edd7 ce3e e702 c43e
000003a0: 81e8 8abc 0978 513e 53ec 833e 0a28 25be
000003b0: 4989 41be 046d 0f3e 7816 4bbe b2ab a63e
000003c0: 2750 42be 9f94 81be 3346 59bf 9275 c83e
000003d0: fe3c 063e d49c 813d 1482 83be 5088 bbbe
000003e0: da5b 9c3e fa3f 12bd 5220 04bf 0db0 0f3e
000003f0: 5929 7bbf 6843 ac3d 39bc 733e 249c bc3d
0.26114246 0.001615541 -0.056301408 0.17562681 0.30413672 0.25668618 -0.037433606 -0.1045649
0.23704089 -0.24641259 -0.44777504 0.03702925 0.18929271 0.6889758 0.45358205 0.015213781
-0.0066343048 -0.2804888 -0.1702701 -0.14894128 0.1642765 -0.093770035 0.36482543 0.050249774
-0.31031886 -0.23318183 -0.11096399 0.10372193 0.29466367 -0.05947092 -0.02208725 0.33130914
0.27430624 -0.00035609063 -0.5483832 0.42865002 0.25016177 -0.19332846 0.076575324 -0.35923275
0.18552473 0.70173067 -0.01762765 -0.43175656 -0.199529 -0.20713198 -0.31520656 -0.34010464
-0.44539914 -0.124258876 0.060524337 -0.11566625 0.43974933 0.11160486 -0.5807503 0.26325575
0.6963188 -0.18881826 -0.03581918 0.2617978 0.01766606 -0.11171536 -0.3323926 0.10111971
0.47122726 -0.33748615 0.83124506 -0.25479457 0.22296336 -0.3695442 -0.23671786 -0.4559409
-0.076129496 -0.123353995 0.20076025 0.34537598 0.3669556 0.51076573 -0.031632245 0.027213069
-0.24828984 0.03387936 -0.11662895 0.062401757 -0.08214854 -0.012501069 -0.030457538 -0.11975622
-0.30766734 -0.4681867 -0.2597604 -0.07736001 0.08423278 -0.1729146 -0.10602529 -0.2132349
-0.07839668 0.24201508 -0.083415404 -0.15478742 -0.066929296 -0.33825725 -0.010691842 0.12989348
-0.69457656 -0.1010259 -0.3046572 0.17927182 -0.12665792 0.14591344 0.18209986 0.5131448
0.1491239 -0.11716171 -0.14571084 0.23145041 -0.015255908 0.5943205 -0.009548007 -0.05893435
-0.3664049 0.28676742 0.34466615 -0.10108537 -0.21951053 0.2351598 -0.122300364 0.037680477
-0.55891716 -0.032061376 0.18222013 -0.19760807 0.0046131755 -0.5272201 -0.0028272416 -0.20777008
-0.23079793 -0.13369302 0.009149322 -0.013971695 0.16777097 -0.0015207917 0.5626447 0.113731645
-0.045085184 -0.24563007 -0.43030292 -0.178496 -0.029834189 0.42945027 -0.40398368 -0.0016131777
-0.39562023 -0.26470718 -0.22674827 0.42530844 0.046156056 0.05050443 -0.39021868 0.6270949
0.46630824 0.19987057 0.11809015 -0.1848074 -0.06613484 0.2320948 -0.10604617 0.3283199
0.5027249 0.5771667 -0.23568392 -0.3852393 -0.3535301 0.0049303286 -0.53126717 0.6284474
0.04516729 -0.0373303 0.100070074 -0.0007296418 -0.2361967 -0.009616478 0.022859888 -0.15828058
-0.36416787 -1.0755929 -0.5327227 -0.11382311 -0.063029565 0.040538706 0.099070646 -0.29076985
0.08812337 -0.27021992 0.07239187 -0.2948993 -0.2126837 0.31336248 0.14979962 0.3022691
0.13067481 0.06887729 -0.1269982 0.15657382 -0.21801127 0.3995233 -0.12452189 -0.10852751
0.13233344 0.118357666 -0.23948301 0.1132949 0.0414388 0.30508697 0.2439279 0.2833336
-0.3140644 0.8046966 -0.4061199 -0.124090195 0.09613476 -0.14409065 0.048510965 -0.38988367
-0.40117925 -0.27106085 0.3583961 0.05230159 -0.14818421 -0.011400129 0.40399113 0.38283464
-0.01695657 0.20455946 0.2576624 -0.16128555 -0.18900026 0.1400643 -0.1983279 0.32552868
-0.18975888 -0.253087 -0.8487274 0.391522 0.13109204 0.06328741 -0.2568518 -0.36627436
0.30538827 -0.035705544 -0.51611817 0.14032002 -0.98109967 0.08411294 0.2380227 0.09209469

sequential/dense_1/MatMul f4 [32, 8]
00000000: f322 b03e 3be9 2abe 1783 a83e 7c1d 93be
00000010: 1571 8d3d 9605 5b3d 87ff dbbe 9ff0 4abf
00000020: 116d 12be 20b9 c03d 8ed5 28bf cc06 193e
00000030: dc95 cc3b 2f43 593d 2834 33bd 356e 993d
00000040: e839 bebe 6540 31bd 1193 02be 20df dc3b
00000050: a874 bebe 1e52 3b3d dabc f0bd 988f c8be
00000060: d711 a83c b555 23bf ad91 b83e 6e43 b1be
00000070: 4856 dfbe fc1d 663c f70a 8e3e f8e9 2abf
00000080: 7c0c 99bd 8ac6 8abd 7d32 dabe 085d a83e
00000090: 8791 ce3d a7ca 27bd df47 18be 9e23 873e
000000a0: 1890 613e 17b8 4fbd 98a4 0c3d bbaf 16be
000000b0: bc60 783e 57ad 993e 160f c13e a805 0ebe
000000c0: 22d0 7c3e d629 c4bd 0edf 12bf 9f50 303d
000000d0: 2cc5 6cbd 9923 1f3d 0e41 d2bd d99d 49bd
000000e0: b0ad 8b3e 687f f2be c10a 0cbe 7da6 74be
000000f0: 5c15 e83e 77bb be3e 75dc 44bd 5704 b4be
00000100: 2ea5 22be 9155 a1be abc4 abbd a8aa babe
00000110: c1fb 37bd d721 f2bd b66e cc3e 0bc7 e23c
00000120: 11fc 57bd ec66 f0bd 1416 dfbe 5ad0 b73e
00000130: e96c 47bd 6d9a 713e e508 0cbe b6ee 0a3e
00000140: 6a8f b2be ead4 2ebf feaa ae3e a931 2dbe
00000150: 4482 0e3e 7bb3 e23d 0638 aebe 0a33 3cbf
00000160: f41a 2cbe d121 21bc 28c2 96be 675e debd
00000170: d811 5f3d a731 c9be 5edd 59be bb21 25be
00000180: 19ae 883e 4e26 d3bd 5a79 33be 54a0 b6bd
00000190: accb 12bf ff1e cebe bef9 b9be 500a 883d
000001a0: 3bba 4bbe 7a26 893e f834 20be ae79 8a3e
000001b0: 9710 3dbe 5171 0bbe fe32 94be 929a 4d3d
000001c0: c5c8 b23e 017b f5bd 0318 bf3d e71e 05bf
000001d0: ec09 3b3e e80c 363e 8bdc 863e 28ea 6c3d
000001e0: dd1b f8bb 6955 95be 9aab 3ebe 4c42 dabe
000001f0: 2b13 8b3e 7fbf a03d 5650 71bb 2563 ccbe
00000200: 4b4c d7bd d423 54bd a7a7 0a3c a504 1ebf
00000210: b241 0c3c 286d 84be a359 e8be 4e75 10be
00000220: 98a7 1c3d c881 b63e cb80 bcbe d44d 9abd
00000230: 53d8 00bc b6bc 63be 213e c9bd e993 8cbd
00000240: 61c2 73be fd44 88bf 6f9d 8e3e 15b9 5ebf
00000250: 2418 883c 329d 6abe 5474 793e 30ad 14bf
00000260: 86c8 99be 117d 353e ab45 65be 6ef0 2ebe
00000270: 3708 02be 6f3d 023e 5fea 46bd 631e be3e
00000280: 5368 db3d 2c6e 46bf b30b b33e ad13 02be
00000290: 408d 5abd 2f0f e13e c21c a43e ed8d 07bf
000002a0: df09 f73d be7a bebe aad2 48be 9503 dfbd
000002b0: 67a3 5fbe 6021 dcbc b780 b5be 3ece aa3d
000002c0: 2be0 06be 45f8 0b3e 6591 d5bd d8f4 92bd
000002d0: 859d 07bd 7591 c3be e705 49be 9224 203f
000002e0: bc11 6e3e 8132 dbbe bdbf 9dbd 76a5 08bf
000002f0: 6da3 2bbe 566d 353e cedf 693e 6278 c3bd
00000300: d6a6 3e3e be53 f6be a332 9bbd 4f7f 10bf
00000310: a2bd a93e c3b8 03be ae35 a73d 398f f4be
00000320: 0d1d 193e cf65 963e 3946 89be cb4a 8cbc
00000330: 1a80 b43d 85b9 abbe b73d e1bd 725c e6bd
00000340: 8b54 0dbe 75db 763e 203d 01bf 8b8a dbbd
00000350: c3f0 abbc 7454 493e 7064 66be 31b1 d13e
00000360: 5da8 94bc b1fd 34bd d8c7 dd3d cc63 39bf
00000370: ed15 b13e 79ed 813d 60ec 873e 061e 88bd
00000380: 4f3b 453d ccf1 05bf 096d 3a3e f8ae 14bf
00000390: 41d5 883e e6d1 a7bd 28de b63d 0243 32bf
000003a0: 9a58 86be 0349 c03e 5bb1 b9be 4e04 5b3e
000003b0: 5ecc d93d 1012 9abe 3df8 8dbe e299 c03e
000003c0: 79f5 423e bd00 fcbe ce5c fe3c ac5a 33be
000003d0: 33aa 343e 6f44 673e 1097 9f3e 9c4d 8bbd
000003e0: 4dde 36bd 8344 53bd 0bc6 b4be ddb6 c93d
000003f0: 5ef3 c0bd 19be f93d d410 e6bc b18f a0be
0.34401664 -0.16690533 0.32912514 -0.28733432 0.06906334 0.053472124 -0.4296839 -0.7927341
-0.14299418 0.0941031 -0.6595086 0.14943999 0.0062434506 0.053042587 -0.043750912 0.074917234
-0.37153554 -0.043274302 -0.12751414 0.0067404658 -0.37198377 0.04573261 -0.117547706 -0.39172053
0.02051632 -0.63802654 0.36048642 -0.34621757 -0.43620515 0.014045235 0.2774274 -0.6676326
-0.07473084 -0.067761496 -0.42616645 0.32883477 0.10086351 -0.04096475 -0.14871167 0.2639436
0.22027624 -0.05071267 0.034336656 -0.14715473 0.24255651 0.3001506 0.37706822 -0.13869345
0.24688771 -0.09578292 -0.57371604 0.043045636 -0.057805225 0.038852308 -0.102663144 -0.0492228
0.2728095 -0.47362828 -0.13675977 -0.23891635 0.45328796 0.372524 -0.048061807 -0.3515956
-0.15883324 -0.31510594 -0.08387121 -0.36458325 -0.044917826 -0.11822861 0.39928216 0.027682802
-0.052730624 -0.11738381 -0.43571532 0.35901147 -0.04868785 0.23594065 -0.13675268 0.13567623
-0.3487504 -0.6829363 0.34114832 -0.16913475 0.1391688 0.110693894 -0.34027117 -0.7351538
-0.16807157 -0.009834723 -0.29445004 -0.108578496 0.054460377 -0.39295694 -0.21275851 -0.16126148
0.26695326 -0.103100404 -0.1752676 -0.08917299 -0.5734203 -0.40258023 -0.3632335 0.06642592
-0.1989526 0.26787168 -0.15645206 0.2704596 -0.1846336 -0.13617446 -0.28945154 0.050196238
0.349188 -0.11986352 0.09330752 -0.5200028 0.18265504 0.17778361 0.26340136 0.057840496
-0.007571681 -0.29166725 -0.18620148 -0.42628706 0.27163061 0.07849025 -0.0036821566 -0.3991939
-0.105125986 -0.05179198 0.008462823 -0.61725837 0.008560585 -0.2586453 -0.45380887 -0.14107248
0.038245767 0.3564589 -0.3681701 -0.07534376 -0.007864076 -0.22239956 -0.09826303 -0.06864149
-0.23804618 -1.0646054 0.27854487 -0.8700116 0.016613074 -0.22911528 0.24360782 -0.58076763
-0.300358 0.1772349 -0.22389857 -0.17083904 -0.12698446 0.12718748 -0.048563357 0.37132558
0.10713258 -0.7751186 0.34969863 -0.12702818 -0.053357363 0.43956897 0.3205319 -0.52950937
0.1206243 -0.3720302 -0.19611612 -0.10889355 -0.21839677 -0.026871383 -0.35449764 0.08340119
-0.13171451 0.13668926 -0.104281224 -0.071756065 -0.033109207 -0.38196912 -0.19631158 0.625558
0.23248953 -0.4281197 -0.07702587 -0.53377473 -0.1676156 0.1771749 0.22839281 -0.095444456
0.1861833 -0.48110765 -0.075780176 -0.5644426 0.3315249 -0.1286345 0.081645355 -0.4776552
0.14952488 0.2937455 -0.26811388 -0.017125508 0.08813496 -0.33539978 -0.10998099 -0.11248101
-0.13801782 0.24107154 -0.50483894 -0.10719784 -0.020988828 0.19661123 -0.22499251 0.409555
-0.018146688 -0.04418725 0.10829133 -0.724179 0.3458704 0.063441224 0.26547527 -0.066463515
0.048152264 -0.5232208 0.18205656 -0.5807948 0.267252 -0.08194332 0.08929092 -0.69633496
-0.26239473 0.37555704 -0.36268124 0.21388361 0.10634683 -0.30091906 -0.27728453 0.37617403
0.19038953 -0.49219313 0.031050112 -0.17515057 0.17643051 0.22584699 0.3116994 -0.06801912
-0.044645596 -0.05157901 -0.35307345 0.098493315 -0.094214186 0.121944614 -0.028084196 -0.31359628

sequential/dense_2/MatMul f4 [1, 32]
00000000: 46e8 4fbe 0b4a 0c3e 9ed8 a4bd c681 82be
00000010: c4e8 953e 4a6d e5be daef 673d 1b20 38be
00000020: 6213 99be 5caa 8b3e 3978 23be 567d 30be
00000030: d30b 073d 1796 553e c476 c2bd a0bb a63c
00000040: bdd6 6b3c 7f50 063e f65c 27be fff9 ec3d
00000050: 07c5 aebe e231 08b9 530b dc3e 533b 28bd
00000060: 2df6 0c3c 894f 1f3e a32f d43e 6fbc e6bd
00000070: 2366 f6bd 5e1f 743e c8b1 0abe 7427 713d
-0.20303449 0.1370012 -0.08049129 -0.25489634 0.2927915 -0.44809943 0.056625225 -0.17980997
-0.298976 0.2727841 -0.1596383 -0.17235312 0.03297026 0.20858036 -0.09495309 0.020353138
0.014394459 0.13116644 -0.16344056 0.115711205 -0.34134695 -0.00012988553 0.4297739 -0.0410722
0.008603615 0.15557684 0.41442594 -0.112664096 -0.120312 0.2384009 -0.1354438 0.058875516

sequential/lstm/while/lstm_cell/BiasAdd/ReadVariableOp f4 [32]
00000000: c9c4 a2bb 316c 8e3e d370 333e ec00 b43e
00000010: 4796 9ebe b01a 8fbe baf6 88be 995c 983e
00000020: 7950 303f 3d23 953f 16a9 8a3f 5db3 993f
00000030: 8289 4a3f 58d8 7a3f 0737 a73f 443a a63f
00000040: 9d7a b6be fba9 ec3e 8c7d d93d bca1 973e
00000050: fce8 87be dcd5 b4be b4a2 e6be b66a a43e
00000060: b7cf 383d df44 c53e db02 953d bc86 ba3e
00000070: 1821 293e f3c2 173d c417 a3be 0c7b 8f3e
-0.0049673063 0.27816918 0.17523508 0.35156953 -0.30974028 -0.27950048 -0.26750737 0.29758146
0.6887279 1.1651379 1.0832851 1.2007862 0.7911607 0.97986364 1.3063668 1.2986531
-0.35640422 0.46223435 0.10619649 0.2961558 -0.2654494 -0.35319412 -0.45046008 0.32112664
0.045119967 0.38529107 0.07275935 0.3643092 0.1651653 0.037051152 -0.3185407 0.28023565
