models/model.tflite (tflite, 586292 bytes, 17 tensors)

sequential/conv2d/BiasAdd/ReadVariableOp f4 [32]
0.024843192 0.013579487 0.13953038 0.031270422 0.10254877 0.15745023 0.012114282 0.015337817
0.047600057 0.07859259 0.12188253 0.0852256 0.020863265 0.033952743 0.018691376 0.10918999
0.056651786 0.022652445 0.05011246 0.019015012 0.0033091116 0.06768231 0.15041618 0.03848262
0.026845207 0.053496063 0.041330863 0.10360694 0.08044389 0.041543275 0.09009903 0.14968188
00000000: f383 cb3c 7f7c 5e3c 0de1 0e3e 6a15 003d
00000010: 1705 d23d a23a 213e fb7a 463c 784b 7b3c
00000020: 47f8 423d 27f5 a03d 8c9d f93d c28a ae3d
00000030: 70e9 aa3c 0812 0b3d a81e 993c 009f df3d
00000040: b40b 683d 9f91 b93c b942 4d3d 5fc5 9b3c
00000050: aedd 583b 069d 8a3d b306 1a3e f49f 1d3d
00000060: 7bea db3c b01e 5b3d 8d4a 293d e02f d43d
00000070: c4bf a43d 4829 2a3d d785 b83d 3546 193e

sequential/conv2d_1/BiasAdd/ReadVariableOp f4 [64]
-0.091815375 0.03761814 -0.0011617576 0.08621054 0.039479095 -0.041984964 -0.099423885 -0.07256798
0.026983123 -0.015711984 0.02121437 -0.057114452 0.046263095 -0.01830627 -0.026245274 -0.021574678
0.002193055 0.029202785 0.11484785 0.06727315 0.09622851 0.07278133 0.016529081 0.066399455
-0.02267276 0.07225268 0.08199568 -0.060841322 0.053486865 0.06826917 -0.025742637 0.050141767
-0.02797008 0.05824068 0.06794731 -0.05919697 0.07275647 0.06036239 0.033561233 -0.047256086
-0.07183869 -0.04539318 -0.07547857 0.03762269 -0.07098733 0.018497592 -0.13234179 0.09755436
0.10899407 -0.03307743 -0.11785422 0.05343284 0.10053583 0.047541745 0.08813643 0.07931506
0.030835627 0.011417825 0.001715146 0.021087175 0.051906914 0.039583765 0.062938586 0.061602287
00000000: b309 bcbd 7b15 1a3d 1e46 98ba 278f b03d
00000010: d5b4 213d 6df8 2bbd c09e cbbd 859e 94bd
00000020: b60b dd3c 6bb6 80bc c2c9 ad3c d8f0 69bd
00000030: 5f7e 3d3d 08f7 95bc 5400 d7bc 61bd b0bc
00000040: 5cb9 0f3b ae3a ef3c 5935 eb3d 81c6 893d
00000050: 7413 c53d 610e 953d ff67 873c 70fc 873d
00000060: 39bc b9bc 37f9 933d 5aed a73d c034 79bd
00000070: 0b15 5b3d b5d0 8b3d 39e2 d2bc 7461 4d3d
00000080: 8221 e5bc c78d 6e3d f627 8b3d 8678 72bd
00000090: 5801 953d 8e3e 773d 8177 093d 998f 41bd
000000a0: 2a20 93bd 33ee 39bd 8294 9abd 401a 1a3d
000000b0: ce61 91bd 4388 973c 9b84 07be 95ca c73d
000000c0: 4838 df3d 337c 07bd 8e5d f1bd 65dc 5a3d
000000d0: bbe5 cd3d 22bb 423d df80 b43d ef6f a23d
000000e0: ff9a fc3c d411 3b3c c0ce e03a 03bf ac3c
000000f0: 589c 543d 9622 223d f2e5 803d ae52 7c3d

sequential/conv2d_2/BiasAdd/ReadVariableOp f4 [128]
0.0024803616 -0.019723687 -0.0101686735 -0.1005168 0.019092545 -0.09813068 0.01423675 -0.06986716
-0.031632766 -0.08591589 -0.02944568 -0.0492967 -0.022846134 -0.053189415 0.00901259 0.031954
-0.015288179 -0.02398358 0.010140387 0.025403628 -0.015452147 0.07815493 -0.09091043 -0.15306894
0.0037659584 0.049445342 -0.027848508 0.01421319 -0.029299676 0.06310498 -0.075335614 0.036172293
-0.13291001 0.016404683 -0.009195285 0.004169006 0.008037134 0.021239333 -0.010231935 -0.12030265
0.008237359 -0.060759526 0.04689613 -0.0063647125 -0.02660364 0.0077365357 -0.09367144 0.0010134038
-0.0077743577 0.030986778 -0.0813085 -0.047730565 0.026940364 0.011180675 -0.010734975 0.039205518
-0.037521247 0.011077755 -0.0813172 -0.01323965 0.041133262 0.027558537 0.0052951113 -0.083220154
-0.012710123 -0.01452673 -0.016322244 -0.060185526 -0.091654085 -0.03432988 -0.008093548 0.00975441
0.030586505 0.022925226 -0.0014296114 0.004358626 0.010084045 -0.018489653 0.073042974 -0.14770235
-0.010899043 -0.03557396 0.033427812 0.12198597 -0.0033284354 -0.032004837 -0.015364021 -0.020192146
-0.019351846 0.009151272 -0.025310935 -0.010885061 0.0064447834 0.015343494 -0.113338545 -0.062304374
0.024086319 -0.0042160796 -0.025685854 -0.036364526 -0.019239005 -0.08044809 0.06326448 0.02318377
-0.03569579 -0.010180789 0.00304637 -0.041641477 0.010281858 0.017714381 -0.0029645222 0.0121741295
-0.061856326 -0.008132041 0.01261104 -0.061411366 -0.0066480245 -0.07924234 -0.034222968 -0.041065913
0.0136343 -0.055856902 -0.0061294255 -0.041836258 -0.001878057 -0.0031674858 -0.0030209126 -0.04123895
00000000: 908d 223b 9293 a1bc 829a 26bc c1db cdbd
00000010: f867 9c3c bdf8 c8bd 4241 693c 8316 8fbd
00000020: 5c91 01bd acf4 afbd 1138 f1bc 56eb 49bd
00000030: d127 bbbc 25dd 59bd 8ba9 133c 33e2 023d
00000040: 457b 7abc 3679 c4bc de23 263c 451b d03c
00000050: 012b 7dbc b10f a03d 3f2f babd 1bbe 1cbe
00000060: 4cce 763b 3387 4a3d 8e22 e4bc 71de 683c
00000070: e005 f0bc 2f3d 813d 8f49 9abd 6629 143d
00000080: 9019 08be 1d63 863c d2a7 16bc 289c 883b
00000090: 2fae 033c 1cfe ad3c d9a3 27bc 3c61 f6bd
000000a0: fdf5 063c fbde 78bd 2816 403d 148f d0bb
000000b0: e0ef d9bc c482 fd3b d0d6 bfbd 30d4 843a
000000c0: 0ac0 febb fcd7 fd3c 1285 a6bd 2081 43bd
000000d0: 0ab2 dc3c 262f 373c c0e1 2fbc f795 203d
000000e0: e1af 19bd 797f 353c a289 a6bd 1eeb 58bc
000000f0: 5a7b 283d 71c2 e13c 9d82 ad3b 546f aabd
00000100: 1f3e 50bc 8601 6ebc 3ab6 85bc 1985 76bd
00000110: 23b5 bbbd 7d9d 0cbd cd9a 04bc f6d0 1f3c
00000120: 8d90 fa3c afcd bb3c cc61 bbba ced2 8e3b
00000130: 8d37 253c 9d77 97bc 8e97 953d 493f 17be
00000140: e691 32bc 00b6 11bd 9aeb 083d c8d3 f93d
00000150: e121 5abb 8117 03bd 60b9 7bbc 006a a5bc
00000160: c387 9ebc 37ef 153c e158 cfbc 4157 32bc
00000170: c32e d33b 4763 7b3c 0a1e e8bd df32 7fbd
00000180: ac50 c53c 0a27 8abb 246b d2bc f8f2 14bd
00000190: 1e9b 9dbc f8c1 a4bd cf90 813d e4eb bd3c
000001a0: c035 12bd 53cd 26bc 9ca5 473b 4190 2abd
000001b0: 3d75 283c c01d 913c 6e48 42bb 0076 473c
000001c0: 0f5d 7dbd 413c 05bc 899e 4e3c 7c8a 7bbd
000001d0: acd7 d9bb cf49 a2bd 622d 0cbd bb34 28bd
000001e0: 6662 5f3c 35ca 64bd 59d9 c8bb 7f5c 2bbd
000001f0: 2329 f6ba 9895 4fbb 81fa 45bb 2cea 28bd

sequential/conv2d/Conv2D f4 [32, 5, 5, 1]
0.029769678 -0.019953227 -0.19090699 -0.16992794 -0.17875855 0.07176624 -0.025972808 -0.14410438
-0.11210891 0.017605932 0.03175906 0.050501544 0.0034883807 0.111017466 0.0012074993 0.012078753
-0.035362363 0.04665374 0.06341969 0.114106484 0.0020766358 -0.0694485 0.112417504 -0.0019301288
0.060074374 -0.15054084 -0.05561436 -0.121449515 -0.10774427 -0.12667014 -0.03346528 -0.089625396
-0.0022500583 0.006680931 -0.06726305 0.08779827 -0.054386947 0.07385068 0.04573611 0.13174178
0.0077096205 -0.03157948 0.11503698 0.083722524 0.114021845 -0.0022254798 0.093198866 0.04199529
0.0061606355 0.0026497836 0.037365973 0.010191327 0.052535333 0.08802259 0.083528854 0.021213556
-0.028558 -0.10890211 -0.17243901 -0.035651173 0.025253804 0.09296493 0.028268961 0.0359527
0.05071131 -0.12428896 -0.11811778 -0.029153682 -0.106455326 0.041677427 -0.15749201 -0.1288031
-0.03870219 0.045859173 0.08763397 -0.004368954 0.032446437 0.0828425 -0.018620923 -0.025290288
-0.009910716 -0.13046093 -0.05907257 0.048947547 0.007902117 -0.029077385 0.03637552 -0.028534796
-0.046736382 -0.046245806 0.020427546 0.09888912 -0.064654216 -0.24334869 -0.16781682 -0.016220236
0.033064883 0.0835243 -0.2003917 -0.2600932 0.0527772 0.014591616 0.10385617 -0.034323636
-0.030988988 0.052222203 0.1044701 0.042429324 0.12171505 -0.078115374 0.08325649 -0.01777155
0.0004989645 -0.07511896 0.01167238 0.050195046 -0.07565486 -0.07544095 -0.036907215 -0.124906756
-0.1381816 -0.13419712 -0.18292934 -0.062995955 0.088725396 0.08617553 0.035381492 -0.06413312
-0.0049170526 -0.10843606 0.09974221 0.0047690687 -0.037105843 -0.06871926 -0.036193427 0.0035071117
0.08492436 0.059473317 0.013353631 -0.04227526 -0.0615009 0.056230415 0.06570782 0.06248173
0.03095802 -0.22350799 -0.14247471 0.04018284 -0.0025304542 -0.08662554 -0.030972732 0.108218804
-0.045090366 0.068799786 -0.04849436 0.055193037 -0.049024217 0.0014697314 0.13370594 0.12075934
0.051479597 -0.013185168 0.051799253 0.1733761 0.06658584 -0.06657312 -0.008798148 0.07848093
0.057699922 0.10969629 -0.086425945 -0.106630184 0.02841779 -0.039532788 -0.082017414 -0.05211303
0.033518177 -0.14767669 0.071904644 -0.050512273 -0.051130798 0.0950817 0.11870542 0.012432356
0.035521016 0.02263304 -0.020504873 0.058705356 0.07816327 0.09913779 -0.111785516 -0.04922139
0.12056128 0.06805465 0.088135235 -0.11118036 0.030572817 0.04309194 0.0352116 0.12959403
-0.18271518 0.06147765 -0.0028372395 0.03083355 -0.028740607 -0.14010441 -0.061549217 0.03574136
0.03365083 -0.108722456 -0.08626563 -0.07762253 0.012268231 0.008704293 0.00801641 0.01601549
0.05208755 -0.048888884 -0.05099441 0.13687953 0.0928997 0.09502974 -0.15742713 0.06349831
-0.07064756 -0.115842044 -0.13892373 0.021502709 0.014651422 0.08483825 -0.06785513 0.010093394
-0.04565097 0.047683574 0.03833529 0.062293112 0.029360348 0.085797705 0.062379062 -0.07925282
-0.095465556 0.1385337 0.0968087 -0.12237879 -0.070439294 0.027775982 -0.014724731 -0.13844767
-0.05969833 0.06369626 -0.0015650777 -0.06460152 -0.123586126 -0.083307326 -0.06861083 0.081508264
00000000: 8adf f33c f374 a3bc 1f7d 43be 9701 2ebe
00000010: 7b0c 37be 2efa 923d edc4 d4bc 1990 13be
00000020: 5b99 e5bd 513a 903c ca15 023d b5da 4e3d
00000030: 519d 643b 205d e33d f444 9e3a f6e5 453c
00000040: 20d8 10bd fe17 3f3d 2fe2 813d a9b0 e93d
00000050: 2b18 083b 043b 8ebd 263b e63d 60fc fcba
00000060: 8c10 763d 6127 1abe e2cb 63bd 86ba f8bd
00000070: 07a9 dcbd d1b5 01be e412 09bd 858d b7bd
00000080: b775 13bb b6eb da3b 36c1 89bd 94cf b33d
00000090: d9c4 5ebd 063f 973d ca55 3b3d 51e7 063e
000000a0: fca0 fc3b 7c59 01bd 8298 eb3d b776 ab3d
000000b0: 4984 e93d 5bd9 11bb 0cdf be3d 4103 2c3d
000000c0: 28df c93b fea7 2d3b 100d 193d 86f9 263c
000000d0: 4a2f 573d 3045 b43d 2d11 ab3d 0dc8 ad3c
000000e0: 78f2 e9bc 1208 dfbd da93 30be f706 12bd
000000f0: 11e1 ce3c 6664 be3d 4f94 e73c 2343 133d
00000100: aab6 4f3d 368b febd bce7 f1bd b4d3 eebc
00000110: 4005 dabd f3b5 2a3d 9645 21be f6e4 03be
00000120: 3086 1ebd d4d6 3b3d 7079 b33d 7129 8fbb
00000130: 8ee6 043d 54a9 a93d e88a 98bc 942d cfbc
00000140: 8e60 22bc 8d97 05be 14f6 71bd 397d 483d
00000150: e277 013c b233 eebc 7ffe 143d cec1 e9bc
00000160: a66e 3fbd 3e6c 3dbd ab57 a73c 6186 ca3d
00000170: 6e69 84bd 6630 79be 2cd8 2bbe 4de0 84bc
00000180: 0b6f 073d ca0e ab3d 7b33 4dbe f02a 85be
00000190: e82c 583d ac11 6f3c 8bb2 d43d f196 0cbd
000001a0: 9edc fdbc f3e6 553d 6bf4 d53d 5fca 2d3d
000001b0: bd45 f93d f4fa 9fbd 6182 aa3d a495 91bc
000001c0: f1cc 023a f8d7 99bd 833d 3f3c 5299 4d3d
000001d0: eff0 9abd c980 9abd 052c 17bd 1dcf ffbd
000001e0: 7a7f 0dbe f86a 09be d451 3bbe 0604 81bd
000001f0: a9b5 b53d cc7c b03d 2fec 103d 3a58 83bd
00000200: 3a1f a1bb ba13 debd a545 cc3d d945 9c3b
00000210: 4cfc 17bd afbc 8cbd 8f3f 14bd 92d7 653b
00000220: d3ec ad3d 4b9a 733d 30c9 5a3c d328 2dbd
00000230: 5ee8 7bbd dd51 663d d291 863d d8ec 7f3d
00000240: ac9b fd3c 47df 64be e4e4 11be c396 243d
00000250: fad5 25bb bb68 b1bd 87ba fdbc d2a1 dd3d
00000260: adb0 38bd e7e6 8c3d 06a2 46bd 1812 623d
00000270: 9ecd 48bd 01a4 c03a 36ea 083e ac50 f73d
00000280: 45dc 523d 9a06 58bc 742b 543d 8189 313e
00000290: 285e 883d 7d57 88bd 1b26 10bc 9cba a03d
000002a0: c156 6c3d 73a8 e03d 1600 b1bd ed60 dabd
000002b0: 6dcc e83c 22ed 21bd bff8 a7bd 7974 55bd
000002c0: 5b4a 093d 8f38 17be be42 933d f5e5 4ebd
000002d0: 876e 51bd 32ba c23d d41b f33d 15b1 4b3c
000002e0: 7c7e 113d ed68 b93c d6f9 a7bc 0775 703d
000002f0: 1114 a03d c108 cb3d ceef e4bd 5e9c 49bd
00000300: d5e8 f63d 3d60 8b3d 3f80 b43d 87b2 e3bd
00000310: d873 fa3c 2d81 303d 0a3a 103d 4cb4 043e
00000320: b019 3bbe fdcf 7b3d fbf0 39bb a496 fc3c
00000330: 6c71 ebbc 8877 0fbe 081b 7cbd 8865 123d
00000340: 74d5 093d e1a9 debd 09ac b0bd 90f8 9ebd
00000350: b100 493c 739c 0e3c 4357 033c eb32 833c
00000360: c159 553d b63f 48bd 84df 50bd 262a 0c3e
00000370: 3342 be3d f49e c23d 9434 21be 670b 823d
00000380: abaf 90bd 983e edbd 0642 0ebe 7326 b03c
00000390: 850c 703c adbf ad3d a1f7 8abd c35e 253c
000003a0: 83fc 3abd da4f 433d 7705 1d3d 1027 7f3d
000003b0: 1d85 f03c b5b6 af3d 3081 7f3d 4d4f a2bd
000003c0: 7283 c3bd c7db 0d3e a443 c63d bba1 fabd
000003d0: 7a42 90bd 758a e33c 0040 71bc 3ac5 0dbe
000003e0: 3c86 74bd 2f73 823d 4b23 cdba cd4d 84bd
000003f0: b91a fdbd 089d aabd d683 8cbd ceed a63d

sequential/conv2d_1/Conv2D f4 [64, 5, 5, 32]
0.032541905 0.034293417 -0.002457033 -0.17876717 0.024274133 0.019009119 0.014472154 0.007144717
-0.0030722995 0.011435933 -0.06857734 -0.019525532 -0.04574765 0.01321421 0.004222507 0.050648954
-0.015818113 0.010837694 0.039776485 -0.07630492 -0.08859312 -0.037995808 0.0927568 -0.08833896
0.062379964 -0.04718411 -0.011329966 -0.048246097 0.011762805 -0.0043089576 -0.089326814 -0.046852227
-0.05912695 0.05347742 -0.05846118 -0.05716243 -0.001554243 -0.032228015 0.031571746 0.082024775
0.0665152 0.14495027 -0.024221586 0.06367405 0.034010336 -0.067440785 -0.11696164 -0.09385362
0.03685661 0.040682055 0.113610685 0.06904917 0.043949608 0.05650572 0.05623496 -0.06869021
0.0761712 -0.060939975 0.0025558525 0.16730635 -0.080243565 -0.06840668 0.07798169 0.09807603
-0.032083232 -0.055320818 -0.081592806 0.02972988 0.11398609 0.069886446 0.032244474 0.034799293
-0.069119185 0.08169925 0.04275559 0.04563705 -0.052898917 0.070705056 -0.0101128165 -0.064542666
0.047057547 -0.0043545724 0.013964189 0.17208032 -0.006015209 0.029115867 -0.021199973 -0.06528538
0.0016375931 0.0023669382 -0.07906919 0.034118894 0.123066306 -0.022838524 -0.011402571 0.051506873
-0.01509827 0.008666338 0.004931105 0.0068232436 0.104853 0.0147579815 0.0007283066 0.033291012
-0.05791652 -0.109705 0.000104163075 0.07786363 -0.08759545 0.046240896 -0.06728432 -0.0008540904
0.04895595 -0.051110562 -0.04597026 0.039840654 -0.03240534 0.022595357 0.03822307 -0.009593364
-0.09136539 -0.072646946 -0.046069473 -0.025829837 -0.017411554 0.03590597 -0.076104306 0.07308398
0.064530976 0.02808315 0.15593907 -0.022512937 0.023269827 0.053294316 0.07541694 0.020596988
-0.060810458 0.020798422 -0.057665568 0.0948411 0.051850595 0.12374366 -0.036444407 0.10566582
0.11235782 0.07459852 -0.017723644 0.008333803 -0.0015740537 0.031135334 0.031896457 -0.022054706
-0.05957137 -0.023532191 0.0876032 -0.010266975 -0.10602659 0.15105318 -0.10554996 0.062748656
-0.06138981 -0.07149909 0.04168869 -0.086204045 -0.01984442 -0.019014716 -0.019315235 0.01402289
0.030975439 0.07403464 -0.08803332 0.07413388 0.026933722 -0.038125392 -0.027832447 -0.060089175
0.0053645815 -0.044286463 0.030979965 -0.060263686 -0.026337212 0.048793588 0.06208625 -0.061059218
0.003981865 -0.07365455 -0.01479282 -0.0150985895 -0.04558391 -0.03265476 0.0027510945 -0.038511656
-0.026109705 -0.027681846 -0.044504218 -0.010620052 0.0011774353 -0.020791624 0.059776098 0.01219721
-0.017027762 0.03889453 -0.05201224 -0.042957377 -0.05286576 0.0077671525 -0.07312436 -0.06062982
-0.0038858468 -0.039233565 -0.016584145 0.03047699 0.035314657 0.058291398 -0.03801674 -0.07535153
-0.03028495 -0.050117433 0.0019575837 0.02635592 -0.024726022 -0.028735617 -0.03653141 0.011781756
0.00472727 -0.04978555 -0.0058135344 0.09468893 0.062116995 0.061744574 0.01980671 -0.010821899
-0.015500582 -0.07850559 0.0051439907 -0.054102108 -0.044698868 0.044345204 -0.022975657 -0.09350825
0.02122837 -0.06096607 -0.061400265 0.054848697 -0.09431739 -0.069297016 -0.034270328 0.0030787238
-0.022960406 -0.06340187 0.04247257 -0.020946596 0.011709534 -0.0706104 -0.013443283 0.025257375
00000000: a94a 053d 4177 0c3d 2c06 21bb be0e 37be
00000010: 8cda c63c 03b9 9b3c 9d1c 6d3c 3b1e ea3b
00000020: a258 49bb c85d 3b3c 4772 8cbd 02f4 9fbc
00000030: e361 3bbd 6a80 583c f55c 8a3b 4775 4f3d
00000040: fd94 81bc 9590 313c abec 223d c145 9cbd
00000050: 4f70 b5bd 7ea1 1bbd 47f7 bd3d 0feb b4bd
00000060: 2282 7f3d 2044 41bd 52a1 39bc b39d 45bd
00000070: c8b8 403c 2832 8dbb faf0 b6bd 1fe8 3fbd
00000080: 1a2f 72bd 240b 5b3d fe74 6fbd 2723 6abd
00000090: beb7 cbba 8601 04bd 6051 013d 9bfc a73d
000000a0: 1f39 883d d86d 143e 596c c6bc 8a67 823d
000000b0: 6c4e 0b3d 651e 8abd 9689 efbd 5436 c0bd
000000c0: f5f6 163d 3aa2 263d b8ac e83d a769 8d3d
000000d0: 8104 343d 8b72 673d a156 663d 74ad 8cbd
000000e0: a5ff 9b3d 329c 79bd 1780 273b 5b52 2b3e
000000f0: bd56 a4bd cd18 8cbd ddb4 9f3d 16dc c83d
00000100: b569 03bd 1598 62bd 211a a7bd 148c f33c
00000110: 8a71 e93d a020 8f3d c812 043d b489 0e3d
00000120: 5c8e 8dbd f051 a73d 7c20 2f3d eaed 3a3d
00000130: 89ac 58bd d0cd 903d 3ab0 25bc f22e 84bd
00000140: 6abf 403d cdb0 8ebb 0eca 643c d335 303e
00000150: 3b1b c5bb 6684 ee3c 91ab adbc 57b4 85bd
00000160: 82a4 d63a a21e 1b3b 07ef a1bd 41c0 0b3d
00000170: 300a fc3d db17 bbbc d9d1 3abc dff8 523d
00000180: bc5e 77bc 42fd 0d3c 1b95 a13b 8495 df3b
00000190: 2bbd d63d 76cb 713c d4eb 3e3a 285c 083d
000001a0: df39 6dbd 04ad e0bd 2072 da38 f876 9f3d
000001b0: 3e65 b3bd 1867 3d3d 5dcc 89bd 09e5 5fba
000001c0: 0986 483d 4f59 51bd 504b 3cbd f42f 233d
000001d0: 76bb 04bd e619 b93c cb8f 1c3d 7c2d 1dbc
000001e0: c71d bbbd ecc7 94bd 58b3 3cbd 1899 d3bc
000001f0: ada2 8ebc 2312 133d 93dc 9bbd 0ead 953d
00000200: d128 843d a20e e63c 7eae 1f3e 0d6d b8bc
00000210: 5da0 be3c 244b 5a3d 3274 9a3d 04bb a83c
00000220: 6314 79bd 7461 aa3c bb32 6cbd 0d3c c23d
00000230: 4a61 543d 516d fd3d bb46 15bd 5267 d83d
00000240: db1b e63d 1cc7 983d 2d31 91bc 818a 083c
00000250: 7a50 ceba 870f ff3c dca5 023d 12ac b4bc
00000260: 1c01 74bd 95c6 c0bc 4e69 b33d d036 28bc
00000270: 7824 d9bd afad 1a3e 942a d8bd 5e82 803d
00000280: e273 7bbd 1d6e 92bd c3c1 2a3d bf8b b0bd
00000290: c490 a2bc c0c4 9bbc fc3a 9ebc 43c0 653c
000002a0: 34c0 fd3c 799f 973d d04a b4bd 81d3 973d
000002b0: 1ca4 dc3c 5f29 1cbd df00 e4bc 1120 76bd
000002c0: 5fc9 af3b b965 35bd b2c9 fd3c 0ed7 76bd
000002d0: 23c1 d7bc c9db 473d 274e 7e3d 3b19 7abd
000002e0: 4e7a 823b 32d8 96bd 965d 72bc 1360 77bc
000002f0: 32b6 3abd ffc0 05bd b54b 343b 66be 1dbd
00000300: 05e4 d5bc 0ac5 e2bc 0e4a 36bd baff 2dbc
00000310: 2c54 9a3a 3253 aabc c8d7 743d cfd6 473c
00000320: ce7d 8bbc df4f 1f3d c90a 55bd 13f4 2fbd
00000330: c489 58bd 9983 fe3b 39c2 95bd f956 78bd
00000340: b1a9 7ebb 60b3 20bd 79db 87bc e1aa f93c
00000350: 1aa6 103d f6c2 6e3d 71b7 1bbd e751 9abd
00000360: 2518 f8bc f047 4dbd ce4a 003b 5fe8 d73c
00000370: 3a8e cabc f566 ebbc f6a1 15bd 4408 413c
00000380: 37e7 9a3b efeb 4bbd 767f bebb 45ec c13d
00000390: 646e 7e3d e1e7 7c3d ae41 a23c 564e 31bc
000003a0: 27f6 7dbc 8ac7 a0bd ec8e a83b 2c9a 5dbd
000003b0: 2916 37bd 51a3 353d 7237 bcbc 4181 bfbd
000003c0: 1ee7 ad3c 8fb7 79bd d87e 7bbd 07a9 603d
000003d0: 7a29 c1bd 98eb 8dbd 0b5f 0cbd 6ac4 493b
000003e0: 7617 bcbc d7d8 81bd b8f7 2d3d 3298 abbc
000003f0: 58d9 3f3c 2f9c 90bd 3741 5cbc 8ee8 ce3c

sequential/conv2d_2/Conv2D f4 [128, 3, 3, 64]
0.07240829 -0.104334354 0.028330486 -0.020284617 -0.07452582 -0.022299992 -0.06523299 -0.067210935
-0.024496844 -0.035958882 0.044830795 0.025705926 -0.05355344 -0.09054358 -0.026014972 -0.02763357
-0.015708411 0.05455439 -0.013502119 -0.03954623 -0.049600113 0.02760069 -0.024533516 -0.020720871
0.042663 -0.022085661 0.08233653 0.074066736 0.0641722 0.024628876 0.07529838 -0.022333091
-0.07299614 -0.027462762 0.03523367 -0.053731367 0.05942159 -0.025916874 0.031777643 0.10461291
0.048226096 0.12777783 0.0024660002 0.0011276074 0.037738405 -0.069781534 0.100875616 0.059160344
0.029389111 0.029096238 -0.0014605164 -0.088271566 0.10873995 0.016504062 0.10223045 0.09227183
-0.034739744 0.061941866 -0.03519715 -0.05884782 0.016484132 -0.09274805 -0.044962786 0.022403507
0.0013360484 -0.021142539 -0.08042868 0.03618327 0.13482271 -0.15730421 -0.15204535 -0.027054647
-0.040685177 -0.06512953 0.058463156 0.027676461 0.028431596 0.06760409 -0.086209886 -0.0054591824
0.045539252 0.065714255 0.11240011 0.12561181 0.08391555 0.04208609 0.105951734 -0.042258833
-0.07506375 0.070446625 0.10561497 -0.018441945 -0.07481969 0.015261784 -0.020101208 -0.16235973
0.07230918 -0.0014761873 0.04148644 0.016431881 0.0049495143 0.03295577 0.12753563 -0.045507353
-0.0073015513 0.020585751 -0.011157391 0.011696636 -0.027082857 -0.014494895 0.03955715 0.037761085
0.095816255 -0.03932272 0.0455356 -0.064290635 0.019248208 -0.04177091 -0.024371898 -0.07673056
-0.015627826 0.03621804 0.015314771 -0.056612737 0.025103413 0.05949841 -0.043228835 0.024452725
-0.101509534 -0.08716895 -0.00638495 -0.012242852 0.18713589 -0.0396287 0.08605441 0.06703988
-0.017703434 -0.0059215412 -0.026229976 -0.03927302 0.114351764 0.010839981 -0.03248012 0.061871532
0.069467425 -0.066208 -0.07305976 -0.028161349 -0.040739886 0.027730592 0.12355264 0.17575034
0.058957946 0.038725037 -0.019179106 0.021179954 0.020492498 -0.044940464 0.09089929 -0.12148078
0.016205601 0.018342825 0.037247606 0.040242102 0.12041572 0.025054833 0.02340556 0.08662153
0.026409544 -0.06779678 0.07667457 -0.1313395 0.07402842 -0.080609396 -0.039897062 0.012995749
-0.06352336 0.0027049263 0.08512553 0.03162511 -5.2658965e-05 0.23252186 -0.064166404 0.022769
0.050606333 0.010623835 0.016137516 0.056921866 0.105890095 -0.011002948 -0.039930504 -0.037085194
0.070493445 0.028738562 -0.07067029 0.025052078 0.03877773 0.17248592 0.031878706 -0.011844609
0.045777865 -0.078008816 0.023955848 -0.06252212 0.02358131 -0.11730089 -0.028342722 -0.029587492
-0.010764088 -0.008152264 0.023715861 0.039714456 -0.025218602 0.0037198672 -0.030782573 0.0034642126
-0.09290149 -0.05891067 -0.041745376 -0.04189918 -0.060275614 0.037745025 -0.0052486802 -0.0876171
-0.060842626 -0.06670934 0.0052003544 -0.04021453 -0.052603412 -0.028202105 0.008868148 -0.071430236
-0.07724324 0.073334135 0.07450618 -0.06988374 -0.010429746 -0.009901495 -0.03721213 -0.08431363
0.07316193 -0.011901076 -0.04570331 -0.041167624 0.08673103 -0.07063617 0.037422433 0.060911544
-0.011906832 -0.07902081 0.084500715 -0.028154887 0.03320824 -0.12462745 0.039693225 -0.018164705
00000000: cc4a 943d 40ad d5bd 5615 e83c ed2b a6bc
00000010: fea0 98bd 79ae b6bc e098 85bd e3a5 89bd
00000020: 9bad c8bc 9f49 13bd 7fa0 373d 3c95 d23c
00000030: da5a 5bbd ea6e b9bd 5a1d d5bc cc5f e2bc
00000040: edae 80bc 6d74 5f3d fe37 5dbc 3afb 21bd
00000050: 7d29 4bbd d81a e23c 83fa c8bc d1be a9bc
00000060: 66bf 2e3d fdec b4bc 0ea0 a83d 4db0 973d
00000070: b76c 833d 7fc2 c93c 0936 9a3d e3f3 b6bc
00000080: 007f 95bd 96f9 e0bc 2e51 103d 6c15 5cbd
00000090: 0e64 733d a04f d4bc 4629 023d 4b3f d63d
000000a0: ba88 453d 31d8 023e 9e9c 213b 3acc 933a
000000b0: 9693 1a3d 9fe9 8ebd e097 ce3d 1e52 723d
000000c0: 6fc1 f03c 3c5b ee3c cc6e bfba b9c7 b4bd
000000d0: 0db3 de3d 8733 873c 335e d13d 03f9 bc3d
000000e0: 434b 0ebd c1b6 7d3d e32a 10bd 690a 71bd
000000f0: bb09 873c b1f2 bdbd e62a 38bd 8f87 b73c
00000100: 581e af3a 1e33 adbc cbb7 a4bd e934 143d
00000110: f70e 0a3e 5b14 21be c7b1 1bbe b5a1 ddbc
00000120: 80a5 26bd a262 85bd 1077 6f3d bfb9 e23c
00000130: 61e9 e83c 0374 8a3d cf8e b0bd f1e2 b2bb
00000140: 5e87 3a3d 3295 863d 0732 e63d 62a0 003e
00000150: eadb ab3d 7762 2c3d 39fd d83d 9917 2dbd
00000160: 06bb 99bd 5246 903d a94c d83d 9013 97bc
00000170: 113b 99bd 900c 7a3c 4aab a4bc a141 26be
00000180: d616 943d a07c c1ba afed 293d 279c 863c
00000190: 892f a23b a1fc 063d b398 023e eb65 3abd
000001a0: da41 efbb 73a3 a83c 7dcd 36bc 3fa3 3f3c
000001b0: dedc ddbc ff7b 6dbc ae06 223d 5eab 1a3d
000001c0: 503b c43d dc10 21bd 8a83 3a3d cfaa 83bd
000001d0: 6bae 9d3c f917 2bbd 93a7 c7bc e924 9dbd
000001e0: ed05 80bc 5e59 143d ceea 7a3c c2e2 67bd
000001f0: aca5 cd3c 9bb4 733d b810 31bd 1551 c83c
00000200: 3be4 cfbd a285 b2bd d838 d1bb 3e96 48bc
00000210: 8da0 3f3e b451 22bd 4b3d b03d 344c 893d
00000220: cb06 91bc 7d09 c2bb 3fe0 d6bc bfdc 20bd
00000230: 4231 ea3d 2d9a 313c e009 05bd 016d 7d3d
00000240: f044 8e3d 0f98 87bd 5ba0 95bd a1b2 e6bc
00000250: dede 26bd 442b e33c 2b09 fd3d e6f7 333e
00000260: e37d 713d 259e 1e3d 801d 9dbc 9581 ad3c
00000270: e2df a73c 7e13 38bd 6829 ba3d eaca f8bd
00000280: 9cc1 843c b143 963c f290 183d e7d4 243d
00000290: 849c f63d cb3f cd3c 04bd bf3c a166 b13d
000002a0: d458 d83c 0ad9 8abd 8f07 9d3d dd7d 06be
000002b0: 369c 973d 8a16 a5bd 1a6b 23bd 1fec 543c
000002c0: 8918 82bd 2245 313b 4b56 ae3d 5589 013d
000002d0: 22de 5cb8 361a 6e3e ad69 83bd 0e86 ba3c
000002e0: 9648 4f3d 980f 2e3c d332 843c e726 693d
000002f0: e8dc d83d b545 34bc 2b8e 23bd a5e6 17bd
00000300: de5e 903d 226d eb3c 96bb 90bd 043a cd3c
00000310: 66d5 1e3d 26a0 303e 3f93 023d e40f 42bc
00000320: 9281 3b3d 16c3 9fbd 0e3f c43c 990b 80bd
00000330: 972d c13c 733b f0bd ff2e e8bc 7861 f2bc
00000340: db5b 30bc 1391 05bc c447 c23c a0ab 223d
00000350: 3e97 cebc 04c9 733b bc2b fcbc d807 633b
00000360: 2343 bebd 514c 71bd 33fd 2abd 799e 2bbd
00000370: 90e3 76bd 879a 1a3d 1ffd abbb 9870 b3bd
00000380: 1e36 79bd e89e 88bd bc67 aa3b feb7 24bd
00000390: ad76 57bd 1a08 e7bc b54b 113c 044a 92bd
000003a0: b431 9ebd 3530 963d b296 983d 351f 8fbd
000003b0: 86e1 2abc e139 22bc bf6b 18bd a0ac acbd
000003c0: ecd5 953d bbfc 42bc 6533 3bbd 629f 28bd
000003d0: 0aa0 b13d b2a9 90bd 4448 193d 627e 793d
000003e0: e014 43bc aad5 a1bd b60e ad3d 14a5 e6bc
000003f0: 5d05 083d ad3c ffbd 5d95 223d 26ce 94bc

sequential/lstm/Read_2/ReadVariableOp f4 [32]
0.11057691 0.007936871 0.040320028 0.06406887 0.022977773 0.03300399 0.0791486 0.045725606
0.94359004 1.0785537 1.099466 1.0724661 1.0837595 1.0357822 0.9938212 1.0461618
0.02056593 0.049932998 -0.047147986 0.062042736 -0.060418323 0.04571617 -0.034768913 -0.0464349
0.17392056 0.10316436 0.14197661 0.109068796 0.13656352 0.107676834 0.08216633 0.11174789
00000000: 2676 e23d a609 023c 9d26 253d 8a36 833d
00000010: e23b bc3c 312f 073d a918 a23d c64a 3b3d
00000020: 1e8f 713f 0c0e 8a3f 4dbb 8c3f 9246 893f
00000030: a2b8 8a3f 8394 843f 116b 7e3f a1e8 853f
00000040: e279 a83c 8b86 4c3d 3f1e 41bd 8620 7e3d
00000050: 3479 77bd e140 3b3d d969 0ebd 8632 3ebd
00000060: 3b18 323e d647 d33d 5162 113e 765f df3d
00000070: 4fd7 0b3e ac85 dc3d d246 a83d 14dc e43d

sequential/batch_normalization/FusedBatchNormV3 f4 [32]
2.6621222 2.1174011 7.318789 10.784138 3.2548587 3.5801232 0.9759154 0.98810965
6.190633 5.0822363 3.4945276 2.6779952 2.269787 12.6063175 13.841822 5.4186034
2.145582 5.419002 3.7440002 8.083749 18.367283 4.836782 7.2516294 5.1174006
1.4095092 9.067746 16.374483 1.4325997 4.8443913 14.20295 4.1156344 1.0339832
00000000: 3660 2a40 8083 0740 8533 ea40 d48b 2c41
00000010: 9b4f 5040 bd20 6540 97d5 793f c1f4 7c3f
00000020: aa19 c640 aea1 a240 57a6 5f40 4664 2b40
00000030: 3144 1140 7ab3 4941 1a78 5d41 3365 ad40
00000040: 3751 0940 7768 ad40 b39d 6f40 0957 0141
00000050: 32f0 9241 ebc6 9a40 590d e840 bfc1 a340
00000060: cc6a b43f 7d15 1141 f1fe 8241 6d5f b73f
00000070: 4105 9b40 483f 6341 47b3 8340 9059 843f

sequential/batch_normalization/FusedBatchNormV31 f4 [32]
-0.19006169 -0.13469957 -0.7597182 -0.17473185 -0.38615146 -0.5872394 -0.17760268 -0.1281307
-0.25152472 -0.3580682 -0.46145505 -0.24418564 -0.14393555 -0.23999807 -0.18447568 -0.48875797
-0.2505219 -0.16983773 -0.23555835 -0.12803265 -0.060601365 -0.3958929 -0.7571533 -0.21884269
-0.12707537 -0.35742772 -0.26176557 -0.18843076 -0.2986189 -0.34615153 -0.2853766 -0.34368002
00000000: 889f 42be afee 09be e47c 42bf e8ec 32be
00000010: a5b5 c5be 5255 16bf 7add 35be b234 03be
00000020: d9c7 80be b754 b7be d643 ecbe cd0b 7abe
00000030: d763 13be 0ec2 75be 31e7 3cbe 7c3e fabe
00000040: 6844 80be f1e9 2dbe 3536 71be fe1a 03be
00000050: 2339 78bd 79b2 cabe ccd4 41bf 4c18 60be
00000060: 0c20 02be c400 b7be 2306 86be fef3 40be
00000070: 94e4 98be c63a b1be e21c 92be d4f6 afbe

sequential/batch_normalization_1/FusedBatchNormV3 f4 [64]
0.69431555 1.3436124 1.4403919 0.61831033 1.4038616 1.093555 2.1433985 1.1084884
0.58215845 0.76473933 0.1504941 1.1022222 0.53818655 0.9423792 0.79371196 0.32453293
0.75600994 1.0636709 0.5850636 0.24417523 0.79476464 0.20833421 0.86384493 0.9315399
1.5364504 0.2843952 1.6087447 0.08767885 1.1411744 0.6690933 0.9624153 0.61337006
1.6042179 1.6664928 0.23415881 1.5282578 0.4251509 0.41085786 0.45418638 1.2135812
0.82856303 1.6611059 0.21474221 0.7236961 0.12972456 0.68583643 0.6653801 0.61976135
0.46546322 1.4682738 1.8567044 0.24209586 1.2817258 0.42915553 0.99328893 0.8905712
0.83302945 0.8931436 1.0402851 1.0727459 0.41320106 0.38728172 1.0054213 0.17238231
00000000: aabe 313f 7efb ab3f c35e b83f 9649 1e3f
00000010: bdb1 b33f 9cf9 8b3f 712d 0940 f3e2 8d3f
00000020: 5608 153f f5c5 433f 201b 1a3e 9e15 8d3f
00000030: 98c6 093f c33f 713f b530 4b3f 2e29 a63e
00000040: de89 413f 5e26 883f bac6 153f 1209 7a3e
00000050: b275 4b3f 9055 553e f124 5d3f 6679 6e3f
00000060: 68aa c43f 3f9c 913e 59eb cd3f f890 b33d
00000070: 0112 923f b349 2b3f d960 763f d205 1d3f
00000080: 0357 cd3f a34f d53f 54c7 6f3e f49d c33f
00000090: 61ad d93e f65b d23e 1e8b e83e a156 9b3f
000000a0: b51c 543f 1e9f d43f 62e5 5b3e 2644 393f
000000b0: 84d6 043e fa92 2f3f 5a56 2a3f aea8 1e3f
000000c0: 3251 ee3e 65f0 bb3f 7da8 ed3f fae7 773e
000000d0: 970f a43f 46ba db3e 2f48 7e3f 79fc 633f
000000e0: 6b41 553f 0fa5 643f 1028 853f bd4f 893f
000000f0: 178f d33e ca49 c63e a5b1 803f fd84 303e

sequential/batch_normalization_1/FusedBatchNormV31 f4 [64]
-0.34930533 -0.49660245 -0.49533132 -0.41639358 -0.2779815 -0.21639387 -0.7035481 -0.16245262
-0.15665194 -0.23851065 -0.2314015 -0.20997629 -0.23065366 -0.16941424 -0.15582833 -0.108710974
-0.2832374 -0.3130898 -0.33314022 -0.10344419 -0.38082516 -0.25878948 -0.38144597 -0.48604628
-0.32454735 -0.11737144 -0.5614506 -0.22402222 -0.1833214 -0.30007988 -0.43034783 -0.16735102
-0.36578584 -0.70935833 -0.23519097 -0.41057622 -0.25599444 -0.18641174 -0.3068475 -0.22536793
-0.2121344 -0.31235147 -0.12095966 -0.35488296 -0.18918651 -0.29808813 -0.08496317 -0.32459602
-0.21007401 -0.49110162 -0.295846 -0.21417502 -0.42516822 -0.21785088 -0.53829676 -0.48774782
-0.4964495 -0.54381996 -0.31536517 -0.4661857 -0.19009219 -0.2470027 -0.34306848 -0.11586732
00000000: 26d8 b2be ad42 febe 119c fdbe 8a31 d5be
00000010: 9753 8ebe 5b96 5dbe ba1b 34bf fb59 26be
00000020: 5e69 20be 233c 74be 84f4 6cbe 0604 57be
00000030: 7930 6cbe ed7a 2dbe 7691 1fbe dca3 debd
00000040: 7e04 91be 4e4d a0be 5b91 aabe 8cda d3bd
00000050: 84fb c2be 0e80 84be e34c c3be 0fdb f8be
00000060: 122b a6be 7060 f0bd 3abb 0fbf 1566 65be
00000070: 9bb8 3bbe 12a4 99be 8d56 dcbe 115e 2bbe
00000080: 4848 bbbe 8298 35bf e7d5 70be 0c37 d2be
00000090: b411 83be b8e2 3ebe 1e1b 9dbe dac6 66be
000000a0: c339 59be 88ec 9fbe b3b9 f7bd 38b3 b5be
000000b0: 1cba 41be 029f 98be 2c01 aebd 7331 a6be
000000c0: a41d 57be ac71 fbbe 2079 97be b250 5bbe
000000d0: a6af d9be 4d14 5fbe d1cd 09bf 15ba f9be
000000e0: a12e febe c937 0bbf 8b77 a1be e4af eebe
000000f0: 87a7 42be 47ee 7cbe aca6 afbe d84b edbd

sequential/batch_normalization_2/FusedBatchNormV3 f4 [128]
0.5452793 0.3595602 0.28369376 1.8872315 0.51813114 0.8693451 0.36601028 1.0319223
0.75317216 0.7349355 0.23481686 1.7019311 0.6637396 0.8211371 2.0541284 0.7190957
3.7512875 0.4589466 0.33562285 0.41664565 1.1995125 0.21893455 1.5227776 2.0191371
2.4575467 1.7846023 0.70501894 0.22241086 0.38345262 0.7262649 0.83891124 0.1826804
0.6233321 0.15399931 0.8917556 1.5157249 0.4580393 0.34978056 0.26206332 1.6889071
0.5443316 0.17786689 0.49759796 0.5681379 1.1402249 1.6507825 1.2546003 0.27405584
0.6412884 0.32233435 1.2827659 2.6837163 0.2865057 0.41389468 1.1027141 0.29337162
0.54748315 0.97178435 1.3233536 0.47736964 0.8606494 0.8658096 0.2542405 1.0575517
0.44181892 2.2850847 2.0417495 0.87873244 1.4854469 0.2781808 0.13543388 1.1913981
0.2667022 1.301368 0.46905428 0.27522695 0.84122884 0.16329072 0.85049325 1.8009762
0.48750538 0.7234397 0.83622056 0.9634274 0.89640826 0.8482808 1.0418406 1.3950839
0.52865285 0.260548 0.46120626 1.7428513 0.5610295 0.60045564 1.4258649 0.21619889
1.5701871 0.57423615 0.27794212 0.26459563 1.3074771 1.8460772 0.83095753 0.24635176
0.5682532 0.6511377 0.6009861 0.8149457 0.6049819 0.64132494 3.6615083 1.5118494
0.19959077 0.5140735 1.4777889 0.8434912 0.7567474 1.4702234 0.77704906 0.26740983
1.6163621 1.3286532 0.13946645 0.25099212 0.32884932 0.18739513 0.86288714 2.473184
00000000: 6d97 0b3f 4618 b83e 4f40 913e cd90 f13f
00000010: 3ea4 043f 678d 5e3f b365 bb3e 0816 843f
00000020: e4cf 403f bc24 3c3f d573 703e e1d8 d93f
00000030: d7ea 293f 0a36 523f d776 0340 a816 383f
00000040: 1815 7040 0cfb ea3e c2d6 ab3e 9452 d53e
00000050: a089 993f 6130 603e 60ea c23f 8b39 0140
00000060: 7248 1d40 d96d e43f 1f7c 343f acbf 633e
00000070: e753 c43e 7fec 393f e3c2 563f 9210 3b3e
00000080: b192 1f3f ffb1 1d3e 184a 643f 4603 c23f
00000090: 2184 ea3e 7016 b33e 2a2d 863e 1c2e d83f
000000a0: 5159 0b3f bd22 363e 29c5 fe3e 7c71 113f
000000b0: e4f2 913f d74c d33f be96 a03f 0c51 8c3e
000000c0: 7a2b 243f 0209 a53e ac31 a43f 02c2 2b40
000000d0: e0b0 923e 01ea d33e bc25 8d3f ce34 963e
000000e0: db27 0c3f dcc6 783f a763 a93f cb69 f43e
000000f0: 8553 5c3f b3a5 5d3f d02b 823e db5d 873f
00000100: 1736 e23e d43e 1240 06ac 0240 9cf4 603f
00000110: 2023 be3f b76d 8e3e 2eaf 0a3e bc7f 983f
00000120: 318d 883e 3a93 a63f e227 f03e 8cea 8c3e
00000130: c65a 573f af35 273e edb9 593f 6386 e63f
00000140: 4e9a f93e 5833 393f 8d12 563f 2ea3 763f
00000150: 037b 653f ee28 593f 085b 853f 1c92 b23f
00000160: cb55 073f 8c66 853e 3a23 ec3e c015 df3f
00000170: a19f 0f3f 76b7 193f be82 b63f 3e63 5d3e
00000180: e4fb c83f 2401 133f 6e4e 8e3e 1479 873e
00000190: 695b a73f 424c ec3f a2b9 543f a343 7c3e
000001a0: 0b79 113f f6b0 263f 3ada 193f 48a0 503f
000001b0: 18e0 1a3f df2d 243f 2756 6a40 4884 c13f
000001c0: 8661 4c3e 529a 033f 3028 bd3f 0aef 573f
000001d0: 33ba 413f 4830 bc3f b0ec 463f f1e9 883e
000001e0: f4e4 ce3f 4f11 aa3f 4bd0 0e3e 0a82 803e
000001f0: f05e a83e 82e4 3f3e 2ce6 5c3f a648 1e40

sequential/batch_normalization_2/FusedBatchNormV31 f4 [128]
-0.21414065 -0.26527184 -0.3395608 -0.1637443 -0.18860115 -0.299686 -0.29756045 -0.25765163
-0.23677835 -0.17111278 -0.5982667 -0.3899867 -0.35189715 -0.33893064 -0.057524845 -0.2009821
-0.08328509 -0.3826156 -0.38724425 -0.36354482 -0.24749249 -0.5236652 -0.18365017 -0.4500538
-0.17088972 -0.17688985 -0.29828513 -0.45504043 -0.4031626 -0.32731056 -0.21918833 -0.5905056
-0.21484719 -0.5559475 -0.39240187 -0.31457657 -0.36649728 -0.5069797 -0.2647494 -0.27085465
-0.30606815 -0.4432582 -0.22654043 -0.4443999 -0.14236459 -0.41782507 -0.21667024 -0.3717841
-0.37751576 -0.35700005 -0.27442148 -0.17848958 -0.55960524 -0.30191618 -0.330723 -0.47551566
-0.18484369 -0.20184256 -0.329467 -0.25619105 -0.34336317 -0.25722778 -0.25502276 -0.30903268
-0.34234473 -0.22277881 -0.13777415 -0.13640364 -0.33527684 -0.37033343 -0.4119023 -0.31900707
-0.39312747 -0.37254977 -0.19431522 -0.4834374 -0.22470585 -0.5711023 -0.55360955 -0.2631898
-0.4764247 -0.407178 -0.27803108 -0.28261405 -0.270586 -0.42019182 -0.3707614 -0.16700396
-0.49715626 -0.3372287 -0.44072184 -0.28429767 -0.24478698 -0.36363557 -0.3254765 -0.37140864
-0.3291763 -0.22114941 -0.3587924 -0.5079348 -0.22726561 -0.21761729 -0.23071349 -0.4453522
-0.18996245 -0.33823544 -0.47011262 -0.23084521 -0.47496724 -0.54382855 -0.11985468 -0.3019795
-0.42901483 -0.29104385 -0.28060395 -0.38965356 -0.25883666 -0.23438072 -0.23103559 -0.4214174
-0.38105702 -0.21367669 -0.5308313 -0.34731257 -0.39272454 -0.6143105 -0.26370403 -0.058136646
00000000: b047 5bbe b6d1 87be eada adbe 96ac 27be
00000010: a920 41be 7270 99be d859 98be eaea 83be
00000020: 0676 72be 3038 2fbe 0228 19bf 56ac c7be
00000030: dd2b b4be 5188 adbe 2c9f 6bbd 40ce 4dbe
00000040: 6091 aabd 31e6 c3be e144 c6be 8c22 babe
00000050: ac6e 7dbe ec0e 06bf ca0e 3cbe 746d e6be
00000060: b7fd 2ebe 9d22 35be d4b8 98be 0ffb e8be
00000070: 546b cebe 4095 a7be e872 60be 602b 17bf
00000080: e700 5cbe 9352 0ebf e6e8 c8be 2e10 a1be
00000090: 88a5 bbbe 6cc9 01bf 3c8d 87be 76ad 8abe
000000a0: f7b4 9cbe bdf2 e2be 37fa 67be 6288 e3be
000000b0: 06c8 11be 2bed d5be cede 5dbe 7c5a bebe
000000c0: bf49 c1be b6c8 b6be f980 8cbe f9c5 36be
000000d0: 4a42 0fbf c294 9abe 8654 a9be ca76 f3be
000000e0: aa47 3dbe d1af 4ebe e6af a8be 792b 83be
000000f0: 4ccd afbe 5cb3 83be 5892 82be 8839 9ebe
00000100: cf47 afbe 2120 64be ab14 0dbe 65ad 0bbe
00000110: 68a9 abbe 589c bdbe dce4 d2be e554 a3be
00000120: 0148 c9be d8be bebe 92fa 46be 1b85 f7be
00000130: 4a19 66be c333 12bf 5bb9 0dbf d0c0 86be
00000140: f0ed f3be a379 d0be 175a 8ebe cab2 90be
00000150: 408a 8abe 6223 d7be 70d4 bdbe 1603 2bbe
00000160: 448b febe 3da9 acbe 4ba6 e1be 778f 91be
00000170: 70a9 7abe 712e babe dba4 a6be 4629 bebe
00000180: cc89 a8be fe74 62be a3b3 b7be 0408 02bf
00000190: 51b8 68be 11d7 5ebe 2840 6cbe 3405 e4be
000001a0: 8485 42be 322d adbe 9ab2 f0be b062 6cbe
000001b0: e82e f3be 5938 0bbf 5f76 f5bd 0f9d 9abe
000001c0: d5a7 dbbe b303 95be 52ab 8fbe ac80 c7be
000001d0: 3d86 84be 8001 70be 9894 6cbe 05c4 d7be
000001e0: e819 c3be 10ce 5abe 8fe4 07bf f4d2 b1be
000001f0: 3113 c9be 7443 1dbf 3704 87be b120 6ebd

sequential/dense/MatMul f4 [1, 8]
-0.8242863 -0.9553403 0.7837066 -1.0535399 0.93359625 -1.3546021 1.0173929 1.6837151
00000000: 6d04 53bf 2f91 74bf ffa0 483f 65da 86bf
00000010: 2a00 6f3f 9a63 adbf ee39 823f fa83 d73f

sequential/lstm/Read_2/ReadVariableOp1 f4 [32]
0.11057691 0.007936871 0.040320028 0.06406887 0.022977773 0.03300399 0.0791486 0.045725606
0.94359004 1.0785537 1.099466 1.0724661 1.0837595 1.0357822 0.9938212 1.0461618
0.02056593 0.049932998 -0.047147986 0.062042736 -0.060418323 0.04571617 -0.034768913 -0.0464349
0.17392056 0.10316436 0.14197661 0.109068796 0.13656352 0.107676834 0.08216633 0.11174789
00000000: 2676 e23d a609 023c 9d26 253d 8a36 833d
00000010: e23b bc3c 312f 073d a918 a23d c64a 3b3d
00000020: 1e8f 713f 0c0e 8a3f 4dbb 8c3f 9246 893f
00000030: a2b8 8a3f 8394 843f 116b 7e3f a1e8 853f
00000040: e279 a83c 8b86 4c3d 3f1e 41bd 8620 7e3d
00000050: 3479 77bd e140 3b3d d969 0ebd 8632 3ebd
00000060: 3b18 323e d647 d33d 5162 113e 765f df3d
00000070: 4fd7 0b3e ac85 dc3d d246 a83d 14dc e43d

while/MatMul_11 f4 [32, 8]
0.3381874 0.17554848 0.29388478 0.20563284 0.05789942 0.405762 0.10493098 0.17360213
0.592646 -0.12055404 -0.14795312 -0.07015474 -0.14411163 0.17934336 -0.89120996 -0.58719
0.5489032 0.37267926 -0.27707696 0.008586808 -0.16209157 0.32747662 -0.35530782 -0.36949146
0.40529418 0.37913308 -0.512499 -0.2399195 0.093450665 -0.014932368 -0.30440894 0.0033295974
0.10098244 0.24338424 0.17266563 -0.1420805 0.066101685 0.055662274 -0.2929044 -0.2285526
0.41706663 0.112174265 -0.1673184 -0.13993709 -0.41726702 0.2800735 -0.37804446 -0.39258295
-0.10403481 0.0716266 0.23149306 0.17320877 -0.29214877 -0.17840746 0.07703658 0.39009807
-0.41705057 0.093195476 -0.122013494 -0.10996754 0.27983508 -0.06719454 -0.1315509 0.1447873
-0.15443127 -0.16164377 0.14312883 -0.2686017 0.18692908 0.10673502 0.42010748 -0.054787964
-0.10021168 0.3146494 -0.16057086 0.2574877 -0.07965569 0.121354386 0.17797345 0.36281914
-0.21852385 0.24311972 -0.0795415 0.3984404 0.07401341 -0.031491175 0.117344216 -0.073014215
0.21474202 0.11402793 0.027471127 0.18450746 0.29897755 -0.48096713 0.25787625 -0.15786266
0.09935028 -0.112047024 -0.13485816 -0.12836102 0.23355718 -0.10690733 -0.053176407 -0.001308268
-0.09355491 -0.052972566 0.17330824 -0.07820024 0.086774305 0.19550642 -0.091522664 -0.16057955
-0.3565894 0.12465648 -0.17635305 0.037353285 -0.252826 0.11142599 -0.1789159 -0.04966349
-0.38165438 -0.087012246 0.091835454 0.27667195 -0.18752263 -0.062914446 0.039020333 0.1097013
-0.17199165 -0.0022897727 -0.61134034 0.28582367 -0.21634924 0.39965338 -0.27258843 -0.29313952
-0.09464296 -0.22347745 -0.18362665 0.08469509 -0.37927905 0.037800107 -0.099683605 -0.098924235
0.21905029 -0.033721227 -0.06208798 -0.06049286 0.40250704 -0.20906214 -0.2728925 0.004145593
-0.57426715 0.017624268 -0.08773231 -0.009319708 -0.16897196 0.2618741 0.34232113 -0.16684882
-0.19440271 -0.25233987 0.23348838 -0.12985858 -0.10785495 -0.20260172 0.20181812 -0.024747089
-0.4272475 0.2672533 -0.32199734 0.18315834 -0.1918042 -0.24272007 -0.022515245 -0.2987003
0.24221388 -0.4408002 0.18561663 -0.37749094 0.19779275 -0.16495572 0.24612406 0.26945385
0.074239075 -0.19219533 0.30678585 -0.5395903 0.490216 -0.29236597 0.23344004 0.107352465
0.20501928 -0.2346002 -0.14501357 -0.069247305 -0.22253701 -0.3152524 0.10455084 -0.019939607
0.28972515 -0.12621772 -0.1504287 0.1583727 0.09523758 0.26370925 0.0049563493 0.01812294
-0.007164458 0.20440991 0.070414335 0.22242865 -0.23563263 -0.07812175 -0.21471816 -0.1100162
-0.23218231 0.350247 0.15639661 0.04306142 -0.11166233 0.17806733 -0.21836594 0.17368695
0.021456199 0.41231212 -0.079023734 0.09895399 -0.4370439 -0.18860354 -0.083416626 -0.009234747
-0.013518974 0.21098498 -0.19158238 0.19865254 -0.024412125 0.17317885 -0.19235215 0.45149463
-0.025766456 0.2539184 0.1769106 -0.096873455 -0.14599231 0.10179438 0.05996416 -0.004563119
-0.19078791 0.3509948 -0.12738536 -0.21808788 -0.058443934 -0.01876008 0.11491583 -0.16032746
00000000: e626 ad3e fbc2 333e 1178 963e 6a91 523e
00000010: f127 6d3d 09c0 cf3e 0ee6 d63d c2c4 313e
00000020: a6b7 173f 09e5 f6bd 0681 17be 4aad 8fbd
00000030: 0092 13be c9a5 373e 5626 64bf 1552 16bf
00000040: ec84 0c3f d1cf be3e 08dd 8dbe afaf 0c3c
00000050: 55fb 25be 04ab a73e e8ea b5be fc2d bdbe
00000060: b882 cf3e bb1d c23e 2233 03bf 75ad 75be
00000070: 1063 bf3d e4a6 74bc 7ddb 9bbe 6035 5a3b
00000080: e2cf ce3d b839 793e 42cf 303e 8d7d 11be
00000090: 5260 873d 20fe 633d 91f7 95be b109 6abe
000000a0: c289 d53e 9fbb e53d 8455 2bbe ab4b 0fbe
000000b0: 06a4 d5be cb65 8f3e 0b8f c1be a200 c9be
000000c0: 3410 d5bd f8b0 923d 840c 6d3e a45d 313e
000000d0: 8694 95be 72b0 36be 5bc5 9d3d efba c73e
000000e0: a787 d5be 45dd be3d 36e2 f9bd a936 e1bd
000000f0: 8b46 8f3e 4a9d 89bd 47b5 06be 1f43 143e
00000100: 3b23 1ebe f285 25be 5d90 123e 2986 89be
00000110: 566a 3f3e e497 da3d 5418 d73e 5869 60bd
00000120: c83b cdbd ba19 a13e b06c 24be 6ed5 833e
00000130: 8622 a3bd a688 f83d ac3e 363e 6ec3 b93e
00000140: b7c4 5fbe 60f4 783e a7e6 a2bd 6100 cc3e
00000150: 5894 973d e4fc 00bd 2a52 f03d 7a88 95bd
00000160: 55e5 5b3e 7a87 e93d 210b e13c 86ef 3c3e
00000170: 9613 993e 5341 f6be 5b08 843e c0a6 21be
00000180: 2978 cb3d e978 e5bd 4218 0abe 1271 03be
00000190: 9d29 6f3e 3bf2 dabd 81cf 59bd 317a abba
000001a0: b799 bfbd c3f9 58bd b777 313e 7327 a0bd
000001b0: bab6 b13d d632 483e 3c70 bbbd f76e 24be
000001c0: e392 b6be e64b ff3d e595 34be c2ff 183d
000001d0: 6972 81be 4f33 e43d bb35 37be f26b 4bbd
000001e0: 3468 c3be 7a33 b2bd 3a14 bc3d f2a7 8d3e
000001f0: ef05 40be 4ad9 80bd c9d3 1f3d 13ab e03d
00000200: 941e 30be 0310 16bb cd80 1cbf 7b57 923e
00000210: a88a 5dbe 5e9f cc3e b690 8bbe 6216 96be
00000220: 2bd4 c1bd 46d7 64be a008 3cbe 9f74 ad3d
00000230: dd30 c2be 49d4 1a3d eb26 ccbd ca98 cabd
00000240: b84e 603e 451f 0abd f74f 7ebd 5cc7 77bd
00000250: 6715 ce3e 6314 56be 91b8 8bbe c1d7 873b
00000260: 2c03 13bf c560 903c ffac b3bd b0b1 18bc
00000270: fc06 2dbe 5d14 863e b744 af3e 6bda 2abe
00000280: 8111 47be b132 81be 9417 6f3e a6f9 04be
00000290: 0ee3 dcbd d376 4fbe 69a9 4e3e 68ba cabc
000002a0: 2fc0 dabe 6dd5 883e d6dc a4be dc8d 3b3e
000002b0: 5268 44be 9c8b 78be e471 b8bc 3fef 98be
000002c0: ea06 783e 90b0 e1be 4912 3e3e 7e46 c1be
000002d0: 2f8a 4a3e 27ea 28be f207 7c3e dbf5 893e
000002e0: a80a 983d dace 44be 0913 9d3e 9722 0abf
000002f0: 97fd fa3e feb0 95be e80a 6f3e 9cdb db3d
00000300: 93f0 513e 093b 70be 707e 14be 88d1 8dbd
00000310: bee0 63be c368 a1be c01e d63d 6358 a3bc
00000320: db56 943e 383f 01be fb09 1abe 742c 223e
00000330: ec0b c33d e604 873e df68 a23b 8f76 943c
00000340: d4c3 eabb d550 513e 6435 903d 56c4 633e
00000350: ae49 71be 4cfe 9fbd 14df 5bbe 2c50 e1bd
00000360: 33c1 6dbe 9353 b33e 6f26 203e 2c61 303d
00000370: 38af e4bd 4857 363e 529b 5fbe feda 313e
00000380: e9c4 af3c 931a d33e 32d7 a1bd 64a8 ca3d
00000390: 38c4 dfbe 4921 41be 56d6 aabd 564d 17bc
000003a0: b07e 5dbc 720c 583e 2c2e 44be 926b 4b3e
000003b0: f0fb c7bc cc55 313e f6f7 44be 4e2a e73e
000003c0: 2d14 d3bc 9801 823e 0d28 353e 9765 c6bd
000003d0: 027f 15be 9279 d03d fb9c 753d 3786 95bb
000003e0: e85d 43be 97b5 b33e 4f71 02be 6e52 5fbe
000003f0: e862 6fbd bdae 99bc fe58 eb3d e22c 24be

while/MatMul f4 [32, 512]
-0.04936152 0.12609355 0.05362354 0.042276986 0.21826929 0.027894216 0.15787175 0.12627384
0.028824255 0.13110374 -0.042165168 -0.06917936 0.04020104 0.08027761 0.04007922 0.085474685
0.045897007 -0.061271578 -7.8742494e-05 -0.08473352 0.06210839 -0.009944037 0.17109461 0.15092471
-0.035796806 -0.031921666 0.024969572 -0.040370643 0.031804048 0.024438621 -0.11138345 0.0008626406
-0.016896026 0.13426515 -0.16082934 -0.1186033 0.009075898 0.058087084 0.03792412 0.09626751
0.10976309 0.15003309 0.0167163 -0.11142811 0.08666369 0.023983005 -0.04218383 0.042354338
-0.08028256 0.1741759 0.10223005 0.08696812 0.0032083415 0.09709685 0.10582715 0.16086462
0.12098915 -0.0030811557 0.047825504 0.0922445 0.06645712 0.09878352 0.025715824 0.01642586
0.15930709 0.03387868 0.021331854 0.12750503 -0.052381873 0.061928988 0.11888404 -0.0062883925
0.07035433 -0.038444288 -0.058648407 0.022764117 0.0951629 0.14794423 0.0774186 0.05374819
-0.009932227 0.008899477 0.108926944 0.05988716 0.073889874 -0.024230313 0.066182524 0.040772136
0.05098393 0.13005617 -0.002688465 0.112838894 0.13119029 -0.04997088 0.11668137 0.18832316
0.029770434 0.15311164 0.11885587 0.060532864 -0.0024252634 0.057438526 0.08056388 0.039970715
-0.012669558 0.104781106 0.014572382 -0.043412752 -0.07059135 0.005286367 -0.002369023 -0.14999284
0.20469645 -0.02808883 0.021233806 -0.020471184 0.02476267 0.022355802 -0.033553943 0.043552417
0.07195964 0.021141708 -0.015989449 0.12712833 0.10296083 0.14021069 0.044548213 0.012534134
-0.027013514 -0.06924802 0.02841674 0.11255815 -0.023416333 0.12697504 0.07877242 0.12144749
-0.07014592 0.00455321 -0.051955502 -0.016350344 0.06242321 -0.081317216 0.02612516 0.14046565
-0.10126592 0.14669079 0.1050979 0.054057118 0.11016262 0.0019050757 -0.03334334 0.12984066
0.11069043 0.038013525 0.08851086 -0.055585396 -0.03783426 -0.025895545 0.037094496 -0.06493383
0.02872013 -0.06503131 -0.09926176 0.17218128 -0.013247348 0.09197546 0.08688809 -0.014733257
-0.07654667 0.005258117 0.050260194 -0.07669157 -0.11640233 0.16158338 0.13630782 0.103023164
-0.024965495 0.008222084 0.025966473 0.09701512 -0.051238053 0.0059222095 0.009396075 0.0049639754
0.026758637 0.043335468 0.003714937 -0.060721453 0.108819805 0.069825865 -0.0036730268 0.027362434
0.1517371 0.12797 0.060272273 0.12618008 0.011815186 0.039906256 -0.0056910845 0.06331235
0.21591824 0.044247814 0.0007849973 -0.07926868 0.12180344 -0.043826405 0.061315026 0.089502126
0.063955024 0.06695165 -0.025304722 0.14333324 -0.007310029 -0.011594893 0.10625407 0.024330247
-0.0029918016 0.1801047 -0.01096038 0.01799843 -0.06055461 0.05672818 -0.008069666 0.0569881
0.061283212 -0.038967583 0.0020562266 -0.014755506 0.0073546115 -0.041860588 -0.02810636 -0.07985252
-0.022189736 -0.011509549 -0.09029551 0.137314 0.03824962 -0.08827794 0.099348314 0.14027523
0.07932558 0.20793186 -0.01037245 0.14578652 -0.026674613 0.059528645 0.082477376 0.036841717
0.087042496 0.058833838 0.035049137 -0.114633895 0.024844384 0.06700092 0.08774096 0.040107075
00000000: 4e2f 4abd ab1e 013e 5ba4 5b3d a22a 2d3d
00000010: fc81 5f3e 6982 e43c 22a9 213e ee4d 013e
00000020: d820 ec3c 0f40 063e 62b5 2cbd e9ad 8dbd
00000030: d9a9 243d 9668 a43d 1c2a 243d 5a0d af3d
00000040: 80fe 3b3d e8f7 7abd 8e22 a5b8 c588 adbd
00000050: 5e65 7e3d 50ec 22bc 6d33 2f3e 028c 1a3e
00000060: ac9f 12bd 4bc0 02bd fd8c cc3c b05b 25bd
00000070: f644 023d 8133 c83c 021d e4bd d522 623a
00000080: 8969 8abc ce7c 093e 72b0 24be 49e6 f2bd
00000090: 13b3 143c b9ec 6d3d 5256 1b3d e627 c53d
000000a0: 79cb e03d 46a2 193e 9ff0 883c 6c34 e4bd
000000b0: bc7c b13d 0278 c43c f4c8 2cbd be7b 2d3d
000000c0: 2f6b a4bd 2b5b 323e fd5d d13d 571c b23d
000000d0: 0a43 523b b7da c63d e8bb d83d b2b9 243e
000000e0: 29c9 f73d 37ed 49bb ade4 433d afea bc3d
000000f0: ac1a 883d 044f ca3d fea9 d23c 868f 863c
00000100: 6621 233e 5fc4 0a3d 24c0 ae3c ae90 023e
00000110: 608e 56bd 40a9 7d3d 7a79 f33d dc0e cebb
00000120: ee15 903d c277 1dbd 5039 70bd d07b ba3c
00000130: c4e4 c23d b17e 173e a58d 9e3d 1027 5c3d
00000140: c8ba 22bc 1dcf 113c 1715 df3d 3d4c 753d
00000150: 9353 973d a67e c6bc b48a 873d af00 273d
00000160: 86d4 503d 722d 053e f530 30bb 1418 e73d
00000170: bf56 063e 44ae 4cbd a4f6 ee3d c9d7 403e
00000180: 20e1 f33c 4cc9 1c3e b56a f33d 4ff1 773d
00000190: 2bf1 1ebb a944 6b3d adfe a43d 55b8 233d
000001a0: fa93 4fbc 7a97 d63d 00c1 6e3c 92d1 31bd
000001b0: 3392 90bd 4339 ad3b 9c41 1bbb b997 19be
000001c0: f29b 513e 8c1a e6bc 85f2 ad3c 2fb3 a7bc
000001d0: 15db ca3c 8423 b73c dc6f 09bd 0564 323d
000001e0: 935f 933d 6031 ad3c 4efc 82bc ee2d 023e
000001f0: 21dd d23d 6493 0f3e 3078 363d f85b 4d3c
00000200: 724b ddbc e8d1 8dbd 39ca e83c e384 e63d
00000210: 9cd3 bfbc bf05 023e 6f53 a13d 76b9 f83d
00000220: aaa8 8fbd 1833 953b 4bcf 54bd 28f1 85bc
00000230: 7baf 7f3d a489 a6bd 6e04 d63c 3ad6 0f3e
00000240: 8264 cfbd 1c36 163e 913d d73d ff6a 5d3d
00000250: f19c e13d bcb3 f93a 0793 08bd f3f4 043e
00000260: aab1 e23d 12b4 1b3d 2f45 b53d 83ad 63bd
00000270: 19f8 1abd e522 d4bc 66f0 173d 07fc 84bd
00000280: 7a46 eb3c 232f 85bd c049 cbbd 4a50 303e
00000290: 680b 59bc a15d bc3d 62f2 b13d c263 71bc
000002a0: 80c4 9cbd 484c ac3b a2dd 4d3d 7810 9dbd
000002b0: 5864 eebd 1d76 253e 4794 0b3e cffd d23d
000002c0: 7084 ccbc ebb5 063c a4b7 d43c ddaf c63d
000002d0: fede 51bd 180f c23b fff1 193c d8a8 a23b
000002e0: ee34 db3c 8880 313d 4d76 733b 0fb7 78bd
000002f0: ebdc de3d dd00 8f3d 2ab7 70bb 2f27 e03c
00000300: f860 1b3e 910a 033e 0fe0 763d 5a35 013e
00000310: 7b94 413c be74 233d 477c babb e8a9 813d
00000320: ac19 5d3e 323d 353d 47c8 4d3a 9e57 a2bd
00000330: 1574 f93d 5183 33bd 7725 7b3d e44c b73d
00000340: dafa 823d f21d 893d d94b cfbc f3c5 123e
00000350: f888 efbb 82f8 3dbc bc9b d93d 3a50 c73c
00000360: 1a12 44bb 5e6d 383e 2a93 33bc 7271 933c
00000370: 1c08 78bd cf5b 683d a236 04bc 5b6c 693d
00000380: 1b04 7b3d 799c 1fbd c2c1 063b 14c1 71bc
00000390: f4fe f03b 0276 2bbd 4f3f e6bc b889 a3bd
000003a0: 40c7 b5bc 8c92 3cbc daec b8bd 0b9c 0c3e
000003b0: a2ab 1c3d 11cb b4bd 2177 cb3d 4fa4 0f3e
000003c0: 7375 a23d 17ec 543e 35f1 29bc 1049 153e
000003d0: b884 dabc 4fd4 733d e6e9 a83d 57e7 163d
000003e0: 5643 b23d c0fb 703d af8f 0f3d 2dc5 eabd
000003f0: 7386 cb3c c737 893d 88b1 b33d 5147 243d
