models/model.tflite (tflite, 243428 bytes, 25 tensors)

sequential/conv2d/BiasAdd/ReadVariableOp f4 [28]
00000000: 70d5 82bd cc94 bc3f 5cf3 433f ee4f 8f3f
00000010: 8da5 263f 50e3 b13e 484f a83e 4d6b 763f
00000020: b36d fabe 802d fd3d 2ffe 353f 564b f9be
00000030: 12af eb3e 2e75 483f 6003 fcbe a642 ec3e
00000040: 9364 0f3f bcdc e9be 0cea 513f a24d 73be
00000050: 8a9b 47be d275 0b3f 338d 95be 0d15 903e
00000060: c5d7 883f 62f5 413f 50f9 cf3e 5c80 0dbf
-0.06388366 1.4732909 0.7654321 1.1196268 0.6509636 0.34743738 0.32872987 0.9625748
-0.4891182 0.12362194 0.7109098 -0.4869029 0.46032006 0.783038 -0.49221325 0.461446
0.5601284 -0.4567622 0.8199775 -0.23760083 -0.19492927 0.54476655 -0.2920929 0.2814106
1.0690848 0.7576505 0.40619898 -0.55273986

sequential/conv2d_1/BiasAdd/ReadVariableOp f4 [32]
00000000: a848 953d a47d 8dbe cba1 f0bc 53ec 303d
00000010: 33cf c8be 190e c8be f694 113f d873 663e
00000020: 14cc 763f 3db4 303e 0539 1a3e 5a9d e2be
00000030: 4deb 6c3c 7a27 6b3d 8b66 463e a753 06be
00000040: 3d83 0b3e dfc0 2abd 2993 223f 4543 bb3e
00000050: fc49 2abf 4d05 233c c267 1d3f 8f0c 14bc
00000060: dddb c93e 33ac 81be 4e08 c03e f8af 833f
00000070: e5ca 03be 8818 8cbe 1be6 bcbd c96f d5bc
0.07289249 -0.2763492 -0.029374024 0.043194126 -0.3922058 -0.39073256 0.5686792 0.22505128
0.9640515 0.17256255 0.15060814 -0.44260675 0.014460397 0.057410695 0.19375055 -0.13117848
0.13624282 -0.041687842 0.635058 0.3657476 -0.6651914 0.009949994 0.61486447 -0.009036197
0.39425555 -0.2532669 0.37506336 1.0288076 -0.12870367 -0.27362466 -0.09223577 -0.02605428

sequential/conv2d_2/BiasAdd/ReadVariableOp f4 [60]
00000000: 8497 d5be 1c7f 1fbf 7108 55be ad41 cb3d
00000010: a998 02bf abbb 83be 7f21 12be 6ce2 3ebe
00000020: 1f9b 28be 79be c1be 9ab0 81be 4e6a 3ebf
00000030: 41f9 39bf 6417 54be 8f25 45be 1886 c4be
00000040: 73b5 6abd d9c0 22bf 1acb eebe 0f61 c0bd
00000050: c62e 9bbe d4cd c0bd 6d87 17bf b874 41bf
00000060: 3dd8 14bf 07d4 31bf 90aa 36bf 9cf4 94be
00000070: 24b8 d6be 65ce 4dbe b3af 2fbf 6e3c db3e
00000080: c9d9 10be 8e9e dabe cfb4 01bf daf7 dabe
00000090: 0e2e d5be aa18 95be 30b2 67be b83c e0be
000000a0: 6356 3cbf 37ea aebe d491 aabd 4545 373e
000000b0: bc07 24bf cc1a 65bf 52bb 5abf ca2e dc3c
000000c0: 72fe f5bd b13b b5be 6907 0dbe 9de8 9dbe
000000d0: 5e51 fbbe 0205 94be 4004 a8bc 55ae f6be
000000e0: dd50 d4be 8eeb dabe 4bae f5bd fa54 50be
-0.4171716 -0.6230333 -0.20804001 0.09924636 -0.5101419 -0.25729117 -0.1427059 -0.1864106
-0.16465424 -0.37840632 -0.2533005 -0.7438096 -0.72645956 -0.20712048 -0.19252609 -0.38383555
-0.05730195 -0.6357551 -0.4663933 -0.093935125 -0.30309123 -0.094142586 -0.5919102 -0.75568724
-0.58142453 -0.69464153 -0.7135401 -0.29092872 -0.41937363 -0.20098265 -0.6862747 0.42819542
-0.14145578 -0.42699093 -0.50666517 -0.4276722 -0.416367 -0.2912038 -0.22626567 -0.43796325
-0.73569316 -0.34163067 -0.08328596 0.17897518 -0.640743 -0.89494014 -0.8544208 0.02687778
-0.12011422 -0.35397103 -0.13772358 -0.30841532 -0.49085516 -0.2891007 -0.020509839 -0.4817988
-0.41467944 -0.4275784 -0.11996134 -0.20344916

sequential/conv2d/Conv2D f4 [28, 3, 3, 1]
00000000: b410 40be 8737 e1bd de6c 893e a290 d53e
00000010: 4cf4 09be 2c22 bc3e 931c 81be 564d 2bbf
00000020: b8a8 8cbd 655a b3be 6630 85be 0776 49be
00000030: 3a8f ad3d 3bbb a5bc 68bc fabc ac5a 023f
00000040: 4943 b83e 8004 b7bc 2c9f b1be 1651 56be
00000050: 3a42 cd3e 63d8 6dbe dbcc 92be 4c6d eb3e
00000060: dbdf 5ebe d91b cd3e d61a 0e3e 2354 0f3f
00000070: 4baf 593e 15d1 82be 5d93 b83e fa00 adbe
00000080: 06c9 4bbe f7e4 633c 94d5 86be 63f3 9f3d
00000090: 1297 903e 852d 0b3f 51dd b2bd b59f 8cbe
000000a0: 159d b6be 4dc8 bbbe 7b58 a83d 46a8 d23d
000000b0: 7c9c ce3e 86ba 27be da11 643b cfe9 76bd
000000c0: 8b62 98be 47ed aebe 2168 8cbe 1720 363f
000000d0: 2102 063e d7bf 5c3e 7559 1a3f b2ce 633e
000000e0: 4ab2 ebbd 95e9 cf3e ef55 9a3d 49db 9fbe
000000f0: 5909 e1bc 7610 3d3b b2de 5c3b 84d0 e4be
00000100: 55c5 423e 064c a83e 7a83 b7be 4080 863e
00000110: d971 d93e 080f bfbe ac98 52bc af0a e43c
00000120: 1cc4 9a3d c9c7 91be 7c5c a93d 99d5 afbe
00000130: 39ba f2bf f241 64bd dee3 113e 0f55 b0bd
00000140: 15cf 083d 4525 c1be 4033 80be 7f3c 86be
00000150: ccc0 03be ac30 aebe 1ec1 073e c685 e93e
00000160: 9590 883e 888d 9fbd b8b1 14bd d853 963e
00000170: 097c 7e3f d95d 0c3e 7f4b 5c3e dbdc d0be
00000180: 3e2e 353d 09a8 2ebd 237e 9bbd 76a8 d6be
00000190: be73 8bbe e557 ab3e b163 75be 20e4 86be
000001a0: df06 d13e d315 9abe 03e9 aabe be6d 433e
000001b0: 2978 78be 7a60 203f 7902 523d ed77 b5be
000001c0: e65b dabb 55a3 da3e 37ee 5bbe c110 9ebe
000001d0: df42 b43e aad0 c53e c743 e8bd 3104 b6be
000001e0: e6d9 033f fffc 6abe 65d0 2ebe 728f 513e
000001f0: b7aa 6abe ebaa 2dbe d228 1b3e ec22 0abe
00000200: cc90 9abd 9b40 50be 465b eebe fe3d 04bf
00000210: 46eb eabe 9931 e5be 0bf4 b9be 1b46 a0be
00000220: 00c5 4dbe efd1 d43e 5ee4 d33e d73b 7dbe
00000230: 2551 443c 8cf0 993e 17ba a23e 9665 c6be
00000240: 45df 7e3d ec00 7abe 548d 91be b7f6 dc3e
00000250: 11d3 fb3e a8f5 cf3e 870e 86be ebe4 d0bc
00000260: 3ce7 04be de9b 113f e767 81bd e429 283e
00000270: 507e 633d 6eed bbbe 9dd7 553a 900b 9b3e
00000280: 520e 80be 6f08 0cbe 2c47 fd3e 74d8 a23e
00000290: af54 193e 30c1 813d 7ef1 1bbe b383 70be
000002a0: 4963 5dbe 2b79 22be 2d25 e5bd 7476 293e
000002b0: b74e 123f b86b ee3e eca9 c0be 2c71 083c
000002c0: 6561 c83e 58c4 65be 08fe 8abd 7391 5c3e
000002d0: f10b cebe d7b9 2b3d 9a00 1d3f c366 57bd
000002e0: 9da9 d7bc 192d 823e 73b6 ba3d 83aa d43e
000002f0: edf1 213b 38b3 d8be b7d8 883e 1ca4 803e
00000300: 2759 5a3c dc94 eb3e 3278 8fbe c4d8 ee3e
00000310: 9ec3 8cbe 1cbe 84be cca6 703e c05b 653e
00000320: e03a 81bd 6a3c a73e 9900 8c3d b29a f1bd
00000330: a2de 273f a2da 503d 4abf 70be 386a a73e
00000340: a873 093f c277 263c 3277 fa3e d447 7d3e
00000350: 2342 20be 3565 893d f65c 9dbe 028b 28be
00000360: c824 b63e 6887 333f c176 a2bd c99c 9bbe
00000370: af48 2cbe cf87 5cbe e3ee 8cbd afa1 a43c
00000380: 16ba 58bb 6fee 203d 75a0 023f 8590 a73e
00000390: 23d2 9ebe 58bc 743e 98a1 fa3d e51e c8be
000003a0: a1d5 4dbe cecf 4cbe 1a93 ae3d 858a 4abe
000003b0: 621b 7bbe 6119 29be ffef d6bd b356 113d
000003c0: aaf6 8c3e ca32 2a3f 7ff4 563f 8fbf d4bd
000003d0: 4946 0a3d a052 92bd 82f9 e03e 8154 563d
000003e0: 0bdc aa3c d874 7c3e 2ccf 203f 4e5f 0d3e
-0.18756372 -0.10996919 0.26840872 0.4171191 -0.13472098 0.3674482 -0.25217113 -0.6691488
-0.06868118 -0.35029903 -0.26013488 -0.1967393 0.08474584 -0.02023088 -0.030607417 0.50919604
0.35988835 -0.022341013 -0.3469175 -0.2092937 0.4008959 -0.23227076 -0.28671917 0.45981824
-0.21765082 0.4006031 0.13877425 0.5598776 0.21258275 -0.25550142 0.3604993 -0.33789808
-0.19900903 0.01390957 -0.26334822 0.07810094 0.28240258 0.5436633 -0.08733619 -0.27465597
-0.3566672 -0.36676255 0.08220001 0.10286002 0.40353763 -0.16379747 0.003480068 -0.06028157
-0.29762682 -0.34165403 -0.27423194 0.71142715 0.1308675 0.21557556 0.6029275 0.22246817
-0.11508615 0.40607896 0.07535922 -0.3122199 -0.027470278 0.0028848923 0.0033702073 -0.44690335
0.19020589 0.328705 -0.35842496 0.26269722 0.4246967 -0.37316155 -0.012853783 0.027837126
0.07556936 -0.28472736 0.08269593 -0.3434265 -1.8963081 -0.055726953 0.1424708 -0.08609974
0.033400614 -0.37723747 -0.250391 -0.2621803 -0.12866515 -0.3402151 0.13257262 0.45609874
0.26672807 -0.07790667 -0.0363023 0.29360843 0.9940801 0.13707675 0.21513174 -0.407935
0.044233553 -0.04264072 -0.07592418 -0.419254 -0.27236742 0.33465496 -0.2396381 -0.2634592
0.40825555 -0.30094776 -0.333809 0.19084832 -0.24264587 0.6264721 0.05127189 -0.3544306
-0.006663787 0.42702737 -0.2147759 -0.30872157 0.3520727 0.3863576 -0.113410525 -0.35550073
0.5150436 -0.22948073 -0.17071684 0.20464876 -0.22916685 -0.16959731 0.1515229 -0.13489884
-0.07547149 -0.20337145 -0.4655401 -0.5165709 -0.45882624 -0.44764403 -0.36319003 -0.31303486
-0.20094681 0.41566417 0.41385168 -0.24729858 0.011982237 0.30066335 0.317826 -0.3874938
0.062224645 -0.24414414 -0.28428137 0.43156978 0.49184468 0.40617108 -0.26182958 -0.025499782
-0.12978834 0.5687846 -0.06318646 0.1642223 0.055540383 -0.36704582 0.0008157434 0.3028226
-0.25010926 -0.13675092 0.49468362 0.31805766 0.1497371 0.06335676 -0.1522884 -0.2348774
-0.21619906 -0.15866534 -0.11188731 0.16549093 0.5715136 0.46566558 -0.3762964 0.0083277635
0.39136806 -0.2243818 -0.06786734 0.2153986 -0.40243486 0.041925278 0.6132904 -0.052588236
-0.026325995 0.25425032 0.09116831 0.4153634 0.002471085 -0.42324233 0.2672784 0.25125206
0.01332692 0.46012008 -0.2802139 0.46649754 -0.27492994 -0.25926292 0.23501128 0.22398281
-0.06310058 0.3266328 0.068360515 -0.11797084 0.65574086 0.050989754 -0.23510471 0.32698226
0.536921 0.010160388 0.48919064 0.24734432 -0.15650229 0.06708757 -0.30734986 -0.16459277
0.35574937 0.7012849 -0.07932807 -0.30393055 -0.16824602 -0.21536182 -0.068815015 0.020096628
-0.00330699 0.039289888 0.5102609 0.32727447 -0.31019697 0.23899972 0.12237853 -0.3908607
-0.20101024 -0.20001146 0.08524151 -0.19779404 -0.24522164 -0.16513588 -0.10494994 0.035483073
0.2753194 0.6648375 0.8396682 -0.103880994 0.033758435 -0.07144666 0.4394036 0.052326683
0.020856878 0.24653947 0.6281612 0.13805887

sequential/conv2d_1/Conv2D f4 [32, 3, 3, 28]
00000000: 9c79 6a3e 7bc6 05be 8c39 92bb 68c6 163e
00000010: 2b85 63be 312d a23d 95b8 903e b1e4 a5be
00000020: a669 043e e3a0 993e 5559 febd a6a6 2f3e
00000030: be56 b03e 5c78 a43e 6dd8 a03d bee9 d7be
00000040: 9574 f83c 769e 4fbd cea6 3d3e 1b78 c2bd
00000050: 6d1c 34bd a350 a1be 9aca 5e3d af67 0fbe
00000060: a1af f1bd 1f1a 003b c6ad e23c 67d8 6dbe
00000070: 811b da3e 02eb ae3d 6dd8 dcbe 7d10 81be
00000080: 4350 4c3d b441 dc3e 5feb 2e3d deeb 40be
00000090: e400 ad3e 186c 1fbc df36 fabe d842 803e
000000a0: 1e29 63be 5cad 823e dd21 233e 717f e2be
000000b0: d85c 63bc a507 55be 2ec2 38bb e97d d7be
000000c0: 81c0 4ebd 6fd3 2bbf 4e43 06bf d598 bdbe
000000d0: 6794 3fbe 5a32 fb3d 3845 97bd 5578 1abd
000000e0: c8b1 023f d385 06bc 176c 10bd 71e5 24bf
000000f0: fc9d 06be ad29 723e 78f3 1c3d 181c fd3e
00000100: ec5d a83e 6782 1cbe 442b d23d 77d7 9e3e
00000110: d002 8d3e f020 10bd d792 613e bc79 05be
00000120: 07ef a03c 15be 7bbe e2ad d8bd 12e6 973e
00000130: 161c c13e 4545 123d e7e4 90be 6985 30be
00000140: 7dc0 b2bd af10 b53e e0f7 f3be 7876 b1be
00000150: 639e a93c f1ed 833d 298b 57be 412e f9bd
00000160: 8265 673e 0625 3b3f 43c9 b93d bc24 4fbe
00000170: 87ff ac3e e2d8 4abd a1e1 2e3c ca72 c33e
00000180: 8a32 c4be f6be 3c3e a0f1 693e 1b70 0dbf
00000190: d51b 85be 0d1c 553e 80fe 5c3e f6dc da3e
000001a0: dc15 97be 841b 3abf eda9 aebe f36b 78be
000001b0: c130 91be e950 dd3d ee96 2a3e ca27 a5bd
000001c0: 2c05 813e e3d9 743d 26d3 463e 84e1 693c
000001d0: 3b4a 3a3f 4260 083f faf1 84bc 06ec a13e
000001e0: 85fd 3f3e b02a dd3d 7d27 2f3d 7327 903e
000001f0: 1284 cdbd b013 743e 677d 893e 5a99 a6bd
00000200: 21e0 bb3e 642a a73e 7ab6 12bd b573 113f
00000210: 9791 a5be 5796 1dbd 8f09 5a3e 20ab c03b
00000220: 289e be3d d370 c43e bb68 ec3e b314 9bbe
00000230: 2f8f 843e d3eb 5b3e a26b 2d3d cd06 0fbb
00000240: 7ff7 d63e 8161 e33e ac29 abba 919a b63e
00000250: 3b72 c43e 630c 213d 7605 8e3d 5d49 bc3e
00000260: d475 7abe 6af9 113e d2cf d43e 11a3 97be
00000270: 90d0 973e 1b00 b9bd 8235 2a3d ed77 8bbd
00000280: 1d1e cabd fa5b a0be 53b1 dd3d 1deb 003e
00000290: 58eb 9d3e e51c 233f c6a1 1e3e 9435 ccbe
000002a0: f286 cabd 5ae9 2b3f b4f7 293f 8780 30be
000002b0: 1269 8bbe 027f 343f 9421 5cbe 2b67 223e
000002c0: b90a 2cbe 9b51 ff3e 0561 bc3e a441 46be
000002d0: cf2d 80bc 97b6 d5bd c8b5 9abe 183e 203f
000002e0: 6976 323f 2018 cabe d2e9 65be 4395 c13e
000002f0: 4a21 c338 d956 c03e 5ae5 ea3e ca92 be3c
00000300: 4b28 78bf 5285 8d3d 1549 543e 6a84 c63e
00000310: 5a68 c8be bdca 9d3e 2862 c53d 9e54 2cbe
00000320: 77b8 57be a358 973e 56ec 9fbe b47c f5be
00000330: d8b2 01bf e28e b43e 2d5b 1ebc 43f3 90be
00000340: f9bc 22bf 0312 e4bc b66b fbbe 390d 45bd
00000350: 5eab 203f e408 fe3d a03c bcbe 57bc 61be
00000360: d175 35be 3113 18bf 582c 51bf b5dc e1be
00000370: 41ac 80be 3d67 83be 6358 253e 5dad 1e3e
00000380: eaeb f5bd fa55 093f e5cb 983a 5561 01bf
00000390: 0f7b 03bc 094a f33d e16d aebe 4902 043c
000003a0: 0d49 8dbe 4382 a03e 5d2d 913e 05b8 35be
000003b0: d864 abbe cc1b 6fbe 83e3 ccbe 51ec 273d
000003c0: 6e43 f13e 8896 02be 5011 ccbe 0549 b3be
000003d0: 2f26 c4bd f0f8 07be 6f92 ccbe 5a0a 493e
000003e0: 16d3 b8be 8458 313c f261 753e 6f5a c3bd
000003f0: 2440 0f3e f6e0 203e 12af 58be 3ef2 133e
0.22897953 -0.13063996 -0.0044624265 0.14724123 -0.22218768 0.07918776 0.28265825 -0.3240104
0.12930927 0.3000556 -0.124193825 0.17153415 0.3444118 0.32123077 0.0785378 -0.4217052
0.030329028 -0.05068823 0.18520662 -0.094955646 -0.04397242 -0.31506833 0.054392435 -0.14004396
-0.11801077 0.001954682 0.027670752 -0.23227082 0.4259911 0.08540918 -0.4313387 -0.25207892
0.04988123 0.43018878 0.042704936 -0.18839976 0.33789742 -0.009730361 -0.48869988 0.25050998
-0.22183654 0.25522888 0.15930887 -0.44237855 -0.013877116 -0.20803697 -0.0028191912 -0.4208825
-0.050476555 -0.671195 -0.5244645 -0.37030664 -0.18708955 0.12265463 -0.07386249 -0.037712414
0.5105252 -0.008210617 -0.035259333 -0.644126 -0.13146204 0.2364871 0.038318127 0.49435496
0.32884157 -0.1528412 0.102621585 0.31023762 0.27541208 -0.03518766 0.22028671 -0.13034719
0.019645227 -0.2458423 -0.105800405 0.29667717 0.3771674 0.03571059 -0.2829964 -0.17238392
-0.087281205 0.3536429 -0.4765005 -0.34660697 0.020705407 0.06441868 -0.21049179 -0.12167025
0.22597316 0.7310337 0.09071591 -0.20228857 0.33788702 -0.04952324 0.010673911 0.38173515
-0.38319808 0.18432221 0.22846079 -0.55249184 -0.25997797 0.20811482 0.21581459 0.42746705
-0.29508865 -0.72698236 -0.34114018 -0.2425993 -0.2835751 0.10806448 0.16659138 -0.0806423
0.25199258 0.059778105 0.19416484 0.0142749585 0.72769517 0.5327188 -0.016228665 0.31625384
0.18749054 0.107991576 0.04276227 0.28155097 -0.10034956 0.23835635 0.26853487 -0.08134718
0.36694434 0.3264953 -0.035818554 0.5681718 -0.3233764 -0.038473453 0.21292709 0.0058797747
0.0930751 0.38367328 0.46173653 -0.3028923 0.2589049 0.21476679 0.042338975 -0.0021824122
0.419857 0.44410327 -0.0013058684 0.356648 0.383684 0.039318454 0.06934635 0.36774722
-0.2445901 0.142553 0.41564804 -0.29616597 0.29651308 -0.09033223 0.041554935 -0.068099834
-0.09869025 -0.31320173 0.108248375 0.12589689 0.30843616 0.63715965 0.15491399 -0.39884627
-0.0988902 0.6715294 0.6639359 -0.1723653 -0.272286 0.705063 -0.21497184 0.15859668
-0.16800965 0.49866948 0.3679277 -0.19360977 -0.015646843 -0.10435217 -0.30216813 0.6259475
0.6971193 -0.3947153 -0.22452477 0.3780919 9.304525e-05 0.3756626 0.45878106 0.023263354
-0.9693648 0.069101945 0.20731004 0.387729 -0.39142114 0.3081874 0.096378624 -0.16829154
-0.21066462 0.29559812 -0.31234998 -0.47946703 -0.5066352 0.3526526 -0.009665293 -0.28310594
-0.635696 -0.02784062 -0.49105614 -0.048108313 0.62761486 0.124040395 -0.36765003 -0.22044502
-0.17720725 -0.59404284 -0.8170829 -0.441137 -0.2513142 -0.25664702 0.16146998 0.1549582
-0.12007888 0.53646815 0.0011657445 -0.5053914 -0.008024945 0.118793555 -0.34068206 0.008057185
-0.27594796 0.31349382 0.28354922 -0.17745979 -0.33475375 -0.23350447 -0.40017328 0.040996853
0.47121757 -0.12752736 -0.39856958 -0.35016647 -0.095775954 -0.13278556 -0.3995547 0.19632855
-0.36098546 0.010824326 0.23963144 -0.09538733 0.13989311 0.15710816 -0.21160534 0.14447877

sequential/conv2d_2/Conv2D f4 [60, 3, 3, 32]
00000000: 21ed e93d 6e99 05bf 5dfe 46bf e073 a0bd
00000010: a682 d03d 31b8 05bf 2ce2 8fbe db50 453e
00000020: 98e8 30be 13d9 2bbf e3a7 6bbf dfe4 153c
00000030: e4ee 693e b2e8 0d3e 0d36 39bf 2f32 b0bd
00000040: fe21 41be 699c c4be 2483 a0be fdf4 a3be
00000050: 66dc 143e 27e4 44be 3160 5ebe d7dd 2d3c
00000060: d7ca b9be 2034 dc3d 973e 19bd b6a2 983e
00000070: 7fe9 52bf 0951 f4be 3f11 403e 00dd 76bb
00000080: 26d0 cf3e 272e 8dbc ccda 07bf 8120 4dbf
00000090: cd0a 523e 8368 2ebf 5255 bfbc 85bb 43be
000000a0: cc4b d83e 24ec 38bd 9e2f 083e 0848 90be
000000b0: 0463 0c39 0c71 7f3e 8591 ab3d 2584 b6be
000000c0: 9a44 f83e d2a7 f5be 8eea 76be e6f7 41bf
000000d0: 9048 9fbe cb71 9bbd c4a7 393d 1b85 6ebe
000000e0: 1022 9d3e 0f88 6fbd 73e4 c03e cbc6 813e
000000f0: f668 acbc 9176 723e 7a5b a43e 050b 23be
00000100: a424 803d 0794 a33e 9ae3 6bbd a60e 2cbf
00000110: 8bf1 4fbe 8d9c 91be f935 8d3e e0c5 94bd
00000120: 0a6e bb3d 83c1 21bd 31e7 fa3e 429b fbbe
00000130: e4b5 84be fb22 ce3e ec78 343e 972f b2bd
00000140: 499f 003e 3e04 2f3e 3b7c cfbe 02c8 40bd
00000150: 6bdf 21bf 0714 39be 623f 51be f5cd f9bd
00000160: f08e 903e 9bd1 3fbd 3efe ad3e 0ea6 fcbe
00000170: 804b b73e fc33 babd 79ec 9bbd 7b11 023e
00000180: c8a1 413d 2456 e1be 2b03 84be 68b7 46bf
00000190: 2c3f ff3c 89b5 49be fb8c b5be 29a8 163e
000001a0: 7d40 5a3e 8ad8 5ebe 13e3 913e bdd1 95be
000001b0: a135 e43d 011e d63c dd31 4f3e 40fc 16be
000001c0: 7b7d 04bf 18ac c7be f205 0a3f 00fd aa3d
000001d0: 4568 833e dbda b43e 4a67 503e 33de aebd
000001e0: c6a8 15bf cf80 9cbe f19d 58bd d594 803e
000001f0: 69f9 0b3e 2bff 83bd ffa4 e1bc d923 acbd
00000200: f530 94bd 16e5 9ebe 15ad f33d 7e4a cbbf
00000210: fc5f 34be a340 053f b7bb 0dbe 39f9 283f
00000220: 7356 593d 2157 aebe 74a6 553f 4415 053f
00000230: 2d01 5f3d 8a06 873d be8c 85be ceab df3e
00000240: c876 91be 5e89 0fbe 223d 2a3e c298 0d3f
00000250: 1c3f 15bd c919 cf3d 32e9 38be 9f1b 3ebd
00000260: 4ad9 c73e a4d5 1d3f d349 bbbd c457 5cbe
00000270: 4e1c 533f 9350 853e 8b64 263f 31e2 dabc
00000280: e3fb 88be b8f9 973d d900 db3d 5627 ff3e
00000290: 679d 85be fb10 b43e 2775 c73e c446 e23c
000002a0: 6a6e c8bd ab62 513e ef56 41bf f9fa 83bd
000002b0: 602a 483e 4f92 0b3f bda4 8739 155f 253d
000002c0: e9ef 963e 8f07 903d 2867 2bbe a950 da3d
000002d0: adb4 36be 61a4 63be f11b 0f3d a334 0abf
000002e0: ed71 343d 461c ed3e 3885 9fbe 9550 3c3e
000002f0: df1a b3be 7355 883e dcf1 173e fc41 e43d
00000300: 3f55 3bbd eb25 913d 983d aebd 81c0 acbd
00000310: 49f3 adbd 4003 bebe 0e0b 813e 6e23 d5bd
00000320: 25dc 4d3e e280 723e 7c9b b2be 1a7a 12be
00000330: 9e5b dc3d 94ba ed3d ff31 6abe 4ee1 8ebc
00000340: 8b28 1b3f 1a26 9b3e 4182 b03d 0f80 d6be
00000350: 5110 a43e 0097 1fbe ce8b 4dbe 5a97 55bf
00000360: b326 413e a15e ea3e e409 21be 6cff 2b3d
00000370: 2ab2 013d 3f59 dd3e 0743 4b3e 59de 6e3e
00000380: b9d9 25be 186e c7bd b87f 2d3f 09c8 97be
00000390: b738 36bf 2a81 e5be 6e60 22be 5253 22bc
000003a0: bbbd 7bbd c37a 1cbe 74ce 9c3e 8b21 e83d
000003b0: 1b63 943e 4d85 2abe fb8e 543e ec1a e2bd
000003c0: 9f93 733e c085 a4bb b7e1 c83e 531d 223e
000003d0: f9e7 92bd dfb5 c2be 428a 86be 0747 bfbe
000003e0: baf9 f93e ee7b d8be 0356 d53e ffa0 4fbe
000003f0: 5597 dd3e bf98 163e bca5 b63d 16a7 e43e
0.11422182 -0.5218724 -0.7773188 -0.078346014 0.10181169 -0.5223418 -0.28102243 0.19269125
-0.17276227 -0.67128104 -0.9205305 0.009148805 0.22845036 0.13858297 -0.723481 -0.08603322
-0.18860623 -0.3840058 -0.31350052 -0.3202285 0.145372 -0.19227658 -0.21716382 0.010611973
-0.36287567 0.107521296 -0.037413206 0.2981164 -0.82387537 -0.47718075 0.18756579 -0.0037668347
0.40588492 -0.017233921 -0.5306823 -0.8012772 0.20511933 -0.6812822 -0.023356114 -0.19114502
0.42245328 -0.045147076 0.13299415 -0.28179955 0.00013388327 0.24945468 0.08377365 -0.35647693
0.4848984 -0.479796 -0.24112913 -0.7576889 -0.31110048 -0.07590064 0.04532601 -0.23292963
0.3069005 -0.058479365 0.37674293 0.2534698 -0.021046143 0.23678042 0.3210104 -0.15922172
0.06256989 0.31948873 -0.057590105 -0.6720985 -0.20306985 -0.2843975 0.2758024 -0.07264304
0.09151848 -0.039491188 0.4900451 -0.4914189 -0.25920022 0.40261063 0.17624253 -0.08700483
0.12560762 0.17091462 -0.40524468 -0.047065742 -0.63231534 -0.18074046 -0.20434335 -0.12197486
0.28234053 -0.046830755 0.33983034 -0.4934544 0.3579979 -0.090919465 -0.07613463 0.12701981
0.047273427 -0.44011033 -0.25783667 -0.77623606 0.031158052 -0.19698156 -0.35459122 0.14712586
0.21313663 -0.2176229 0.28493556 -0.2926158 0.111430414 0.026137354 0.20233865 -0.14744663
-0.5175397 -0.38998485 0.5391532 0.08349037 0.2566549 0.35323223 0.20351902 -0.08538475
-0.5846065 -0.30567023 -0.052885 0.2511355 0.13669361 -0.06445154 -0.027544497 -0.08405275
-0.072359 -0.31034154 0.11898247 -1.5882108 -0.1761474 0.5205175 -0.13841139 0.66005284
0.05306096 -0.3405085 0.8345711 0.51985574 0.05444448 0.06593044 -0.2608394 0.43685764
-0.28410935 -0.14017245 0.16624883 0.55311215 -0.03643714 0.1011234 -0.18057707 -0.04641306
0.39032966 0.61654115 -0.0914494 -0.21517855 0.82465065 0.26038036 0.64997166 -0.026719185
-0.26754674 0.07420677 0.10693521 0.49834698 -0.2609665 0.35169205 0.38956568 0.027621634
-0.09786685 0.20447795 -0.75523275 -0.064443536 0.19547415 0.54520124 0.00025871946 0.04037388
0.29479912 0.07032692 -0.1673857 0.10659916 -0.1784236 -0.22230674 0.034938756 -0.5398657
0.04405396 0.46310633 -0.31156325 0.18390115 -0.3498144 0.26627693 0.14838356 0.11145398
-0.045735594 0.070873104 -0.08507842 -0.08435155 -0.084936686 -0.37111855 0.25203747 -0.10407148
0.2010351 0.23681977 -0.3488425 -0.1430439 0.10759662 0.116078526 -0.22870634 -0.017441418
0.6060874 0.30302507 0.08618594 -0.41894576 0.32043698 -0.15584946 -0.20072863 -0.8343407
0.18862419 0.4577532 -0.15726429 0.041991636 0.03166405 0.43232152 0.19849788 0.23327006
-0.16196336 -0.097377956 0.6777301 -0.29644802 -0.7118029 -0.44825107 -0.15857098 -0.00990756
-0.061460238 -0.15281205 0.3062626 0.11334523 0.2898186 -0.16652413 0.20757668 -0.11040291
0.23786782 -0.005020827 0.39234707 0.15831499 -0.071731515 -0.38029382 -0.26277357 -0.37358877
0.4882334 -0.4228205 0.41667184 -0.20276259 0.4327952 0.14706706 0.0891833 0.44658726

sequential/dense/BiasAdd/ReadVariableOp f4 [64]
00000000: c6fc b7be d724 c5be af7a b2be 7b5c 4ebe
00000010: b7e2 b13d 0735 b9bb 3a24 77ba 8730 80be
00000020: d046 b73b ced4 9a3d b3b4 0cbf 6acc 3abe
00000030: 44e7 09bd faf9 02bf ece2 133e 89f0 f3bd
00000040: 38a7 12bf e708 f7be 3f76 19bf a0c9 d2be
00000050: ea66 a1be ec74 92be e180 ecbe d706 d83b
00000060: 91c7 68be a0b3 53be 99cb 83be 97aa d5be
00000070: d3ae ccbd 3f5e 69be 6683 0ebf 46d5 193e
00000080: 5fc7 86be 82dc 06be 14c0 1ebf f264 41be
00000090: eaad 9dbe 1f2f 5ebe 68a8 a4be 5121 183c
000000a0: 620e a9be b2f5 d0be ad5a 84bd 5bf6 1bbf
000000b0: d194 bdbe edd2 7bbe b761 c0be 624c 44be
000000c0: b45a 6b3d 6d3d 91be 73b3 3bbe 059e 30be
000000d0: f81a 0dbe 0ae6 17bd 50c4 3ebe 72eb 22be
000000e0: e6eb 03bf dae4 40be 9df3 92be 81b2 96be
000000f0: 5432 c0be 661d 95be 508a 81be a872 19bf
-0.35935038 -0.3850467 -0.34859225 -0.20152466 0.086858205 -0.0056520733 -0.00094277004 -0.25037023
0.0055931583 0.075601205 -0.54963225 -0.1824204 -0.033667818 -0.51162684 0.14442033 -0.11911113
-0.57286406 -0.4824898 -0.59946054 -0.41169453 -0.3152383 -0.2860483 -0.46192077 0.0065926122
-0.22732379 -0.2067399 -0.2574127 -0.41731712 -0.099942826 -0.22789858 -0.5566925 0.15022764
-0.26323983 -0.13170055 -0.6201184 -0.18886164 -0.30796748 -0.21697663 -0.32159734 0.009285287
-0.33018786 -0.4081245 -0.064626075 -0.60922784 -0.370276 -0.2459218 -0.3757455 -0.19169763
0.057459548 -0.28367177 -0.18330173 -0.1724778 -0.13779819 -0.037084617 -0.18629575 -0.15910128
-0.5153183 -0.188373 -0.28701487 -0.29433063 -0.37538397 -0.29123992 -0.25300837 -0.59940577

sequential/dense_1/BiasAdd/ReadVariableOp f4 [64]
00000000: 749b dfbe 3b39 753d 790a 12be aaa2 fe3c
00000010: 0d6d b6bd a95c 863d 6650 6bbe d1d1 a8bd
00000020: 5492 ebbe a8dc 57be 58bd 7cbe e2c6 293c
00000030: 3e73 923e e108 6b3e 4601 9a3d 9e60 823d
00000040: c426 09be ff39 d4bd 41cf e0bd fccc 36be
00000050: 8554 87bd 4ae8 20be 1430 49be 318c 213e
00000060: e47c dbbd afda 6abd 229d b1bd 8f6f 3a3d
00000070: 7d50 3dbe 2d13 adbe cb28 dfbd 74d0 c4bd
00000080: 8b32 8e3e 0cfc c2be ac1f 263d 354e d1be
00000090: c062 ecbd 03c2 babd 8719 9f3d d65b 97be
000000a0: ae97 2abe c406 87be 07bd 3f3e 3d87 1abe
000000b0: 2fda 1b3d 999f 1f3d 7c36 e7bd 0414 85be
000000c0: 910a 82be 4bb4 e9be 6219 2c3e e280 5ebe
000000d0: ff4e 74be 864e 023e 8f26 a7be a650 283c
000000e0: 753f 2b3e a102 be3c 96c8 683d 863b 7bbd
000000f0: dfe4 95bd f933 0fbd 8533 47be 8583 b6be
-0.4367329 0.059869032 -0.14261808 0.031083424 -0.089075185 0.06560642 -0.22979888 -0.08243144
-0.46010077 -0.21080267 -0.24681604 0.010362359 0.28603548 0.22952606 0.07519774 0.063660845
-0.13393694 -0.103626244 -0.109770305 -0.17851633 -0.06607918 -0.15713611 -0.19647247 0.15776135
-0.1071718 -0.05733746 -0.08672549 0.045516547 -0.18487735 -0.33803692 -0.108964525 -0.09610072
0.27772936 -0.38082922 0.04055755 -0.4087998 -0.115422726 -0.09119036 0.07768541 -0.29562253
-0.16659424 -0.2637235 0.18724452 -0.15090652 0.038049873 0.038970564 -0.11289689 -0.25991833
-0.25398687 -0.45645365 0.16806558 -0.21728852 -0.2385826 0.12725267 -0.32646605 0.010273134
0.16723426 0.023194613 0.05683192 -0.061336063 -0.07319044 -0.034961674 -0.19453247 -0.35647216

sequential/bidirectional/forward_lstm/Read_2/ReadVariableOp f4 [80]
00000000: 1af2 c7bd 2e13 2fbd ed37 ff3d e377 a6be
00000010: fe39 46bd 5b60 be3e b5e2 173f dfa0 fd3d
00000020: b20e 37be 5bb6 393d 3737 9bbe 1438 9c3e
00000030: 1c7d 71bf e962 febd 66e7 d13d ac1d c7ba
00000040: 8093 b63d ebc3 aa3e 88ed 84be 62db 39be
00000050: c1c6 813f 4578 a13f 589a 7d3f 8449 983f
00000060: cf36 833f e5d8 983f 86af be3f 5362 913f
00000070: a20b 573f faba b63f 5f73 803f 4c90 713f
00000080: f963 5c3f 1d96 5f3f 1a8a 353f aec7 373f
00000090: 60f7 383f ab74 903f 3162 a83f 734e 5b3f
000000a0: 65bb bb3d 522f 933e e5a7 debe a776 16be
000000b0: 16b7 9a3e f870 28bf d657 5d3f 0521 22be
000000c0: bdb4 7d3d 7893 c0be b72a 723c 0943 72bf
000000d0: 8ffe cb3e b6c7 2dbe cba1 26be a046 47be
000000e0: 4e00 c73c 93ad 2abe 6f10 dcba 2a09 40be
000000f0: a8e8 84be d1e7 fdbd 45cf 093f a479 fbbc
00000100: f8cb a4bd c4ba 5e3e eafc a23e 9a18 1a3d
00000110: c163 eebc 8d69 043d cdbc 37be def5 4c3e
00000120: 9161 71be 4261 a8be 7a47 e6bc 6711 37be
00000130: 6d6a f1be 43b3 e7be 55fd f1bd 6be2 e4be
-0.09762974 -0.0427429 0.12461839 -0.3251334 -0.04839515 0.37182888 0.593303 0.12384199
-0.178767 0.045339923 -0.30315563 0.30511534 -0.94331527 -0.12421209 0.10249214 -0.0015191338
0.08914852 0.333526 -0.25962472 -0.18150094 1.013878 1.2614828 0.99063635 1.1897435
1.0251101 1.1941191 1.4897316 1.1358131 0.84002125 1.4275811 1.0035208 0.94360805
0.86090046 0.8733843 0.7091385 0.7178906 0.72252464 1.1285604 1.3154966 0.8566658
0.09166602 0.2874704 -0.43487468 -0.146937 0.30217808 -0.65797377 0.8646215 -0.15832908
0.061939944 -0.3761251 0.014780692 -0.9463354 0.3984265 -0.16970715 -0.16272657 -0.19460535
0.024292137 -0.16667776 -0.0016789566 -0.18753496 -0.25958753 -0.12397731 0.53831893 -0.030697651
-0.080467165 0.21750933 0.31833583 0.037621118 -0.0291003 0.032327224 -0.17943116 0.20015666
-0.23572375 -0.32886702 -0.028110255 -0.17877732 -0.4715151 -0.45253953 -0.118158974 -0.44703993

sequential/bidirectional/backward_lstm/Read_2/ReadVariableOp f4 [80]
00000000: 5392 5f3e 1cb6 cebd 3128 043f 460c 4fbe
00000010: c8b1 8f3d 60f3 fb3d d84c 05be e42f 813d
00000020: c68f ce3d 37ca fdbd 7f66 82bd 7cdc 22be
00000030: 59b7 343e 5c2e a4be 7a09 1cbe 98d8 e23c
00000040: a5e1 4dbe 3269 23be 74f0 f7be 100b e2bd
00000050: 4855 933f 6678 843f 31dd 8a3f 8fc3 913f
00000060: 0083 7e3f 2db0 773f 4d69 573f a012 783f
00000070: b555 793f 89ab 793f e383 4e3f 5b86 473f
00000080: 3d88 433f 4096 973f c8cd 4b3f 2875 963f
00000090: 0fe3 893f 8a4d 583f 3b99 863f 48d4 b63f
000000a0: cc46 573f c771 f8be 3253 bf3e 19dd e93e
000000b0: 0ee1 bbbe 5bcc 88bb abda aabe 52cf acbe
000000c0: 75ee 073f 67aa 023f 9859 f73d c299 453d
000000d0: b999 e03d a630 06be cc17 243e 40fc d83e
000000e0: d6d6 023f 9a4f 833e b688 9d3e 2509 14bf
000000f0: c187 d63e 5d6a 2dbe 7552 8f3d 5c63 38be
00000100: 644e 30bd 6a49 06be da5e a43e bed0 913c
00000110: 98d4 583d d3b4 f83c 2c2f 7bbd 82e3 c73e
00000120: 6ea2 3abc 6c3b 2f3c 368b e63d 96df 07be
00000130: d57f 3fbe a346 73bd 30cb 50be faef 743d
0.21833162 -0.10093328 0.5162383 -0.20219526 0.07016331 0.123022795 -0.13017595 0.063079625
0.10086016 -0.12392085 -0.06367206 -0.1590442 0.17648067 -0.3206662 -0.1523799 0.02769117
-0.20105608 -0.15958098 -0.4842564 -0.11037266 1.1510401 1.0349243 1.0848752 1.1387805
0.9941864 0.967532 0.8414505 0.9690342 0.97396404 0.97527367 0.80669993 0.77939385
0.7637976 1.1842728 0.7961087 1.1754503 1.0772418 0.84493315 1.0515512 1.4283533
0.840924 -0.48524305 0.3736816 0.45676497 -0.3669514 -0.0041747517 -0.33369955 -0.33751923
0.5309823 0.51041263 0.120776355 0.048242338 0.1096682 -0.13104495 0.16024703 0.4237995
0.51109064 0.2564667 0.30768365 -0.57826453 0.41900447 -0.16935106 0.06998149 -0.18006653
-0.04304351 -0.13113943 0.32103616 0.017799731 0.05293712 0.030359661 -0.061324283 0.39040762
-0.011391265 0.01069532 0.11257021 -0.13268885 -0.18701108 -0.059393536 -0.2039001 0.059799172

sequential/batch_normalization/FusedBatchNormV3 f4 [28]
00000000: 5c5c 833e a195 8f3f 5c3c 0540 5f42 9c3f
00000010: 7fa6 c93f 58a3 173f 5343 a03f 0aef 8f3f
00000020: de02 6e3d 13a6 e93a 1494 2840 d404 e53d
00000030: 26de 3840 b4eb 043f fc37 ff3c 92fd 8140
00000040: dc7d c93f 4dd5 dd3e 112d c83d acd9 b340
00000050: 9ec4 b83f 730b a940 5a08 2f41 e3ee 573f
00000060: 214f 7d3f 2ef4 dc3e 34a1 0f40 7d04 0641
0.25656402 1.1217538 2.081809 1.2207755 1.5753936 0.5923362 1.2520546 1.1244824
0.058108203 0.0017825983 2.634038 0.111825615 2.8885589 0.51922154 0.031154625 4.0622034
1.5741534 0.43326798 0.09774221 5.6203213 1.4435003 5.2826476 10.939539 0.8434889
0.98948866 0.43155044 2.244214 8.376096

sequential/batch_normalization/FusedBatchNormV31 f4 [28]
00000000: 5bc1 0abf 1e08 acbf b9e7 c7bf ba18 84bf
00000010: bae2 83be b3f6 29bf a373 473d 2866 bebf
00000020: aff6 5cbf 2436 edbc b819 cbbd 92af 07bf
00000030: c037 22bf f92b 76bf 6262 e4be 233b 0cbf
00000040: b061 263d fe2d 023d 104b 5dbe d548 90bd
00000050: 132c cabc c02b 9dbf 0a91 023e 8cc6 823e
00000060: 58bd e1be 34a0 d3be 1eea 70be 94a9 5bbe
-0.5420129 -1.3439977 -1.5617591 -1.0320046 -0.25758916 -0.6639206 0.048694264 -1.4874926
-0.8631391 -0.02895648 -0.09917015 -0.53002274 -0.6336632 -0.96160847 -0.4460631 -0.54777735
0.040620506 0.031782143 -0.21610665 -0.070451416 -0.02467922 -1.2278976 0.1275064 0.25542104
-0.4408977 -0.41333163 -0.23526809 -0.21451408

sequential/batch_normalization_1/FusedBatchNormV3 f4 [32]
00000000: 7dfc d43d 2540 6b3e 8c2b 833e 8e1c c13e
00000010: 708f 623e 8434 633e 331a 863e 7d7d 803e
00000020: a22c e83d b100 883e 02b7 223e 1f3f 513e
00000030: c58e 813e 60f7 853e 0a83 c63e 8886 493e
00000040: 9bb3 893e b611 783e 1bd5 0c3e 2d50 473e
00000050: 0aa3 dd3d a077 5a3e 2630 3b3e 509c 883e
00000060: ba3c 633e fc58 633e 9077 4a3e 423f 473e
00000070: 72dc 173e 7d6e 6b3e f624 873e 2c38 763e
0.10399721 0.22973688 0.2561916 0.37717098 0.2212503 0.22188002 0.26191863 0.2509574
0.11336638 0.26563028 0.15890124 0.20434235 0.25304237 0.26165295 0.3877185 0.19680226
0.2689484 0.24225506 0.13753168 0.19464178 0.10822113 0.21334696 0.18280086 0.26681757
0.22191134 0.22201914 0.19772172 0.19457725 0.14830187 0.22991367 0.26395386 0.24044865

sequential/batch_normalization_1/FusedBatchNormV31 f4 [32]
00000000: 9f2c 17bf 04a9 93bf a606 d7bf f691 cbbf
00000010: f990 86bf bba0 81bf 4efe a1bf 2ed1 49bf
00000020: 331e 9ebf bf11 b0bf 1404 95bf 7a41 36bf
00000030: f29e a8bf 3ca5 29bf 46a2 82bf 2e56 dfbf
00000040: 17aa 42bf 2bf1 56bf 9895 9abf e013 9ebf
00000050: 6a49 e2be 8280 7ebf 76f8 6cbf c41c a4bf
00000060: 3a18 c0bf a489 b5bf 8c5f a5bf 79d7 b5bf
00000070: 8a34 84bf 3ce7 c4bf ae84 59bf 973c c8bf
-0.5905246 -1.1535954 -1.6798904 -1.5903919 -1.0512992 -1.0127176 -1.2655733 -0.7883481
-1.2352966 -1.3755416 -1.164187 -0.7119366 -1.3173506 -0.6626775 -1.0205772 -1.7448175
-0.76040787 -0.83961743 -1.2076902 -1.2349815 -0.44196635 -0.9941484 -0.9256662 -1.2821279
-1.5007393 -1.418263 -1.2919784 -1.4206382 -1.0328534 -1.5383067 -0.8496808 -1.564349

sequential/batch_normalization_2/FusedBatchNormV3 f4 [60]
00000000: debd 363e fd19 923e 23af 4f3e 351e 173e
00000010: 51bf 243e 439b c13d 1b91 973e f5f2 9b3e
00000020: 2577 ca3e bb64 9e3e 11f7 243e 6e47 7b3e
00000030: 5913 9d3e 0690 8f3e aa6c 5e3e 2033 7f3e
00000040: 8888 7d3e c09a 913e f706 6b3e be42 553e
00000050: ba45 823e 3d43 903e f60f 7f3e 33c5 6b3e
00000060: 8b02 8c3e 67af e83d 85a9 f03d 21c5 a13e
00000070: d067 813e a7c1 b43d ae7f b23e 3947 343e
00000080: a6a0 333e 5f23 b43e 7ac6 363e f908 8c3e
00000090: 9b8c 283e 7360 d23e b621 073e aa3f 1e3e
000000a0: 38ad 5a3e 9623 2a3e f4d6 8c3e bdb5 be3d
000000b0: bafa 113e f7c0 853e 6676 273e 6cc1 3a3e
000000c0: d11d 3b3e d55f 233e 2717 473e 85a5 a83e
000000d0: d1bb 4d3e 2e65 433e 0b72 4d3e d12f 273e
000000e0: 8928 503e 3b90 393e 6134 483e 4239 eb3d
0.17845866 0.28535452 0.20281653 0.14757617 0.16088606 0.09453442 0.29602894 0.304588
0.39544025 0.30936226 0.16109873 0.24538967 0.30678824 0.2803957 0.2172114 0.24921846
0.24759114 0.28438377 0.22951876 0.20826241 0.25443822 0.281763 0.24908432 0.23024444
0.2734569 0.1136158 0.11751083 0.3159571 0.25274515 0.08825999 0.34863037 0.17605294
0.17541751 0.35183236 0.1784915 0.27350596 0.16459887 0.4108921 0.13196453 0.15453973
0.2135514 0.16615137 0.27507746 0.093120076 0.14255801 0.26123783 0.16353759 0.18237847
0.18273093 0.15954526 0.19442426 0.3293878 0.20091178 0.19081566 0.20063035 0.16326834
0.20327963 0.18121426 0.19551231 0.114855304

sequential/batch_normalization_2/FusedBatchNormV31 f4 [60]
00000000: 540a e6be ae06 06bf 84e2 2dbf 9e37 06bf
00000010: a638 a6be 2e79 e0bd 68f3 6dbe ad7c 00bf
00000020: ba01 b9be 4143 ebbe adc4 06bf a40c 93be
00000030: 1ac9 9cbe ae80 1abf 8b8e 12bf fc29 bdbe
00000040: cecb 29bf 4152 16bf 088f d4be 7dd2 10bf
00000050: adb8 35bf 79b2 dfbe a179 9ebe 565b a6be
00000060: 7d7c 04bf c4c5 1fbe e832 05bf 0e84 a3be
00000070: 51b4 bebe fe9b c6be 4833 50be 1547 2abf
00000080: 0825 81be 4ae2 41be cd29 08bf 1eb5 43bf
00000090: f30e 07bf 4c5e 37be 67aa 72be 11f8 debe
000000a0: 888e b3be a640 b5be 8ccd 17be 440e 2abf
000000b0: 6525 01bf 2e30 2ebf b93a 22be 78b0 16bf
000000c0: 415d 00bf 2c87 72bf da9f aebe 82eb 2ebe
000000d0: d91c acbe 24cd e1be 9c3c 3ebe c633 20bf
000000e0: 781b 72bd d6d7 ddbe ef59 13bf 35c7 f3be
-0.44929755 -0.5235394 -0.6792376 -0.52428615 -0.32465094 -0.10960613 -0.23237383 -0.5019024
-0.3613413 -0.45949748 -0.52643853 -0.28720582 -0.30622178 -0.603526 -0.57248753 -0.36946094
-0.66326606 -0.5871926 -0.41515374 -0.5657118 -0.7098492 -0.4369085 -0.3095217 -0.3249156
-0.51752454 -0.15602785 -0.520308 -0.31936687 -0.37246946 -0.38790888 -0.20332062 -0.6651471
-0.25223565 -0.18933979 -0.5318878 -0.7644824 -0.52757186 -0.17907065 -0.23697816 -0.43548635
-0.3506968 -0.35400885 -0.14824504 -0.6642802 -0.50447685 -0.68042266 -0.15842713 -0.5886302
-0.50142294 -0.94737506 -0.34106332 -0.17082027 -0.3361576 -0.44101822 -0.18577808 -0.62579
-0.059108227 -0.43328732 -0.575591 -0.4761292

sequential/dense/MatMul f4 [64, 40]
00000000: 378f e2be b9e2 03be f8be 033f 4ac5 e53e
00000010: 69b7 d6bd 5715 0f3f e459 b13d b9d0 f23d
00000020: 89fa fd3e dced 573f d950 a2be 0daa f03e
00000030: b3b0 9f3e 945e 6e3e 462b bb3e 7b60 513e
00000040: 1441 113d 1387 ea3e 889b 873d 8d99 dcbe
00000050: 026e cdbe 31ea 323f 2c42 bbbe 5c3a e6bd
00000060: 4c87 5b3f 2d0c cdbc 87f1 093f 0515 2b3e
00000070: 2390 d9be ca0f 9cbe fc71 afbe 847a f2be
00000080: 3ec1 1b3e 42f2 e13e b364 dabe 0c21 e7be
00000090: 704e a73e a01f 48be 06e5 a9be f3b5 aa3e
000000a0: fe5c 493e c231 a43d 620e 2c3e 57d6 983e
000000b0: 1204 3cbd 0254 de3e 0234 233e ef81 be3e
000000c0: 5bc3 7e3e 8e08 93be 1390 443f 9bab ebbe
000000d0: 62af b0be d40a f93d 915f 00bf d6e8 10bf
000000e0: 6827 043f 9a86 64bf 6e1d 3ebe 29ec 70bd
000000f0: 7f9b 4e3f aff6 543e 42d2 bb3c b055 c83d
00000100: 22ff 96be 766e 483c f51b 39bd a2d8 c7be
00000110: cd03 5fbd 15e8 1e3f da5a 6f3e 2a8b 013e
00000120: 46f4 a3bc 5b68 e3be b204 1f3f 6953 ee3e
00000130: e74d b63e 106b c93e 7318 cf3e 2485 54bf
00000140: 07bd c6be 9273 163f f466 a13c 5734 c73d
00000150: 66b2 1a3f 1ac3 23bf 3c4f 833f c9f1 50bf
00000160: 256e 2fbe bdc0 d03c a7da 42bd 2c20 19bf
00000170: f126 76be 15f0 a9be 1a94 f1be 366c a0be
00000180: 0d55 26bc 74bd 8abe 2b71 2e3e 4c81 dfbd
00000190: 514b 0a3f b641 63be 58b1 9bbd d99d 8d3c
000001a0: 67f4 1ebf e0d7 e1be 1057 cdbd 0b39 bebd
000001b0: c542 e53e 6001 763f ca95 2d3e e42d aa3e
000001c0: 8019 49be 425a 5bbe d941 da3e 4701 593f
000001d0: 778d 013f 9583 d03d 7957 df3e 507d 1abf
000001e0: bd1f 0f3f bd0b 843e e12a 70be a358 97be
000001f0: 45f5 ea3e f8e1 dcbe 3efd 053f 748c 28bf
00000200: 6ff1 57bd 83ef 4bbe edac 9f3e ad68 38bf
00000210: b5ba 633d e916 c4be 9662 b2bd e792 45be
00000220: 4261 bd3e 2f13 05bf 7bd6 30bd ab75 17be
00000230: 7953 9a3d a753 d6bd c7f7 293f 3d40 bebe
00000240: a894 f33d 6483 c2be 368a 393d 60f1 3bbf
00000250: 5a41 0a3f 6958 743e e61e c73e a547 1e3f
00000260: 6b94 ccbe 5e51 48bf 6d2c da3d 2b83 153d
00000270: 437f d13d 11a9 713e 9ba3 763a de0b 0bbe
00000280: 9446 28be 10ee 153e 50fe a5be 4da1 b5bd
00000290: 8dee 033e fac6 4bbf c6e1 fd3e 1a36 b7be
000002a0: ac02 6bbe 8c8b 8ebe 6fd7 003f 1d5a 22bf
000002b0: b6de 5ebe 0bbb 15bf 9d97 8fbe 7847 8abe
000002c0: e3f5 d6bd 340c 3dbe eebb 41be 095a f53e
000002d0: 76de cd3d 8849 febe ec9e 9e3e 5d35 ad3e
000002e0: 4fe2 dfbe 36db c8be 795d f1be 6931 91be
000002f0: bbd0 063f 2e39 993d c2d7 e93e 1176 053f
00000300: b5c8 07bf ff85 6bbe 9b39 f03e 973b 5a3e
00000310: b55b 763e b948 87bd 477b ae3e 2ebc fdbe
00000320: f69e 06bd 294e a63d 62d9 5dbe 459d 8ebe
00000330: e940 433d 8a86 0abf 61a4 193f 2530 113c
00000340: cc12 06bf 4c08 3abe 903f b23e 4ee4 02bf
00000350: fe70 dfbe 20de 653d 664b 66be de9e 02bf
00000360: 854c 793d 397b 99bd d661 463e abda 4a3c
00000370: e09d 933e f5da f9be 5da6 823e 5e1a e13e
00000380: d80c 1cbf 4e84 49be 179c 30be 7cf0 a3bc
00000390: 13b1 053f a6cd 293e 9b3e 213f df2b b83e
000003a0: 3a1c 10bf 52e1 0cbf 48af 233e 06b2 bb3e
000003b0: a77a b23e 35a9 d33e 642b 123f e1b5 d5be
000003c0: 6492 373e 63db 673e 9578 ac3d 1786 40be
000003d0: d344 853c 5953 cbbe b4be 383f f423 2cbe
000003e0: 43fc a0bd 4010 c6be b29e c13e 8f49 2bbf
000003f0: 1216 9cbe 5d0f 66be f67c a63c ab58 08bf
-0.4424989 -0.12879457 0.5146327 0.44877082 -0.104842015 0.55891937 0.086597234 0.11856217
0.49605206 0.8434732 -0.31702307 0.47004738 0.31189498 0.23278266 0.36556453 0.2044696
0.035462454 0.45806178 0.06621462 -0.430859 -0.40122992 0.698886 -0.36573923 -0.112416
0.8575332 -0.02503022 0.53884166 0.16707237 -0.4249278 -0.30480796 -0.3426665 -0.47359097
0.15210435 0.4413014 -0.42654952 -0.451424 0.3267703 -0.19543314 -0.33182544 0.3334194
0.1966438 0.08017303 0.16802362 0.29851028 -0.04590232 0.43423468 0.15937808 0.37208506
0.2487921 -0.28717464 0.7678234 -0.46029362 -0.34508806 0.121602684 -0.5014582 -0.5660528
0.5162263 -0.89267886 -0.18565914 -0.05881897 0.8070602 0.20797227 0.022927407 0.097819686
-0.29491526 0.012233367 -0.045192678 -0.39032465 -0.054446984 0.6207288 0.23374501 0.12650743
-0.02001394 -0.44415554 0.6211654 0.46548012 0.3560631 0.39339495 0.4044834 -0.83015656
-0.3881609 0.58770096 0.019702412 0.0972678 0.60428464 -0.63969576 1.0258555 -0.81618935
-0.1713186 0.02548253 -0.047571804 -0.59814715 -0.24038292 -0.3319098 -0.47183305 -0.31332558
-0.010152114 -0.27097666 0.17035358 -0.10913333 0.54021174 -0.22193035 -0.07602185 0.017287182
-0.6209168 -0.44110012 -0.100263715 -0.09288224 0.44777504 0.9609585 0.16951671 0.33238137
-0.19638634 -0.2142115 0.42628363 0.84767574 0.50606483 0.10181347 0.43621424 -0.6034746
0.55907804 0.25790206 -0.23453857 -0.29559812 0.4589025 -0.4314115 0.5233954 -0.65839314
-0.052720483 -0.19915585 0.3118662 -0.7203472 0.05559798 -0.3829873 -0.0871021 -0.1929432
0.36988264 -0.51982397 -0.043173295 -0.1479098 0.075354524 -0.10465174 0.66393703 -0.37158385
0.11893588 -0.37990868 0.045297824 -0.73415184 0.5400597 0.23861851 0.3889076 0.6182807
-0.39956984 -0.78249156 0.10653005 0.036502045 0.10229351 0.2359965 0.00094085344 -0.13578746
-0.16433173 0.14641595 -0.32420588 -0.08868656 0.12883969 -0.7960049 0.49586314 -0.35783464
-0.22950238 -0.2784084 0.50328726 -0.6341875 -0.21764645 -0.5848853 -0.2804536 -0.2700765
-0.10496118 -0.18461686 -0.18919346 0.47920254 0.10052197 -0.49665475 0.30980623 0.33829775
-0.43727347 -0.39229745 -0.47141626 -0.2835801 0.5266225 0.07481609 0.45672423 0.5213328
-0.5304063 -0.23000334 0.4691895 0.21311794 0.24058421 -0.066056676 0.34078428 -0.49557632
-0.03286644 0.081203766 -0.21664956 -0.27854362 0.047669325 -0.5411154 0.6001645 0.008861576
-0.5237243 -0.18167228 0.3481412 -0.51129615 -0.43640894 0.056120038 -0.224897 -0.5102366
0.06086399 -0.07494206 0.19373259 0.012381236 0.28831387 -0.48799863 0.2551755 0.4396543
-0.609571 -0.19679376 -0.17247044 -0.020012133 0.5222332 0.16582355 0.62986153 0.3597097
-0.5629307 -0.5503131 0.15984833 0.3665926 0.348592 0.41340032 0.5709746 -0.41740325
0.17926937 0.22642283 0.08421437 -0.18801151 0.01626817 -0.39712027 0.7216599 -0.1681059
-0.07860615 -0.38684273 0.37816387 -0.66909117 -0.30485588 -0.22466798 0.020323258 -0.53260297

sequential/dense_1/MatMul f4 [64, 64]
00000000: d6a4 dfbe 1ccb 913e f4dd dc3d 63cf f03d
00000010: 7751 19bd ac7b 923e 6669 cdbd 6fe3 abbe
00000020: 9e2c 913e 22fb b23d eb60 963c 93c2 afbe
00000030: f44f 193f af06 6bbd d6b2 a53d d6cb 35be
00000040: 2b8d d8bd d80e adbe 1899 573e 1055 22bd
00000050: 13eb 3cbc 5ae9 72bd 868d acbd 484b 653e
00000060: a9f8 7dbe 4eac 973e 236a ec3d 9b58 4d3e
00000070: e6d2 41bf 902d a9bb cb4a de3d 9c48 81be
00000080: 5c78 4f3e aea9 8b3d 7e2d a2be 296f 9d3d
00000090: f871 043e 2da3 0bbe 6153 ba3c 6b73 61bd
000000a0: 0c35 533c 4b43 b33d 1727 573e f753 983e
000000b0: a04a 0dbe fbcd 963e c6cb a73d 3480 26be
000000c0: b4a5 2abe 787b d2bd 3d3d 49bc 17a8 e53e
000000d0: 4ab5 ca3d 300c d03e f08d 803d 76fb 10bf
000000e0: 7573 b23e d039 a33e 3133 5e3e 68ad 6b3e
000000f0: bd5e 81be e5b7 94bd f313 16be 582f 383e
00000100: 40a2 563e 6052 c1be 8dfc f1bd 6763 65bd
00000110: e973 fcbe 79c0 d4be d41d f03d 435e 003e
00000120: 53fe c63c 3259 f3bd 6fa0 4c3e 2ee6 62be
00000130: 9961 06be b115 09bf c690 d5bc 454c debd
00000140: eb64 8d3e 65f4 673e 7817 b33e 62a1 873e
00000150: 94c0 623e fd38 cbbd 24d2 993e d868 a3bd
00000160: a964 cebe 9ae1 82be 3f36 90be 7972 853e
00000170: e4d2 7fbc 72e1 26be 2d5d 01bf 842c fabe
00000180: e7d5 a53d 19f2 ce3d d537 843e afbd 1e3e
00000190: 0d10 d83d 7408 61be f32e 81be bc68 ba3c
000001a0: 5302 00bd a28b edbe d96d ebbd bcd9 34bd
000001b0: 00c2 a03e 452d 22be 09fc f8be ce48 02be
000001c0: ea2b 3fbe 7ebd 9b3d cd3f 02bf 5298 28bf
000001d0: dd07 65bd d1d7 bbbe f05f 87be 265f cd3e
000001e0: 15ce 123e fe15 633d 93b6 57be dd6e 72be
000001f0: 0c43 e3be 131e 9c3d 406f c3bd b58f 2a3c
00000200: 5305 2bbf 591d 48bd e2c2 e43e 9d54 433e
00000210: e198 6f3e 97aa 543e 5bad 2bbd 5d56 0ebf
00000220: 4db3 0e3e 4a70 823c 4464 2dbe 3987 523e
00000230: 3990 a33d 37e5 ad3d aeb2 ebbd e807 06bf
00000240: 45a2 fabe 838d 65be 99a3 19bf 4aee c83d
00000250: b94d 23bf 3f6d cabe dde8 debe 48ee 8bbd
00000260: 3934 b13e 78a1 813e 4ad1 413e 63fd df3e
00000270: f7ab 97be 654f a43e e277 f93e 6b6e 0a3e
00000280: 84ec ae3e ac6e ba3e f905 1dbe 7177 143e
00000290: d4f4 9bbe b250 083d 43bc 1c3e de9d ff3e
000002a0: 71c3 723e 0bce 533e 0bc2 0abe 89b5 3b3e
000002b0: d9de 1c3d 8df6 553e 4f44 783e fdda 573e
000002c0: 8f85 a13d f850 46be 7351 613e 7661 d63e
000002d0: 11c9 7f3e d46a d93e 5253 de3d 96ba 16bf
000002e0: 388e df3e 15fb 0b3f 56af e53e 7fb9 523e
000002f0: c0e7 563e e05c 6dbe 47c7 cabe 1f65 b03e
00000300: d846 853e d96f a7be c2a7 90be f443 afbe
00000310: df13 93be 07dd 29be 6ffb 0e3d 97bb 0abd
00000320: 7fa8 e33c 0dbf a6be 6020 a93d 626e 073d
00000330: 76a4 e1be 831e 15be 301c bcbe 732e ca3e
00000340: d5ba fd3e 7ba3 9fbd 54a6 f03e 2fb5 883e
00000350: 92e4 783e 8e09 e63e 1c59 af3e d160 12be
00000360: 2dae 48be c5e5 73be 3a8d 5a3e 7a7d e73d
00000370: c884 b83c 05cb 84be 5a72 4c3e 67cb 3bbe
00000380: d449 4fbe b978 13be d39e d63e 6047 f4bd
00000390: d055 a23e 45e5 1abe a2bb 833d 904e 2cbe
000003a0: 645b 2d3e 7f29 b7bd d754 cdbd f090 85bd
000003b0: a9ae 493e 2bd1 fbbd ddab d33d df0a cc3d
000003c0: 1f6c babe 603d 4abe 7bc8 0bbe dfbf 1d3e
000003d0: 72a7 86be 7d32 bdbe 170d 8dbe dc61 1d3e
000003e0: 8f15 623e 9de3 9cbc 1e93 aabd cbd1 8fbe
000003f0: 6a50 9bbd 287c 8b3e 6fea a93e 1e89 a73d
-0.43680447 0.28475273 0.10784522 0.11758306 -0.037431207 0.2860998 -0.10029869 -0.33571956
0.28354353 0.08739306 0.018356761 -0.34328136 0.59887624 -0.05737942 0.08090751 -0.17753538
-0.10573801 -0.33800387 0.21054494 -0.039631903 -0.011530655 -0.059304573 -0.08425431 0.22391999
-0.24801888 0.29623646 0.115436815 0.20053332 -0.7571243 -0.005162902 0.108541094 -0.2525071
0.20260757 0.06819473 -0.31675333 0.07687218 0.129341 -0.13636465 0.022744836 -0.05504171
0.012891065 0.087530695 0.21011005 0.2975156 -0.13797998 0.29454026 0.081931636 -0.16259843
-0.16664773 -0.10277456 -0.012282667 0.44854805 0.098978594 0.40634298 0.062770724 -0.566337
0.34853712 0.31880045 0.21699215 0.23015368 -0.25267592 -0.072616376 -0.14656048 0.1798681
0.20960331 -0.3775816 -0.11815748 -0.056003 -0.49307182 -0.41553095 0.11724439 0.12535958
0.024291193 -0.11882247 0.19983076 -0.22158119 -0.13123168 -0.53548723 -0.02607001 -0.10854391
0.27616057 0.22651823 0.34978843 0.26490313 0.22143775 -0.09922979 0.30043137 -0.07978982
-0.40311173 -0.25562745 -0.28166386 0.26063898 -0.015614245 -0.16296938 -0.505328 -0.48862088
0.08097439 0.1010477 0.25823846 0.15502046 0.105499364 -0.21975881 -0.25231132 0.02275502
-0.031252217 -0.46395594 -0.11495561 -0.04415296 0.3139801 -0.15837581 -0.48629788 -0.12723085
-0.18669096 0.07604502 -0.508786 -0.6585742 -0.055915702 -0.36688092 -0.26440382 0.40111655
0.14336427 0.055440895 -0.2106574 -0.23675103 -0.4438709 0.07622924 -0.09542704 0.010410239
-0.66805 -0.048856113 0.44679934 0.19075246 0.23398162 0.207682 -0.04191337 -0.5560053
0.13935585 0.015922684 -0.1693278 0.20559396 0.07986493 0.08490985 -0.1150869 -0.52355814
-0.48951927 -0.22417264 -0.60015255 0.09811075 -0.6379047 -0.39536473 -0.43537036 -0.06832558
0.34610155 0.25318503 0.18927494 0.43748006 -0.29623386 0.32091823 0.48724276 0.13518684
0.34164822 0.3641256 -0.1533431 0.14498688 -0.30460227 0.033280082 0.15306191 0.4992513
0.23707367 0.20684068 -0.13550584 0.18330969 0.03829846 0.20894833 0.24244808 0.21079631
0.078868024 -0.19366825 0.22003727 0.41871232 0.24979044 0.42464316 0.10855736 -0.5887846
0.43663192 0.54679996 0.44860333 0.20578574 0.20986843 -0.2317996 -0.39605162 0.3445215
0.26030612 -0.3270252 -0.2825299 -0.34231532 -0.28726098 -0.16588221 0.034907755 -0.033870306
0.027790306 -0.32567635 0.08258128 0.033064254 -0.44070786 -0.1456242 -0.36740255 0.39488563
0.49556604 -0.07794853 0.47001898 0.26700732 0.24305943 0.44929165 0.34247673 -0.14294745
-0.19597693 -0.23818119 0.21342936 0.1130323 0.022524253 -0.25936142 0.19965497 -0.1833931
-0.20243007 -0.14401521 0.41918048 -0.11927676 0.31706095 -0.15126522 0.064322725 -0.16826844
0.16929394 -0.089434616 -0.100259475 -0.06521785 0.19695534 -0.12295755 0.10335515 0.09963011
-0.36410615 -0.19749975 -0.13650696 0.15405224 -0.26299626 -0.36952582 -0.2754905 0.15369362
0.22078536 -0.019151503 -0.083288416 -0.28089747 -0.07583697 0.2724316 0.3318667 0.0818045

sequential/dense_2/MatMul f4 [1, 64]
00000000: a82e f4bc 624d e6ba bc88 283c 27b0 9c3c
00000010: a496 4bbd df46 f73d 5cae 57bc fb4d 0a3d
00000020: e866 183c 6485 a3be a917 e1bc dbd0 603d
00000030: 0f1e df3d 0f24 4f3d 6f72 ff3d 5cd7 053e
00000040: fd5e 4ebd e3aa 38bd 33c8 0cbe 734d 083e
00000050: c0cb 013e 40dc a9bd 2373 91bd 91ce a53d
00000060: 2609 603d e60a b1bd 2296 653d 95ae bdbd
00000070: 0ae1 62bc aa73 cfbd e9dd dfbb a306 d73d
00000080: 641c f33d a8de 49bd 7a49 ad3d 2d16 96bc
00000090: b19f aebd 38ca 3b3d 8ed6 383d 5274 373d
000000a0: 6fa5 693c c49c f0bc 5034 923d 8472 6bbb
000000b0: 7655 423d 4d55 cc3d 4318 69bd ffd6 bd3c
000000c0: 191d aebc 0136 9abc 6444 adbd 7ee5 e5bc
000000d0: 8080 21bd bbee 65bd 4f8a 62bd f346 283d
000000e0: 3cba 513d f573 ba3c 7d48 043d d7a2 f43d
000000f0: e71a 2f3d 9d11 b73d dbef 083a 130b 333c
-0.029807404 -0.0017570669 0.010286506 0.019126965 -0.04970421 0.120740645 -0.013164129 0.033765774
0.0093018785 -0.31937706 -0.027477102 0.05488668 0.10894405 0.050571498 0.12472998 0.13070434
-0.050383557 -0.045084845 -0.13748245 0.13310795 0.1267538 -0.082939625 -0.07102039 0.0809604
0.054696225 -0.08644657 0.05605138 -0.092618145 -0.013847599 -0.10129483 -0.0068318737 0.10499313
0.118706495 -0.049284607 0.0846128 -0.018321121 -0.085265525 0.045847148 0.04512649 0.044788666
0.014260634 -0.029371627 0.07138884 -0.003592641 0.047444783 0.09977207 -0.056907903 0.023173807
-0.02125411 -0.01882458 -0.0846031 -0.028063532 -0.039429188 -0.056135874 -0.055307683 0.041083287
0.051202998 0.02276037 0.032295693 0.11945122 0.042750265 0.08938906 0.00052237295 0.010927933

sequential/bidirectional/backward_lstm/Read_2/ReadVariableOp1 f4 [80]
00000000: 5392 5f3e 1cb6 cebd 3128 043f 460c 4fbe
00000010: c8b1 8f3d 60f3 fb3d d84c 05be e42f 813d
00000020: c68f ce3d 37ca fdbd 7f66 82bd 7cdc 22be
00000030: 59b7 343e 5c2e a4be 7a09 1cbe 98d8 e23c
00000040: a5e1 4dbe 3269 23be 74f0 f7be 100b e2bd
00000050: 4855 933f 6678 843f 31dd 8a3f 8fc3 913f
00000060: 0083 7e3f 2db0 773f 4d69 573f a012 783f
00000070: b555 793f 89ab 793f e383 4e3f 5b86 473f
00000080: 3d88 433f 4096 973f c8cd 4b3f 2875 963f
00000090: 0fe3 893f 8a4d 583f 3b99 863f 48d4 b63f
000000a0: cc46 573f c771 f8be 3253 bf3e 19dd e93e
000000b0: 0ee1 bbbe 5bcc 88bb abda aabe 52cf acbe
000000c0: 75ee 073f 67aa 023f 9859 f73d c299 453d
000000d0: b999 e03d a630 06be cc17 243e 40fc d83e
000000e0: d6d6 023f 9a4f 833e b688 9d3e 2509 14bf
000000f0: c187 d63e 5d6a 2dbe 7552 8f3d 5c63 38be
00000100: 644e 30bd 6a49 06be da5e a43e bed0 913c
00000110: 98d4 583d d3b4 f83c 2c2f 7bbd 82e3 c73e
00000120: 6ea2 3abc 6c3b 2f3c 368b e63d 96df 07be
00000130: d57f 3fbe a346 73bd 30cb 50be faef 743d
0.21833162 -0.10093328 0.5162383 -0.20219526 0.07016331 0.123022795 -0.13017595 0.063079625
0.10086016 -0.12392085 -0.06367206 -0.1590442 0.17648067 -0.3206662 -0.1523799 0.02769117
-0.20105608 -0.15958098 -0.4842564 -0.11037266 1.1510401 1.0349243 1.0848752 1.1387805
0.9941864 0.967532 0.8414505 0.9690342 0.97396404 0.97527367 0.80669993 0.77939385
0.7637976 1.1842728 0.7961087 1.1754503 1.0772418 0.84493315 1.0515512 1.4283533
0.840924 -0.48524305 0.3736816 0.45676497 -0.3669514 -0.0041747517 -0.33369955 -0.33751923
0.5309823 0.51041263 0.120776355 0.048242338 0.1096682 -0.13104495 0.16024703 0.4237995
0.51109064 0.2564667 0.30768365 -0.57826453 0.41900447 -0.16935106 0.06998149 -0.18006653
-0.04304351 -0.13113943 0.32103616 0.017799731 0.05293712 0.030359661 -0.061324283 0.39040762
-0.011391265 0.01069532 0.11257021 -0.13268885 -0.18701108 -0.059393536 -0.2039001 0.059799172
