models/model.tflite (tflite, 477000 bytes, 23 tensors)

sequential/conv2d/BiasAdd/ReadVariableOp f4 [32]
00000000: a747 5b3e 4a1f 6d3d 6381 903e 156d 143e
00000010: fd9d ee3c 32ae 833b 7247 ac3d 32bf 653d
00000020: cb86 ff3d 2bac 833d 37fd 0e3d f05a 5b3b
00000030: ede2 8d3d a67a a03e 7503 04bd 84fb d4bd
00000040: 7631 813e ceb4 963d 2260 5e3e 2215 d33d
00000050: bcd5 673e 677c 7e3e 269d 2e3d 20b8 503e
00000060: 3b90 3c3d 2f3c ac3e 93dc 1e3e ef06 843c
00000070: 9c73 ed3d 132c 3c3b 3456 ca3c d3e5 2c3e
0.21414052 0.057891168 0.28223714 0.14494736 0.029128069 0.0040185684 0.084120646 0.05609054
0.124768816 0.06429323 0.034909453 0.003347095 0.06928048 0.31343573 -0.03222986 -0.10399535
0.25233048 0.073587045 0.2171636 0.10306765 0.22640127 0.24852143 0.042630337 0.20382738
0.046035986 0.33639666 0.1551383 0.016116587 0.11594316 0.0028712794 0.024699308 0.16884546

sequential/conv2d_1/BiasAdd/ReadVariableOp f4 [64]
00000000: 0f70 853d 040a 163e 7e79 84bd c573 473e
00000010: 8053 bb3c 2947 de3d 6d02 1e3e 1810 eb3d
00000020: 21bf 84bc dd30 01be f5e9 9fbd 4779 193d
00000030: 06f6 b7bd 0a9c 293d 555a 143c ecb5 31bd
00000040: 6aa4 e33c 4d9c 38be 115c 953b 4a35 983e
00000050: fdb6 973c c241 3f3e f180 d73d a4db ae3d
00000060: 68ed a53d 69dc aa3d fefd 0f3d 113f 2a3e
00000070: 4784 f2bc f8e7 05bd 0036 b93c ee13 563e
00000080: fd02 93be 9d99 333e 17ea de3d 5384 083d
00000090: 238b b3bd 4997 353d a56f e6bc 0913 46be
000000a0: 0a19 343e 571e 4a3e 57f7 cf3d a4c0 cebe
000000b0: 0908 853c 8581 8e3d 7df1 853d 840f e93d
000000c0: 762f 80bd adf8 013e 2dbb 123d 74b8 4f3e
000000d0: c745 513c c792 9dbe 79e4 163e f746 793e
000000e0: 7dd7 e33d fac2 f8bd 1589 293e 8bdf 07be
000000f0: 9a8f 483e b1cf f4bd 4f52 57be f987 393d
0.06515514 0.14652258 -0.06468485 0.19477756 0.022866964 0.108534165 0.15430613 0.11477679
-0.016204419 -0.12616296 -0.07808296 0.037469175 -0.08982472 0.041408576 0.00905474 -0.043386385
0.02778836 -0.18028374 0.0045580943 0.29728156 0.018519873 0.18677428 0.105226405 0.08537987
0.08101922 0.08342821 0.035154335 0.1662562 -0.02960409 -0.032691926 0.022608757 0.2090604
-0.28713217 0.17539068 0.10884493 0.03332932 -0.087667726 0.04433373 -0.028129408 -0.19343199
0.17587677 0.19738136 0.10154598 -0.40381348 0.016239183 0.06958298 0.06540201 0.113799125
-0.062590525 0.12692519 0.035823036 0.20285207 0.012772984 -0.30776045 0.14735593 0.24343477
0.111250855 -0.12146564 0.16556199 -0.13268869 0.1958603 -0.119536765 -0.21027492 0.04529569

sequential/conv2d_2/BiasAdd/ReadVariableOp f4 [128]
00000000: 52bd c33d 77d1 f2bb 65dc 0cbc 34fb c8bc
00000010: 3b92 d5be cf72 33bb 5218 5fba 13b2 863c
00000020: fd8f 5ebd 4002 71bd 698a 06bd efc9 54bd
00000030: 3895 2bbe 5068 a6bd 5999 693e 6961 81bd
00000040: 909f 233e d066 9ebd fbbb 383e 7fbf b1bd
00000050: 9ee8 8e3d df95 c5bc 063c a6bc c22e 3abe
00000060: 055a 853e d7d2 69be d96f 073e 1bbc 6c3d
00000070: 3930 a3bc e585 7fbc d3e5 ac3d 86b5 983d
00000080: 07ac 78be df88 61bd 3ac0 1d3c b12d d7bd
00000090: 2a3a 623e a396 d9bd bbe1 f23c 5293 88bd
000000a0: 57fa bebd 2bf6 e1bd d585 24be c8a4 b3be
000000b0: 65db dbbd fe90 6ebd 3431 ca3b dbb0 d83c
000000c0: 7773 95bd 3e46 07be 76ec f7bd 1716 fc3d
000000d0: e45c bc3c 1e91 4a3d 03a0 28be 20fb beb9
000000e0: 9a39 8fbd 7728 2c3e 1bdf 47be 67e6 9cbe
000000f0: 3161 383c 22f8 1a3e 4950 d8bd aad0 4e3d
00000100: 326e ddbd a658 14be 07ca 2a3e 976d 6bbd
00000110: 0b2a 2bbe 4008 1cbd 3529 b2be 5c59 d83d
00000120: 2819 85be 659d fc3d fe25 90bd e68a d7bd
00000130: c6c8 18bd f840 e8bd 5533 ddbd 9ac1 b2bd
00000140: 31b5 cbbc de01 bf3c 1d52 cc3d b3b7 e9be
00000150: d636 0dbd 1090 91bd 2c73 ce3d 1eb1 923d
00000160: 9508 233d 13cb 91bd 6be0 3abe 3aa4 3fbd
00000170: 9684 f23d aaab 5fbd a0e7 493d be0c 3bbe
00000180: 664f 803e fd04 7abd 6cc7 84bc 4a77 093e
00000190: cc3e 07bd 4074 b6bb 0f77 db3d 025c 573e
000001a0: e1ca 24bd c49e 8cbc 3730 053b 6f41 a93d
000001b0: d04e 8ebc 4c54 b03d 7774 203b e752 babc
000001c0: 0342 d7bd c043 39be 3d6e 52bd 6535 18be
000001d0: de3c f8bc 16ef 97be e57b 71be 0ebf 5a3e
000001e0: dace 46bd d356 2e3e 3353 68bd c084 5bbe
000001f0: c937 56be 5899 9cbd 9e60 03be a521 ca3d
0.09557594 -0.007410224 -0.008597468 -0.024533845 -0.41713127 -0.0027381664 -0.0008510399 0.016442334
-0.054336537 -0.058840036 -0.032846842 -0.05195039 -0.16756141 -0.08125365 0.22812404 -0.06317408
0.15978837 -0.07734454 0.18040459 -0.08679103 0.06977962 -0.024119316 -0.020292293 -0.18181899
0.26045242 -0.22834335 0.1322626 0.05779658 -0.019920455 -0.015595888 0.08442273 0.07456498
-0.24284373 -0.05506217 0.00962835 -0.10506762 0.220925 -0.10624435 0.029648652 -0.06668724
-0.09325092 -0.11033281 -0.16066678 -0.35086656 -0.107352056 -0.058243744 0.0061704163 0.026451519
-0.07297414 -0.13210389 -0.12105648 0.12308901 0.022993512 0.0494548 -0.1646729 -0.00036426727
-0.069934085 0.16812311 -0.19518702 -0.30644533 0.011253641 0.15133718 -0.10562188 0.050491966
-0.10812034 -0.14486942 0.1667863 -0.05747756 -0.16715257 -0.038093805 -0.34797063 0.10563919
-0.25995755 0.12334708 -0.070384964 -0.1052454 -0.037300847 -0.11340517 -0.108008064 -0.08728333
-0.024866672 0.02331632 0.09976599 -0.45647964 -0.034476124 -0.07107556 0.10080561 0.07162689
0.039803106 -0.071188115 -0.18249671 -0.046787478 0.11841695 -0.05460707 0.04929316 -0.1826658
0.25060576 -0.061039913 -0.016208373 0.13424411 -0.033018872 -0.0055680573 0.10716068 0.21031192
-0.040232543 -0.01716555 0.0020322928 0.082644336 -0.017371565 0.08609828 0.002448348 -0.022744609
-0.105106376 -0.18092251 -0.051374663 -0.14864118 -0.030302461 -0.29674596 -0.23582418 0.21361944
-0.048537113 0.17025308 -0.05671997 -0.21437359 -0.20919718 -0.076464355 -0.12829825 0.098696984

sequential/conv2d/Conv2D f4 [32, 5, 5, 1]
00000000: 2cdb 88be de48 a1bd 87f7 ee3d 40a8 613d
00000010: c0c8 b1bd c880 bd3d c80c 383d 163c da3c
00000020: c093 68bc 936a 56be 87c8 343e c3d8 33bd
00000030: 80ec aabd 5790 17be aa4d 33be d4f2 d13e
00000040: 00d0 21bb 7fcf dcbd 3632 963d 2647 1cbe
00000050: 758c 403e 439b 21bd 7f0d d6bd 0b49 b5bc
00000060: e95f babd 91c8 72be 0e5e febd a85d 6ebe
00000070: 5c6b 3bbe 050b 39be 15c7 e43d 0432 84bd
00000080: b153 32be 4f15 94be 22e7 14be c1ae 253e
00000090: 80dd 103d 3f72 b6bd a0f4 b3bd 87e6 80be
000000a0: 22b2 8b3c f699 7f3e 4c16 8b3d f638 063e
000000b0: 2fa1 07bd 2630 a7bc 38fc dd3d 6917 093e
000000c0: fa8f 953d 4a57 043e 7811 34be 6fda adbe
000000d0: f7cc 9ebe c870 0bbe b5c1 07be 4cbe 5bbe
000000e0: 5caf 6dbe 2a79 0dbe 9538 0ebc c5b0 203e
000000f0: 5b6e d5bc 9d4e cbbd 638f 93bc a9e8 483d
00000100: 4233 f13d 31ba f03c 8a02 48bd 88af 53bc
00000110: 58fa 253d b218 aebc bfcc 123d d747 d3bc
00000120: 7b73 963e 6827 233e 50be debd d2d0 333e
00000130: e5ef 293e 29ed 313d 3e86 08bd b69d 92be
00000140: ea69 f03d 1b24 0c3e 9c97 c53d c454 89bd
00000150: 4ae0 69be ad6e 493e 34ba 823c 6150 d13d
00000160: f8c1 98bd 0448 d6bd 4bd7 da3d 7abf c13d
00000170: f665 8a3d dabb 01be 78ad 01be 4345 6f3e
00000180: 5e20 093e 2517 2a3d bbce 3cbe be0b 58be
00000190: 0232 92bd b7fb e6bd 14ad e73d 9155 943e
000001a0: bee3 29be fdd7 8dbc f468 293d a5d5 933d
000001b0: bf3a c43d b96f 92be 78d3 debc a69b fd3d
000001c0: 9ae6 793c 3765 8cbe 05cf cbbe daae cb3c
000001d0: 0fa7 503e 67aa 8dbd 5ff5 84be 8fce bcbe
000001e0: e977 163d f871 8bbc fa86 a4be 55fe d0bd
000001f0: 18b7 24be 68bf ff3c a1e3 203e e212 d43d
00000200: 51bf cf3d df83 6bbd 0235 443b e7c8 c73d
00000210: c3ab da3d 29db d5bd d05f c4bd fdb8 39be
00000220: 7ad3 5bbe 7269 89be c34a 83bd dd3f 7cbe
00000230: c9c5 1dbe cb20 03be c4a0 0d3e 04c7 4dbd
00000240: c319 bbbd eec5 db3d 7785 7b3e cae9 583e
00000250: a329 81bd bd4f 48be 1f2c 5bbe 1795 23be
00000260: ca5b 1ebe e1e2 023e 4564 833e 1a76 a73c
00000270: 2659 c9bd 3ad4 a6bd 6d69 883d 666c 623d
00000280: bc54 3e3e 2096 103e 53e0 c8bb 3590 d4bc
00000290: 3701 87bc 0f82 343e 3294 753e 4cbd e73d
000002a0: 3580 433e 6e02 113e d788 933d cea6 a4bc
000002b0: a9eb 393c 0d92 443e 9384 26be 8e3a c3bd
000002c0: d263 2bbe 06b1 ca3d e043 0b3d b88f 393e
000002d0: 0629 62bd 45c0 23be af97 12be 3ee8 b03d
000002e0: 4c36 513b d47f 13bd 08e1 8fbe 297c afbe
000002f0: 4687 00be 611d 09bd 39fd 203e 18d6 16be
00000300: 0edc 69be cd86 afbe 5ff1 d8bd 298a 1d3e
00000310: 2c7a cb3d 0679 e2bd 717b 41be 7731 80be
00000320: 599c 3f3e b96c a63d 807c 6f3c 1b0f a3bd
00000330: 1a23 82be 1616 82bc 0972 55bd b043 d3bd
00000340: 0144 0bbe e2cb 05bf cffc f33d 2235 93bb
00000350: a2d1 3b3d 266b 57bd ec40 fdbe 5ced b8bd
00000360: 07f7 02be 308d 8a3d ec69 29bd 130e 1cbf
00000370: b972 11be bf94 4f3c dd14 423d 7a94 d63c
00000380: aba9 d7be 465d 913d 1e19 653e 2fda b13d
00000390: caac 8dbc dab0 64be 0cb6 273e 6c59 0539
000003a0: 6612 b1bb b867 4abe 8126 83be 36ce 013e
000003b0: c162 cbbd 6e09 b8bd 4776 22be 181f c3bd
000003c0: a250 333d f6f7 96bd fe08 b9bc d455 65bd
000003d0: c42a a33d 0a2a b4be 90d1 4abe 6c23 53be
000003e0: 56eb d2bd 6077 4f3d 24e6 39bd e8ee dabb
000003f0: 9409 be3d 600b f43c fe6d 9abc 877b ab3d
-0.26729715 -0.078752264 0.11668306 0.055092096 -0.08680868 0.09253079 0.044934064 0.02663998
-0.014195383 -0.20939092 0.1765462 -0.043907892 -0.0834589 -0.14801155 -0.17510095 0.41005576
-0.0024690628 -0.10781764 0.07333796 -0.15261516 0.1880358 -0.03945471 -0.10451793 -0.022129556
-0.09100325 -0.23709323 -0.12420283 -0.23277915 -0.18302673 -0.1807061 0.111707844 -0.06454852
-0.17414738 -0.28922507 -0.14541295 0.16179945 0.03536749 -0.089085095 -0.08786893 -0.25175878
0.017052714 0.24961075 0.06791362 0.13107666 -0.0331127 -0.020408701 0.108391225 0.13387837
0.07302852 0.12923923 -0.17584789 -0.33955714 -0.3101575 -0.13617241 -0.13257487 -0.21459311
-0.23211426 -0.13815752 -0.008680482 0.15692432 -0.026053598 -0.09927104 -0.018012708 0.049050007
0.11777355 0.029385658 -0.048830546 -0.012920268 0.04052195 -0.02125201 0.035839792 -0.025791092
0.2938498 0.15933001 -0.10876143 0.17560127 0.16595419 0.043439064 -0.03333115 -0.2863595
0.117389515 0.13685648 0.09648058 -0.06705621 -0.22839466 0.19671126 0.01595793 0.10220409
-0.074588716 -0.10462955 0.10685595 0.094603494 0.06757729 -0.12669316 -0.1266383 0.23366265
0.13391253 0.04152598 -0.18438236 -0.2109823 -0.071384445 -0.112784795 0.11312309 0.28971532
-0.16590783 -0.017314905 0.041359857 0.07218484 0.095815174 -0.28600863 -0.027200446 0.12383203
0.015252734 -0.2742097 -0.3980638 0.02486365 0.20376228 -0.06917267 -0.25968453 -0.36876342
0.03673545 -0.017022118 -0.3213423 -0.1020476 -0.1608547 0.0312192 0.15711834 0.10355164
0.101439126 -0.05749881 0.0029938822 0.09755116 0.10677292 -0.10442192 -0.09588587 -0.18136974
-0.2146739 -0.2683826 -0.06410744 -0.24633737 -0.1540748 -0.12805478 0.13830858 -0.050238624
-0.09135773 0.107311115 0.24562632 0.21182933 -0.0630677 -0.19561668 -0.2140355 -0.15974842
-0.15464702 0.1278186 0.25662437 0.020442057 -0.09831457 -0.08145948 0.06660733 0.055279158
0.18587011 0.14119768 -0.006130257 -0.02594767 -0.016480071 0.17627738 0.23982313 0.113154024
0.19091876 0.14161083 0.072038345 -0.02009907 0.01134769 0.19196339 -0.1626151 -0.09532653
-0.16737297 0.09897046 0.034000278 0.1812123 -0.055214904 -0.15991314 -0.14315675 0.08638047
0.0031923233 -0.03601058 -0.28101373 -0.34274414 -0.12551603 -0.033475284 0.15721597 -0.14730108
-0.2283785 -0.34282532 -0.10592913 0.15384735 0.09935412 -0.1105824 -0.18894745 -0.2503774
0.18711986 0.08126206 0.014617085 -0.079618655 -0.25417405 -0.015879672 -0.052110706 -0.10315645
-0.1360016 -0.52264225 0.11913454 -0.004492418 0.04585422 -0.05259242 -0.49463594 -0.09029648
-0.12789546 0.06765211 -0.04136078 -0.60958976 -0.1420392 0.012669741 0.047383178 0.026193846
-0.42121634 0.070978686 0.22372863 0.08684193 -0.017294306 -0.22333089 0.16378039 0.0001271718
-0.0054038046 -0.19766128 -0.25615314 0.1267632 -0.09930945 -0.089861736 -0.15865432 -0.09527415
0.04377807 -0.073715135 -0.022587296 -0.055990055 0.07967141 -0.35188323 -0.19806504 -0.20618981
-0.10298793 0.050650954 -0.045385495 -0.006681312 0.09279171 0.02979058 -0.018851276 0.0837317

sequential/conv2d_1/Conv2D f4 [64, 3, 3, 32]
00000000: 6acd 5cbd 4dea 0ebe dbb2 873c 2297 073d
00000010: f505 0a3d 4f2b 83bd 60b7 8cbd 27ad 0fbe
00000020: 5b60 36bd 1b62 373e 3d3a ca3c b32f 53bd
00000030: 191b 14bd 83b7 babd fa0c 08bd 5695 febd
00000040: b82d 0fbe 1dca 1b3c b35d 643d 7a53 903c
00000050: e5a2 99be 5476 7f3d bdf2 a23d e9cd 56bd
00000060: 7fc7 2bbe 7867 7b3e d49b 1f3d 653e 603c
00000070: eba0 003c 09bb f0bd b2f8 30be 011a 16be
00000080: 1ba3 b83d 9668 b63d bedd abbc 7385 193e
00000090: 8c1f 8ebd 796b 8e3e 24cd 383d eb9b 91be
000000a0: f9a8 b2bd 1ce3 673d 8ae3 46bd f2ae 253d
000000b0: 2307 1cbe da7b 4bbe e2c1 86be cd79 0e3d
000000c0: b74e 6dbd 2cbe 8abd f7cc df3c c714 913d
000000d0: 481e 953d 4718 1e3e b2f7 dabc d316 1a3e
000000e0: ebc9 a23d a3f2 fd3d a117 1bbe d55f 54bc
000000f0: d528 9bbe 5610 6cbe 6dc6 5fbd e72d 753d
00000100: 2a1f 9c3e 8a0c 17be 4f41 f23c 8679 bf3d
00000110: daa1 75be a552 bf3d 2b00 babd 4d25 1bbe
00000120: a022 7dbe 6484 b73d ca89 443e 3203 a9bc
00000130: ea6f 65be 0809 ba3d 3003 2dbe bb9a 94be
00000140: 70d6 463e 344c 0dbe d088 a13c 6bd0 3abd
00000150: c669 1fbe b44b a6bd 9c04 6dbe 25df ec3d
00000160: 79c2 0ebe 2c0c 81bd c2db 53be 4cb1 02be
00000170: 413e 68be 61ef 70bd be6b 43be 8d4a be3d
00000180: c943 1abd 4679 1bbe 2c81 2fbc df6e b83c
00000190: 68ff 433e e2b6 093d 4658 10be e66d b8bd
000001a0: 6ec5 ae3c b8c3 153e c223 823e 7f3e 26bd
000001b0: 9317 c5bc 19b4 973d e807 8bbd 1e1c 1cbe
000001c0: 82fa 643e d702 a8bc 0e8b 683c 5ff9 843c
000001d0: b464 36be 0d2e 683e c402 fdbd e08c a0bd
000001e0: f89e a53c 8269 183d 0765 753d 2912 a7bd
000001f0: 6e67 89bd bf0a 213e 1de3 3abd cbc2 3dbd
00000200: 1dfe 35be ca8c 69be c77a 12be 8e8d fd39
00000210: 2f17 afbd ca51 6d3e ee7a abbd 4c32 80be
00000220: 2e24 89bd 63b0 5dbc 0798 4b3e 85c7 29be
00000230: 6c88 f7bd 1739 c93d bf59 80be aaa4 34be
00000240: f8dc fcbb f5a0 b6bd 784a d73d d8d5 e9bd
00000250: a004 b1bd 039e 323e 9fc7 a1bd 594d 2b3d
00000260: 103d f53d 95e4 093d a30b 88be 474d 963b
00000270: 40f7 453e d0e1 013d 60cf f6bd 6262 18be
00000280: 9f5a c7bd c2ca 46be ac5b 4bbe a255 fdbd
00000290: 283d 15be 6351 073d 3be8 0fbe 551c abbd
000002a0: 5dd3 79be 2dd7 87bd 1e38 3c3e 831c 08be
000002b0: faae 47be 7122 373e c313 62be ce55 58be
000002c0: 70d7 ab3b 257a 2bbe 4b0b 2d3e 18ff efbd
000002d0: 1d76 11be faa7 9f3d 3fcc 44be 9f71 72bd
000002e0: 4d56 983d df30 77bd 3de5 14bd e0a5 68be
000002f0: b9a2 c1bc 7804 d63c 0d2a 81bd 21dc 1abe
00000300: d2d1 1bbf ee14 e0bd bf14 13be eb7b babe
00000310: 53b8 15be 9fae 11be e581 ecbe a5e7 133d
00000320: 1066 153e bca2 c83d d3ea a13d fa36 f7be
00000330: e601 653d ba08 983e da50 98be 30f3 debe
00000340: 7504 4f3e 5e02 9ebe 8277 4f3d 4f67 f9be
00000350: 4a23 87be 0892 b13d 7464 96be 5e48 2bbe
00000360: 8f3f fc3b da57 4d3b a19d 4ebe 38df a1be
00000370: 94fb df3c aed3 b5bd 0e09 c4be 327a 0cbd
00000380: 0ef9 56be 6de5 0c3b 0b62 a53c bb6c a7bd
00000390: 74f6 16be b5e4 163c a7d2 60be a4e7 8dbc
000003a0: a47a f43d 4eee 28bd b676 973b 9448 81be
000003b0: 1dda 9e3a c393 3e3d 0866 10be 1aa0 4fbe
000003c0: 32e4 3cba d7e6 6bbe 76c7 003e 8036 cbbd
000003d0: 9df8 003e 7ba1 ad3c e540 d3bd fda6 91bd
000003e0: 69ad 63bd 7a12 0ebe a179 9dbd ec21 7dbd
000003f0: decd a83d 391c 0fbe 199d 19be b40d aa3d
-0.053906836 -0.13956566 0.016564777 0.033103116 0.033697087 -0.06404745 -0.068709135 -0.14030896
-0.044525485 0.17908518 0.024685973 -0.05155916 -0.036158655 -0.09117033 -0.0332155 -0.12430827
-0.13982284 0.009508637 0.05575342 0.01761793 -0.3000709 0.062368706 0.07956455 -0.052442465
-0.1677532 0.24551189 0.03896697 0.013686751 0.007850866 -0.11754424 -0.1728237 -0.14658357
0.09015485 0.08906667 -0.020979758 0.14992313 -0.06939611 0.2781637 0.045117512 -0.28439268
-0.08723635 0.056613073 -0.048556842 0.040450044 -0.15237097 -0.19871464 -0.26319796 0.034784127
-0.057936396 -0.06774554 0.027319415 0.07084041 0.07281166 0.15438949 -0.026729438 0.15047769
0.07948669 0.12399795 -0.15145732 -0.012962301 -0.3030459 -0.23053107 -0.054632593 0.05985823
0.30492526 -0.14750877 0.029572157 0.09349351 -0.23987523 0.09341935 -0.09082063 -0.15150948
-0.2472024 0.089607984 0.19193187 -0.020631406 -0.22405973 0.09083754 -0.16895747 -0.290243
0.19417739 -0.137986 0.019718558 -0.04560892 -0.15567693 -0.08119908 -0.2314629 0.11565999
-0.13941373 -0.0630115 -0.206893 -0.12762946 -0.22679998 -0.05882204 -0.19084069 0.09291563
-0.0376623 -0.15182981 -0.010711949 0.022513805 0.19140399 0.033621676 -0.14096174 -0.090053365
0.021334376 0.14625442 0.25417906 -0.040586945 -0.024059093 0.07407398 -0.06788617 -0.15245101
0.22361186 -0.020509167 0.0141933095 0.01623219 -0.17811853 0.22673817 -0.12354043 -0.0783937
0.020217404 0.037209995 0.0599108 -0.08157761 -0.06709181 0.15726756 -0.04562675 -0.046328347
-0.17772718 -0.22807613 -0.14304648 0.00048361387 -0.08549344 0.23175731 -0.08373056 -0.25038373
-0.06696354 -0.013530823 0.19882213 -0.16580017 -0.12086567 0.09825342 -0.2506847 -0.1764094
-0.007716771 -0.08917419 0.10512251 -0.114177406 -0.0864346 0.17443089 -0.07899403 0.04182181
0.119745374 0.03366526 -0.26571378 0.004586849 0.193326 0.031709492 -0.120512724 -0.1488128
-0.097340815 -0.19413283 -0.19859189 -0.12369849 -0.1457411 0.0330366 -0.14053433 -0.08355013
-0.24397035 -0.066328384 0.18380782 -0.13292126 -0.19500342 0.17884232 -0.22077851 -0.21126482
0.005244188 -0.16745813 0.16898839 -0.11718577 -0.14205213 0.07795711 -0.19218539 -0.05919039
0.074383356 -0.06034934 -0.03635143 -0.22719526 -0.023637163 0.026125178 -0.06306849 -0.15123035
-0.60867035 -0.10941492 -0.14363383 -0.36422667 -0.14621095 -0.14226769 -0.46192852 0.036109585
0.14589715 0.09796664 0.07906117 -0.4828413 0.055910014 0.29694158 -0.29749185 -0.43544912
0.20216544 -0.3086118 0.05065108 -0.4871163 -0.2639411 0.086704314 -0.29373515 -0.16726825
0.0076980065 0.0031332881 -0.20177318 -0.31615615 0.027341641 -0.08878265 -0.38288158 -0.034296222
-0.20993444 0.0021499053 0.020188352 -0.081750356 -0.14742452 0.009209801 -0.21955357 -0.017322369
0.11937454 -0.04124289 0.0046223057 -0.25250685 0.0012119446 0.046527635 -0.14101422 -0.20275918
-0.00072056346 -0.23037277 0.12576088 -0.099225044 0.12594838 0.021195164 -0.10315112 -0.071119286
-0.0555853 -0.13874236 -0.076892145 -0.06179993 0.08242391 -0.1397561 -0.15001334 0.08303395

sequential/conv2d_2/Conv2D f4 [128, 3, 3, 64]
00000000: a5e9 e93d d4b5 6c3e 784a 7d3e c151 05bc
00000010: 9a08 613e 2478 db3c c07d 033e dfee 763c
00000020: f7a7 8e3e f14b dd3c 44a0 7dbe eb30 dcbd
00000030: 2f23 64be 4e31 ab3c 2f27 f4bd 1ee1 863e
00000040: 93ba 063e f0b8 4bbc 14b5 2f3d 915e b23c
00000050: 8486 efbd ee40 1cbe 0570 2a3e 61ab 84bc
00000060: c00f 093e 066a 853d 5e80 8cbe 59b4 273d
00000070: e7ca 113e 63e9 87be 51f9 94bd 3c13 443e
00000080: 9003 1dbe 35cd 103d 9306 e3bd ba58 2ebe
00000090: eda9 543e 8936 5b3e 0579 3fbc ca04 6c3d
000000a0: 6746 403e e25f 53be 2e5c 8cbd a5b0 a63d
000000b0: acfb c9bd e289 973d 3af0 50be d3c8 d43d
000000c0: 740d 68bd eb4e a6bc 41ae 95be 1a39 87bd
000000d0: ea5e 9b3d 6d69 8fbd 2d18 0cbe f44b ab3d
000000e0: 5402 10be d883 483d 3532 a63e 8f81 a23e
000000f0: 7875 08be c5f2 503e b1aa 13be f684 e7bd
00000100: 9221 6b3d ee9d 09bb eeb7 90bd 7ab0 dbbd
00000110: c86c febd 067a 173e df65 233d d8ff 353e
00000120: 5287 47be 14ac 2bbe 8f3f 2e3d 41f6 ab3e
00000130: bce5 f73c 20a0 003e 8528 a83d 4293 1bbd
00000140: 01ba 1abe 99c8 423d 1797 1bbe e6df 10be
00000150: e681 86ba 037c ff3c 4f5a 98bd c2d6 d33d
00000160: 6785 17bd e316 f63d 2206 4c3e efeb 073e
00000170: 1f66 193d f17e 0c3e 8dab bf3d 1096 e93c
00000180: fe8b 093d e231 5a3d 57cc 313e 7a7d 783e
00000190: bd22 863d d23a 4abc 8aa3 55bd 9561 693e
000001a0: 3102 be3d c472 8e3e 2c9f febd 3033 1dbe
000001b0: 45c3 513e 5bb4 8a3d 3147 91bd 94cb eebd
000001c0: 5c36 c4bc 1ff0 6cbd 1581 473e 05da fe3d
000001d0: a23f 803e bbf7 1bbe bbf5 843c ba61 4b3e
000001e0: dad8 b7bb ec95 693e b22e d1bc 23fe 7a3d
000001f0: 0333 7dbd 8ae2 463e ebfd 7a3d ef12 9e3d
00000200: ed4b 243e 942a 2abd c7dd 883d e3fe 5c3d
00000210: dfd6 d13d 786b 643e c51d 9dbd 0eea 983e
00000220: 3420 6dbe 2f6b c43c f741 9e3c 48c1 01bd
00000230: 1ec9 823c e397 44be 3392 833e 41f7 2dbe
00000240: cd3d 963d 9881 9c3d 4618 1abe c5d8 28be
00000250: b68b 8d3d 863d 76bd fbb8 413d a410 103e
00000260: 4777 d63d b734 d83c 4e1f 8e3d 792d 033d
00000270: 3d11 613e e3a2 853e 8673 5cbc eefe 713d
00000280: 297d d63b 56d4 c13b b613 9abb dd40 843e
00000290: 2b2a 933e e6ca a13d 672f 9b3e 796e 893e
000002a0: f543 d93c 585d 3a3d b45d 85bd 42e6 443e
000002b0: 44da 473d 6de4 8d3d 769c a23d 9174 67be
000002c0: ebb5 af3d 0060 71bd faab 7a3d cf75 c1bd
000002d0: 2b7a 1fbd 42f6 023e 1156 cdbd 604a 0d3e
000002e0: 4056 493c 2107 893d 2945 4bbd d911 b23d
000002f0: 09fe 03be 4a71 0f3e 627a cebd 2e55 293e
00000300: c3ad 86bc 93ea 9c3c bfa5 6a3d fa93 293e
00000310: 6ffc 7e3e 51de 9a3c 4832 e03c cd06 ef3c
00000320: 1cbe 7e3e 6fd6 39be 1c3d 763e b2bf e6bd
00000330: c2de fbbd 6104 553e 2183 e13d a43c e23c
00000340: c3ad d8bc e509 393e 157e 8b3d 8673 9f3a
00000350: b337 11be 95de c33d dd8b ba3c 99a4 e03d
00000360: 31c9 09bd 18b0 c83e d6ed 1e3e 75c8 003d
00000370: 2730 d2bc f0ee 4f3d 482b 9dbb a008 c13d
00000380: 37a4 b83d d463 bb3d 00d5 8dbd 9b91 83bd
00000390: f97a 1f3c 16d4 08be 4450 40ba 8ff5 b5bd
000003a0: 455f 4d3c 7514 8abd d64c fb3a 176f dd3d
000003b0: 338a e4bd e102 81be e7a6 d33b f01a 95bd
000003c0: e1a0 883d d4ca ff3d 57b6 2a3d feb4 223e
000003d0: 8749 b2bd ff21 dfbd cefa 6cbb fa29 153d
000003e0: f47b 29be 2dfd 483e bfb9 b2bd f3b4 803e
000003f0: 0d36 27be e14e 063c a922 ff3c a7b8 1b3e
0.11421517 0.23116237 0.24735439 -0.008137167 0.21975937 0.026790686 0.12840939 0.0150716
0.27862522 0.02701375 -0.24768168 -0.10751518 -0.22279046 0.020897534 -0.11921536 0.26343626
0.1315711 -0.012434229 0.0428973 0.021773608 -0.11695579 -0.15259144 0.16644295 -0.016195001
0.13384914 0.06514363 -0.27441686 0.040943477 0.14237557 -0.26545247 -0.07274116 0.19147962
-0.1533339 0.03535195 -0.11085238 -0.17026034 0.20767947 0.21407522 -0.011686568 0.057621755
0.18776856 -0.20642045 -0.068535194 0.08139161 -0.09862456 0.07399346 -0.20404139 0.10389867
-0.056653455 -0.020301303 -0.29234508 -0.06602688 0.07586463 -0.0700253 -0.13681097 0.08364096
-0.14063388 0.04895386 0.3246018 0.3173947 -0.13326061 0.20405109 -0.14420582 -0.11304657
0.057405062 -0.0020998674 -0.07066332 -0.107270196 -0.12423092 0.14792642 0.039892074 0.17773378
-0.19485214 -0.16764861 0.042541083 0.33586314 0.030260913 0.12561083 0.082108535 -0.037982233
-0.15110017 0.047554586 -0.15194355 -0.1414791 -0.0010262101 0.031187063 -0.074391 0.10343696
-0.036992457 0.12016084 0.19924214 0.13273595 0.037450906 0.137203 0.093588926 0.028513938
0.033580773 0.05327023 0.17363106 0.24266616 0.065495946 -0.012343125 -0.052157916 0.22791131
0.09277762 0.27821934 -0.124327034 -0.15351558 0.20484646 0.06772681 -0.07093657 -0.11659923
-0.023951702 -0.057846185 0.19482835 0.12443928 0.25048548 -0.1523122 0.016230455 0.19861498
-0.0056105675 0.22811097 -0.025534961 0.06127752 -0.061816227 0.19422355 0.06127731 0.07718455
0.16044588 -0.041544512 0.06682926 0.053954016 0.102460615 0.22306621 -0.07671694 0.2986607
-0.23156816 0.02397689 0.019318564 -0.031678468 0.01596504 -0.19198565 0.2569748 -0.16988851
0.07336006 0.076419055 -0.15048322 -0.16488941 0.06911413 -0.060117267 0.04729555 0.14068848
0.10471969 0.026392324 0.06939565 0.032025788 0.21979232 0.26100835 -0.013455277 0.05908101
0.006545682 0.005915205 -0.0047020568 0.25830737 0.2874311 0.07900028 0.30309603 0.26842096
0.026521662 0.045499176 -0.06512013 0.19228461 0.04879214 0.069283344 0.07939999 -0.2260306
0.0857962 -0.058929443 0.061199166 -0.09446298 -0.038934868 0.12789252 -0.100261815 0.13797903
0.01228863 0.06690813 -0.049626503 0.086948104 -0.12889875 0.1400806 -0.100819364 0.165364
-0.016440278 0.019154822 0.057286974 0.16560355 0.24900983 0.018904837 0.027367726 0.029178048
0.24877208 -0.18148206 0.24046749 -0.11267032 -0.12298347 0.20802452 0.11011339 0.027616806
-0.026450044 0.1807018 0.068111576 0.0012165166 -0.14181404 0.095639385 0.02277177 0.109688945
-0.033639137 0.3919685 0.15520415 0.03144117 -0.025657726 0.050764978 -0.0047964193 0.09425473
0.090156965 0.091499 -0.06925392 -0.064242564 0.009733909 -0.13362154 -0.0007336179 -0.08884727
0.012534921 -0.06742183 0.0019172679 0.10812204 -0.11159172 -0.2519751 0.0064591053 -0.072805285
0.0667131 0.12489858 0.0416778 0.15889356 -0.087054305 -0.10895156 -0.0036160233 0.036416985
-0.1655119 0.19627829 -0.087268345 0.25138053 -0.16329212 0.008197517 0.031144457 0.15207158

sequential/lstm/Read_2/ReadVariableOp f4 [64]
00000000: fbd6 813e e3ff 853c 0b41 2ebd 65a7 693e
00000010: a8c0 4d3d 38ff 083e e48a 103e 1490 023c
00000020: 0af3 93bc fd3d 923d 6fd5 9ebd abb8 e13d
00000030: a073 a93d cc06 703c 12d9 893d 4574 863d
00000040: 5ae4 803f d15c 9c3f 8b55 7d3f 8d13 b53f
00000050: d83f 8a3f 22b2 823f a068 853f cfb3 5c3f
00000060: 07bc 923f 87ff 733f a579 703f eea7 6a3f
00000070: 840d 783f baa5 7e3f e872 863f 3eb9 693f
00000080: 8ba2 f33e cbf0 12bd 74be 143e ebd0 613e
00000090: 60cb 063e d79f 4d3e 513c 103e ce51 b83d
000000a0: 8fb0 cebd d227 603d 17d3 133d c6a8 883e
000000b0: d203 243b 46c6 9d3b a8ea 28be 7357 d63d
000000c0: c803 a13e 0721 253e f509 233e 60b2 543e
000000d0: 2b02 373e d7e4 9a3e 8437 573e 06df c73d
000000e0: 6930 9a3d fac1 573e 3e15 ce3d 6ae1 333e
000000f0: bbbc 553e bf57 193e 8e3a 8e3e 7511 863e
0.2535933 0.016357368 -0.0425425 0.22817762 0.05023256 0.13378608 0.14115483 0.007968921
-0.018060226 0.071407296 -0.07755553 0.11021551 0.08274007 0.014650058 0.06730856 0.065651454
1.0069687 1.2215825 0.98958653 1.4146591 1.0800734 1.0210612 1.0422554 0.86211866
1.1463631 0.9531178 0.93935615 0.9166249 0.96895623 0.9947163 1.0503817 0.9129828
0.47584948 -0.03587417 0.14525777 0.22052352 0.13163519 0.20080505 0.14085509 0.08999978
-0.1009227 0.054725476 0.036089983 0.26691264 0.002502669 0.004814896 -0.16495764 0.10465898
0.31448197 0.1612588 0.15921767 0.2077117 0.17871921 0.30252716 0.21017271 0.09759335
0.07528765 0.2107009 0.100626454 0.17566457 0.20872776 0.14974879 0.2777905 0.26185194

sequential/lstm_1/Read_2/ReadVariableOp f4 [64]
00000000: c5cc c4bd 7db0 eb3c 9b2e 163e 6195 753c
00000010: 282e 553e 9cb0 0cbd 8a77 9fbc dfbe e93d
00000020: 4c1d ba3d 0ca3 183e 489c 2d3d ab18 663e
00000030: 6a51 213e 5ca6 fb3d 7a6e 453e 3b89 803e
00000040: adea 7c3f a5d3 8c3f 25c2 943f 0590 7f3f
00000050: 36db 943f 9843 893f e2ba 8f3f 31dd 883f
00000060: ce0b 833f e4f7 8a3f e19e 913f 6a54 923f
00000070: e88a 903f e5ae 933f abc6 8b3f 4124 853f
00000080: ea06 7dbd 8536 903d 1d23 21bd 3f62 013e
00000090: 71f6 89bb 4d4a 9e3d f817 f33d ae8a 2a3d
000000a0: b7fb 55bd 6937 bebd 4c91 10bd 5474 4c3b
000000b0: 1748 00bd 0648 8abd bec9 283d a924 303e
000000c0: ac86 a2bd bb96 f63d 3a26 383e 2097 323d
000000d0: a4fe ca3e 3d61 643d 0eb6 fa3b ac97 8a3e
000000e0: 8ec1 d93d a3f3 133e f2d3 fe3d ec20 993e
000000f0: ebc0 6b3e 489d 513e 2740 823e 7c7f 153e
-0.09609369 0.02877068 0.14666216 0.014989228 0.20818388 -0.034348115 -0.01946618 0.11413359
0.09087619 0.14905947 0.04238537 0.22470348 0.15753713 0.1228759 0.19280425 0.251047
0.98795587 1.1002089 1.1621748 0.9982913 1.1629398 1.0723753 1.1228907 1.0692502
1.0237978 1.08569 1.1376611 1.1432011 1.1292391 1.1537749 1.0920004 1.0401689
-0.061774172 0.07041649 -0.039340127 0.12635134 -0.0042102863 0.077290155 0.11869806 0.04163616
-0.052242007 -0.092879124 -0.035294816 0.0031197267 -0.03131875 -0.06752019 0.04120802 0.17201485
-0.07935843 0.12040468 0.17983332 0.043601155 0.396474 0.055756796 0.007651097 0.2706884
0.10632621 0.14448409 0.12442769 0.2990793 0.23022811 0.20470154 0.2543957 0.14599413

sequential/dense/BiasAdd/ReadVariableOp f4 [32]
00000000: a80a 193e 99e8 a53d f0c4 aabc 2d2f 613d
00000010: 021a fc3d 4c8c d4bd 3a3f 113e aef7 a4bc
00000020: 3aa4 28be 2346 813c 5c30 5c3d c97b e93d
00000030: 4004 15bd d7db 37bd 9790 ae3d b05e 16be
00000040: 93ed 153e c20e 1a3e 5534 133e 2f20 d43d
00000050: a4c1 e63d d3c0 083e 9e5a 4dbc 7395 61bc
00000060: fd12 243e 0c50 d13d e6e5 a53d 9af7 a23d
00000070: eda2 4d3d 976c 70bd 58e7 38be 55c6 acbb
0.14945471 0.08101005 -0.02084586 0.05497663 0.12309648 -0.10378322 0.14184275 -0.020137634
-0.16468897 0.015780514 0.053757057 0.11400563 -0.036381006 -0.04488739 0.08523672 -0.14684558
0.14641409 0.15044692 0.14375432 0.10357701 0.11267403 0.13354807 -0.012533812 -0.013768542
0.16022868 0.10220346 0.0810049 0.079573825 0.050204206 -0.05869731 -0.18057 -0.0052726665

sequential/batch_normalization/FusedBatchNormV3 f4 [32]
00000000: da66 993f 3691 e93f 60ad 8140 c7e5 f43e
00000010: 8b80 a240 4c6b 2240 84f5 d63e 1db9 3041
00000020: 521a e140 2208 7b40 1028 d840 c770 b13e
00000030: 1dc2 a741 c18f b140 d246 d33e 32d3 9c3e
00000040: 012c a340 07c6 ab3e dc20 8040 4f16 5b3f
00000050: 2abe 9e40 2545 db3f 8c1e 383e b46a 4a3f
00000060: e590 0640 2734 b83f a062 e93f 7368 343e
00000070: 6577 9e3f a3e9 e83f fb36 1c3f ae95 cb3f
1.1984513 1.824744 4.052414 0.47831556 5.0781913 2.537799 0.4198419 11.045194
7.034463 3.9223714 6.7548904 0.34656355 20.969782 5.548798 0.4126497 0.3062988
5.0991216 0.3354952 4.004011 0.85580915 4.9607134 1.7130476 0.17980403 0.79069066
2.1025937 1.4390916 1.8233223 0.17617969 1.2380186 1.81963 0.61021394 1.5905054

sequential/batch_normalization/FusedBatchNormV31 f4 [32]
00000000: f5fb 8cbe 363a 3dbe 3020 6ebf 96cd 85be
00000010: 83ba 09be 2bc3 ecbd d247 f0bd a2fe 39be
00000020: 443b b0be 1702 43be e492 25be 4b32 1fbe
00000030: ce73 f1be 206a 9bbf c961 57be fd08 3ebe
00000040: 69ac 60bf 97dc 80be cc8e 21bf 8cf0 4bbe
00000050: c5cf 2abf eb1e dfbe 189b 22be 2ea0 61be
00000060: e559 f4bd f5b8 efbe cfb8 aebe 0808 0cbe
00000070: c014 62be 4606 d4bd ee09 1fbe b28d 90be
-0.27535978 -0.18479237 -0.93017864 -0.26133412 -0.13450055 -0.11560663 -0.11732449 -0.18163541
-0.34420216 -0.19043766 -0.16169316 -0.15546529 -0.47158664 -1.2141762 -0.21033396 -0.18558116
-0.8776308 -0.25168297 -0.63108516 -0.1991598 -0.6672328 -0.43578276 -0.15879476 -0.2203376
-0.119312085 -0.468208 -0.34125373 -0.13674939 -0.22078228 -0.10352759 -0.15531132 -0.28233105

sequential/batch_normalization_1/FusedBatchNormV3 f4 [64]
00000000: 306b 053f a714 a33e d408 1b3e aedc 2a3f
00000010: 9d3b b83e ecb1 cc3e 6b07 c83e 267b 653e
00000020: 5e30 913f ad52 313f 6961 283f 4751 fb3e
00000030: 5f70 713f 6c65 9c3e 50d4 483f 1994 023f
00000040: 0ee8 c43e 741e 6a3e 8a81 cf3e 7efd d63e
00000050: 2d20 293f 8713 923f 9958 b83e d9f1 fd3e
00000060: 417e 163f e224 313f 9694 3f3f 6f3c 053f
00000070: 2fff 003f e364 6d3f 3ca7 3b3e 44d3 d83e
00000080: d955 8f3f 9ed5 1e3f dc92 c03e c642 ff3e
00000090: 9da4 503f 614a a53e f9f6 523e a4e6 a63e
000000a0: 5ee1 1a3e 23d8 543f a57c 793e 08b0 353e
000000b0: c75c f83e 9753 153f 77d7 db3e ff69 333f
000000c0: 65ec 673e cd7e a43e 43df 843f c5e2 0b3f
000000d0: 73d6 493f de3d 973e 5dc7 403f 6e25 423e
000000e0: 1fc3 e13e dc41 a13e 68d0 5a3f cad1 de3e
000000f0: 7daa 9e3e 7196 633f 57ce d73e cbbc 383f
0.5211668 0.31851694 0.15140086 0.6674298 0.3598298 0.39979494 0.3906816 0.22410259
1.1342885 0.6926678 0.65773636 0.49085447 0.9431209 0.3054613 0.78448963 0.5100723
0.38458294 0.2286318 0.40528518 0.41990274 0.6606472 1.1412209 0.36005095 0.49598578
0.587864 0.69196904 0.748361 0.5204534 0.5038938 0.92732066 0.18325514 0.42348683
1.1198074 0.62044704 0.37612045 0.49855632 0.8150118 0.3228331 0.20602025 0.3259784
0.15125033 0.831423 0.24363954 0.17742932 0.48508283 0.5833067 0.42937824 0.7008361
0.22648771 0.3212799 1.0380634 0.546429 0.7884285 0.29539388 0.75304204 0.18959591
0.44094178 0.3149556 0.8547425 0.4351943 0.30989447 0.8890143 0.42149612 0.72163075

sequential/batch_normalization_1/FusedBatchNormV31 f4 [64]
00000000: 8141 3cbf ac66 50be 8817 e5bd 42bd 50bf
00000010: f3c0 62be 9b96 d1be 11c6 dfbe d2fc b7bd
00000020: 5661 42bf 669b 24be 7a06 fabe 3166 c6be
00000030: cb8e 6abf 0025 d7be b7c8 3cbf 01f3 d3be
00000040: af40 53be a66c 12be 382f 0cbf 96fd bbbe
00000050: 8e4e 59bf 2a5f 9abf dd4c c4be 5242 59bf
00000060: 61c2 79bf 275a 79bf 3f91 f0be 4287 a6bf
00000070: a541 14be 5176 98bf b3db f9be fe2a a6be
00000080: b470 5ebe 0231 94bf 745d 8fbf ef78 1fbf
00000090: c85f 5fbf e86a e3bd 547d 4a3d a045 51bd
000000a0: 12b3 26be fb1d 97bf fe69 a6be 28c5 65bd
000000b0: aed0 96be 4781 4fbf 0a33 27bf e9c3 25bf
000000c0: a6d6 2bbe 60f5 1bbf 38c2 87bf 4684 88bf
000000d0: 908b 0abf f0c9 70bc 1c83 90bf 2d3c 20be
000000e0: 93a8 80bf 4ad4 2dbf 6f27 33bf d213 05be
000000f0: a41c 33bf 8354 6cbf 8c8a fdbe 8138 1dbf
-0.7353745 -0.20351666 -0.11186129 -0.81538785 -0.22143917 -0.40935215 -0.437058 -0.089837685
-0.7592977 -0.16074905 -0.48833066 -0.3874984 -0.91624135 -0.42020416 -0.73743767 -0.41396335
-0.20630144 -0.14299259 -0.5475955 -0.36716908 -0.8488549 -1.2060292 -0.38339892 -0.8486682
-0.97562224 -0.97403187 -0.46985814 -1.3010027 -0.14478166 -1.1911107 -0.4880043 -0.32454675
-0.2172268 -1.1577456 -1.1200395 -0.62293905 -0.87255526 -0.11104375 0.04943593 -0.05109179
-0.16279247 -1.1806024 -0.3250274 -0.056096226 -0.29456085 -0.81056637 -0.65312254 -0.6475206
-0.167811 -0.6092129 -1.0606146 -1.0665367 -0.54119205 -0.014696583 -1.1290011 -0.15647955
-1.0051445 -0.6790205 -0.69982046 -0.12995842 -0.6996558 -0.92316455 -0.49519765 -0.61414343

sequential/batch_normalization_2/FusedBatchNormV3 f4 [128]
00000000: dbf9 113e 3de0 c93e 25f9 dd3d f412 b83e
00000010: 6e92 d83d 03a7 1b3f ddb8 a53e 727a 8f3d
00000020: ad68 c63e e891 7b3f 4023 ef3e 4efe b13e
00000030: 8814 843e 98d5 233e eecf d53d 7040 063f
00000040: a2e8 543f c3c5 d83e 6861 1a3e f4a7 1f3e
00000050: 4d88 373f bee8 023f 98a1 9f3e 44b1 c13e
00000060: cdff 663e 3759 8e3e 3b36 513e 1626 ac3e
00000070: f2ab 193e 028a fd3d c3c2 033f 16d5 f53d
00000080: 13cb 8f3e faac 5e3e 5f94 b93e 8398 613e
00000090: e5ab 753e 38cd a03f 6ce8 713e e448 ce3e
000000a0: a1a9 f13f 5036 c43e dae5 bb3e 1a36 b23e
000000b0: 70e8 4d3f d21d c13e d3b7 b93e 9101 d03e
000000c0: bca1 a83e 043e a33e 30c9 853e 6f5c 373e
000000d0: 38a6 ac3e 420f 7b3d ed5d 123f 7183 523f
000000e0: ce71 af3f e111 523f 0362 be3e 8d29 273e
000000f0: 00a7 403e 514f 3c3f 3ca0 b23d 6cd6 c93e
00000100: da45 dd3d 7453 283e e43e 8d3d 23e2 de3e
00000110: b423 a13e 438d e83e 4bf0 e93e a59a cd3e
00000120: cf18 223e ff1b db3d 64ca 803e d5bf 513e
00000130: e4db 6e3e 7763 e23d 70cd a63e 786b aa3f
00000140: 744c ba3e 366c be3e efd3 a53d 7c36 803e
00000150: 14d4 0f3e daa4 943e 4891 b63f 76d2 1f3f
00000160: b23d 413e 4c68 993e 0bab dc3e 8420 863f
00000170: 0b5e 4b3f e367 a63d ab9f 823e 55d1 a03e
00000180: 7911 153e d521 fd3e f7c8 603e d329 f03e
00000190: 08c7 2f3f 5f17 b23d 1be6 573e 36d6 1d3f
000001a0: 2df6 c53d 1617 cb3e 8544 293f 1c71 8a3e
000001b0: 352a 453f f0ef 383e dfbf 933e e001 403f
000001c0: d781 ed3d 4d1d 563e 8fe3 0c3f a0ac 383e
000001d0: 76d5 a23e 74af c43e 4d25 e83d 0608 bc3d
000001e0: cfc2 be3e 0beb 993e 040d f33d 83b5 1d3e
000001f0: cbe4 1e3e 21b5 c13e d66a 4d3e 6c60 063e
0.14255469 0.39428893 0.10838536 0.3595196 0.10574804 0.60801715 0.32367602 0.070057765
0.38751736 0.9826951 0.4670658 0.34764332 0.25796914 0.15999448 0.1044005 0.52442074
0.8316747 0.4233838 0.1507622 0.15591413 0.71692353 0.51136386 0.31177974 0.37830555
0.22558518 0.2780244 0.20430844 0.33622807 0.15006998 0.123798385 0.5146906 0.120035335
0.2808462 0.21745673 0.3624601 0.22030835 0.23991354 1.2562628 0.23623818 0.40289986
1.8879892 0.38322687 0.366988 0.348069 0.80432796 0.37718064 0.3627306 0.40626195
0.32935894 0.31883252 0.26130056 0.17906354 0.33720565 0.061293848 0.5717457 0.82231814
1.3706605 0.8205853 0.37184152 0.16324444 0.18813705 0.7355853 0.087219685 0.39421403
0.10804339 0.16438085 0.06896761 0.43531904 0.31472552 0.45420274 0.4569114 0.40157047
0.15829776 0.10698699 0.25154412 0.20483334 0.23326069 0.11054128 0.3257861 1.3314047
0.36386454 0.37191933 0.08097064 0.25041568 0.14045745 0.29032022 1.4263086 0.6243051
0.18871191 0.29962385 0.43099245 1.0478673 0.79440373 0.081252836 0.25512442 0.31409708
0.14557447 0.49439874 0.21951662 0.4690691 0.6866307 0.08695864 0.21083872 0.61654985
0.09666095 0.3966605 0.6612018 0.2703942 0.7701753 0.18060279 0.28857324 0.7500286
0.115970306 0.20909615 0.55034727 0.18034601 0.31803483 0.3841511 0.113352396 0.09181218
0.37258002 0.30062136 0.11867717 0.15401272 0.15516965 0.37833503 0.20060286 0.1312272

sequential/batch_normalization_2/FusedBatchNormV31 f4 [128]
00000000: e385 9ebe 34bd 04bf acd3 3ebd c088 973b
00000010: 94f1 94bd ce6c a3be 3852 2fbf d0c5 8abe
00000020: 75d7 0dbf 4093 70bb 2a46 6abe ebc8 05bf
00000030: 973d d1be 7419 76bd 4ceb b7be 386b efbe
00000040: 76e0 eabe d956 aebe 68d9 0dbf 423b c2be
00000050: f203 9ebe a4d2 91bd 755d 37bf 8088 babb
00000060: 8ab0 4ebf 4cad cdbe a914 1ebf cd8d c4be
00000070: 9eaa 96be 5833 95be fb02 34be b59e 38bf
00000080: c0d6 fa3b a768 96be 0627 dfbe 6e36 d5be
00000090: c6e5 8ebe 0e86 a0be 6ae0 93be 628f ddbe
000000a0: 85c1 60be 8032 24bc cac2 b9be 0479 b8bd
000000b0: d317 18be ba31 c0be 4cf6 bebe c919 59be
000000c0: aed3 8cbd 5dbc 24be dd52 9abe 978c fcbe
000000d0: 859d 19bf 4630 9fbe 4362 e2be 7973 13be
000000e0: 00d0 a2bb 4ec9 24bf 3491 f1be 988e 1bbd
000000f0: b06b 33be 6dde fcbe b931 b5be 705d 21bf
00000100: 31c4 dcbe 1d41 a5be 9a75 e4be be5f 96be
00000110: e746 dcbe ad9b 2dbe 03e2 92be 3076 7ebe
00000120: 7229 98bd e4f9 26bf 0880 d4be fa37 9cbe
00000130: 45d5 afbe ddc1 95be c826 1abe 2451 21be
00000140: 662a 90be ad95 debe ce3c 46be b481 84be
00000150: 3c3e 22be 22c1 54be 151f f4be 0ed5 abbe
00000160: 44a7 84be 7c25 69be ddbc 28be 1cfb 38be
00000170: efa5 41bf e45b 0ebd f0d4 ccbe a008 1ebf
00000180: 70a5 c7be 51c1 a8be 82e7 55be 2211 03bf
00000190: 207e bdbe 3b27 04be a57e 95be c0ec 21bf
000001a0: 88fa 01bf 007c b6bd 1a42 d3be 91cc dabe
000001b0: 80d5 d2be 1f13 dcbe 0a0c 58be a6b8 f6be
000001c0: 06ad 97bd 2d80 95be 6258 12bf 231a a1be
000001d0: f8fb 26bf 12e8 04be 803b 44be b405 0abf
000001e0: 43db 0fbf beb4 73bf e7f0 15bf 8081 cb3b
000001f0: e2c9 bdbd b1f7 c2be 0497 81be b674 eabe
-0.30961522 -0.518512 -0.046588585 0.004624456 -0.0727264 -0.3191895 -0.6848483 -0.27104044
-0.55406886 -0.0036708862 -0.22878328 -0.522597 -0.40867302 -0.060082868 -0.35921705 -0.4676149
-0.45874375 -0.34050635 -0.5540986 -0.37935835 -0.30862385 -0.07120255 -0.7162698 -0.0056925416
-0.8073813 -0.40171278 -0.61750275 -0.38389435 -0.29427046 -0.29140735 -0.17579262 -0.7211717
0.0076549947 -0.29376718 -0.4358446 -0.4164309 -0.27909678 -0.31352276 -0.28882152 -0.43273455
-0.21948822 -0.010021806 -0.36281425 -0.09007457 -0.14852838 -0.37537938 -0.37297285 -0.21201243
-0.06876312 -0.1608748 -0.30141345 -0.49326012 -0.6000598 -0.31091517 -0.44215593 -0.14399518
-0.004968643 -0.64369667 -0.47181094 -0.037977785 -0.17521548 -0.49388447 -0.35389498 -0.630332
-0.43118432 -0.3227624 -0.44620973 -0.2936992 -0.43022844 -0.16953917 -0.28688058 -0.24849772
-0.0742978 -0.6522505 -0.4150393 -0.30511457 -0.343424 -0.29249468 -0.15053856 -0.15753609
-0.28157347 -0.4347357 -0.19359133 -0.25880206 -0.15844053 -0.207768 -0.47679964 -0.33560985
-0.25908864 -0.22768205 -0.16478296 -0.1806454 -0.7564382 -0.034755602 -0.40006208 -0.6173191
-0.38993406 -0.3295999 -0.20889094 -0.5119802 -0.37010288 -0.1290559 -0.29198185 -0.63251877
-0.50772905 -0.0891037 -0.4126137 -0.42734197 -0.41178513 -0.42983338 -0.21098343 -0.4818775
-0.074060485 -0.29199353 -0.5716611 -0.31465253 -0.65228224 -0.12979153 -0.19163322 -0.5391495
-0.5619394 -0.95197666 -0.5857071 0.006210506 -0.09267022 -0.380796 -0.25310528 -0.45792168

sequential/dense/MatMul f4 [32, 16]
00000000: dadd 603e ce0b 46bf 40a5 213f a624 cabe
00000010: daa9 303f d288 e5bc 92e0 ce3c 5d7b f9bd
00000020: cca2 e8be cc26 153f 8fb8 0a3f 4089 2d3e
00000030: 42c1 f8bb 898e 9b3d a821 1abe 1e37 15be
00000040: d620 aebe 6892 d6be 1ad4 d33e 549a 4d3e
00000050: a6b7 b63e 5cee 63be 658f b93e 790d 53be
00000060: 6307 08bf c630 ddbd dc41 da3e 6cc5 cdbc
00000070: 0bf0 7dbe acc1 553e c7fa bebd a8c6 90bd
00000080: ad45 c03d 89b0 553e 134a 9cbe c372 933e
00000090: e207 0fbf 6570 3cbd ff8b 9abe a28a 90bd
000000a0: a6b1 a2bd b882 bf3b b72e 0d3e c9ee f7bd
000000b0: f4b0 d6bc c3c8 50bd 78c3 b63e cd3c aabe
000000c0: 2aad 253d 8a52 bb3d a078 debd bce2 173e
000000d0: 71f5 31bf bc97 e23e 471c fb3d 54a7 043f
000000e0: c831 3e3e e1fb 9cbe dab3 edbd 6404 10bf
000000f0: 9842 013f 1dc5 00bf 0499 373f 8a4c 9d3d
00000100: 5454 33bd 5fee 16bd d214 3c3e 5b1a 9cbc
00000110: 4611 943e d984 573d 3318 9a3e cdaa e3be
00000120: 762f e6be 5441 983e cfae d73e 2be7 9c3e
00000130: 4e99 6fbe 13f2 403e ed3d e0be 7262 dcbd
00000140: 3dfe 8e3e e5bc 11bf 7060 1a3f 416b 48be
00000150: 69ae 713e 9823 17be 4af5 1dbd 6b3c 213e
00000160: d90f 04be bf85 2f3f e91f d03e 5cb3 2cbe
00000170: 00bb 263e 4cc9 293f b195 87be 70fd 0fbf
00000180: 1e13 bcbd c5dd a0be cd07 d03e 0b67 88bd
00000190: 863b f33e 1aa3 323e e354 c53e 699c acbe
000001a0: 7014 debe c155 16be 74d6 9d3e fb62 0f3f
000001b0: ff68 c6be ab56 723e 802d dcbe 4e99 543e
000001c0: 7838 0b3d bc21 31be 137a 59be c2d5 04be
000001d0: ff97 0cbf f61f 943e 699e fabc f5be 863e
000001e0: 73be bd3e 868e 5fbe 859a a0bd 45e0 76bf
000001f0: b6c9 4a3f f320 4dbe e309 0a3f 5ee4 8d3d
00000200: 33f2 d93e a81f dcbd b9c6 573d 5c5d adbd
00000210: 4bf3 583c 9b03 af3d c960 8a3d 2884 05bf
00000220: cbb5 d63d ec5f 453d 0360 473e 469b b63e
00000230: 8aea 413e ed76 063f 0e92 123d 1c81 81bd
00000240: 7c62 633e 6e24 1ebf 771e 183f 33d9 17bf
00000250: 05de 0c3f f15a 26bd b692 efbc 32e5 1bbe
00000260: d3b7 3c3e b073 e43e 7552 303f d9fd ad3e
00000270: 19e0 613e ba27 1c3f 7be5 8dbe d7be b9be
00000280: 89eb ae3d dbd7 25be 648b 173f bec2 163e
00000290: b86d 3e3e a026 adbd ccff 94be 8ccf 283a
000002a0: d9ab 9dbe b33e 75bd 1413 e13e 8e67 31bd
000002b0: 346c a1bd 59b8 533c 309c 06bf b7e6 1dbe
000002c0: f643 a0be be5d e5be afc0 163f 0496 dfbe
000002d0: 3084 183f 0b0e 9cbe 4ab7 71be a0d4 01bf
000002e0: e190 26be 6aa4 1c3f 809e a03e 60be c83e
000002f0: 8aa7 0ebf a982 033f 33d1 05bf 0647 77be
00000300: 8d24 b43e aaa5 02bf 4915 9f3e a8a6 163e
00000310: 29f0 a73e 36a8 e6be d9b8 213d 9639 80be
00000320: 02d4 2c3e e69c 3f3e b879 883d 50e6 9ebe
00000330: 0e4d ff3c e39e 413e e7c4 d8bb ec4f e2be
00000340: c662 303e 434c f5bd fa41 77bd 0b9f 253e
00000350: 32d5 19bf 2235 7bbd 0440 733e c26c 163f
00000360: af43 6b3f be46 623e f3a2 b9be 67fb 54bf
00000370: 78fa 6b3f 647b 9fbe 4ed8 0a3f f7ca 1fbe
00000380: a8ae 26bd 400e 33bf bac8 053f ef5a 69bd
00000390: 7fe4 fc3e a699 90be 8a3d 97be f12d 00bf
000003a0: 5dcc c23c 9071 983d 6bb8 1f3f 0fbc 28bd
000003b0: 2c89 04bf 7424 063f daa9 aabd 02f5 12bf
000003c0: 98a5 d33d e1fb 7b3e c300 06be 751f a9bd
000003d0: 6cc9 d8be 1ee1 dc3d b25a 8b3e 5997 813e
000003e0: e2fb c93e 02e6 333d 243a 163e b632 39bf
000003f0: bb6e 1d3f f8e4 0f3c a27c b03d a374 d7bd
0.2195963 -0.7736176 0.63142776 -0.39481086 0.6900917 -0.028019343 0.025253568 -0.12181733
-0.45436704 0.58262324 0.54187864 0.16946888 -0.0075913975 0.07595546 -0.15051901 -0.14571807
-0.34009427 -0.41908574 0.41372758 0.20078403 0.35686988 -0.22258896 0.36242214 -0.20610608
-0.5313627 -0.108003184 0.42628372 -0.025118552 -0.247986 0.20874661 -0.09325176 -0.07069141
0.093882896 0.20868124 -0.30525264 0.28798494 -0.55871403 -0.046005625 -0.30184934 -0.07057692
-0.0794404 0.0058444403 0.13787352 -0.121060915 -0.026207425 -0.05097271 0.35696006 -0.33249512
0.040448345 0.091466025 -0.10862851 0.14832586 -0.6951514 0.4425639 0.12261253 0.5181782
0.18573678 -0.30660918 -0.116065696 -0.562567 0.5049224 -0.5030077 0.7171786 0.07680614
-0.043781593 -0.036848422 0.18367317 -0.019055536 0.2891943 0.052616928 0.30096588 -0.44466248
-0.44958085 0.2973734 0.42125556 0.30645117 -0.23398325 0.18842344 -0.43797246 -0.107609645
0.27928343 -0.56928855 0.603034 -0.19572164 0.23601688 -0.14759672 -0.038564004 0.15745704
-0.1289667 0.68563455 0.40649346 -0.16865295 0.16282272 0.6632278 -0.26481393 -0.5624609
-0.09183334 -0.31419197 0.40630952 -0.06660279 0.4750635 0.17445031 0.38541326 -0.3371308
-0.43374968 -0.1468115 0.30827677 0.5601041 -0.3875198 0.23665874 -0.43003464 0.20761606
0.0339894 -0.17298025 -0.21237974 -0.12972167 -0.5491943 0.28930634 -0.030593114 0.26317564
0.37059364 -0.21831712 -0.07841972 -0.9643596 0.79214036 -0.200321 0.53921336 0.06928323
0.42567596 -0.107482255 0.05267975 -0.084650725 0.013241599 0.085456096 0.067567416 -0.5215478
0.10483893 0.04818718 0.1947022 0.3566534 0.18937126 0.52525216 0.03578382 -0.06323454
0.22205538 -0.6177434 0.59421486 -0.59315795 0.55026275 -0.040614072 -0.029244762 -0.1522415
0.18429498 0.44619513 0.6887582 0.33982733 0.22058143 0.6099812 -0.27714142 -0.36278412
0.085410185 -0.16195624 0.5919707 0.14722726 0.18596542 -0.08454633 -0.29101408 0.00064396183
-0.30795172 -0.059874248 0.43959868 -0.043311648 -0.07881966 0.01292237 -0.52582073 -0.15420042
-0.3130185 -0.44798082 0.5888776 -0.4366914 0.595767 -0.30479464 -0.23605075 -0.50715065
-0.16266204 0.61188376 0.31370926 0.39207745 -0.55724394 0.51371247 -0.5227234 -0.24148187
0.35184136 -0.51034033 0.31070927 0.14712012 0.32800415 -0.4505021 0.039482925 -0.25043935
0.1687775 0.18712196 0.06663841 -0.3103509 0.031164672 0.18908267 -0.0066152695 -0.442016
0.17225179 -0.119774364 -0.060365655 0.16173951 -0.60090935 -0.06132997 0.23754889 0.587597
0.9190015 0.22097299 -0.36257133 -0.8319611 0.9217906 -0.31148827 0.54236305 -0.15604769
-0.04069391 -0.6994362 0.5225941 -0.056971487 0.4939308 -0.28242224 -0.29539138 -0.500701
0.023779089 0.07443535 0.62390774 -0.04119497 -0.5177181 0.52399373 -0.08333178 -0.574051
0.10334319 0.24607803 -0.13086228 -0.08257953 -0.42341173 0.10785125 0.27217633 0.25310782
0.39449984 0.043920524 0.14670616 -0.72343004 0.61497086 0.008782618 0.08617522 -0.105202936

sequential/dense_1/MatMul f4 [1, 32]
00000000: 98ef bb3e 94d4 8e3e d957 24be e149 bcbe
00000010: 4b62 ee3e ce11 fc3e 7d44 043f 1659 0ebf
00000020: d3e3 033e a810 b83e 9e92 933e dce5 9d3e
00000030: d915 e73e a6fd 1bbf 644f 2a3f eabd 1bbf
00000040: 7176 f3be 9702 04bf 44a5 0fbf 7a4a 3dbe
00000050: 98a2 c0be 49b5 b9be 0284 b5be 559c 853e
00000060: bc7b f1be ac90 653e 1723 9d3e 6f0d e6be
00000070: 979c 9fbe a251 57be 407e d23c 54cb c63e
0.36706233 0.2789656 -0.16049136 -0.36775115 0.46559367 0.49232334 0.51667005 -0.55604684
0.12879877 0.35950208 0.28822798 0.3083943 0.45133856 -0.6093391 0.6652739 -0.6083666
-0.475513 -0.5156645 -0.5611155 -0.18485442 -0.3762405 -0.36271122 -0.35452276 0.26095834
-0.47164714 0.22418469 0.30690834 -0.44932124 -0.31174156 -0.21027234 0.025694966 0.38827002

sequential/lstm/Read_2/ReadVariableOp1 f4 [64]
00000000: fbd6 813e e3ff 853c 0b41 2ebd 65a7 693e
00000010: a8c0 4d3d 38ff 083e e48a 103e 1490 023c
00000020: 0af3 93bc fd3d 923d 6fd5 9ebd abb8 e13d
00000030: a073 a93d cc06 703c 12d9 893d 4574 863d
00000040: 5ae4 803f d15c 9c3f 8b55 7d3f 8d13 b53f
00000050: d83f 8a3f 22b2 823f a068 853f cfb3 5c3f
00000060: 07bc 923f 87ff 733f a579 703f eea7 6a3f
00000070: 840d 783f baa5 7e3f e872 863f 3eb9 693f
00000080: 8ba2 f33e cbf0 12bd 74be 143e ebd0 613e
00000090: 60cb 063e d79f 4d3e 513c 103e ce51 b83d
000000a0: 8fb0 cebd d227 603d 17d3 133d c6a8 883e
000000b0: d203 243b 46c6 9d3b a8ea 28be 7357 d63d
000000c0: c803 a13e 0721 253e f509 233e 60b2 543e
000000d0: 2b02 373e d7e4 9a3e 8437 573e 06df c73d
000000e0: 6930 9a3d fac1 573e 3e15 ce3d 6ae1 333e
000000f0: bbbc 553e bf57 193e 8e3a 8e3e 7511 863e
0.2535933 0.016357368 -0.0425425 0.22817762 0.05023256 0.13378608 0.14115483 0.007968921
-0.018060226 0.071407296 -0.07755553 0.11021551 0.08274007 0.014650058 0.06730856 0.065651454
1.0069687 1.2215825 0.98958653 1.4146591 1.0800734 1.0210612 1.0422554 0.86211866
1.1463631 0.9531178 0.93935615 0.9166249 0.96895623 0.9947163 1.0503817 0.9129828
0.47584948 -0.03587417 0.14525777 0.22052352 0.13163519 0.20080505 0.14085509 0.08999978
-0.1009227 0.054725476 0.036089983 0.26691264 0.002502669 0.004814896 -0.16495764 0.10465898
0.31448197 0.1612588 0.15921767 0.2077117 0.17871921 0.30252716 0.21017271 0.09759335
0.07528765 0.2107009 0.100626454 0.17566457 0.20872776 0.14974879 0.2777905 0.26185194
